result/aug74_gan_40_model_13.pt (torch, 980414 bytes, 15 tensors)

weight f4 [128, 14]
00000000: a48e 993e 5778 6bbe 33cc f33d da86 62be
00000010: f96d ca3e 0d14 7fbd 4d20 bebe 20f5 88be
00000020: c4cc 803d 0ba6 c13e 218d 4b3e 6c4d 5dbe
00000030: bb4e 053e dd6a 0b3a 1306 153e c984 423e
00000040: dd8d 263e 1851 60be 584a 263e 905d 31bd
00000050: d5e2 a0be c4d3 883e 2286 923d 4464 32be
00000060: 1a39 253e c5c5 9abd 16b1 673e 0ee3 99be
00000070: 6aec 73be ec34 1a3e 4f84 0fbe 1e60 813d
00000080: e3bc 9a3e 07ef 993e 2202 643e 4fa2 73be
00000090: 483c 98be ff4a bcbe 17d2 1c3e 4d35 a53e
000000a0: e01a 06bd 7dbb b73d 8db7 ca3d e3f9 ab3b
000000b0: 028a 8bbd e132 f43d 5ab5 6fbd 03b6 acbb
000000c0: 67a0 8abe 589f 253e a0c4 cc3d 84dd 8bbd
000000d0: 9124 be3d b15a 83bd 81f9 a43d 936e 933e
000000e0: faa6 dc3d f2a7 1e3e 0d18 bbbd dfe1 e33d
000000f0: 21df 803e 22cd 0dbd 40ed 41be f19e 0e3e
00000100: d3a3 d4bd 7f19 6ebe 871d a2be b88a 9d3d
00000110: 9a3c 3bbd 82a6 e43e 1b21 2c3d d290 33be
00000120: a39e 20be bf00 3fbe 46eb 0d3e 9588 07be
00000130: eb58 20be fc44 d43d f377 bcbd 0333 f8bc
00000140: 361e 1c3e 1397 4abd 9814 163e 4168 78be
00000150: 4cc0 b9bd 485c 013b 41ff 713e 7a58 23be
00000160: 6c22 5c3c 2781 c43b 249b 783b 7ea9 833e
00000170: 5b4b b23e 91f5 6bbe edba 0cbe aa57 b9bd
00000180: 858c 523e 9052 ab3e c65b 37be c7a1 e23d
00000190: e29e 6b3c a082 22be 503e 1a3e c5cf d5bd
000001a0: 8cb3 ddbd b69b 0a3d e26a debd cd25 83be
000001b0: a20f 8abe 0696 2fbe dce5 623d f584 98be
000001c0: d817 273e 785a 45bd dbda dd3c fb8c 473e
000001d0: 6aad a6bd 476e 7bbd 8fbf b43e 64ad 043e
000001e0: 89b2 d13c fe74 5f3e 48ec b9bd 1fb2 6fbe
000001f0: 8586 05be 8232 f4bc 8a6d a4bd 193b 553d
00000200: 0b7a 04be 0971 103e 33c8 323e c83f a53d
00000210: ab0c 1f3e f3c2 7a3e 41fa d93d a61b 9e3e
00000220: e588 043e 7c74 963e 1bfb bbbd e18d 6cbe
00000230: 2162 2fbe bf8e 153e aacb e13d 9448 e5bd
00000240: 7c0a 1cbd d22e b83b 506e 8c3e 9eff 733e
00000250: 626e 2fbe 7e20 353e 7d5d 473e 3890 cfbe
00000260: ed39 34be 8c82 1fbe b7a1 6abe 3f15 293e
00000270: 1aa0 643e 4099 293d 1ed7 543e c278 823e
00000280: 20be 9cbe 20e2 79bd 74a9 1ebe 5f63 9dbd
00000290: eec7 07be 62f4 cf3e f54a bcbd d69e 593e
000002a0: 1519 113e 7e18 83be 2317 0b3d f5cc bb3d
000002b0: 95ed 28be 1a6b e93d be83 19be 2448 9f3c
000002c0: 8d36 ad3e 9d17 1f3e 8267 89be de4b 8f3e
000002d0: dd86 85bd 35bb e3bd 3458 37be c458 f3bd
000002e0: e765 6ebd d3fe 85bc 8eea 94bd c95c a83d
000002f0: 5bd3 943e bba5 353a f41b c5be 40c8 413e
00000300: 55cf f43d 639d e9bc 9dbd f9bc 224f b1bd
00000310: fc6b 7ebe e05e 85be 3ae4 543d 631a b73b
00000320: 21d2 963e 46bb 67bd 1325 33be 7ccd d9bd
00000330: cb07 82be f804 0e3e 1611 22bd faf9 ddbe
00000340: e0af a23d 46e3 9cbe 077c e33c 03c8 ebbc
00000350: 929c 55be 189a 023b 7c2c d03d cee6 18be
00000360: b10c 57bd 9c44 943d cd77 afbd 3de0 4a3d
00000370: b635 ab3d 7c6b e5be 8445 00be 7b16 00bf
00000380: 1ad6 ab3e 47d0 39be f68b 9bbe 32e2 af3c
00000390: a27f 7cbe 03ad b2bd d69a e23d 3cd0 133e
000003a0: 50e8 333c ce87 debc 7acd 0c3e 3c8b 333e
000003b0: 08ae 203e d35f 533e 222f 383c c6b0 cb3d
000003c0: f631 a4bd 14cf d03d d4da 2bbe 2598 4dbe
000003d0: a3bd 553e 9290 3b3e 5a4a 85be f8a7 173e
000003e0: 55d0 abbe f4d1 9ebe 65e8 fabd c28e 27be
000003f0: 7956 1e3e 3047 61be 8c00 9abe d62e 923e
0.2999164 -0.22995125 0.11904182 -0.22121754 0.39537027 -0.06227498 -0.3713402 -0.26749516
0.06289056 0.37821993 0.19878055 -0.21611565 0.13018315 0.0005318353 0.14553098 0.18995966
0.16265054 -0.21905935 0.16239297 -0.04330212 -0.3142306 0.26724064 0.0715449 -0.17421061
0.16135064 -0.07557253 0.22626147 -0.3005604 -0.23820654 0.1505925 -0.14015315 0.06317161
0.30222234 0.30065176 0.22266439 -0.23792385 -0.2973349 -0.36775967 0.15314518 0.32267228
-0.032740474 0.089713074 0.09898291 0.0052482947 -0.06813432 0.11923767 -0.05852256 -0.005270721
-0.27075502 0.16174066 0.09998441 -0.0682936 0.09284318 -0.064137824 0.080554016 0.287953
0.10774036 0.15493754 -0.09135447 0.11127066 0.25170234 -0.034619458 -0.1893816 0.13927819
-0.103828095 -0.23251913 -0.31663153 0.07692474 -0.04571209 0.44658285 0.04202376 -0.17535713
-0.15685515 -0.18652628 0.13859281 -0.13235696 -0.1565892 0.1036472 -0.09202566 -0.030297762
0.152459 -0.04946048 0.14656293 -0.2425852 -0.09069881 0.0019738842 0.23632528 -0.1595172
0.013435941 0.0059968415 0.0037934268 0.2571525 0.34823117 -0.23042895 -0.13743182 -0.09049924
0.20561416 0.33461428 -0.17906103 0.11066013 0.014381142 -0.15870142 0.15062833 -0.104400195
-0.108252615 0.033839904 -0.1086023 -0.25614777 -0.26965052 -0.17147073 0.055394992 -0.29788938
0.1631769 -0.04818198 0.027081897 0.19487374 -0.08138545 -0.061384466 0.35302398 0.12956768
0.025597828 0.21821973 -0.0907827 -0.23407792 -0.13039596 -0.02980924 -0.080287054 0.052058313
-0.1293718 0.1410562 0.17459182 0.08068806 0.15532176 0.2448843 0.10643435 0.3088047
0.12942846 0.29385746 -0.09178754 -0.23100998 -0.17127277 0.14605235 0.11025174 -0.11195484
-0.038095936 0.005620816 0.27427912 0.23827979 -0.17131951 0.17688176 0.19469257 -0.40539718
-0.17600222 -0.15577143 -0.22913252 0.16512011 0.22326699 0.041405916 0.20785186 0.25482756
-0.30613804 -0.061006665 -0.15494329 -0.07684969 -0.13259861 0.40616137 -0.091939844 0.21251997
0.14169724 -0.25604624 0.03395761 0.09169952 -0.1649688 0.11397381 -0.14991662 0.019443579
0.3383068 0.15536352 -0.26836783 0.2798757 -0.06519864 -0.11119691 -0.1790474 -0.11882165
-0.05820265 -0.016356861 -0.072713 0.08220822 0.290675 0.0006929298 -0.3849789 0.18924046
0.11953608 -0.02851743 -0.030485922 -0.086576715 -0.2484588 -0.26048946 0.051975466 0.0055878623
0.2945719 -0.056575082 -0.17494611 -0.10634896 -0.2539657 0.13869083 -0.039567076 -0.4335478
0.07943702 -0.30642146 0.027769102 -0.028781896 -0.20860508 0.0019928273 0.10164735 -0.14931795
-0.052502338 0.07239649 -0.08567772 0.049530257 0.08359854 -0.44808567 -0.12526518 -0.500343
0.33561784 -0.18145858 -0.3038022 0.021470163 -0.24658063 -0.087244056 0.11064689 0.14434904
0.010980681 -0.027164366 0.13750258 0.17533582 0.15691388 0.20642023 0.011241706 0.09945826
-0.08017342 0.10195747 -0.16782695 -0.2007757 0.20873122 0.18316868 -0.26033288 0.14810169
-0.33557382 -0.31019557 -0.12251357 -0.16363052 0.15462674 -0.21999812 -0.30078542 0.28551358

bias f4 [128]
00000000: 2ff6 6cbe 03be 83be 4ab1 503e 68f0 833d
00000010: a85a 31be cf7c 3dbe e3ed 223e 68ab 063e
00000020: 6449 46bd 9310 edbc e8cf e53d e342 f9bc
00000030: b100 b3bc 1c9e 053d 35e2 72be 1527 e5bd
00000040: b44c 9a3d 80f2 23be 1e03 d0bd ca11 59be
00000050: c799 7c3d bce0 92be c687 dfbd cab1 463d
00000060: 2a7b 973d dfc0 ac3c 9d88 8a3e 2cee 023e
00000070: 15be 6fbe 0cd6 da3d 45a4 91bd d821 5abe
00000080: a10c 093d f27a 3d3e 171f 2c3e 31d5 fd3d
00000090: cfd2 d93d 262f 9f3d 2be4 06be 2399 66ba
000000a0: 5882 943e 7609 883d e64d 04be b064 fabd
000000b0: 75f7 183d 0fbb acba e502 cf3d 1c98 01be
000000c0: 1ed5 443d b837 aa3d 25e8 ac3c 72a1 263e
000000d0: 9054 343e 57bd 07be e55a 5d3e 85a6 c0bc
000000e0: f734 92be 1d1b 2c3e 1eb7 563e 352b 483c
000000f0: ce7b 8b3d 6dc9 c33d fa0c 6bbe 3870 8b3e
00000100: d721 013e 1801 683e eb32 f4bd 725e 05be
00000110: 779f 1ebe a102 5d3e a20f 303e ea8a 32bd
00000120: a1e5 dbbc de72 493e 8157 1f3e d5c4 a5be
00000130: f5ce 20be ef66 463e e7d6 4c3e 8e5e 1ebe
00000140: 4713 a13c 1b70 4f3e 9cd6 213e ea48 75be
00000150: 32e3 96bb 6a61 af3d 2d89 c8bd 6a42 d33d
00000160: bd50 8e3e 2b67 00be d671 5bbe 6ffa 49bd
00000170: 7019 f7bd 3dd8 43bd d7fe 8bbe 0e2f 843e
00000180: bf8f c6bd 1ff1 133d f199 9abc 0abb f9bc
00000190: 7e03 5c3e 8066 093e bb53 093e 83df 073d
000001a0: 3c07 f53d f100 893e 4c6c 6abe 2c9c 0a3b
000001b0: fec7 b1bd cebb 6ebe c209 2b3e afda 5d3e
000001c0: b6ba 453e 7162 2dbe e349 e43d 8a5f 113e
000001d0: 3a42 57bb cd02 c9bc 8599 5a3d 8eeb 54bd
000001e0: bcd3 98bd f4ee 4c3e d34f b1bd 4732 fabc
000001f0: 06c4 183e 1e1b 073e 0bb4 31be adde bebe
-0.23140787 -0.25730905 0.2038013 0.06442338 -0.17319739 -0.18504642 0.15911059 0.13151324
-0.048409835 -0.028938567 0.112212956 -0.030427402 -0.021850916 0.032621488 -0.23719104 -0.11189095
0.07534161 -0.16010475 -0.101568446 -0.21198192 0.06167009 -0.28687084 -0.109145686 0.048509397
0.073965386 0.021088062 0.27057353 0.12786168 -0.23412354 0.106853575 -0.0711141 -0.21301973
0.03345931 0.18503931 0.16808735 0.12394179 0.10635912 0.07772665 -0.13172977 -0.0008796623
0.29005694 0.066424295 -0.12920341 -0.12226236 0.03734537 -0.0013178306 0.10107974 -0.12655681
0.048054807 0.08311409 0.021106789 0.16272524 0.17610383 -0.13255821 0.21616705 -0.023516903
-0.28556034 0.16807218 0.20968291 0.012217333 0.06810723 0.09559903 -0.22954169 0.27234054
0.12610565 0.22656667 -0.11923774 -0.1302431 -0.15490519 0.21583034 0.17193463 -0.04358951
-0.026842894 0.19672725 0.15560724 -0.32376733 -0.15703948 0.19375204 0.20003854 -0.15465757
0.019662512 0.20257609 0.15804523 -0.23953596 -0.0046047205 0.08563502 -0.09791789 0.10315402
0.27795973 -0.12539355 -0.21430144 -0.049311098 -0.12065399 -0.047813643 -0.27342865 0.2581715
-0.09695386 0.036118623 -0.018872233 -0.030484695 0.21485707 0.13418007 0.13410847 0.03317214
0.119642705 0.2675853 -0.22892874 0.0021150215 -0.086807236 -0.2331383 0.16702941 0.21665452
0.19309506 -0.16932084 0.11146905 0.14196602 -0.003284587 -0.024537468 0.053369064 -0.051982455
-0.0746226 0.20013028 -0.086578034 -0.030541552 0.14918527 0.13193938 -0.17353837 -0.37279263

weight f4 [512, 128]
00000000: 044a 75bc aa2f 0c3d 6d16 9ebd 95d7 383c
00000010: 4e06 61bb 4fbd 98bb 3106 5ebd f448 123d
00000020: ff52 eebc dd45 92bb 9e10 c93d 5ff0 3abd
00000030: 5cb7 9c3d dcfb af3d 65da 013e 04ed be3d
00000040: 11ed 48bb 52d1 c03c 6f19 d33d 9889 afbd
00000050: a25c 93bc b01b 9d3b 922b 5ebe fcab b9bd
00000060: 46b7 123e fae9 73bd 1b70 c0bc 1a39 c939
00000070: 7e94 60bd fce2 56bc 3336 513e 9353 da3d
00000080: 411b a7bd 6a5f f03a b2af 88bd 55a7 5cbd
00000090: 97d9 25be a35f dd3b 3329 c0ba 13d6 2e3e
000000a0: 5a6e 353d af91 e73b 9541 9cbc 16a8 44bd
000000b0: 2dfc 51bc 961f c93d 9307 be3b 7585 cb3c
000000c0: 7c0e ddbb 5241 d8bc ef11 b3bc 956a 00be
000000d0: 555d 60be 5eb3 293d 52aa b33d 0bfa aabc
000000e0: 663c 17be c711 af3d b851 14ba 51dc 113d
000000f0: fa37 dcbc fb89 823c 63c3 6e3d b41d 86bd
00000100: 18d2 a63d ec51 86bd 8312 9f3d 2b03 053d
00000110: a7f6 513d 502d 24bd fd56 8c3d fad1 56bd
00000120: 5752 033d 134e 123d 0f7b b63d 2240 c23c
00000130: 2012 cc3d 5c4f 80bc 7157 6cbd 2897 5c3d
00000140: d038 8bbe c3c5 a43d 194e 53bc 96aa 513e
00000150: 594d 7a3d 70d4 47be 6ce4 d73c f28b 21bd
00000160: 6df8 6dbd 53c3 a43d 6434 483c 23e5 2fbe
00000170: 715d 0dbd f2c6 b33c a366 d93d 6b1f d5bc
00000180: 4d16 d1bc 6ff2 b0bc 4650 44bd ad39 ec3d
00000190: e08c b5bc e869 303d 95fc 61bd 1762 b73d
000001a0: c68b 81bd 85d1 d8bb 2f7c 85bd 3b02 adbc
000001b0: 8e87 093c 9570 87bd 7192 b6bd 3870 223e
000001c0: 9202 bdbd a23a 183c e64f 2c3c fb6d a53d
000001d0: dd90 8e3d bd60 53bd 4049 92bd 7dbf 21bd
000001e0: a88f e83d f074 a3bd d360 4a3c bb18 f03c
000001f0: eac7 413d ae13 67bd 49f5 22bc d857 59bd
00000200: e49e 1e3d 576a 49bd 8cea 14bd db9f 583d
00000210: 2227 ea3c 2447 eebc fc58 3dbd 5b9c ea3c
00000220: 82b8 c1bb e03f 2dbc 9d93 8e3d ee09 e2bc
00000230: add2 1abd 6062 763b e786 02bd 115f 813d
00000240: af58 13bd 6e2f b4bd 819e d23b b93a 3a3d
00000250: 8df3 debd 6db0 823d 921f 5cbd bbf8 a03d
00000260: 96f8 06be 67c7 393c 5721 23be 4cc2 81bd
00000270: 0841 4d3d 8b31 9a3d 96bf 263d 1c29 133b
00000280: 813f 7a3e c425 473d ba5a bb3d a271 c93c
00000290: 0b63 53bd 5388 0e3d 61d2 87bc 8b78 8d3d
000002a0: 0310 93bd 0e32 d1bd dbd5 043e 4eae 043e
000002b0: f6ea 893c 28f3 fe3c 22de bf3b 5197 83bd
000002c0: 7d20 8b3c 74e7 693d 5b18 1cbd 57e9 0bbe
000002d0: 16bb b13d a498 bf3d 8ec0 d3bd 4fee 8fbc
000002e0: 9338 2dbd 495e 23bd 7edf 803c f382 42bd
000002f0: e614 1d3e bdbf b53d 0766 f5bd 5b49 ca3c
00000300: e8d3 c23d ff01 113d 138a cdbd 8aad 1fbd
00000310: e3d5 493c a45a 35bd 50b4 913d 7afe fdbd
00000320: 9aa3 a93d c5b0 af3d a056 d03d 5a2c 07be
00000330: 5b1a 9e3b f073 c2bd 8bfd 4ebd 3b44 5bbd
00000340: df26 b9bd eb1b 59bc c4d3 583d cf2f 2f3e
00000350: 7a59 06bb 96d2 db3d 4fb9 d73c 80b6 9abb
00000360: 7ca1 d7ba 9adc 213c 3ad0 0f3e 06b5 b23c
00000370: c054 83bc 6e91 0a3c cd20 4b3c c9d5 3dbc
00000380: 5ca9 01bc 707e 98bd 3f55 293c fc29 4fbb
00000390: d777 823d a888 0f3e cb36 d73c 7630 163d
000003a0: effe b73d 0c42 173b dba5 35ba 91f9 1ebe
000003b0: f0f3 3ebd 26e3 203d 679f eabc bbbc c8bd
000003c0: d9cd 743d 39b0 9cbd 4db6 173d 5210 7d3d
000003d0: 9619 f4ba 5360 e2bc 14d7 a5bb 371b fc3d
000003e0: 922c 503d d1d5 133d 0bcf 0f3c aa02 913d
000003f0: 7c4c 1a3c 130a 7dbc 18c7 3c3e df04 ddbc
-0.01497126 0.034225143 -0.07719121 0.0112818675 -0.0034336033 -0.004661239 -0.054205123 0.035714105
-0.02909231 -0.0044638948 0.098176226 -0.045639392 0.076521605 0.0859296 0.12680967 0.09322551
-0.003065888 0.023537312 0.103075854 -0.08571166 -0.017988507 0.0047945604 -0.21696308 -0.090660065
0.14327726 -0.05954931 -0.023490956 0.00038380251 -0.054829113 -0.013115641 0.20430832 0.10660472
-0.08159495 0.0018338982 -0.06674136 -0.053870518 -0.16196285 0.0067557856 -0.0014660716 0.1707385
0.044294693 0.0070669274 -0.01907424 -0.04801186 -0.012816471 0.09820478 0.0057992428 0.02484391
-0.0067461114 -0.026398335 -0.021859137 -0.12540658 -0.21910603 0.041430824 0.087727204 -0.020871183
-0.14769134 0.08548313 -0.0005657929 0.0356105 -0.02688216 0.015934935 0.058291804 -0.06548634
0.08145541 -0.06558594 0.07767203 0.032473724 0.051260617 -0.040082276 0.06852529 -0.052446343
0.032060947 0.03571899 0.0891019 0.023712222 0.099643946 -0.015662841 -0.057700578 0.05385509
-0.27191782 0.080455326 -0.012897038 0.2047523 0.06110892 -0.19514632 0.026354037 -0.039440103
-0.058098245 0.08045068 0.012219522 -0.17177252 -0.03451294 0.02194545 0.106152795 -0.026015958
-0.02552333 -0.021599976 -0.047928117 0.11534438 -0.022161901 0.04306975 -0.05517252 0.08954256
-0.06325488 -0.0066167735 -0.06517827 -0.021119228 0.008394135 -0.0661327 -0.0891465 0.1586312
-0.09229006 0.009291323 0.010517096 0.08077618 0.06961224 -0.05160593 -0.071428776 -0.039489258
0.11355525 -0.079812884 0.012352186 0.029308667 0.047309794 -0.056415252 -0.009946176 -0.05306229
0.03872575 -0.04917368 -0.036356494 0.052886825 0.028583113 -0.029086657 -0.04622744 0.02863901
-0.0059118876 -0.010574311 0.06961749 -0.027592625 -0.037798572 0.0037595257 -0.031866934 0.063169606
-0.035973247 -0.08798109 0.0064275865 0.04546616 -0.108862974 0.06381307 -0.053741045 0.078599416
-0.13180766 0.011339045 -0.15930687 -0.06335887 0.050110847 0.07528981 0.040710054 0.0022454923
0.24438287 0.04862 0.09148164 0.024590317 -0.051608127 0.034797978 -0.016579809 0.06907757
-0.07180788 -0.10214625 0.12972204 0.12957117 0.01683567 0.031121805 0.0058553377 -0.06425346
0.016983265 0.057105497 -0.038109165 -0.13663231 0.08678262 0.09355286 -0.10339461 -0.01756969
-0.04229028 -0.03988484 0.01573157 -0.047488164 0.15340003 0.08874462 -0.11982351 0.024693182
0.09513074 0.035402294 -0.10036101 -0.03898386 0.012319061 -0.044275895 0.0711447 -0.12402053
0.08283158 0.08578638 0.101727724 -0.13200513 0.004824919 -0.094947696 -0.050534766 -0.053531867
-0.09040617 -0.013251285 0.05293633 0.17108081 -0.002050011 0.107335255 0.02633348 -0.0047214627
-0.0016451324 0.009879256 0.14044276 0.021814834 -0.016031623 0.008457525 0.012397957 -0.011586615
-0.007913914 -0.07445991 0.010335266 -0.0031610718 0.06370514 0.14016974 0.026271245 0.03666731
0.089841716 0.0023080138 -0.00069293164 -0.1552489 -0.046619356 0.039279126 -0.028640462 -0.098016225
0.059766624 -0.07650799 0.03703909 0.061783142 -0.0018623348 -0.027633822 -0.0050610397 0.12309878
0.050823756 0.036092583 0.00877739 0.07080586 0.009417649 -0.015444296 0.18435323 -0.026979862

bias f4 [512]
00000000: 7c3a 28bc 1425 85bd 2197 d7bc cf96 093e
00000010: 0b59 c73b 8006 a8bd c695 85bc 6418 80bd
00000020: e17d 30bd 3fa3 c8bd 4ce0 18bd 4624 fdbc
00000030: 624b 09bd 2e26 4abd 2532 d5bc 914c 65bd
00000040: 2f61 4abd 4b67 4abb cebc 09ba d31f dbbc
00000050: 2956 1a3e f216 45bd cade 4fbd 92c6 c3bd
00000060: 5661 45bc da1b 6d3d a800 7bbd 024d 42bd
00000070: 5ebc 743b d066 1d3b fd17 163d cd80 73bd
00000080: c5bc 56bd 3ec7 1ebd b799 603d d3b1 123c
00000090: c394 ce3c 680e ae3d 1bd5 c53c 494d 9fbd
000000a0: fc91 9fba 31d0 e6bc 264c 583d 322e afbd
000000b0: f80a f43c 13cd 85bd 19ad 243d b84a e83c
000000c0: a1f4 b5bd bee3 81bd e5c7 f1bb a43f 9abd
000000d0: 2c89 723d 4b5a a1bd 2d43 ccbd 2bab b4bc
000000e0: 49f0 043d 9da6 0dbe fdfa a6bd 67d4 823d
000000f0: 3dff b53d 7c35 23be 8bf1 82bd 737c e23c
00000100: cc0b 003d 09ca 583d fc1f cfbc ba20 b83c
00000110: ae9d 7f3d 8720 b6bd 3c9d a4bd 549b 36bd
00000120: 96da aa3c 88b1 033d fe78 7bbd 2c4a 07bc
00000130: 1ee0 84bd 93bb 593d ac4f cbbc 8769 80bd
00000140: 246b 98bd 780d b4bd c89f c13c 3093 fe3c
00000150: e28e eebd 4774 b83c 6d5d 9c3c 1b1d 993d
00000160: d7f0 943d 46b9 703a 8026 9fbc 5556 4fbc
00000170: a7a9 4c3d 9e54 2bbb 21ed 683d 9e9e 0abc
00000180: 23ec 17bd 1b93 133d b43d b7bd 7632 57bd
00000190: 499c 66bd 091a 9fbd 6f2a f63d 6434 69bd
000001a0: dafe 0abe 3403 b7bc 7293 47bc 96bc a8bd
000001b0: a71e a7bd 17c0 d8bb 8354 efbc ce01 d73d
000001c0: 2a9f 12bc 2202 bd3d 7286 03bd 5c64 a5bd
000001d0: d7ef bebc 40fe a83d 9e1a a8bd ed95 bb3d
000001e0: 9b29 acbd f1fe 7ebd d841 353d c679 c9bb
000001f0: 31ce b0bd 434d 6bbc 54b9 83bd d925 3c3d
00000200: 4876 833c 6508 9b3d e997 53bd 2162 4ebd
00000210: 627c 0bbe 933a 003e 0ccd 9bbc 6761 b33c
00000220: 2a95 80bd a521 55bd 61de 09bd ae7a 8e3d
00000230: a8d0 c1bd c33d 64bd 5860 42bd acb0 b5bd
00000240: 32e1 083b 98c7 443b 4de5 78bd e1a8 5fbd
00000250: 96bf 31bd cbf5 cfbd be6b e73c 63cf 863d
00000260: 5d16 003e c27c 5ebd d23e 5cbd fe39 c9bd
00000270: 7c76 52bd 9d94 a1bd 39b2 943d 749f 63bd
00000280: 2b2d 21be 3e90 bc3c b194 d4bc 1078 2cbd
00000290: 1215 c1bd 63e4 333d d337 fdbc d1a0 5a3c
000002a0: c46e ae3c fb9e 22bc a2e8 1abd 0335 6c3d
000002b0: 2800 46bd f42a 933d 4249 82bd f86d 87bd
000002c0: 0484 52bd f11e 0abc c30a 1a3d b325 493d
000002d0: 5255 02be c4ce 68bd 7624 8f3d dd68 283a
000002e0: 70e6 7abc 7c94 5a3d b27d 0e3d 5076 e53d
000002f0: f6ae d1bd a3cc 12bc 7e4a d23c b19c 21bd
00000300: e2c1 183d 1174 9fbc 91da a8bd c0fa d9bc
00000310: c573 d1bd 0d49 883c 19ac 8b3d 1529 833c
00000320: 961b 7cba 5bb2 96bd 1d6e 953d 8751 d7bd
00000330: 3ffe 63bd 3e04 b33c ba30 91bd c59c f23c
00000340: e965 9c3d 3806 f93c cc10 38bd 458f 1a3d
00000350: 7275 57bc ead1 1cbd 3fe8 5c3b 2806 8c3d
00000360: 87fe 88bd 8759 773d 06f8 5cbd a401 ba3d
00000370: c708 6dbb 87b2 b9bb d5b2 c6bd 8b83 953d
00000380: af8e c6bc 9135 093d 1fc0 5cbd 9a7f 9a3d
00000390: d2a8 4c3d 45b0 2d3b e014 cebd bbde 0c3d
000003a0: e4b6 d0bb 004a ddbb 00e0 cabd 9c34 8bbd
000003b0: dffd 313d 8e7e 51bd 3250 013d f7e2 debd
000003c0: 00ba 3ebd cc1d e13d 7efa c93d 666d 843d
000003d0: 2258 073d 8dc5 09bd 2fbe 41bb 0712 ae3d
000003e0: 195b aabd aa1d e4bc 0916 4fbd eb3d 7cbd
000003f0: ac1c 23bd 224a 923b 8147 a33d f9e2 7dbc
-0.01026785 -0.06501213 -0.026317181 0.13436435 0.006083613 -0.08204365 -0.01630677 -0.06254652
-0.043088797 -0.09796762 -0.03732328 -0.030901086 -0.033519156 -0.049352817 -0.026024887 -0.055981223
-0.049409088 -0.0030884321 -0.00052542693 -0.026748573 0.1507193 -0.048117585 -0.050749578 -0.09559359
-0.0120471325 0.05788789 -0.061279923 -0.04743672 0.003734372 0.002401758 0.03664397 -0.059449006
-0.05242612 -0.03876423 0.054834094 0.008953529 0.02521742 0.084988415 0.024149468 -0.07778413
-0.0012174244 -0.028175445 0.052806996 -0.08553733 0.029790387 -0.065332554 0.04020414 0.028355941
-0.0888455 -0.063422665 -0.0073785656 -0.0753167 0.05921285 -0.0787855 -0.0997375 -0.022054275
0.032455716 -0.13833089 -0.08153341 0.06388169 0.088865735 -0.15938371 -0.06393727 0.027647233
0.03126125 0.05292705 -0.025283806 0.022476543 0.062406234 -0.08892923 -0.080378026 -0.044581726
0.020856183 0.03215173 -0.061394684 -0.00825743 -0.064880595 0.0531574 -0.024818264 -0.06270128
-0.074423105 -0.087916315 0.02363576 0.031076044 -0.116483465 0.022516383 0.019087518 0.074762546
0.07272499 0.00091828813 -0.019427538 -0.0126548605 0.04996648 -0.0026142965 0.05686677 -0.008460669
-0.037090432 0.036028963 -0.08947316 -0.052538358 -0.05630139 -0.07768638 0.12019812 -0.05693473
-0.1357378 -0.022340395 -0.01218115 -0.08239095 -0.08160143 -0.006614696 -0.029215103 0.10498391
-0.0089490805 0.092289224 -0.03211064 -0.08075783 -0.023307724 0.08251619 -0.08208202 0.091594554
-0.08406373 -0.06225485 0.044252247 -0.0061485497 -0.08633078 -0.014361682 -0.06431833 0.04593453
0.016047612 0.075699605 -0.051658545 -0.05038655 -0.13621667 0.12522344 -0.019018672 0.021897031
-0.06278451 -0.05203404 -0.033659343 0.06956993 -0.09463626 -0.055722963 -0.04745516 -0.08871588
0.002088618 0.0030026194 -0.060765553 -0.054604415 -0.0433956 -0.10154303 0.028249618 0.065825246
0.12508531 -0.054318197 -0.053770848 -0.09825514 -0.051382527 -0.07889674 0.07260556 -0.05557199
-0.15739886 0.023017999 -0.025949808 -0.042106688 -0.09427847 0.04391898 -0.030910408 0.013344006
0.021293052 -0.009925599 -0.037819512 0.057667743 -0.048339993 0.07185927 -0.06361629 -0.06612772
-0.05139543 -0.008430229 0.03760792 0.04910822 -0.1272786 -0.056837812 0.06989376 0.0006424317
-0.01531373 0.053364262 0.03478784 0.11204207 -0.10238449 -0.008959922 0.025670286 -0.039456073
0.037294276 -0.019464524 -0.08244813 -0.026608825 -0.102271594 0.016636396 0.068199344 0.0160108
-0.0009617148 -0.07358237 0.07296393 -0.10513597 -0.05566239 0.021852609 -0.07089372 0.02961577
0.07636625 0.030398473 -0.044937894 0.03773429 -0.01315056 -0.038286127 0.0033707765 0.06837112
-0.06689172 0.060388114 -0.05394747 0.09082344 -0.0036168562 -0.005667034 -0.09702078 0.073004805
-0.024237959 0.03349835 -0.05389416 0.07543869 0.049965687 0.002650277 -0.10062575 0.0343921
-0.0063694585 -0.0067532063 -0.09906006 -0.06797144 0.043455 -0.051146083 0.03157062 -0.10883134
-0.046564102 0.109920114 0.09862231 0.064661786 0.033043034 -0.033635665 -0.002956282 0.08499532
-0.08318157 -0.027846176 -0.050558124 -0.061582487 -0.039822266 0.0044644037 0.07972623 -0.015496009

weight f4 [256, 512]
00000000: d207 01bd 1748 7a3d 5e35 793c 4eeb 42bd
00000010: 7526 29bc 7380 e03a 361b 083d 59e5 be3a
00000020: 0d30 453d 3301 e7bc dd24 38bc f5e9 a43c
00000030: 4675 573d f0e8 8f3b 0945 37bc fe24 15bc
00000040: 1110 5dbd 5927 95bd 1c32 82bd 60a9 743c
00000050: 8734 84bd 7bc1 713c 99c8 4fbb 33aa 35bd
00000060: 483b a0bd 5aeb 83bb 4989 0dbd 00fb ea3c
00000070: c2d3 0dbd 3544 a6bc 5a49 97bc 9a32 a83d
00000080: c012 35bd b4bd cbba 2597 cabc a991 debc
00000090: c530 0e3e 5d8e b0bc 5d3f 33bc 4378 d0bc
000000a0: 9012 1c3d a9f1 87bc de57 4dbc ac02 1abd
000000b0: db7d 613d d9bc 5c3b 4672 5c3d d954 cabb
000000c0: 8ee5 2c3a 2f40 03bc 3ad6 5bbb d55f be3c
000000d0: 7ced 2dbc f39c 0abc 0e80 81bc 5563 2abd
000000e0: 8c2d 9dbc d5ae 88bd fe41 343d 4e90 9fbc
000000f0: d5ae e73d d3b6 a9bd b0a3 e13c 2b5e 82bd
00000100: 234c 3fbc 0d84 67bb 6934 b6bd ebe5 813d
00000110: ee0e e13d b9a9 8ebc 5a8b b4bd d0db b7bd
00000120: 07a6 733d 8319 15be fc98 bdbd fbf4 49bc
00000130: 681c 293b 3eb1 773d 31f4 ecbc bb33 14bd
00000140: f599 69bd da1c bbbc d849 fa3c 23b0 4abd
00000150: ca40 453d c24e 603d 350e e8bc 3d01 5c3d
00000160: 06f9 143d ae66 a53c 3bc7 67bc 51b5 0fbc
00000170: 49c5 2e3d 0b46 873d 2325 86bd 8bdf 0fbd
00000180: 3085 d2bd f44e 143d 3408 9abc d02d f03c
00000190: d7f6 37bd 14cf f2bc 1f4a 97bd aa10 923d
000001a0: d885 53bd e770 adbc 64c2 0b3d 9dcb 22bd
000001b0: 33f3 abbb 9132 22bd 51a4 a0bc e64f 693d
000001c0: 9d20 e83c 563b 00bc a046 a0bc b1e9 afbd
000001d0: 3b6d 05bd 0dd5 c5bc 2f30 41bc 5758 ca3c
000001e0: ad20 fa3b 8b75 1a3a 8070 393c 6aa6 67bc
000001f0: 5839 053c 9973 1a3c 2e35 bfbd 52e0 7fbd
00000200: 3fa0 d83c f600 62bd 2464 9ebd 9e5a ab3d
00000210: f326 75bd 84c9 0fbd 5689 913d 9cdd 9b3d
00000220: 589f f5bc 7732 87bd 0b75 793b ce39 253c
00000230: a85d 203d 6a82 103d 9294 86bb a978 ba3c
00000240: 50b7 48bc a870 e8bc 50c9 06bd 9715 81bc
00000250: 7e04 b0bc 3959 c5bc 7385 293d 597f 49bd
00000260: c70b 833d 05fb 84bd a3ef 913b a044 b7bd
00000270: e0c6 973c e9e4 0f3c a68f 99bc 876b 03bc
00000280: 2db6 37bd 2927 603c b0f5 b73b d46b 8b3a
00000290: a515 03bd 7e01 6ebd 9875 76bc 97f4 bbbb
000002a0: 08c0 38bc d1f8 373c 84e8 59bd 2675 ac3d
000002b0: 9484 b8bc 1d32 adbd eb97 f93b b790 d33b
000002c0: 2d88 1a3d 3aa7 873b ac8b 813d 1f28 b2ba
000002d0: ddb5 7ebd 947d ba3d 4b3c 2d3d 53d4 84bb
000002e0: 0ce7 20bd 08f0 15bd 220f 093d 68a0 d13d
000002f0: 498d 1cbd 1469 a2bc 6c59 62b9 1a68 723c
00000300: 34d6 383d 3a57 2a3d d710 ce3c cc32 ca3c
00000310: 6bdb 60bd 5f48 c13c 3021 2dbc bc18 c7bc
00000320: 51e8 a33d 1c32 46bc f3cb bfbc c6aa fc3c
00000330: 51ef 42bd d891 f23c 8d41 913c 04e4 613c
00000340: 6654 413d d104 033d 3f2a c83a c9ec 883c
00000350: f4a9 a3bd 0be4 093d e274 033d ae13 7fbc
00000360: 2f96 33bd 24bd 223c 2d25 42bc 7d22 1b3d
00000370: b638 63b9 c937 86bc 9146 b6bc 3b7c 023e
00000380: e218 bfbd 690e 77bd a667 80bd f766 20bc
00000390: f341 ac3a f831 e43a 756d b9bd 2a9c a1bc
000003a0: e20c a23d 9735 80bc 9e05 0a3c f1f3 e23c
000003b0: d8c9 14bd 5ffc 193d 895d 20bb 6598 e73c
000003c0: ac1f 0cbd 600b df3d 99cd 8cbd 93ff c13c
000003d0: e8d7 b23a 44e4 36bd be7b fcbc 6a79 35bc
000003e0: b421 0e3d bc43 8fbd 4f06 4dbd 9819 5bbd
000003f0: caf0 b8bd bc29 95bb 4184 d03c b9f0 11bd
-0.0315016 0.061103906 0.015210478 -0.047587685 -0.01032411 0.0017128125 0.033229075 0.00145642
0.048141528 -0.028198814 -0.011239258 0.02013109 0.052602075 0.004391782 -0.011185893 -0.009103058
-0.0539704 -0.072828956 -0.06357214 0.01493296 -0.06455331 0.014755602 -0.003170526 -0.044351768
-0.07823807 -0.004025859 -0.034554753 0.02868414 -0.034625776 -0.020296196 -0.018467594 0.082127765
-0.044207335 -0.0015544207 -0.024730274 -0.027169066 0.13885792 -0.02155226 -0.0109404 -0.02544797
0.03810364 -0.016594725 -0.012533156 -0.037600204 0.055051666 0.0033681898 0.053819917 -0.0061746654
0.00065954856 -0.008010908 -0.0033544437 0.023239056 -0.010615703 -0.008460271 -0.015808132 -0.041598637
-0.019186758 -0.066739716 0.044008248 -0.01947799 0.113126434 -0.08286824 0.027543873 -0.06365617
-0.011675867 -0.003532651 -0.08896715 0.063426815 0.10989176 -0.017414914 -0.08815642 -0.08977473
0.059484508 -0.14560513 -0.09257695 -0.012326474 0.0025804285 0.060471766 -0.028925033 -0.036182147
-0.05703159 -0.022840906 0.03055279 -0.049484383 0.04815749 0.05476261 -0.028327087 0.05371212
0.0363703 0.020190563 -0.014146621 -0.008771257 0.042668615 0.066051565 -0.06550052 -0.035125297
-0.1027931 0.036208108 -0.01880274 0.02931872 -0.04491314 -0.029639758 -0.07387184 0.07132085
-0.051641315 -0.021172 0.034120932 -0.039744962 -0.0052474975 -0.039599005 -0.019609602 0.056960963
0.028335864 -0.007826647 -0.019564927 -0.08589495 -0.032574873 -0.024149442 -0.011791273 0.024700327
0.00763329 0.0005892149 0.011318326 -0.014138797 0.008131348 0.009426975 -0.09336315 -0.062469788
0.026443599 -0.055176698 -0.07733944 0.08366893 -0.059851598 -0.03510429 0.07106273 0.07610628
-0.029983208 -0.06601422 0.0038064148 0.0100845825 0.039151818 0.035280623 -0.0041070664 0.022762613
-0.012250736 -0.028374031 -0.03290683 -0.015757365 -0.021486517 -0.024090396 0.041387033 -0.049193714
0.06398731 -0.06493191 0.0044536158 -0.08948636 0.018527448 0.008782604 -0.018745255 -0.008021242
-0.04485147 0.0136812115 0.005614005 0.0010636994 -0.032003064 -0.05810689 -0.015042685 -0.0057359445
-0.011276253 0.011228756 -0.05320026 0.08420782 -0.022524156 -0.08456824 0.007616987 0.0064564603
0.037727524 0.004139808 0.063254684 -0.0013592279 -0.062185157 0.091059834 0.042293828 -0.0040536313
-0.039282843 -0.036605865 0.033461697 0.10235673 -0.038220678 -0.019825496 -0.00021586352 0.014795328
0.045126155 0.041587092 0.025154514 0.024682425 -0.054896753 0.02359408 -0.010566995 -0.024303786
0.08003295 -0.012096908 -0.02341268 0.03084315 -0.04759151 0.02961056 0.017731452 0.013787273
0.04719963 0.031987015 0.0015271379 0.01671447 -0.079914 0.033664744 0.03209389 -0.015568657
-0.043844398 0.00993279 -0.011849684 0.037874687 -0.00021669533 -0.016384022 -0.022250446 0.12742703
-0.09330918 -0.060316477 -0.06269769 -0.009790174 0.0013142213 0.0017409911 -0.090540804 -0.019727785
0.079126135 -0.015650554 0.008424191 0.027704211 -0.036325306 0.037594195 -0.0024469814 0.02827091
-0.034209892 0.108908415 -0.06875152 0.023681438 0.0013644667 -0.044651285 -0.030820724 -0.011076311
0.03470011 -0.06995341 -0.050054844 -0.053491205 -0.09030302 -0.0045520943 0.025453689 -0.03562996

bias f4 [256]
00000000: 7a06 873c f4a7 c2bd b0b6 9d3d 220a 793d
00000010: fa1e c93d 3b32 8c3d 8d5f 123d 7663 e83d
00000020: 5c5c 903d de59 2dbd 75c0 833d 8bc9 89bb
00000030: 3238 4abb f148 e53c 49f4 923d 2c06 083e
00000040: 4e16 593d cfae 8d3b cf75 873d 2580 dd3c
00000050: 4d45 0abd 5e71 96bd c994 ed3c 43a2 8e3c
00000060: 493b 1b3d a933 013d 9766 323d 22ab 3f3d
00000070: b12c 0bbc 0665 68bd 9b99 f73c b85c 6bbd
00000080: d5e4 7dbc d10a c93d 4b56 3abc 9b1a db3d
00000090: c174 7d3c bdfe 823c 1809 cebb 08df c53c
000000a0: eb38 473c dc88 fbbc ab67 8d3d abb7 063d
000000b0: 4c17 853d 3366 583d a2d4 38bc 07b3 c2bd
000000c0: a325 68bb 131c 99bd 12d1 d33c dbb5 b43d
000000d0: 1993 653d 4394 853d e27c 053e 40ff 0d3d
000000e0: 9945 ab3d 0abe 693d a09b 083c 5790 833b
000000f0: c455 25bb 09b0 863c 97cc 03bd c7de 94bd
00000100: 755d 263d 8d76 b43d 3a2a 8e3d 45ab ba3c
00000110: d4f9 e3bd 44e3 943c 3f04 123b 5488 aa3d
00000120: 0f2d 803c d49f 08bd e601 093d cb6d 74bd
00000130: f276 11bd e737 b7bc 1cf2 1dbd 07a8 933d
00000140: c87b f43d cd83 47bd 1bc4 803d 789a e83c
00000150: 053d 823d a2c0 86bc 6216 773c 1cb2 31bb
00000160: 4d1b 0abd 52bc f8ba 9e57 82bc a762 89bb
00000170: 66b5 593d 52a9 90bd e13e f7bc a2d3 3cbd
00000180: 23c5 8b3d 865e a83d 3ef8 83bb 2e0f e93c
00000190: 3f2c 393d 24e9 8fbb 7e00 a03a 5e73 27bc
000001a0: da19 2e3d 2019 46bc 4c8a 6d3d 2bae c0bc
000001b0: b994 843d b0c8 8c3c 2934 ecbc 6278 753c
000001c0: 5b2a 77bc 5866 25bd 8664 f33c b434 863d
000001d0: 3d4f 9c3d 113c 4b3d 27c8 643b b833 2a3c
000001e0: f653 25bc 36d0 d5bc a05c 833d a8c9 fbbd
000001f0: 95f4 253d 3279 813c f3d2 42bd 1750 913b
00000200: 8928 7e3c 2df7 6c3c ebe8 373c e09e af3b
00000210: a605 303d 857d a13c a188 b0bd 380f 0abe
00000220: 6cac 0cbd 4b0c 043d 203c ae3d 6f6e 883d
00000230: 3164 ddbd 0b9b 89bc 7075 9d3b 2865 c53c
00000240: 1510 ccb8 0c47 0dbd bc26 dabc c809 a13d
00000250: 14ac aa3d dec1 2b3d 6e2d 923a aa54 fe3c
00000260: 7f69 e5bb 051e 723d c854 c53d c6d6 01bd
00000270: 159f b2bd 7932 4b3d e7cd 90bc 6692 cabc
00000280: 7d69 e03d 5e3f 9b3d 08e2 32bd cc96 a33d
00000290: eefe 1dbd 2396 64bd eeb1 56bb 77ec 853d
000002a0: d2d9 a7bb 7724 30bc b830 f3bd e5b9 273d
000002b0: 79fa 853d 35f4 8f3d 771d 1fbc 53d2 593d
000002c0: 60ea ca3d a58e 313d a7b0 a53c 4ba4 b93d
000002d0: cd1e 143d 41d0 433d 5504 613c d7ad 8f3d
000002e0: 1139 7abc 1291 023d 4751 903c b580 f73c
000002f0: 55c6 7dbc 6e8b 783c fcb1 92bd c2b1 883d
00000300: 3231 363d 5cd7 bc3c bdec 783d 2628 953d
00000310: cd26 0c3c 388f 5a3d eae3 b23c e643 c5bc
00000320: 9f9e 693c 5123 2dbd 00a7 c13d 1654 593c
00000330: 9b25 b73d 22ea 97bc 07eb 5f3d 55b7 c03d
00000340: 127c e93c 86da 20bd 0b70 0dbd 3d40 b13d
00000350: 7bad f83c e875 a23d f749 743c b375 3abd
00000360: 0a53 a8bd fc35 713d 26a2 d5bc c215 16bc
00000370: 6ea9 903c ee38 edbb 24dc 863d 7b5c 9cbc
00000380: fcf4 98bd ba6b 3dbc 2f37 213d eaba 813d
00000390: 3c9f 9f3d fc8c b53c 9c9f 13bd 6c02 213d
000003a0: 507e 59bd f6d6 123d 8484 ba3c d88d 28bc
000003b0: ea0c 1dbd b086 a9bc e572 483b 1f14 ecbc
000003c0: 0766 debc 7e91 68bd 4a30 15bc 80f7 a43d
000003d0: 3650 b83d 9027 f3bb fbef 02bd 9f0e edbc
000003e0: eada ad3d b1a0 62bd b07c 803d 9ba1 2bbb
000003f0: f8a6 7ebd 6b90 763d 074d 273d daf5 0f3c
0.01648258 -0.09504691 0.077008605 0.06080068 0.098203614 0.06845518 0.035735656 0.11347096
0.07048866 -0.042322032 0.06433193 -0.004204934 -0.003085625 0.027988883 0.071755 0.13283604
0.052999787 0.0043238173 0.06614267 0.027038643 -0.033757497 -0.07345842 0.02900161 0.017411357
0.037898336 0.031543408 0.04355487 0.046794064 -0.008494542 -0.05673697 0.030224612 -0.05746147
-0.015496452 0.09816516 -0.011373113 0.10698434 0.015469731 0.01599061 -0.006287705 0.024154201
0.012159566 -0.030704908 0.06904539 0.032890003 0.06498584 0.05283184 -0.011281164 -0.09506803
-0.0035422824 -0.07476058 0.025856528 0.08823749 0.056048486 0.06522419 0.1303592 0.034667253
0.08362884 0.057066 0.008337885 0.0040150094 -0.0025228122 0.016441362 -0.032177534 -0.07269054
0.04061647 0.08811674 0.06941648 0.022786746 -0.11131635 0.018174775 0.0022280363 0.08326784
0.015646486 -0.03335555 0.033449076 -0.05967502 -0.035513826 -0.022365524 -0.03856097 0.07209783
0.11937672 -0.04870968 0.06287404 0.028393969 0.06359295 -0.016449276 0.01508102 -0.0027114218
-0.033717442 -0.0018977022 -0.01591092 -0.0041926685 0.05315151 -0.07063545 -0.03018135 -0.046100266
0.0682471 0.08221154 -0.0040273955 0.028449621 0.045208212 -0.004391806 0.0012207178 -0.010220377
0.042505123 -0.012090951 0.05799322 -0.02352055 0.06473679 0.017185539 -0.028833466 0.014982315
-0.015085782 -0.040380806 0.02971102 0.06553021 0.07632301 0.04961783 0.003490934 0.010388307
-0.010090819 -0.02610026 0.06414151 -0.12294322 0.040516455 0.01580486 -0.047564458 0.0044345963
0.015512594 0.014463228 0.011224966 0.0053595155 0.042974137 0.019713173 -0.0861981 -0.13482368
-0.03434412 0.032238286 0.08507562 0.066616885 -0.108101256 -0.016797563 0.0048052594 0.024096087
-9.7304735e-05 -0.034491584 -0.026629798 0.07863194 0.083336025 0.041932933 0.0011152455 0.03104623
-0.0070011015 0.05911066 0.09635311 -0.031698965 -0.08721749 0.04960868 -0.017676307 -0.024728011
0.1095762 0.07580446 -0.04367259 0.079877466 -0.038573198 -0.055807244 -0.0032759863 0.06539243
-0.0051224018 -0.010750881 -0.11874527 0.040948767 0.065419145 0.07029001 -0.009711615 0.053179096
0.09907985 0.043348927 0.020225836 0.090645395 0.036162186 0.04780603 0.013733943 0.07015579
-0.015272395 0.03187663 0.017616881 0.03021274 -0.015489181 0.015169961 -0.07162854 0.066745296
0.04448051 0.02305191 0.060772646 0.07283048 0.008554173 0.05335924 0.021837194 -0.024080228
0.01425901 -0.04227001 0.09455681 0.013264677 0.089427195 -0.01854426 0.0546675 0.09409968
0.028501544 -0.0392709 -0.03453068 0.086548306 0.03035616 0.07932645 0.014910213 -0.045522403
-0.082189634 0.058889374 -0.026078295 -0.009160461 0.017658915 -0.0072394526 0.06584957 -0.019087067
-0.07468602 -0.011561329 0.039359268 0.06334479 0.077940434 0.022161953 -0.036040887 0.03930895
-0.053098977 0.035849534 0.022768266 -0.010287724 -0.038342394 -0.020694107 0.003058606 -0.028818188
-0.02714826 -0.056779377 -0.009105751 0.080550194 0.08999674 -0.0074204877 -0.031967144 -0.028937636
0.0848902 -0.05532903 0.06273782 -0.0026188854 -0.062170953 0.06019632 0.040844943 0.008786643

weight f4 [128, 256]
00000000: 73f6 b9bd 1ae2 a0bb 5d82 07be a2db 01bb
00000010: 6046 39be e55b 86bb 5d49 2fbd 5623 2ebd
00000020: 6afe 4c3b 64bd 203e 9dcd f7bc 9c2a 813c
00000030: 2a50 143e fb3c 8a3d 3bee 83bb d027 9fbd
00000040: 3a17 213b 91c4 903c 6bd6 71bc e5c8 563d
00000050: a149 f7bb 5f6d 0cbd 6272 10be 8258 dfbd
00000060: 4547 32be c005 79bc 4a6b d53a f71b adbd
00000070: 7cf4 063e 5fc3 023d c2e6 b0bd ab4e 6bbc
00000080: fed9 7a3c 4bbd 213d 8f4b 56bd 6fd7 18bd
00000090: 632e 91bd 6cec f03c 29ff 083d 05b9 ee3c
000000a0: d871 a1bd f8a6 193e 6e20 8d3b 6392 a4bc
000000b0: 532e 7fbd e3fc 21bd bcc9 f5bc 657b 0cbd
000000c0: 0cdd bd3d 7b10 64bd 18c5 683d 0758 9fbc
000000d0: 7e7d 9d3d d66e 113c 25e1 7fbd 45e0 d23c
000000e0: a268 b6bd df84 303d 6d77 d4bd 29d9 f7bc
000000f0: 66b8 80ba d7ce 463d b0f6 913d 0972 d13b
00000100: 55e3 9bbd dedb ab3d 9cc9 6ebd 7c0b dc3c
00000110: dc35 673d 011c 9dbc 1249 26be 8421 e73c
00000120: a425 083d e6f0 9ebc d20a eabc 2840 ffbb
00000130: 6d09 99bd eb7f 363b ffdd 0d3e 5395 513c
00000140: bd03 bebd ca36 603d d9d1 89be 7e26 f83d
00000150: ab07 8cbe 5443 a63c 9c68 873d e2f9 78bd
00000160: 29d1 37bc 25ee 2fbc 7407 f8bc 06fa 36bd
00000170: 4b6c 273e 9a30 493d bfc4 443d f7b5 f1bc
00000180: 1048 b6bd 28ce 663a 1cb6 743b c5c8 93bd
00000190: 9c77 3a3c ea18 8d3d c8bc e4bb e1d2 25bd
000001a0: 3292 0dbd 5a70 8a3c 545d 333d 73bd 9e3c
000001b0: 387c 753d 0986 89bd a36d bbbc 7380 c1bc
000001c0: 436f 68bd 102e 35bd 3c9e 9c3d 2439 b0bd
000001d0: 0a15 a9bd d187 beb9 e3d8 c13c f1e4 453c
000001e0: 2780 183d 595a 343b f546 19be 260a 8ebc
000001f0: 27b0 dc3c 671e 80bc bd42 ab3d 5dd7 d03d
00000200: 80da c3bd 8833 4c3d 8571 39bd 9c96 a63c
00000210: 8ce0 53bd 32ad fbbc 80b4 cd3c 9145 1dbd
00000220: e7d6 69bd 1fda bb3d 4b54 41be 3dc3 a73d
00000230: 4b96 c63d be02 91bd e163 aebc a4ae f5bd
00000240: 35c7 0abe 044f c03d 7471 ae3a 3be5 69bc
00000250: 9c61 4f3b c3d9 ecbb d63d a3be 6436 19be
00000260: dcc4 f3bd a9ac b9bd bed4 cabd 6e69 963c
00000270: 2ac9 a63d d3b2 d93d cf4a 373d c6d1 6e3e
00000280: 319c ddbd 2824 2ebe f6cb 9b3d d2a4 18be
00000290: 1c32 bdbd e2a2 c83c 42dc 50bb 5d28 3d3c
000002a0: c0c0 263c 0800 37be ee1c 103d ec4b 6bbe
000002b0: e1f1 88bc f604 1abe e8b3 5ebc ef35 653c
000002c0: 8501 96bd 9250 ddbc b627 cdbd 6d4f c0bc
000002d0: 3258 28bd b8e2 54be b7b8 be3d 9f60 a8be
000002e0: 4a68 a23d 01d5 d93d 6efe 193d 4dc8 cf3b
000002f0: d241 b83d 8f61 783e 2c44 ca3d 8ead d9bd
00000300: cc3c 1ebd 6899 9b3b c7f4 0cbe 488d 08bd
00000310: 6a3e 023d e919 13be 1649 1c3d 83fb 89bd
00000320: c942 04be 0e41 9fbb 6953 f73c 543d c53c
00000330: 0146 993d dede 383c c5b7 44bd 7c08 dbbc
00000340: e9e2 f3bd f3ff 423d ad50 0e3d 5104 303e
00000350: c673 4bbc 588e debd 214f 92bd 0183 9fbd
00000360: 16d5 243d 70b8 1ebe 7ce2 f13b 3997 9cbc
00000370: 179b 8e3d 717d 0e3b d0f8 e5bd 313e bbba
00000380: f406 533d 4c39 573d b4d2 37bd 5229 0f3d
00000390: 4583 50bd 5984 c6bd daf2 0abd ee3d ff3d
000003a0: 20a7 203e a690 b13d dd03 a739 7cb6 f53d
000003b0: 49b2 08bd 9137 6abd 0a14 bcbc 9177 80bd
000003c0: 02a5 95bd 72fd 5cbb be0a 75bd 1337 c43d
000003d0: 0d5f 18be 5082 88bd 6eb4 a53d 7c10 183d
000003e0: 0e14 55bd dee9 a23d 4af2 e83d b9df cbbd
000003f0: 28ca 493c a64e 06bc d057 403d 392b 2c3c
-0.090802096 -0.004909766 -0.13233323 -0.001981475 -0.18093252 -0.00410031 -0.042794574 -0.042514168
0.0031279572 0.15697247 -0.030249411 0.015767388 0.14483705 0.06749912 -0.004026202 -0.077712655
0.0024580495 0.017671855 -0.014760594 0.05243768 -0.007546619 -0.034283992 -0.14106134 -0.109055534
-0.1741 -0.015199125 0.0016282585 -0.084525995 0.13179201 0.0319246 -0.086377636 -0.014362018
0.015310762 0.039487164 -0.052318152 -0.03731483 -0.07088926 0.02940961 0.033446465 0.029140959
-0.07883042 0.150051 0.0043068444 -0.020089334 -0.062300038 -0.039547812 -0.030003421 -0.034297366
0.09270677 -0.05567978 0.05682859 -0.019451154 0.07689951 0.008876523 -0.062470574 0.025741706
-0.08906676 0.043095466 -0.10374341 -0.030254917 -0.000982058 0.0485371 0.0712713 0.006391768
-0.076117195 0.08391546 -0.05829774 0.026860945 0.05644785 -0.019178392 -0.16238812 0.028214224
0.033239022 -0.019401979 -0.028569613 -0.0077896304 -0.07472501 0.002784724 0.13854216 0.012791949
-0.09278057 0.05473975 -0.26917914 0.12116717 -0.273496 0.020295776 0.066117495 -0.06078518
-0.011219301 -0.01073793 -0.030276991 -0.044672035 0.16349904 0.049118616 0.048039194 -0.029505713
-0.089004636 0.00088045234 0.003733999 -0.07216028 0.011381056 0.068895176 -0.0069805123 -0.040484313
-0.03456325 0.016899277 0.043790177 0.019377446 0.059932917 -0.06715018 -0.022879427 -0.02362082
-0.056746732 -0.04423338 0.07647368 -0.08604649 -0.08255966 -0.00036340815 0.02366299 0.01207851
0.03723159 0.0027519672 -0.14968474 -0.017338824 0.026939465 -0.015639497 0.08362339 0.10197327
-0.0956316 0.04985383 -0.045274276 0.020335488 -0.051727816 -0.030722234 0.025110483 -0.03839642
-0.057089712 0.09172463 -0.18879811 0.081915356 0.09696635 -0.07080601 -0.02128786 -0.11996201
-0.13552554 0.09390071 0.0013308958 -0.014275844 0.0031643873 -0.0072281077 -0.31883115 -0.14962155
-0.11902782 -0.090661354 -0.099038586 0.01836082 0.08143838 0.10629811 0.044749077 0.2332221
-0.10820807 -0.1700598 0.07607262 -0.14906624 -0.09238073 0.024491731 -0.0031869565 0.011545268
0.010177791 -0.17871106 0.03518384 -0.2297818 -0.0167169 -0.15040955 -0.013592698 0.01398991
-0.073245086 -0.027015958 -0.1001734 -0.023475373 -0.041099735 -0.20789611 0.09312575 -0.32886216
0.07930048 0.106363304 0.03759616 0.0063410164 0.08996929 0.24255966 0.09876284 -0.10628806
-0.0386322 0.004748512 -0.1376525 -0.03333786 0.031797804 -0.14365353 0.038155638 -0.06737425
-0.12916102 -0.00486005 0.03019114 0.024077095 0.07484055 0.011283604 -0.04802682 -0.026737444
-0.11908514 0.047607373 0.034744907 0.17189147 -0.012417739 -0.10866994 -0.07143999 -0.07788659
0.040242277 -0.15500045 0.0073817354 -0.019115077 0.06963175 0.002174225 -0.11229098 -0.0014285502
0.051520303 0.052544877 -0.044878677 0.034951515 -0.05090644 -0.09693212 -0.033923008 0.12462984
0.15688753 0.086701676 0.000318556 0.11997697 -0.03337315 -0.0571819 -0.022958774 -0.062728055
-0.07306863 -0.00337204 -0.059824698 0.09580817 -0.14880009 -0.0666548 0.08091055 0.037125096
-0.05202108 0.07954763 0.11374338 -0.09954781 0.012316264 -0.008197462 0.046958745 0.010508352

bias f4 [128]
00000000: 3270 d63b 7e0e 87bd ff41 8e3c 190a 0dbe
00000010: 394b 2abe daec e5bd 79e8 e73c 5476 443d
00000020: ccc0 f4bd 1bf3 093e 2ad0 48bd e54b de3d
00000030: cc46 863d 6685 953d 44f2 1a3b 0412 bc3d
00000040: bc4d abbd 81b3 033e 979e 1fbd de04 81bd
00000050: 4a65 a63c d03b 973d 5e1f 903d 6caa 0bbe
00000060: 71f3 88bc 9462 053e af3c 2fbe 4531 34be
00000070: 736a 76be 0a1e d5bd 9c14 0d3d 8bfb 9abd
00000080: 4cbc 063e ebc1 d23d c8d6 2c3d a4ef a1bc
00000090: e9cf 9a38 d1fa 973d 672a dfbd b223 e33c
000000a0: 9696 90bd 637b cf3d 70ae d5bd 2730 833d
000000b0: 2699 e03d adf3 c43b a347 d7bd 0c0c 91bd
000000c0: 0393 55bc eee5 f83d 14a4 913d b3f3 ea3d
000000d0: 7545 b7bd fa2d a63d 9df9 d6bd f4e8 94be
000000e0: 0873 ffbd f954 1cbd aca6 aabd f885 9e3d
000000f0: 5127 d2bd 1117 03bd 3002 c1bd 7147 60bd
00000100: 6928 4bbc 8dd0 6b3d 3879 1f3c ab27 c9bd
00000110: d06a 4dbd f213 c1bd e7bd 12bd c587 523c
00000120: 3b3c f53d 4b63 673c eccd aebc 04c2 b5bd
00000130: e48b f4bd 6699 dbbc de6b 12be 9d53 bdbc
00000140: 8f3f 39bc d560 133e 3566 323d 3265 a23b
00000150: b305 773d 8545 8dbd 5b04 a9bc 9891 f13d
00000160: 82e6 03be d0fe 863d ca6b 113c a0d0 9fbc
00000170: 1e02 0ebe 552b 84be 6b08 033e 8442 1d3d
00000180: 6ebb c73d 4aa2 bd3d f147 cbbc eedc 94bd
00000190: 7288 84bd fea4 083e 5581 50bd ab93 f23d
000001a0: cb90 ed3d 1522 e4bd 5c9c 8fbd 3b6c d63d
000001b0: 5219 9dbd bdff 4cbe 68d0 183d 0f5e a53d
000001c0: 96c6 6fbd e2a5 403d e8b6 41be f9e1 993d
000001d0: 0f25 bd3d 9560 8fbd ad16 043d 0d9c 8d3d
000001e0: b1f4 033d ebd8 883d f5eb c43d 1152 d23d
000001f0: efaf 05be 6660 1f3c 6f31 393d 0b7a 0abe
0.0065441364 -0.06594561 0.017365454 -0.13773383 -0.16630258 -0.112268165 0.028309094 0.04796441
-0.119508356 0.13471644 -0.049026646 0.108543195 0.06556472 0.07300834 0.0023642937 0.09183124
-0.08364436 0.12861444 -0.038969602 -0.062997565 0.02031197 0.07384455 0.07037233 -0.1363923
-0.016717644 0.13025886 -0.17112993 -0.1759692 -0.24064045 -0.1040612 0.034443483 -0.07567509
0.13157767 0.10290893 0.04219702 -0.01976759 7.3820185e-05 0.07420886 -0.108967595 0.027726982
-0.07059972 0.10130956 -0.10433662 0.06405669 0.10966711 0.0060104937 -0.105117105 -0.07082376
-0.013035539 0.121532306 0.071113735 0.11472263 -0.08948795 0.08114238 -0.10496829 -0.2908398
-0.12473112 -0.038166974 -0.083325714 0.07740396 -0.10261405 -0.03200442 -0.09424245 -0.05475563
-0.012399771 0.057571936 0.009733491 -0.09822019 -0.050150692 -0.094276324 -0.035825636 0.012849753
0.11974379 0.014122794 -0.021338426 -0.08874896 -0.119407445 -0.026806545 -0.1429896 -0.023111159
-0.011306657 0.14392407 0.043554503 0.004955911 0.06030817 -0.068980254 -0.02063196 0.11795348
-0.128809 0.065915704 0.008875797 -0.01950866 -0.13867995 -0.2581431 0.1279618 0.038393512
0.09752546 0.0925947 -0.024814578 -0.072687015 -0.064713374 0.1334419 -0.05090459 0.11844572
0.11599883 -0.11139313 -0.07012245 0.10469862 -0.07670845 -0.20019431 0.037308127 0.08074581
-0.058538996 0.0470332 -0.1891743 0.07513804 0.09235584 -0.070008434 0.032248188 0.0691453
0.032215778 0.06681999 0.09615318 0.10269559 -0.13055395 0.009727573 0.04521316 -0.13523118
