result/aug74_then_gan_40_model_14.pt (torch, 980066 bytes, 15 tensors)

weight f4 [128, 13]
000000 58 1e fc 3d 08 81 e4 bc 3c ab 46 3d 4f 9e f5 3d
       0.12310475 -0.027893558 0.048503146 0.119930856
000010 ab 10 0f 3e 5d 39 78 bd 31 b8 ad be 4b 12 6d 3e
       0.13971202 -0.06060158 -0.3392959 0.2315151
000020 c8 92 49 3e 3d 32 3a be c0 93 86 be 38 87 ef bd
       0.19684899 -0.18183227 -0.262846 -0.11695713
000030 09 d9 0d bf 34 5c 6e 3d 79 e0 5d 3e a4 c3 41 bd
       -0.55409294 0.0581934 0.21667661 -0.047305718
000040 21 d3 21 3e 3e e6 9c bd 0f 36 83 3e 37 86 23 be
       0.15803196 -0.07661103 0.2562718 -0.15969168
000050 21 6e 0a 3e 7a 01 e3 bd e6 58 89 3e 87 a0 7b be
       0.13518573 -0.11084266 0.26825637 -0.24572955
000060 c4 e9 39 be e2 12 d1 be ea 36 cf be 78 d6 02 3e
       -0.18155581 -0.4083472 -0.40471584 0.12777126
000070 99 3e d4 bc f3 dc 1b 3e 97 3d 79 be 61 75 64 be
       -0.025908755 0.15221004 -0.24339901 -0.22310401
000080 51 33 a2 3e 04 45 43 be cf 4e 9b be 3e 7c fd be
       0.31679776 -0.19069296 -0.30333564 -0.49508852
000090 00 d4 8f 3b 37 65 e0 3c e2 8c c8 3e c6 79 61 3e
       0.004389286 0.027392013 0.39169985 0.22019109
0000a0 c6 7e 13 be 0d e3 53 3e 92 a2 2f 3e 94 33 b7 bd
       -0.14403829 0.20692082 0.1715186 -0.089453846
0000b0 6b 60 09 3e 36 a2 19 3e 67 a4 04 be 0b d9 25 be
       0.13415687 0.15003285 -0.1295334 -0.16196077
0000c0 a8 31 23 3e 79 b9 97 3e 0d c2 f5 bd 78 12 8c 3e
       0.15936911 0.29633692 -0.11999903 0.2735784
0000d0 5b 9a 00 3f 97 4f 24 3e d6 4d 3c bd f7 4d 1f be
       0.5023553 0.16045986 -0.045972668 -0.15557085
0000e0 32 2a 57 3d 7f 77 78 be d6 f7 9f be 6e eb 90 bd
       0.052530475 -0.24264334 -0.3124377 -0.07076155
0000f0 58 d9 5d bd d1 53 c1 3e ef 39 39 be 0e 03 0f 3c
       -0.054162353 0.3775926 -0.18088506 0.008728756
000100 59 da 56 3e f8 ea b7 be 6d 07 85 be 72 8f 62 be
       0.2098173 -0.35921454 -0.25982228 -0.22125033
000110 1a 7e 29 be 5d 83 a8 bd 3f c2 20 3e b3 d0 a7 3e
       -0.1655201 -0.082281806 0.15699099 0.32776412
000120 53 10 5e bd 99 bf 71 3e 89 53 87 be f8 e1 2b 3e
       -0.054214787 0.23608245 -0.2643092 0.16785419
000130 13 70 d5 3d 00 16 92 bd 85 eb bd 3c 5e e8 52 be
       0.10421767 -0.071331024 0.023183594 -0.20596454
000140 c4 7e 29 be 40 3f 33 be b0 21 7e 3e df 4a c1 be
       -0.16552263 -0.17504597 0.24817538 -0.37752435
000150 6f b1 84 3e c7 23 1c 3d 34 91 cf 3d e9 af b7 3c
       0.2591662 0.038120057 0.10135117 0.022422748
000160 99 98 9d 3d 8e 82 8a bd 31 05 b6 3e ca ae aa 3d
       0.07695121 -0.067631826 0.35550836 0.083341196
000170 b7 0e 2d bd a2 76 67 3e fc 4a 6a 3d ed 12 09 bd
       -0.04225036 0.22603849 0.057200417 -0.033465315
000180 42 6e 9b bd 04 d2 1e be b2 07 6b bc e4 5d 33 3d
       -0.075893894 -0.15509802 -0.014345096 0.043790713
000190 88 e7 0e 3e 4b e4 35 3e 42 b8 16 bb 6f 24 3f be
       0.1395551 0.17762868 -0.002299801 -0.18666242
0001a0 9f 10 c9 be 12 a7 51 3d 55 dc 42 be 32 34 9e bd
       -0.39270493 0.05118472 -0.19029362 -0.07724799
0001b0 46 af 9f 3e d0 ea 4d 3d 5c 9b 18 3e b6 09 5b bd
       0.3118841 0.050272763 0.14903015 -0.053476058
0001c0 c4 d1 92 3e b7 80 80 3e f8 f4 d4 bd de ff 67 bd
       0.28675663 0.25098202 -0.103982866 -0.0566405
0001d0 d8 c9 76 be 50 78 ca bd 4d 70 93 be b9 66 12 be
       -0.24100435 -0.09886229 -0.28796616 -0.14296998
0001e0 c3 78 8b 3c d4 3d 55 3d bd fe 68 3d 6e 50 0f 3d
       0.017025357 0.052060917 0.056883562 0.034988813
0001f0 c4 8a 2c bd d2 83 4f 3e 07 0a 1e be 58 0d 27 3e
       -0.042124525 0.20265129 -0.15433513 0.16313684
000200 07 9f a0 bb a3 4e ce 3e 28 4e 2b 3f 46 70 1e be
       -0.00490177 0.4029437 0.6691613 -0.15472516
000210 2b 63 84 be 43 d0 a8 3e 6d 36 a8 3e 2e 8d 2d be
       -0.2585691 0.3297139 0.32854024 -0.16948387
000220 0c c1 3a bc af 37 ba be 35 15 de be b2 e2 48 be
       -0.011398565 -0.36370608 -0.43375555 -0.19617727
000230 bc 4d e3 bb ba e3 b0 bd 35 3b 6f 3d dd 4a b5 bd
       -0.006936757 -0.086371854 0.058406074 -0.0885217
000240 c9 60 20 be 81 4d 0b 3e 6b f4 00 be 63 ba f6 3d
       -0.1566192 0.13603784 -0.12593238 0.12047269
000250 6f 9b 1d 3e 92 ec 8e 3d fb 0b d7 3d e0 95 05 be
       0.15391324 0.06978716 0.10500332 -0.13045454
000260 ee e1 4d 3e d5 a6 6e 3e 7c 50 1a 3e 8d 58 b3 3e
       0.20105717 0.23305829 0.15069765 0.35028496
000270 57 3b 00 be 81 de 77 be 4e be 1f be 4c 57 11 be
       -0.12522636 -0.24205972 -0.15599939 -0.14193457
000280 12 3d 4f 3c fe c4 e9 3d f1 1a 01 be 8e a9 4f bd
       0.012648838 0.114145264 -0.12607934 -0.05069881
000290 c4 1b a6 be b5 a3 ce bd c3 fe 29 be ae e4 6f bd
       -0.32443058 -0.100898184 -0.1660109 -0.058567695
0002a0 80 2f 3f bd 8c 9c f3 3e cd d6 ea 3d 98 8c 69 3e
       -0.04667616 0.47580373 0.11466751 0.22807539
0002b0 54 eb 82 3d 9a 22 3e be dd 0b 0e bd 32 b0 6e be
       0.063925415 -0.18567887 -0.034679282 -0.233094
0002c0 14 dd 99 3d 0c 83 89 bc 4b 3c 47 be 63 11 b6 3e
       0.075128704 -0.01678612 -0.19456594 0.3556014
0002d0 ea b5 9d bd d7 f0 af 3e bc 62 4e bd 22 e3 44 3e
       -0.07700713 0.34363434 -0.05038713 0.1922727
0002e0 2e d3 70 3e 52 b3 19 3d 97 11 5b 3e 5f 7d 85 3e
       0.23518059 0.03752453 0.21393429 0.26072213
0002f0 ea 2b 8f be d1 62 d6 3c f3 41 71 be 53 ed 43 bd
       -0.2796319 0.026170166 -0.23560314 -0.047833752
000300 dc ca 09 bd 52 a7 4e 3d 85 7e 3d 3e 6a ed 04 bb
       -0.033640727 0.050452538 0.18505295 -0.0020283111
000310 12 c4 29 be 3d 38 6d 3d f6 33 50 3e 33 fd 58 bd
       -0.16578701 0.05791496 0.20332322 -0.052975845
000320 dc 4a 02 be 99 19 67 3e 44 73 51 3e bf 6f 93 be
       -0.12723869 0.22568358 0.20454127 -0.28796193
000330 9b 94 bb be 6b bc 04 3e 8e 24 26 be 3b 71 b6 3e
       -0.36636814 0.12962501 -0.16224882 0.35633263
000340 db bc 58 3c e3 39 91 3e 40 93 8e 3e 8f f8 d5 3c
       0.01322862 0.28364477 0.27846718 0.026119499
000350 1d 97 12 be 89 7a ae be 49 77 9d 3e 8d 39 cc be
       -0.14315458 -0.34077862 0.3075507 -0.39887658
000360 95 ab c3 be 06 6c f0 bd dc 75 48 ba 63 cf 72 3e
       -0.38216844 -0.11739354 -0.0007646957 0.23711924
000370 89 21 01 bf e8 dd 59 3e 34 af 90 be 28 6a 87 3c
       -0.50441796 0.21276057 -0.2825867 0.016530111
000380 22 7a a8 3d f3 61 22 3e a2 c7 b0 3e 88 37 81 be
       0.0822642 0.15857677 0.34527308 -0.2523768
000390 4a 4e f9 3c e5 1a 6b be 9b fd 20 3e 98 7f 7c bd
       0.030432839 -0.22959478 0.15721743 -0.06164512
0003a0 fd de 64 bd 02 3e 07 be 1f 6e a6 3e f7 22 05 be
       -0.05587672 -0.13207248 0.3250589 -0.1300162
0003b0 30 63 94 3e 25 87 dc 3e ef 6c 84 be d4 fb 95 bd
       0.28981924 0.43071857 -0.2586436 -0.07323423
0003c0 cf 39 38 be 1c 16 3d 3d 22 dc 1e bd 14 80 06 bc
       -0.17990802 0.046163663 -0.038784154 -0.008209247
0003d0 dc ce 7a 3e ea f1 1d be df 96 91 3e 16 48 69 be
       0.24492973 -0.15424314 0.28435418 -0.22781405
0003e0 41 51 6f 3c 4b 45 ed bc 05 5e 27 3e 5b 77 8f bc
       0.014606775 -0.028963706 0.1634446 -0.017512968
0003f0 89 13 1e 3d 84 76 4b bd b3 ef fa bd 22 b2 c4 be
       0.03859285 -0.049673572 -0.1225275 -0.38417155

bias f4 [128]
000000 90 e5 f4 bd cc 67 e2 bd 5a bf 35 be 07 1d ad bd
       -0.11957848 -0.11054954 -0.17748776 -0.08452802
000010 ad 28 11 3e dd 7d 7e 3e 5d 4f 61 be d0 2d 5e 3e
       0.14175673 0.248527 -0.22002931 0.21697164
000020 32 65 eb bd 82 a9 9f 3e 14 9a 68 be 0d 9a 80 3e
       -0.11493911 0.31184012 -0.22715026 0.2511753
000030 e9 7f 03 be 65 a0 da bd d6 f0 4d 3e 00 31 dd bc
       -0.12841763 -0.10675124 0.20111403 -0.027000904
000040 b8 82 fa bd 9b 50 84 be 7d 7a a6 be 1d af 36 3e
       -0.12231964 -0.25842747 -0.32515326 0.17840238
000050 b4 67 37 3e 89 5f 99 be 08 8f 78 be 9b 18 a2 3d
       0.17910653 -0.299557 -0.24273312 0.07914849
000060 67 14 73 3d 2e 8e 47 bd 32 5c 49 be 29 fb 1d bd
       0.05934563 -0.048719577 -0.19664076 -0.038569603
000070 77 5a fe bd 00 6a ae bd df 87 4f 3e 37 7f d2 3d
       -0.124195985 -0.08516312 0.20266674 0.102781706
000080 c8 73 6c b9 1b 00 9b 3d e6 e7 06 3e bc 9a d9 bd
       -0.00022549846 0.075683795 0.131744 -0.10625216
000090 87 18 65 be cb 36 86 3e 1e 09 42 3e d8 d1 62 3e
       -0.22372638 0.2621368 0.1894879 0.22150362
0000a0 cc 09 81 be 26 7f e6 bd e2 5b f8 bd dc c3 b7 3d
       -0.25202787 -0.112547204 -0.121269 0.08972904
0000b0 d3 2a aa bd 01 5f 26 3d 5f d3 2a 3e fa da 8f 3e
       -0.08308949 0.040617947 0.16682194 0.28096753
0000c0 ea 7c 0d be 34 41 73 be e3 6f 99 be cb 8b 68 be
       -0.13817182 -0.23755342 -0.29968175 -0.22709577
0000d0 35 70 23 be 03 42 b1 be b2 73 7a 3e 77 56 4c 3e
       -0.15960772 -0.34620675 0.24458197 0.19954859
0000e0 a5 61 b8 bd 59 8f 56 3e 02 c4 68 be 89 b6 8a 3e
       -0.09002999 0.2095312 -0.22731021 0.27092388
0000f0 6b 00 07 be 8a c5 13 3e 0e c3 a0 3d 54 79 29 3d
       -0.13183753 0.14430824 0.07849704 0.041375473
000100 e6 68 30 3d 7c f8 9c bd 7c 82 9b bd 96 62 08 3e
       0.04306879 -0.07664582 -0.07593247 0.13318858
000110 20 ab f0 bc b1 36 00 be 41 f5 80 3e 4a fb ae be
       -0.029378474 -0.12520863 0.25187114 -0.34176093
000120 51 fb b3 bc 77 ea be 3d a0 f2 89 3d 29 2e 5d be
       -0.021970423 0.09322064 0.0673573 -0.2159964
000130 7d 83 58 bc 46 28 95 3d f4 c3 62 bd b2 91 5b 3e
       -0.013214943 0.07283072 -0.055362657 0.21442297
000140 f2 01 28 3e 6c 46 cd 3c 39 33 00 3d f4 4d 47 be
       0.16406992 0.025057994 0.03129885 -0.1946333
000150 2e 03 46 3d d0 fa ac bd a2 c7 5e 3e 02 56 5c 3e
       0.048342876 -0.08446276 0.21755841 0.21517184
000160 45 27 2b 3d 3d da 14 bb 8e 8f 34 3e e1 2e 8c bc
       0.041785497 -0.0022713088 0.17632887 -0.017112197
000170 c5 c6 82 3e e4 03 b4 bd 26 e9 d3 3d bb 09 11 3e
       0.25542274 -0.087898046 0.10347204 0.14163868
000180 1c 54 84 3e e1 34 6b 3e 77 41 9d 3d 76 2e 65 be
       0.2584542 0.2296939 0.07678502 -0.22381005
000190 00 7e b2 3e 4a 10 8e bd 1c 1a 0b 3e 91 21 f9 bc
       0.34861755 -0.06936701 0.13584179 -0.030411514
0001a0 b9 05 29 3e bf c4 2c be 26 22 72 be 29 bf 97 be
       0.1650609 -0.16871928 -0.23645839 -0.2963803
0001b0 0d 53 19 be 11 16 f1 bd 2e af 8c be 62 0a bd 3d
       -0.14973088 -0.11771787 -0.27477401 0.09230496
0001c0 bc ce 32 3e 64 94 71 bd d5 21 74 3d 9e c0 d5 bd
       0.17461675 -0.058979407 0.059602577 -0.104371294
0001d0 fa 22 80 3e ab 02 d5 3d 9a 28 1f 3e 00 4a 04 bb
       0.25026685 0.104008995 0.15542832 -0.002018571
0001e0 f7 cd b4 3d c0 83 5a be 01 1a 1e bd 3b 74 0b 3d
       0.08828347 -0.21339321 -0.038599018 0.034046393
0001f0 9f b1 3a 3e 35 0f a8 bd 75 93 84 3e 48 50 b4 3d
       0.1823182 -0.082060255 0.2589375 0.08804375

weight f4 [512, 128]
000000 26 ed 95 3d 93 52 f5 bc a1 7c 20 3e ce 28 9c bd
       0.07320623 -0.029946601 0.15672542 -0.076249704
000010 97 15 35 be f5 5f 63 bd cf 76 e8 bc f4 73 3e 3d
       -0.17684017 -0.055511434 -0.028376965 0.0464973
000020 30 b7 4f bd ae 68 20 bc ed 00 a5 bc 4c 08 f2 bc
       -0.05071181 -0.009790583 -0.020142043 -0.029544972
000030 cf b6 70 bd f3 98 27 3d 8b 38 99 bd df 3a 29 bd
       -0.05876809 0.040917348 -0.07481488 -0.04131591
000040 ec 05 b1 3c cb c4 90 ba e0 c7 03 3e f4 77 29 3e
       0.02160927 -0.0011044977 0.12869215 0.16549665
000050 86 a1 84 3d 48 e0 81 bd 10 b7 82 3e c0 a0 5f be
       0.06476121 -0.063416064 0.2553029 -0.21838665
000060 ea e6 8a ba 8b 82 a3 3d e2 ec c7 3d 67 53 85 3c
       -0.0010597382 0.079838835 0.09761979 0.01627512
000070 58 44 d9 bc 04 2d 18 be 96 23 be bd b9 13 b4 bd
       -0.026521847 -0.14860922 -0.09284131 -0.08792824
000080 a0 ae 4f bd a0 b9 1f be 29 0e 0c 3e c0 81 a4 bb
       -0.050703645 -0.15598154 0.13677277 -0.00502035
000090 2c 6e 29 3c d6 20 c8 3c 0c e6 5a bc 16 4e bd bd
       0.010341208 0.02442972 -0.0133605115 -0.09243409
0000a0 f3 9e c8 bb 79 23 ee 3c 7e 53 6e bc b5 ae 9a bd
       -0.006122464 0.029069649 -0.014546273 -0.07552854
0000b0 67 f8 07 be 96 93 63 3d 2a 84 41 3d 9f e7 e2 3c
       -0.13278352 0.05556067 0.047245182 0.027698336
0000c0 91 ff 38 3d 5e cb 85 bc fc 4a 1c bd 92 a0 a7 3d
       0.045165602 -0.016332325 -0.03815745 0.08184923
0000d0 79 76 1a be 8a 6d 01 bd d7 ba c4 bc b5 1e 18 be
       -0.15084256 -0.031598605 -0.024014873 -0.14855464
0000e0 25 dd 01 be dc d9 fb bd a6 e3 c4 3d 75 e7 4c 3e
       -0.12682016 -0.12297413 0.09613733 0.20010169
0000f0 f9 25 8e 3d 07 10 28 3d 2c 6c d9 3d 0a 61 be bd
       0.069408365 0.04103091 0.10616335 -0.092958525
000100 0a 45 84 bd cb 1a 3e bd 79 e3 a2 3d 31 91 55 bd
       -0.06458481 -0.04641227 0.07953543 -0.05214042
000110 ef f9 80 3d 6b 78 da bc 40 5a d2 bd 50 73 31 bb
       0.06297671 -0.026668748 -0.1027112 -0.0027076788
000120 6a 67 8a 3d b2 4a 12 3e 2f f9 08 bd 18 b6 77 bd
       0.06758006 0.14286307 -0.033440765 -0.060476393
000130 5e d4 ef bc 27 2c 87 bd c7 1c c1 bd 13 1f 8e bd
       -0.02927607 -0.06600218 -0.09429317 -0.06939521
000140 ad 76 80 3d 70 a9 b0 3d 8b 30 92 3d e4 86 83 bc
       0.062726356 0.08626068 0.07138165 -0.016055532
000150 de b3 23 bc 9e be c5 3d e7 8f 39 bc 0a 3c 01 be
       -0.009991614 0.09655498 -0.011325813 -0.1262056
000160 43 1e 35 3d ea 49 5b be 8a 0f a2 3d 14 01 26 bd
       0.044218313 -0.21414915 0.0791312 -0.040528372
000170 80 06 b1 3d 5f dc f5 bb 02 e4 01 3d 50 02 b5 bd
       0.08643818 -0.007503077 0.031711586 -0.08838332
000180 65 ee 02 3d db a8 b4 3d 61 b3 71 3d 68 d6 89 bc
       0.031965632 0.08821269 0.05900896 -0.01682587
000190 93 79 83 3e ae 26 6f 3d 7b 48 b1 3d 1c 90 a0 bd
       0.2567869 0.058386497 0.08656403 -0.07839987
0001a0 8f cb 86 3d 89 ee b0 bd 6d 0a 17 bd 92 1f e1 3d
       0.065817945 -0.08639247 -0.036875177 0.1099235
0001b0 d0 98 de bd ee da 82 3c 10 1f f3 3d 43 92 82 3b
       -0.108689904 0.015973534 0.11871159 0.003984721
0001c0 01 ae ca bd 76 a6 00 bd d1 7b a9 bd fb 66 28 3d
       -0.0989647 -0.03140875 -0.08275569 0.041113835
0001d0 3a 84 bf 3d 5d b7 9b bd 0d b6 f1 3b d0 40 87 bd
       0.09351392 -0.07603333 0.0073764385 -0.06604159
0001e0 e2 e5 c2 bc 5c 20 0e 3c 71 e6 d6 3c 2d 24 f9 3b
       -0.023791257 0.008674707 0.02623293 0.0076031894
0001f0 0d b7 d7 bd 47 eb 33 3d 1c 37 a2 3d 4a 8c 41 3c
       -0.10532961 0.04392555 0.079206675 0.011813233
000200 ec 61 90 3d ec 7b a0 3d 39 8b fd bd 5c 1e 4f 3d
       0.07049927 0.07836136 -0.1238007 0.050566062
000210 08 b3 4b bc 60 80 8a bd df 24 ae 3b e1 5f 63 bd
       -0.012432821 -0.06762767 0.005314454 -0.05551136
000220 f6 41 0a 3e 18 3d 63 3d 19 f2 4e bc 8b da 3f 3d
       0.13501725 0.055478185 -0.012630963 0.04683928
000230 df 58 82 3c f4 fd c8 3c a7 7a 1c bd ae 94 d4 3b
       0.015911518 0.024535157 -0.038202908 0.0064874506
000240 04 8f 2b bd 34 33 b8 3d e8 4a d3 bc ed 08 bc bd
       -0.041884437 0.08994141 -0.025792554 -0.0918139
000250 68 1f a8 bd a3 7a d5 3d b1 a8 c8 bd 76 27 6a 3d
       -0.08209115 0.10423782 -0.097978 0.05716654
000260 38 f3 03 3d 90 7b 33 bd dd 3b c3 3d 03 3f 5c bd
       0.032214373 -0.04381901 0.095329024 -0.05377103
000270 ec 59 0d bd 0d e8 d1 3c fb d5 47 3d 4e 7c fb 3c
       -0.034509584 0.025623346 0.048788052 0.030698922
000280 3c 58 84 bd 90 89 e5 3d cb 0a 84 bd fa 5b fa 3d
       -0.06462142 0.112078786 -0.06447371 0.122245744
000290 0d ed c6 bb ab cb dc bd 14 f5 a3 3d 9f 1d 34 bd
       -0.006070739 -0.10781034 0.08005729 -0.04397356
0002a0 1b 08 52 bd 73 6c 1b 3d 61 47 e0 3d 8c c5 ab bd
       -0.05127726 0.037945222 0.109511144 -0.083872885
0002b0 ca 24 82 3c 57 1b d9 3c 01 ce dc bc 61 2b 8c 3d
       0.015886683 0.026502294 -0.026953699 0.06844211
0002c0 0f 4b 4b 3d 79 c3 77 3d 58 7c 08 bd 87 3f e4 3d
       0.04963213 0.06048915 -0.03332171 0.111449294
0002d0 b6 85 97 bd aa 48 c7 3c 85 07 8d bc bc ee 94 3d
       -0.0739855 0.024326641 -0.0172155 0.072720975
0002e0 f4 4f af 3c b8 1c b3 bd 20 25 38 be fe f0 68 be
       0.02140043 -0.08745712 -0.17982912 -0.22748181
0002f0 e3 fa 5f 3d ca e3 d8 bd a0 82 82 3d a0 a0 8f 3b
       0.054682624 -0.10590322 0.06372571 0.0043831617
000300 f9 ee c8 bd 9c 54 7a bd 9e cf ab 3d c6 53 68 bd
       -0.098112054 -0.061115846 0.08389209 -0.056720518
000310 64 f5 48 bd 4a 8a b7 bc fb ef c0 bd 4a db f1 bd
       -0.049062148 -0.022404809 -0.09420773 -0.11809404
000320 c7 c0 3c bd 7b 19 1c bd 84 7f 70 bd 10 5e f4 bd
       -0.046082284 -0.038110238 -0.05871536 -0.119320035
000330 f8 79 8a bd fb 0f f1 3b 01 78 b4 3c b1 12 22 bb
       -0.06761545 0.0073566413 0.022029879 -0.002473038
000340 f2 ef c9 bd 12 5f d9 3c 66 2c c6 bc e9 32 ff bc
       -0.09860219 0.02653459 -0.024191093 -0.031152206
000350 23 e3 31 3d 3f e7 a0 3b be ff d5 bd 5a e5 f5 bc
       0.043429505 0.004910379 -0.104491696 -0.03001659
000360 ea bd 85 3d 13 ab 80 bd 7d cd 0d bd f9 1b 96 bd
       0.06530364 -0.0628263 -0.034619797 -0.07329554
000370 9f 24 4a bb 59 04 c4 bd 2c 79 51 3d fe 55 ad bd
       -0.0030844582 -0.09571142 0.05114095 -0.08463667
000380 9d d4 70 be 9b 17 4e bc d7 c7 62 bd 78 64 ef 3d
       -0.23518606 -0.01257887 -0.055366363 0.11689085
000390 d1 d5 86 3d 70 72 19 3e 58 c1 af 3d b9 fe 40 3d
       0.06583751 0.1498506 0.08581799 0.047117922
0003a0 c8 93 80 bc 6e f6 2a bd 76 40 bd 3d 45 1f 57 bd
       -0.015695468 -0.04173892 0.092408106 -0.052520055
0003b0 4c b3 f3 3c de df a0 3b 8c b5 1c 3d 84 cb 49 3d
       0.029748581 0.0049094995 0.038259074 0.049266353
0003c0 dc 98 76 bc 56 93 05 bd 43 62 76 3d f6 ee d2 3d
       -0.015051093 -0.032611214 0.060152303 0.102994844
0003d0 bd a9 87 3d 41 23 a8 3c dc 09 75 bd f5 42 bd bd
       0.06624172 0.020524623 -0.059823856 -0.09241287
0003e0 6d 27 9d 3d 3b 76 77 3d da 95 ab bd 62 eb 6b 3d
       0.076735355 0.060415488 -0.08378191 0.057597525
0003f0 09 55 64 3c 7f 88 af 3d 30 46 a2 bd 40 8e c3 bd
       0.01393629 0.085709564 -0.079235435 -0.095486164

bias f4 [512]
000000 11 c5 d1 3d 35 b1 7c bd ed 82 82 3d 01 f7 44 3d
       0.102426656 -0.061692435 0.06372628 0.048087124
000010 38 1e b5 bc 36 b9 87 bb 1a bd 44 3d 57 f1 ca bc
       -0.022109136 -0.004141952 0.048031904 -0.024773283
000020 55 42 e7 b9 c6 05 4d 3d 24 4d 00 bd f8 ad 63 bd
       -0.00044109175 0.050054334 -0.031323567 -0.05558583
000030 8b 43 d0 bc d4 d2 ee 3d 81 0d 0b 3d 0e 6b 14 bc
       -0.025422832 0.11661306 0.033948425 -0.009058727
000040 21 c8 55 bb bf b9 d5 bc 02 65 27 be a0 5c 02 bd
       -0.0032620507 -0.026089547 -0.16347125 -0.031826615
000050 0b 2e a9 3d 59 4a 11 bd e1 b1 8d 3d fc fc 86 3d
       0.08260735 -0.035471294 0.06918693 0.06591222
000060 3a 6f ab bc 05 78 bb bd d9 e6 7f bd d6 be ad bc
       -0.02092706 -0.09153751 -0.062476013 -0.021209162
000070 10 d2 9b 3c ef 80 3b 3d 86 fe 1b bd 73 dc 9b 3d
       0.019021064 0.045777258 -0.03808453 0.07610407
000080 57 b7 d6 bc 57 55 f3 bc d5 96 94 bc 44 7d 04 3d
       -0.02621047 -0.02970378 -0.018138329 0.032346025
000090 36 32 26 3d 22 ff 25 3d 34 87 b9 3c 81 54 b9 bc
       0.04057523 0.040526517 0.022647478 -0.022623302
0000a0 bd f0 68 38 12 c1 42 bd 29 6f a7 bc f2 5a 5f 3c
       5.5537315e-05 -0.047547407 -0.020438747 0.013632523
0000b0 7c a8 97 3d 59 4d a1 3c 45 c4 83 3c 83 28 bc 3c
       0.07405183 0.019690203 0.0160848 0.022968536
0000c0 25 d3 35 bd 4e 8e c9 3d 9b 57 f2 3d 5d d4 a8 bd
       -0.044390816 0.098415956 0.11833116 -0.0824363
0000d0 70 b7 73 3c c8 f9 a3 3d fa 37 0d 3d 71 28 0e bd
       0.014875278 0.08006626 0.03447721 -0.034706537
0000e0 e3 7c 80 3d 48 85 d7 bc cb 9b ea ba 63 55 8b 3d
       0.0627382 -0.02630867 -0.0017899213 0.068033956
0000f0 d9 ad 26 ba ae 67 a4 3d 07 13 e5 b9 c2 1f ce bc
       -0.0006358303 0.08027588 -0.0004369246 -0.025161628
000100 81 05 07 3d 52 2b f5 3c 18 be 51 3d 80 84 cb bc
       0.032964233 0.029927883 0.05120668 -0.024843454
000110 7c 5f ad bd 7a d7 e4 3d 02 61 dc 3c d3 fc f3 bc
       -0.08465478 0.111739114 0.026901726 -0.029783642
000120 e9 99 83 bc c7 38 d7 3d 1e 28 76 3c 22 8e eb bc
       -0.016064601 0.10508876 0.015024213 -0.028754298
000130 50 00 99 bd 32 00 0c bc 2a 69 33 bd 21 67 c9 3d
       -0.07470763 -0.008544968 -0.043801464 0.098341234
000140 df fd 6e bd d5 36 a2 bc 37 26 9e bd e2 69 95 bc
       -0.05834758 -0.019801537 -0.07722133 -0.018238965
000150 dd f3 70 bd c7 9f 46 3d 99 5d 6d 3d b4 71 d5 bd
       -0.058826316 0.04849222 0.05795059 -0.10422078
000160 ae f8 38 bd f0 1c 46 3d 17 de 79 bc 44 fe cd 3d
       -0.045159034 0.04836744 -0.015250704 0.10058263
000170 7e a0 da bd fb 64 75 3c 0e c2 91 bd a9 e7 2c be
       -0.10675143 0.014977689 -0.07117091 -0.16885246
000180 c9 47 51 bd b9 96 38 bd 8a 41 a6 bb b3 dd a4 3d
       -0.05109385 -0.045065615 -0.005073731 0.08050098
000190 86 8e fb 3d 47 a7 45 3c 7c 62 23 bd 16 56 00 bb
       0.122830436 0.012063808 -0.039888844 -0.0019582561
0001a0 71 02 83 3d 9e 39 1c 3d e6 a3 a1 bd 63 f9 8d 3d
       0.0639695 0.038140886 -0.07892589 0.06932332
0001b0 2d c8 d6 bd 00 9d ec bc ee 46 06 3d d3 47 e0 3c
       -0.10487399 -0.028883457 0.032782488 0.027377998
0001c0 33 34 a5 bc 89 34 d0 bb a1 5f e1 3d da 7d 1e 3d
       -0.020166492 -0.006353919 0.11004568 0.03869424
0001d0 2d 41 dd bc bc ba e7 bd 55 ad b0 3d 87 b3 8f bd
       -0.027008617 -0.11314914 0.086268105 -0.07016664
0001e0 69 40 14 3d 53 9f a2 3c 3b 57 5b bd 16 8c 01 3c
       0.03619424 0.019851362 -0.053549986 0.007906934
0001f0 ed e3 7b bd 08 f5 8c 3c 6d a0 3b bd b1 b6 ce bd
       -0.061496664 0.017206684 -0.04580729 -0.10093439
000200 39 d4 bf 3c c4 21 15 3d 33 1f 36 3d a2 a5 89 3d
       0.023416625 0.036409155 0.044463348 0.06721045
000210 3b 70 10 3d bd 41 8c bd 1d 0f 88 3d f0 79 88 3d
       0.03526328 -0.06848476 0.06643508 0.06663883
000220 f7 05 90 3d f4 ef 95 bd 5a 4f e5 3d a9 66 1f bd
       0.07032388 -0.07321158 0.11196776 -0.038916264
000230 f2 00 c9 3c e9 02 25 bd c4 f4 4d 3c be 37 7b 3d
       0.024536584 -0.04028598 0.012570564 0.061332457
000240 75 0c 79 bd 41 e6 11 bd ba 54 05 be d5 60 de 3d
       -0.060802896 -0.035619978 -0.13020602 0.10858313
000250 4f 11 0b bc 3a 2e fe bc 34 c6 c4 bd 66 a1 02 be
       -0.008488013 -0.031027902 -0.09608117 -0.12756881
000260 c8 28 cb 3b cf e8 89 bd 77 f0 a7 bd 62 0a 93 3c
       0.00619993 -0.06733858 -0.08200162 0.017949287
000270 82 34 ce 3c 2d 98 89 3c 47 d5 e5 bd 1c ff c5 3d
       0.025171522 0.016796196 -0.1122232 0.09667799
000280 ab da f5 bc 40 45 f1 bd 13 1e 58 bb 83 b1 0b 3c
       -0.030011496 -0.117807865 -0.003297691 0.008526209
000290 d6 51 c2 3d 57 41 11 3d 67 a9 52 3b 17 0b 4f bd
       0.09488265 0.035462704 0.0032144429 -0.050547685
0002a0 41 37 bc bc b6 d3 5b bc b9 7f 40 3c ee 2c 46 bd
       -0.022975566 -0.013417175 0.011749201 -0.048382692
0002b0 79 a9 da bd 6d 69 27 3d e5 ad 5d 3d 71 0f 58 bd
       -0.106768556 0.040872026 0.054120917 -0.0527491
0002c0 5b 31 41 bd 0f 73 cd 3c ab b1 40 3d a6 98 f2 3c
       -0.04716621 0.025079278 0.047044437 0.029613804
0002d0 fb 75 d3 3d 87 a9 80 3d 46 da 6d bd 83 5d 73 bd
       0.10325237 0.06282335 -0.05806949 -0.05941535
0002e0 60 52 2e bd 19 27 b0 3c ff 1b b5 bd 93 76 7d 3c
       -0.042559028 0.021503018 -0.088432305 0.015470165
0002f0 4e 63 ce 3c ec 4c cb bd bb 75 51 3c d2 06 ad 3d
       0.025193837 -0.09926781 0.012784417 0.084485665
000300 8c 50 94 bd 8d 12 9e 3d ac 51 c2 3d 22 ad 8b 3d
       -0.072419256 0.07718382 0.09488234 0.06820132
000310 74 34 a1 bd 73 41 93 bd be 2d e5 3c dd 04 35 bc
       -0.07871333 -0.07190218 0.027975913 -0.011048523
000320 a5 2b 46 3d a6 5c 3b 3d bb b6 12 3c 13 4b a2 bc
       0.048381466 0.045742653 0.008954699 -0.019811189
000330 19 05 60 3c 7d 18 4e 3d 50 f7 8c bd d6 9d 54 3d
       0.01367309 0.050316323 -0.068831086 0.051908337
000340 cf 46 fc 3d 58 27 08 bd 2d 4e 97 bd 42 6d 26 3d
       0.12318193 -0.033240646 -0.07387958 0.04063154
000350 99 66 cd bc 0b 50 90 3d 9d 8f c6 3d 75 96 27 bc
       -0.025073336 0.07046517 0.09695361 -0.010228743
000360 e5 75 f5 bd 7c c0 b4 bc 7b b6 e8 bc eb 1c fb bc
       -0.11985377 -0.02206444 -0.028407326 -0.030653438
000370 fd 8d a6 bd 93 03 84 3d 5c 41 9e bd c7 47 73 3d
       -0.08132551 0.06445994 -0.0772731 0.059394624
000380 91 c8 16 3e 66 ad ed bc 1d 3d 8e 3d 2d 12 a6 bd
       0.14724948 -0.029013347 0.0694525 -0.081089355
000390 4a 63 db bd 40 94 c8 3d 65 f3 45 bd 9a 47 e7 bc
       -0.10712297 0.097939014 -0.048327822 -0.028232384
0003a0 f0 c7 10 3c e7 41 c5 3d 0a 14 8e 3d e6 8a 09 bd
       0.008836731 0.096317105 0.06937416 -0.03357973
0003b0 e2 c4 67 3d 56 31 b4 3b fa 4e 00 3c 94 90 bd 3c
       0.056584246 0.0054990454 0.0078313295 0.02314023
0003c0 73 3d cc bc f4 d5 77 3d 64 6f cd bc f6 ca c7 bc
       -0.024931645 0.060506776 -0.02507753 -0.024388772
0003d0 6c 73 16 be 3c d3 c2 3b 6a 7b 08 3d be ba 04 3c
       -0.14692467 0.0059455913 0.03332082 0.008101163
0003e0 e1 50 ae b9 79 07 55 bd fe 13 56 3d 73 8e 32 bd
       -0.00033248126 -0.05200908 0.05226516 -0.04359288
0003f0 fa 27 97 bd 12 18 10 3c 07 21 04 3c 4a 24 69 bd
       -0.07380672 0.008794801 0.008064515 -0.056919374

weight f4 [256, 512]
000000 cd db 03 3d 0f 67 2b 3d 63 0b 91 3b 42 4c 8e 3d
       0.03219204 0.04184633 0.004426406 0.06948139
000010 91 fb 8d bc 57 f0 fe 3c 76 4d 8c bd 9c fe db 3d
       -0.01733187 0.031120462 -0.06850712 0.10741922
000020 13 fd 98 bd a7 d0 96 bb a2 5b 20 bd e8 c6 0e 3d
       -0.07470145 -0.00460251 -0.039149888 0.03485766
000030 c8 08 c4 bc 5a 7f 66 bb 39 0c 62 3e ae e0 8a bd
       -0.023929968 -0.0035171122 0.22074975 -0.067811355
000040 22 10 d6 3c 14 08 f6 bb 5c de 65 3c c5 f4 81 bd
       0.02613074 -0.007508287 0.014030065 -0.06345514
000050 33 52 93 bc cf ae 9b 3d 3e 86 70 bd d8 5f 28 bd
       -0.017983532 0.076017015 -0.058721773 -0.04110703
000060 2f 58 53 3d 20 d4 a7 bd a1 f4 6a bb 86 de 15 bb
       0.05159777 -0.081947565 -0.0035851377 -0.002286823
000070 6b 1f d5 bd a7 0c 3f bd 54 5f 7d 3d 70 47 58 bc
       -0.10406383 -0.046642926 0.06185849 -0.013200626
000080 37 6d 10 3d 5d 2c 38 bb 22 38 bf bd 9d da 99 bd
       0.035260405 -0.0028102614 -0.09336878 -0.075124
000090 dc 2f ea bc 05 19 12 bc 7e ef 39 3d 8a 04 3a 3d
       -0.028587274 -0.008917098 0.045394413 0.045414485
0000a0 25 41 19 bd da cf 97 bd f2 b5 87 bc a2 13 1a 3e
       -0.037415642 -0.074126914 -0.01656625 0.15046552
0000b0 67 bf 25 bc 43 99 b2 3b 95 a3 34 bd 59 69 a6 3d
       -0.010116435 0.005450399 -0.044101316 0.08125562
0000c0 1e 66 d6 bb 0c 68 3e bc c4 fc a5 3b 40 96 a7 3d
       -0.006542935 -0.011621486 0.0050655324 0.08182955
0000d0 47 e3 c7 bc b9 74 37 bd ca ad 38 3e cb de 14 bd
       -0.024400366 -0.04478905 0.18035045 -0.036345284
0000e0 1a 67 0d bd c5 45 a6 3c fc c8 8c 3b d8 a5 66 3c
       -0.034522153 0.02029694 0.00429642 0.014077626
0000f0 59 51 8f 3c 4f 54 1a be 4e 2a 9e bd cb 05 ec bc
       0.017494844 -0.15071224 -0.07722913 -0.028811356
000100 ca 34 c2 3c 86 ea d7 bb 89 40 2c bd 0a 8a e0 3b
       0.023706812 -0.0065892367 -0.042053733 0.006852393
000110 a0 22 3e 3e 1b 20 c4 3d c5 f0 5c bd 2d 0e 86 3d
       0.18567896 0.09576436 -0.053940553 0.065456726
000120 63 e2 9e 3d 01 8e 9f bc b0 a1 e3 bd 47 09 be 3d
       0.077580236 -0.019476892 -0.11114824 0.09279113
000130 e8 7a 7e 3c 4a ae 21 bd 47 4a a2 bc b8 9c 74 3c
       0.015532233 -0.039472856 -0.019810809 0.014929943
000140 e1 d7 84 3d 38 d2 37 3d ad c4 65 3d b6 c6 84 3c
       0.06486488 0.044878215 0.056095768 0.016208034
000150 76 9c 4e bd 20 30 4f 3c d3 87 bf bc 4d 87 ad bc
       -0.05044218 0.012645751 -0.023380196 -0.02118268
000160 6c 21 5a ba 06 38 ad bd 5b aa 77 bd de 03 08 bd
       -0.000832102 -0.08457951 -0.060465198 -0.033206813
000170 c6 35 c8 bc a0 28 95 bc 1f f1 05 3b de 65 19 3d
       -0.024439704 -0.018207848 0.0020437909 0.037450664
000180 f2 e8 2d 3e 8f b9 cd 3b 35 e6 02 3d fc 7c ab bc
       0.16983393 0.006278224 0.031957824 -0.02093362
000190 6d a7 73 bd 2e 4e 02 3b 40 f3 3d 3d 02 93 6f bd
       -0.05948584 0.0019883025 0.04637456 -0.058489807
0001a0 5b ec 1e bc c4 af e6 bc 1a ea 81 3c 56 07 b8 3d
       -0.009699906 -0.028159983 0.015858699 0.08985774
0001b0 ef d5 18 bb 5e 34 5a bd 49 fc 20 bd 72 b6 90 bc
       -0.0023320874 -0.053272597 -0.039303098 -0.017665122
0001c0 9c 54 5a bb cf 0a 47 3d f2 e8 8c bd b8 42 55 3b
       -0.0033314591 0.048594292 -0.06880368 0.0032540988
0001d0 78 79 00 3e 80 44 3e 3d ea 3a 3f bd 7c 83 59 3e
       0.12546337 0.046452045 -0.046687044 0.21241564
0001e0 12 70 ed 3c 6f c8 27 3d b4 5b 72 bc fc ef 27 be
       0.028984103 0.040962633 -0.014792372 -0.1640014
0001f0 72 5d 89 bc 76 de 17 be 80 92 94 bc 25 5f 24 3e
       -0.016768191 -0.14830956 -0.018136263 0.1605192
000200 11 5f 59 3d e2 25 60 3d 02 16 00 bd 02 f3 7d bb
       0.053069178 0.054723628 -0.03127099 -0.003874958
000210 76 01 a5 39 89 83 b9 3d ad d0 be 3d 6c 81 e5 bb
       0.0003147234 0.090582915 0.093171455 -0.0070039537
000220 01 0f cb 3b c4 63 2c 3d 54 2d 85 bd f9 26 f7 3c
       0.006196857 0.04208733 -0.06502786 0.03016995
000230 b5 35 62 3c 2f eb ad bd f5 a5 ba 3b e9 3c ce 3c
       0.01380675 -0.08492123 0.005696053 0.025175529
000240 6e cd e4 3c 17 b1 0b 3d 8d b0 bf 3c 93 1c 21 bd
       0.027929988 0.034104433 0.023399616 -0.03933389
000250 3d 4a a1 3c a5 3c 4b bd c7 09 e5 3d ab 33 22 3e
       0.01968872 -0.049618382 0.111835055 0.15840022
000260 93 03 b3 3c 0b 88 15 3c 4c dc a5 37 8c 31 76 3c
       0.02185229 0.009126673 1.9772117e-05 0.015026461
000270 55 fb 1b 3d 76 d1 63 3c c7 be de 3c 96 6d 35 bd
       0.038081486 0.01390492 0.02719058 -0.044293962
000280 b5 9c 26 3e 26 48 e2 3d ce f9 b3 3d 7a 26 79 3d
       0.16270716 0.110489175 0.08787881 0.06082771
000290 d9 a7 6c bd e2 d0 d6 3d ad c3 a4 3d eb 4e 40 3c
       -0.05777726 0.1048906 0.08045135 0.0117375655
0002a0 73 16 51 3b ea 6c b8 bd 1c e9 36 3c 04 22 b0 3d
       0.003190425 -0.09005149 0.011163976 0.08600238
0002b0 dc 96 f0 3d 03 d7 27 3b 32 be 92 3d b2 5d 02 3e
       0.11747524 0.0025610335 0.07165183 0.12731054
0002c0 a6 86 3a bd 3e 6a 77 3c 51 e6 29 3d ff 2f 83 bb
       -0.045538567 0.015101014 0.041479412 -0.0040035243
0002d0 48 94 89 bc 63 8e 2e 3d b6 82 11 bc e0 e6 59 3d
       -0.016794339 0.04261626 -0.008881262 0.053198695
0002e0 5d 57 12 3d 11 47 47 bd 92 21 bc bc 2c ff d6 3c
       0.035727847 -0.04865176 -0.022965226 0.026244722
0002f0 18 25 f6 3c 66 74 13 3c 7c b9 d4 bc 65 b7 f9 3c
       0.030046985 0.0089999195 -0.025967352 0.030482957
000300 e7 70 ef 3d d9 5a 22 3d c7 4d 8a bd ed 9b 34 bc
       0.11691456 0.03963742 -0.06753116 -0.011023504
000310 27 7a a2 3d 6f 52 93 bd 32 f3 65 bd 48 6a 4d ba
       0.07933455 -0.07193457 -0.056140132 -0.00078359665
000320 fc 2c 28 be 84 c9 e6 bc 09 45 ad 3d de 08 4b 3d
       -0.1642341 -0.028172262 0.08460433 0.049569003
000330 bf 03 80 3b 39 4c 1b 3d eb ba 2a 3d 45 70 51 3d
       0.0039066966 0.03791449 0.041682165 0.05113246
000340 f1 84 8c bd 3b eb 4a 3e 56 d1 11 bd 58 b6 77 b8
       -0.06861294 0.19816296 -0.03560003 -5.905921e-05
000350 36 f9 e7 3d 03 a6 3f be 80 fe be bd 08 cd 52 3d
       0.1132683 -0.18715672 -0.09325886 0.051465064
000360 5b cd 54 bc 81 4f ab bd bd 93 40 bd a4 e9 24 3d
       -0.012988414 -0.083647735 -0.047015894 0.04026188
000370 da 16 d4 3c 29 de 18 3e 0e be 9f 3d 67 00 35 bd
       0.025889803 0.14928497 0.07799922 -0.044189837
000380 c6 a9 75 bd 99 6b 28 3d bc c0 92 3b 80 4e 5f 3c
       -0.05997636 0.041118238 0.004478542 0.013629556
000390 e3 4f 40 3d 9c 04 0d bc ce 5d 34 3b 82 9c a8 bb
       0.046951186 -0.008607056 0.0027521732 -0.0051456103
0003a0 9e f9 e9 bc e6 32 5b be 37 f9 3e bd c2 32 c9 3c
       -0.02856141 -0.21406135 -0.04662439 0.024560336
0003b0 29 a3 bb bd 82 a5 e9 bd 93 e5 c5 3d 73 06 1c 3c
       -0.0916198 -0.11408521 0.096629284 0.009523022
0003c0 5c 6b 87 bc 17 60 52 3d 0f af 6c bd 69 df e6 3d
       -0.016530685 0.05136117 -0.057784136 0.11273081
0003d0 f4 73 f9 3b d5 bf ba bc a9 ed 86 3d 4c a1 e0 3b
       0.0076126996 -0.02279655 0.06588299 0.0068551656
0003e0 7a 3c 0c bd bb db fd 3d fd 13 07 be 21 49 31 3d
       -0.034237362 0.12395426 -0.13191219 0.04328263
0003f0 b2 45 62 3c 74 05 19 bd a9 9d 47 3d 23 f4 37 bd
       0.013810562 -0.037358716 0.04873434 -0.04491056

bias f4 [256]
000000 74 97 21 be 22 39 11 bd 1d 45 d0 3b 71 f8 8c bc
       -0.15780431 -0.035454877 0.006355895 -0.01720831
000010 e3 87 db bd 04 37 5b 3d 23 fc 0d be bf 72 b6 bd
       -0.10719278 0.053519264 -0.13865714 -0.08908605
000020 22 c2 4f bd 20 c6 5b bb e9 72 9d 3c 8d b1 fb 3c
       -0.05072225 -0.003353484 0.019219832 0.030724311
000030 bc 0f 81 bc f8 ac 6b bd 0c 15 98 bd 22 86 54 bd
       -0.015754573 -0.057538003 -0.074258894 -0.05188573
000040 c7 63 99 bc eb 4d 15 3d 9b 6c 89 bb eb c4 b6 bd
       -0.018724335 0.03645126 -0.004193855 -0.08924278
000050 31 b2 1d be 8f 7e 08 3d b0 36 2b 3d 65 2f 8c bb
       -0.15400006 0.03332382 0.0418002 -0.004278111
000060 fd 88 c4 3c be 48 c6 bd 17 61 5a bd 27 4c 27 3d
       0.023991102 -0.09681843 -0.05331525 0.04084411
000070 b6 4b 82 bd 9e 6c b0 bd 6c 33 57 bc 64 0d 53 bd
       -0.06362097 -0.08614467 -0.0131348185 -0.051526442
000080 dc 31 0b bd 9d 7a fa bc 7e 54 1c bd 33 fe 57 bd
       -0.033983096 -0.030576045 -0.038166516 -0.052732658
000090 19 67 3e be 0d 15 06 bc 91 ee 5c 3c 67 f3 a8 3d
       -0.18594016 -0.00818373 0.013484613 0.0824955
0000a0 1e dd 20 bd cf df c6 bd fd 53 d3 bc 5d 8c 0d 3e
       -0.039273374 -0.09710657 -0.025796885 0.13823076
0000b0 11 88 82 3d 99 53 5d 3c 95 ef 7f bd 4e 06 72 3c
       0.06373609 0.013508701 -0.062484343 0.014772011
0000c0 b8 d5 69 bb 09 10 e8 3c 4f 64 d8 bc 10 f5 ec bb
       -0.0035680365 0.028327959 -0.026415018 -0.007231362
0000d0 cf 0e 1a 3b aa 17 e1 3c 93 1f 52 3d 07 a0 01 bd
       0.0023507362 0.027477104 0.051299643 -0.031646755
0000e0 40 be 17 bd 20 58 16 bb 8b 1f d8 3c cb 48 86 3d
       -0.03704667 -0.002294071 0.026382228 0.06556853
0000f0 c4 08 05 3d 7a 62 1a be 6e af b2 3b 79 4a 0e be
       0.032479063 -0.15076628 0.0054530418 -0.13895597
000100 6f 4a 6e bd 3d a5 86 3c 1c 47 41 3d 64 f4 d0 bb
       -0.058176454 0.016436214 0.047186956 -0.00637679
000110 75 76 3c 3c 0d 12 3a 3d b6 48 0c bd 58 f6 d7 bb
       0.011502852 0.04542737 -0.03424903 -0.0065906458
000120 25 f2 84 bc d1 c8 20 3e 3d 52 f7 3c c3 e7 c7 bc
       -0.016228745 0.15701605 0.030190581 -0.024402505
000130 6e 34 5c 3b 55 e4 a3 3d a1 33 2f bd 9f 55 06 3e
       0.0033600586 0.08002535 -0.042773847 0.131186
000140 f9 fc 5f 3d 17 19 27 bd a5 31 99 3d 70 de 37 bd
       0.054684613 -0.040795412 0.07480172 -0.044889867
000150 8b 43 46 be af a8 02 bd fa 09 6e 3d 1e cf 73 bd
       -0.19361703 -0.03189915 0.058114983 -0.059523694
000160 ac 1f 8c bc 77 84 19 be 0b 47 b3 bd 3b fa bb 3d
       -0.017104946 -0.14991938 -0.08753785 0.09178587
000170 ea 5d a8 b9 37 37 e4 bc 7e 33 20 bc e5 ac a6 bc
       -0.00032113428 -0.02785836 -0.009777902 -0.020346114
000180 ee c2 be 3c 15 d0 20 3d d1 df 18 3d 91 58 29 3c
       0.02328631 0.039260942 0.037322823 0.010336057
000190 ce 2b 0b be 63 7f f2 3c c6 0a 5b bc 6c 4c 22 3d
       -0.13590929 0.029601758 -0.013369268 0.039623663
0001a0 18 5d d3 3b 56 25 47 3d d7 42 d3 3c bb 55 8b bc
       0.0064503066 0.04861959 0.025788708 -0.017008653
0001b0 78 49 d2 bc 1a 63 8c 3d 0f 64 82 3c ed a2 0d 3d
       -0.025669798 0.068548396 0.015916852 0.034579206
0001c0 0f 75 e2 bd 66 f3 07 3d 96 56 2d 3d cb ec 8b 3c
       -0.110574834 0.033191107 0.042318903 0.017080685
0001d0 0a 20 a8 bb a6 75 52 3d 07 fb 47 3d c5 10 49 3d
       -0.0051307725 0.05138173 0.048823383 0.04908826
0001e0 52 ae 2e 3d 9d be d6 3b 82 10 08 3d 90 9e b9 bd
       0.042646714 0.0065534846 0.033218868 -0.090634465
0001f0 d9 e1 12 be 4f a4 e8 3c 73 8f 83 3d 94 5e 3c 3d
       -0.14343967 0.028398661 0.06423845 0.045988634
000200 1f 6c 13 bc 17 bd b2 bd 17 a0 50 bd ee 8e b5 3c
       -0.008997946 -0.08727472 -0.050933924 0.02216288
000210 a8 f8 ac bc 96 58 09 3d 7a 05 3d 3d dc 20 42 3c
       -0.021114662 0.033531748 0.0461478 0.011848655
000220 c6 f2 97 bc 43 59 84 3d d4 c8 81 3d 06 16 7c bd
       -0.01854838 0.06462338 0.06337133 -0.06154444
000230 7d d9 69 bd 8b 53 db bc 57 4f d9 3d 9b 3a 93 3c
       -0.05709218 -0.026773235 0.10610836 0.017972281
000240 d4 bf 5f be 63 8e 4b 3b c0 f2 47 3c e1 36 87 3d
       -0.2185052 0.003106021 0.012203872 0.06602264
000250 40 ae cc bc d2 4f 2a be a3 77 36 bd 79 87 8d bd
       -0.024985433 -0.16632012 -0.04454769 -0.06910605
000260 5a 93 63 bd 51 85 eb 39 5a 70 b0 b9 8d 72 e9 bd
       -0.055560447 0.0004492202 -0.00033653044 -0.11398802
000270 d8 fc 78 bd 27 39 1e bd 7b 26 0f bd d8 52 18 be
       -0.060788006 -0.038628723 -0.034948807 -0.14875352
000280 9a b5 b7 bd e7 d2 2e 3d fe b8 d4 3c a9 7b 52 bd
       -0.089701846 0.0426816 0.025967117 -0.051387463
000290 26 02 07 3e 9a 15 4d be 4d e3 87 3d 2a 4d 3f bd
       0.13184413 -0.20027772 0.06635151 -0.04670445
0002a0 52 5c c6 3c 46 04 77 39 70 4d 1b bd c1 0b 77 bc
       0.024213944 0.00023557348 -0.037915647 -0.015078486
0002b0 04 a7 3a 3c 02 ab 6d 3d 2e ab df bc b0 e9 1d 3c
       0.011392359 0.058024414 -0.027303305 0.009638235
0002c0 b0 ee 91 bd e2 d4 b0 3d a7 9a 52 bd 3a db 79 3d
       -0.07125604 0.08634354 -0.05141702 0.061000086
0002d0 f3 ab 28 bd e5 8e de bd 33 91 76 3d 2f 48 34 bd
       -0.04117961 -0.10867099 0.060197067 -0.044014152
0002e0 f4 9e 15 be b2 e3 49 bd 83 ac 8b bd 63 c6 ba 3c
       -0.14611417 -0.049289413 -0.068200134 0.022799676
0002f0 da d1 83 be d4 20 87 bd a1 1a 18 bd 95 53 f3 3d
       -0.25746042 -0.06598058 -0.03713477 0.118811764
000300 94 ad 9d 3c b6 9b 97 3c 15 9a 70 bd dd a2 c0 3c
       0.019247808 0.018506866 -0.058740694 0.02351516
000310 ad 6d 46 3b 1e 18 04 3d 35 69 1d bd b3 b0 80 bd
       0.0030277774 0.032249562 -0.03843041 -0.06283703
000320 70 4d c4 bd 6a ff 26 bd 1d a9 e0 bc 9b 1d 9a bd
       -0.095850825 -0.040770926 -0.02742439 -0.07525178
000330 8f 8a 58 bd 7e 86 5f bc a3 79 78 bb b7 e2 19 bd
       -0.052866515 -0.013642905 -0.0037914298 -0.037569728
000340 1f cd 5b 3d 49 5d 5b 3d 6d ee 28 be 7a e3 1e bc
       0.053662416 0.05355576 -0.16497202 -0.009697789
000350 02 7b 6c 3b a4 4f c2 3d 3b dd 7c bd 70 e5 80 bd
       0.003608406 0.094878465 -0.06173442 -0.06293762
000360 d5 8a 06 3d 85 57 89 bd 96 72 e4 3d 14 ba 42 3d
       0.032847244 -0.06706146 0.11154668 0.04754074
000370 1b cd 72 bd 88 53 e3 3d 07 85 97 bb d8 22 ba 3b
       -0.059277635 0.11099917 -0.0046240124 0.005680423
000380 d0 a3 4f bd 40 ec 83 bd 67 0f 8f 3d 71 e9 76 bd
       -0.050693333 -0.064415455 0.0698536 -0.06028122
000390 51 c4 06 bd 01 e5 c3 3d b9 0f 6d 3d fd e2 be bc
       -0.032902066 0.095651634 0.057876322 -0.023301596
0003a0 27 6c 7e bc f9 97 d8 3b a1 4b 9b 3d 20 a8 03 3d
       -0.015528715 0.0066099134 0.075827844 0.03214276
0003b0 b0 f9 83 bd fd e6 07 bd fc f9 47 be 50 b6 16 bd
       -0.064441085 -0.033179272 -0.19528955 -0.03679496
0003c0 f3 a8 1c be 30 79 9d 3d 0c 68 14 3d b8 68 1f 3d
       -0.15298824 0.0768913 0.03623204 0.038918227
0003d0 e1 47 89 bd c2 ee dc bd 59 65 9e 3d d1 51 8c bc
       -0.06703163 -0.10787727 0.07734174 -0.017128857
0003e0 82 68 f0 bd 44 34 66 3c 9a 40 4f bc 33 ca 86 3d
       -0.11738683 0.014050547 -0.01264968 0.06581535
0003f0 db 2b 09 bc fa 63 1e 3d 89 4e 01 be d3 c4 f4 bd
       -0.008372272 0.038669564 -0.12627615 -0.11951604

weight f4 [128, 256]
000000 26 bd c9 bd a5 a3 24 3d 1f 3c 5e bc b3 ca 88 bc
       -0.0985053 0.040195126 -0.013564139 -0.016698217
000010 99 3c f4 bb 6e 51 6b bd b4 4a 16 bd 28 a9 0f bd
       -0.007453513 -0.057450704 -0.036692336 -0.03507343
000020 d7 6e 7b bd 43 b0 99 bc 26 87 cb bb de 62 62 bc
       -0.061385002 -0.018760806 -0.0062111793 -0.013817517
000030 6f 8a b8 bd a7 42 96 bd 11 bd 17 3c 58 f9 2f 3d
       -0.09010779 -0.07336932 0.009261386 0.042962402
000040 6c 26 81 3d 18 05 48 bd cf 54 27 bc d6 47 2f bd
       0.063061565 -0.048832983 -0.010213091 -0.042793117
000050 7f 26 cf bd f2 6f a8 bd 83 5c cd bd d7 fd 68 3c
       -0.101147644 -0.08224477 -0.10027411 0.014220676
000060 d5 e9 f2 bc 7d 42 e2 bd 89 14 a5 3c b1 bd 37 3d
       -0.029652515 -0.11047838 0.020151393 0.04485864
000070 9b a2 26 3e 95 b1 37 bc 4c 33 92 3d 27 5a 9f bd
       0.16272967 -0.011211772 0.0713869 -0.07780867
000080 74 7e fc bd 16 7c e9 bc 10 5a 2c 3c 18 93 34 bc
       -0.123288065 -0.028501552 0.010519519 -0.011021398
000090 b8 7f d8 bd f1 8b ae bd 95 ad c8 bd 1c 64 64 bb
       -0.105712354 -0.085227855 -0.09798733 -0.003484971
0000a0 55 43 a7 bd 39 bd 44 3d bd 7d 8a 3b 62 d7 79 bc
       -0.081671394 0.04803202 0.004226415 -0.015249105
0000b0 38 92 44 3c e5 c7 9c bd 9a 8b 88 bd 45 13 a0 bc
       0.011997752 -0.07655314 -0.06667252 -0.019540438
0000c0 fb 80 52 3b ea 7c 38 bd fd c0 a0 bd 2f 1b 0c 3d
       0.0032120335 -0.045041002 -0.078493096 0.03420561
0000d0 8b 39 21 3d 05 36 a3 bb cb e3 cf 3c 02 52 30 bb
       0.039361518 -0.004980805 0.025377175 -0.002690435
0000e0 81 0f 31 bd af 72 b8 3c 1b 5d aa bd cd cb 3c bd
       -0.043227676 0.022515623 -0.0831854 -0.046092797
0000f0 f9 67 a7 3d ef fc 18 bd 55 f3 92 bc 95 fb 08 bd
       0.08174128 -0.03735059 -0.017938295 -0.033443052
000100 dd 39 c1 bd 4a 5d 93 3d 63 6d dd 3b c7 ad 2b 3e
       -0.09434865 0.07195528 0.0067574247 0.1676551
000110 a6 61 9e bc 57 0a c6 bd ea 73 a5 3c a5 36 43 3d
       -0.019333672 -0.09669941 0.020196874 0.047659535
000120 91 b4 9e 3d d8 d5 5d bd 4d bd 02 bd 1c 95 59 3d
       0.07749284 -0.054159015 -0.031918813 0.053120717
000130 8f a1 b5 3c f7 82 42 3d 92 e4 c3 bd e6 e5 a5 bd
       0.022171764 0.04748818 -0.09565081 -0.0810049
000140 eb ca b0 bc 19 1e 28 bc 06 ae 53 bc d3 cc bf bd
       -0.021581134 -0.010261082 -0.012919908 -0.09365239
000150 22 65 64 bd 15 56 3c bc d4 b7 91 bd 97 28 d0 bc
       -0.05576051 -0.011495133 -0.071151406 -0.02540998
000160 5c df 40 bd 64 2c 25 bd a2 9b 62 bd 6c b2 76 3d
       -0.047088012 -0.040325537 -0.055324204 0.06022875
000170 38 ce 90 3c 83 9d 70 3d c8 cd 0d be 66 f5 e7 bc
       0.017676458 0.058743965 -0.1384803 -0.028315257
000180 08 d6 2b 3d 05 66 a6 bb 0a 15 fa 3b a9 33 55 bc
       0.041952163 -0.0050780796 0.0076319026 -0.013012805
000190 38 37 eb bd eb a5 46 bd 4e 05 9b bd b4 3d 55 bb
       -0.114851415 -0.048498075 -0.07569371 -0.0032537999
0001a0 16 dc 0e 3d cb 01 91 3c c7 83 60 3d cf e1 c8 bc
       0.03487786 0.01770105 0.054813173 -0.024521736
0001b0 ed 85 4e bd 6c 2c 9e bd 12 1a 2a 3d 11 d0 2d bc
       -0.05042069 -0.077233166 0.04152877 -0.010608689
0001c0 a9 5e 2f bd 70 47 57 bd 02 64 87 3d 40 f9 39 3d
       -0.042814884 -0.052558362 0.06610872 0.04540372
0001d0 81 18 1e 3d bc 48 ab 3d 4d 0d 57 3d 2d bd 5d 3d
       0.038597587 0.08363482 0.05250292 0.05413549
0001e0 b2 e8 18 bd e8 00 ee bb 81 46 72 bc 26 0b cf bc
       -0.03733129 -0.0072632916 -0.014787317 -0.02527387
0001f0 32 3a 86 ba 57 e5 11 bc b2 a1 2c 3d 60 5c b0 bc
       -0.0010240732 -0.008904777 0.042146392 -0.021528423
000200 77 eb 82 3d e7 22 c2 3c 49 cd e2 bd 02 6a 85 bc
       0.063925676 0.023698283 -0.11074311 -0.0162859
000210 a4 67 98 3d de da ee bc 20 ce 22 3d 77 5c fc 3d
       0.07441643 -0.029157098 0.039747357 0.12322324
000220 f0 06 b2 3c 46 a5 50 3d 8c 64 3d bc 63 2c 15 3d
       0.021731824 0.050938867 -0.011559617 0.036419284
000230 7f e1 42 3c 97 ce d1 3d 1b f6 e2 bd b5 00 29 3d
       0.011894583 0.10244482 -0.11082097 0.04126044
000240 f8 da cc bd e4 27 8d bb a8 7d 9d bb f8 5c f1 bc
       -0.100027025 -0.004307734 -0.004806239 -0.029463276
000250 7f 72 c0 bd 5b 60 02 3e c7 e1 fe bc 0a 0f bd bd
       -0.093968384 0.12732069 -0.031113518 -0.09231384
000260 55 ed c5 bc 2d bb f3 3b c3 07 c3 bd d1 e0 1b bd
       -0.02416102 0.0074380846 -0.09522965 -0.0380562
000270 68 be c7 bc 7e 0a f5 bb b0 e6 59 bc 60 c1 ae bd
       -0.024382785 -0.0074780574 -0.013299629 -0.08532977
000280 6d f2 ef bd 5f be 91 bd 55 23 82 3d f2 df ac 3b
       -0.11716161 -0.071163885 0.06354395 0.00527572
000290 3f 22 82 bd a8 02 5f bd 8e d7 b9 bb 7c 23 1a 3c
       -0.06354188 -0.054445893 -0.005671448 0.009407874
0002a0 ab 83 48 bd 9f 19 b0 bc 33 f0 65 bd e2 87 a9 bd
       -0.048953693 -0.021496592 -0.056137275 -0.08277871
0002b0 63 2d 68 3d 8b bb 3f 3d ec 3a c9 bd 3c 22 98 3d
       0.05668391 0.046809714 -0.098256916 0.07428405
0002c0 b8 08 9e bd f2 e8 f1 bb ee 3e 9f bd f1 74 99 bd
       -0.07716507 -0.0073825056 -0.07775675 -0.07493008
0002d0 20 6b f6 bb 5d 1c 0d bd 92 2c 10 3d b9 b3 4b 3b
       -0.0075200945 -0.034450877 0.035198756 0.0031082465
0002e0 7e 6a b9 bd 91 e6 4c bd e7 b2 cb bc 1f 15 e1 bd
       -0.09053515 -0.050024573 -0.02486558 -0.10990357
0002f0 8d 9e bc bd 86 b4 c9 bd 0b 9c 9f 3d f0 72 5c bd
       -0.09209929 -0.09848885 0.07793435 -0.05382055
000300 f3 26 5e 3c 0b cb 2a 3e 04 f9 33 3d eb 7f e9 3c
       0.013559091 0.16679017 0.04393865 0.028503379
000310 04 0a b7 3d 0c 0e 77 bd 7b 62 85 3d db 66 ec bc
       0.08937457 -0.06031613 0.06512924 -0.028857639
000320 e8 b3 17 bd 1d 37 1e bd ad aa 47 bd 19 0a c2 bd
       -0.037036806 -0.03862678 -0.048746753 -0.09474582
000330 7a c6 4f bb 26 42 ed 3d 1d cc 36 3d 3e b0 f1 bd
       -0.0031703995 0.115848824 0.04462825 -0.11801194
000340 57 45 91 bd 8c da 83 3d 60 14 a8 bd 6f 14 41 3c
       -0.07093304 0.06438169 -0.08207011 0.011784657
000350 4a f4 a7 bd 8e 28 37 bd 95 fe 37 bc e7 49 5f bc
       -0.08200891 -0.04471641 -0.011230131 -0.01362846
000360 f0 37 81 3d e8 5d 84 3c 7e 19 7b bd 4f b6 44 3d
       0.06309497 0.01615806 -0.061303608 0.048025426
000370 a5 2b 9e bd 53 90 db bd f5 f0 63 3d 18 39 90 bd
       -0.07723168 -0.10720887 0.055649716 -0.0704214
000380 6a 54 9c 3d ac 85 45 bd 57 b6 87 bd 78 b8 d4 3c
       0.07633288 -0.048223183 -0.066265754 0.025966868
000390 bb 47 24 3e 03 78 3d 3c 30 26 f7 bc 90 29 24 3d
       0.16042988 0.011564258 -0.030169576 0.0400787
0003a0 19 3e 03 bd b9 2e db 3b 96 c1 0a 3d 48 3d cd bd
       -0.032041643 0.0066889194 0.033876024 -0.10021454
0003b0 b2 0d f1 3d b9 bd 19 3d 4f 33 73 bd 52 22 b0 bd
       0.1177019 0.03753445 -0.059375104 -0.08600296
0003c0 55 5e dd bc 66 17 b2 bd a3 c5 19 3d 64 30 52 3d
       -0.02702252 -0.08695869 0.037541997 0.05131568
0003d0 12 4c e0 bd d7 d8 2a bd 97 39 a1 3c 03 38 04 bd
       -0.10952009 -0.0417107 0.019680781 -0.03227998
0003e0 48 59 06 bc 70 cb 49 bc 85 4a 7b bd c3 14 fa bc
       -0.008199997 -0.01231657 -0.061350364 -0.030527478
0003f0 95 b7 a4 3d 3e 44 1d 3d 0e 73 21 bd 8b 7a a9 bd
       0.08042828 0.03839516 -0.039416365 -0.08275326

bias f4 [128]
000000 58 a4 1e 3e d0 17 c6 bc c0 23 61 be d0 76 da 3d
       0.1549238 -0.024181277 -0.21986294 0.10667193
000010 1c fd 91 3d 12 c0 e6 bd fd f6 cd bd 37 69 d8 3c
       0.07128355 -0.11267103 -0.10056875 0.026417358
000020 e4 4c 1c 3c 89 f6 17 3e be 82 e8 3d 11 4b 3f be
       0.0095398165 0.1484014 0.11353062 -0.1868098
000030 d9 cc b3 bc d1 fc 04 be c3 03 f5 3d 4f 31 25 be
       -0.021948265 -0.12987067 0.11963608 -0.16132091
000040 ce 50 6a 3d 44 74 57 3d 8f 52 0e be b8 7b 87 3d
       0.057205968 0.052601114 -0.13898681 0.06615394
000050 66 8b 9b 3d 88 7b d2 3d 58 b6 bc bd a5 83 e4 bd
       0.075949475 0.10277468 -0.09214467 -0.11157922
000060 7a 56 bc bd 57 37 f1 3d fb 2f 90 bd 04 1f e6 bd
       -0.091961816 0.11778133 -0.070404015 -0.112363845
000070 60 9b 0c 3e c2 7b f9 3d 9c f8 0c 3e a6 bf e2 bd
       0.13731146 0.12181808 0.13766712 -0.1107171
000080 51 62 ce 3d 48 60 44 be 94 31 12 be 63 12 21 3e
       0.10077346 -0.19177353 -0.14276725 0.1572967
000090 e5 4a 03 be b3 fd 3d bd a6 67 05 be f4 42 b9 3d
       -0.12821539 -0.046384525 -0.1302782 0.090459734
0000a0 3e 10 9f 3d 5c 45 26 3e 08 ab e1 3c 91 09 d2 bd
       0.0776677 0.16237396 0.027547374 -0.10255731
0000b0 eb 6d 6f bd 07 fb 84 bc a3 59 e0 3d 6d ff 5e 3d
       -0.058454435 -0.01623298 0.10954597 0.05444281
0000c0 bd 7b 0d be 83 60 91 3d ae 64 d8 3d 65 40 00 3e
       -0.13816734 0.07098486 0.10566078 0.12524565
0000d0 d6 df 08 3e 92 3f 78 3d ca a4 b6 3c b0 75 95 bd
       0.13366637 0.0606075 0.022295374 -0.07297838
0000e0 12 45 f4 3d da 5b a2 bd 7b ea 02 3e 4f 34 2e 3e
       0.119272366 -0.079276755 0.1278476 0.17012142
0000f0 c1 e5 16 3d f3 d8 19 3e 8c b1 ca bd ad 1a 6d be
       0.036840204 0.15024166 -0.09897146 -0.23154707
000100 05 aa 00 be 5d 51 1e 3e 2b 2c 22 be ae d6 02 3e
       -0.12564857 0.15460725 -0.15837161 0.12777206
000110 5f 96 3c be e8 6b 07 3e fd 9c 3a bc 68 ca b8 bd
       -0.18416737 0.13224757 -0.011389968 -0.09022981
000120 db 08 50 bd 09 29 1e 3d 6e cb 1c be 6d 79 00 3d
       -0.050789695 0.038613353 -0.15311977 0.0313658
000130 55 7d fa 3c 01 3e 55 be 74 d5 1b bd 70 b2 cb bd
       0.030577341 -0.20824434 -0.03804536 -0.099461436
000140 42 94 cd bd 61 87 05 3e fc 24 42 be 1e d1 58 be
       -0.100380436 0.13039924 -0.18959421 -0.21173522
000150 c7 1c fa bc 3a 3a 17 be 18 cb 4e be b4 e2 b7 3d
       -0.0305313 -0.14768305 -0.20194662 0.08978787
000160 38 ce 94 bd 5d 95 fe bd 29 ee 12 3e 05 10 f3 3d
       -0.072658956 -0.124308325 0.14348663 0.1186829
000170 b6 58 2c 3e b8 74 1f 3d e4 d3 b1 bb 3d 95 15 3e
       0.16830716 0.03892967 -0.0054268707 0.14607711
000180 42 af 32 3e 2a d1 2f 3d 75 af eb bc 52 44 12 bd
       0.17449668 0.042924084 -0.028770188 -0.035709687
000190 ab 52 28 3e 87 7c 3d 3e da e1 44 be 98 37 f5 3d
       0.16437785 0.18504535 -0.1922678 0.11973494
0001a0 14 dc e7 bc ef 7a 7d 3d df c6 40 3c 7b c6 a8 3d
       -0.028303184 0.061884817 0.011766165 0.08240982
0001b0 b3 65 9f 3d 57 b0 a9 3d 06 c4 18 bc 49 a1 61 be
       0.077830695 0.08285587 -0.009324079 -0.22034182
0001c0 66 6b 28 3e 7b f4 c9 3d b4 d6 e0 bd 2c 03 2f 3d
       0.16447219 0.09861084 -0.10978451 0.042727634
0001d0 52 0e 08 3e cb cf 98 bd 26 8c 8d 3d 4a 07 50 bd
       0.13286713 -0.07461508 0.06911497 -0.0507882
0001e0 3a ed a4 bd 6b db ce 3d 15 cc 80 be 0b 50 05 3e
       -0.0805306 0.101004444 -0.25155702 0.13018815
0001f0 d5 2f 27 be 56 45 bf bd b5 13 ad 3c 2a 68 b2 bb
       -0.1632684 -0.09339397 0.021127561 -0.005444546
