result/aug74_gan_40_model_12.pt (torch, 980414 bytes, 15 tensors)

weight f4 [128, 14]
00000000: b59a 6abe 90a3 293e b29d 103d 0f5f 3cbe
00000010: b5ac b1bd ad7a 453e 2c35 d4bd 33d8 7fbc
00000020: 750f 013e ed16 43be 4ee3 88be aa08 db39
00000030: 5a06 033e cabb 5fbd 229e 04be 3fc5 78be
00000040: 7db6 543e 1725 cfbd f673 86be d8b1 d63c
00000050: 3c15 d03d 5eb7 833e ba4e 3b3e 2ff0 ce3d
00000060: 54d2 2dbe f395 46bd 917e 71bd a7a2 fcbe
00000070: 15cb a33e d0e2 99be a16a 6c3e 2f44 b2bd
00000080: f0e5 27be a7a8 513e 66bd 803e 9437 bbbb
00000090: a85d 623e 8b92 333d 45a8 1e3e 3c3a fbbe
000000a0: bc80 c2bd 9215 cfbd 4a23 ebbe 9730 b23d
000000b0: 77a7 29be b076 633d fd89 5ebe 90c0 1b3e
000000c0: 6bc9 613d 4244 94bd 79b1 273e 4f81 e8bd
000000d0: 98e1 a1be c039 35be 7f65 b13c 1d46 60be
000000e0: 643c 123e 9d05 1d3e 9099 223e e385 00bf
000000f0: 0c16 b63e 6c96 cb3d 0dad b1bd d5ac 85be
00000100: 0724 bd3e 47e5 aebe 368e 20be cd03 c5be
00000110: 889a e9bc 1f6d e63d 004a 17be ddac fd3d
00000120: 9372 2ebe 6dc0 c3be c2c1 b7bd a2a2 ae3d
00000130: 92c1 e83d 7ce0 b3be 6588 5b3e beb8 afbe
00000140: 694b bbbe fa0e 03bd 908a 2ebe 11d2 6dbd
00000150: 58fc 1ebe 1584 69be 34b9 843e f407 19be
00000160: 096a e03d 6483 7e3e 07b1 3fbe 6f2a 273c
00000170: 8ace 5cbe 52df bbbe a014 c9bd 2ec0 50be
00000180: 41cd 083d 539f c73e 361d ce3e e70c b1bd
00000190: 8ce9 2fbe edb5 523a 5c44 a7be 7fa9 96bd
000001a0: 0e18 e0bd bd80 ac3d 00dd 7a3d 7ba0 9fbc
000001b0: 4f20 6abe e9e2 6abe 0a77 44be b3bc 82bd
000001c0: b75b fe3d 0127 923d b5d7 09be dac4 17be
000001d0: 29a9 ddbe 7b20 fdbe c110 c93c 3080 37bc
000001e0: 9bfe 593e 7aa7 213e 8a8b 033d 35fa cc3e
000001f0: 26ae c43d 2f21 a73c fae7 3bbe 0c21 0a3e
00000200: 8fca 28be dca9 03be 1a63 2ebe bcaf 4dbd
00000210: 8c3a f1bb 23b3 743e 2c3f 10be 4524 62be
00000220: 5ebc 91bd abe0 cdbe 7be6 d4bb 19dc 2fbf
00000230: 9cad 003f 5b7a 6bbe 613e 9c3e 73d7 7a3d
00000240: 2e90 9fbe 84af 5c3e 114e 46be b282 62be
00000250: 69f4 8f3e 208e 90bd e393 4c3e 8f56 d63e
00000260: 3be2 6e3d 1c81 623e a5ce d9be 302e 6bbd
00000270: b260 3c3e 8abe 873e 1a9b bbbc a83a 883d
00000280: 2ab4 a3be 25d2 2d3e 8438 173d 6ce5 27be
00000290: f7c9 e1be ba18 3f3e ae5f 11be ba2e e73e
000002a0: 0ea9 a13e 9fb3 963b 93ea b2bb 1d17 19bd
000002b0: 6c19 2a3e f6c8 613d e5f3 8a3e 6be7 943d
000002c0: d83f 9ebe 5d1d 693e a7cc 5fbd 9093 223e
000002d0: 6c55 2dbe 1325 df3e 91e3 6dbe f2ac 083d
000002e0: 8fb1 16be 4e33 893e edbe 19be ef2f bdbd
000002f0: 852c 54bd b5ae 8a3d a4f6 a63d 1945 8b3e
00000300: de3e ab3e 31f2 263d 27b7 c3bb 640c d4be
00000310: c185 97be d730 4d3e f97a 89bd 2906 3bbd
00000320: efa4 b03e bf01 1e3c b679 0abd 43e5 7c3e
00000330: 850f 06be 3660 313e 9e83 b43a 8a3c a53e
00000340: b26b 17be 3cd1 cd3e 571d 23be 45f9 a2be
00000350: e3db c93d 4543 f0bd 23cd b43d d077 443d
00000360: 07f7 013d 9f11 eabd 6a49 41be cdc5 37be
00000370: db02 fbbd bf15 e9bc 9b4e 623e d597 d9be
00000380: 5883 513e 0020 37be 7841 483d 3edd 0ebe
00000390: a86f b3be e85e 03bf 89d5 afbe 5d79 9abe
000003a0: 7cbb f33d 8149 ba3d d60e 95be 80e5 d93d
000003b0: f5c5 ba3d 0a3b 2b3e 39ba 91bd bf29 5abe
000003c0: 4c52 6dbe 2fac 253e 4af5 c53d e76a 933c
000003d0: a716 303d c197 033e 1d0e 66be e5a5 8bbe
000003e0: 5118 003d a543 e93e 3e58 d63b d36c 023f
000003f0: 1eff 4abe 0161 e2bd a30f 133e 993e 533e
-0.22910579 0.165663 0.03530664 -0.18395637 -0.086755194 0.19285078 -0.10361704 -0.015615511
0.12603553 -0.19051714 -0.2673592 0.0004177739 0.12795392 -0.05462245 -0.12950948 -0.24293993
0.20772739 -0.10114496 -0.26260346 0.02620785 0.101603 0.25725836 0.1829175 0.10104405
-0.16974765 -0.048482846 -0.058958594 -0.49342844 0.31990877 -0.30055857 0.2308755 -0.08704411
-0.16396308 0.20474492 0.251445 -0.0057134125 0.2210604 0.043840926 0.15493877 -0.49067867
-0.094972104 -0.10111536 -0.4592536 0.08700674 -0.16567789 0.05553311 -0.21732326 0.15210176
0.055123728 -0.07239582 0.16376294 -0.11352789 -0.31617427 -0.17697811 0.021654842 -0.21901746
0.1428085 0.15334173 0.15878892 -0.50204295 0.35563695 0.099408 -0.08675585 -0.26108423
0.3694155 -0.341593 -0.15679249 -0.38479462 -0.028516069 0.11251282 -0.14774323 0.12386487
-0.17035894 -0.38232747 -0.08972503 0.085271135 0.113650456 -0.35132205 0.21438749 -0.34320635
-0.3658097 -0.031996705 -0.17045045 -0.058061663 -0.15525949 -0.22804292 0.2592255 -0.1494444
0.109577246 0.24854809 -0.18719874 0.010202988 -0.21563163 -0.36693817 -0.09818387 -0.2038581
0.03339887 0.38988742 0.4025666 -0.08645039 -0.17178935 0.00080379733 -0.32669342 -0.073565476
-0.10942088 0.084229924 0.06124592 -0.019485703 -0.22863887 -0.22938122 -0.19186035 -0.06383648
0.12419837 0.07136346 -0.13461192 -0.14821187 -0.4329312 -0.49438843 0.024544122 -0.011199996
0.2128853 0.15786543 0.032115497 0.40034643 0.09603529 0.020401565 -0.18350211 0.13489169
-0.1648352 -0.12857765 -0.17029992 -0.05021642 -0.0073617157 0.2389646 -0.14086598 -0.22084148
-0.07116006 -0.4021047 -0.006497202 -0.6869522 0.50264907 -0.22995894 0.3051634 0.061240625
-0.31164688 0.21551329 -0.19365717 -0.22120169 0.28116158 -0.07058358 0.1997829 0.41862914
0.05832122 0.22119564 -0.4254047 -0.057417095 0.18396261 0.26512557 -0.022901107 0.06651813
-0.31973392 0.16974695 0.036919132 -0.16396111 -0.440994 0.18661776 -0.14196655 0.45152837
0.3157429 0.004599049 -0.0054600923 -0.03737556 0.1661126 0.055123292 0.27139202 0.07270702
-0.30908084 0.22765107 -0.05463853 0.15876603 -0.16927117 0.43582973 -0.23231341 0.03336806
-0.1471617 0.26796955 -0.15014239 -0.09237658 -0.05180027 0.06771604 0.08152512 0.27201155
0.334464 0.040758315 -0.005972761 -0.41415703 -0.29594234 0.20038162 -0.06712908 -0.04566017
0.34500834 0.009643971 -0.03380748 0.24696831 -0.13091858 0.17321858 0.0013772135 0.3227275
-0.14787176 0.40198696 -0.15929161 -0.31830803 0.09856393 -0.11731581 0.08828189 0.047965825
0.031729724 -0.11429142 -0.18875661 -0.17946549 -0.12256404 -0.028452752 0.22100298 -0.4249865
0.2046026 -0.17883301 0.04889056 -0.13951585 -0.35046124 -0.5131669 -0.34342602 -0.30170718
0.11900994 0.09096051 -0.2911288 0.10639477 0.091197886 0.1672174 -0.07115597 -0.21304987
-0.23175925 0.16178964 0.09665926 0.017995311 0.042990353 0.12850858 -0.22466321 -0.27275005
0.03127319 0.4555942 0.006541281 0.509473 -0.19823882 -0.11053658 0.14361434 0.20629348

bias f4 [128]
00000000: 5d8d b83c b1be 1fbe fb25 133d c374 22be
00000010: c434 92be b0bc f73d 13d4 7f3d c638 073e
00000020: aecb 8ebd 5e6f 733d 0722 8ebd be42 86be
00000030: f7d2 033d 1b50 713e 0162 813e 870e 48be
00000040: 652f 193d a497 183e b7ee e8bd adc3 c0bd
00000050: 0bd3 2c3d 9797 4fbe 5aaf 3b3e 7e1b e93c
00000060: 9267 94bc 02e5 bebe 097d 0a3e 0c8a 6d3e
00000070: b629 8d3c 01e2 cc3d 0765 01be c858 febd
00000080: c2b3 84be d202 513e 9691 d7bd f7f7 47bd
00000090: a5b2 b03d 3fa9 95bd 3fdc 76be 6b43 75bd
000000a0: 5ae2 733e 75a7 833e 6d2c 7abe 8687 b1bd
000000b0: 346c 0fbe 3898 7f3e 9a5c 96bd 48d0 c73d
000000c0: 6a6b 22be 416c 173e e1e0 81bc 6e58 e6bd
000000d0: 2389 3b3e 04d4 e13d ef42 343e 6af4 823d
000000e0: 8d8f 0a3e e531 023e 1491 4a3d 0c1d 413e
000000f0: 0334 c4bd 5558 c5bc 3c7d f3bc e024 1abe
00000100: 593e 92bd e7f5 9dbc db2c 813e f6ca 913e
00000110: 505e 973d d25c 5f3d 3291 163c 6ef7 823e
00000120: c8e8 123e 7878 843e 5089 b4be e1a4 91be
00000130: 34ab 84be 8db3 fd3d 09b5 1bbe 5cba 25bd
00000140: e3c6 853e dc7f 433e e8f8 2d3d 0283 853d
00000150: b099 51be 1289 483c f348 4fbd bbee ef3d
00000160: 66a6 14be d633 93bd 7590 a23d 16f2 4c3e
00000170: bf1d f2bc ae85 873e 9aa0 bfbd 70f7 b33b
00000180: 0bdd f33d 960d 903d 8d8f 433d 7e46 7d3e
00000190: 00b1 3abe b04a 813e 6a27 3c3e 00db 68be
000001a0: 420b 82be 169d 363e 00cd c8bc f20e 933c
000001b0: dff2 9bbd 4f10 c03c 51fb d3bd ae2f 403e
000001c0: 2887 e03d 99d8 8c3e ba74 79be c66c 00bd
000001d0: f3fa ca3d c15d 783d 75a5 8b3d 575b b43d
000001e0: f510 21be 42be 1dbe 2665 a83d 110b 7cbc
000001f0: 9963 803e e84b 7dbe cd01 b13d ba41 54be
0.022528345 -0.15600087 0.035924893 -0.15864854 -0.28555882 0.12096536 0.06245811 0.13205251
-0.069724426 0.05943238 -0.06940084 -0.26222795 0.032183614 0.23565714 0.25270084 -0.19536792
0.037398715 0.14901596 -0.11373656 -0.09412322 0.042193454 -0.2027267 0.1832861 0.028455492
-0.018115792 -0.37284094 0.1352426 0.23197192 0.017231803 0.10004044 -0.12636195 -0.124192774
-0.25918394 0.20411232 -0.10525815 -0.048820462 0.08627824 -0.07307672 -0.24107455 -0.059878748
0.23816815 0.25713697 -0.2443101 -0.08668427 -0.1400612 0.2496041 -0.07341881 0.09756523
-0.15861288 0.1478739 -0.0158543 -0.112473354 0.18314032 0.11026767 0.17603658 0.063942745
0.13531323 0.12714346 0.049454764 0.18858737 -0.09580233 -0.024089972 -0.029722802 -0.15053129
-0.07140798 -0.019282294 0.25229535 0.2847516 0.073910356 0.05453188 0.009189891 0.255794
0.14346611 0.2587316 -0.3526101 -0.28446105 -0.25911868 0.12387762 -0.15205778 -0.04046093
0.261283 0.19091743 0.042473704 0.065191284 -0.20468783 0.012239711 -0.05060668 0.11715456
-0.14516601 -0.07187621 0.07937709 0.20014223 -0.0295552 0.26469177 -0.09356804 0.0054921433
0.11907395 0.07033841 0.047744323 0.24733922 -0.18231583 0.25252295 0.1837441 -0.22739792
-0.25399214 0.17833361 -0.024511814 0.017951462 -0.07614683 0.023445277 -0.10350669 0.18768188
0.10963279 0.27509 -0.24360934 -0.031353734 0.09911146 0.060636286 0.06818668 0.08806484
-0.15729125 -0.15404609 0.082224175 -0.015383498 0.25075987 -0.24735987 0.086429216 -0.20728198

weight f4 [512, 128]
00000000: fb8e 7dbd 51e6 543c 4a6a 72bd c3df 8ebd
00000010: f21b b23c 84ab 4d3c 1946 b13d e850 863d
00000020: 70ae 703c c68d 5b3e e4f0 1e3c ca88 a6bd
00000030: 4d3c 423b 95e5 653d e4c7 9ebd a450 cd3d
00000040: 37fc 79bd 9e8b f6bc 754a 483d 51ca cabd
00000050: eb66 cdbc 1933 7c3d 263c 06bb 0d92 83bd
00000060: cff5 04be e2cf 9ebc b469 9e3d fd74 7ebd
00000070: b74f 14bb 0df1 ef3c 6bbb c9bd deae 3bbc
00000080: 7828 ac3d fef8 41bd 6f9b e13d f6e9 2e3d
00000090: c5af 04bd 6215 883d 1b06 8ebc 1e19 3c3d
000000a0: b4c2 d73c e7e7 7f3d 0299 3cbd 3bae c6bc
000000b0: 8f9a d03d fdf5 5ebd 92f7 a9bb e501 e3bc
000000c0: 940c b0bd c140 aebc 2fd0 113d 79b1 32bd
000000d0: 3d86 223d fb89 44bd afb2 e8bd 2053 01be
000000e0: 774e ed3d 4caa 563c 163a 8fbb 87e9 1fbc
000000f0: aa48 83bd 3194 4bbc 7ff0 0bbd b6c3 72bd
00000100: ad07 46bd e053 a53d 41a6 933c e2e6 58be
00000110: 4409 513a 61d4 c33b 17de e2bd 00f3 97bd
00000120: a8d1 fc3d dd47 ba3c 4edf 1abd 4d71 dcbd
00000130: d50b b43d e5c1 84bd 766c 87bd 2abe 093d
00000140: dd2c 48bd 6a43 b03d 7091 10be 86bb dbbb
00000150: ffae bebc a47d 8dbd 34de b93d 321f 863c
00000160: f0c4 2ebc acae 363d 0994 bebc 1fa6 0abe
00000170: 49db 3d3d 9f09 aebd 4dae a9bd d020 93bd
00000180: 0dfc 803d 6b4b 4abc 33ad 573d 74bd 333c
00000190: 3457 3b3d a464 23bc af18 02bd d30f 8fbb
000001a0: 39e0 cd3d fd46 09be 2ddb d7bc b8b2 a43d
000001b0: 91a9 dabd ae0e a4bd 4a0f ff3d 8a5b 06bd
000001c0: 54cc 833d d289 0a3e ed22 64bd 5b54 753d
000001d0: 256f 373d a1ee 66bd 4757 753d e2c4 8d3d
000001e0: a340 f7bc 8003 783c 5c9f c53d dfd2 d2bc
000001f0: b210 8cbd 0a12 07bb 066e 13bb 2f5c cebc
00000200: 78d0 d9bd ef78 8d3d 0bb8 0ebc f8f9 a3bd
00000210: 8fb4 553e 9bfd 843d 58ad 1e3d 7f88 84bc
00000220: a394 d53b aecc 573c db36 5a3b 6c59 913d
00000230: 510e 933d 5fa9 92be 4c40 90bd e469 b1bd
00000240: 90d0 57bb d86b 4cbd 22bc 51bd 4c84 d33c
00000250: eb4b d9bd da1f a6bd 765b 923c f873 e9bd
00000260: c4de 7f3d 9f5c b6bc e8c2 94bd 94d0 083d
00000270: f3cd 93bd 7611 42bd 35af e7bd d75c 58bd
00000280: 6655 ddbd 5efc 86bd 52b3 d33d b101 ac3d
00000290: 609d 5e3d b46e 6cbd d27d bdbc 80ae bc3b
000002a0: 957d a6bd 77c3 0bbe b549 3f3d 10e7 42be
000002b0: bfa2 e8bc 56da e33d 7012 fa3c c3d4 13bd
000002c0: 6fc1 2f3c 9145 02bd fa34 c63b e6be 5bbd
000002d0: 45d6 1bbc 107e af3d c916 87bc e076 9abc
000002e0: 98a6 7dbe 968a 3a3d 7a1e cfbc c6f9 8fbb
000002f0: 0c8b 883d b8b6 d3bb 1908 c23c 9efe e8bd
00000300: 30bb c2ba 78cc 89bb 2069 99bd 8d50 783b
00000310: d1ab b23d f6c0 bf3b e22d db3d 7ef4 f13d
00000320: a5e3 70bd 949d c3bd c809 afbb 05da 983b
00000330: f515 b13d 5dd4 a5bd dfa6 0ebd 34e2 2c3b
00000340: cbc6 a5bd 2db4 473d f3ba 3c3e ad9d 3dbb
00000350: 3c58 793d 3040 843b 5b05 ef3d 66f9 abbe
00000360: 4de0 a5bb 2538 1cbe ae18 bebd 4b0f f7bd
00000370: b44d 153d 33e7 853c 56e4 90bc 62b7 563c
00000380: 0273 a3bc 31db 05be 44b3 1bbd 7208 1dbd
00000390: 413b dbbb 051c 7dbd 03c9 cfbd 5003 3b3c
000003a0: c36c d13b d12d 76bd 98da 45bd 5943 4dbd
000003b0: d84d 163b 2af2 a03c c56b 03be a3d2 173e
000003c0: 6e5d 91bb 733e 82bd 0b0b aebd 2156 d5bd
000003d0: 0c07 123b 8669 acbd 7330 7abd 2f47 c03b
000003e0: 1a57 753d 50f4 1f3d 4749 fabc d6be d33d
000003f0: a401 c1bd ea55 9e3c 78bf 663a fd09 d4bd
-0.061903935 0.012994365 -0.059183396 -0.06976273 0.021741841 0.0125531 0.08655948 0.065584004
0.014690027 0.21440801 0.0097009875 -0.08131559 0.0029637993 0.05612715 -0.0775297 0.100251466
-0.061031546 -0.030095872 0.048899133 -0.0990187 -0.02507349 0.061572168 -0.0020482629 -0.06424341
-0.12984394 -0.019386236 0.07735005 -0.062123287 -0.0022630522 0.029289747 -0.098502 -0.011455266
0.08406156 -0.047356598 0.11015975 0.04270359 -0.03239419 0.066447034 -0.017336896 0.04592239
0.026337959 0.06247702 -0.046044357 -0.024253001 0.1018573 -0.05443381 -0.0051869834 -0.027710864
-0.08596149 -0.021271111 0.03559893 -0.043626282 0.0396788 -0.04798315 -0.11362206 -0.12629366
0.115872316 0.013102125 -0.004370938 -0.009760267 -0.06410344 -0.012425468 -0.0341649 -0.059268676
-0.048347164 0.080726385 0.018023612 -0.21181825 0.0007974098 0.0059762453 -0.110775165 -0.074193954
0.12344676 0.022739345 -0.037810616 -0.10763798 0.08791319 -0.06482295 -0.06612484 0.03362862
-0.04887091 0.08606608 -0.1411798 -0.006705704 -0.023276804 -0.0690873 0.09075585 0.016372297
-0.010667071 0.044600174 -0.023263948 -0.13539933 0.046351705 -0.08497929 -0.08285198 -0.07183993
0.06298075 -0.012347083 0.05265541 0.010970462 0.04573746 -0.009972725 -0.03176182 -0.0043659
0.10052533 -0.13405986 -0.026349628 0.080419004 -0.106768735 -0.080106124 0.12454088 -0.032802142
0.06435457 0.13529137 -0.05569737 0.0598949 0.04478373 -0.056379918 0.059897687 0.06922318
-0.030182188 0.015137553 0.09649536 -0.025735317 -0.06839122 -0.0020610117 -0.0022496 -0.025190441
-0.106354654 0.06907832 -0.008710871 -0.08006662 0.20869659 0.06493684 0.038739532 -0.016178368
0.006517963 0.013171358 0.0033296857 0.07097134 0.07180465 -0.28644845 -0.07043514 -0.08662775
-0.003293071 -0.049907535 -0.051204808 0.02581992 -0.10610183 -0.08111544 0.017865878 -0.113990724
0.062468305 -0.022260962 -0.07263738 0.03340204 -0.07217016 -0.047379933 -0.11312715 -0.052822914
-0.10807304 -0.06591104 0.10336937 0.0839876 0.054349303 -0.057722762 -0.023131285 0.0057581067
-0.081294216 -0.13648783 0.046701152 -0.19033456 -0.028397916 0.11125629 0.03052637 -0.036091577
0.0107272705 -0.031804625 0.0060487958 -0.05364885 -0.009511535 0.085689664 -0.016490357 -0.018855512
-0.24770582 0.045542322 -0.025283087 -0.004393789 0.06667146 -0.0064609908 0.023685502 -0.113766894
-0.0014856812 -0.004205283 -0.07490754 0.003788981 0.08724178 0.00585186 0.10702111 0.11814211
-0.05881085 -0.0955154 -0.005341742 0.004664662 0.08646766 -0.08097146 -0.03482711 0.0026379945
-0.080945574 0.048755813 0.1843069 -0.0028933093 0.060875162 0.004035972 0.11670943 -0.33588713
-0.005062139 -0.15255792 -0.09282051 -0.12063464 0.036451057 0.016345596 -0.017687004 0.013105245
-0.019952301 -0.13071896 -0.038012758 -0.038338132 -0.006690413 -0.0617943 -0.10145762 0.011414364
0.0063911392 -0.060102288 -0.04830417 -0.050113056 0.0022934582 0.019646723 -0.1283408 0.14826445
-0.0044361865 -0.063595675 -0.084982 -0.104168184 0.0022282032 -0.084185645 -0.06108136 0.0058678607
0.05989752 0.039051354 -0.03055252 0.103391334 -0.09424141 0.019328076 0.0008802335 -0.103534676

bias f4 [512]
00000000: 6400 4d3b 5875 99bd d8f4 433c fc21 433d
00000010: 83bb 453d df76 503d 5fbe 7d3d 88b3 f43c
00000020: 5282 91bd db8e dc3c 3b22 2dbd 6a94 583d
00000030: 34fb e1ba 0907 403d b249 143d 3a3f 68bd
00000040: 19f5 f7bc 8997 dcbd 8b57 ebbc bd24 733d
00000050: 4df0 c0bd 767b e83c 985e 35bd c350 d8bd
00000060: 936c 15bd 62e0 f9bd a5d0 bbbd 8322 2d3c
00000070: 366d 64bd ebef 16bd bddd e63c b9c3 dbbd
00000080: 0978 1a3c 05e5 bd3c a060 e43b ca9e b43d
00000090: e95a 50bd 4d99 c33d e2ff 88bd 13e3 babd
000000a0: 645b 0bbd 745e 323d f996 c53b 0bf0 cd3b
000000b0: 8ea2 a03c 5313 66bd e1a1 3a3d 765f 5ebd
000000c0: 8dad 4e3c a5c4 96bc 1dd1 2d3d e4a6 883d
000000d0: aeaf abbd 6ed7 8fbd fe6e b43d 409c 11be
000000e0: 2b13 37bd 11db 133d b761 d0bc 54cc 88bc
000000f0: 207a 4bbd af4b 9ebd 6f2a 113d 90ff b03c
00000100: 746d f4bc 6115 41bd 5eb7 ccbd abc7 dcba
00000110: 917d 98bc 5886 3ebd eae7 3e3d 3de9 8ebd
00000120: 8455 96bb 35a3 76bc 318b e9bd 3dcd 6b3c
00000130: e3dd 683d 50f0 aabd be0f 6abb 153f 993c
00000140: cf2c 9fbd 1044 89bd 620f cdbc 8d36 d4bb
00000150: f2ef 45bd 9c78 43be d5ce f6bc 9cbc a1bd
00000160: f98a 413d 6341 e33b 3d4a 70bd ac3c a73b
00000170: f560 e4bb 46de dabd b816 6cbd 75d4 93bd
00000180: eb5d 073d e8e0 603d 383d 7fbd 208d 9abb
00000190: b925 35bd 68f5 593d 7409 bc3d b0a4 d0bc
000001a0: ccd4 87bd dc69 483d 43cc 813c 49f3 8a3d
000001b0: aa0d 513d 26c2 053e f982 e6bc dbe4 97bd
000001c0: f179 edbd e1fa c7bd 764c 02bd 43a3 10bd
000001d0: 2f03 b23d a84e 213d 7b4c 5c3d 1a1b 0fbc
000001e0: e140 f83b 97f1 c6bd af31 1c3d 246b 1fbe
000001f0: c40c 73bd 8014 8d3d a0f5 40bd 7197 893d
00000200: 1e30 323c 570b 5b3c e7b0 07bd c14c 47bb
00000210: 4ab2 673d c7b8 d3bd 7060 1fbd 64c0 eabd
00000220: 7b86 e7bc a482 1ebe 70c1 49be bc04 553d
00000230: 87ae c83d 1d2b af3c 9127 00be 32eb 55bc
00000240: 85f5 84bd 3df1 5c3d c223 803a 5f13 b0bd
00000250: 8bc1 00be 44cf a03a 5413 803d 8b4d 49bd
00000260: 0b8a 26bd 4588 a1bd 4fa8 403c f586 1ebe
00000270: f7ab 10bd 8902 013d 91f0 973d 48a2 d73d
00000280: cb76 893d 83bd 413c 881c 063d ce04 6abc
00000290: a688 b3bd 7e69 583c c16a b5bb 4145 be3d
000002a0: 21e9 7dbd 531a 53bd 4159 003c c72d a53c
000002b0: 6f06 9bbd 4514 933c 9bb7 b7bd 26d2 9bbc
000002c0: e3c8 edbd 926a 073e a07e faba a234 b4bb
000002d0: 32d1 e63d e4f2 fe3c adee dcbc 24b3 003d
000002e0: 382f ddbd b35a 97bd 9b46 13bc c7d1 86bd
000002f0: 03e3 edbc f192 9d3c 9b4f 27bd a0b4 3ebd
00000300: f0d7 a6bc ada4 d13c aa29 c3bd 08e8 913a
00000310: 567c 69be f329 9f3d b0b7 d43c 62ba b5bd
00000320: bddb ddbc 141c 90bd f843 c7bc e192 d7bb
00000330: fca2 1cbd c4b5 8c3c 9800 eb3c be9c a3bd
00000340: 8927 4c3d c341 d73c 7902 dabd 3590 763c
00000350: cf1d fcbd e649 353e 3e04 5cbc 34ea 80bc
00000360: b649 f23c 47ec 51bc f8ae 09bd 8f15 27bd
00000370: b492 ce3c 3055 7dbd 37f5 1abd b4f5 10bc
00000380: 67f8 913d 46e8 63bc 1d77 89bb dcab eebc
00000390: 3e4f 70bd add3 90bc 77eb dc3c b87c d23c
000003a0: 8358 f2bc b600 afbd 086f f93a e155 f03c
000003b0: be41 71bd c434 6fbd 7e8f 1e3d 72b3 2e3c
000003c0: baf7 f1bd 6958 d53b 258c adbd f275 883c
000003d0: efbd cc3d 24e6 b83b fed2 263d 0f91 22be
000003e0: dc85 68bd 483b 043b b176 b53c b9e3 8b3c
000003f0: c027 9ebc 2af2 0abc 79ff b4bb bcc2 6fbd
0.003128075 -0.07493085 0.011960231 0.047639832 0.04827453 0.050894614 0.06194913 0.029870763
-0.07104935 0.026923588 -0.042268973 0.052875914 -0.0017241002 0.04688171 0.036203094 -0.056700923
-0.030268239 -0.107710905 -0.028728267 0.05936121 -0.09420834 0.028379183 -0.044279665 -0.10562279
-0.036480498 -0.12201001 -0.09170655 0.01056731 -0.055768214 -0.036849897 0.028181905 -0.107306905
0.009428033 0.023180494 0.0069695264 0.08819349 -0.05086795 0.09550724 -0.06689431 -0.09125342
-0.034022704 0.04354711 0.0060299602 0.006284719 0.019608762 -0.056170773 0.045564536 -0.054290257
0.01261462 -0.018404314 0.042435754 0.06672457 -0.083831176 -0.07023512 0.088102326 -0.14219761
-0.044696014 0.03609759 -0.025437219 -0.016698994 -0.049677014 -0.07729279 0.03544086 0.021606237
-0.029837348 -0.04713953 -0.09995912 -0.0016844174 -0.018614562 -0.04651484 0.04660789 -0.069780804
-0.004587831 -0.01505356 -0.11403502 0.014392194 0.056852233 -0.08346617 -0.003571495 0.018706838
-0.077722184 -0.06702435 -0.02503175 -0.0064762295 -0.048324533 -0.19088978 -0.030127922 -0.078973025
0.047251675 0.006935285 -0.05866455 0.005103668 -0.006969566 -0.106869265 -0.057638854 -0.07218257
0.03304855 0.054901987 -0.062314242 -0.0047165304 -0.04422543 0.053212553 0.091814905 -0.025469154
-0.06632385 0.04892908 0.01584447 0.06784684 0.05103842 0.13062343 -0.028138625 -0.074166976
-0.11595524 -0.09764648 -0.0318112 -0.03531195 0.086920135 0.039381653 0.053783875 -0.008734489
0.0075760935 -0.09714048 0.03813332 -0.15568215 -0.059338346 0.06888676 -0.047109246 0.06718338
0.01087573 0.013369403 -0.03312769 -0.003041074 0.056566514 -0.10337978 -0.03891033 -0.11462477
-0.028262367 -0.15479523 -0.19702697 0.05200647 0.097989134 0.021382863 -0.12515093 -0.013056563
-0.06492142 0.053941 0.0009776282 -0.08597445 -0.12573831 0.0012268801 0.062536865 -0.049146216
-0.04065899 -0.078873195 0.011758878 -0.1548117 -0.03532025 0.03149656 0.07418931 0.105289996
0.06712111 0.011824968 0.032742053 -0.014283372 -0.08766298 0.013208745 -0.0055364077 0.09290553
-0.061989907 -0.051538777 0.00783378 0.02016343 -0.075695865 0.017954001 -0.08970567 -0.019021105
-0.11610582 0.13224247 -0.0019111224 -0.0054994384 0.112703696 0.031121679 -0.026969278 0.03142084
-0.10800022 -0.073903464 -0.008989002 -0.065829806 -0.029038912 0.019235106 -0.040847402 -0.046558976
-0.020366639 0.025591219 -0.09529431 0.0011131773 -0.22801337 0.07771673 0.025966495 -0.0887344
-0.027082318 -0.070366055 -0.024324402 -0.0065787886 -0.03824137 0.017176516 0.028686807 -0.079888806
0.04984239 0.026276475 -0.10645003 0.01504903 -0.12310373 0.17703971 -0.013428746 -0.015736677
0.029576164 -0.012812681 -0.03361413 -0.040792044 0.025216438 -0.06184882 -0.03783151 -0.008847643
0.07127457 -0.013910359 -0.0041951076 -0.029134683 -0.05866932 -0.01767906 0.026967747 0.025694236
-0.029583221 -0.085450575 0.0019030282 0.029337825 -0.058900587 -0.05839993 0.038711064 0.0106629
-0.11814828 0.0065107835 -0.08473996 0.016657803 0.099971645 0.0056426693 0.04072856 -0.15875648
-0.056768283 0.0020176936 0.022151323 0.01707636 -0.019306064 -0.008480588 -0.005523619 -0.058535323

weight f4 [256, 512]
00000000: fa83 323b 4ca5 51bd 40ad abbd 0627 9b3d
00000010: 3bf0 333c 55b2 993b 59ac a03d a095 123d
00000020: d5c4 553b 895e dbbc 13be 85bc ccda 183e
00000030: d928 2cbd 44fb 183d 1df0 eabb c94a 1b3d
00000040: fea3 33bc 4294 93bd d0f0 a1bd 3402 f93c
00000050: 3173 ca3c 18f6 bfbc 2936 a53d 39d3 523b
00000060: 18f0 143c 5d8a a2bd f02b 9fbd 4db7 413c
00000070: b163 7aba 0e5a dbbc 06e4 90ba 4cbc 7bbb
00000080: 3eec cc3d cba5 db3d d3bf 8f3d e310 afbc
00000090: 1ea8 043e 53db 0cbe 5a6d 49bd 44df 1cbd
000000a0: e028 393e 470d d83d 1fef 74bd 2538 8f3c
000000b0: 04eb cebd aeae bdbd c3b2 99bc d053 3b3c
000000c0: e962 bbbc 0195 223d 99d9 babc 9ddc 7b3d
000000d0: 0d78 ac3d f0ce afbd 320c afbc 8697 163d
000000e0: 010c ab3c e580 123a 613c 343e a06f 113e
000000f0: 43a8 3dbd f246 25bd 4399 d23c 28c0 1e3d
00000100: ae33 46bd 685b c6bc 7102 ed3c 4f69 c13b
00000110: 6015 b9bd 9f51 a2bd 80a6 88bc 3bee a1bc
00000120: d877 bf3d 5618 13bd ec69 6cbd 67a7 c83c
00000130: f290 3a3e 3c41 2c3d 63f3 1fbd fbae 3f3d
00000140: 5f0e 273c 2f7f 8cbd b0a9 c7bd 81d8 27bd
00000150: 4f42 bebd 0445 ecbd 7b5a 623d c59c 453d
00000160: bd32 ce3c b102 833d 07f7 e83c b30a cbbd
00000170: 6f83 55bc 249f 16bc 4aab 9d3d f8b6 073e
00000180: 8045 fd3c a881 ce3b e621 f0bd e139 943c
00000190: 62b8 9ebc 86d8 8bbb c08a 75bd d658 843c
000001a0: 1e37 873e 8a03 3dbd 58ad dabb 9802 27bd
000001b0: 242d 243d a0c7 613d e925 163c e857 fe3c
000001c0: e888 f73c 1885 003d f166 ebbc 46f4 6cbd
000001d0: cb27 acbb 43d4 bcbc dc1e 993d a7b8 40bb
000001e0: 0b39 6ebc 34d8 b0bd 7384 303d 86a0 783d
000001f0: 6c7d 053e 12a2 103d 8ec8 c03c f01d ec3c
00000200: 19c8 0ebd 2157 e33d 0483 253c af03 b83c
00000210: a9a6 373d a24c 0abd 0785 a6bd 97db 4fbb
00000220: 50e5 26bd 5e86 94bd 42d1 f5bd fe92 f53d
00000230: 05f0 8b3c 8bc8 b63b 03bb 1f3c 299e 0cbc
00000240: a36c 6fbd 4675 1e3e b4dc d13d 856f 2dbc
00000250: 2c28 01be b22b d7bb 17f5 2fbb 1ea9 6e3c
00000260: 0696 24bd 23d9 91bc 6270 383c a9c2 253d
00000270: 58e7 e43c e948 253d 911a 74bd 9c63 04bd
00000280: eaac 393d ae71 a83c 7779 cc3d 1152 08bd
00000290: d2e4 803c e8ce e9bc 9eb5 823d b12d 433d
000002a0: 2a2d b0ba 8efa ff3c 757c 0d3d fb4d b63d
000002b0: 409d b0bc d8b1 823d 9004 bf3d ed41 7ebd
000002c0: c6c1 cc3b df91 19bd cb42 883d 330e 64bd
000002d0: cff8 0c3d 463b e43c fa4f 2fbe aaae 063e
000002e0: e705 de3b cd2b a0bd d369 ffbd 08e6 2c3c
000002f0: 207e 9f3d a4eb 243e dcf4 da3d c911 d13b
00000300: 1ffd 29bd db15 0f3d 3835 053d 915e 60bd
00000310: 30e4 efbd 1fdb 4a3d 9cbb 083d a2c4 853c
00000320: 3b24 1f3e 4489 91b9 63ac a23c 45a0 45bc
00000330: b3c3 80bd bfb4 813c 1111 c33b ee39 c9bc
00000340: f041 103e 60fa 203d 3fea 9f3d 2a27 3ebd
00000350: 7d04 97bd 660b a83c 4171 82bd 646b 253d
00000360: cdd5 d53c eff5 e63d a660 073d d2df 1b3d
00000370: 406f 09bd b248 273d 2bdb bbbd 38e9 19bc
00000380: 92ec 30bc 2789 1d3e ab31 63bd ecbf a03c
00000390: 19e5 27bd 72c6 d63d 447f 913d 2102 213c
000003a0: 53db aabd e3d8 d1bc 9e4e 3c3d 5e69 57bd
000003b0: 9a10 823c fc8e 91bb 2c76 adbd d4cd 03bd
000003c0: c579 0e3e bbad 823e 80a7 aabc c49a 8d3c
000003d0: 6223 11bd 5be3 d23d 0d99 4bbd 743d 493d
000003e0: 45cf 483d c608 6c3d 1a90 7abd 36dc 0fbd
000003f0: 8867 f5bc f61b adbd b9a8 473c ea3c 703e
0.0027239309 -0.05118303 -0.08382654 0.075758025 0.010982568 0.0046904483 0.07845373 0.035787225
0.0032618542 -0.026778476 -0.016325986 0.14927214 -0.042031143 0.037349 -0.007169737 0.037913118
-0.010964392 -0.07206012 -0.079072595 0.030396558 0.02471313 -0.023432776 0.08066971 0.0032169356
0.009090446 -0.07936547 -0.07772052 0.0118234875 -0.00095515983 -0.02677634 -0.0011054284 -0.0038411794
0.10005997 0.10724982 0.070190094 -0.021370357 0.12954757 -0.1375554 -0.04917655 -0.03829886
0.18081999 0.105494075 -0.059798356 0.017482826 -0.101034194 -0.09261833 -0.018761998 0.011433557
-0.022874312 0.039692882 -0.022808837 0.06148969 0.08421335 -0.08584392 -0.02136812 0.036765598
0.020879747 0.0005588665 0.17601158 0.14202738 -0.046303045 -0.04035086 0.025707847 0.038757473
-0.04838913 -0.024213508 0.028931828 0.0059024463 -0.0903728 -0.07925724 -0.016680956 -0.019766917
0.0934903 -0.03591188 -0.057718202 0.024493886 0.18219355 0.0420544 -0.03905047 0.046797734
0.010196297 -0.06860196 -0.09749162 -0.04097796 -0.09289991 -0.11536601 0.05526207 0.04824521
0.025170678 0.06396998 0.028438104 -0.0991415 -0.0130318245 -0.0091932155 0.076986864 0.13253391
0.03091693 0.0063020773 -0.117252156 0.018094005 -0.01937503 -0.004267755 -0.059946775 0.016155642
0.2640924 -0.046145953 -0.006673496 -0.040773958 0.040082112 0.055122018 0.009164312 0.031047776
0.03021665 0.031376928 -0.02873561 -0.057850145 -0.005253767 -0.023050433 0.07476589 -0.0029406936
-0.014539967 -0.086349875 0.043095063 0.060699962 0.13036126 0.035310812 0.023533132 0.028822869
-0.034858797 0.11100603 0.010102037 0.022462694 0.044836674 -0.03376449 -0.08130842 -0.003171658
-0.040746033 -0.07252191 -0.120028034 0.11990927 0.017082224 0.005578106 0.009749177 -0.00858263
-0.058453213 0.15474424 0.10247174 -0.01058567 -0.1261298 -0.006566488 -0.0026848966 0.014566688
-0.040182136 -0.017803734 0.011257263 0.040468846 0.027942345 0.040352736 -0.05959565 -0.032321557
0.04533092 0.02056202 0.09984105 -0.03328139 0.01573411 -0.028541043 0.06382297 0.047650997
-0.0013441194 0.031247403 0.03454252 0.08901592 -0.021559358 0.06381577 0.09327042 -0.06207459
0.0062486855 -0.03749263 0.06653365 -0.055677604 0.03441697 0.027860295 -0.17120352 0.13152567
0.006775606 -0.07820854 -0.12471356 0.010552891 0.07787728 0.16105515 0.106912345 0.006380294
-0.04150116 0.034932952 0.032521456 -0.054777686 -0.11713445 0.049525376 0.033382043 0.016329113
0.15541165 -0.00027758826 0.019857591 -0.012062137 -0.06287327 0.015833257 0.005952962 -0.024563756
0.14087653 0.039301276 0.07808351 -0.04642407 -0.07373903 0.020513248 -0.06369258 0.04038562
0.026102925 0.11277377 0.033051156 0.03805525 -0.033553362 0.040840812 -0.09172662 -0.009393983
-0.01079859 0.1538435 -0.05546729 0.019622765 -0.04098997 0.10487069 0.07104352 0.009827168
-0.08342614 -0.025616115 0.045973413 -0.05259072 0.015877057 -0.004442094 -0.08469805 -0.032178715
0.13913639 0.2552317 -0.020831823 0.017285712 -0.035434134 0.10297271 -0.049706507 0.049130872
0.049025793 0.057625555 -0.061172582 -0.03512212 -0.029956594 -0.08452599 0.012186223 0.23460737

bias f4 [256]
00000000: 4596 81bd 23a2 41bd 0e8c 7d3d 3677 843d
00000010: 8ccb 19bd 6685 e93c 1c50 48bc 818b 3e3c
00000020: a1a9 ccbd 7b36 443d b60b ffbc 79bc 693c
00000030: bef4 9bbc 09cb 6fbd 9d6d a63d dc98 98b9
00000040: a03f 3dbe 13ee 9b3d acf8 2abe 62dd d23d
00000050: f94c 1c3c af3c 553d 7e85 1cbe c595 ef3b
00000060: 84a4 2abe 114d 6d3c c7e8 bf3d 280d cb3d
00000070: c042 85bd 733f 643c e511 053d 4e98 bfb9
00000080: 1019 c43d e277 febc cb56 953d 7448 f7bc
00000090: 86af 55bd c8a8 19bc a133 2b3c da5a de3b
000000a0: d310 7ebd 9901 f43b 3637 68bd 8235 203b
000000b0: 7901 77bd 5d05 633c 8248 aa3c b4ac 63ba
000000c0: 1bfe d13b 3e15 18be 4c1d 8dbd 88f1 123d
000000d0: 1c5f c03d dae8 85bc 3728 943d 94c0 e43d
000000e0: 19d1 5f3d 59ce 5bbc 80b0 283d a4a3 cb3d
000000f0: 8152 b03c d87d e6bb 718f 79bd 0f3b afbc
00000100: d5fb e23b 775e d0bc 92cc 3abd 0f26 7f3d
00000110: 2709 ce3c 9aad 9b3b c539 d03c 4c3c 8b3d
00000120: fbe4 503d e154 6c3d 1a03 883c 1809 b1bc
00000130: bbf7 6cbd fd85 a8bd 1692 9dbd 1344 8c3b
00000140: 2113 9fbd 0d46 57bc 398b 563d 5069 74bd
00000150: e09f a13d 7fa7 573c 8ed9 573d 990a 6f3b
00000160: 2038 bdbc 0f7f a2bd be99 c23c a024 b4bd
00000170: ba7b 2bbd f325 203d 41ba e23c 5486 cb3d
00000180: 449d 50bc 1e17 6c3d 1bf0 87bd 73a8 cbbc
00000190: 2631 b33d 51d6 1cbd 1f15 0f3d 79e6 52bd
000001a0: 314f b9bd 4edd fb3c ffce f1bb b305 6e3d
000001b0: 799a a33c 52bb 5cbd 73f9 4f3d ed7f ae3d
000001c0: e089 2d3c 0916 563d f546 853c 6b5e 0fbb
000001d0: a253 1e3d 4411 db3c 7004 52bd bee5 e83d
000001e0: 41ad 4d3d f02e acbd b774 b2bd 0751 693c
000001f0: 29b9 293d ce83 63bd c82a 973d 9930 1a3e
00000200: 1773 be3c 9ca8 25bb 1bf7 4fbd 5751 1abe
00000210: 99f0 103b d5f1 eb3d 7dd2 763d 4d58 21bd
00000220: 27cd 0abb 9867 a63d 51ee 04bc 84e2 6abd
00000230: d9c7 a7bb 9dc4 94bc 6986 593d b8a8 57bd
00000240: 7213 50bd 6df8 ad3c fd2d 0ebe 6290 b53d
00000250: 20e0 103d 495e 683d 0798 0c3d 7748 debc
00000260: ebf0 a53d a70d 9dbd 2385 073e 0da6 fb3b
00000270: d554 bf3d 52e2 843b ab76 39bb a8f8 b43d
00000280: 789e a7bc 3221 833c 421b 4abd ba2e abbb
00000290: 0602 27bd c8e6 943c 8700 70bc 4e71 df3d
000002a0: c8de 50bb 8cbe 8bbd 0881 1abe 8a5a 183b
000002b0: 199e 9ebd 7939 e1bd 0c71 273d a8a5 fa3c
000002c0: 54f8 ee3c 48d1 f0bc f475 a8bd a5c5 0d3e
000002d0: 0ca4 6e3d 3a69 b5bc 27c7 31bd e475 61bd
000002e0: 3a8a d43c a129 e03d 5138 333d e2e8 2d3d
000002f0: 139f fabd 0397 85bc 854f 023d ec2a c0bb
00000300: 6f63 3dbd 6533 26bd 6b8e 9e3d 564c eabd
00000310: a5f0 933d 303d 17bc 0898 903d e298 813d
00000320: ae01 8d3d bc5d 173d 25a5 23bc e0a4 a6bd
00000330: 78a0 2e3e 9d1b fc3a ae78 df3d 0cff a63c
00000340: 113a 8f3d 89ab 0dbd 1ad8 743d 9ed2 54ba
00000350: 2088 51bd 009b 9b3d c59e 133c f7c8 3abb
00000360: b6bf 103d 51c5 ef3d ed85 5e3d ba7d c8bd
00000370: cd05 ec3d eab1 cfbc eb97 273d 0fc7 cdbc
00000380: 66f5 c53c 0472 9fbb ffcc c23d 6cff f23c
00000390: 2bb0 55bd 2976 8abb 4567 233e 36b9 ba3c
000003a0: 2b50 70bd 1d8b bfbd bc60 73bd 57e5 0e3d
000003b0: 7056 063c ec8c c63d b890 fe3c b272 28bd
000003c0: f302 dc3c 51cf 6b3d b394 b73d a0be 70bd
000003d0: a091 05ba e05d 24bd 2d9c 333c de94 0ebc
000003e0: 3b79 69bc f3a8 9abc 6921 833c 2f44 86bd
000003f0: 3bcc e33b 27d6 a53d 97af c13d 9650 58bd
-0.0632749 -0.047273766 0.061901145 0.0646805 -0.037547633 0.028505992 -0.012226131 0.01162994
-0.09993292 0.04790352 -0.031133514 0.014266127 -0.0190376 -0.05854324 0.08126376 -0.00029105588
-0.18481302 0.076137684 -0.16696423 0.10296132 0.009539836 0.052059826 -0.15285298 0.007311555
-0.1666432 0.014483706 0.09370571 0.09914619 -0.06506872 0.013931143 0.03248777 -0.00036543835
0.09575093 -0.031063024 0.07291945 -0.030185916 -0.052169345 -0.0093786195 0.010449321 0.0067857327
-0.062027764 0.0074464795 -0.05669328 0.0024445956 -0.06030414 0.013856259 0.020786528 -0.00086850976
0.0064084656 -0.14851853 -0.068903536 0.035874873 0.09393141 -0.016346384 0.07234233 0.11169544
0.05464277 -0.013415896 0.04118395 0.09943321 0.021523716 -0.0070340447 -0.060927812 -0.021390466
0.0069269934 -0.02543567 -0.04560525 0.062292155 0.025150849 0.0047509195 0.025418172 0.0679861
0.050999623 0.057698134 0.016603041 -0.021610782 -0.05785344 -0.08228681 -0.07693879 0.004280576
-0.077673204 -0.01313926 0.052378867 -0.059670746 0.07891822 0.013162493 0.05269771 0.0036474823
-0.023098052 -0.07934391 0.02375495 -0.08796048 -0.04186604 0.03909869 0.027676703 0.099377304
-0.012732808 0.057639234 -0.06637593 -0.024860596 0.08749609 -0.038290326 0.034932252 -0.051489327
-0.09048308 0.030745175 -0.007379412 0.058110904 0.01997112 -0.05388958 0.050775003 0.08520494
0.010591954 0.052267108 0.016269187 -0.0021876346 0.038653977 0.026741631 -0.051273763 0.11371945
0.050214056 -0.0840739 -0.08713668 0.01424051 0.041436348 -0.05554562 0.07381207 0.15057601
0.023248238 -0.00252775 -0.050772768 -0.15070091 0.0022116064 0.11520735 0.06025933 -0.03939085
-0.002117941 0.08125228 -0.00811346 -0.05734493 -0.0051202592 -0.018160159 0.0531067 -0.052651137
-0.050799794 0.021236623 -0.1388473 0.088654295 0.035369992 0.056730542 0.034324672 -0.027134163
0.08102592 -0.076686196 0.13234381 0.007679707 0.09342352 0.0040553 -0.0028299491 0.0883649
-0.020461306 0.01600704 -0.0493424 -0.005224076 -0.040773414 0.018176451 -0.014648563 0.10910283
-0.003187107 -0.06823453 -0.15088284 0.0023247325 -0.077449985 -0.1099729 0.040879294 0.03059657
0.029171146 -0.029396668 -0.08225623 0.13844927 0.058261916 -0.022144902 -0.043402817 -0.05504407
0.025944818 0.1094544 0.04375488 0.042458422 -0.12237372 -0.01630736 0.031814117 -0.0058644917
-0.046237405 -0.040576357 0.07742008 -0.11440341 0.07223634 -0.009230897 0.07060248 0.06327988
0.06885086 0.036954626 -0.009988104 -0.08136916 0.17053401 0.0019234304 0.1091169 0.020385288
0.06993497 -0.034587417 0.059776403 -0.00081185426 -0.05115521 0.07597923 0.009010022 -0.0028501132
0.03533908 0.11707557 0.05432694 -0.097896054 0.11524544 -0.02535339 0.040916365 -0.025119333
0.024164867 -0.0048658866 0.09511756 0.02966281 -0.05216996 -0.0042255116 0.15957363 0.022793394
-0.058670204 -0.09352706 -0.059418425 0.034886684 0.008199319 0.096948475 0.031074867 -0.041125007
0.026856875 0.05757076 0.08963909 -0.058775544 -0.0005095247 -0.04012859 0.010962528 -0.008702485
-0.014250095 -0.01887939 0.016007142 -0.06555974 0.0069518364 0.08097487 0.09457319 -0.052811228

weight f4 [128, 256]
00000000: f1b7 3abc 1d97 e0bd fb44 f8bc 891e b53d
00000010: e75f 9bbd ded4 a4bd b62f c03d 1331 2b3d
00000020: dd5c eabd de40 803d 0e15 6a3d 45a6 a5bd
00000030: e81c ab3a 16f9 3a3c 84c6 d9bc 8bf2 313c
00000040: 1400 d2bc a266 103d 6933 cabc ea34 52bd
00000050: 0a34 a7b8 def5 8abc 380c 9bbd 7531 5b3d
00000060: 61ec 80bd 608e 2abd ac40 3dbd f3fd ad3d
00000070: a93c 543d 2648 913d b75b 76bc 4eb7 1ebe
00000080: 7ec0 c5bc 7108 f639 aec0 4cbe 506a db3b
00000090: 3c08 043d 83c4 04bd 6a2a c7bc 4d0f 5e3d
000000a0: fc64 99bc cc74 633c 8c0d 34bc c327 aebd
000000b0: 1c71 96bd 7269 34be 71bd cbbc 52c3 74bd
000000c0: 7ebb a3bd e12d b8bb b9b1 503a bef7 92bd
000000d0: f83c 5b3d c137 3e3d 7017 8c3d 3090 3abd
000000e0: beab f93c 1c7e 5abd 8f94 0dbc 560a e93c
000000f0: 590b bbbc 77bd 45bb 06e2 05bc cb43 1abd
00000100: 4fa7 023d 847d fc3c 3ba3 2fbc c15c 8ebd
00000110: ba06 9bbd ac82 ad3d 73a3 9e3c 76eb 0e3d
00000120: de5e 11be 5114 ac3d 7576 3f3c 61ef a3bd
00000130: 2928 3cbc 6f74 603c 53e7 05be d13e 6ebd
00000140: c517 8fbd 221f 82bd 8efc 81bd 9747 c53c
00000150: b235 f93c 972c 08be d803 a1bd e09b 9bbc
00000160: 1ce6 bc3c c69c 2fbe 69b3 20bd 5c9f f8bc
00000170: 1cb2 15be 224e aabd 8c4b 57bd 49ea aabc
00000180: 6f15 8d3d 3fbb a0bd cb24 d73c f154 c8bc
00000190: cd1c 89b8 b0b6 56bd 5e3a d2bd f2df 0abd
000001a0: c987 66bd 0ff9 7b3d f614 b1bd 00b6 a7bc
000001b0: e23c ce3d ea6a 8fbd 1f1b 8d3d 455c 1f3b
000001c0: c5a8 d43c cca3 ddbd 2450 943d b105 d13c
000001d0: afc8 403c d77b 66bb cf29 71bc db4b 533d
000001e0: 4d42 9ebc 7aa7 9bbb e06f 90ba a575 833d
000001f0: a484 18bd 211f 34bd 146b febb d367 343d
00000200: 6280 fc3c c9df d63d b3d2 6cbd b2c8 f33c
00000210: 3772 e03b fd2b a03c ba7b 413d 970c a3bd
00000220: aa29 b2bc 3833 caba c7b7 7d3c 46a8 913c
00000230: ca8c 123d 7f23 a1bd 30a0 683d 1d4f a5bc
00000240: 5335 ebbd 4112 1bbd e31c 4cbd 44fe 51bd
00000250: aaf5 df3b ed44 36be 2096 843d 71b9 88bc
00000260: 4c35 00bd a846 9cbd bd11 d63b d47d 2fbd
00000270: 6356 653d f912 9bbd f940 2d3a 105b 8d3d
00000280: f95b 0cbe e2c0 05be 7cbe 253d c31f 6abc
00000290: 9a28 e43c 4575 c23c b3a1 993d 6bdf b73c
000002a0: 4886 713d a77a 863c fce1 91bd bb60 65bd
000002b0: 8315 5c3b 2f2e a3bd 7d7a 433d ecb0 18bd
000002c0: eccc 59be f86f 793d ffb7 d0bc dda7 8a3d
000002d0: 05dc 233d 557a 1fbe ea82 4e3c 42e6 87bd
000002e0: e784 03bd 520c 283c d55b 0dbd 4984 773c
000002f0: 3ee2 8fbd 6363 4cbd 18f2 ae3c b82f 5839
00000300: b114 b43d bdb3 2cbe a888 b03c 4026 7f3c
00000310: 148f 2f3d 8a7a e5bc 2006 433d febf bf3c
00000320: 645f 0d3d b0e3 123d 0122 313a e70b 563b
00000330: 7673 693d a1fd 59bc 5cab b23c a232 ddbc
00000340: cf9d debd 3f5a b9bd 64ad 913d d500 42bd
00000350: b82f f43b b652 b53d 9960 05be 0031 5b3d
00000360: 5ee0 a03c 0cb6 a5bc 0dd4 823d 64ce ae3c
00000370: 8036 70bc f587 603d 4929 48bd 556d b1bd
00000380: edf6 f63c d5ac b7bd 7438 75bd 2d52 a2bc
00000390: 8504 55bd ec00 753d f19d 893d e00e 80bc
000003a0: 3175 0bbb 074e 72bd 4364 323c 916d 6d3c
000003b0: b53b 42bd 12cc 75bc 47fa 81bc f206 10bc
000003c0: f443 f93c 599e 663c c718 93bd 596e 5b3d
000003d0: b73a 033d 3bbd bdbb 4744 b23d 2a2a 883c
000003e0: 7b5f 67bd 2ab2 353d ebab 7c3d d865 c13c
000003f0: e259 a0bd 4d20 b4bd 1cd8 85bd e039 9bbb
-0.011396394 -0.109663226 -0.03030633 0.08843715 -0.07586651 -0.08048414 0.093841 0.041794848
-0.114434935 0.062623724 0.057148986 -0.08088354 0.0013054879 0.011411926 -0.026583917 0.010861049
-0.025634803 0.03525413 -0.024682717 -0.051319994 -7.9728736e-05 -0.016962942 -0.0757069 0.053513963
-0.06295086 -0.041639686 -0.046204254 0.084957026 0.051815663 0.07093839 -0.015036515 -0.15499613
-0.024139639 0.00046927066 -0.19995376 0.006696023 0.032234415 -0.03241397 -0.024312217 0.05421381
-0.01872491 0.013882827 -0.010989558 -0.08503678 -0.07345793 -0.17618349 -0.024870606 -0.059756584
-0.07994746 -0.0056207036 0.0007961053 -0.07176159 0.05352494 0.04643989 0.06840408 -0.045547664
0.0304774 -0.053342924 -0.008641376 0.028447311 -0.02283256 -0.0030172744 -0.008171564 -0.03766231
0.03189784 0.03082157 -0.0107200695 -0.06951285 -0.07569642 0.08472189 0.019365048 0.03489252
-0.14196345 0.084023125 0.011685957 -0.08004642 -0.011484184 0.013699635 -0.13076524 -0.058165375
-0.069869556 -0.06353594 -0.06346999 0.024081988 0.030421112 -0.1329826 -0.07862061 -0.018995225
0.023058943 -0.17149648 -0.0392336 -0.030349426 -0.14618725 -0.08315684 -0.05256228 -0.020863669
0.06888854 -0.07848214 0.026262661 -0.024454566 -6.5380336e-05 -0.052420318 -0.10265039 -0.033904977
-0.05628184 0.061516818 -0.08646576 -0.020472527 0.10070206 -0.07002814 0.068899386 0.0024316472
0.025959382 -0.108222574 0.07241848 0.02551541 0.011766597 -0.003516903 -0.014719441 0.051586013
-0.019318724 -0.0047501894 -0.001101967 0.06418923 -0.03723587 -0.043975 -0.0077642296 0.044044327
0.030822936 0.104919024 -0.057818126 0.029758785 0.006849553 0.019552225 0.047237135 -0.07961386
-0.021748383 -0.0015426641 0.01548571 0.017780434 0.0357788 -0.078680985 0.05679339 -0.020179326
-0.1148478 -0.037859205 -0.049832236 -0.051267877 0.0068347054 -0.1779973 0.064739466 -0.016689988
-0.031300828 -0.07630664 0.0065328763 -0.04284461 0.055990588 -0.07571978 0.0006609108 0.069021344
-0.1370696 -0.1306186 0.040464863 -0.014289799 0.027851392 0.02373756 0.07501545 0.022445401
0.05896595 0.016415907 -0.07123181 -0.056000452 0.0033582158 -0.07967793 0.047724236 -0.0372781
-0.21269578 0.060897797 -0.025478361 0.06770299 0.04000475 -0.1557401 0.0126044545 -0.06635715
-0.032109167 0.010256844 -0.034511406 0.015107223 -0.07025574 -0.04989947 0.021355674 0.00020617142
0.08793009 -0.1686544 0.021549538 0.015573084 0.04286106 -0.028012533 0.047613263 0.023406979
0.0345148 0.03586167 0.0006757081 0.0032660903 0.056994878 -0.013305099 0.021810226 -0.027001683
-0.10869943 -0.09050416 0.0711315 -0.047364075 0.0074519776 0.088536665 -0.1302513 0.053513527
0.019638237 -0.020228408 0.06388102 0.02133865 -0.014661431 0.05481716 -0.048867498 -0.086634316
0.03014704 -0.08968512 -0.05986829 -0.019814575 -0.052006263 0.059815332 0.06719578 -0.015632093
-0.0021279568 -0.059156444 0.010888162 0.014491455 -0.047420222 -0.015002267 -0.015866412 -0.008790718
0.03042791 0.014075839 -0.0718246 0.053572033 0.032038417 -0.0057903803 0.08704429 0.016621668
-0.05648754 0.044359364 0.06168739 0.023608133 -0.07829644 -0.087952234 -0.0653536 -0.004737124

bias f4 [128]
00000000: c8ca c63d 0b80 b83d c3ac 223e 16f6 c53d
00000010: 6705 97bd bce4 abbc dccd e53d adf6 633d
00000020: 15d7 b13d 2faf e0bd 8d2b a23d 6283 073e
00000030: 6e10 86bd 3c52 c23d 0445 143e e42f 21bd
00000040: 2ec2 173e b6c5 983c e6ee 07bd cf23 d3bb
00000050: 60a5 1a3d a346 80be c7f9 803d a34c 42bc
00000060: 8d76 a43d e566 5a3c 9f92 b7bd e015 c13b
00000070: fee5 c1bd 83b7 cd3d c037 b93c a327 ad3d
00000080: e438 2dbd b89a b63d 4e53 2cbe ceec 523d
00000090: 1468 aebe 9fff d1bc dde4 b43d 6d1d f9bc
000000a0: cf94 47be 98c2 c03d 3527 153d f946 223d
000000b0: c7e2 8d3d 48d1 2fbe e666 0fbd d749 38be
000000c0: b077 dd3d a20d b73d 577a b23c 76a8 91bd
000000d0: 29d0 1fbe bda6 003d 7c5d 19be d847 dd3c
000000e0: bcf3 1ebe cab6 d73d adea 62bd fde3 19be
000000f0: a3b6 003e ae24 bc3d 0d67 8cbd f1b1 b9bd
00000100: 0f87 e0bd ed42 80bd a3f2 183e bfc4 61bd
00000110: 8de7 a53d 3bab 30be 173a 973c 5e69 803d
00000120: bf46 633d 3f55 bdbb 653e 473d e7fc 2fbe
00000130: 23b2 2ebc 3465 123e a682 603c dcd7 703d
00000140: 2ce8 8f3d cb5b c5bd e2cf 25be aaa8 c5bd
00000150: 86af 0e3e 04b7 b9bd b4dc c7bd 1c58 133e
00000160: f7ab a33c d3fa 28bd 5605 69bc decc c6bc
00000170: 133c 563d a82f f1bd 8c88 fd3c 5231 c8bd
00000180: 75a1 2f3c 872d 24bd 40a3 73bc 9048 e3bc
00000190: fdf5 e73b a607 933d dd23 0e3e b7e3 083d
000001a0: 19a3 c23d 4352 f5bc c4ef d03b 3c6f 30bb
000001b0: 23ea 613d 6f3a 633d 6530 8c3d 52c3 b83d
000001c0: f8c2 583d 876f e7bd 5bfd 38bc e8c5 5fbc
000001d0: 09f5 803c 2562 843d 699f dbbd 0693 bebd
000001e0: dd03 5fbd 9379 cbbd 285c 39bd 3930 23be
000001f0: 0f79 15be ca7f 00be d950 043d 5927 403d
0.09706646 0.09008797 0.15886216 0.09666078 -0.07374077 -0.020983092 0.11220905 0.05565517
0.08683602 -0.109709136 0.07918463 0.13233712 -0.065461025 0.09488341 0.14479452 -0.039352313
0.14820167 0.018648963 -0.033186816 -0.0064434777 0.03775537 -0.25053892 0.06297641 -0.011859092
0.08030424 0.013330196 -0.08963513 0.0058925003 -0.09467696 0.10044768 0.022609591 0.08454826
-0.042290583 0.08916229 -0.16828653 0.051495366 -0.3406378 -0.025634585 0.08832715 -0.03040954
-0.1949036 0.09412116 0.036414344 0.039618466 0.0692802 -0.17169678 -0.03501024 -0.17996918
0.10813844 0.08938147 0.021786852 -0.071122095 -0.1560675 0.031409014 -0.14977068 0.027011797
-0.15522665 0.10532911 -0.055399586 -0.15028377 0.1256967 0.091866836 -0.06855593 -0.09067143
-0.109632604 -0.06262765 0.14936309 -0.055119272 0.081008054 -0.17252819 0.018460317 0.06270097
0.05548739 -0.0057779844 0.04864349 -0.17186318 -0.010662588 0.14296418 0.013703024 0.05879961
0.07026705 -0.09636649 -0.16192582 -0.09651311 0.13934144 -0.090681106 -0.09758893 0.1438908
0.01997946 -0.04125483 -0.014222464 -0.02426761 0.052303385 -0.11776668 0.0309489 -0.09775032
0.010719647 -0.04008248 -0.014870465 -0.027744561 0.0070788846 0.07179193 0.13880868 0.03342029
0.09503765 -0.029946452 0.0063762385 -0.002692177 0.05515493 0.05547565 0.06845168 0.090216294
0.05292031 -0.11300569 -0.011290873 -0.013658024 0.015741842 0.06464032 -0.107237644 -0.09305386
-0.054447044 -0.09935298 -0.045253903 -0.15936364 -0.14596961 -0.12548748 0.032303665 0.046912525
