result/aug74_gan_40_model_22.pt (torch, 934716 bytes, 9 tensors)

weight f4 [128, 14]
0	0x3d700640	0.05859971
1	0xbe126cf9	-0.14299382
2	0x3eb3c1c6	0.35108775
3	0x3e047f0f	0.12939094
4	0x3e030d28	0.12797987
5	0x3e3ff416	0.18745455
6	0xbdc25257	-0.09488361
7	0xbe25b62b	-0.16182773
8	0xbebc219f	-0.367444
9	0xbe9bcc9d	-0.30429545
10	0xbd1b0ee7	-0.03785601
11	0x3eae8009	0.34082058
12	0xbd81a041	-0.06329394
13	0xbe7761ba	-0.24158373
14	0x3ea35215	0.3189856
15	0xbd6d8597	-0.05798873
16	0xbe4c2512	-0.19936016
17	0xbeb8b50c	-0.36075628
18	0x3e3fad5b	0.18718474
19	0x3e92cd1c	0.2867211
20	0xbe01ec65	-0.12687834
21	0xbe9126ea	-0.28350002
22	0xbebd60c0	-0.36987877
23	0x3e8156fb	0.25261673
24	0x3dcea1d2	0.100894585
25	0xbe8297ce	-0.25506443
26	0xbc540a47	-0.012941903
27	0xbf1c3bc8	-0.6102872
28	0x3d8bb51b	0.068216525
29	0x3d8887b7	0.066665106
30	0xbeba5407	-0.36392233
31	0xbe444a6f	-0.19169019
32	0x3e0161e5	0.12635
33	0x3d903647	0.070416026
34	0xbe637fdd	-0.22216745
35	0x3e8ef96d	0.27924672
36	0xbc8b41f4	-0.016999222
37	0xbeeaddad	-0.4587225
38	0x3d2bfac0	0.04198718
39	0x3e887265	0.26649776
40	0xbd8d96f0	-0.06913555
41	0xbdc5d846	-0.096603915
42	0xbe0394e2	-0.12849763
43	0xbde1c2fd	-0.11023519
44	0xbe2eb024	-0.1705938
45	0x3e37538b	0.17902963
46	0x3ed4233d	0.41433135
47	0x3e30d86d	0.1727006
48	0x3d8632e2	0.06552674
49	0xbe729b7c	-0.23692125
50	0xbf10da60	-0.56583214
51	0xbdbac1b8	-0.0911898
52	0x3e78283e	0.24234101
53	0x3eda83ce	0.42678684
54	0xbe06ea63	-0.13175349
55	0xbdade91d	-0.084917285
56	0xbdcabf5e	-0.09899782
57	0xbcd3e3f6	-0.025865536
58	0x3d0f3273	0.03496022
59	0x3eba0f08	0.36339593
60	0x3e053a23	0.13010459
61	0x3d449892	0.047997065
62	0x3ed3f383	0.41396722
63	0xbe062d30	-0.13103175
64	0x3e1959b8	0.14975631
65	0x3e356d56	0.1771749
66	0xbebca78a	-0.36846572
67	0xbf014226	-0.5049156
68	0xbe705c02	-0.23472598
69	0xbd2c2beb	-0.04203407
70	0xbebf0345	-0.37307182
71	0x3e492581	0.19643213
72	0x3dfacc20	0.12245965
73	0xbe59c040	-0.21264744
74	0x3d188158	0.037232727
75	0xbe2cc32f	-0.16871332
76	0xbea638d5	-0.32465234
77	0xbceac998	-0.02866058
78	0x3ee7781e	0.4520883
79	0xbe511864	-0.2041946
80	0x3d93abb2	0.07210483
81	0x3f089ad3	0.53361243
82	0x3d5ede6d	0.05441134
83	0xbe3359f7	-0.17514788
84	0xbe6eb245	-0.23310192
85	0x3d968503	0.07349589
86	0xbe35ac80	-0.17741585
87	0xbeaf46d9	-0.3423374
88	0x3e45d045	0.1931773
89	0xbe7e4cf9	-0.2483405
90	0xbe270021	-0.16308643
91	0xbe5b1e85	-0.21398361
92	0x3e16604a	0.14685169
93	0xbc43e798	-0.011957072
94	0xbe57f1e2	-0.21088365
95	0x3f0d4315	0.55180484
96	0x3c089e29	0.00833849
97	0x3e871b8c	0.26388204
98	0x3d94a171	0.07257355
99	0x3d55f1d2	0.05223257
100	0xbdbd7417	-0.09250658
101	0x3d8a16e3	0.067426465
102	0xbd7ce90f	-0.0617457
103	0xbe268d10	-0.16264749
104	0xbd3e974d	-0.04653101
105	0x3e2b075f	0.1670203
106	0x3deb6c33	0.11495247
107	0x3da3015c	0.07959244
108	0xbe13d7df	-0.14437817
109	0xbed98f4e	-0.42492145
110	0x3dde5ea6	0.108578965
111	0xbee1624b	-0.44020304
112	0x3e8af3cc	0.27139127
113	0xbe7ff690	-0.249964
114	0xbd1ea5da	-0.038732387
115	0x3e2f56f6	0.17123017
116	0x3e91bc87	0.28464147
117	0xbe23ff05	-0.16015251
118	0x3dc6b33e	0.097021565
119	0x3e5896b3	0.21151237
120	0x3da7e61c	0.08198187
121	0xbd516284	-0.051119342
122	0x3e574375	0.21021827
123	0xbee6fdb2	-0.4511543
124	0xbacf4064	-0.0015812037
125	0xbea21675	-0.31657758
126	0x3e03db21	0.1287656
127	0x3daf622c	0.08563647
128	0x3e913612	0.28361565
129	0x3e8caeb3	0.27477035
130	0xbd0fb3b4	-0.035083488
131	0xbe16c2f1	-0.14722802
132	0xbecfaf67	-0.4056351
133	0x3e6a9d18	0.22911489
134	0xbd1c753f	-0.038197752
135	0x3e76569e	0.2405648
136	0x3e298537	0.16554724
137	0x3e9ff89d	0.31244364
138	0xbe1e071c	-0.154324
139	0xbc8ac663	-0.016940301
140	0xbdca8408	-0.09888464
141	0xbc8cf861	-0.01720828
142	0x3e30c9d8	0.17264497
143	0xbd42cced	-0.047558714
144	0x3e59d379	0.21272077
145	0x3eafaa1c	0.3430947
146	0x3ea105a0	0.31449604
147	0x3deff55c	0.117167205
148	0xbc944fb4	-0.018104412
149	0xbd77791e	-0.06041824
150	0xbe24e813	-0.16104154
151	0xbf1617a6	-0.58629835
152	0xbd88c9b6	-0.06679098
153	0xbe1a7555	-0.15083821
154	0xbcfa6008	-0.03056337
155	0x3e0f6e71	0.14006974
156	0xbe34af34	-0.1764496
157	0xbe7eb5c5	-0.24874027
158	0xbda87b71	-0.082266696
159	0xbe7b4e84	-0.2454167
160	0xbc687d83	-0.014190081
161	0xbb9ac962	-0.0047237137
162	0x3ec0d21c	0.376603
163	0x3e962826	0.29327506
164	0x3bd0501c	0.006357206
165	0x3dbe174c	0.09281787
166	0x3e5748c0	0.21023846
167	0x3e4ac471	0.19801499
168	0x3d7462e2	0.059664614
169	0xbe4b7093	-0.19867162
170	0xbe5835fa	-0.2111434
171	0x3e2e857e	0.1704311
172	0xbe8a5178	-0.2701528
173	0xbdda395f	-0.10655474
174	0x3f087015	0.53296024
175	0xbdf56ed5	-0.1198403
176	0x3cf7a8be	0.03023183
177	0x3d821ce7	0.06353169
178	0xbc8cfc35	-0.017210105
179	0xbef5cee9	-0.48009422
180	0xbe38fd48	-0.18065369
181	0x3e7a0277	0.24415003
182	0xbd6bff1a	-0.05761633
183	0x3db4d6fa	0.08830066
184	0x3e9eeb27	0.31038782
185	0x3e50e37c	0.20399278
186	0xbe651491	-0.22371127
187	0x3e93ae2d	0.28843823
188	0xbe39bfe9	-0.18139614
189	0xbdabfcd0	-0.083978295
190	0xbd36acb8	-0.04459831
191	0x3d9d8ccf	0.07692873
192	0xbea29e56	-0.31761426
193	0x3df5aec5	0.11996225
194	0xbe3234c6	-0.17402944
195	0xbd66f76c	-0.056388304
196	0x3e16aca7	0.14714299
197	0xbe8e7db2	-0.27830273
198	0x3db18d86	0.086695716
199	0x3cf91bdb	0.03040879
200	0x3e9d4d3f	0.30722997
201	0x3eb1991b	0.34687123
202	0x3dfed439	0.12442822
203	0xbb14073a	-0.0022587315
204	0xbea7a3b4	-0.32742083
205	0x3d04622b	0.032320183
206	0x3de9b175	0.114108
207	0xbcbb31f9	-0.022850977
208	0xbe0d1be4	-0.1378017
209	0xbe40dc32	-0.18833998
210	0x3e145afc	0.14487833
211	0xbdbf8926	-0.09352331
212	0x3ea84df6	0.3287198
213	0x3d1e7371	0.038684312
214	0x3e474195	0.19458611
215	0xbe60da2e	-0.21958229
216	0xbdf5c6e3	-0.12000825
217	0xbcbbcd4f	-0.022925047
218	0xbe7f8b4d	-0.24955483
219	0x3eb2e7ae	0.34942383
220	0xbe23b458	-0.15986764
221	0xbe90db9a	-0.28292543
222	0x3cb1e2e1	0.02171463
223	0xbeda0bbf	-0.42587087
224	0xbe9505d0	-0.29105997
225	0x3dcc1813	0.09965529
226	0xbdda2b3c	-0.106527776
227	0x3e453177	0.1925715
228	0x3f043625	0.5164512
229	0x3e74407e	0.23852727
230	0xbb7191c8	-0.0036860574
231	0xbe1d815f	-0.15381382
232	0x3bf44898	0.007454943
233	0xbe35e425	-0.17762811
234	0x3e613800	0.21994019
235	0xbef8c38e	-0.48586696
236	0xbd211e01	-0.039335255
237	0x3c52ea47	0.012873239
238	0x3eb71246	0.3575613
239	0x3e2a1826	0.16610774
240	0x3e91ff52	0.28515106
241	0x3e208b99	0.15678252
242	0x3da8c816	0.08241288
243	0xbe7a9b6c	-0.24473351
244	0x3e69dca9	0.22838081
245	0xbe0ae071	-0.1356218
246	0xbd91fcf5	-0.07128326
247	0x3e5720e5	0.21008642
248	0x3d5958a3	0.053063046
249	0x3e09342c	0.13398808
250	0xbd01f81a	-0.03173075
251	0xbd009b91	-0.03139836
252	0x3e30b744	0.1725741
253	0x3e3c125f	0.18366383
254	0x3eb6f48d	0.35733452
255	0x3d002edf	0.0312947

bias f4 [128]
0	0x3d0dee9f	0.034651395
1	0xbd312aaf	-0.043253597
2	0xbe213a77	-0.15744959
3	0x3e58ac0e	0.21159384
4	0x3e8d7928	0.27631497
5	0x3e3f48d2	0.18680122
6	0x3e04b0cb	0.12958066
7	0xbded00f3	-0.11572447
8	0x3e1e2ab1	0.15445973
9	0xbddf8ee7	-0.10915928
10	0x3e21a470	0.15785384
11	0x3ddb0bdc	0.10695621
12	0x3a686040	0.000886444
13	0x3de6c138	0.11267322
14	0x3d58595c	0.052819595
15	0xbe094b1f	-0.13407563
16	0xbe4695b5	-0.19393046
17	0xbe498d86	-0.19682893
18	0xbd7a1ba9	-0.061061535
19	0x3e38e77c	0.18057054
20	0x3e820e12	0.2540136
21	0xbd8b3dcc	-0.06798896
22	0x3e18fbb5	0.14939769
23	0x3de7a5cf	0.11310922
24	0x3e3cb053	0.18426637
25	0x3e137720	0.14400911
26	0xbe136dea	-0.14397398
27	0x3e789fb2	0.24279669
28	0xbe48d4a7	-0.1961237
29	0x3d8b4274	0.06799784
30	0x3df9ca61	0.12196804
31	0x3e582954	0.21109515
32	0x3e30e910	0.17276406
33	0xbe1b8acc	-0.15189666
34	0x3e49b2c4	0.196971
35	0x3e162eb3	0.14666252
36	0xbe6b0483	-0.2295094
37	0x3e93a536	0.28836983
38	0x3d1dc57e	0.03851842
39	0x3dd6941d	0.10477469
40	0xbb5f379f	-0.0034060252
41	0xbd8076d7	-0.06272667
42	0x3e3243cb	0.17408673
43	0x3e2ce3dd	0.16883798
44	0xbe8b3897	-0.27191612
45	0xbd311270	-0.043230474
46	0x3dbd3b11	0.09239782
47	0xbc492d80	-0.012278914
48	0xbdeeed7e	-0.11666392
49	0xbd5f7de3	-0.054563414
50	0x3dc03ca5	0.09386567
51	0x3dab4189	0.08362109
52	0xbe24048a	-0.16017357
53	0xbe0d8027	-0.13818417
54	0x3df4e6f4	0.11958113
55	0x3dbad63a	0.09122892
56	0xbdac08e2	-0.08400132
57	0xbe3c1622	-0.18367818
58	0xbe23a794	-0.15981895
59	0xbd8450eb	-0.064607464
60	0xbddd2283	-0.10797598
61	0x3daf1a90	0.08549988
62	0x3e958954	0.29206336
63	0xbe201728	-0.15633833
64	0x3ce3e97f	0.0278213
65	0x3e6a5321	0.22883274
66	0x3e46eb62	0.19425729
67	0xbd042b27	-0.032267716
68	0x3b80e65a	0.00393371
69	0x3e8ca91e	0.27472776
70	0x3da76173	0.08172884
71	0x3cacd566	0.02109785
72	0x3e0c777c	0.13717455
73	0x3d4df517	0.050282564
74	0x3e00e3de	0.12586924
75	0xbdcc1ced	-0.09966455
76	0x3e2a9e57	0.16661964
77	0xbea353ed	-0.31899968
78	0x3e15d74b	0.14632909
79	0xbe42306d	-0.18963785
80	0x3e835d73	0.25657234
81	0x3e02764b	0.12740438
82	0xbea29fcf	-0.3176255
83	0xbb5ddccd	-0.0033853531
84	0x3e1c394e	0.15256235
85	0x3dd78a70	0.10524452
86	0x3c084c2f	0.008318945
87	0x3d85e815	0.06538407
88	0x3d83082b	0.06398042
89	0x3e004ccb	0.12529294
90	0x3e07d904	0.13266379
91	0xbe5d1ab9	-0.21592225
92	0xbe494a4f	-0.19657253
93	0x3dc35461	0.095375784
94	0xbda7a4dc	-0.08185741
95	0x3dbc0f24	0.09182575
96	0x3dca8396	0.09888379
97	0x3e576172	0.21033266
98	0x3da41c73	0.08013239
99	0xbdac9358	-0.08426541
100	0x3e562544	0.20912653
101	0xbea4d85d	-0.32196322
102	0x3dbc73da	0.092017844
103	0x3b7b3c6e	0.003833558
104	0xbd093f25	-0.033507485
105	0x3d237010	0.039901793
106	0x3e9981cd	0.29981843
107	0x3e26d97d	0.16293903
108	0x3e1f97bb	0.15585224
109	0x3e299649	0.16561235
110	0x3dfab7bc	0.12242076
111	0xbdbd6d4e	-0.09249364
112	0x3d649800	0.05580902
113	0xbd4c54ae	-0.049885444
114	0x3e7feb9e	0.24992225
115	0x3d29b9c2	0.041436918
116	0xbe32ca5e	-0.1746001
117	0xbe31a746	-0.17348966
118	0x3c92e941	0.01793349
119	0x3da365d6	0.07978408
120	0x3c011b21	0.007880003
121	0x3cac636a	0.021043498
122	0xbdb1cdf2	-0.08681859
123	0xbe944f24	-0.2896663
124	0x3daede90	0.08538544
125	0x3bb0f69b	0.0054004914
126	0xbdf89122	-0.12137057
127	0xbdc7e546	-0.09760527

weight f4 [256, 128]
0	0x3d18892d	0.037240196
1	0x3e10e93d	0.14151473
2	0xbd558493	-0.052128386
3	0x3c5c2946	0.013437575
4	0x3daf2f06	0.08553891
5	0xbdb32950	-0.08748114
6	0xbda8c801	-0.08241273
7	0x3d3162f3	0.043307256
8	0xbdc6bc17	-0.09703844
9	0xbe1a2461	-0.1505294
10	0xbd643a78	-0.055719823
11	0x3d953351	0.072851785
12	0x3ddc51dc	0.10757801
13	0xbd60e490	-0.054905474
14	0x3d1b5ffa	0.037933327
15	0xbc31a119	-0.010841631
16	0xbcdbb310	-0.026818782
17	0x3d9bd1b9	0.07608361
18	0x3b11b15f	0.0022230966
19	0x3dcb605d	0.09930489
20	0x3d37d429	0.044880066
21	0xbd576177	-0.052583184
22	0xbcdd5f57	-0.027023
23	0xbe275984	-0.16342741
24	0xbd246f80	-0.040145397
25	0xbc4c4911	-0.012468592
26	0x3d35a12d	0.044343162
27	0x3da900d8	0.08252114
28	0xbdb3c1e2	-0.087772146
29	0xbdc49210	-0.09598172
30	0xbd591344	-0.05299689
31	0xbc92ce5e	-0.01792067
32	0x3ca2cb97	0.01987247
33	0xbd9af3e1	-0.075660475
34	0x3cb6649d	0.022264773
35	0xbd5a56f2	-0.053305574
36	0xbd88d6c6	-0.0668159
37	0x3cf36540	0.029711366
38	0x3d13a3d3	0.036044907
39	0xbbfcbf7e	-0.0077132573
40	0x3d9cc283	0.07654288
41	0xbd6ed54d	-0.05830889
42	0x3d1c1f7a	0.038115956
43	0x3e2e7005	0.1703492
44	0xbded7aa2	-0.11595656
45	0x39ec0b0f	0.00045021667
46	0x3de8508a	0.113434866
47	0xbda17a58	-0.07884663
48	0xbd604e5a	-0.054762222
49	0xbde8fd4b	-0.11376437
50	0xbc88a96a	-0.016682345
51	0xbcdb4603	-0.026766783
52	0xbcc8fe46	-0.02453531
53	0x3c4afb5f	0.012389033
54	0xbd848380	-0.06470394
55	0xbdae9add	-0.085256316
56	0x3d9a3a15	0.075306095
57	0x3d062a28	0.032755047
58	0xbd4e2b3e	-0.050334208
59	0xbd99330f	-0.07480442
60	0xbe112a79	-0.14176358
61	0xbd36d34c	-0.044635102
62	0xbd8affaa	-0.06787045
63	0xbd2b5986	-0.041833423
64	0xbc9ef95d	-0.019406015
65	0x3c80e551	0.015734347
66	0xbccca693	-0.024981773
67	0x3c0b66d0	0.008508399
68	0x3b82953e	0.003985076
69	0xbcf9f5fc	-0.030512802
70	0x3e17097c	0.14749712
71	0x3c89a839	0.016803848
72	0xbd0f418f	-0.03497463
73	0xbcd6deb4	-0.02622924
74	0x3e217eb3	0.15770988
75	0xbd012cb9	-0.03153679
76	0x3c4de56a	0.012566904
77	0xbd76579d	-0.06014215
78	0x3d8bbaa9	0.06822712
79	0xbcb90998	-0.022587582
80	0xbd54bf4c	-0.051940247
81	0x3c220ad3	0.009890276
82	0xbd6591e2	-0.056047328
83	0xbdbbe906	-0.09175305
84	0xbded4922	-0.115862146
85	0xbc1ed4e5	-0.009694313
86	0x3d8b2020	0.06793237
87	0x3d7f6d85	0.062360305
88	0xbd339ac2	-0.04384876
89	0x3c0c8d21	0.00857857
90	0x3d816884	0.06318763
91	0xbe47cd81	-0.19511987
92	0x3d10f6ff	0.035391804
93	0xbd54e3f3	-0.0519752
94	0x3c8c2faa	0.017112572
95	0xb98e0daa	-0.0002709453
96	0x3d4e9617	0.050436106
97	0x3da21bb8	0.07915443
98	0xbc5214fb	-0.012822385
99	0x3d5440e0	0.051819682
100	0x3d0e04cd	0.034672547
101	0xbdb5ec99	-0.08883018
102	0x3e018eda	0.1265215
103	0x3d8d6963	0.069048665
104	0x3dcdc18a	0.1004668
105	0x3d280991	0.04102475
106	0x3d41b867	0.047295
107	0x3e39b486	0.1813527
108	0xbc1f2298	-0.009712838
109	0xbd2c6360	-0.04208696
110	0xbd31ad52	-0.04337818
111	0xbd841ced	-0.0645083
112	0x3c841e82	0.016127829
113	0xbd196e8f	-0.037458953
114	0x3d211884	0.03933002
115	0x3c0b07ff	0.008485793
116	0xbd19bfd2	-0.03753645
117	0x3dad3c79	0.084588
118	0xbd9ba8fb	-0.0760059
119	0x3d58e76c	0.052955076
120	0x3d211880	0.039330006
121	0x3c8c8f6f	0.017158238
122	0xbbe7612a	-0.0070611434
123	0x3baed716	0.005335699
124	0x3c9d4322	0.01919705
125	0x3da167e0	0.07881141
126	0xbe5eb39e	-0.21748206
127	0x3d489a9d	0.048975576
128	0x3d8d7388	0.069068015
129	0xbe12ac0a	-0.1432344
130	0x3da1e707	0.07905393
131	0x3c67a1a9	0.014137664
132	0x3bc49773	0.0059994995
133	0xbd2b0d3b	-0.041760664
134	0x3cf50c31	0.02991304
135	0xbd122eec	-0.03568928
136	0xbe205719	-0.15658225
137	0x3c856267	0.016282273
138	0x3d56d53f	0.05244946
139	0x3cc48731	0.023990246
140	0xbdcc660b	-0.09980401
141	0xbc173c72	-0.00923072
142	0x3d249d87	0.040189292
143	0x3b65aabd	0.0035044395
144	0xbdc6d879	-0.09709258
145	0xbb9c7d1a	-0.0047756555
146	0x3d83c4ee	0.06434046
147	0xbcfcf325	-0.03087766
148	0xbc33e3f9	-0.010979646
149	0xbd9f5195	-0.077792324
150	0x3d0f38ae	0.034966163
151	0x3e18a7a4	0.149077
152	0xbcd4bb62	-0.025968257
153	0xbca4c3e2	-0.020112935
154	0xbc73e6cb	-0.014886568
155	0x3bf9e282	0.007625879
156	0x3d86b425	0.065773286
157	0xbd810beb	-0.06301101
158	0xbcb16395	-0.02165393
159	0x3dae24a6	0.08503084
160	0xbcab3224	-0.020897932
161	0xbd460c49	-0.04835156
162	0x3cc3367d	0.023829693
163	0xbcc995e3	-0.024607604
164	0xbdba4ec6	-0.09097056
165	0x3c1a0642	0.009400906
166	0x3be31547	0.0069300267
167	0x3c928295	0.017884532
168	0x3cbb58af	0.022869436
169	0xbda41bc6	-0.0801311
170	0xbd2698c7	-0.040673044
171	0x3e03ac7d	0.12858768
172	0xbd4e8259	-0.050417278
173	0x3d44723d	0.04796051
174	0x3d7a0dce	0.06104832
175	0x3d67d85d	0.056602824
176	0x3d8384dc	0.06421825
177	0xbded8d46	-0.115992114
178	0x3c0cd287	0.0085951155
179	0xbd08356d	-0.033254076
180	0x3ca69fb4	0.020339824
181	0x3d88b576	0.06675236
182	0x3d69eda6	0.057111405
183	0xbcbef0d9	-0.023308204
184	0xbcc38099	-0.023865031
185	0x3d93c7df	0.07215857
186	0x3d3c6a9b	0.046000104
187	0x3e055b7c	0.1302318
188	0x3d11b03b	0.035568457
189	0x3c32ac42	0.010905327
190	0x3d2df8ed	0.042473722
191	0x3dbef340	0.0932374
192	0xbc0d3f41	-0.008621038
193	0xbd01f097	-0.031723585
194	0xbd791631	-0.06081218
195	0x3c96a4cc	0.018389128
196	0x3d026c9c	0.03184186
197	0x3d0e205b	0.034698825
198	0x3be6fc78	0.0070491396
199	0xbc118a70	-0.008883104
200	0x3c8858ad	0.016643846
201	0xbd17c5a7	-0.03705373
202	0x3d4c1fde	0.04983508
203	0xbcc28fd2	-0.02375022
204	0x3d964972	0.07338227
205	0x3d672b5c	0.056437835
206	0x3c844fcc	0.016151331
207	0xbd3981df	-0.04528987
208	0xbcbb3ba2	-0.022855584
209	0xbe1d2be7	-0.15348779
210	0x3dd9fdf7	0.10644143
211	0xbd3a628e	-0.045504145
212	0xbb77bf60	-0.0037803277
213	0x3db4315e	0.087984785
214	0xbd0ad0d8	-0.033890575
215	0xbda0debf	-0.078549854
216	0x3c9f3ff7	0.01943968
217	0xbc957e0a	-0.018248577
218	0xbd45ba44	-0.04827334
219	0x3c8249b1	0.01590428
220	0xbdb4c4b5	-0.088265814
221	0x3d99adb4	0.07503834
222	0xbd3e754e	-0.04649859
223	0xbc932a74	-0.01796458
224	0x3cad483b	0.021152606
225	0xbc7a78a3	-0.015287551
226	0x3d58eeac	0.05296199
227	0xbdb24fd0	-0.08706629
228	0x3cc0f462	0.02355403
229	0xbdd893b2	-0.10575046
230	0xbdacaa94	-0.08430973
231	0x3c430f81	0.011905552
232	0xbdfe34e3	-0.12412431
233	0xbca3ae0a	-0.01998045
234	0xbd015d57	-0.031583156
235	0xbcecb7bb	-0.028896203
236	0xbc913ff1	-0.017730685
237	0x3d7e8c5e	0.062145583
238	0xbd0436b8	-0.032278746
239	0x3ca73833	0.02041254
240	0x3d3125e0	0.04324901
241	0x3cc425d5	0.023943821
242	0xbd6c1e58	-0.057646126
243	0xbdd6340e	-0.104591474
244	0xbd3ad55c	-0.04561363
245	0xbd7f2e0f	-0.062299784
246	0xbcc874b5	-0.024469713
247	0x3a82fe90	0.0009994078
248	0xbcd0306d	-0.025413716
249	0xbd805aec	-0.06267342
250	0x3d84aa65	0.06477813
251	0x3c67802b	0.014129679
252	0xbdc641a9	-0.096804924
253	0xbc39a2b4	-0.011330295
254	0xbcd9d481	-0.026590588
255	0xbbc474ec	-0.0059953835

bias f4 [256]
0	0xbcd34fb5	-0.025794843
1	0xbcbfe6bf	-0.023425458
2	0x3d884368	0.06653482
3	0xbaafd73e	-0.0013415588
4	0xbde8dcb1	-0.113702185
5	0x3dbc4878	0.0919351
6	0xbe111c0a	-0.14170852
7	0xbd1da160	-0.038483977
8	0xbbc214f1	-0.0059229066
9	0x3b0bfb9a	0.0021359683
10	0x3d9e0a17	0.07716768
11	0x3c5076c6	0.01272363
12	0xb9aa4330	-0.00032474985
13	0xbd7d55df	-0.06184947
14	0x3d50ba4a	0.05095891
15	0xbd58fc84	-0.052975193
16	0x3c8da635	0.017291168
17	0xbc2c598d	-0.010519397
18	0x3d8264d1	0.063668855
19	0xbc04bb63	-0.008101317
20	0xbdde1ff8	-0.10845941
21	0x3d00da7b	0.03145836
22	0xbd906143	-0.07049801
23	0xbbf1364e	-0.00736121
24	0xbdb51319	-0.08841533
25	0x3e12089c	0.14261097
26	0x3d3d0158	0.04614386
27	0xbc91e313	-0.017808473
28	0xbda0ed6c	-0.07857785
29	0x3e1388e0	0.14407682
30	0xbd424d76	-0.047437154
31	0x3db7417d	0.08948038
32	0xbcb292f1	-0.021798583
33	0x3c5a3a44	0.013319556
34	0x3dcd3264	0.10019377
35	0xbd0d40a0	-0.03448546
36	0xbd2764b8	-0.040867537
37	0xbd5e18a7	-0.05422273
38	0x3da8fc72	0.08251275
39	0xbd1da2b3	-0.03848524
40	0x3df8109a	0.121125415
41	0x3d9aca8d	0.07558165
42	0x3d12939e	0.03578531
43	0x3d59b6fc	0.053153023
44	0x3cc9faad	0.024655664
45	0xbcb4e309	-0.022080915
46	0xbc01e6f1	-0.007928596
47	0x3dcc69a2	0.09981085
48	0x3d85abc7	0.065269046
49	0x3d965391	0.07340158
50	0xbd982795	-0.07429425
51	0x3d04bca2	0.032406457
52	0xbdf69057	-0.120392494
53	0x3d40d089	0.047073875
54	0x3d242c19	0.040081117
55	0x3b1b2901	0.0023675563
56	0xbd970c5f	-0.073754065
57	0xbcad4621	-0.021151604
58	0x3d7d9b40	0.061915636
59	0x3bdfbd90	0.0068280175
60	0x3d81d257	0.06338947
61	0x3d347246	0.044054292
62	0x3c7b4526	0.0153363105
63	0x3c3583d2	0.011078792
64	0xbd984eeb	-0.074369274
65	0x3d86b0c4	0.06576684
66	0x3daa3b0b	0.08312043
67	0xbdfcd7ac	-0.12345824
68	0x3dd14109	0.102174826
69	0xbd37b4d9	-0.044850204
70	0xbddab093	-0.1067821
71	0x3db4d30d	0.08829317
72	0xbdb50923	-0.08839633
73	0xbd8e5e97	-0.06951635
74	0xbc4ad57f	-0.012380003
75	0x3ddc9fc4	0.107726604
76	0xbcb89df1	-0.02253625
77	0x3dfaece4	0.122522146
78	0xbd0f32be	-0.0349605
79	0xbddbfe94	-0.10741916
80	0x3c1f4752	0.009721594
81	0x3d4bf634	0.049795344
82	0xbd4758df	-0.04866874
83	0x3d2122c6	0.039339803
84	0xbd4731ee	-0.0486316
85	0xbd2cdc2e	-0.042202167
86	0xbdaeb421	-0.085304506
87	0x3b8432e4	0.004034387
88	0x3c7f5933	0.015585232
89	0xbc83c53c	-0.01608526
90	0xba0ebcae	-0.00054449856
91	0x3df9d50d	0.12198839
92	0xbdc1e7e3	-0.09468057
93	0x3cfa502c	0.030555807
94	0x3bf7647d	0.007549821
95	0x3d951657	0.072796516
96	0xbbf1e361	-0.007381842
97	0x3d74762a	0.059683003
98	0xbd6fd22a	-0.058550037
99	0xbcf21bc0	-0.029554248
100	0x3d654dc3	0.055982362
101	0x3ccb198d	0.024792457
102	0x3d5f6592	0.054540224
103	0x3d4e750c	0.050404593
104	0x3c079e51	0.008277492
105	0xbc4fcc8a	-0.012683043
106	0x3d6d644e	0.057956986
107	0x3dbefd8d	0.09325705
108	0xbca10f28	-0.019660547
109	0x3e123fec	0.14282197
110	0x3cd524c8	0.026018515
111	0x3d9b6aad	0.07588706
112	0x3e00cb0e	0.12577459
113	0x3d91dbc0	0.07121992
114	0x3d22273c	0.039588198
115	0xbd02311e	-0.031785123
116	0x3d8cdf81	0.068785675
117	0x3d147265	0.036241908
118	0xbd035aa0	-0.03206885
119	0xbdb89b5e	-0.09014009
120	0xbd8f83e0	-0.07007575
121	0x3bffd900	0.007807851
122	0x3c12d266	0.008961296
123	0xbcdc7b33	-0.026914215
124	0xbd3b155e	-0.045674674
125	0xbe05f77f	-0.13082694
126	0xbc55fae9	-0.01306031
127	0x3db7c06c	0.089722484
128	0xbe09d3b8	-0.1345967
129	0x3c3abf3b	0.011398132
130	0xbcbe849e	-0.023256596
131	0xbb822f25	-0.003972905
132	0x3c48879f	0.012239366
133	0xbcdbabab	-0.026815256
134	0x3d936bb2	0.071982756
135	0x3d3c596b	0.045983713
136	0x3d6989a1	0.05701602
137	0x3d9944f7	0.07483857
138	0xbdbfbea1	-0.093625315
139	0xbd65cd3c	-0.05610393
140	0xbcb1ac12	-0.021688495
141	0xbc4f12a9	-0.012638726
142	0x3d5f942a	0.05458466
143	0xbca59ba0	-0.02021581
144	0xbc84b607	-0.016200079
145	0xbde07ea5	-0.109616555
146	0xbc5f039c	-0.0136117
147	0xbd7f5233	-0.06233425
148	0xbd2c7431	-0.042102996
149	0xbd19b769	-0.03752843
150	0x3d9710d0	0.073762536
151	0xbd09e7fb	-0.0336685
152	0x3d1adf35	0.037810523
153	0xbdd8e2fa	-0.10590167
154	0xbb8487a3	-0.0040444895
155	0x3d55e558	0.052220672
156	0x3dae39a9	0.085070916
157	0x3d76fdd8	0.060300678
158	0xbc7ad671	-0.015309916
159	0x3d170671	0.036871377
160	0xbc0d48fc	-0.008623358
161	0x3c1b85d3	0.009492355
162	0xbcc0d98b	-0.023541233
163	0x3dd13230	0.10214651
164	0x3cea3ff1	0.028594943
165	0x3ddf9419	0.10916919
166	0x3d20c304	0.03924848
167	0x3d8dc053	0.069214486
168	0xbb028f83	-0.0019921965
169	0xbc3a7af9	-0.011381858
170	0xbde4f556	-0.111796066
171	0xbd8ef30a	-0.0697995
172	0x3c0f8feb	0.00876234
173	0x3d6b96a5	0.057516713
174	0xbd4c278e	-0.04984241
175	0xbd87a9e3	-0.066242
176	0x3c0523e6	0.008126235
177	0x3cef19da	0.029187132
178	0x3dacdeda	0.08440943
179	0x3df0816c	0.11743435
180	0xbdb81227	-0.08987837
181	0xbc6ee5bb	-0.014581139
182	0xbe0280b3	-0.12744407
183	0x3d966a97	0.07344549
184	0x3bfd9fec	0.0077400114
185	0x3d2f1049	0.04274014
186	0xbe06823c	-0.13135618
187	0xbbe7b1ea	-0.0070707696
188	0x3d86e66a	0.06586917
189	0x3d5272f7	0.05137917
190	0xbc9b05aa	-0.0189236
191	0xbe0a6722	-0.13515905
192	0xbde68050	-0.112549424
193	0x3d12070e	0.03565126
194	0x3d76e4b0	0.060276687
195	0xbd02461e	-0.03180515
196	0xbcbf3801	-0.023342134
197	0x3cffb347	0.031213416
198	0x3c79d8db	0.015249456
199	0x3db8091a	0.08986111
200	0x3d90d461	0.07071758
201	0xbdd7b346	-0.105322406
202	0x3d1b986f	0.03798717
203	0xbcc42f1d	-0.023948247
204	0x3d8e162a	0.06937821
205	0xbd54d07a	-0.05195663
206	0xbe13f23d	-0.14447875
207	0xbd14282c	-0.036171123
208	0xbc89c7ea	-0.01681896
209	0x3c01b6fd	0.007917163
210	0xbd4026fe	-0.046912186
211	0xbd969f8a	-0.073546484
212	0x3db1a5f7	0.086742334
213	0xbd3962bb	-0.045260172
214	0x3d0877da	0.033317424
215	0xbd2d3632	-0.042288013
216	0xbc451152	-0.012028055
217	0xbca102cd	-0.019654656
218	0xbd1ca65e	-0.038244598
219	0x3d9d4b4b	0.076803766
220	0x3d64909a	0.055801965
221	0xbca459c9	-0.020062344
222	0xbcc4af5e	-0.024009403
223	0xbbc9fd03	-0.0061641946
224	0x3caa054b	0.020754477
225	0x3da45b02	0.08025171
226	0xbd92724f	-0.07150709
227	0x3cd078c7	0.025448216
228	0xbd38ef9d	-0.045150388
229	0x3dc0f67e	0.09422015
230	0xbd33092d	-0.043709923
231	0x3d22abd2	0.039714642
232	0xbce2c563	-0.027682012
233	0x3dbe2ba1	0.09285665
234	0x3c45b0ce	0.012066079
235	0x3d830ed8	0.063993156
236	0xbac05a35	-0.0014675321
237	0xbda24544	-0.079233676
238	0x3d12aac4	0.035807386
239	0x3c762878	0.015024297
240	0xbdaacd30	-0.08339918
241	0xbcb0cf50	-0.02158323
242	0xbd90f64b	-0.07078227
243	0xbd081cd9	-0.033230636
244	0xbd8e9927	-0.06962805
245	0xbd4aa2d6	-0.0494717
246	0xbc1d589b	-0.009603645
247	0x3d90c6c6	0.07069163
248	0x3e302582	0.17201808
249	0xbdaa717b	-0.08322426
250	0x3daeaa2e	0.08528553
251	0xba7c2079	-0.0009617876
252	0x3c51007a	0.012756461
253	0xbd0e42fc	-0.03473185
254	0xbd8623f0	-0.06549823
255	0x3d311eeb	0.043242376

weight f4 [512, 256]
0	0x3cb9fac2	0.022702578
1	0x3d56edf8	0.05247304
2	0x3beec380	0.007286489
3	0x3cc16bb2	0.023610923
4	0xbd99a6b1	-0.07502497
5	0x3d06e518	0.032933325
6	0x3b814dac	0.003946027
7	0x3b948f20	0.0045336634
8	0x3d5ad9fa	0.053430535
9	0x3d7735f0	0.060354173
10	0x3e400581	0.187521
11	0xbb51e53b	-0.00320275
12	0xbd176d4e	-0.036969475
13	0x3de7b98c	0.11314687
14	0x3d5bf692	0.053701945
15	0xbda1859b	-0.07886811
16	0x3da977ee	0.08274828
17	0xbe03b588	-0.12862217
18	0xbcbc9f39	-0.023025142
19	0xb89fe892	-7.6250304e-05
20	0x3ccbcd4d	0.024878168
21	0xbc95ab36	-0.018270116
22	0xbd9f24b6	-0.07770674
23	0xbe075bb6	-0.13218579
24	0xbd891b01	-0.06694604
25	0xbd15e8c4	-0.036598936
26	0xbd83a44f	-0.06427824
27	0x3dc24d1a	0.09487362
28	0x3d2ffcf5	0.042965848
29	0x3c75e186	0.015007382
30	0x3ba0b9ed	0.0049049766
31	0x3d008bf7	0.03138348
32	0x3c683235	0.014172127
33	0xbddefcc3	-0.10888054
34	0xbd3143b0	-0.043277442
35	0x3d085a4b	0.033289235
36	0x3dea1a7e	0.11430834
37	0xbbc15f25	-0.0059012347
38	0x3e0b5984	0.13608366
39	0xbcb9a53e	-0.022661801
40	0xbda19a1f	-0.078907244
41	0xbc778546	-0.015107458
42	0xbd90d37a	-0.07071586
43	0x3d9eccfb	0.07753941
44	0x3dae9b31	0.08525694
45	0x3b9c31d8	0.004766684
46	0xbd20647e	-0.039158337
47	0x3d9c9175	0.07644931
48	0xbc8cbc5d	-0.017179662
49	0x3d84a506	0.06476788
50	0xbd31a162	-0.043366797
51	0xbd449664	-0.047994986
52	0x3d8dd86e	0.06926046
53	0xbd9a7f56	-0.07543819
54	0xbd8e4424	-0.069465905
55	0x3d287bea	0.0411338
56	0x3c0a02c7	0.008423514
57	0xbd935e73	-0.07195749
58	0x3bfc111a	0.0076924684
59	0xbd4b729a	-0.04966984
60	0xbe2aec27	-0.16691647
61	0x3c9969e1	0.018727245
62	0xbda7b53b	-0.08188864
63	0xbb7be448	-0.0038435627
64	0xbd70cef8	-0.05879113
65	0xbdcff996	-0.101550266
66	0xbe1345db	-0.14382116
67	0x3d94653b	0.07245871
68	0xbd48faea	-0.049067415
69	0xbd3e4b93	-0.046458792
70	0x3d80ed2d	0.06295238
71	0x3bb1151c	0.0054041278
72	0xbd65d986	-0.05611565
73	0x3cc8dd9c	0.024519734
74	0xbc8b1adf	-0.016980587
75	0xbd6e8852	-0.058235474
76	0xbcfb5437	-0.030679805
77	0xbd790a8a	-0.060801066
78	0x3cf98bac	0.030462109
79	0xbd559f5d	-0.052153934
80	0x3cbee145	0.023300776
81	0xbd79ce6e	-0.060987882
82	0x3d82d71b	0.06388684
83	0xbd37dfa6	-0.044891022
84	0x3e1b40d2	0.15161446
85	0x3d4784a7	0.04871049
86	0x3c91caa4	0.017796822
87	0xbd377953	-0.04479344
88	0x3ca2b33d	0.019860858
89	0xbc90f808	-0.017696396
90	0xbdda1eb9	-0.10650391
91	0x3d4a3ce0	0.04937446
92	0x3dc38055	0.09545962
93	0x3c85f7ba	0.016353477
94	0x3e334b04	0.17509085
95	0xbd826c94	-0.06368366
96	0xbbff99de	-0.007800325
97	0xbda6f5a8	-0.08152324
98	0xbc08da56	-0.008352837
99	0x3c46f01a	0.012142206
100	0x3dd60858	0.1045081
101	0x3d8555af	0.065104835
102	0xbd3bc260	-0.045839667
103	0xbc1854b8	-0.009297542
104	0x3daff1fd	0.085910775
105	0x3cdc5ef4	0.026900746
106	0x3dacfa24	0.08446148
107	0xbcf3d65e	-0.029765304
108	0xbd010177	-0.031495538
109	0x3d034172	0.032044835
110	0x3ad90e04	0.0016559963
111	0xbc9b04b2	-0.018923137
112	0xbd8a444f	-0.0675131
113	0x3c8ceb5b	0.01720207
114	0xbdb8569f	-0.09000897
115	0xbc900c30	-0.017583936
116	0x3d2591fa	0.040422417
117	0xbd91e0f3	-0.07122984
118	0x3dac6413	0.08417525
119	0xbd80c9a7	-0.06288462
120	0x3d171653	0.036886524
121	0xbbf5e960	-0.007504627
122	0x3c876b09	0.01653053
123	0x3d87f611	0.0663873
124	0xbda162d3	-0.07880177
125	0xbc363a3d	-0.0111222835
126	0x3c9658a5	0.018352816
127	0xbc1447a7	-0.009050286
128	0xbd8ad082	-0.06778051
129	0xbda09fb2	-0.078429595
130	0x3daefcba	0.085442975
131	0x3d26e37a	0.040744282
132	0xbc325c95	-0.010886331
133	0x3d61df58	0.055144638
134	0xbd816962	-0.06318928
135	0x3c886342	0.016648892
136	0x3d044795	0.03229483
137	0xbb724979	-0.0036970063
138	0xbd0f771a	-0.035025693
139	0x3d6a3572	0.057179876
140	0xbadeb409	-0.001699091
141	0x3b5a777d	0.003333538
142	0x3cf8c312	0.030366454
143	0x3da94b63	0.08266332
144	0x3ce17fff	0.027526854
145	0xbd0359e4	-0.03206815
146	0xbd9c3e20	-0.07629037
147	0xbcb9cad0	-0.022679716
148	0x3c92e7ff	0.01793289
149	0xbda55cdc	-0.08074352
150	0x3dad01dd	0.08447621
151	0x3b84b025	0.0040493184
152	0x3d30c0a2	0.04315246
153	0xbce835d3	-0.028345978
154	0x3dae6c97	0.085168056
155	0x3cfedc1b	0.031110814
156	0xb900f9da	-0.00012300108
157	0xbd5c0909	-0.053719554
158	0xbd96012f	-0.073244445
159	0x3d63f0ca	0.055649556
160	0xbd395c92	-0.045254298
161	0x3d2c558b	0.042073768
162	0xbda9c4a2	-0.08289458
163	0x3dfb807d	0.122803666
164	0xbc9e6d8d	-0.019339347
165	0x3d037c39	0.03210089
166	0x3c432560	0.011910766
167	0xbd06e819	-0.03293619
168	0x3c7776c5	0.015104
169	0xbd6f68d5	-0.058449585
170	0x3a4a68ac	0.0007721286
171	0x3d827fce	0.06372033
172	0x3d9722cf	0.07379686
173	0x3cc10f6e	0.023566928
174	0x3df8f6cf	0.1215645
175	0x3d74358c	0.05962138
176	0x3be15856	0.0068769855
177	0x3d93555e	0.07194017
178	0xbd883144	-0.06650022
179	0xbd907b05	-0.07054714
180	0x3d96390f	0.07335102
181	0x3da6fc29	0.081535645
182	0x3c229a76	0.009924522
183	0xbd3cc6f5	-0.046088178
184	0x3d1a8731	0.037726585
185	0xbd69e6e4	-0.05710496
186	0x3dec1187	0.115267806
187	0x3cc30de3	0.023810333
188	0x3dfbea38	0.12300533
189	0x3d748fd5	0.05970748
190	0x3cc63573	0.024195408
191	0xbdf9852b	-0.12183603
192	0xbcfd4f90	-0.030921727
193	0x3d13f898	0.03612575
194	0x3d397be1	0.045284156
195	0x3c4b3b39	0.0124042565
196	0xbd824f3b	-0.06362768
197	0x3da59722	0.08085467
198	0x3d6d558c	0.057942912
199	0x3b12ec9d	0.0022418865
200	0xbc150dbb	-0.009097512
201	0x3db5584b	0.08854731
202	0x3da92057	0.082581215
203	0x3cd95651	0.026530417
204	0x3de39c39	0.111137815
205	0x3d8666fc	0.065626115
206	0x3c9edb5b	0.019391706
207	0xbc0d14d5	-0.008610924
208	0x3ca63286	0.020287763
209	0x3c26387e	0.010145305
210	0xbbb26937	-0.0054446715
211	0x3db8d151	0.09024299
212	0x3d53adb2	0.05167932
213	0xbe0076d0	-0.12545323
214	0xbdcd4f30	-0.100248694
215	0x3d590ef3	0.052992772
216	0x3c8f06e3	0.017459339
217	0x3d2ed73e	0.04268574
218	0x3d26d2e9	0.040728483
219	0x3c5b2516	0.013375541
220	0xbd03c35f	-0.032168742
221	0xbdac08b0	-0.084000945
222	0x3d615772	0.055015035
223	0x3e0f3b2c	0.13987416
224	0x3d0f7b1a	0.03502951
225	0x3e05d3e9	0.13069119
226	0xbb5ebd58	-0.003398737
227	0xbd961d26	-0.073297784
228	0x3b81cc9c	0.003961159
229	0xbc1b67ca	-0.009485194
230	0x3cc44e49	0.02396311
231	0x3b115e64	0.0022181505
232	0xbbdfb692	-0.006827184
233	0xbd182c22	-0.037151463
234	0x3d9c1885	0.07621864
235	0xbd1387a8	-0.036018044
236	0x3e311588	0.1729337
237	0x3d63eacb	0.055643838
238	0xbdd1ceb3	-0.10244503
239	0x3d82f13a	0.063936666
240	0x3d96f211	0.07370389
241	0x3d7755ac	0.060384437
242	0xbd1676c7	-0.03673437
243	0x3cc814ba	0.024423946
244	0x3d77558f	0.06038433
245	0x3df8858c	0.12134847
246	0xbd5c6daf	-0.05381554
247	0x3cb7ffec	0.0224609
248	0xbd3dae58	-0.046308845
249	0x3dbc7446	0.09201865
250	0xbcad977a	-0.021190394
251	0xbcf951c8	-0.030434504
252	0x3dc8a829	0.09797699
253	0x3a7784e3	0.0009442104
254	0xbd864993	-0.06557002
255	0x3d413c11	0.047176424

bias f4 [512]
0	0xbdecc1e2	-0.11560418
1	0xbcf9b8fd	-0.030483717
2	0xbd281db5	-0.041043956
3	0x3db37b34	0.087637335
4	0xbd8ef57e	-0.06980418
5	0xbd998ab5	-0.074971594
6	0xbd4f1862	-0.050560363
7	0x3c1297ce	0.008947326
8	0x3d2686d8	0.04065594
9	0x3d1fce3d	0.039015044
10	0x3d244d39	0.040112708
11	0x3b836323	0.0040096208
12	0xbd9aa4c3	-0.07550957
13	0xbb706856	-0.0036683283
14	0xbdd9c303	-0.10632899
15	0xbe11ea72	-0.1424959
16	0xbdb5d31f	-0.08878159
17	0xbe69d82d	-0.22836371
18	0xbd71425e	-0.058901183
19	0x3d2d2922	0.042275555
20	0xbc3dac0f	-0.0115766665
21	0x3d5c822f	0.05383509
22	0x3d276e87	0.04087689
23	0xbd0b72fc	-0.034045205
24	0x3ca3d827	0.02000053
25	0xbe06717c	-0.13129228
26	0x3c6433ee	0.013928397
27	0xbdcbffbd	-0.099608876
28	0x3de42d0a	0.11141403
29	0xbd15efce	-0.03660565
30	0xbd06da43	-0.032922994
31	0x3d84a34b	0.06476458
32	0xbcc3f222	-0.023919169
33	0xbd9d9171	-0.07693756
34	0x3d3345eb	0.04376785
35	0x3d754499	0.059879873
36	0xbe04c31d	-0.12965055
37	0xbda953dc	-0.08267948
38	0x3d2cf599	0.042226408
39	0xbdfbc6de	-0.1229379
40	0xbbbd2f21	-0.0057734405
41	0xbe2bb3a1	-0.16767742
42	0xbd0c55e1	-0.034261588
43	0xbdb9f46f	-0.09079825
44	0xbd73c5a5	-0.05951466
45	0xbd608e1e	-0.054823034
46	0xbd867b39	-0.065664716
47	0xbd801d01	-0.06255532
48	0x3d1ab36a	0.03776876
49	0xbccba1c1	-0.024857404
50	0xbe3693c3	-0.17829804
51	0xbd6dc998	-0.058053583
52	0x3d14bb65	0.036311526
53	0x3d41d314	0.04732044
54	0xbd43aab8	-0.047770232
55	0xbd851edf	-0.06500029
56	0xbdac6896	-0.08418386
57	0xbc81d37c	-0.015847914
58	0x3dc07c02	0.093986526
59	0x3d43181e	0.04763042
60	0xbb67e5ea	-0.0035384842
61	0x3dbcaa9c	0.09212229
62	0xbdc1aaff	-0.09456443
63	0xbded4b13	-0.11586585
64	0xbe257de9	-0.16161312
65	0x3e26ae7a	0.16277495
66	0x3dd7a5dc	0.10529682
67	0xbda45e85	-0.08025841
68	0xbd7ce79d	-0.06174432
69	0x3e0e1f56	0.13879141
70	0xbdd4d85a	-0.10392828
71	0xbe013cb6	-0.12620816
72	0xbdfd0655	-0.12354723
73	0x3daf097b	0.0854673
74	0xbd8b8a71	-0.06813515
75	0x3c044cea	0.008074978
76	0xbd6979b2	-0.057000823
77	0x3dcaa653	0.09895005
78	0xbdec4da9	-0.1153825
79	0x3bb9d90d	0.0056716264
80	0xbd2942be	-0.041323416
81	0xbda16a3a	-0.07881589
82	0x3da33381	0.07968808
83	0x3dc2bf09	0.09509093
84	0x3d3df12e	0.046372585
85	0x3dc975ff	0.09836959
86	0x3d2a8fad	0.041640926
87	0xbd907ba5	-0.07054833
88	0xbd193962	-0.03740824
89	0xbe914d6a	-0.28379375
90	0xbe2eda60	-0.17075491
91	0x3b836fb0	0.004011117
92	0xbd225cd1	-0.039639298
93	0x3e486f13	0.19573621
94	0xbb86871c	-0.0041054618
95	0xbe39ec01	-0.18156435
96	0x3cbf6f67	0.02336855
97	0xbd9ffb53	-0.07811608
98	0x3d2cab8b	0.042155784
99	0xbd289003	-0.041152965
100	0x3d2f0f3a	0.04273913
101	0x3cb5b087	0.022178901
102	0x3c9ba328	0.018998697
103	0xbe21f3c7	-0.1581565
104	0xbbe1dd76	-0.0068928553
105	0xbd9aabeb	-0.07552322
106	0xbd485b8d	-0.048915435
107	0xbd2d0184	-0.042237774
108	0x3d510101	0.051026348
109	0xbd8a98a2	-0.06767394
110	0xbdfaea53	-0.12251725
111	0xbc3ad2bc	-0.011402782
112	0x3d8ae614	0.06782165
113	0xbe4109b0	-0.18851352
114	0xbe8406f4	-0.25786555
115	0xbd97a3bb	-0.07404276
116	0x3bca38cd	0.006171322
117	0x3e083f14	0.13305312
118	0xbc4810f8	-0.012211077
119	0x3c7c5b20	0.015402585
120	0xbb3279a5	-0.002723315
121	0x3bb66c31	0.0055670966
122	0xbe31ad91	-0.17351367
123	0xbd3113fc	-0.04323195
124	0x3d9cdeda	0.07659693
125	0xbdebe8f7	-0.11519044
126	0xbcf8e746	-0.030383717
127	0xbddffc10	-0.10936749
128	0x3c8187a5	0.01581175
129	0xbdc6309c	-0.0967724
130	0xbdcf4da9	-0.101222344
131	0xbdd6296a	-0.10457118
132	0xbda9d319	-0.08292217
133	0x3d185297	0.03718814
134	0x3d65c623	0.05609716
135	0xbde62f70	-0.11239517
136	0xbdab6207	-0.083683066
137	0x3d293103	0.041306507
138	0xbdc531e6	-0.09628658
139	0x3cfbf0f8	0.030754551
140	0xbd2a7389	-0.04161409
141	0xbd8de771	-0.069289096
142	0x3d936f44	0.071989566
143	0xbccc3617	-0.024928136
144	0xbcf63d69	-0.03005858
145	0xbce9e228	-0.028550223
146	0xbcb1dfa6	-0.02171309
147	0x3da01bc0	0.07817793
148	0x3e02dafc	0.12778848
149	0xbd62e362	-0.05539263
150	0xbd7fa8a1	-0.062416676
151	0x3cc82132	0.024429891
152	0xbd9bb1c8	-0.076022685
153	0xbdb68e2d	-0.08913837
154	0xbcad31b9	-0.021141874
155	0x3d3823f8	0.044956177
156	0xbd6882ba	-0.056765296
157	0xbdeb17e4	-0.11479166
158	0x3d722be8	0.059123904
159	0x3b8e01fb	0.004333732
160	0xbb451756	-0.0030073724
161	0x3cb19c70	0.02168104
162	0x3ce66fe9	0.028129535
163	0xbd0ccb19	-0.034373377
164	0x3d5c2854	0.053749397
165	0xbd9b0360	-0.07569003
166	0xbddf422b	-0.109012924
167	0xbdcd64b0	-0.1002897
168	0x3b0d64cc	0.0021574972
169	0x3d4f6901	0.05063725
170	0x3caf7fc5	0.02142323
171	0xbe364bbe	-0.17802331
172	0xbd2a97db	-0.041648727
173	0xbe2bce28	-0.16777861
174	0x3d3c4e8d	0.04597335
175	0xbdbeb26c	-0.09311375
176	0xbd99d772	-0.07511796
177	0x3ced146f	0.028940408
178	0x3cc8e0bb	0.024521222
179	0xbd8b47fd	-0.0680084
180	0xbcb0d6e4	-0.021586843
181	0xbde3e0e9	-0.111268826
182	0x3d369711	0.044577662
183	0xbe0714ad	-0.13191481
184	0xbc3d9b4d	-0.011572671
185	0xbb92505e	-0.004465147
186	0x3d226522	0.03964723
187	0xbc7c0121	-0.0153811285
188	0xbd8a48e2	-0.067521825
189	0xbd43f61e	-0.047842138
190	0x3c27b8b9	0.010236912
191	0xbe4f9b5b	-0.20274107
192	0x3db691cc	0.08914527
193	0x3d8f30a6	0.06991701
194	0x3bf92d02	0.0076042423
195	0xbdd90f14	-0.10598579
196	0x3e2e6044	0.1702891
197	0x3dd0ecf2	0.10201444
198	0xbdb4314c	-0.08798465
199	0xbd194199	-0.037416074
200	0xbc29d76a	-0.0103663
201	0xbd449ae4	-0.047999278
202	0xbc799985	-0.015234356
203	0xbc8ae0fc	-0.016952984
204	0xbdebbadd	-0.11510251
205	0xbce86e78	-0.028372988
206	0xbd34fe87	-0.04418805
207	0xbe0da60c	-0.13832873
208	0x3dcccdc1	0.10000182
209	0xbe2ac0e3	-0.16675143
210	0x3bb26f50	0.0054453984
211	0xbdc90892	-0.09816088
212	0xbd96df9e	-0.0736687
213	0x3c15860f	0.0091262
214	0xbd40073a	-0.04688189
215	0xbd357cea	-0.04430858
216	0x3e184ea1	0.14873745
217	0xbddaed39	-0.10689778
218	0x3cfcf794	0.030879773
219	0xbd3fcba3	-0.046825062
220	0x3e20dbcd	0.15708847
221	0x3dfff016	0.12496965
222	0xbe3d4dd6	-0.18486723
223	0xbe0ba3a7	-0.13636647
224	0x3e090c78	0.13383663
225	0xbda23341	-0.07919932
226	0xbe0dc0ac	-0.1384303
227	0x3cd0d8fd	0.025494093
228	0xbd33cbd5	-0.04389556
229	0x3d6815cc	0.056661412
230	0xbd1ce1b3	-0.03830118
231	0xbd0cf4be	-0.03441309
232	0xbcbff63a	-0.02343284
233	0xbc97106e	-0.018440451
234	0xbba9aca1	-0.0051780497
235	0xbd98f23e	-0.07468079
236	0x3d9f4a4b	0.07777842
237	0xbc731405	-0.014836316
238	0x3d8e9505	0.06962017
239	0x3acced4b	0.0015634684
240	0xbda7fceb	-0.08202537
241	0x3d8389d8	0.06422776
242	0xbe0b3215	-0.13593324
243	0xbc0dd58a	-0.008656869
244	0xbd7b0c6a	-0.061291136
245	0xbe885071	-0.26623872
246	0x3dcf140c	0.101112455
247	0x3d2792a3	0.040911328
248	0xbde4210f	-0.11139118
249	0xbdf47ea9	-0.11938221
250	0x3cd79e5a	0.026320625
251	0xbcda7d8d	-0.026671195
252	0x3d84257e	0.064524636
253	0x3c6cfddf	0.014464824
254	0xbdcb6955	-0.099322
255	0x3c27e801	0.010248185

weight f4 [128, 512]
0	0xbcda3250	-0.026635319
1	0x3d69f1d9	0.05711541
2	0x3c58a4c1	0.013222874
3	0x3c9c09dc	0.01904767
4	0x3cf5c91c	0.030003123
5	0x3d558caf	0.05213612
6	0x3bfb0dfb	0.0076615787
7	0xbcea84b1	-0.028627725
8	0x3d50a242	0.05093599
9	0xbd86a540	-0.06574488
10	0xbc958752	-0.018253002
11	0x3d2c6e65	0.042097468
12	0x3b7c2567	0.0038474442
13	0x3c919f49	0.017776148
14	0x3d281b62	0.04104174
15	0x3d6df8f1	0.058098737
16	0x3d72a17f	0.059236046
17	0x3c092dbf	0.008372723
18	0x3c487318	0.012234472
19	0x3c61cc90	0.013781682
20	0x3d1939f4	0.037408784
21	0xbbe19fa3	-0.0068854853
22	0xbd184137	-0.03717157
23	0x3c41e0c4	0.011833373
24	0x3d204d81	0.039136413
25	0x3d013208	0.031541854
26	0x3c68157f	0.014165281
27	0x3d2cb640	0.042165995
28	0xbd36960f	-0.0445767
29	0x3d7998f3	0.06093688
30	0xbcf1ee33	-0.029532528
31	0xbd85b4f4	-0.06528655
32	0x3d7e66a5	0.06210961
33	0x3d6913f7	0.056903806
34	0xbacf5d63	-0.0015820678
35	0xbc53418e	-0.012894047
36	0x3cc2a8b1	0.023762079
37	0xbd48c7c8	-0.04901865
38	0x3c97c77a	0.018527735
39	0x3c572e94	0.013133664
40	0xbd6aa8b8	-0.05728981
41	0x3d0e1605	0.03468897
42	0x3d0570a1	0.032578114
43	0xbb413676	-0.0029481924
44	0x3d0e03b3	0.034671497
45	0x394217b0	0.00018510106
46	0x3d9706c6	0.07374339
47	0x3b7dd936	0.0038734204
48	0xbba30a7d	-0.0049756155
49	0xbda41cc4	-0.08013299
50	0x3d2bb624	0.04192175
51	0xbda338aa	-0.07969792
52	0x3d53a5c7	0.05167177
53	0xbada7743	-0.0016667623
54	0x3dac6e53	0.0841948
55	0xbd840096	-0.06445424
56	0x3caf9135	0.021431545
57	0x3d2e19db	0.042505126
58	0xbcf8381e	-0.030300196
59	0x3d5de8f5	0.054177243
60	0xbba8b25d	-0.0051482157
61	0xbc5c5ae1	-0.013449402
62	0x3d8af112	0.06784262
63	0x3c94fe9d	0.018187815
64	0xbc552099	-0.01300826
65	0xbc8a9885	-0.01691843
66	0xbca84010	-0.02053836
67	0x3d5ad41b	0.053424936
68	0x3c406452	0.011742668
69	0x3b64d727	0.003491828
70	0x3d0d2326	0.03445735
71	0x3cd76004	0.026290901
72	0x3be92ba7	0.0071157995
73	0x3b4c7221	0.0031195956
74	0xbaa9a70e	-0.0012943463
75	0xbd3ed8c0	-0.046593428
76	0x3d81f769	0.06346018
77	0xbac65b6f	-0.001513345
78	0xbcd89056	-0.026436012
79	0xbd19bbab	-0.03753249
80	0x3bf58e1b	0.007493747
81	0x3cbf326b	0.02333947
82	0xbd065a37	-0.03280088
83	0x3d197d19	0.037472818
84	0xbcbbcdb2	-0.022925232
85	0x3c32b558	0.0109074935
86	0xbd242a1d	-0.040079225
87	0x3c6d2e14	0.014476318
88	0xbd96296d	-0.0733212
89	0x3bf7a96c	0.0075580385
90	0x3bbb29f8	0.00571179
91	0xbcfd2975	-0.030903557
92	0xbd4231cf	-0.047410782
93	0xba3a8c2c	-0.0007116224
94	0x3bfa493e	0.0076381257
95	0x3d3313d1	0.04372007
96	0xbca1be17	-0.019743962
97	0x3cf9a905	0.030476103
98	0xbc639fac	-0.013893049
99	0xbd2cb433	-0.04216404
100	0xbc390057	-0.011291585
101	0x3c01ff25	0.007934366
102	0x3d4fec2e	0.050762348
103	0x3c9d839c	0.019227795
104	0x3d4d53ad	0.050128628
105	0xbc2486f1	-0.010041938
106	0x3d0fef9d	0.035140622
107	0x3c9967d3	0.018726265
108	0x3d1c5f19	0.03817663
109	0x3c8dd27e	0.017312285
110	0xbb89f32e	-0.0042098975
111	0xbb7ccb8b	-0.003857347
112	0x3828250d	4.0088828e-05
113	0x3cbb8543	0.022890693
114	0x3d0fbd4a	0.03509263
115	0x3c2952cf	0.0103346845
116	0xbcbd7b71	-0.02313015
117	0x3d2cc453	0.042179417
118	0xbc8bb263	-0.017052835
119	0x3ce0cd7d	0.027441734
120	0x3c873c2d	0.016508186
121	0xbcc5f063	-0.024162477
122	0x3b1397dc	0.0022520935
123	0x3b5a3f94	0.0033302056
124	0xbcc6c750	-0.024264961
125	0x3cc49ce6	0.024000596
126	0xbd0871fd	-0.033311833
127	0x3d24feb5	0.04028197
128	0x3d47f4b7	0.048817363
129	0xbbbc6621	-0.0057494794
130	0xbb4ec239	-0.0031548871
131	0x3c00184a	0.007818291
132	0xbd0c7bf0	-0.034297884
133	0x3c85c109	0.016327398
134	0xbc6db19b	-0.0145076765
135	0x3ba7a19f	0.0051157023
136	0x3ce6d07b	0.028175583
137	0xbcde7389	-0.0271547
138	0x3d5189b4	0.051156715
139	0xbd382f9c	-0.04496728
140	0xbd1488a6	-0.03626313
141	0xbb72437d	-0.0036966496
142	0x3b8d1e3f	0.004306584
143	0x3c401428	0.011723556
144	0x3c421aca	0.011847207
145	0xbd84d0eb	-0.064851604
146	0x3b4a67bc	0.0030884584
147	0x3d01a45a	0.03165088
148	0xbcfa2b99	-0.030538367
149	0x3d574c46	0.052562974
150	0x3c8640af	0.016388265
151	0xbcb7fdd0	-0.022459894
152	0x3c3ad39a	0.011402989
153	0xbd19c1b6	-0.037538253
154	0x3d62246d	0.05521052
155	0x3d2135b2	0.03935785
156	0x3c5f8614	0.013642807
157	0x3d6ed380	0.05830717
158	0x3cad863a	0.021182168
159	0x3c49fe03	0.0123286275
160	0xbad7b3c6	-0.0016456775
161	0xbd084603	-0.033269893
162	0x3cdda4c4	0.027056105
163	0x3ccb5bd6	0.024824064
164	0x3cb24494	0.021761216
165	0x3d78b110	0.060715735
166	0x3d9f3bd8	0.07775086
167	0x3d8f5839	0.06999249
168	0xbce86abe	-0.028371211
169	0xbd80599d	-0.062670924
170	0xbb88ce22	-0.0041749636
171	0x3cf54375	0.029939393
172	0x396fc579	0.0002286638
173	0xbc7c9882	-0.01541722
174	0x3c73796d	0.014860493
175	0xbd3cfd7c	-0.04614018
176	0xbcc07210	-0.02349189
177	0xbcf84153	-0.030304587
178	0x3c9f976d	0.019481385
179	0xbc6a4995	-0.01429977
180	0xbd0782b7	-0.033083644
181	0xbcc4ce22	-0.024024073
182	0xbd4af515	-0.049550135
183	0xbc0bbf12	-0.008529441
184	0xbd7029ed	-0.058633734
185	0xbb514459	-0.0031931608
186	0x3c06a743	0.008218589
187	0x3cff826f	0.031190125
188	0x3ccefee3	0.025268024
189	0xbd1355b7	-0.035970416
190	0xbd00a985	-0.031411666
191	0xbc2c5d35	-0.010520269
192	0xbd5550c7	-0.05207899
193	0xbc2868f1	-0.010278926
194	0x3d1601b9	0.036622737
195	0xbba77753	-0.00511066
196	0xbd05ea01	-0.032693867
197	0xbd59f21d	-0.053209413
198	0x3c64a1ba	0.013954574
199	0xbce26cd7	-0.02763979
200	0xbd280de2	-0.041028865
201	0x3d5194b0	0.05116719
202	0xbc925319	-0.01786189
203	0xba428c8e	-0.0007421457
204	0x3d2e9e98	0.042631716
205	0x3da608fd	0.08107183
206	0x3d1f24e0	0.038853526
207	0x3b4de9cc	0.0031419871
208	0xbcc0e708	-0.023547664
209	0x3ca8be91	0.020598682
210	0xbb790f29	-0.003800342
211	0x3ce09ce7	0.027418567
212	0x3d0dc4fd	0.03461169
213	0xbc5756ab	-0.013143222
214	0xbc362b29	-0.011118689
215	0xbc072a4f	-0.008249833
216	0xbd6dfee2	-0.058104403
217	0xbd522328	-0.05130306
218	0x3dc55922	0.09636141
219	0xbd33ab9f	-0.043864843
220	0xbc685de1	-0.014182539
221	0xbca818dc	-0.020519666
222	0x3d1bdd28	0.038052708
223	0xbca73702	-0.020411972
224	0xbd9b4e9d	-0.07583354
225	0x3c68f76c	0.014219146
226	0x3daa1981	0.08305646
227	0xbd8b83be	-0.06812237
228	0xbbf92c3a	-0.007604149
229	0x3be66755	0.007031361
230	0xbcec18d2	-0.028820429
231	0x3c161660	0.009160608
232	0x3c2944df	0.010331362
233	0x3cf70a1d	0.03015619
234	0x3cb9135f	0.022592245
235	0xbdb5e771	-0.088820346
236	0xbd28228f	-0.041048583
237	0x3d5c56cf	0.053793725
238	0x3b186e4f	0.0023259108
239	0xbd82c547	-0.06385284
240	0x3d1a7fff	0.037719723
241	0xbcbb385e	-0.022854026
242	0xbc67864e	-0.014131142
243	0xbd513040	-0.051071405
244	0xbccfa330	-0.025346369
245	0xbd335387	-0.04378083
246	0x3d1a850e	0.037724547
247	0x3cf75d76	0.030195933
248	0xbd7e4f5f	-0.062087413
249	0x3d138668	0.03601685
250	0xbcf1e906	-0.02953006
251	0x3caf4b00	0.021398067
252	0xbd3b76cd	-0.045767594
253	0x3cd9df68	0.026595786
254	0xbbb2f81d	-0.0054617063
255	0xbdbbe6f7	-0.091749124

bias f4 [128]
0	0x3d3171fb	0.04332159
1	0xbd5e31aa	-0.054246582
2	0xbcb40f3c	-0.02197992
3	0xbd23c28f	-0.039980467
4	0x3d7f6e0d	0.062360812
5	0xbd9215ba	-0.0713305
6	0xbdbe89c0	-0.093036175
7	0xbdb6a990	-0.0891906
8	0xbcca3c39	-0.02468692
9	0xbd4f3007	-0.05058291
10	0xbd8b4fc0	-0.068023205
11	0xbd9d1c4a	-0.07671411
12	0xbc76adce	-0.015056087
13	0x3db69a92	0.08916201
14	0xbd489abf	-0.048975702
15	0x3daeedc2	0.085414425
16	0xbd79dd32	-0.061001964
17	0x3d5a99d7	0.05336937
18	0x3dbd51bb	0.092441045
19	0x3bf17626	0.0073688207
20	0xbd866d68	-0.06563836
21	0x3d182649	0.037145887
22	0x3d80b62c	0.062847465
23	0xbcd454b5	-0.025919298
24	0x3dad40e4	0.084596425
25	0x3c9db5a9	0.019251661
26	0x3e01f445	0.12690838
27	0x3db4dbb8	0.088309705
28	0xbd3aa36e	-0.045566015
29	0xbd938de0	-0.07204795
30	0xbdab439b	-0.08362504
31	0xbdf7c5a7	-0.12098246
32	0xbd1171d0	-0.03550893
33	0xbd7b6eb8	-0.061384887
34	0x3d8f4938	0.06996387
35	0xbc548abb	-0.012972529
36	0xbdce7307	-0.100805335
37	0xbd27d9df	-0.040979262
38	0x3da1862f	0.078869216
39	0x3c1ab819	0.009443306
40	0x3bc5e5f4	0.0060393754
41	0xbd965566	-0.07340507
42	0x3e21d095	0.15802224
43	0xbd098625	-0.033575196
44	0xbd9906c9	-0.07471997
45	0xbdb605eb	-0.088878475
46	0x3d5a1c79	0.05324981
47	0xbd4d5ed4	-0.050139263
48	0xbd75c0fd	-0.0599985
49	0xbd19f9f1	-0.03759188
50	0x3999589d	0.00029248456
51	0x3db3318c	0.08749685
52	0xbd1313b4	-0.035907462
53	0x3d2c9d83	0.042142402
54	0xbc9ce33d	-0.019151324
55	0xbcff4c86	-0.031164419
56	0x3c0ae0e2	0.008476468
57	0xbdca079d	-0.09864733
58	0x3d887d36	0.06664507
59	0xbd2c29d3	-0.042032074
60	0xbdf1aa9d	-0.1180012
61	0xbdb8a590	-0.090159535
62	0x3d99ed1d	0.07515929
63	0xbbe10501	-0.0068670516
64	0xbcadeac6	-0.021230113
65	0x3d8a8234	0.067631155
66	0xbd9d95e6	-0.076946065
67	0xbd9e0fde	-0.0771787
68	0xbd7c428a	-0.061586894
69	0xbce3c13f	-0.027802108
70	0xbe0c2d90	-0.13689256
71	0xbb08974a	-0.0020842128
72	0x3b5c74c9	0.0033638945
73	0x3d43d7a3	0.04781307
74	0xbd305893	-0.04305322
75	0xbdf31231	-0.11868704
76	0xbda96168	-0.08270532
77	0xbd47c4ac	-0.048771545
78	0x3d99cb04	0.07509425
79	0xbdb3b9c4	-0.08775666
80	0xbc1873f2	-0.009304987
81	0xbdd5d3af	-0.10440766
82	0x3db2e4a2	0.087350145
83	0x3cf76cfd	0.030203337
84	0xbd966203	-0.07342913
85	0xbd0e7095	-0.034775335
86	0x3d74cb51	0.05976421
87	0x3d9a7e63	0.075436376
88	0xbdbfa04f	-0.09356748
89	0xbdab6010	-0.08367932
90	0xbd0cf44a	-0.03441266
91	0xbd2f4aca	-0.042795934
92	0xbd4ae882	-0.049538143
93	0xbc28d2db	-0.010304178
94	0xbda011e3	-0.078159116
95	0xbda4f8d2	-0.08055271
96	0xbcaa802f	-0.020813076
97	0xbd33e4e3	-0.043919455
98	0xbd5c71f4	-0.05381961
99	0x3c4db10b	0.012554417
100	0xbd985ac9	-0.07439191
101	0x3d45c890	0.048286974
102	0x3d5bb633	0.053640556
103	0x3ca5cbdd	0.020238811
104	0xbdd2574d	-0.102705576
105	0x3d4733df	0.048633453
106	0xbdb3ebb8	-0.08785194
107	0x3dcd5362	0.1002567
108	0xbdb2fadf	-0.08739256
109	0x3d5ce920	0.053933263
110	0x3e1c1b8f	0.15244888
111	0xbdb463d2	-0.08808102
112	0xbcc54330	-0.024079889
113	0x3c42493b	0.01185828
114	0x3da79513	0.081827305
115	0x3b50fbb0	0.0031888299
116	0x3dad4339	0.08460087
117	0xbce4cb1d	-0.027928883
118	0x3d666660	0.056249976
119	0xbd9c4896	-0.07631032
120	0xbd0d1266	-0.034441374
121	0x3d540f89	0.051772628
122	0x3d3e4281	0.04645014
123	0xbda05b12	-0.0782987
124	0xbd80a76a	-0.06281932
125	0xbdf75ed7	-0.12078636
126	0xbd8b7d96	-0.06811063
127	0xbd033b8d	-0.032039214
