result/aug74_gan_40_model_25.pt (torch, 934716 bytes, 9 tensors)

weight f4 [128, 14]
0.060764987 0.03763868 0.2808279 -0.02278417 -0.05985315 -0.14421731 -0.12667228 0.18439226
-0.051712375 0.25430635 -0.15364926 0.5195141 0.13918433 0.14137377 0.13543181 0.022643026
0.13250111 0.11133654 0.23264326 -0.34132266 0.32647434 0.19952978 -0.08726615 -0.11862221
0.08609316 0.033275753 -0.07425995 0.29360536 0.012643889 0.1778113 0.2055573 0.0013512982
-0.2512691 -0.37719846 0.21438399 0.33722025 0.18933763 0.10174104 0.0093505215 -0.5314974
0.12982078 -0.13983919 0.24697268 0.03332988 -0.20378108 0.022658901 0.030096764 -0.31419575
-0.05738361 0.044915434 -0.20941065 0.03432551 0.34914678 -0.4704245 0.12547882 -0.16629492
-0.1120804 -0.15909174 -0.10667229 0.2918957 -0.24760342 -0.27954766 0.28564745 -0.16103491
0.041669 0.23232403 -0.36559814 -0.16012965 -0.24767374 -0.07497408 0.30060518 -0.24406542
0.08557981 -0.13889514 0.38303077 0.21753293 -0.0050898944 0.27557507 -0.32386994 -0.17239672
0.029343337 -0.19663528 0.04344855 -0.062651806 -0.05063958 0.11157651 -0.065661274 0.12361089
0.074128576 -0.10667858 0.11538298 -0.026099911 -0.27138194 -0.17848265 -0.11704032 0.37589276
0.07341979 -0.2531866 -0.22113319 -0.20575243 0.23023613 0.13266462 -0.26169398 0.16383526
0.27520457 -0.15218091 -0.023919165 0.13021317 -0.06546796 -0.2077059 -0.06559154 0.45403776
-0.09959453 -0.27304828 -0.14505002 0.103149705 0.13768806 -0.16512042 -0.3598922 0.14312151
-0.24316305 -0.12826693 -0.063126124 0.5958146 -0.14878118 -0.35421476 0.101338305 0.06870894
0.036783434 -0.079073384 0.44328654 -0.14329363 -0.2702369 0.22481559 0.021146148 -0.3308097
-0.008834386 -0.2221523 0.1844476 -0.04148815 -0.13188872 -0.13235071 -0.33391443 -0.2731321
0.32590917 -0.45297343 -0.32904994 -0.1457554 -0.07529641 0.28311944 -0.2865777 0.3083577
-0.03830502 0.14686233 0.02751561 0.03557146 -0.27199447 0.28148007 -0.18426166 0.058901206
0.2432014 0.23691021 0.11988685 -0.13993712 0.055562418 -0.43694538 -0.20004246 0.20550363
0.30376166 -0.25149652 -0.37750366 -0.37237975 0.19513318 0.23930338 -0.27155715 -0.24480547
-0.29299226 0.11258667 0.1810964 -0.49483174 0.23260374 -0.35664433 -0.16972768 0.18654211
-0.08659207 0.039516795 0.1364905 -0.19640425 0.4166434 0.28002787 -0.16639538 0.14395723
-0.121188946 -0.34002686 -0.025010858 -0.25084615 0.11535901 -0.27668524 -0.21309794 0.036135476
-0.09305062 -0.32717708 0.3372889 -0.19409057 -0.23236164 0.29994982 -0.017315213 -0.61389774
0.019877069 0.19867653 0.10708409 -0.12550706 -0.17166513 -0.07556357 -0.27452412 0.0019793594
0.25205287 -0.27650246 0.13495946 -0.118405856 -0.12938994 -0.46813694 0.0005319781 0.14986391
0.078645445 -0.13567239 0.27935147 0.14850262 0.12035945 -0.14366408 -0.32277912 0.19669506
0.32611033 0.049033333 0.28615603 0.5038751 0.11753017 -0.10988973 0.4038115 -0.21306285
0.13149641 0.24218136 0.065716214 -0.06946839 0.023932545 0.18479805 -0.120652765 0.054913294
-0.17395549 0.0885723 -0.15665337 0.10954794 -0.086270384 -0.085643396 0.28907838 0.044291325
00000000: b5e4 783d 042b 1a3d adc8 8f3e dea5 babc
00000010: 9428 75bd b4ad 13be 61b6 01be 53d1 3c3e
00000020: 5bd0 53bd 7134 823e 3b56 1dbe e0fe 043f
00000030: 5686 0e3e 49c4 103e a3ae 0a3e de7d b93c
00000040: 5fae 073e 6904 e43d 093a 6e3e d8c1 aebe
00000050: a527 a73e 8951 4c3e 98b8 b2bd 34f0 f2bd
00000060: 9c51 b03d 284c 083d 9a15 98bd 7153 963e
00000070: 5028 4f3c 2a14 363e 9d7d 523e 0b1e b13a
00000080: 58a6 80be 2820 c1be 7a87 5b3e 22a8 ac3e
00000090: b9e1 413e 9b5d d03d ee32 193c 3710 08bf
000000a0: bdef 043e 0132 0fbe 68e6 7c3e ea84 083d
000000b0: fdab 50be 299f b93c 7d8d f63c 44de a0be
000000c0: 140b 6bbd 3ff9 373d bf6f 56be e898 0c3d
000000d0: 5ec3 b23e 7bdb f0be 857d 003e 3749 2abe
000000e0: 698a e5bd f2e8 22be 0077 dabd 5a73 953e
000000f0: c08b 7dbe df20 8fbe 6240 923e 56e6 24be
00000100: 1dad 2a3d 5ae6 6d3e ae2f bbbe 07f9 23be
00000110: 2f9e 7dbe 038c 99bd ece8 993e 49ec 79be
00000120: 7844 af3d 873a 0ebe 9c1c c43e f4c0 5e3e
00000130: 21c9 a6bb 2d18 8d3e 48d2 a5be c488 30be
00000140: 7061 f03c c25a 49be 1bf7 313d 974f 80bd
00000150: 736b 4fbd 3a82 e43d 6b79 86bd b527 fd3d
00000160: b9d0 973d 4d7a dabd e94d ec3d 7bcf d5bc
00000170: 93f2 8abe 28c4 36be d6b2 efbd 0475 c03e
00000180: 1d5d 963d ada1 81be bd70 62be c4b0 52be
00000190: 05c3 6b3e 3cd9 073e c1fc 85be 6ec4 273e
000001a0: 9de7 8c3e 50d5 1bbe 20f2 c3bc 9a56 053e
000001b0: 1114 86bd dbb0 54be db54 86bd a377 e83e
000001c0: 38f8 cbbd fccc 8bbe fe87 14be 2740 d33d
000001d0: 19fe 0c3e 5415 29be ca43 b8be 728e 123e
000001e0: bcff 78be 6858 03be 4548 81bd 4e87 183f
000001f0: 185a 18be a35b b5be 758a cf3d 46b7 8c3d
00000200: 3aaa 163d 3af1 a1bd 74f6 e23e 91bb 12be
00000210: 7e5c 8abe 0f36 663e b03a ad3c e45f a9be
00000220: 1abe 10bc e47b 63be d5df 3c3e 7aef 29bd
00000230: d60d 07be f286 07be d5f6 aabe f8d7 8bbe
00000240: 91dd a63e 22ec e7be 3c79 a8be e740 15be
00000250: 0135 9abd 08f5 903e 50ba 92be 0fe1 9d3e
00000260: bae5 1cbd 1463 163e 6b68 e13c 61b3 113d
00000270: dc42 8bbe 281e 903e 17af 3cbe 6442 713d
00000280: ca09 793e 9798 723e 3d87 f53d ad4b 0fbe
00000290: 6b95 633d 4eb7 dfbe eed7 4cbe 8b6f 523e
000002a0: a686 9b3e 27c4 80be 2948 c1be 8fa8 bebe
000002b0: fed0 473e f20b 753e 8a09 8bbe 49ae 7abe
000002c0: 1503 96be d793 e63d 5671 393e 965a fdbe
000002d0: ad2f 6e3e 169a b6be 18cd 2dbe e504 3f3e
000002e0: 2f57 b1bd 5ddc 213d 2ac4 0b3e 321e 49be
000002f0: 4952 d53e d05f 8f3e 8d63 2abe 8669 133e
00000300: e931 f8bd 0018 aebe 92e3 ccbc e86e 80be
00000310: 5841 ec3d b0a9 8dbe 5936 5abe cb02 143d
00000320: 5391 bebd c183 a7be 21b1 ac3e aebf 46be
00000330: 36f0 6dbe 0693 993e a2d8 8dbc 6728 1dbf
00000340: 3cd5 a23c dc71 4b3e e74e db3d ec84 00be
00000350: fcc8 2fbe 13c1 9abd 6d8e 8cbe 24b8 013b
00000360: 130d 813e bb91 8dbe d032 0a3e c57e f2bd
00000370: cc7e 04be a5af efbe 7274 0b3a ed75 193e
00000380: dd10 a13d b4ed 0abe 2807 8f3e 1211 183e
00000390: 047f f63d ad1c 13be 4e43 a5be 6e6a 493e
000003a0: eff7 a63e 2dd7 483d 0b83 923e f5fd 003f
000003b0: a8b3 f03d de0d e1bd 62c0 ce3e 262d 5abe
000003c0: ffa6 063e 64fe 773e 3996 863d 7145 8ebd
000003d0: 2f0e c43c b33b 3d3e cc18 f7bd c3ec 603d
000003e0: 6321 32be 6565 b53d be69 20be ac5a e03d
000003f0: 87ae b0bd ce65 afbd 1502 943e d26a 353d

bias f4 [128]
0.10406486 0.009689077 -0.07744946 0.12176345 0.041909225 0.050805397 -0.010935677 0.08569894
-0.15893771 -0.08642096 -0.027459627 0.056543402 -0.113225564 0.018797131 0.075798325 -0.083178386
-0.24749576 0.05891912 -0.09590637 0.2639537 -0.24107556 -0.20855919 0.03249073 0.16202946
-0.08828188 0.020736279 0.0679948 0.12502798 -0.038342103 -0.25776893 0.14379355 0.1680544
0.10163754 0.18772551 -0.095236756 -0.18438394 -0.12614244 0.14277825 0.06331318 -0.31681323
-0.26187912 -0.07688183 -0.037629534 0.1233223 -0.08227197 0.03143305 0.21299553 0.0944387
0.18610278 0.16482638 -0.072984084 0.17977528 -0.043958247 -0.31692487 -0.24382603 0.06254464
-0.21927513 0.0072297812 0.19025397 -0.07864875 -0.18447992 0.17619625 -0.054160804 -0.28497586
0.24333693 -0.17549837 -0.28049538 -0.08684194 0.042773794 -0.24812236 0.18584111 -0.074452266
0.07402485 0.031802293 0.20255674 -0.103966065 -0.104994446 0.16614418 0.21391362 0.031608064
0.16356725 0.11632351 0.10372545 0.0062053865 0.17187211 -0.24559577 0.04612851 0.21311852
0.30519655 0.146518 0.08847948 0.09928894 0.23412412 0.02568151 -0.2978689 0.22006777
0.09104788 -0.08369511 -0.01299513 0.02647533 0.12398569 0.22582518 -0.23223902 0.23883022
-0.19640413 0.025358783 -0.031039167 -0.00740785 0.17913373 0.03996366 -0.25371265 -0.1826713
-0.24071126 -0.19192179 0.12506804 0.043584973 0.101195164 -0.1759803 0.16326393 0.10387761
-0.03674307 -0.070536934 -0.05180773 -0.0880553 -0.2539919 0.22081159 -0.12659825 0.15110247
00000000: f51f d53d efbe 1e3c d39d 9ebd 1e5f f93d
00000010: 02a9 2b3d 5219 503d 8e2b 33bc ed82 af3d
00000020: 91c0 22be 79fd b0bd 03f3 e0bc 0e9a 673d
00000030: cee2 e7bd 71fc 993c 273c 9b3d 6e59 aabd
00000040: 876f 7dbe 2d55 713d 8f6a c4bd f024 873e
00000050: 83dc 76be 8a90 55be 0015 053d 0deb 253e
00000060: 21cd b4bd 21df a93c dc40 8b3d 5607 003e
00000070: 9c0c 1dbd 4afa 83be 9e3e 133e 7416 2c3e
00000080: 5827 d03d 1e3b 403e 7d0b c3bd 25cf 3cbe
00000090: 7c2b 01be 7634 123e 57aa 813d 5835 a2be
000000a0: 0515 86be 3974 9dbd 6d21 1abd 6790 fc3d
000000b0: 357e a8bd f1bf 003d 801b 5a3e 1469 c13d
000000c0: ba91 3e3e 3fc8 283e ae78 95bd 0317 383e
000000d0: 900d 34bd fa43 a2be 88ad 79be 6717 803d
000000e0: a989 60be cde7 ec3b f0d1 423e 9912 a1bd
000000f0: 4ee8 3cbe ca6c 343e b8d7 5dbd 5be8 91be
00000100: 512d 793e d8b5 33be 179d 8fbe 30da b1bd
00000110: 9333 2f3d ca13 7ebe 224d 3e3e 6e7a 98bd
00000120: 579a 973d 1f43 023d 096b 4f3e 29ec d4bd
00000130: 5407 d7bd b321 2a3e 2c0c 5b3e 7577 013d
00000140: 2c7e 273e 053b ee3d 026e d43d 8e56 cb3b
00000150: 3eff 2f3e 757d 7bbe 40f1 3c3d be3b 5a3e
00000160: b942 9c3e d108 163e bb34 b53d 0058 cb3d
00000170: 3cbe 6f3e 0862 d23c 4682 98be 7259 613e
00000180: 5077 ba3d 5868 abbd 87e9 54bc cbe2 d83c
00000190: 36ec fd3d b73e 673e 11d0 6dbe e98f 743e
000001a0: 2a1e 49be 39bd cf3c da45 febc 8dbd f2bb
000001b0: d56e 373e efb0 233d a0e6 81be 2f0e 3bbe
000001c0: 037d 76be 2587 44be d611 003e 2886 323d
000001d0: 693f cf3d 2e34 34be a92e 273e c9bd d43d
000001e0: e77f 16bd ab75 90bd 5834 54bd 5656 b4bd
000001f0: 3a0b 82be 6f1c 623e f9a2 01be 9bba 1a3e

weight f4 [256, 128]
0.01911931 -0.035832867 -0.11162742 0.042449743 -0.051161222 0.050143655 -0.06327597 0.029932983
-0.051311705 -0.029042086 0.20426787 -0.05336952 -0.0490638 -0.02304116 -0.08051703 -0.038566593
0.0992949 0.08473079 0.01701328 -0.065158404 0.052071735 -0.022936203 0.067244686 0.018318066
-0.007238433 0.06784598 -0.15798974 0.08692647 -0.0631591 0.11530088 0.051283665 0.07913068
0.025590371 -0.05608381 -0.06255439 0.11823016 0.03411693 0.06600973 0.081619926 -0.03637924
-0.07201323 -0.08171987 -0.019283742 0.032853656 -0.01647184 -0.03579189 -0.12448717 0.11818228
0.070647195 -0.05284049 -0.029555084 0.03907487 0.17103258 -0.009734295 -0.123419575 0.09059193
-0.01732718 -0.0029080042 0.0376961 0.005448769 0.013065134 0.023952356 0.15173344 0.010004697
0.08544123 -0.10932872 -0.017273493 -0.0069625187 0.029240882 -0.016624453 -0.030363372 0.036248494
0.013643278 -0.081335664 -0.14804162 -0.10725086 0.063621856 0.08828853 -0.09500695 -0.007992841
-0.02422442 0.09513343 0.012645123 -0.07814362 0.01895621 0.10724846 0.023573583 0.014748296
-0.1683577 -0.045226797 -0.10035639 0.047534816 -0.10970246 -0.08202705 0.029427802 -0.053961303
-0.094791785 -0.042884704 -0.10053458 -0.0788793 0.0039053576 -0.07145577 0.05833613 0.03578868
-0.062775 0.1247088 -0.17481765 0.059097324 -0.056781262 0.041128684 -0.00695687 -0.0067706243
-0.003987838 -0.029310957 -0.064350575 0.107718065 -0.031670246 0.043943662 0.12937371 -0.12944089
0.025097663 0.06383494 -0.048101623 -0.08403645 0.0045139845 0.024249656 -0.08948332 0.049965918
-0.07560373 -0.03946377 -0.006662464 0.07093418 -0.072491065 -0.038068287 -0.04103142 0.073320165
0.04353385 0.021355065 -0.1346785 0.06554943 -0.05151388 0.092823595 -0.07116456 -0.01921476
-0.105587706 -0.0788756 -0.048605017 0.0139325475 -0.0040642326 0.08277179 -0.040464163 0.050536964
-0.106184155 0.058853943 0.030339781 0.03821314 0.08698249 0.04947195 -0.06393341 0.017666087
-0.02982724 -0.016232306 0.04470279 -0.053538542 0.05071545 -0.06886987 -0.08253579 -0.06365332
-0.08052859 0.053876672 0.019208556 -0.018542029 0.07802672 -0.0037304151 0.105340466 0.057410788
0.0037695963 0.011674245 0.10167544 0.14129284 -0.16233459 0.09703727 -0.008117047 -0.041873585
0.05979744 -0.03539127 -0.002176302 0.08894756 -0.12193352 -0.06370985 0.026615318 -0.104645655
0.030694116 0.099037 0.070538156 -0.06590098 0.017756976 -0.14673145 -0.05581649 0.2164877
-0.045375813 0.05434894 0.10452938 -0.0630673 0.0046008974 0.15472047 -0.07940719 0.0008653701
-0.017951148 0.012913239 -0.0647381 0.09370454 0.108932674 -0.0589573 0.04298644 0.086268485
0.028029084 -0.0062735006 0.0668526 -0.04064693 0.017418213 0.04003583 -0.15486456 -0.11354087
-0.05878525 -0.053475976 0.0132711055 -0.014133366 0.009817242 0.049812123 -0.013227168 -0.04871935
-0.03994436 -0.00020892675 0.06121777 0.06695782 0.08550999 -0.08492346 0.09121875 -0.016972838
0.014158373 -0.044030037 0.094273016 -0.064203806 0.03302526 0.035686757 -0.037244424 0.08929332
-0.028027633 0.057728 -0.0019141126 0.09168363 0.031225894 -0.052325837 0.09789573 -0.004822829
00000000: 19a0 9c3c 7cc5 12bd eb9c e4bd c8df 2d3d
00000010: 6e8e 51bd 6f63 4d3d d596 81bd 0436 f53c
00000020: 392c 52bd abe9 edbc 992b 513e ff99 5abd
00000030: 20f7 48bd d1c0 bcbc 1de6 a4bd 01f8 1dbd
00000040: 205b cb3d 5687 ad3d 6f5f 8b3c c571 85bd
00000050: 2c49 553d b4e4 bbbc 95b7 893d c50f 963c
00000060: 6130 edbb d5f2 8a3d 10c8 21be 8106 b23d
00000070: 8f59 81bd de22 ec3d d20e 523d 440f a23d
00000080: e6a2 d13c 23b8 65bd 841c 80bd a722 f23d
00000090: 32be 0b3d 1c30 873d 5928 a73d 6602 15bd
000000a0: ac7b 93bd bf5c a7bd f0f8 9dbc 8e91 063d
000000b0: f4ef 86bc 849a 12bd 21f3 febd 8d09 f23d
000000c0: 7aaf 903d 456f 58bd 811d f2bc f90c 203d
000000d0: 2a23 2f3e 987c 1fbc 67c3 fcbd 4388 b93d
000000e0: bbf1 8dbc 3794 3ebb 3a67 1a3d 968b b23b
000000f0: 250f 563c bb37 c43c 0360 1b3e beea 233c
00000100: d0fb ae3d bce7 dfbd 2481 8dbc d725 e4bb
00000110: 938a ef3c 0130 88bc 9bbc f8bc 4d79 143d
00000120: 0e88 5f3c 5093 a6bd 3998 17be 57a6 dbbd
00000130: 2d4c 823d 9ed0 b43d 0193 c2bd 68f4 02bc
00000140: 4a72 c6bc 51d5 c23d 7d2d 4f3c c309 a0bd
00000150: 0e4a 9b3c 15a5 db3d 631d c13c d6a2 713c
00000160: f665 2cbe bc3f 39bd a787 cdbd deb3 423d
00000170: afab e0bd ccfd a7bd 9312 f13c 8706 5dbd
00000180: 3222 c2bd dfa7 2fbd 13e5 cdbd 788b a1bd
00000190: 07f1 7f3b 6757 92bd def1 6e3d 2797 123d
000001a0: 2e90 80bd 5467 ff3d 6603 33be 0910 723d
000001b0: 7893 68bd 8d76 283d 75f6 e3bb 1ddc ddbb
000001c0: 69ac 82bb 881d f0bc 3cca 83bd 4a9b dc3d
000001d0: a9b8 01bd 45fe 333d 8b7a 043e 278c 04be
000001e0: 9d99 cd3c e5bb 823d 3506 45bd 4d1b acbd
000001f0: 0cea 933b 37a7 c63c 0843 b7bd 10a9 4c3d
00000200: 21d6 9abd c3a4 21bd cc50 dabb f045 913d
00000210: 3276 94bd 7eed 1bbd 9010 28bd e228 963d
00000220: 8d50 323d d1f0 ae3c 29e9 09be c83e 863d
00000230: 3800 53bd 4c1a be3d babe 91bd 4668 9dbc
00000240: 5e3e d8bd 8889 a1bd 0e16 47bd 5745 643c
00000250: 412d 85bb 4284 a93d c0bd 25bd d9ff 4e3d
00000260: 1477 d9bd d510 713d 228b f83c 6285 1c3d
00000270: e023 b23d 19a3 4a3d 85ef 82bd 78b8 903c
00000280: 4258 f4bc 9df9 84bc 461a 373d 3b4b 5bbd
00000290: 01bb 4f3d a50b 8dbd 8608 a9bd ac5c 82bd
000002a0: 2cec a4bd c9ad 5c3d 435b 9d3c 74e5 97bc
000002b0: 79cc 9f3d fb79 74bb bebc d73d 9327 6b3d
000002c0: 550b 773b 5545 3f3c 373b d03d 12af 103e
000002d0: 0a3b 26be 7abb c63d 5dfd 04bc a383 2bbd
000002e0: 29ee 743d 70f6 10bd 4aa0 0ebb 232a b63d
000002f0: 48b8 f9bd 4f7a 82bd 5e08 da3c 7650 d6bd
00000300: 3a72 fb3c e9d3 ca3d 4f76 903d 18f7 86bd
00000310: 1477 913c c540 16be d59f 64bd f4ae 5d3e
00000320: fddb 39bd fe9c 5e3d 8013 d63d 6e29 81bd
00000330: 20c3 963b 0b6f 1e3e 3da0 a2bd 01da 623a
00000340: 490e 93bc 0d92 533c 6995 84bd 2ae8 bf3d
00000350: 1818 df3d 367d 71bd 8d12 303d 88ad b03d
00000360: 409d e53c f091 cdbb 04ea 883d 657d 26bd
00000370: a4b0 8e3c 9cfc 233d d194 1ebe 1e88 e8bd
00000380: cdc8 70bd a009 5bbd 0d6f 593c a28f 67bc
00000390: 7fd8 203c cc07 4c3d c3b6 58bc f18d 47bd
000003a0: b29c 23bd 5913 5bb9 7cbf 7a3d 2e21 893d
000003b0: dd1f af3d 5aec adbd e5d0 ba3d 9f0a 8bbc
000003c0: 85f8 673c d758 34bd 3612 c13d 497d 83bd
000003d0: 7f45 073d 472c 123d 9c8d 18bd 6bdf b63d
000003e0: 359a e5bc 3274 6c3d f6e2 faba a1c4 bb3d
000003f0: 72cd ff3c 9e53 56bd 8e7d c83d d208 9ebb

bias f4 [256]
0.032695275 0.05418102 -0.023081107 -0.113953784 0.0062330463 0.09705491 -0.01697725 -0.006316245
0.08422258 -0.17260547 0.121481225 -0.04769544 0.0131600965 -0.113077216 -0.046242207 0.05663118
0.062482808 0.021111602 -0.04352906 0.0677507 0.01742409 -0.027279476 0.05865474 -0.018181857
0.07448007 0.0034669382 0.00591795 0.06351547 -0.008521878 -0.00044318062 0.065157406 0.040313173
-0.07752765 -0.02371539 0.048864186 -0.0649575 -0.050501145 0.025971772 -0.011610976 -0.06742733
-0.06141436 0.021758847 0.01918818 0.055950474 0.029815769 0.041594915 0.08066397 -0.054138545
-0.08792564 -0.059663553 -0.012384849 -0.08561316 0.025633816 -0.012824565 0.08423315 0.04016301
-0.022629555 -0.0085002445 0.01864298 0.010602304 0.0073328144 0.06442402 -0.12165376 0.095992565
-0.016191825 -0.09604111 -0.07612931 -0.10677308 -0.10535498 -0.037448794 0.047489367 -0.1207478
-0.0041005947 -0.0076395175 0.038950007 0.013646972 0.052985027 -0.041888442 -0.03170384 0.015260554
-0.0042122 -0.012280798 0.0077100247 -0.07495711 0.03731099 0.050803166 0.07342315 0.006229799
-0.057548307 0.07660475 0.10698631 -0.010215009 0.00033516155 -0.05382585 0.08289751 -0.044322893
0.071456954 -0.001794362 -0.019092552 -0.054262582 -0.04313203 0.09098357 -0.0947893 -0.04822693
0.040601283 -0.008279432 -0.03802733 0.013013058 0.048676867 -0.0676028 0.0234235 -0.027688608
-0.01339131 -0.02830323 -0.025736067 0.023874326 0.026245054 0.035405144 -0.02923435 -0.069872804
-0.00339555 0.11958753 -0.0029328598 0.04132817 0.042803105 0.092782944 -0.06868852 0.13774869
0.081767105 0.19250165 0.1065026 -0.041087788 -0.08257697 0.03493055 -0.10644476 0.027435226
-0.018350624 -0.04454112 -0.07798267 -0.08362921 -0.044963192 -0.093411975 0.10874112 -0.038522415
-0.058145005 0.031983692 -0.067970455 -0.11258013 -0.05448397 0.022968376 0.044993278 -0.104416765
-0.05207636 -0.016984507 0.044175185 0.015848655 0.038382057 -0.03876724 0.060912903 0.058910146
-0.0153954 -0.04828173 0.1428453 -0.042636164 0.11906782 -0.0022512625 0.090431325 0.010665393
-0.04291652 0.010575455 -0.0075323815 -0.0039098877 0.077818066 0.052957285 -0.042771183 -0.0959922
0.051597178 -0.10395734 0.071176425 0.0882976 -0.036048688 -0.13672772 0.13148184 0.00685791
0.11593127 0.01177871 -0.040827204 -0.028280666 0.043734036 0.0062623224 0.08926905 0.054430265
-0.037383553 0.0708482 -0.0467234 -0.012683893 0.0923882 0.013579808 0.030695572 0.03415287
0.021896277 0.023381446 -0.018864522 -0.027041795 -0.07119526 0.08749198 -0.084841415 0.01025793
0.052660044 0.054478426 -0.058712743 0.027283248 0.0074018594 -0.023762213 -0.013871375 0.035029408
-0.1489531 0.0032812636 0.0012245704 -0.023753332 -0.03872871 0.012029417 -0.019280734 0.028213238
0.054007366 0.09344898 0.101308554 0.0016719273 0.0043075327 -0.01165434 -0.0122208055 -0.0053410223
-0.056437347 -0.09369202 -0.061011866 -0.043055635 -0.017464323 -0.10232432 0.033399876 -0.01417639
-0.045451984 -0.0332833 0.0090981815 -0.02002155 -0.00034838257 0.008759477 0.026690444 -0.040089864
0.07443512 -0.03156801 -0.042633537 0.06758367 0.026902433 0.08033127 -0.033101093 -0.05939583
00000000: 7beb 053d ebec 5d3d 9714 bdbc 9a60 e9bd
00000010: 953e cc3b bac4 c63d e013 8bbc 81f8 cebb
00000020: e37c ac3d 7dbf 30be 26cb f83d 4b5c 43bd
00000030: 729d 573c 0795 e7bd 7868 3dbd 19f6 673d
00000040: f9ed 7f3d 3df2 ac3c 874b 32bd e1c0 8a3d
00000050: f7bc 8e3c 3579 dfbc f43f 703d 1ef2 94bc
00000060: 0289 983d 9235 633b 5deb c13b 6614 823d
00000070: 599f 0bbc b25a e8b9 3f71 853d 6d1f 253d
00000080: d1c6 9ebd c746 c2bc d025 483d 7008 85bd
00000090: 4ada 4ebd c1c2 d43c f73b 3ebc 5717 8abd
000000a0: a08d 7bbd 9c3f b23c 8830 9d3c 532c 653d
000000b0: 3340 f43c 6e5f 2a3d 2733 a53d 61c0 5dbd
000000c0: 5c12 b4bd c561 74bd d2e9 4abc f455 afbd
000000d0: 02fe d13c 201e 52bc 6e82 ac3d f881 243d
000000e0: 9e61 b9bc 9c44 0bbc 2ab9 983c 49b5 2d3c
000000f0: 1b48 f03b bef0 833d 9b25 f9bd c097 c43d
00000100: b8a4 84bc 34b1 c4bd afe9 9bbd d8ab dabd
00000110: 5ac4 d7bd e863 19bd 3684 423d 9f4a f7bd
00000120: 485e 86bb eb54 fabb 0b8a 1f3d 8d97 5f3c
00000130: d406 593d 3793 2bbd e3db 01bd 6707 7a3c
00000140: 7f06 8abb 6635 49bc 60a4 fc3b 1d83 99bd
00000150: 69d3 183d fb16 503d e05e 963d 5723 cc3b
00000160: c6b7 6bbd f3e2 9c3d a31b db3d da5c 27bc
00000170: 9fb8 af39 7f78 5cbd 2bc6 a93d ec8b 35bd
00000180: 0658 923d cc30 ebba fc67 9cbc 7142 5ebd
00000190: 36ab 30bd 9855 ba3d e420 c2bd 9a89 45bd
000001a0: 884d 263d 74a6 07bc 8cc2 1bbd b934 553c
000001b0: 6561 473d 5673 8abd a4e2 bf3c 38d3 e2bc
000001c0: 3a67 5bbc 2ddc e7bc 72d4 d2bc 1794 c33c
000001d0: deff d63c fc04 113d e07c efbc 7919 8fbd
000001e0: e087 5ebb 4fea f43d 3935 40bb ba47 293d
000001f0: 4f52 2f3d fc04 be3d 91ac 8cbd fe0d 0d3e
00000200: 8375 a73d 271f 453e 091e da3d ab4b 28bd
00000210: 1d1e a9bd 5613 0f3d b6ff d9bd d7bf e03c
00000220: 0c54 96bc c070 36bd 61b5 9fbd cb45 abbd
00000230: 532b 38bd c74e bfbd aab3 de3d aec9 1dbd
00000240: 7529 6ebd 5501 033d 1834 8bbd 6990 e6bd
00000250: 952a 5fbd 2d28 bc3c df4a 383d 75d8 d5bd
00000260: 054e 55bd 1823 8bbc 0af1 343d 0ad5 813c
00000270: 8136 1d3d 66ca 1ebd cf7f 793d c44b 713d
00000280: fd3c 7cbc 10c3 45bd 0a46 123e 42a3 2ebd
00000290: d4d9 f33d eb89 13bb 0f34 b93d e7bd 2e3c
000002a0: 3cc9 2fbd ac44 2d3c 32d2 f6bb 841e 80bb
000002b0: 145f 9f3d bde9 583d d630 2fbd 8f97 c4bd
000002c0: 9057 533d 96e7 d4bd f2c4 913d 5fd5 b43d
000002d0: caa7 13bd 5a02 0cbe 2da3 063e 52b8 e03b
000002e0: 606d ed3d 7efb 403c 6d3a 27bd dbac e7bc
000002f0: 7622 333d 2b34 cd3b b1d2 b63d 45f2 5e3d
00000300: 7f1f 19bd dc18 913d 0961 3fbd 1ad0 4fbc
00000310: 0636 bd3d d87d 5e3c 4875 fb3c e1e3 0b3d
00000320: d25f b33c 728a bf3c c589 9abc c186 ddbc
00000330: d2ce 91bd ff2e b33d 56c1 adbd e010 283c
00000340: 0fb2 573d c524 5f3d c67c 70bd 1e81 df3c
00000350: 4c8b f23b f9a8 c2bc c344 63bc ff7a 0f3d
00000360: 2987 18be 780a 573b c481 a03a 5996 c2bc
00000370: ffa1 1ebd 0817 453c a1f2 9dbc 731f e73c
00000380: d436 5d3d 2e62 bf3d dc7a cf3d 9224 db3a
00000390: 3426 8d3b d8f1 3ebc c639 48bc be03 afbb
000003a0: d92a 67bd 9ae1 bfbd 94e7 79bd 1b5b 30bd
000003b0: 5711 8fbc 6a8f d1bd 4fce 083d 1744 68bc
000003c0: dc2b 3abd 1254 08bd 8a10 153c 3c04 a4bc
000003d0: 1ea7 b6b9 e983 0f3c eba5 da3c 4535 24bd
000003e0: 7171 983d 754d 01bd 81a0 2ebd 4f69 8a3d
000003f0: 7e62 dc3c b984 a43d 0395 07bd 0b49 73bd

weight f4 [512, 256]
-0.037148297 -0.035746515 0.030924655 0.06459001 -0.003137123 0.0034121983 -0.023809772 0.008531439
0.024727281 -0.034962956 -0.04421731 0.039810438 0.028408013 0.048771616 0.03656373 -0.037469488
-0.0017367381 -0.01938028 0.09089925 0.05458831 0.0020764447 -0.041292865 -0.07120209 0.028252669
-0.007489202 0.025375782 0.07344643 0.0058347294 -0.07888809 0.056596044 0.01720001 0.019220507
-0.0045662103 0.0036674535 -0.022541678 -0.04981638 0.037285835 -0.08191729 -0.018298017 -0.011974693
0.01941002 0.009881743 -0.011418432 -0.010326116 0.01500268 0.011856982 -0.042511586 0.03812207
-0.021617321 0.017394524 -0.038038317 0.033089485 -0.078891076 -0.048461147 -0.008969702 -0.05522106
0.032356292 0.0298984 -0.021569613 -1.5580696e-05 0.024505652 -0.04362542 0.049970545 -0.03379719
-0.055481624 0.038825735 -0.06692488 0.089197636 -0.030883824 0.019809954 0.016276253 0.036468253
-0.06331368 -0.01959011 0.030044014 0.013476526 -0.05279289 -0.004602337 0.054526456 -0.0320465
-0.05367147 -0.044519138 -0.058083706 0.025595004 -0.07224656 -0.021788407 0.059326895 0.03385235
-0.0030406867 0.021699334 -0.015226972 0.042626556 -0.038710404 -0.07241565 -0.058591083 -0.03547456
0.03567557 -0.046268366 -0.02068195 0.030053457 -0.0041226777 0.03095509 0.05884139 0.023412678
-0.014033772 -0.04895004 -0.029360445 0.018754635 -0.02564031 0.04234479 0.05980226 -0.0022228924
-0.04153488 -0.067361705 0.02097345 0.043971095 0.051363647 -0.022923838 0.026635341 -0.032929715
-0.0641617 -0.08805222 0.011879636 -0.055128295 0.020072198 0.058931466 -0.017390473 -0.09517202
-0.02635908 -0.100655794 -0.03008566 0.016049601 0.03476389 -0.023894431 -0.014558397 -0.0078739375
-0.011730376 -0.03985043 0.007781936 -0.07214632 0.0053267917 -0.09202678 -0.027281621 -0.04155573
0.044334542 0.044736117 -0.028791541 -0.01538866 -0.010188131 0.035527352 -0.037904482 -0.028064739
-0.012660898 0.023467628 0.076928616 -0.027837817 -0.061361175 -0.04427563 0.037553195 -0.0573925
0.013672786 0.046378553 -0.0031486526 -0.07898271 0.007297769 -0.013618753 -0.005549516 -0.05125651
-0.07714094 -0.03590986 0.07455103 0.011006497 -0.010890453 -0.025635935 -0.04710027 -0.0104666855
0.090443805 -0.044609208 -0.06957495 0.02904611 0.007701317 -0.029176537 0.00881603 -0.04853741
-0.08381364 0.016585922 -0.0024169222 0.0041062064 0.00083693396 0.05360065 -0.08092951 0.037768893
0.09706473 -0.0023551136 -0.047735564 0.015792342 -0.008371325 0.003913886 0.051609065 0.016346328
-0.007978252 0.002467668 -0.02782374 0.013176507 0.061013427 -0.072101496 -0.0057451157 0.020061634
0.036313597 0.03879939 0.05367272 0.06918437 0.02146416 -0.022945596 0.012527434 0.017805858
0.049832765 0.029263226 0.03061578 -0.032371987 0.010191138 -0.0063551916 -0.057520773 -0.072076395
0.028426047 -0.07459533 -0.07379649 -0.06168955 -0.060584407 0.0285121 -0.05322525 -0.045744956
0.060976036 0.0398619 0.06304261 -0.047395673 0.04366992 -0.0018759398 -0.0032896495 -0.03224467
-0.004589095 -0.034251712 0.011330618 0.0316952 0.015676955 -0.028149465 -0.0020873502 0.023992041
-0.010558877 -0.07185177 -0.031222107 -0.058566842 0.008051742 0.044539474 -0.07260153 0.046994243
00000000: d028 18bd f06a 12bd b455 fd3c c447 843d
00000010: 3198 4dbb 309f 5f3b b60c c3bc 73c7 0b3c
00000020: de90 ca3c 5135 0fbd 361d 35bd 4510 233d
00000030: ecb7 e83c bfc4 473d dac3 153d 9b79 19bd
00000040: 43a3 e3ba 65c3 9ebc 6329 ba3d fe97 5f3d
00000050: f614 083b b522 29bd 67d2 91bd 2472 e73c
00000060: fb67 f5bb dfe0 cf3c 156b 963d 4231 bf3b
00000070: 1490 a1bd 41d1 673d 09e7 8c3c 5374 9d3c
00000080: 26a0 95bb a959 703b 53a9 b8bc 430c 4cbd
00000090: 08b9 183d 41c4 a7bd b9e5 95bc 8131 44bc
000000a0: c301 9f3c 09e7 213c 6014 3bbc df2e 29bc
000000b0: cdcd 753c c943 423c a120 2ebd e325 1c3d
000000c0: cf16 b1bc f67e 8e3c 11ce 1bbd d788 073d
000000d0: a591 a1bd 327f 46bd a8f5 12bc 7a2f 62bd
000000e0: 0888 043d 7ded f43c c2b2 b0bc 4ab3 82b7
000000f0: 14c0 c83c 92b0 32bd eaad 4c3d ec6e 0abd
00000100: b340 63bd bc07 1f3d e90f 89bd 40ad b63d
00000110: 1300 fdbc 7c48 a23c c755 853c bc5f 153d
00000120: 9aaa 81bd 707b a0bc dd1e f63c a6cc 5c3c
00000130: 5c3d 58bd 33cf 96bb 2257 5f3d 3143 03bd
00000140: 9ed6 5bbd b359 36bd 2ee9 6dbd 9dac d13c
00000150: 01f6 93bd 9a7d b2bc c200 733d c3a8 0a3d
00000160: 4246 47bb cdc2 b13c 8d7a 79bc 2f99 2e3d
00000170: cd8e 1ebd a84e 94bd 34fd 6fbd c64d 11bd
00000180: 8c20 123d e683 3dbd 316d a9bc ab32 f63c
00000190: 8717 87bb 8795 fd3c ab03 713d f2cb bf3c
000001a0: e8ed 65bc d67f 48bd 5185 f0bc 52a3 993c
000001b0: a10b d2bc bb71 2d3d 37f3 743d f2ad 11bb
000001c0: 7a20 2abd eff4 89bd 83d0 ab3c 091b 343d
000001d0: b062 523d c6ca bbbc 5c32 da3c 4fe1 06bd
000001e0: 3667 83bd b954 b4bd cea2 423c 35ce 61bd
000001f0: 736e a43c 1f62 713d 7776 8ebc 8ce9 c2bd
00000200: ffee d7bc a024 cebd 3476 f6bc 747a 833c
00000210: 9564 0e3d 41be c3bc 5886 6ebc b001 01bc
00000220: c330 40bc 343a 23bd 9cff fe3b 73c1 93bd
00000230: 5e8c ae3b 8978 bcbd b57d dfbc 5736 2abd
00000240: 2398 353d 383d 373d 3ddc ebbc b820 7cbc
00000250: 1eec 26bc 2185 113d bb41 1bbd 06e8 e5bc
00000260: a86f 4fbc 2f3f c03c c08c 9d3d 220c e4bc
00000270: db55 7bbd 5d5a 35bd 61d1 193d 6614 6bbd
00000280: d203 603c 70f7 3d3d a059 4ebb b0c1 a1bd
00000290: 2022 ef3b 3121 5fbc b7d8 b5bb 59f2 51bd
000002a0: 12fc 9dbd 3816 13bd 36ae 983d 9854 343c
000002b0: df6d 32bc 7402 d2bc 36ec 40bd 767c 2bbc
000002c0: 9a3a b93d 25b8 36bd 507d 8ebd 1cf2 ed3c
000002d0: 545b fc3b a203 efbc 1c71 103c 2acf 46bd
000002e0: 7ca6 abbd 33df 873c 3a65 1ebb 5b8d 863b
000002f0: b065 5b3a 5b8c 5b3d 5fbe a5bd 8eb3 1a3d
00000300: e0c9 c63d 4058 1abb 5e86 43bd f15e 813c
00000310: e227 09bc 0e40 803b 0764 533d bce8 853c
00000320: 37b7 02bc 99b8 213b 9dee e3bc 47e2 573c
00000330: 37e9 793d f3a9 93bd 8641 bcbb 4c58 a43c
00000340: 91bd 143d 1cec 1e3d edd7 5b3d 89b0 8d3d
00000350: 9bd5 af3c 67f8 bbbc de3f 4d3c 97dd 913c
00000360: 711d 4c3d 6fb9 ef3c f2cd fa3c 7d98 04bd
00000370: bbf8 263c 363f d0bb e79a 6bbd ca9c 93bd
00000380: bedd e83c 70c5 98bd 9d22 97bd 2eae 7cbd
00000390: 5b27 78bd 3592 e93c b802 5abd 105f 3bbd
000003a0: 02c2 793d 3b46 233d 7c1c 813d f721 42bd
000003b0: 3bdf 323d 18e2 f5ba 2997 57bb fd12 04bd
000003c0: 1e60 96bb 864b 0cbd 0ea4 393c d3d2 013d
000003d0: f56c 803c b599 e6bc edcb 08bb f58a c43c
000003e0: 24ff 2cbc 0527 93bd 81c5 ffbc c9e3 6fbd
000003f0: 74eb 033c 066f 363d 1cb0 94bd 097d 403d

bias f4 [512]
-0.013243698 0.10374266 0.032389242 -0.06626505 -0.06486446 -0.13417745 -0.025542617 0.0030013393
-0.12774087 0.04813486 -0.008010489 -0.13056296 -0.083972454 0.00804563 0.007155794 -0.019287685
-0.21610233 0.07861743 -0.06065228 0.08293899 0.033042338 -0.0498134 -0.026686281 -0.052033033
-0.036191273 0.1004438 0.118002206 -0.0426604 -0.004601555 -0.06523354 -0.09335385 -0.004166414
0.012661982 0.0895661 0.050130144 0.097994536 -0.070063934 -0.091698535 0.070677675 0.0020907419
-0.053853463 0.05788779 0.09428869 -0.031781554 0.03526506 -0.04905632 -0.23431647 -0.120463535
-0.21099718 -0.09725682 0.0030578678 -0.057324935 0.0042841397 -0.040345874 -0.019620694 0.014138117
-0.057000637 -0.030010965 -0.02709202 -0.07839906 -0.0604836 -0.09168827 -0.18484093 0.10071449
-0.12983605 0.078839116 -0.063170314 0.07658631 0.0049388497 0.01524193 0.01189297 0.06969385
-0.1466186 -0.059003882 0.086894564 -0.013112741 -0.101523064 -0.053638443 0.031799767 -0.097191304
0.049065024 0.065355405 -0.08193288 0.11186767 -0.06674761 -0.061830368 -0.00985519 0.06891715
-0.044135682 0.1093346 -0.108657695 -0.11263056 0.011401202 -0.1819782 -0.12411563 -0.053565815
0.021448664 -0.044291325 -0.107832916 0.055951025 -0.03752711 -0.027659098 -0.05284974 0.05984491
-0.13975847 -0.16548656 -0.14257488 -0.05508704 -0.1974813 0.024702715 -0.09855499 -0.096704766
0.017282216 0.029807972 -0.0895498 -0.048296064 -0.097191595 -0.018530147 -0.0046363357 -0.035931326
0.03743387 0.039780207 0.006655439 -0.07519335 0.089710206 -0.10454942 0.0036097346 -0.10977951
-0.05602571 -0.023046594 0.051759105 -0.07426195 0.022769155 0.023591895 0.058798302 -0.12822816
-0.15294029 -0.099383265 -0.089566015 -0.1067457 -0.024015399 0.01501215 0.03815338 -0.06907288
-0.036670938 -0.068623744 -0.05263044 0.0373692 -0.036848705 0.08784717 -0.08622211 -0.090203755
-0.16112152 0.0032944721 -0.10586316 -0.007452772 -0.023668157 0.09577318 0.028909067 0.04672609
-0.08957509 0.1374089 0.08507405 -0.15999278 0.038492657 -0.08324505 -0.055278912 -0.08349511
-0.013217978 0.08313393 -0.021914745 0.0016141098 -0.000507889 -0.11293258 0.0496443 0.08018064
0.0076710787 -0.010721829 0.0020763827 -0.019471196 0.044522338 0.036025662 -0.04896952 -0.07317195
-0.13570237 -0.031854615 -0.08047191 -0.032773856 0.06463392 -0.04568105 0.029784478 -0.081912465
0.02246771 0.08067778 0.002486087 -0.08429114 -0.014893421 0.06123729 0.0034837245 0.054619163
-0.06933821 -0.061539084 -0.04663584 0.025603238 -0.071080275 -0.03583884 0.04097147 0.033924367
-0.1291521 -0.000707526 0.010346847 -0.015462991 -0.12093627 -0.108217604 -0.009505 -0.06382324
-0.14301254 -0.08184988 0.084697306 0.017522946 -0.1166941 -0.1056593 0.06577413 0.015449287
0.013587522 0.054743573 0.065043114 0.012628768 -0.0744908 0.0030578151 -0.056118056 0.00042544998
0.03742521 -0.05013915 0.028616669 -0.008108718 0.051998064 -0.15527242 -0.026817873 0.0022799936
-0.042517688 -0.036073457 -0.033778016 0.067563154 0.011840914 -0.061170958 -0.11309593 0.03266931
-0.14481291 -0.027952883 0.030031791 0.009242248 -0.11614865 -0.07961713 0.036314733 -0.1425349
00000000: 18fc 58bc 0877 d43d 95aa 043d f8b5 87bd
00000010: a8d7 84bd d065 09be c03e d1bc 1eb2 443b
00000020: 81ce 02be 0f29 453d 6d3e 03bc 4cb2 05be
00000030: c0f9 abbd d1d1 033c 277b ea3b 3501 9ebc
00000040: ee49 5dbe 2d02 a13d 866e 78bd ebdb a93d
00000050: 6757 073d 2309 4cbd 309d dabc 9720 55bd
00000060: 4d3d 14bd 7bb5 cd3d 24ab f13d acbc 2ebd
00000070: a4c8 96bb 2a99 85bd 4e30 bfbd 6a86 88bb
00000080: 3474 4f3c 6e6e b73d 4455 4d3d 5cb1 c83d
00000090: ae7d 8fbd 71cc bbbd 75bf 903d d404 093b
000000a0: 7395 5cbd bf1b 6d3d 6e1a c13d 602d 02bd
000000b0: 1872 103d 48ef 48bd a8f0 6fbe 96b5 f6bd
000000c0: a50f 58be 952e c7bd 8266 483b 8dcd 6abd
000000d0: f861 8c3b b741 25bd 94bb a0bc 90a3 673c
000000e0: 8079 69bd 8ed9 f5bc 15f0 ddbc b08f a0bd
000000f0: a7bd 77bd 0fc7 bbbd f146 3dbe 6643 ce3d
00000100: bef3 04be 6776 a13d 705f 81bd 49d9 9c3d
00000110: 13d6 a13b 4ab9 793c bbda 423c a6bb 8e3d
00000120: 3023 16be 0eae 71bd c7f5 b13d d2d6 56bc
00000130: 53eb cfbd fcb3 5bbd 7940 023d 3c0c c7bd
00000140: 68f8 483d 0ed9 853d 6dcc a7bd e11a e53d
00000150: f9b2 88bd d741 7dbd aa77 21bc 6f24 8d3d
00000160: 9ec7 34bd d2ea df3d ed87 debd daaa e6bd
00000170: 1bcc 3a3c 7e58 3abe 5630 febd d467 5bbd
00000180: 1cb5 af3c d26a 35bd 81d7 dcbd e72c 653d
00000190: 07b6 19bd 5595 e2bc f878 58bd f01f 753d
000001a0: d81c 0fbe 4f75 29be 26ff 11be f3a2 61bd
000001b0: 8a38 4abe 595d ca3c 33d7 c9bd 260d c6bd
000001c0: 6f93 8d3c d92f f43c e365 b7bd 18d2 45bd
000001d0: 630c c7bd 89cc 97bc 67ec 97bb ba2c 13bd
000001e0: 4254 193d 92f0 223d de15 da3b f9fe 99bd
000001f0: fcb9 b73d 021e d6bd 4c91 6c3b 14d4 e0bd
00000200: 377b 65bd 36cc bcbc 5b01 543d a616 98bd
00000210: 6186 ba3c ca43 c13c 7dd6 703d 3e4e 03be
00000220: 619c 1cbe 7489 cbbd 636e b7bd 7d9d dabd
00000230: f1bb c4bc 85f5 753c b846 1c3d 1576 8dbd
00000240: 4434 16bd 9b8a 8cbd 0493 57bd 7210 193d
00000250: abee 16bd 38e9 b33d 3895 b0bd bfbc b8bd
00000260: 0afd 24be 12e8 573b c9ce d8bd 6236 f4bb
00000270: b9e3 c1bc bb24 c43d b5d2 ec3c db63 3f3d
00000280: 2573 b7bd ebb4 0c3e 4e3b ae3d 26d5 23be
00000290: 7aaa 1d3d 617c aabd 246c 62bd 7cff aabd
000002a0: 3890 58bc 1f42 aa3d 8d86 b3bc 8a90 d33a
000002b0: db23 05ba 3249 e7bd d257 4b3d bf35 a43d
000002c0: ac5d fb3b 9caa 2fbc ec13 083b 0f82 9fbc
000002d0: 0e5d 363d a58f 133d 4394 48bd 2ddb 95bd
000002e0: 90f5 0abe fc79 02bd 75ce a4bd e13d 06bd
000002f0: ca5e 843d 0d1c 3bbd 94fe f33c b9c1 a7bd
00000300: 340e b83c 643a a53d 9eed 223b d5a0 acbd
00000310: 8903 74bc f4d3 7a3d 334f 643b 58b8 5f3d
00000320: 3101 8ebd 6810 7cbd 3905 3fbd e2bd d13c
00000330: 8992 91bd bfcb 12bd b3d1 273d 47f4 0a3d
00000340: 7340 04be 4479 39ba d285 293c 7c58 7dbc
00000350: 6fad f7bd 31a1 ddbd dcba 1bbc c2b5 82bd
00000360: e171 12be e9a0 a7bd c875 ad3d 488c 8f3c
00000370: 51fd eebd e763 d8bd 96b4 863d 021f 7d3c
00000380: 339e 5e3c cc3a 603d 5335 853d e4e8 4e3c
00000390: a28e 98bd a065 483b 0cdc 65bd ee0e df39
000003a0: 2d4b 193d b65e 4dbd 816d ea3c 6eda 04bc
000003b0: ecfb 543d bcff 1ebe 28b1 dbbc f26b 153b
000003c0: 0727 2ebd c3c1 13bd d15a 0abd 8d5e 8a3d
000003d0: 6500 423c 668e 7abd d79e e7bd 41d0 053d
000003e0: d649 14be 72fd e4bc 3b05 f63c cc6c 173c
000003f0: 58df edbd 4e0e a3bd c2be 143d abf4 11be

weight f4 [128, 512]
-0.028385583 -0.01940483 -0.021823423 -0.006789004 -0.03416781 -0.015719648 0.0069306483 -0.027279677
0.014593233 -0.049120832 -0.052846592 -0.009947499 -0.090577036 0.01762368 -0.018957278 0.00015670432
0.045682073 -0.0049446914 -0.010401371 -0.025138488 -0.016348304 0.042725846 0.028086238 0.04254336
0.044798307 0.008273293 0.02597822 0.010366744 0.031620126 -0.0107668955 0.026701335 -0.016356165
-0.014683802 0.00033970486 0.04937166 0.0055104895 0.0065209423 0.07133486 0.04690395 -0.013363938
0.017016692 -0.00817607 3.7217533e-06 -0.097598486 -0.0028775663 -0.0019832135 0.03930575 -0.07424841
0.04566567 0.009996242 0.030204482 0.03235066 -0.004196953 -7.882263e-07 0.0053871144 0.033223238
0.008663185 -0.033935826 0.05259361 -0.021720745 0.049725592 -0.03960707 0.019260671 -0.014312621
0.013367526 0.00044988748 -0.02976529 0.03427426 -0.020104077 -0.042845856 -0.037410982 0.08587252
0.03624876 0.080208406 0.033022888 -0.012720559 0.058881596 -0.012414323 0.031107238 0.013811585
0.02545076 -0.07273533 -0.07422055 -0.0028850094 -0.08345907 -0.015746545 -0.0477772 0.029863002
0.043802448 -0.016231274 -0.026504915 -0.0076630963 0.032568105 -0.0038800295 -0.015710944 -0.057218898
-0.049236782 0.050949704 0.05458832 0.07545524 -0.053227603 0.022662459 -0.027400963 -0.036785226
-0.039503884 -0.0027077664 -0.008428328 0.016915778 -0.09826975 -0.040589668 0.019137014 0.05843093
0.027121529 0.049599282 -0.04257662 0.02800627 -0.004344653 0.06739444 -0.05541441 -0.056453332
0.055216875 -0.027970158 0.09360564 0.013325973 0.030000256 0.004696179 0.056959666 -0.026014272
-0.020918207 -0.013930187 0.037638474 0.07051392 0.04025455 0.0019802419 -0.04766153 0.04053065
0.0026332873 0.058614675 0.080308266 0.01731515 0.06464679 0.014481813 -0.0051197964 -0.006239789
0.009893034 0.010707478 -0.029189406 -0.06208917 0.05183875 0.0049707084 -0.036610905 0.0509724
-0.08022052 -0.073343344 0.008470147 -0.04388671 0.0136810625 0.035652317 -0.022331465 -0.037691765
-0.010662794 -0.0051133703 -0.007318202 -0.034046978 -0.008949713 0.034753665 -0.04398388 0.03960522
-0.034225035 0.03319548 -0.06523186 -0.036054175 -0.0071325153 0.037446957 -0.021308826 0.023415243
0.0890636 0.06044921 -0.019516017 0.01289665 -0.040697824 0.050054457 0.04076346 -0.036715195
-0.07727039 0.045431476 0.013904878 -0.008296739 0.05847172 0.031219255 0.0022175508 -0.034426298
-0.014229022 -0.0073340335 0.002965999 -0.017055798 0.017073814 -0.030456528 -0.038789127 -0.058931857
-0.003304687 0.042466965 -0.018931424 -0.024234483 0.09426072 -0.05697609 -0.08934335 0.012030245
0.059382714 0.0022368021 0.023536017 -0.025953317 -0.01516068 0.008995814 -0.047839027 0.009839934
0.0013054282 0.032729425 -0.049019046 0.03295864 0.015897494 -0.086189084 -0.0077825407 0.033093885
-0.020633359 0.018683532 -0.009937644 -0.0020861486 -0.069365606 -0.010093599 -0.006013563 0.025616718
-0.011398957 0.036924478 0.022239432 -0.002639295 -0.07242598 -0.024745228 -0.028000224 -0.028322753
-0.031183217 0.032241832 0.01166877 -0.03295504 0.021904096 -0.025835142 -0.059360262 -0.02923297
-0.013021455 0.04680736 -0.069493845 -0.034677286 -0.085734665 0.033166684 0.029214583 -0.0748267
00000000: e288 e8bc e1f6 9ebc 09c7 b2bc 4b76 debb
00000010: 8cf3 0bbd 7ec6 80bc 7e1a e33b a179 dfbc
00000020: 7518 6f3c ed32 49bd ab75 58bd d6fa 22bc
00000030: 7480 b9bd 895f 903c 4b4c 9bbc ff50 2439
00000040: 201d 3b3d 1407 a2bb 836a 2abc 3bef cdbc
00000050: e1ec 85bc 4c01 2f3d 1c15 e63c f241 2e3d
00000060: 6e7e 373d b58c 073c 47d0 d43c 47d9 293c
00000070: 1b84 013d a267 30bc c2bc da3c 5dfd 85bc
00000080: 5494 70bc 6a1a b239 f039 4a3d 5691 b43b
00000090: a1ad d53b 0318 923d 5b1e 403d 6bf4 5abc
000000a0: 9766 8b3c ecf4 05bc 3cc3 7936 b7e1 c7bd
000000b0: 8d95 3cbb cdf8 01bb 11ff 203d 8d0f 98bd
000000c0: ed0b 3b3d 47c7 233c 646f f73c 2082 043d
000000d0: 9886 89bb 8096 53b5 6486 b03b 1715 083d
000000e0: 08f0 0d3c 4b00 0bbd 666c 573d b4ef b1bc
000000f0: 10ad 4b3d 063b 22bd 8ec8 9d3c 7c7f 6abc
00000100: 7803 5b3c e0de eb39 56d6 f3bc 2b63 0c3d
00000110: 4eb1 a4bc 237f 2fbd 423c 19bd efdd af3d
00000120: 9479 143d 4e44 a43d 0243 073d e469 50bc
00000130: d42d 713d 7265 4bbc 9bd4 fe3c fc49 623c
00000140: 1d7e d03c 43f6 94bd f200 98bd 6d12 3dbb
00000150: 97ec aabd e6fe 80bc 06b2 43bd 41a3 f43c
00000160: 326a 333d 73f7 84bc d620 d9bc b61a fbbb
00000170: 2266 053d 1848 7ebb 3db4 80bc 5d5e 6abd
00000180: 82ac 49bd a3b0 503d 0198 5f3d 4788 9a3d
00000190: 3005 5abd 9fa6 b93c fc77 e0bc 1bac 16bd
000001a0: d3ce 21bd c874 31bb f816 0abc f592 8a3c
000001b0: a741 c9bd 5a41 26bd 3ac5 9c3c 4555 6f3d
000001c0: f82d de3c 9e28 4b3d d264 2ebd 686d e53c
000001d0: 975d 8ebb 1906 8a3d 38fa 62bd 9c3b 67bd
000001e0: 172b 623d ac21 e5bc 50b4 bf3d 2f55 5a3c
000001f0: 19c3 f53c 68e2 993b 8a4e 693d e21b d5bc
00000200: a95c abbc 703b 64bc cd2a 1a3d 9a69 903d
00000210: f4e1 243d f2c6 013b bd38 43bd 7803 263d
00000220: 3b93 2c3b f115 703d a978 a43d 80d8 8d3c
00000230: 8965 843d 2045 6d3c f7c3 a7bb 2577 ccbb
00000240: 6416 223c 6b6e 2f3c 9f1e efbc 3751 7ebd
00000250: de54 543d 53e1 a23b 51f5 15bd 6fc8 503d
00000260: a84a a4bd 0935 96bd 5fc6 0a3c 8dc2 33bd
00000270: 8926 603c 2a08 123d 7af0 b6bc ae62 1abd
00000280: 00b3 2ebc 0f8e a7bb 87cd efbb d874 0bbd
00000290: d1a1 12bc dc59 0e3d 7128 34bd 1539 223d
000002a0: 8d2f 0cbd fcf7 073d 4898 85bd 8bad 13bd
000002b0: e0b7 e9bb fb61 193d d98f aebc 53d1 bf3c
000002c0: fa66 b63d 9799 773d 0ee0 9fbc 784c 533c
000002d0: c3b2 26bd e705 4d3d 96f7 263d ac62 16bd
000002e0: f03f 9ebd 5b16 3a3d 49d1 633c 0cef 07bc
000002f0: 0b80 6f3d 86bf ff3c 5454 113b 9702 0dbd
00000300: d820 69bc 5552 f0bb 3561 423b 9ab8 8bbc
00000310: 62de 8b3c f87f f9bc 59e1 1ebd 8862 71bd
00000320: 7393 58bb d7f1 2d3d 1316 9bbc 6587 c6bc
00000330: c40b c13d c35f 69bd a5f9 b6bd 811a 453c
00000340: 4a3b 733d 5097 123b 9bce c03c 0d9c d4bc
00000350: 8064 78bc 2e63 133c dbf2 43bd ad37 213c
00000360: e71a ab3a 4a0f 063d 32c8 48bd a4ff 063d
00000370: 763b 823c e783 b0bd af04 ffbb 748d 073d
00000380: 4a07 a9bc 350e 993c 80d1 22bc c4b7 08bb
00000390: 8e0f 8ebd 9f5f 25bc 6c0d c5bb 27da d13c
000003a0: b1c2 3abc 1f3e 173d 782f b63c 06f8 2cbb
000003b0: 1254 94bd 81b6 cabc ba60 e5bc 1e05 e8bc
000003c0: f273 ffbc 0310 043d 5e2e 3f3c ddfb 06bd
000003d0: 3870 b33c 38a4 d3bc bf23 73bd fb79 efbc
000003e0: f157 55bc 13b9 3f3d ca52 8ebd c509 0ebd
000003f0: a895 afbd cad9 073d 6c53 ef3c be3e 99bd

bias f4 [128]
0.057267893 0.014286999 -0.08712337 0.045892335 -0.09640684 -0.0060027125 0.04967112 0.0013744516
0.009597085 0.037279602 0.034823257 -0.047590777 -0.03465439 -0.085634634 0.06054714 -0.0904716
-0.12537321 0.055220827 -0.10281462 -0.03312994 -0.044027913 0.0041894107 -0.036952563 0.0052586384
-0.10401132 0.031857595 -0.089998536 -0.012754109 -0.06391873 0.013631982 0.019988041 0.051313363
-0.0060792114 0.01281591 0.073092334 -0.036988188 -0.08771163 -0.11683132 0.019931097 0.075851604
-0.017935097 -0.02008338 -0.09033652 0.008206517 0.0126391 -0.013909208 -0.07805152 -0.06057958
-0.03828175 -0.038191438 0.029057838 0.0761833 -0.044553515 -0.08081625 -0.053041317 -0.040943276
-0.022104412 -0.048929665 0.0034680616 0.04936208 0.020856284 -0.03298712 -0.05202046 -0.03778545
0.019420423 0.010601535 -0.011288074 -0.07411164 -0.054572575 0.08864807 0.009724715 -0.06873226
-0.09561125 -0.041666053 0.050856173 0.052099846 0.043806784 0.069330774 0.067527585 0.07317276
-0.08656857 -0.08846473 0.024863817 0.029551461 -0.059748866 -0.098250456 0.09212614 -0.06351898
0.019918744 0.082812205 -0.0073208297 0.028489677 0.03874943 0.07941095 -0.12726754 -0.03225876
-6.168783e-05 0.031946205 0.010877866 0.02924333 0.035421003 -0.05157298 -0.017672377 0.026386915
0.017589508 -0.046796195 -0.019001512 0.0074820984 0.114133544 -0.030544307 0.043316025 -0.010498677
-0.0038399065 0.0053042234 -0.10832745 -0.06275288 0.009334581 -0.0605161 -0.04066607 -0.023435721
-0.059505973 0.028245566 0.021884894 0.098419204 -0.06326683 0.08864946 -0.104270875 0.05335354
00000000: bd91 6a3d 0414 6a3c bd6d b2bd 9af9 3b3d
00000010: f370 c5bd 67b2 c4bb f273 4b3d f126 b43a
00000020: 183d 1d3c 7fb2 183d d5a2 0e3d 8cee 42bd
00000030: c3f1 0dbd 3661 afbd 4700 783d 2d49 b9bd
00000040: d661 00be 3c2f 623d 7990 d2bd 43b3 07bd
00000050: 9d56 34bd 5347 893b 925b 17bd a850 ac3b
00000060: e303 d5bd 1c7d 023d 2751 b8bd 9cf6 50bc
00000070: d3e7 82bd ad58 5f3c f6bd a33c f62d 523d
00000080: 1f34 c7bb d3f9 513c 6fb1 953d ed80 17bd
00000090: 28a2 b3bd 4245 efbd 8a46 a33c 1658 9b3d
000000a0: a0ec 92bc e785 a4bc 5a02 b9bd a174 063c
000000b0: 3a14 4f3c 72e3 63bc 7ad9 9fbd 4b22 78bd
000000c0: 53cd 1cbd a06e 1cbd b40a ee3c fd05 9c3d
000000d0: bf7d 36bd fd82 a5bd da41 59bd 23b4 27bd
000000e0: 5014 b5bc 796a 48bd 6b48 633b e42f 4a3d
000000f0: ccda aa3c 811d 07bd 6813 55bd ebc4 1abd
00000100: 9417 9f3c 10b2 2d3c 9df1 38bc d8c7 97bd
00000110: 7e87 5fbd 1f8d b53d 6954 1f3c 80c3 8cbd
00000120: d5cf c3bd 06aa 2abd 904e 503d a666 553d
00000130: be6e 333d 4bfd 8d3d e74b 8a3d 9adb 953d
00000140: dd4a b1bd ff2c b5bd 34af cb3c e815 f23c
00000150: 3abb 74bd 8937 c9bd a1ac bc3d 3d16 82bd
00000160: a22c a33c 7299 a93d 92e3 efbb 2f63 e93c
00000170: b9b7 1e3d 35a2 a23d 6c52 02be c321 04bd
00000180: 675e 81b8 06da 023d 1439 323c b58f ef3c
00000190: 9d15 113d 303e 53bd a9c5 90bc 5f29 d83c
000001a0: df17 903c 5ead 3fbd 0fa9 9bbc 642c f53b
000001b0: d9be e93d 0e38 fabc 256c 313d a502 2cbc
000001c0: f1a6 7bbb 0dcf ad3b c8da ddbd 9584 80bd
000001d0: 12f0 183c bbdf 77bd 7791 26bd 45fc bfbc
000001e0: 89bc 73bd 3f63 e73c f347 b33c 0290 c93d
000001f0: 0a92 81bd d98d b53d f88b d5bd 3e89 5a3d

weight f4 [1, 128]
0.057823382 0.05981503 -0.048018098 0.05430766 -0.00094540085 0.016547734 -0.001684079 0.051105037
0.0014791049 0.009319117 0.07097663 -0.04327808 -0.0043084747 -0.052679088 0.0061130566 -0.022500511
-0.0006991268 0.020790432 -0.015756441 0.03996862 -0.0073514925 0.0013176448 -0.02174092 0.06428009
-0.01542583 0.015623088 -0.04853991 0.006889078 -0.0013138845 0.004638749 0.017412331 0.05232542
-0.00025404018 0.0005265714 0.012980953 -0.028283928 -0.020629203 -0.030445656 0.041311238 0.09202051
-0.0007017577 -0.00052213203 -0.037384186 0.08764068 0.039585546 -0.0035752482 -0.047577053 -0.023535756
-0.0019226201 -0.018868817 0.008289609 0.015848102 -0.00048189386 -0.029512737 -0.0033630903 -0.000675104
-0.00036747832 -0.00011247277 0.0013566375 -0.001106603 0.041573368 -0.00088906975 -0.045739822 -0.015508411
-0.067267716 0.011556782 0.06542829 -0.0061605293 -0.052400306 0.042238943 0.11812814 -0.06913529
-0.008892363 0.0012186245 0.09984122 0.019002609 0.12512688 -0.08616356 0.038871553 0.08639915
-0.0454193 -0.06433641 -0.030816752 0.02815946 -0.006854555 -0.032117132 0.017560286 -0.005707622
0.038114473 0.016232384 0.09658368 0.048143372 0.034013987 0.03603979 -0.044807084 0.078508586
1.9028404e-05 -0.00025929319 0.019544063 0.072835974 0.050707676 -0.07132256 -0.06231113 0.0007972665
0.017801842 -0.014935608 -0.021564497 0.0019283737 0.09735642 -0.05360444 0.034550637 -0.0160202
0.00090342277 0.0002512887 -0.051966067 -0.08455003 0.06318051 -0.076173626 -0.06334257 -0.02469523
-0.004548164 0.04551762 0.06268397 0.041970555 -0.01360274 0.06032465 -0.058918484 -0.00047177245
00000000: 36d8 6c3d 9b00 753d a0ae 44bd b571 5e3d
00000010: c7d4 77ba 1d8f 873c 50bc dcba 8453 513d
00000020: 86de c13a 36af 183c 325c 913d 5b44 31bd
00000030: 1b2e 8dbb 07c6 57bd 0950 c83b fe52 b8bc
00000040: 9b45 37ba b250 aa3c a713 81bc 23b6 233d
00000050: cae4 f0bb d3b4 ac3a 041a b2bc 48a5 833d
00000060: 9fbc 7cbc fbf7 7f3c c9d1 46bd c6bd e13b
00000070: a636 acba a600 983b 4ea4 8e3c 2e53 563d
00000080: b230 85b9 9c09 0a3a 10ae 543c b2b3 e7bc
00000090: 93fe a8bc 2b69 f9bc f935 293d 4075 bc3d
000000a0: 29f6 37ba b0df 08ba 2920 19bd f57c b33d
000000b0: 7424 223d b64e 6abb 28e0 42bd 0fce c0bc
000000c0: 6d00 fcba c792 9abc 24d1 073c e1d3 813c
000000d0: b3a6 fcb9 b2c4 f1bc 4b67 5cbb 76f9 30ba
000000e0: 1baa c0b9 5cdf ebb8 33d1 b13a 6f0b 91ba
000000f0: d648 2a3d 7610 69ba ae59 3bbd fe16 7ebc
00000100: a8c3 89bd a858 3d3c 44ff 853d 44de c9bb
00000110: b4a1 56bd be02 2d3d 2bed f13d ce96 8dbd
00000120: 46b1 11bc 41ba 9f3a 8e79 cc3d 5cab 9b3c
00000130: 4321 003e 8576 b0bd c737 1f3d 0af2 b03d
00000140: 9709 3abd cfc2 83bd 6a73 fcbc abae e63c
00000150: 2d9c e0bb 418d 03bd 97da 8f3c 0107 bbbb
00000160: ec1d 1c3d c7f9 843c aacd c53d fc31 453d
00000170: 4052 0b3d 759e 133d a287 37bd 1cc9 a03d
00000180: 309f 9f37 bef1 87b9 df1a a03c 072b 953d
00000190: dab2 4f3d 9011 92bd f539 7fbd a6ff 503a
000001a0: 2bd5 913c 7bb4 74bc 07a8 b0bc 7cc1 fc3a
000001b0: cd62 c73d 5490 5bbd f884 0d3d cb3c 83bc
000001c0: add3 6c3a 66bf 8339 5fda 54bd 9128 adbd
000001d0: c964 813d eb00 9cbd c0b9 81bd a74d cabc
000001e0: c408 95bb af70 3a3d 7460 803d 51e9 2b3d
000001f0: 07de 5ebc fb16 773d 8254 71bd 3a58 f7b9
