result/aug74_gan_40_model_21.pt (torch, 934716 bytes, 9 tensors)

weight f4 [128, 14]
000000 9d e1 82 be f1 0a cc bd 27 7c 65 3e 83 06 eb 3d
       -0.25562754 -0.099630244 0.22410642 0.114758514
000010 82 0f e3 be d1 8f a3 be 2c 94 30 3e 37 0c 27 3e
       -0.4434777 -0.3194566 0.17244023 0.16313253
000020 37 fd 5f 3d 58 67 5a be 03 1d 68 3e d3 59 8a be
       0.054684844 -0.21328485 0.22667317 -0.27021655
000030 8c b5 04 3c 7c 6d c6 bd 98 08 9a 3e 89 3c 15 bd
       0.008099925 -0.09688851 0.30084682 -0.036434684
000040 c4 65 35 3e e0 06 80 be a0 a8 7f 3e 3c 28 65 3e
       0.17714602 -0.25005245 0.24966669 0.2237863
000050 4e 11 80 be 3f 36 21 3d 1c 21 0f 3e ec a0 eb bd
       -0.25013202 0.039358374 0.13977474 -0.11505303
000060 78 b9 56 be 8a 0d 3a 3e d9 a0 93 3c e8 00 92 3c
       -0.20969188 0.18169227 0.018021034 0.017822698
000070 0b 90 d7 bd 6e 4a b6 3d 6c 43 0a 3b da 68 aa be
       -0.10525521 0.08900915 0.0021097315 -0.3328312
000080 ca ab ab bd ea a6 99 be f0 52 1b bf 4f 12 15 be
       -0.083823755 -0.30010158 -0.6067343 -0.14557765
000090 c4 83 94 3e 5c 0a 14 3e ea 40 25 be 6d 19 f9 3d
       0.2900678 0.14457077 -0.16138044 0.12163053
0000a0 65 46 f9 bd bc 31 85 3d 69 a2 33 3d c6 3b 13 bc
       -0.1217163 0.06503627 0.04385606 -0.008986419
0000b0 72 7e 68 3d 23 dd 30 bd d7 c9 99 be 0f 43 3b be
       0.056761213 -0.043179642 -0.30036804 -0.182873
0000c0 3c 79 dc be 8f 1d 4e 3e 45 99 b3 3d 9f 6a 05 3d
       -0.43061244 0.20128463 0.08769468 0.032572385
0000d0 74 a6 24 3e 2a 9c ce 3e b8 88 c1 bd cf 25 0d bd
       0.16079122 0.4035352 -0.09449905 -0.034459885
0000e0 e1 d5 f6 bd 26 a3 2a 3e 72 b3 57 be 66 4a 0a bf
       -0.12052513 0.16663799 -0.21064547 -0.54019773
0000f0 a0 03 39 3e 2b bb 98 be 88 ba 78 be 54 5d 3a be
       0.18067789 -0.29830298 -0.24289906 -0.18199664
000100 ca f3 8b 3e f3 6f 92 3e cb 13 8f 3e 2e 9e 17 3f
       0.27334434 0.28601035 0.27944788 0.5922574
000110 f9 33 a6 bd 2f c4 f4 bd 46 23 41 be 3e 54 29 3e
       -0.08115382 -0.119514816 -0.18861112 0.16536042
000120 1f 6f 19 be ac 83 28 be 8d fe 8e 3e 27 1d e7 3d
       -0.14983796 -0.16456479 0.27928582 0.11284857
000130 7f c8 15 3e ce 7d bf bb 62 25 45 3d ea 06 09 bf
       0.14627264 -0.0058438545 0.048131354 -0.53526175
000140 b3 ce ef 3c 5d 63 17 3e 91 1d bb bb b9 d4 d3 3e
       0.029273367 0.14783998 -0.0057103117 0.41373232
000150 3d b9 55 3e e4 5f 83 3e 27 4b f3 bd de dd 0f 3d
       0.20871444 0.25659096 -0.118795685 0.0351237
000160 77 90 12 bd 37 17 1b 3e 6f 8d 89 be 09 f2 2e be
       -0.035782304 0.15145575 -0.26865718 -0.17084517
000170 d6 4f df bd 86 56 45 be 8b a3 a4 3e 14 83 15 3f
       -0.10903899 -0.19271287 0.32156023 0.58403134
000180 05 39 50 3e c4 d4 14 be 4f 3b c1 be 8a bb f7 3d
       0.20334251 -0.14534289 -0.3774056 0.12096317
000190 16 d3 70 be be 81 2e 3e a8 0a be be 8e ee 6e 3d
       -0.23518023 0.1704168 -0.37117505 0.058332972
0001a0 74 4e 9a bd 2e 8a 30 3e 44 bc 8e be f9 87 9e 3e
       -0.07534495 0.17240211 -0.2787801 0.30963114
0001b0 13 58 36 bc a2 15 b6 be 42 9c 71 bb 20 ff 33 bf
       -0.011129397 -0.3556338 -0.0036866819 -0.70311165
0001c0 af 5f 1c 3e 92 9b 27 3e 43 54 68 be 56 6c 72 3e
       0.15270875 0.16367939 -0.22688393 0.2367414
0001d0 ce 06 9e bd 0f 09 f5 3d ae 83 8c 3e fc 9e 59 be
       -0.07716142 0.119646184 0.27444214 -0.21252054
0001e0 7d 76 be bd 08 12 d0 be 8c 49 ac be 05 83 04 bf
       -0.092999436 -0.40638757 -0.33649862 -0.5176242
0001f0 e2 78 a5 3c 88 79 53 3e d4 b8 bb bd a6 93 33 bd
       0.020199243 0.20651829 -0.091661125 -0.04384198
000200 8d 01 8e 3c b9 31 f6 bc 1a 48 59 3e a2 cc 0a 3d
       0.017334724 -0.030053006 0.21218911 0.03388656
000210 c2 5c 03 3e b0 60 0f 3e bf f2 ef be 7f 7d 95 bd
       0.12828353 0.14001727 -0.46864888 -0.07299327
000220 c4 be 27 3e c1 4a 20 be 0d c0 0f 3e e8 57 7e be
       0.16381365 -0.15653516 0.14038105 -0.24838221
000230 58 91 c8 3d 2f 9e 65 3e 26 46 d3 bd dc 41 d8 be
       0.09793347 0.22423624 -0.10316114 -0.42237747
000240 60 9d 32 be 1e a1 a7 be b4 ab ea be 41 23 a3 bc
       -0.17442846 -0.3274011 -0.45834124 -0.019914271
000250 12 9f 86 bd 8d 58 ac 3e 7e 1b 0f bc 15 34 12 3e
       -0.06573309 0.3366131 -0.008734582 0.1427768
000260 95 85 73 bd 15 47 80 3d 84 13 85 be 3a 36 78 3e
       -0.059453566 0.06263558 -0.25991452 0.24239436
000270 99 e1 00 be 73 a9 d3 3d 63 a5 fd 3e 41 91 18 bd
       -0.12586059 0.10335054 0.49540243 -0.0372479
000280 27 ac 85 3c 44 da a6 3e 77 2e 06 3f 60 72 0e be
       0.01631744 0.32588398 0.5241465 -0.13910818
000290 82 5c 63 be 01 ce 92 be 9f b7 39 3c 0b 43 1c 3e
       -0.22203258 -0.28672794 0.011335283 0.1525995
0002a0 68 99 ec be d5 5d 37 bd e2 ac 8c 3d bf dc e9 3d
       -0.4621079 -0.04476722 0.06868912 0.11419057
0002b0 97 75 48 be 64 33 81 be 6a f5 70 3e fa a6 23 3c
       -0.19576107 -0.2523452 0.23531118 0.009988541
0002c0 4b 11 0e 3e 0f a0 47 3e 93 dd 92 bc 02 ee 13 bf
       0.13873784 0.19494651 -0.01792792 -0.57785046
0002d0 bb 24 3c be e6 2a 51 bb 81 e6 b3 3e 48 fe 0e 3d
       -0.18373387 -0.0031916439 0.35136798 0.03491047
0002e0 73 5c a2 3e 1a 35 ea 3c 3e e6 80 3e af f5 a2 3e
       0.31711158 0.028589774 0.2517566 0.31828067
0002f0 d7 c6 38 be a9 ca bf bd d6 df 13 be 5d bb c6 3d
       -0.18044601 -0.09364826 -0.14440855 0.097037055
000300 ac 83 91 bc 99 94 e8 3e 1f 57 a6 3d 20 53 e6 bd
       -0.017762981 0.4542587 0.08122086 -0.112463236
000310 a6 a5 69 be 37 1e 43 3e 81 d5 4b bc d2 23 f5 3d
       -0.22817096 0.19054495 -0.01244104 0.11969723
000320 06 27 99 bd 2a 9c 45 be 18 fe 0c 3e 7c 0d 34 3d
       -0.07478146 -0.19297853 0.13768804 0.043958172
000330 26 49 89 be ea 9f 88 3e ad cd 7a 3e 56 47 1f 3e
       -0.2681362 0.26684505 0.24492522 0.15554556
000340 ad a2 2e 3e 37 57 6c be 3b 46 16 3e 07 ef 37 be
       0.17054243 -0.23080145 0.14675228 -0.17962275
000350 ff 12 c5 bd 65 ba bd bc 93 fe 64 3e bb 6e ea bc
       -0.09622764 -0.023160169 0.22362737 -0.028617254
000360 33 52 ea bd ef 9e f4 3d 0d ad ad be 23 c5 04 3e
       -0.114414595 0.11944377 -0.3392109 0.12965827
000370 cc 35 ff bd 6a f1 6a be fa 3a 99 3d 4f e8 4a 3d
       -0.12461433 -0.22943655 0.07481952 0.049537953
000380 a5 20 6b be a9 a1 d8 3d 7d 8c 21 3e 3b f5 c7 3c
       -0.22961672 0.10577709 0.15776248 0.024408927
000390 7a f2 e7 3d 41 e0 b8 bd e6 39 9d bd 81 3c dd 3d
       0.113255456 -0.09027148 -0.07677059 0.10802556
0003a0 8a b8 19 be 42 bb 01 bc d6 a6 9c be 1c 22 99 bd
       -0.15011802 -0.007918181 -0.30596036 -0.07477209
0003b0 7a ab dc bd ea 7c 2e be 45 75 36 bd 61 72 d2 bd
       -0.10774894 -0.17039838 -0.04454543 -0.10275722
0003c0 86 65 57 3e 88 af e5 bc 9d e0 a6 3d f0 9f 90 3d
       0.21034822 -0.028037801 0.0814831 0.07061756
0003d0 31 6b 21 be c4 ff 8d 3e d0 ab a0 3d f4 66 b1 3b
       -0.15763547 0.27734196 0.07845271 0.0054138843
0003e0 ff 91 08 3e 42 0b e1 3d 55 6d 19 be a2 ad 4d 3e
       0.13336943 0.109884754 -0.14983113 0.20085767
0003f0 fb 7f 73 be 64 89 3f 3e 4d 5d 87 bd 9f 2a 83 be
       -0.2377929 0.18704754 -0.066095926 -0.25618455

bias f4 [128]
000000 49 50 7b be 02 98 79 bd 8b 5f e5 3d ba 4a 13 be
       -0.24542345 -0.06093598 0.11199864 -0.14383975
000010 9b fb 8e be 7f 72 4a be 10 f4 f2 3c 3f 11 35 be
       -0.27926335 -0.1977024 0.029657394 -0.1768236
000020 2f b7 fe bd 42 85 1b 3e 8b 5a 96 3d ad 24 82 be
       -0.12437283 0.15187553 0.073414885 -0.25418606
000030 f1 ed 52 bd 47 2a 13 be fc f8 1a 3e 56 03 8c 3d
       -0.05149645 -0.14371596 0.15134043 0.06836574
000040 10 fe 3e 3e bc 5a cf bd a2 67 14 be 06 59 04 3e
       0.18651605 -0.10124728 -0.14492658 0.12924585
000050 fb cf 55 be a9 d7 cc 3d 19 b7 32 3e 5e 80 3e 3d
       -0.2088012 0.100020714 0.17452659 0.04650914
000060 8e c4 54 be c4 b7 75 3e 79 a3 47 3d a9 7f 80 3d
       -0.20778105 0.23995882 0.048739884 0.06274349
000070 7b 95 b3 bd e5 64 57 3e 4a f8 04 bd 99 6c 30 3e
       -0.087687455 0.21034582 -0.03246335 0.17228927
000080 1d 76 b9 3d 47 dd 80 be d1 ff 3b be 84 02 57 3e
       0.090557314 -0.2516882 -0.18359305 0.20997053
000090 ee 78 9f 3e 76 b5 57 be ec ab 2c be 6b ec 3c 3c
       0.3114695 -0.21065316 -0.16862458 0.011530976
0000a0 dc 63 af bd 21 81 35 be 91 02 d3 3d 0b a6 8e 3c
       -0.085639685 -0.1772504 0.10303224 0.01741316
0000b0 bd c2 89 be 13 63 ae 3e e6 2f 13 3d 69 41 2e bd
       -0.26906386 0.34059963 0.03593435 -0.04254285
0000c0 4d bc 25 3e 05 e9 67 3c 63 09 40 be 2c 6b 66 3e
       0.16185112 0.014154677 -0.18753581 0.2250182
0000d0 0f b5 4a 3d c7 3e 5e 3e 5b 45 bb 3c 62 32 17 be
       0.049489077 0.21703635 0.02286022 -0.14765313
0000e0 16 3a 88 bc 01 f7 52 3d b2 7a 03 3e 80 3e dc 3d
       -0.01662926 0.051505093 0.12839773 0.107541084
0000f0 e1 0e 40 3e df 89 79 be 63 f2 06 be be b2 89 3d
       0.18755676 -0.24369 -0.131784 0.067235455
000100 49 f7 bf 3d 28 79 4f 3e f6 96 23 bd ac 81 1f 3e
       0.09373338 0.20261061 -0.03993889 0.1557681
000110 1b 54 95 be 2b 85 a6 3d d5 76 fb 3d ff 2d 85 3e
       -0.2916573 0.081308685 0.12278525 0.26011655
000120 59 fc 8c bd 9b 0f 55 be f5 80 2d bd 1f d7 be bd
       -0.06884069 -0.20806734 -0.04235931 -0.09318375
000130 c5 b8 86 be b6 c5 78 3e 74 b8 71 bd 3b c4 6d be
       -0.26312843 0.2429417 -0.0590138 -0.23219387
000140 11 c2 3c 3e eb e9 5b 3e f3 52 04 3d 2f 7a 0f 3e
       0.18433405 0.21475951 0.03230567 0.14011453
000150 1c 7a 8c 3c 89 4f 94 bd 74 ab e7 3c e3 ec 65 3e
       0.01714807 -0.072417326 0.028279997 0.22453646
000160 02 5d 3f bc c3 32 bf bd 6a 42 8a be 03 d3 59 3e
       -0.01167989 -0.09335854 -0.27003795 0.21271901
000170 aa e3 6a 3e 1a 59 71 be 8d 8f aa 3c 47 4c 07 be
       0.2293841 -0.23569146 0.020820403 -0.13212691
000180 58 e7 ce 3d e4 0c 93 3d ad 95 85 bb 6f 40 54 3b
       0.10102719 0.07180193 -0.0040766806 0.0032387038
000190 b0 26 50 3d 1b 5a 77 3e d6 c8 24 3e d8 0b 1f 3e
       0.050818145 0.24155466 0.16092238 0.15531862
0001a0 2d 38 02 be 83 3f 43 3e 93 20 35 be e2 c3 b8 be
       -0.12716742 0.19067197 -0.17688207 -0.36086947
0001b0 71 5c 4d be 17 cd 25 3e 73 51 52 3e 08 22 c7 bd
       -0.20054795 0.16191517 0.20538883 -0.09723288
0001c0 18 23 3e be b9 65 47 be 53 ed 24 3e c2 40 90 be
       -0.18568075 -0.19472398 0.16106157 -0.28174406
0001d0 f5 03 18 be d1 7c e3 bd d0 82 0c be 8e 0f 0d 3d
       -0.1484526 -0.11107791 -0.13721776 0.034438662
0001e0 73 f4 88 3d 03 aa 3d 3e f5 53 63 be 24 e7 85 bc
       0.0668725 0.18521886 -0.22199996 -0.016345568
0001f0 73 b1 36 be b1 8e 78 bd 74 0f 46 3e bb 6c a2 3e
       -0.17841129 -0.060682956 0.19341832 0.3172358

weight f4 [256, 128]
000000 1f 19 41 3c bf 24 17 3d 3d d1 f5 bc 86 d8 eb bc
       0.0117857745 0.03690028 -0.030007 -0.02878977
000010 5a 99 dd bd 5b d0 2e bd ef 54 a0 3c fe 9d e1 3d
       -0.10820265 -0.042679172 0.01957175 0.11016463
000020 58 f2 84 3d 6d b7 d4 3c 58 f9 6b 3d 82 ad d8 bd
       0.06491536 0.02596637 0.05761084 -0.10579969
000030 89 d1 5b 3d a8 bd 47 bb 8e 9e 3c bc e2 2e 55 bd
       0.053666625 -0.0030478034 -0.011512412 -0.052046664
000040 63 42 f0 bc 3b 22 42 bd 5c d1 d7 bc 97 66 d7 3d
       -0.02932853 -0.047395926 -0.026344948 0.10517614
000050 b5 b9 40 bc a8 7d f4 3c 27 2a 10 3d 64 26 9e 3d
       -0.011763026 0.029845074 0.03519645 0.07722166
000060 a9 22 43 3c e9 4e 99 3d 62 de 29 bd 34 32 80 3d
       0.011910119 0.07485754 -0.041471846 0.062595755
000070 e1 d4 96 3d 72 2d cd bc 2d 27 fa bd 66 b8 59 be
       0.07364822 -0.025046084 -0.122145034 -0.21261749
000080 c4 fa a2 3c 39 2e e8 bc 08 fe 27 bd 5d 96 76 bd
       0.019894965 -0.028342353 -0.041013747 -0.06020199
000090 50 2f af 3d 23 d0 a6 bc a5 ad b4 bd c0 9d 46 bd
       0.08553946 -0.02036292 -0.088221826 -0.048490286
0000a0 f7 5c 18 3d 9d 84 9e 3d 98 6a d6 3d 4a 48 30 3c
       0.037198033 0.07740138 0.1046955 0.010759423
0000b0 e8 9e 82 bd c6 f9 2a bd 32 f3 65 bd 0d dc 1a bd
       -0.06377965 -0.04174211 -0.056140132 -0.037807513
0000c0 de 48 54 bd aa ec 8e 3d 83 b8 a2 3d 53 c7 36 3c
       -0.051827304 0.06978734 0.07945349 0.011155921
0000d0 81 0e 84 bd 6e 5f b0 3c 36 5e 68 3c 9b 4b 91 3c
       -0.06448079 0.02152988 0.014182618 0.017736247
0000e0 b4 a0 30 bc ff 5e 48 bd 82 52 4a 3d fa c5 19 3d
       -0.010780502 -0.04891872 0.04939509 0.03754232
0000f0 d4 fd 05 3d b8 e0 c6 bb 73 05 93 3d 99 5a 86 bd
       0.032712772 -0.006069269 0.07178774 -0.06560249
000100 18 23 de bd ee d2 9a 3d 26 3a 69 3d a1 f3 32 3d
       -0.10846537 0.07559763 0.05694022 0.043689374
000110 ef a8 c9 3c 65 18 6b 3d 24 90 53 bb 30 ff f7 bc
       0.024616687 0.05739631 -0.003228196 -0.03027305
000120 47 e8 f1 bb 02 37 92 bd 53 b4 02 3e e2 af 07 bc
       -0.007382426 -0.07139398 0.127641 -0.00828168
000130 be cb 91 bd 2f 8f f2 bd be 37 df bb ba c5 a9 3c
       -0.07118939 -0.11843716 -0.006812065 0.020724166
000140 8f 6c a2 bd 3e d8 d5 3c c1 28 92 bb cc 29 1c bd
       -0.07930862 0.026104089 -0.0044604247 -0.038125798
000150 ba 6c 03 3d 90 6a d9 bc 60 69 6a 3d 55 e4 9d 3c
       0.03208611 -0.02654007 0.0572294 0.019273916
000160 3e 54 91 3d 3c f4 30 bd 5c 10 81 3d 1a 73 3f 3d
       0.07096146 -0.04320167 0.063019484 0.04674063
000170 71 01 4b bd 74 2c 5c 3d 18 69 cb bd 30 f1 ea 3c
       -0.04956192 0.05375333 -0.099321544 0.02867946
000180 bc 17 12 3c 90 e7 21 3d 9d b7 da bd 1e 96 b5 3d
       0.0089167915 0.039527476 -0.10679553 0.08866523
000190 81 a5 3d bd 05 f0 e3 bc 95 d8 e0 3d b5 31 09 3d
       -0.046300415 -0.027824411 0.1097881 0.03349467
0001a0 08 f5 50 bd ba fb ea bd a0 54 9c 3c 59 b9 4c bd
       -0.05101493 -0.11473794 0.019083321 -0.04998145
0001b0 f6 8a 21 be 4a 60 90 3d 57 57 ce bc 7d 90 2b be
       -0.15775666 0.07049616 -0.025188131 -0.16754337
0001c0 56 c5 b1 bb ff b9 68 bd d6 79 a0 3d 23 a7 62 bd
       -0.0054251356 -0.056818005 0.07835738 -0.055335175
0001d0 b4 d4 af bd 46 4c 0c 3d dd 9e 5f 3d be e4 87 bd
       -0.08585492 0.034252428 0.054594863 -0.06635426
0001e0 af dd 2a 3d 27 84 9b 3d 9e 3a 23 3e 55 c8 b8 3d
       0.04171532 0.075935654 0.1594033 0.09022585
0001f0 16 07 8b 3c e0 1b 62 bd 40 49 b1 3d 57 ec 7a bd
       0.016971152 -0.055202365 0.086565495 -0.061260547
000200 1e 3c ab bc 78 2b ff 3c 8a ba 48 bd 39 64 15 3d
       -0.02090269 0.031148657 -0.049006023 0.036472533
000210 81 10 6f bd 74 7d 4e 3d ff 90 8e 3d 40 b4 e4 bb
       -0.05836535 0.05041261 0.069612496 -0.0069794953
000220 59 e1 77 3d 13 4d 86 3d d0 3d 79 3d e9 1b 11 bd
       0.060517643 0.065576695 0.060849965 -0.035427008
000230 c4 48 57 bd 0a 0a 12 3d ca f4 09 3d a3 c4 5b bd
       -0.05255963 0.035654105 0.033680715 -0.053654324
000240 74 4c ae bd af e7 a2 bd ca 33 55 3d 45 d3 82 bd
       -0.08510676 -0.079543464 0.052051343 -0.06387953
000250 09 31 8c 3c 4f f5 cc bc 0d 78 ca 3d a6 8a 8f 3c
       0.017113226 -0.025019316 0.09886179 0.017522167
000260 56 69 6f bd 3d 3e 95 3c dd 78 99 3d 1f 53 bf 3c
       -0.058450066 0.018218154 0.07493756 0.023355065
000270 29 e1 4e bd f9 23 ac bb b3 00 df bd 45 e7 6b bd
       -0.0505077 -0.0052533117 -0.10888805 -0.057593603
000280 55 43 9f bc 15 13 6c 3c ff 68 0e 3c eb b3 ae 3d
       -0.019441286 0.014408846 0.008692025 0.085304104
000290 70 8c 57 3e 65 91 db bd 23 d4 04 bc 00 0b 91 3d
       0.21049666 -0.10721091 -0.008107218 0.07082176
0002a0 4b f3 fb 3d 44 a6 78 bd 49 6e 9e bc e6 a5 5b 3d
       0.12302264 -0.06070544 -0.019339697 0.05362501
0002b0 75 2b 38 3d 92 47 46 3d 02 f6 e1 bc e0 1b a6 3c
       0.04496332 0.0484081 -0.027583126 0.020276964
0002c0 7c 2f c6 3d b6 c2 ba 3c b0 6a c8 3c 88 03 a2 bd
       0.09677026 0.022797924 0.024464935 -0.0791083
0002d0 2a 54 1a 3d 21 41 82 3d 59 4c 92 3d 1b 71 2b bd
       0.03767792 0.063600786 0.071434684 -0.041855913
0002e0 5e 52 77 3d 05 3f 7a 3d e5 0a 94 bd d6 46 d4 3d
       0.060381286 0.061095256 -0.072286405 0.103650734
0002f0 71 bd b2 3c 4e ac 6a 3d 82 4e cc 3c d2 05 06 3d
       0.021818848 0.05729323 0.02493978 0.032720394
000300 22 a0 12 bd 8e 8e 64 3e 1f 35 7b 3d 73 87 45 bd
       -0.035797246 0.22320005 0.061329957 -0.048224878
000310 80 a5 ac bd a1 ee a9 3d a5 63 b5 3c fb b0 9c bc
       -0.08430004 0.08297468 0.02214224 -0.01912736
000320 ec c4 d4 bc 96 0d bc 3c 0b 47 49 3e 1b 1a 36 3d
       -0.025972806 0.022955697 0.19656007 0.04445849
000330 03 8b a3 bd 9c e4 af bc 3b cb 83 bd 57 79 cb 3d
       -0.07985499 -0.021471314 -0.064352475 0.09935253
000340 db f0 ff bc 7c 9d c6 bc 27 d0 0a bb 07 fe cd 3c
       -0.031242779 -0.024245016 -0.0021181197 0.025145544
000350 86 f5 87 3d 33 fd 3a 3d 6e 49 09 3e 79 c8 cc 3d
       0.06638627 0.045651626 0.13406917 0.099991746
000360 07 8b 48 bd 8e 8c 80 bd 9b 6d bd bd 1c ff 9b 3d
       -0.04896071 -0.06276809 -0.09249421 0.076170176
000370 e0 2a ba 3d 82 9d c0 bd a1 3a b9 bd 56 72 f2 3b
       0.09090209 -0.09405042 -0.09044386 0.007398884
000380 7c f4 70 bd 53 af c0 bd ed ed d9 3c 94 97 8f 3d
       -0.05882691 -0.094084404 0.02660271 0.07011333
000390 91 e2 8b 3d 5b dc 1d 3d c7 47 c0 3c 31 b7 4b bc
       0.068303235 0.038540225 0.023471726 -0.012433813
0003a0 78 71 31 be 83 aa 8b 3d f3 a8 00 3e e4 57 da 3a
       -0.17328441 0.06819632 0.12564449 0.0016658274
0003b0 a8 29 0c be 31 eb 93 bd 03 a3 88 bc b5 b7 a8 bd
       -0.13687766 -0.072225936 -0.016679293 -0.08238164
0003c0 8a a7 03 bb 64 c7 96 bd c8 78 49 3d 80 ba 28 bc
       -0.0020088875 -0.073622495 0.04918745 -0.010298371
0003d0 2b 9d 04 bd 0d 7d 2b 3d 30 18 4b 3d ab d2 43 bb
       -0.03237645 0.041867305 0.049583614 -0.0029880207
0003e0 20 95 a7 3d 3a 22 2a 3c 81 79 24 3e bc 2d 04 3d
       0.0818274 0.010384137 0.16061975 0.03227018
0003f0 cd f7 7a bd 6f 14 93 bc a4 a1 93 bd e7 6e f4 3b
       -0.061271477 -0.01795408 -0.07208565 0.0074595097

bias f4 [256]
000000 6d b5 07 bd e7 8e 46 bd 80 7c 39 bc 6a 55 0b 3d
       -0.033132005 -0.048476126 -0.011321187 0.034017004
000010 d6 e6 0d bd a4 d8 bd bd 57 d4 c9 3a fd c1 8c bc
       -0.03464397 -0.092698365 0.0015398365 -0.017182345
000020 ff 48 16 bd 27 96 a8 bd 15 af 8c bd 9c e5 6c bd
       -0.03669071 -0.08231764 -0.06869332 -0.05783616
000030 de da 8d bd 90 4d 40 3d 72 90 45 3c 9f 6d ea bc
       -0.06926511 0.04694897 0.012058364 -0.028616725
000040 4c 27 96 3d 6e 7a d3 bd 22 1c 8f 3d 40 a4 5a bd
       0.07331714 -0.10326086 0.06987788 -0.053379297
000050 f4 df 29 bc 35 75 00 bd b6 99 81 bd 52 ea 8b bb
       -0.010368336 -0.031361777 -0.06328146 -0.0042698765
000060 b2 15 56 3d f9 0c d1 bd 2f 85 67 bd 2a 10 d6 3c
       0.052266784 -0.102075525 -0.0565235 0.026130755
000070 b5 97 f0 bc 1d b1 a9 bd 40 60 72 3d fe a5 95 bd
       -0.029369215 -0.08285735 0.059173822 -0.07307051
000080 49 05 37 3d 21 11 01 bd c9 62 26 3d 3e 63 f9 bc
       0.044682775 -0.031510476 0.040621553 -0.03044283
000090 2d 3e 8d 3d ac 80 a7 bc 00 9a cc bd 9c 7c b9 bd
       0.06896625 -0.020447098 -0.09990311 -0.090569705
0000a0 a9 a1 01 bd f2 10 a2 39 04 f9 c0 bd b2 ff d7 bd
       -0.03164831 0.00030911673 -0.09422496 -0.10546817
0000b0 13 a9 05 bd e7 4e 8d bd 57 ba 3e 3d 51 b3 12 be
       -0.032631945 -0.06899815 0.046564426 -0.14326216
0000c0 a8 fb e6 bc 0f 50 25 3d 86 5d db bd 5d ee e3 bc
       -0.02819617 0.040359553 -0.107111976 -0.027823621
0000d0 42 aa 71 bd a8 fb b8 3a 2f df 03 bd e0 30 e1 3d
       -0.05900026 0.0014113085 -0.032195266 0.1099565
0000e0 ac 53 b3 3d 2b 0e 85 bd 0f d7 3d bd 1a 5a 4c 3d
       0.087561935 -0.06496843 -0.046347674 0.049890615
0000f0 52 55 11 bc f2 fd 0d 3d d9 fd aa bd 8a b7 82 3c
       -0.00887044 0.03466601 -0.08349199 0.015956659
000100 33 f1 a7 3d 38 67 0d 3d 9d 17 e7 bd b2 55 ea 3c
       0.08200302 0.034522265 -0.11283801 0.028605316
000110 ee e3 7d bd 48 fc 34 bd 60 00 4c bd c3 06 51 bd
       -0.06198495 -0.044185907 -0.049805045 -0.05103184
000120 fd c4 77 bd c0 1a 9d bd 9d 6d 91 bc 79 b6 63 bd
       -0.060490597 -0.07671118 -0.017752463 -0.05559394
000130 09 f7 e6 bd 3d 72 90 bc 1f b5 d5 3d 85 0c 41 3d
       -0.11277587 -0.017632598 0.10434937 0.04713108
000140 4c 48 9f 3b fb a9 66 bc 55 1e 10 be e6 f6 c9 bd
       0.0048609134 -0.014078612 -0.14074071 -0.09861545
000150 62 0d 80 bc bc f3 eb 3d 26 7f be bc a9 0c 83 bb
       -0.015631381 0.11521098 -0.023253988 -0.003999312
000160 ba 36 a8 3c f2 f3 e3 bd 38 02 32 3c f2 f5 bb 3c
       0.020533908 -0.11130513 0.010864787 0.022944424
000170 d1 a3 5d bd c0 2f 93 3d 8e a1 10 3d d1 76 13 be
       -0.054111306 0.07186842 0.03531032 -0.14400794
000180 ff 1c ce bb a6 ac 52 bd 94 34 7c bd 93 5f 89 3d
       -0.0062900777 -0.05143418 -0.06157358 0.067076825
000190 8a f7 12 3d d9 2c 26 3d 64 3e 5b 3c a3 74 09 bd
       0.035880603 0.040570114 0.013381574 -0.0335585
0001a0 80 ae 13 be 8f 54 5d bd 9f f0 91 bb 28 5e b2 bc
       -0.14422035 -0.05403572 -0.004453733 -0.021773413
0001b0 3a 9f eb bd 56 72 a1 bd c7 8c 86 3d 11 21 f4 3d
       -0.115049794 -0.07883136 0.0656982 0.119203694
0001c0 a7 ed 91 bb d9 fb 4e 3d 18 71 e8 3d 7a 10 cd 3d
       -0.004453379 0.05053315 0.11349696 0.10012908
0001d0 1e a5 18 be cd 4e b4 3d 7f 6b 12 3c d3 ec 1f 3d
       -0.14906737 0.088040926 0.008936762 0.039044213
0001e0 38 51 9b 3b 6e 49 2a 3c 31 3a 8a bd 0a 44 30 bd
       0.0047399066 0.010393484 -0.067493804 -0.043033637
0001f0 67 ec 97 bd 13 95 2b bc 02 81 66 bd cd 2e 23 bd
       -0.07418137 -0.010472554 -0.056275375 -0.039839555
000200 d2 7e 8e 3d 43 a8 89 ba b0 fd 16 3b 5f b2 8e bc
       0.06957783 -0.0010502416 0.0023039393 -0.017419038
000210 0e 47 3f bd dc 49 cf 3b 67 e3 de bc 22 51 71 3d
       -0.046698622 0.0063259434 -0.027208043 0.058915265
000220 e3 cb f2 3d a2 3c 3a 3c 52 69 da bc 6d 0f c7 bc
       0.118552946 0.011366995 -0.026661549 -0.024299348
000230 3f 80 11 3b 21 61 d2 bc 4d 01 5c bd 01 e9 3e bd
       0.0022201685 -0.02568108 -0.053712178 -0.04660893
000240 3e eb 33 3d 73 3c d2 3d 06 75 cf 3d c9 3f 6e 3c
       0.043925516 0.10265436 0.10129742 0.014541575
000250 4d 13 c5 3d a8 73 2b bd ba e3 b9 bd 5e f5 c6 bc
       0.09622822 -0.041858345 -0.090766385 -0.024286922
000260 a5 70 97 3d 7a 7b 0c 3e d1 b1 a8 bc 01 3f 35 bc
       0.07394532 0.13718978 -0.020592602 -0.011062385
000270 79 c8 8e bc 05 86 24 3d 1b cf d3 bd 8e 07 3e 3d
       -0.017429577 0.040166873 -0.103422366 0.046393923
000280 0e 7f ee bd c1 6e 11 bd 09 47 10 3d 14 d7 55 bd
       -0.116453275 -0.035506014 0.035223994 -0.052207068
000290 19 71 b5 3d d5 59 80 bd 58 62 9a bd 72 11 93 bc
       0.08859462 -0.06267134 -0.07538289 -0.017952655
0002a0 60 96 7d 3a 6a 9e b3 3d ac 86 be bc b5 1d 2b bc
       0.00096735917 0.087704495 -0.023257576 -0.010444094
0002b0 ea 13 f1 bb ec e4 ea 3d ed e7 3d bb ab 6c 5b bd
       -0.0073571103 0.11469445 -0.002897735 -0.05357043
0002c0 5b ca 30 3c 07 bb 52 3d 57 01 40 3d 04 26 1c be
       0.010790433 0.051447894 0.046876278 -0.15248877
0002d0 a4 4f b9 3d cb 9d ba 3d 8c c1 83 bd 07 7d 97 3d
       0.09048393 0.09112128 -0.064334005 0.07396894
0002e0 e1 a7 0e bd f3 b3 52 bd af d7 bf 3d 98 f1 ac bd
       -0.03482807 -0.051441144 0.0936731 -0.08444518
0002f0 e0 44 bf 3c 7a 26 af bd 38 01 82 bd f9 1b 16 bb
       0.023348272 -0.08552261 -0.06347889 -0.0022904857
000300 d7 8d 9f 3d e0 1a da 3a bf ce 94 bd 3a 37 4e 3d
       0.07790726 0.001664009 -0.07265996 0.050345637
000310 94 a3 b6 bc c8 9d 18 3d 37 7e 9c 3d bd 6d 26 bd
       -0.022294797 0.037259847 0.07641261 -0.040632
000320 53 ea e7 3d 03 c8 40 be 99 1b 27 3d 05 2a cf bd
       0.11323991 -0.18826298 0.040797804 -0.101154365
000330 77 44 88 3d c6 51 e3 3c 28 05 80 3c ef 4d aa bd
       0.06653684 0.027748954 0.015627459 -0.08315646
000340 19 60 47 3d 29 27 2d bd 60 3d 79 3d 10 86 4e bd
       0.04867563 -0.042273674 0.060849547 -0.05042082
000350 77 95 80 bd 2c da c2 3d 8f 41 e0 3c 43 64 90 bd
       -0.06278508 0.09514269 0.02737501 -0.070503734
000360 df 26 8d bc 18 6b 52 3d 3f 38 cb 3d 6f e3 bd ba
       -0.01723045 0.051371664 0.099228375 -0.0014487336
000370 6a 3c 4c bd 51 92 b7 bd 8a 1e 86 3c 6c 52 d1 3c
       -0.049862303 -0.089634545 0.016371984 0.025551997
000380 e9 1c 84 3d 66 3b 4c 3d ab 8a f6 3d 64 57 c0 bd
       0.06450827 0.049861334 0.120381676 -0.093916684
000390 ae ef 89 bd 26 5f 07 bd 9e be 5a 3d 19 d9 3a bc
       -0.067351684 -0.033049725 0.053404443 -0.011404299
0003a0 75 ce a5 bc 92 b9 91 bd 4e d1 8e bd 5f 65 66 3d
       -0.020240048 -0.07115473 -0.069735155 0.05624902
0003b0 a1 c3 aa 3d 10 b5 84 bd 18 42 de 3c 11 98 21 bd
       0.083380945 -0.064798474 0.027131125 -0.039451662
0003c0 a9 b1 40 bc de a7 f3 3d 64 db f3 bc 47 e1 b9 3c
       -0.0117611075 0.118972525 -0.0297677 0.022690428
0003d0 ea 81 61 3d 30 39 ed bd ab d8 ae 3d 39 5f 50 bd
       0.055055536 -0.11583173 0.0853742 -0.05087206
0003e0 a6 72 4f bd 17 4e 92 3d 31 04 d7 3d ae 1c 8b 3d
       -0.050646447 0.07143801 0.10498846 0.067925796
0003f0 1f 6b 86 bd 36 d9 bb bd 66 ec b2 bd 1d 53 c6 3b
       -0.065634005 -0.09172289 -0.08736496 0.0060523883

weight f4 [512, 256]
000000 ff 5e 32 bc 6e 0e 8c bc 9a 50 7f bb 32 89 83 3d
       -0.010886907 -0.017096724 -0.0038957954 0.06422652
000010 18 5f aa bb bf 6b 51 bd 49 6f 08 3d 29 b9 b3 bc
       -0.0051993243 -0.051128145 0.033309255 -0.021938877
000020 c4 54 35 3a 88 8e fe 3c 51 ce ba bd 31 c9 cb bc
       0.0006917233 0.031073824 -0.09121383 -0.024876209
000030 45 57 82 bd 00 27 4a bd 23 12 01 3d 7f 7b 85 bb
       -0.063643016 -0.0493536 0.031511437 -0.00407356
000040 bc e7 80 bc 11 d2 84 3d 23 5a a8 bd 3f ca 77 bd
       -0.0157355 0.064853795 -0.08220317 -0.06049561
000050 76 c3 2b 3d 6a b2 e4 3c 67 2f 38 bd 54 49 c7 3c
       0.041934453 0.027917106 -0.04496708 0.024326958
000060 cf 89 32 bd 9d 93 4c bb da 67 51 3c 5a df 6b 3d
       -0.043588456 -0.0031215914 0.012781108 0.05758605
000070 f7 32 e7 39 8c ea be bc a9 b2 3f bd d4 2d 17 bd
       0.00044097725 -0.0233052 -0.046801243 -0.03690894
000080 19 2c 20 bd bc ae 24 bd e4 f9 c5 3c e1 98 d1 3c
       -0.039104555 -0.040205702 0.024167009 0.025585594
000090 12 a7 a0 bd 20 c5 ac 3c 59 2d 14 bc 1e 49 7b bd
       -0.07844366 0.02109009 -0.009044015 -0.061349027
0000a0 6b bc 5e 3d c8 d4 47 bd 01 0f b2 bc c9 0b 2c bd
       0.054378908 -0.04878691 -0.02173567 -0.042003427
0000b0 55 9f 88 3b 18 f3 ce bb 7b 0c 19 3c e5 72 dc 3c
       0.0041693845 -0.0063156 0.0093413545 0.026910255
0000c0 78 4a 3b bd 35 b6 8b 3c 29 8d 9f 3d b8 f7 9b 3d
       -0.045725316 0.017054657 0.07790596 0.07615608
0000d0 2a 9b 71 3c ec f8 84 bb 40 5b c1 3c 0c ad 5a 3d
       0.014746467 -0.004057994 0.023603082 0.053387687
0000e0 11 88 82 bd f7 65 c6 3c d2 d3 83 3c df 31 ef bc
       -0.06373609 0.024218543 0.016092215 -0.029198585
0000f0 b5 7b a4 3d 4a a5 d3 bc ed ea bf 3c d1 32 ae 3d
       0.08031408 -0.025835652 0.023427451 0.08505786
000100 f1 2c 9b bc ca 8a b2 3d ca 5f 9b bb 34 aa 3b 3c
       -0.018942328 0.08717878 -0.0047416436 0.011454154
000110 0e cd a6 bb 5f 10 94 bd 22 c9 ff bc 16 68 70 3d
       -0.0050903624 -0.07229685 -0.031223837 0.058693014
000120 5b 04 76 bd 84 77 4c bd fb a3 3e bd dd 77 80 3d
       -0.060062747 -0.049918666 -0.046543103 0.06272862
000130 33 26 a0 3c ad df 97 3d a5 e9 fa 3c cd 66 45 bd
       0.019549465 0.0741571 0.030628989 -0.04819374
000140 f4 2b d7 bc 62 db 7b bd 16 7d e7 3a 1d f6 5f bc
       -0.026266076 -0.061488517 0.001766118 -0.013669518
000150 cf d3 20 3d 97 21 22 3b 64 e6 16 bc a1 32 50 3d
       0.039264496 0.002473926 -0.009210203 0.050829533
000160 92 b9 dc bc 29 57 66 3d db 63 25 bc d9 ed bb 3c
       -0.026943956 0.056235466 -0.010094608 0.022940563
000170 9b b6 69 bd 88 a0 05 bd 0d 5e af bc 3b 89 28 bd
       -0.05705891 -0.032623798 -0.021407152 -0.0411465
000180 45 84 4f 3d 49 8f d6 bc c6 5d 97 bd 92 b7 49 bd
       0.05066325 -0.02619137 -0.07390933 -0.049247332
000190 56 d6 80 3d 02 63 0b 3d 8e 39 0a 3d 10 59 81 bd
       0.06290881 0.034029968 0.033746295 -0.063158154
0001a0 10 59 6b 3d 4f 21 b1 bc d2 0b 78 bd 4e c3 0f 3c
       0.057457983 -0.021622328 -0.060558148 0.008774592
0001b0 21 5c aa bc 91 fc f3 ba b5 0b 0a 3b f2 04 48 bd
       -0.020795884 -0.0018614699 0.0021064107 -0.04883284
0001c0 dc d4 88 3b 99 bb 38 bb 2f f1 24 bb e9 a9 8d bd
       0.0041757654 -0.0028187989 -0.002516817 -0.069171734
0001d0 cc f6 31 3d 5c 2c 9c 3b 7b 07 90 3d ab 0e 8b bb
       0.043448254 0.0047660302 0.07032677 -0.004243692
0001e0 7d 7b ca bc 4e 41 65 3d c4 c9 a7 bd 35 2c 89 bc
       -0.024717087 0.055970483 -0.081927806 -0.016744712
0001f0 98 0c 6b bd 3f e1 0b bc f2 75 09 3c a6 43 21 3d
       -0.057385057 -0.00853759 0.008389937 0.039371155
000200 66 d6 48 3d ce a6 9b bd 8e 5d 32 3d 45 ed bf 3c
       0.04903259 -0.07600175 0.043546252 0.023428569
000210 61 e6 cb bb af b7 57 3d ae 3b 48 bd 27 78 cf 3b
       -0.0062225317 0.05266541 -0.04888504 0.006331462
000220 53 3a 81 3d 48 2e 5e bd 8a 30 38 bd 72 4e 0b bc
       0.063099526 -0.054243356 -0.044968165 -0.00850259
000230 b5 16 da bb 55 0a 14 bd f9 b2 45 3d 23 ae 98 3d
       -0.006655539 -0.036142666 0.048266385 0.07455089
000240 9a c2 d2 3c ed 29 5f 3c 5b c3 35 3d 6c 5e fa bc
       0.025727559 0.013620836 0.04437576 -0.030562602
000250 ce 5b 8c bd c4 d8 d7 bc 7c be d3 bb 7c e0 34 bc
       -0.06853448 -0.02634848 -0.0064619165 -0.011039849
000260 b0 c0 cd bc da 44 10 3c c4 19 4e 3a b2 ec 48 bd
       -0.025116295 0.008805478 0.0007862116 -0.049053855
000270 a1 b9 d0 3d b6 84 69 3d ca 9f 9a 3b 34 8f 6e 3d
       0.10191656 0.05701133 0.0047187554 0.058242038
000280 bd 94 c7 bc c6 ce 89 bc 84 d0 1e bd dd 38 55 bd
       -0.024362916 -0.01682223 -0.038773075 -0.052056182
000290 ed 8d 78 3b 73 87 16 3c 5a 65 08 3d 7c 5b 96 bd
       0.0037926391 0.009187567 0.03329978 -0.07341668
0002a0 f7 e3 66 bc 80 89 8e bd 4e 60 a6 bb 7c 8f 25 bd
       -0.014092437 -0.0695982 -0.0050773984 -0.04042004
0002b0 1b d3 ca 3c ee 25 4c 3b 7e 4e 1f 3d b9 da f6 bc
       0.024758866 0.0031150538 0.038893215 -0.030133592
0002c0 75 bf 11 bd a0 0a 3a bd 2d 32 60 bd be 74 02 bd
       -0.03558298 -0.04542029 -0.05473535 -0.031849615
0002d0 2a b7 30 3d 57 e5 bd 3c 1d f0 ae bd 2b a4 c1 bc
       0.04314343 0.023180647 -0.08541892 -0.023637852
0002e0 33 73 a3 bd 7f 9b ba 3c 05 a9 e1 bc 68 5e 5e bb
       -0.07980957 0.022779224 -0.027546415 -0.0033930782
0002f0 20 5e 2b 3d bd 72 95 3d 77 d1 08 bd ec a5 af bd
       0.04183781 0.07297275 -0.033402886 -0.08576569
000300 bb 2a b0 bd 22 88 d8 bc 46 cc aa 3c f6 d9 b5 3c
       -0.086019 -0.0264321 0.020849358 0.022198658
000310 dc 52 01 3d 9a e5 98 3d 09 d7 cb bc b3 e2 98 bc
       0.03157316 0.07465668 -0.02488281 -0.018662786
000320 d9 6b 25 bc ee 06 c0 3c 44 28 5e 3d 5a d8 c3 3b
       -0.010096514 0.023440804 0.05423762 0.005976719
000330 54 70 0f bd 97 96 2a 3d 26 85 85 bc 2f e1 ed 3c
       -0.035019234 0.04164752 -0.016298842 0.02903804
000340 40 25 17 bd 9a 5d 5b bd 19 1b d4 3c 90 91 80 bd
       -0.03690076 -0.053556062 0.025891827 -0.06277764
000350 28 a4 08 bd 52 61 bc bc f1 d4 e7 bc 89 d2 0c 3d
       -0.033359677 -0.022995625 -0.02829978 0.03438047
000360 13 09 12 bd 2d ba 1d 3d 19 7c 5d 3d 2e 6c fc bb
       -0.035653185 0.03850763 0.054073427 -0.0077033257
000370 0a 30 26 bc 13 75 6c bd e8 d2 3c 3d 50 a0 a4 3d
       -0.010143289 -0.05772884 0.046099573 0.0803839
000380 42 cf 99 3c 5f 6a a6 bc 5e c3 c0 bb ad 5f 90 3d
       0.018775586 -0.020314394 -0.0058826646 0.07049499
000390 3f b5 2f bd c2 d2 cf bc 9c a7 b7 3c 3d 6e cc 3b
       -0.04289746 -0.025369052 0.02241879 0.0062387274
0003a0 a7 a0 4f bb 47 82 9c 3b 0e 87 c2 bd c4 2b f5 3c
       -0.003168145 0.0047762725 -0.09498416 0.029928096
0003b0 1a c3 be bb 63 83 28 bd 13 49 6d 3d 22 35 58 bd
       -0.0058215978 -0.041140925 0.057931017 -0.052785046
0003c0 5e 1d f6 bc 7c c8 a4 bd b2 f6 57 3d a3 9a 88 bd
       -0.0300433 -0.08046052 0.0527255 -0.066701196
0003d0 66 36 3d 3c ea 70 08 3d f0 92 9f 3d aa ef 71 bc
       0.011548614 0.03331081 0.07791698 -0.014766613
0003e0 f4 42 3b 3c da 25 9b 3c 4a 16 19 bd 56 6a 9f 3d
       0.011429537 0.018938947 -0.037374772 0.07783954
0003f0 58 10 4c bd 19 35 b0 3c a7 b4 aa bb 10 37 f5 3c
       -0.049820274 0.021509694 -0.0052095237 0.029933482

bias f4 [512]
000000 3e 93 83 3d cb 78 8b bd 93 a9 4d bd 2f e2 c4 bd
       0.064245686 -0.06810149 -0.050210547 -0.096134536
000010 a3 aa 6a 3c 22 a9 8e 3d d3 18 02 bd d4 84 22 be
       0.0143229095 0.06965853 -0.031761955 -0.15870982
000020 e3 4a 59 bd e2 ff aa bd b1 da cb bd da 58 08 bd
       -0.053049933 -0.08349587 -0.099538215 -0.03328786
000030 88 7b 87 3d d8 7a b0 3c 26 ca 60 3c e4 71 81 bd
       0.066153586 0.021542951 0.013720071 -0.06320551
000040 ed 7f d1 3c e7 85 16 be 80 2c 92 bd 43 9a 45 3d
       0.025573695 -0.14699517 -0.07137394 0.04824282
000050 76 ff 93 bc 06 4c bc bc 05 00 95 3d 96 ea 86 bc
       -0.01806615 -0.02298547 0.07275394 -0.016469281
000060 a8 1a 5d 3d 04 04 c2 bd 7a d3 82 3d c3 23 02 3b
       0.0539805 -0.09473422 0.06387992 0.0019857741
000070 4c 33 68 3d 4b 47 76 bc 3b 29 02 3a 4e e6 2d 3d
       0.056689546 -0.015031646 0.000496525 0.042455964
000080 4e 92 35 3d 79 de 44 bd 1c 44 90 3a ca e5 4a bd
       0.04432898 -0.04806373 0.0011006626 -0.04953555
000090 08 2d cf bc 77 4a e0 bd f4 fa 90 3d 8a 67 54 3c
       -0.025290027 -0.10951703 0.070791155 0.012964139
0000a0 27 79 bc bd 77 68 77 bd 16 10 63 bd 16 63 9f bc
       -0.092027955 -0.06040236 -0.055435263 -0.019456428
0000b0 b2 7b 13 be ff 0e 3c bd 46 0f 69 bc 6b d2 a5 3d
       -0.14402655 -0.04591274 -0.014224833 0.08096775
0000c0 e2 9e 27 bc d1 cc e6 bd 44 9f 05 be 20 06 49 bc
       -0.010230752 -0.112695344 -0.13049036 -0.012269527
0000d0 a8 2c 8d bc 81 03 e4 3c 45 c1 db 3b d7 66 44 bd
       -0.017233208 0.027833702 0.006706389 -0.04794964
0000e0 12 f3 09 3d a1 c8 1f 3d 6d cb 05 3c 76 cf b4 bd
       0.033679076 0.039009694 0.008166176 -0.088286325
0000f0 6e c1 e3 3d e5 d0 78 3c 7b 5c b8 3d cb e0 8d bd
       0.11120878 0.015186523 0.09002014 -0.069276415
000100 6b 37 4c be 58 1a 6e 3d b7 fd 97 3d cf 22 1a 3d
       -0.19943015 0.058130592 0.07421439 0.037630852
000110 3e ad 71 bb a3 a7 81 bb 25 d5 a6 bd ff e5 c5 3d
       -0.0036876942 -0.0039567514 -0.08146123 0.09663009
000120 3b 33 da bd 02 12 fd bd 1b 9a 82 bd 08 61 16 bd
       -0.10654303 -0.1235695 -0.063770495 -0.03671363
000130 6a 4f fd bb b0 c0 cd 3d 04 e9 91 3c e5 5d 39 3d
       -0.007730414 0.10046518 0.017811306 0.04525556
000140 14 3e 10 3e 6b 15 1d be 82 b4 d4 3c a7 99 bc bd
       0.14086181 -0.15340202 0.02596498 -0.09208994
000150 24 6a 8c 3c 82 e7 c4 bd e6 dc 66 bd 3a 70 b8 bb
       0.017140456 -0.09614469 -0.05636301 -0.005628613
000160 ac 00 0b be b1 06 2a bd 8e 26 03 3d 68 b3 9c bd
       -0.13574475 -0.041510288 0.03201919 -0.076514065
000170 16 07 c0 3d 2d 5d df bc e9 3f 8a 3a 84 ea be bc
       0.093763515 -0.02726611 0.0010547611 -0.023305185
000180 b2 6b 02 be 55 b6 86 3d de 6d 15 be f7 d4 e8 3d
       -0.12736395 0.06577746 -0.14592692 0.11368745
000190 e2 37 43 bc f5 34 42 3d f7 30 bf bd 4b 5b 48 3d
       -0.011915179 0.047413785 -0.09335511 0.04891519
0001a0 21 52 a1 3d 56 80 e4 bd 92 bf 95 bb 64 ff 82 3c
       0.07876993 -0.11157291 -0.004569956 0.01599092
0001b0 7b c8 e8 bd 4d 53 ed bb c0 73 31 bd e0 cb 8a 3c
       -0.113663636 -0.0072425962 -0.04332328 0.016942918
0001c0 5a 1b 66 3d 5c fb b6 3a 89 18 d3 3c 3d f0 96 bd
       0.05617843 0.0013960409 0.025768535 -0.073700406
0001d0 ad b9 f9 bd 08 ac 5e 3d 72 89 c2 bd ba b6 24 3d
       -0.12193618 0.05436328 -0.09498872 0.040213324
0001e0 84 78 1b 3d 43 90 47 bc b9 7e 32 bc 46 02 93 bd
       0.03795673 -0.012180391 -0.010894471 -0.07178168
0001f0 81 a6 75 3c a3 20 94 3b da fc 95 3d e3 77 bd bb
       0.014993311 0.004520492 0.07323618 -0.005782114
000200 1e bf 8d 3d 24 16 51 bc a2 69 66 3c 0c 45 90 3d
       0.06921218 -0.012761626 0.014063271 0.0704442
000210 96 5c 64 3d 34 e5 8c bb d0 1b 8f bd c8 94 ad bc
       0.05575236 -0.004299784 -0.06987727 -0.021189108
000220 e3 75 87 bc 51 35 5c bd ab 79 0a bd 77 c7 67 be
       -0.016535705 -0.053761784 -0.033807438 -0.22634684
000230 cc dd 59 3d cb a4 b5 bd 2e 88 d8 bc c6 7e bb bc
       0.053190038 -0.088693224 -0.026432123 -0.022887599
000240 57 db 5e be 95 86 a9 bd ba 72 80 bd fb 31 72 3d
       -0.21763359 -0.082776226 -0.06271882 0.059129696
000250 30 82 0e bd e3 3f c2 bd cd 91 fd bc 30 24 84 3d
       -0.034792125 -0.09484842 -0.030953312 0.06452215
000260 66 f6 0c 3b fe 74 b5 b8 51 20 67 be f1 13 96 bd
       0.002150917 -8.652544e-05 -0.22570921 -0.07328022
000270 48 64 9f bc e8 2f aa bb 5c 7e ea bd c3 c0 bc bc
       -0.019456998 -0.005193699 -0.114498824 -0.023041135
000280 40 8d b3 3c 99 bf ab bd 51 5f 3f 3b f7 e8 4f 3d
       0.02191794 -0.08386154 0.00292011 0.050759282
000290 1a 27 99 3c a4 64 fa bd d1 52 dd 3d f8 be 09 be
       0.018695403 -0.12226227 0.108068116 -0.13451755
0002a0 93 62 1d be d8 60 1e bc ee b0 ac 3d c2 e2 57 3d
       -0.15369634 -0.009666644 0.08432184 0.052706487
0002b0 2d 51 86 3d 5f 98 95 3d 7a b9 7d bd 9a 6c 3d bd
       0.06558452 0.07304453 -0.061944462 -0.04624615
0002c0 da f9 e2 3c bd 5f fd 3c 63 ef 80 bd cb a3 c6 bd
       0.02770703 0.03092944 -0.062956594 -0.0969921
0002d0 a8 32 b5 bd d9 e0 06 bd 83 78 c5 3c 32 55 fb 3d
       -0.088475525 -0.032929275 0.024105316 0.12272109
0002e0 07 1b 84 3d 30 08 cd bd 94 83 c1 3d 07 8e 0d bd
       0.064504676 -0.10011327 0.09448925 -0.034559276
0002f0 06 dd 57 be 36 6b 5b bd e2 38 83 3b d2 de 88 3c
       -0.21080408 -0.05356904 0.0040045837 0.016707812
000300 20 6e 42 bd f3 b5 21 be d4 50 5e bd 67 99 fa bc
       -0.047468305 -0.15792064 -0.054276302 -0.030590726
000310 a4 5d 48 bd 63 57 05 be 95 b3 52 be 57 4f 40 3d
       -0.048917428 -0.13021617 -0.20576318 0.046950664
000320 2b 8c 6c bd d6 58 64 3d e7 22 d2 3d 04 b3 b7 bd
       -0.057750862 0.055748783 0.10260563 -0.089696914
000330 eb 92 7c 3d 8c d5 a4 3b 50 86 a9 3c ff 94 a5 3d
       0.06166355 0.0050303396 0.020693928 0.080850594
000340 07 48 dc 3c 2a b4 fb 3c a9 d0 3e 3c 43 ff 49 bd
       0.026889814 0.030725557 0.011646428 -0.049315702
000350 0c 82 4b 3d 29 9d 8f 3d 30 b3 a3 3d 1f 55 9e 3d
       0.04968457 0.07012398 0.07993162 0.07731079
000360 25 38 6d 3d 25 c6 cb 3d db 59 57 bd da 67 d6 3c
       0.05791487 0.099499024 -0.052575927 0.026172567
000370 8b 3b 26 3b b7 19 92 bd b8 21 97 bd ea aa ba 3c
       0.002536508 -0.07133811 -0.07379478 0.022786576
000380 78 13 42 3d 9e 99 26 be 12 ce 97 bd 30 06 55 bc
       0.047381848 -0.16269538 -0.07412352 -0.0130019635
000390 56 fa 9b 3d c5 54 71 bd f0 10 3a 3d 26 f9 04 bd
       0.07616107 -0.058918733 0.04542631 -0.03246417
0003a0 88 b0 5b bd ff 00 6f 3b 76 e3 52 bb 3d 11 21 3b
       -0.05363515 0.00364691 -0.0032179034 0.0024576925
0003b0 e9 be d5 3c e3 5e db 3c e4 f0 64 bc 89 57 9e bd
       0.02609201 0.026778644 -0.013973448 -0.0773154
0003c0 2c 11 06 bc ff 87 5f 3c 1e 98 4a bd 78 f4 0a 3d
       -0.008182805 0.013643264 -0.049461477 0.03392455
0003d0 cc 05 88 be a6 ef ae 3c d4 6f 56 3d 62 ac 2e 3c
       -0.26566923 0.021354508 0.05235274 0.010661216
0003e0 86 80 e3 bd bd b6 ff 3c e0 34 b3 3d 07 1c 1a 3d
       -0.11108498 0.031215066 0.087503195 0.037624385
0003f0 8d 5a 36 3d 5a 2e 5b bd 2c e3 e8 bd 55 b5 b7 bd
       0.04451995 -0.053511 -0.113714546 -0.08970133

weight f4 [128, 512]
000000 6c a3 a6 3c ef d4 26 bd a5 d1 eb 3c d6 bc af 3c
       0.020341597 -0.040730413 0.02878649 0.021452349
000010 51 b3 73 bd 47 a2 40 bc a9 56 d8 3b 0c 79 07 3b
       -0.05949718 -0.01175744 0.0066021276 0.0020671515
000020 d1 2d 34 bd f5 36 e9 3c 02 ca 3f bc ec 1d 07 bd
       -0.043989006 0.028468588 -0.011705877 -0.03298752
000030 e9 60 ac 3c d0 7e bc 3c 7d ac 89 bc 10 3d 2d 3d
       0.021042304 0.023009688 -0.016805882 0.042294562
000040 01 ea ec bc 31 40 cc bc 78 f2 fe ba 5a eb 49 bd
       -0.028920176 -0.024932953 -0.0019450923 -0.049296714
000050 ce e3 fd bc b2 11 68 bc e4 b9 45 3b 50 3e 88 bb
       -0.030992415 -0.014164375 0.0030170614 -0.004157819
000060 65 7f cb 3c f3 07 d0 3a 57 dc b5 3c 3e 6f 4d bc
       0.02484102 0.001587151 0.022199793 -0.012538729
000070 0a 88 1b bc 91 a1 42 3c ce de 04 3c f1 43 95 3c
       -0.009492883 0.011879341 0.008109761 0.018220874
000080 97 aa 44 3d 5d 2e fc bd af f1 40 bb cc cd ac 3c
       0.04801425 -0.123135306 -0.002944093 0.021094225
000090 2b 14 ca 3c d0 39 26 3d 2b 76 f8 3c f2 29 bb 3c
       0.02466782 0.040582478 0.030329784 0.02284715
0000a0 9d 0b 0c 3c 36 94 1f bd 8c 11 b8 bc 13 f3 93 3c
       0.008547691 -0.038959704 -0.022469305 0.018060243
0000b0 9b 30 07 3d a2 dd 41 bd 18 1b e4 3c ef 5a f3 bb
       0.03300534 -0.047330506 0.02784495 -0.0074266116
0000c0 9f 37 9b bc f0 42 3e bc 12 b1 3a bc 0d fe b0 bc
       -0.01894742 -0.011612639 -0.011394756 -0.021605516
0000d0 a4 1b b3 bc fc bc 12 bc 7c 3f 21 ba 99 9a 25 bd
       -0.021863766 -0.00895619 -0.00061511225 -0.04043064
0000e0 01 20 a8 3b 58 9c 8e bc 7c aa ea bc 0d 7b a3 3c
       0.0051307683 -0.017408535 -0.028645746 0.019956136
0000f0 91 bc 39 bd de 5b 84 bb cb e7 34 3d 92 ec 88 bc
       -0.045345847 -0.0040392717 0.044166368 -0.016714368
000100 b1 08 da bc 96 0f 87 3c a3 22 72 bd df 7c 43 bd
       -0.026615473 0.016486924 -0.059115063 -0.04772651
000110 f7 a7 fc bc 59 92 ac bc f1 9b 1c 3c 3f 63 27 3c
       -0.03084181 -0.021065878 0.009558664 0.010216533
000120 e1 df 6d bc bf dd 10 bc 65 3e b8 bc 5d b8 56 3d
       -0.014518709 -0.008841931 -0.02249069 0.052421916
000130 e0 67 19 3b 22 e5 06 3d 99 f4 a4 3b e6 f0 25 3d
       0.0023407862 0.03293336 0.005034041 0.04051294
000140 dc 3f 58 3b fe 57 cd bc ff 60 95 3c 66 53 42 bd
       0.0032997048 -0.025066372 0.018234728 -0.047442816
000150 11 cb ab 3c 4b 84 e8 3c 74 11 66 3d 4a 89 6a bd
       0.020970853 0.028383395 0.05616899 -0.057259835
000160 82 6a 06 3c 2b b0 92 3c c7 f0 ce 3c c7 f7 fd 3b
       0.008204104 0.017906269 0.025261296 0.0077504846
000170 73 c7 28 3d 16 86 42 bd 07 3a 8b bd cd 19 33 3c
       0.041205835 -0.047491156 -0.06798177 0.010931444
000180 32 a0 f1 39 76 01 b9 bb 6d de 91 bb 84 7c a8 bc
       0.00046086457 -0.005645926 -0.004451564 -0.020567186
000190 9c dc 4e 3c d6 ec c2 bb cf 00 d5 3c 31 64 76 3c
       0.01262584 -0.005948643 0.026001362 0.015038536
0001a0 5c c7 07 3d e8 cb 89 3c dc 32 60 bc ea 19 07 3d
       0.03314911 0.016820863 -0.013684001 0.032983698
0001b0 97 65 60 3d 1d b6 20 bd 28 de 72 bd e1 ac 8a bc
       0.054784384 -0.039236177 -0.059293896 -0.016928138
0001c0 fd e6 4a bd 4b ab e9 bb 4c 59 c4 3c a9 a5 aa b9
       -0.049536694 -0.0071310154 0.023968361 -0.00032548353
0001d0 50 71 32 bb 32 10 08 3d 30 72 5b bc ca 5e d3 3c
       -0.0027228184 0.03321857 -0.013393924 0.025802035
0001e0 61 98 06 3d 5d f5 1a 3c 8d 99 00 bd 76 d4 53 3d
       0.032860164 0.009457913 -0.031396437 0.05171629
0001f0 8d 43 cf bc d2 d8 c1 bc 7e ba a1 3c 79 aa a6 bb
       -0.025300765 -0.023662958 0.019742247 -0.00508624
000200 0b b7 37 3c 32 ca 97 3b 39 48 a1 3d 2e be 76 bb
       0.011213074 0.004632258 0.078751035 -0.0037649977
000210 43 9a 28 3d e1 63 55 bc 89 c6 07 3d 0d 77 fc 3c
       0.04116274 -0.013024301 0.033148322 0.030818487
000220 78 6d b0 ba 39 1e bc 3a 56 c1 8b bc bd 11 ae bc
       -0.0013460359 0.0014352269 -0.017059963 -0.021248693
000230 29 1b c6 bc a0 1e 67 bd 4f a6 8d 3b 93 ea f1 bc
       -0.024182873 -0.05642569 0.004322804 -0.029530799
000240 45 3c 41 bd 16 10 54 bd 7d 4e 96 3c d3 fe bf bc
       -0.047176618 -0.051773153 0.018347973 -0.02343694
000250 90 a2 dc 3c 39 25 8d bb 68 3a 02 bd e2 d8 d2 bc
       0.026932985 -0.004307416 -0.03179398 -0.025738183
000260 c4 d5 0b bc 61 f9 04 3c 16 24 8f 3c c1 1f fb 3b
       -0.008534852 0.008116097 0.017473262 0.0076636975
000270 2b 35 6d bd 9a 36 50 bc b8 f0 aa 3a 31 34 64 3d
       -0.057912033 -0.0127083305 0.001304171 0.055713836
000280 0a 78 52 bc 02 ef 7a bc 39 e4 c0 bb c6 35 44 bd
       -0.012846002 -0.015315773 -0.0058865813 -0.047902845
000290 6e 85 d2 3c d8 11 31 3c ac a4 a4 bc a7 4f b0 bb
       0.02569839 0.010807477 -0.020098053 -0.005380589
0002a0 36 de f1 bc 1a a1 e2 bc b7 3f 0a 3d e9 dc a4 bc
       -0.029524904 -0.02766471 0.03375217 -0.02012487
0002b0 eb ac fb bb 81 dd 27 bc c0 bd a9 3c 61 60 af 3c
       -0.0076805255 -0.010245682 0.020720363 0.021408262
0002c0 22 bc 32 bd d1 86 0e bc 48 76 46 38 d8 0a b4 bc
       -0.04363645 -0.008699135 4.7317037e-05 -0.021977827
0002d0 e5 5b 33 3c d9 d1 7d 3c 71 3b 91 3d e5 80 02 bd
       0.010947202 0.015491926 0.07091416 -0.031861205
0002e0 9a 74 2d 3d 32 73 36 bd be c0 e4 3b e0 18 09 bd
       0.042347528 -0.044543453 0.0069809845 -0.03347099
0002f0 c8 bc 2c 3b 46 24 18 bd b1 04 01 bd ac e7 99 bd
       0.002635764 -0.037143968 -0.031498615 -0.07514891
000300 60 33 bb bb 00 a8 f4 3a 6a ed e7 3c 8c 1e ff 3a
       -0.0057129115 0.001866579 0.02831145 0.001946406
000310 43 d6 87 3d ac 87 24 3c 7a f1 91 bc d8 19 c4 3b
       0.06632664 0.010042112 -0.01781534 0.005984526
000320 ec fe e6 bb ce 74 f3 3c 22 33 cb 3c 5b 52 cb 3c
       -0.007049432 0.029718783 0.024804655 0.024819544
000330 5d e3 73 3d 20 9f c6 bc 73 b3 c1 bb 0a bd 1a bd
       0.059543002 -0.024245799 -0.0059112846 -0.037777938
000340 46 bd 42 3b 33 3e ec 3b 39 e2 18 3c c5 65 01 3d
       0.0029714867 0.007209563 0.009331279 0.031591196
000350 be da 2d 3c 33 e5 24 3d 09 9d 19 3d 96 d1 04 bd
       0.010611234 0.040257644 0.037503276 -0.03242644
000360 ae 1c 8e 3d e4 62 76 bc 78 57 7b 3d 0d 1e 9d bd
       0.06939064 -0.015038226 0.061362714 -0.07671747
000370 f8 72 4f bd 0a 91 fd ba 43 50 b2 bb e1 74 49 3d
       -0.050646752 -0.0019345593 -0.005441697 0.04918373
000380 5b 1b 61 bd 34 29 ca bc 95 1d 1d bd 0d 7b 74 3c
       -0.05495773 -0.02467785 -0.03835829 0.014921916
000390 24 99 70 3d 84 15 83 bd 7e 96 1a bd cd 58 80 3c
       0.058739796 -0.06400588 -0.037741177 0.015667344
0003a0 6a 24 75 bc a0 b8 97 3c 16 99 27 bc 30 c3 1a bd
       -0.014962295 0.018520653 -0.01022937 -0.0377838
0003b0 cb d5 00 3d c6 b0 07 3d 73 0f 37 3d 39 7d fb 3c
       0.03145389 0.03312757 0.044692468 0.03069936
0003c0 f9 5f a5 ba 87 df 01 bd 46 d0 34 bd 0c 1b fb bc
       -0.0012617103 -0.031707313 -0.044143938 -0.030652545
0003d0 e9 72 ae bc 52 ca 59 bd 0e c3 02 bd 01 8c 33 3c
       -0.021295028 -0.053171463 -0.0319243 0.0109586725
0003e0 71 d6 11 bc e6 8e d7 3c b6 87 63 bd 34 18 25 bd
       -0.0089012245 0.026313256 -0.055549346 -0.040306285
0003f0 53 a3 67 3d ca b8 8c bc 38 f3 4b 3c 73 02 a9 bd
       0.056552242 -0.017177958 0.012448125 -0.0825242

bias f4 [128]
000000 3e fe 62 3d 58 09 17 3d a1 11 c3 bd f9 dd a6 3d
       0.055418245 0.036874145 -0.09524847 0.08147807
000010 3d 0d 33 3d 3d 3b 07 be f1 8e 0a bc 14 d4 0c bd
       0.043713797 -0.13206191 -0.008456931 -0.03438194
000020 9b ab c5 bd f7 f3 33 bd e3 47 92 3d 85 b0 68 bd
       -0.09651872 -0.043933835 0.071426176 -0.056808967
000030 bf ed 90 3c 22 fc df bc d4 21 88 bd 18 d1 00 bd
       0.017691491 -0.027341906 -0.06647077 -0.031449407
000040 bd 21 cb 3c 03 78 a7 bb 6a 93 97 bd e9 e7 6e bd
       0.024796361 -0.005110742 -0.07401164 -0.058326636
000050 b4 6e 5a bd f8 96 09 bd 77 55 82 bd 3c 45 08 3d
       -0.05332823 -0.03359124 -0.063639574 0.033269152
000060 3d a8 b7 bc c4 54 a2 3c 08 86 83 3d f4 fa 5c 3c
       -0.02241909 0.01981581 0.06422049 0.013487566
000070 fa ee 6c bd 5e 97 e8 3c e8 30 71 bc cf 8f a5 3c
       -0.057845093 0.02839249 -0.014721133 0.020210175
000080 55 b9 bb bd 79 25 89 bd c1 7b b9 bc fc ee d6 3c
       -0.09166209 -0.066966005 -0.022642018 0.026237004
000090 5e 02 90 bd dc b2 68 bd 6e 46 6f bd ac 80 32 bd
       -0.070317015 -0.0568112 -0.058416776 -0.043579742
0000a0 32 d6 76 3c 0a 7e b7 3d 5d 37 d4 bc aa 74 b1 bd
       0.015065717 0.08959587 -0.025905306 -0.0866483
0000b0 0a e4 c8 bc 9e 78 45 bd a0 7e 98 ba 3d 7f f6 bc
       -0.0245228 -0.048210733 -0.0011634417 -0.030089969
0000c0 a3 6b c0 bd 91 ab b7 bc d9 b2 b8 3d 53 2c 01 bd
       -0.0939553 -0.022420676 0.090184875 -0.03153641
0000d0 53 e3 8f 3c 44 65 2b 3c 1f 44 bc 3d 7c e4 89 bd
       0.017564451 0.010461155 0.091926806 -0.06733033
0000e0 e9 d2 2d bd 52 1d 33 bd a0 37 8e 3d 40 e7 82 3c
       -0.042437468 -0.043729134 0.069442034 0.01597941
0000f0 e4 95 8f 3d 88 a1 d7 bc 5c 02 f2 3d 86 af 93 3d
       0.07011011 -0.026322141 0.11816856 0.07211213
000100 66 a8 01 3c 11 d6 08 bd 98 ca c0 bd e9 39 a3 3d
       0.0079136845 -0.033407275 -0.09413642 0.0797003
000110 91 56 12 bc bc 9c 81 3d bc d2 34 bd ad a2 2e 3c
       -0.008931772 0.06328723 -0.044146284 0.010658902
000120 18 36 69 bd d7 94 cf 3d 1c 2e ce 3b d5 08 9c bd
       -0.056936353 0.10135811 0.0062921178 -0.07618872
000130 aa 64 b4 3c 8b dc 79 3d 8c 88 41 bd 8a 30 09 bd
       0.022020657 0.06100134 -0.047249362 -0.033493556
000140 68 b9 4d bd 98 d2 95 bc 2a aa 26 3c 3b 27 7a 3b
       -0.050225645 -0.018288895 0.010172406 0.0038170356
000150 39 d2 33 3d c4 2c 47 bc 3c a2 90 3a 70 b6 23 bd
       0.043901656 -0.012156669 0.0011034678 -0.039968908
000160 72 6d 87 3d a3 02 d9 3c 1c 82 93 bc d1 df f9 3c
       0.06612672 0.026490515 -0.018006377 0.030502232
000170 a7 39 8b 3b 9f 4f 4d bd 65 39 1f 3d 79 44 39 bd
       0.004248816 -0.05012476 0.038873095 -0.045231316
000180 f1 b7 15 bd 0d 57 c0 bc 62 ce de 3c 64 f9 8b bd
       -0.036552373 -0.023479009 0.02719802 -0.06834677
000190 8e bd c6 bd 76 40 17 be c0 9b 74 bd f4 f0 99 bd
       -0.097041234 -0.14770684 -0.059718847 -0.07516661
0001a0 6d c5 51 3d a6 88 6f 3d 3f cd 7f bc 03 7b c8 bc
       0.05121367 0.058479927 -0.015612899 -0.024472719
0001b0 7e 7e 1c 3a 0c 6a b0 bc a3 26 35 3d b7 0e d7 bd
       0.00059697765 -0.021534942 0.0442263 -0.105008535
0001c0 23 4c a9 3d d7 5c 02 bd 53 fb 48 3d 5b f8 c5 bc
       0.08266475 -0.03182682 0.049067806 -0.024166277
0001d0 87 6c 07 bd b0 39 57 3d ff 7f 02 3d 95 1a 9e bc
       -0.033062484 0.05254525 0.031860348 -0.019299785
0001e0 fd a6 a0 bd be a0 d3 3b 5e 8c 60 bc 37 a6 98 bd
       -0.078443505 0.006458371 -0.013705341 -0.07453578
0001f0 93 0b 9d 3d ae 4a 87 bd 34 36 54 bd c3 46 29 bd
       0.07668223 -0.06606041 -0.051809505 -0.04132725
