result/aug74thenVAE40_22.pt (torch, 934148 bytes, 9 tensors)

weight f4 [128, 13]
0.10356048 0.13032374 -0.17183642 0.24020754 0.099152185 -0.13304903 -0.2915313 -0.35347715
-0.31033453 0.2556323 0.13405082 0.09612615 -0.20540965 -0.14996034 -0.19107874 0.01878477
0.29281136 0.018669315 -0.006876023 -0.294114 0.23658665 -0.14561453 0.24143617 0.39613605
-0.14155668 0.24269132 -0.22415107 0.23367707 0.0020701159 -0.12436173 0.122862935 -0.15845145
-0.30129012 0.15548088 0.22966126 -0.034927055 -0.19105095 0.07293169 -0.20286135 -0.20424369
-0.005790322 -0.014290203 0.08150879 0.18086037 0.09234664 -0.0441807 -0.036012247 -0.18955107
0.023662094 0.42872232 -0.05022211 0.13819021 -0.22924289 0.13496825 -0.21169683 0.27687636
0.1844555 0.20720023 0.08583699 -0.027448222 -0.31610784 0.06678129 -0.017063133 -0.18114278
-0.28841466 -0.22688246 0.1335958 -0.2863145 -0.15403825 0.18503197 0.17687699 0.39614293
0.10172053 0.045218777 -0.044334408 -0.20935737 0.098727204 0.044824492 -0.14266813 0.20591234
0.076547444 0.13496375 0.026175333 -0.24032377 -0.20236653 -0.1747806 0.07213229 -0.02453601
0.101502106 0.13660032 0.057281327 0.05924815 -0.01189728 -0.11051004 -0.011446919 -0.20333666
0.029569425 -0.12901533 0.044346955 0.04443535 -0.01567373 0.14874776 0.05585791 0.21625261
0.1462965 -0.342001 -0.23689382 -0.34384513 -0.15925187 -0.23139538 -0.168586 0.17167939
0.09601751 0.00801824 -0.2488741 0.0624111 -0.26966718 0.2442759 -0.07863671 0.06381583
0.0013738421 -0.20148207 -0.14574513 -0.26205626 0.13045147 -0.16086303 -0.061273813 -0.17060599
-0.08232901 -0.34506825 0.21955794 0.09589738 -0.18506856 -0.08531997 0.11551105 0.03574408
0.059782993 -0.33387852 0.07186318 -0.015539192 0.293111 -0.12093212 -0.11991188 -0.15562356
-0.09406426 0.12606758 0.09829273 0.014415521 -0.12573303 -0.02314069 -0.007924272 -0.22050993
0.028063973 0.3177916 -0.26991206 0.09192025 0.19724432 0.1989185 0.34683767 -0.098479524
0.23131813 -0.18272725 -0.20470536 -0.10397176 -0.08620279 -0.08909139 0.07756665 -0.13293773
0.09838476 0.15818256 -0.0112092085 0.043791957 0.15121739 -0.09275631 -0.11773145 -0.008109681
0.075701036 -0.042816803 -0.09646064 -0.19136253 0.01866619 0.21904835 -0.2569398 -0.08494924
-0.05849174 0.051918574 0.047493506 0.23326576 0.092711225 -0.17998713 -0.30555034 0.040446784
-0.18274334 -0.1556708 -0.054809038 -0.25205505 0.116754375 -0.25687107 -0.2848668 -0.18111241
0.119082846 0.21387236 -0.01626552 0.033672273 0.018233301 -0.40038028 0.18071084 0.12064577
0.22057444 0.30468342 -0.24045841 0.2980932 -0.03469584 -0.19457068 -0.15209597 0.02440365
0.20193654 -0.07675625 0.21071434 -0.07035437 -0.04903649 0.14405102 -0.15326865 0.032755155
0.2336838 -0.17164512 0.06177352 -0.0823218 -0.17390366 -0.30847842 0.092505984 0.060974985
0.016246794 -0.2177 0.08974767 0.1446641 -0.3142255 -0.22388835 -0.18863975 0.19677514
-0.20277368 -0.050579913 0.0630728 0.116707474 0.2972294 0.07503988 0.06570731 0.0014603436
0.32579142 -0.031733785 0.20550223 0.24824503 -0.1804126 0.007929187 -0.1704351 0.059773993
00000000: 8417 d43d 9673 053e e3f5 2fbe f7f8 753e
00000010: 4d10 cb3d 013e 08be 9743 95be f5fa b4be
00000020: 2be4 9ebe 3de2 823e 9e44 093e c9dd c43d
00000030: e856 52be 348f 19be 25aa 43be 85e2 993c
00000040: 5feb 953e 64f0 983c 4350 e1bb 1c96 96be
00000050: c543 723e fa1b 15be 0b3b 773e 58d2 ca3e
00000060: 3cf4 10be 1384 783e dc87 65be 0b49 6f3e
00000070: c8aa 073b 5db1 febd 909f fb3d 1941 22be
00000080: b342 9abe 6136 1f3e 522c 6b3e ac0f 0fbd
00000090: dca2 43be 365d 953d e3ba 4fbe 4225 51be
000000a0: bebc bdbb 7521 6abc 15ee a63d 7633 393e
000000b0: 3c20 bd3d d2f6 34bd 9481 13bd ad19 42be
000000c0: 02d7 c13c 7e81 db3e b3b5 4dbd bc81 0d3e
000000d0: a6be 6abe 1e35 0a3e 0ec7 58be bdc2 8d3e
000000e0: e7e1 3c3e 4c2c 543e 4ecb af3d 18db e0bc
000000f0: e3d8 a1be a1c4 883d fcc7 8bbc 7e7d 39be
00000100: 16ab 93be e053 68be 56cd 083e d097 92be
00000110: 34bc 1dbe 0579 3d3e 3e1f 353e 3fd3 ca3e
00000120: da52 d03d 5337 393d ff97 35bd c761 56be
00000130: 7d31 ca3d e399 373d 9817 12be afda 523e
00000140: e8c4 9c3d f033 0a3e a76d d63c 6f17 76be
00000150: 2c39 4fbe b0f9 32be 18ba 933d beff c8bc
00000160: 56e0 cf3d f4e0 0b3e d39f 6a3d 30ae 723d
00000170: cfec 42bc 1653 e2bd dc8b 3bbc 7c37 50be
00000180: 943b f23c 981c 04be 27a5 353d d701 363d
00000190: 3266 80bc 5551 183e 44cb 643d 5371 5d3e
000001a0: c0ce 153e c11a afbe 4b94 72be 780c b0be
000001b0: ec12 23be e9f2 6cbe cfa1 2cbe b9cc 2f3e
000001c0: d4a4 c43d f05e 033c dad8 7ebe c8a2 7f3d
000001d0: d111 8abe 7623 7a3e 490c a1bd e0b1 823d
000001e0: 7e12 b43a 5151 4ebe 363e 15be 3d2c 86be
000001f0: 1295 053e 47b9 24be 40fa 7abd 56b3 2ebe
00000200: 1d9c a8bd c9ac b0be ccd3 603e d865 c43d
00000210: 9d82 3dbe 3dbc aebd 0f91 ec3d 6268 123d
00000220: 03df 743d 20f2 aabe 012d 933d 1898 7ebc
00000230: a512 963e 42ab f7bd 5c94 f5bd c85b 1fbe
00000240: c3a4 c0bd dc17 013e b34d c93d 142f 6c3c
00000250: 29c0 00be 8b91 bdbc ced4 01bc 5bcd 61be
00000260: 6be6 e53c 95b5 a23e ea31 8abe af40 bc3d
00000270: 6afa 493e 4bb1 4b3e b594 b13e a2af c9bd
00000280: a9de 6c3e da1c 3bbe 489e 51be 25ef d4bd
00000290: 178b b0bd 8c75 b6bd 44db 9e3d d420 08be
000002a0: f37d c93d 9cfa 213e d4a6 37bc 325f 333d
000002b0: bbd8 1a3e 05f7 bdbd 301d f1bd 78de 04bc
000002c0: 2509 9b3d ac60 2fbd 288d c5bd 8af4 43be
000002d0: d6e9 983c 364e 603e 9d8d 83be def9 adbd
000002e0: 0995 6fbd 92a8 543d 8d88 423d 38dd 6e3e
000002f0: 62df bd3d 8c4e 38be 1871 9cbe 87ab 253d
00000300: 1221 3bbe 2b68 1fbe 717f 60bd 5c0d 81be
00000310: eb1c ef3d 9b84 83be 10da 91be 8875 39be
00000320: b5e1 f33d 5b01 5b3e 453f 85bc f0eb 093d
00000330: 015e 953c a5fe ccbe 430c 393e 2115 f73d
00000340: 44de 613e 77ff 9b3e bb3a 76be ac9f 983e
00000350: 3a1d 0ebd 893d 47be 0cbf 1bbe 2aea c73c
00000360: 74c8 4e3e 6132 9dbd 80c5 573e f415 90bd
00000370: 7dda 48bd 1c82 133e 75f2 1cbe 452a 063d
00000380: ce4a 6f3e bdc3 2fbe 3b06 7d3d 5598 a8bd
00000390: cd13 32be e2f0 9dbe c773 bd3d e8c0 793d
000003a0: ff17 853c c0ec 5ebe a0cd b73d d322 143e
000003b0: 2ae2 a0be fd42 65be c72a 41be 6c7f 493e
000003c0: e7a3 4fbe e22c 4fbd 502c 813d 5404 ef3d
000003d0: 742e 983e 82ae 993d 8e91 863d 0069 bf3a
000003e0: 22ce a63e 49fb 01bd 2d6f 523e f233 7e3e
000003f0: 15be 38be 6ce9 013c 8a86 2ebe 93d5 743d

bias f4 [128]
-0.087724894 -0.009079575 0.17093882 -0.113104485 -0.020796735 -0.25394344 0.1427425 -0.20852204
-0.08709769 0.2151882 0.01085472 0.065357834 -0.22160771 0.051216416 0.21324821 -0.05935653
-0.25096676 0.044972733 0.11812561 0.07598177 -0.09836001 -0.20546699 -0.046992682 -0.101096965
-0.017142376 -0.21199197 0.093720846 0.08287214 0.048931886 -0.31122288 0.1433804 0.0701027
-0.037139032 0.1423976 -0.030881085 0.046992987 -0.13153285 -0.27217472 -0.04972492 -0.10018542
-0.089447655 -0.082954764 -0.01214616 0.10235029 -0.13723713 -0.12914382 0.23867536 0.16886674
-0.08585013 -0.03798657 0.01287085 -0.13871013 -0.22396906 -0.032719087 0.09411615 0.091949955
0.037758622 -0.18488123 -0.21739252 0.22611053 -0.18196204 0.17086385 -0.036129862 0.08337301
0.16063705 0.07297601 -0.24027215 -0.102161765 0.26203302 -0.27249607 -0.08873663 -0.23783252
0.23258728 0.17555456 -0.097208686 0.14164506 -0.06108104 0.154217 0.12556471 -0.011940654
-0.34163213 0.09746177 -0.097872846 -0.13214171 0.05756259 0.058897614 0.010922388 -0.07316712
-0.2196512 0.20958744 0.17725916 0.12846112 -0.30427045 -0.115264595 -0.10417953 -0.18177305
0.19411395 0.059331656 -0.30319613 -0.14999118 0.19426437 -0.17877941 -0.12323573 0.122384
0.28720796 0.1594531 0.1969667 -0.094083585 0.117979564 -0.22751243 0.013803372 -0.049806572
0.26555687 0.28068274 0.02933636 0.1627646 -0.1767508 -0.09901464 0.17503427 -0.05759658
0.331634 -0.14691192 0.041772384 -0.20156111 -0.05662087 0.02050168 0.22953048 -0.22001588
00000000: 1ca9 b3bd 7fc2 14bc 960a 2f3e 53a3 e7bd
00000010: ea5d aabc e004 82be 172b 123e cd86 55be
00000020: 4660 b2bd 4c5a 5c3e ffd7 313c 54da 853d
00000030: 22ed 62be 4ec8 513d bd5d 5a3e d51f 73bd
00000040: b77e 80be 5435 383d d7eb f13d 559c 9b3d
00000050: f970 c9bd f065 52be 667b 40bd ed0b cfbd
00000060: 2b6e 8cbc 6c14 59be b7f0 bf3d deb8 a93d
00000070: cd6c 483d 9b58 9fbe 50d2 123e 0192 8f3d
00000080: 191f 18bd add0 113e 54fa fcbc b87b 403d
00000090: 8cb0 06be 7c5a 8bbe 5cac 4bbd 032e cdbd
000000a0: 5530 b7bd 30e4 a9bd b000 47bc 079d d13d
000000b0: e487 0cbe 473e 04be 5067 743e 67eb 2c3e
000000c0: 31d2 afbd ce97 1bbd 42e0 523c 070a 0ebe
000000d0: 2558 65be 7304 06bd f8bf c03d 4250 bc3d
000000e0: c9a8 1a3d 8151 3dbe 259c 5ebe 8589 673e
000000f0: 4254 3abe eff6 2e3e e8fc 13bd 78bf aa3d
00000100: 0a7e 243e 7274 953d e709 76be 303a d1bd
00000110: 3129 863e 9b84 8bbe 8dbb b5bd 5e8a 73be
00000120: 5c2b 6e3e 93c4 333e 5915 c7bd 670b 113e
00000130: 1d30 7abd 10eb 1d3e 0994 003e bca2 43bc
00000140: 68ea aebe 099a c73d 8f71 c8bd 2850 07be
00000150: c0c6 6b3d a03e 713d d1f3 323c a5d8 95bd
00000160: 3fec 60be 179e 563e 6d83 353e 508b 033e
00000170: 56c9 9bbe d80f ecbd 145c d5bd b722 3abe
00000180: cfc5 463e c005 733d 863c 9bbe 4a97 19be
00000190: 3ded 463e f311 37be 0463 fcbd 76a4 fa3d
000001a0: ec0c 933e ac47 233e a3b1 493e e5ae c0bd
000001b0: 459f f13d 05f9 68be 8a27 623c fa01 4cbd
000001c0: 12f7 873e a6b5 8f3e ce52 f03c c3ab 263e
000001d0: 29fe 34be 30c8 cabd 2f3c 333e 64ea 6bbd
000001e0: efcb a93e 1470 16be 8519 2b3d 0966 4ebe
000001f0: 49eb 67bd 24f3 a73c 0a0a 6b3e d84b 61be

weight f4 [256, 128]
0.03239372 -0.019614967 -0.024947219 0.16113368 0.026228847 -0.11258637 0.16932645 -0.05783838
-0.11193895 0.11101189 0.13603817 0.10235599 0.10486352 0.09611957 -0.0043425835 -0.07783102
-0.0388063 0.039391026 -0.03854534 -0.014612907 0.10709009 0.16569075 0.08015807 -0.14667185
-0.117016114 0.011572346 -0.032196105 0.07000356 -0.1392821 -0.13502586 0.037826337 -0.1380485
-0.044375848 -0.005558913 -0.15890473 0.069009334 -0.055546694 0.1064619 -0.057602163 0.041686237
-0.04743067 0.00408274 -0.020660367 -0.006445277 0.03048098 -0.12652412 0.06195404 -0.043639928
-0.049813397 0.07103716 -0.030979086 0.07571663 0.09056646 -0.07328849 0.058620583 -0.081155255
0.06449445 -0.004171571 0.035966497 0.031127272 -0.048357725 0.14931992 -0.08717617 -0.06854402
0.031792708 -0.14114542 -0.105628766 -0.14634196 -0.18711904 -0.0027365843 0.12906903 0.03336281
0.1141249 0.0052439636 0.08496115 0.029751917 0.04768804 -0.2887151 -0.024749953 -0.02334608
0.059013754 -0.13844417 0.110131845 0.06326849 -0.15736796 -0.026712326 -0.05025887 0.091648914
-0.08839315 0.122521244 0.16940147 -0.03968385 -0.0026915662 -0.04506074 -0.050885256 0.14949788
-0.006157208 0.089983776 -0.014451514 -0.0908815 -0.07523699 -0.012702654 -0.001342194 -0.024832182
-0.03968202 0.11578453 -0.0050989897 0.030000815 0.20843066 -0.010315761 0.06889187 0.08434918
-0.011706269 0.09324341 0.013472995 -0.02017934 -0.12598246 -0.06590621 0.021374982 -0.064789504
-0.025149032 0.007951355 -0.09144817 0.16968444 -0.09502145 -0.11548409 -0.06921248 -0.050420985
0.0984633 0.029482009 -0.06524051 -0.055526793 0.052833974 -0.03642427 -0.03535165 -0.032223847
0.062021706 0.09937812 -0.04797437 0.019080482 -0.08007192 0.016471084 -0.017312726 -0.022376824
-0.045423172 0.0325367 -0.0495564 0.043910667 -0.059669264 -0.11233501 -0.04482542 -0.06347137
-0.076588355 -0.0701284 0.074354336 -0.08699625 -0.10444585 -0.047847636 0.037820444 0.0249836
-0.0027933822 -0.09919439 0.016429923 -0.0772402 -0.0015708271 -0.027852897 0.04677316 0.048551347
-0.037105996 0.063584425 -0.05801946 0.022591295 -0.03897651 -0.08071056 0.0059048194 -0.027617164
0.04002227 0.032750674 -0.03359449 -0.051772393 0.04421967 -0.05691496 0.079009086 0.1301343
-0.031992227 -0.025304971 -0.08402567 0.046629336 0.009973098 -0.041922946 -0.1733132 -0.02173425
-0.04710933 -0.038673766 -0.07957058 -0.04647248 -0.041141935 -0.05634707 0.06701783 -0.027982758
0.055738118 0.021301325 -0.0035148447 -0.017741423 0.08804771 0.054677326 0.112261355 -0.08776026
-0.079695605 0.10147293 0.10220359 0.02281435 -0.0028885826 -0.07182234 -0.027360866 -0.10692445
0.14023887 0.03954862 0.028960312 -0.036800317 0.031232147 0.058847416 -0.037291754 0.028720459
-0.050029837 -0.032747384 0.009927356 -0.102432236 -0.0057723587 0.058456123 -0.018227024 -0.08636627
-0.030539919 -0.11846958 -0.026429676 -0.00943857 0.052133713 -0.045792416 -0.08373429 0.05973818
-0.10806824 0.039707176 -0.052619986 -0.06983863 -0.0255139 0.07019732 0.08269537 -0.104820184
0.0054070023 0.112818494 -0.057101816 0.03642994 -0.05894767 -0.01597193 0.053556815 -0.011602204
00000000: 47af 043d 91af a0bc 1c5e ccbc 3a00 253e
00000010: e1dd d63c af93 e6bd ea63 2d3e f0e7 6cbd
00000020: 4040 e5bd 345a e33d 974d 0b3e 04a0 d13d
00000030: afc2 d63d 56da c43d 3b4c 8ebb df65 9fbd
00000040: 5bf3 1ebd 7c58 213d b8e1 1dbd f96a 6fbc
00000050: 0d52 db3d d6aa 293e ea29 a43d 2531 16be
00000060: 25a6 efbd f099 3d3c 10e0 03bd 075e 8f3d
00000070: f89f 0ebe 3844 0abe caef 1a3d 965c 0dbe
00000080: 73c3 35bd 8b27 b6bb ecb7 22be c454 8d3d
00000090: ee84 63bd b208 da3d 3ff0 6bbd 30bf 2a3d
000000a0: aa46 42bd 81c8 853b ee3f a9bc e732 d3bb
000000b0: 40b3 f93c 8a8f 01be 85c3 7d3d c8bf 32bd
000000c0: 2209 4cbd ee7b 913d dac7 fdbc 5211 9b3d
000000d0: e87a b93d 4718 96bd 231c 703d ba34 a6bd
000000e0: ab15 843d adb1 88bb 9b51 133d 9ffe fe3c
000000f0: c012 46bd 52e7 183e 6b89 b2bd cf60 8cbd
00000100: 1239 023d 6d88 10be e553 d8bd abda 15be
00000110: 229c 3fbe 4458 33bb ac2a 043e 71a7 083d
00000120: 51ba e93d 8ed5 ab3b 1d00 ae3d 4bba f33c
00000130: 8954 433d 77d2 93be 6ac0 cabc 4740 bfbc
00000140: 68b8 713d 4fc4 0dbe ce8c e13d e992 813d
00000150: 1125 21be cfd3 dabc 3fdc 4dbd 6db2 bb3d
00000160: 7807 b5bd 6bec fa3d 9477 2d3e 888b 22bd
00000170: fd64 30bb 9c91 38bd 0f6d 50bd f915 193e
00000180: 67c2 c9bb 6a49 b83d 0bc6 6cbc 1420 babd
00000190: da15 9abd cb1e 50bc 8fec afba dc6c cbbc
000001a0: 9d89 22bd 7120 ed3d 6d15 a7bb 45c4 f53c
000001b0: d96e 553e 7003 29bc 2e17 8d3d 43bf ac3d
000001c0: a7cb 3fbc 67f6 be3d d6bd 5c3c 254f a5bc
000001d0: 8c01 01be d6f9 86bd 961a af3c 5cb0 84bd
000001e0: 5805 cebc 6646 023c 2e49 bbbd c2c1 2d3e
000001f0: 9b9a c2bd ec82 ecbd 46bf 8dbd 3c86 4ebd
00000200: 20a7 c93d 4184 f13c d19c 85bd 1070 63bd
00000210: 7068 583d 9e31 15bd e4cc 10bd 27fd 03bd
00000220: 790a 7e3d c186 cb3d c680 44bd ac4e 9c3c
00000230: bffc a3bd 5eee 863c 6bd3 8dbc 9a4f b7bc
00000240: a60d 3abd 3445 053d a7fb 4abd acdb 333d
00000250: c267 74bd e60f e6bd dc9a 37bd 47fd 81bd
00000260: 5bda 9cbd 7b9f 8fbd 1647 983d 172b b2bd
00000270: b5e7 d5bd e2fb 43bd 9ce9 1a3d 68aa cc3c
00000280: 2d11 37bb 6e26 cbbd 0c98 863c 1c30 9ebd
00000290: 36e4 cdba c22b e4bc 3795 3f3d c7dd 463d
000002a0: 75fc 17bd 8d38 823d d0a5 6dbd 6111 b93c
000002b0: d5a5 1fbd 944b a5bd 377d c13b 643d e2bc
000002c0: 64ee 233d 9225 063d 609a 09bd 4a0f 54bd
000002d0: af1f 353d a91f 69bd 84cf a13d ed41 053e
000002e0: 480a 03bd 5f4c cfbc a715 acbd 67fe 3e3d
000002f0: 3466 233c 65b7 2bbd 0479 31be 070c b2bc
00000300: b6f5 40bd 6268 1ebd e6f5 a2bd ed59 3ebd
00000310: 7284 28bd 2fcc 66bd a540 893d 193c e5bc
00000320: a74d 643d 1e80 ae3c 4f59 66bb 7656 91bc
00000330: 5c52 b43d 55f5 5f3d 48e9 e53d a7bb b3bd
00000340: 7337 a3bd 0ad1 cf3d 1e50 d13d 29e5 ba3c
00000350: 604e 3dbb 9717 93bd e523 e0bc 35fb dabd
00000360: c79a 0f3e bcfd 213d 2d3e ed3c eebb 16bd
00000370: 8fda ff3c fd09 713d 3dbf 18bd 2b47 eb3c
00000380: 16ec 4cbd 1f22 06bd 59a6 223c fec7 d1bd
00000390: 0e26 bdbb b06f 6f3d d750 95bc cde0 b0bd
000003a0: da2e fabc 2ea0 f2bd 0c83 d8bc 3ba4 1abc
000003b0: 298a 553d d490 3bbd e27c abbd 06b0 743d
000003c0: e252 ddbd fea3 223d 0e88 57bd 8e07 8fbd
000003d0: 8702 d1bc 9dc3 8f3d 315c a93d f7ab d6bd
000003e0: 392d b13b 620d e73d 98e3 69bd 9037 153d
000003f0: 1d73 71bd 91d7 82bc 645e 5b3d 2c17 3ebc

bias f4 [256]
-0.011930784 -0.028780947 0.054908372 0.08461032 0.00863903 -0.035822388 0.063464835 -0.08468806
0.050229903 -0.002456632 0.008051953 0.0043408275 0.09485294 -0.074972324 0.05890141 -0.015494863
-0.052310623 0.014993991 -0.10617524 0.073261924 -0.061488453 -0.052936636 -0.027757222 0.017229985
-0.01720191 -0.0059242076 0.049506914 -0.085315496 0.020054683 0.017669575 0.058334142 -0.037860632
0.046261992 -0.012825911 0.080481686 -0.012986822 0.048150897 -0.1343794 -0.10479214 -0.08473722
-0.081226684 -0.05915586 -0.1272616 0.008218487 -0.056571487 -0.030350696 -0.05674677 -0.035658974
-0.10103711 -0.012116812 0.109654985 0.0018274877 0.007816814 -0.02274061 0.03278563 0.03927569
0.04969729 -0.13484097 0.029014643 -0.107473806 0.031129064 -0.006722234 -0.05692432 -0.05008673
0.03803833 -0.07537076 -0.039354626 0.066151544 0.040566213 0.08235635 -0.060188454 0.022221845
0.04917237 -0.05169357 0.087049246 -0.065303124 -0.04147732 0.12801208 -0.041213322 0.033611856
-0.027400611 -0.0070295758 0.07702686 0.053343717 -0.05335951 0.05014355 -0.0052647586 -0.08371186
-0.0666276 0.05003971 0.0077951076 -0.100034975 -0.0037053816 -0.0688349 0.023203164 -0.0051018544
-0.051350426 0.12589727 0.028066633 0.010536806 -0.009251087 0.08679338 0.057228692 0.051181924
-0.059889697 -0.04352856 -0.041023627 -0.026715057 -0.09663191 -0.04393909 0.009354037 0.05753567
-0.071710475 0.0572668 0.025946798 -0.08334382 0.11687381 -0.028985752 -0.09593221 0.03127109
-0.001584022 -0.052827183 0.01983179 0.006957553 -0.019044213 -0.0289232 -0.0032152086 -0.05760718
-0.09801301 0.07535585 -0.028395707 -0.12586792 0.09519271 -0.09734129 0.047964614 0.037146106
-0.11733303 0.034759693 -0.09306569 0.07597869 0.08451644 -0.04291871 -0.058021568 -0.020690192
-0.08482499 0.11864033 -0.086045235 -0.05036579 -0.04764774 0.0938102 -0.11625776 -0.07607118
-0.072510175 0.0033325332 0.08940267 -0.020153826 -0.1087154 0.02230289 -0.0026715558 -0.07317709
-0.06751786 0.0056084455 0.002725062 -0.018454023 -0.11431457 -0.007353168 0.123062536 -0.00958151
0.03953092 -0.06840495 -0.08966142 0.03217669 -0.0069846846 -0.09036651 -0.055124506 -0.005783643
-0.020444222 0.06967186 -0.032854304 0.05210846 -0.12432697 -0.03690407 -0.04302673 0.021836137
0.076598585 -0.04041641 -0.09102831 -0.1284142 -0.046330653 -0.042019177 -0.036007494 0.030308235
-0.007415399 0.049065337 -0.0052191042 0.015177767 0.06371838 -0.0006954775 -0.115869604 0.063317806
-0.0330048 0.06386893 -0.057195902 -0.016271656 -0.088896215 -0.00066344853 0.008515815 0.10560579
-0.0099458685 0.13807935 -0.04699954 0.031267032 -0.0016461149 0.024780715 0.08347164 -0.016214222
0.015048208 -0.0480721 0.019461006 0.09192668 0.022337768 0.031801138 -0.0072766673 -0.037473727
0.022869091 0.091468304 0.018518593 -0.04039054 0.04562306 0.0037847827 0.10670623 0.10277123
-0.06402561 0.03881303 -0.046937454 -0.017017161 -0.04299502 0.0789388 -0.0011037915 0.018374773
0.04232903 -0.042896185 0.0031047342 0.109059304 0.08468526 -0.06816326 0.11427065 -0.072155595
0.03218269 -0.021087434 -0.048437238 0.06375337 -0.0439634 0.013660619 -0.08607989 -0.09731951
00000000: 5679 43bc 05c6 ebbc 9ae7 603d 2d48 ad3d
00000010: b88a 0d3c 7fba 12bd daf9 813d ef70 adbd
00000020: dfbd 4d3d 72ff 20bb 57ec 033c 803d 8e3b
00000030: 4242 c23d 178b 99bd 9b42 713d 2ade 7dbc
00000040: aa43 56bd 5ba9 753c 6772 d9bd 590a 963d
00000050: 51db 7bbd 16d4 58bd 1d63 e3bc e625 8d3c
00000060: 05eb 8cbc db1f c2bb c3c7 4a3d e4b9 aebd
00000070: b849 a43c c9bf 903c c8ef 6e3d c013 1bbd
00000080: 377d 3d3d c523 52bc 95d3 a43d aec6 54bc
00000090: e039 453d c19a 09be 439d d6bd b58a adbd
000000a0: 2d5a a6bd 6a4d 72bd dd50 02be d5a6 063c
000000b0: 81b7 67bd 06a2 f8bc 4d6f 68bd 250f 12bd
000000c0: 8bec cebd 9885 46bc cb92 e03d 5088 ef3a
000000d0: 1812 003c 844a babc 3a4a 063d 8cdf 203d
000000e0: 638f 4b3d c013 0abe 1eb0 ed3c 3a1b dcbd
000000f0: 6102 ff3c 3046 dcbb 7a29 69bd be27 4dbd
00000100: 14ce 1b3d fc5b 9abd 5132 21bd 767a 873d
00000110: c228 263d 72aa a83d 2b88 76bd 960a b63c
00000120: f868 493d a3bc 53bd e046 b23d a5bd 85bd
00000130: 1fe4 29bd 9915 033e 4dcf 28bd 96ac 093d
00000140: 3f77 e0bc 5b58 e6bb 42c0 9d3d f17e 5a3d
00000150: 808f 5abd 5363 4d3d ff83 acbb 2071 abbd
00000160: 0d74 88bd 70f6 4c3d 1a6e ff3b 23df ccbd
00000170: fdd5 72bb 50f9 8cbd 9014 be3c 752d a7bb
00000180: d354 52bd 37eb 003e ffeb e53c 91a2 2c3c
00000190: df91 17bc bac0 b13d a268 6a3d 23a4 513d
000001a0: e64e 75bd 014b 32bd 6408 28bd 89d9 dabc
000001b0: f3e6 c5bd 7af9 33bd ad41 193c 86aa 6b3d
000001c0: f1dc 92bd 9890 6a3d 618e d43c 2ab0 aabd
000001d0: 895b ef3d 8773 edbc 1b78 c4bd 1d16 003d
000001e0: f59e cfba 5161 58bd 4776 a23c 2ffc e33b
000001f0: 9c02 9cbc 59f0 ecbc 40b6 52bb 82f5 6bbd
00000200: 0cbb c8bd 2b54 9a3d 1d9e e8bc 85e3 00be
00000210: 65f4 c23d df5a c7bd 8b76 443d 8426 183d
00000220: 4d4c f0bd 2e60 0e3d 3999 bebd b79a 9b3d
00000230: f516 ad3d 87cb 2fbd 06a8 6dbd 7a7e a9bc
00000240: b9b8 adbd b4f9 f23d 7c38 b0bd 5c4c 4ebd
00000250: 472a 43bd 901f c03d 8c18 eebd 35cb 9bbd
00000260: 3780 94bd a166 5a3b bf18 b73d a319 a5bc
00000270: 2ea6 debd 8db4 b63c 4515 2fbb dfdd 95bd
00000280: ce46 8abd 0dc7 b73b f496 323b e42c 97bc
00000290: c21d eabd d8f2 f0bb 3608 fc3d c4fb 1cbc
000002a0: 2deb 213d e517 8cbd 68a0 b7bd b4cb 033d
000002b0: c8df e4bb 1412 b9bd 3cca 61bd b784 bdbb
000002c0: a47a a7bc 1fb0 8e3d 3c92 06bd ae6f 553d
000002d0: 239f febd b928 17bd cc3c 30bd b3e1 b23c
000002e0: b8df 9c3d ad8b 25bd 0d6d babd 037f 03be
000002f0: 36c5 3dbd 4d1c 2cbd 987c 13bd fa48 f83c
00000300: e0fc f2bb bcf8 483d 0505 abbb 2bac 783c
00000310: c87e 823d b450 36ba 0b4d edbd c4ac 813d
00000320: 0b30 07bd b7cd 823d 4046 6abd 234c 85bc
00000330: 380f b6bd 47eb 2dba eb85 0b3c d947 d83d
00000340: fff3 22bc ac64 0d3e 9782 40bd dc11 003d
00000350: 73c2 d7ba ed00 cb3c 2ef3 aa3d b0d3 84bc
00000360: c28c 763c 40e7 44bd b06c 9f3c 0e44 bc3d
00000370: b2fd b63c e941 023d 1c71 eebb 0d7e 19bd
00000380: f657 bb3c bc53 bb3d 4eb4 973c 8d70 25bd
00000390: 3fdf 3a3d 1e0a 783b cc88 da3d b979 d23d
000003a0: dc1f 83bd 69fa 1e3d 7d41 40bd 9367 8bbc
000003b0: 8c1b 30bd aaaa a13d 19ad 90ba b186 963c
000003c0: 3461 2d3d e9b3 2fbd cc78 4b3b 7c5a df3d
000003d0: 776f ad3d 2e99 8bbd bb06 ea3d 50c6 93bd
000003e0: ffd1 033d 8ebf acbc 2066 46bd 2091 823d
000003f0: f712 34bd cad0 5f3c a74a b0bd 744f c7bd

weight f4 [512, 256]
0.005629494 -0.0043208706 -0.007709438 -0.07143658 0.04128862 0.015202595 0.014183724 -0.02021534
0.031053873 -0.07602208 -0.034000065 0.029499324 0.03415373 0.038834907 -0.017344682 0.0068080868
-0.01643289 -0.030273966 0.06706508 -0.037678916 -0.01067103 -0.07020669 0.027584614 0.026492244
0.02576233 -0.023367867 0.048119713 0.021334523 0.0014412166 0.021923078 0.027848616 0.024902878
0.007996474 0.069342606 0.024409369 0.034880888 0.0024461506 0.028098952 0.020791063 0.067700826
-0.0025354745 -0.0135904625 0.06334683 0.033758186 0.0025097239 -0.0933276 -0.00664381 -0.026262397
0.042541154 -0.03735158 -0.012019053 0.04270454 -0.038733147 0.036524985 0.0734529 -0.015444112
0.029497426 0.035479423 -0.021084363 0.045197632 0.045094594 0.03863647 0.102620296 0.03204996
-0.016448222 -0.01320551 -0.027812725 -0.03734409 -0.060725555 0.027390318 0.02117965 0.009762212
-0.09136957 -0.01271507 0.04401436 0.016400384 -0.009013367 -0.0628301 -0.060327176 0.06492279
-0.023841139 0.026856473 -0.035472177 0.06921514 -0.04854017 -0.068774424 -0.025295062 0.058278557
0.046570655 0.0018033913 -0.051671695 0.039645083 0.017923009 -0.021878337 -0.04320827 0.032847896
-0.04540065 -0.05685848 0.010139362 0.027160555 0.016877007 -0.059457373 -0.077690944 0.04364298
0.06252369 0.016213395 -0.042786386 0.04231371 -0.051638808 -0.026987175 -0.01660367 -0.058305852
0.059324995 -0.037137024 0.017439513 -0.07475792 -0.052866902 -0.0058778743 0.0097931195 0.03048973
0.010665341 0.036459286 0.036131047 0.055761013 0.062523894 0.011336372 -0.022231994 -0.00034728536
-0.0628068 -0.01808954 -0.006735039 0.04529118 -0.04782543 -0.014210096 0.00092509354 -0.080555215
0.02565797 0.044181224 0.046527795 -0.037974905 0.018255092 0.06818246 0.051802993 0.012072897
-0.08334306 -0.042364113 -0.06335701 0.023432193 0.031035831 -0.0079935 -0.010170666 0.03965922
-0.013642113 0.002545901 0.006561454 0.03331237 0.020275032 -0.02924143 -0.047469523 -0.022720719
-0.013009689 -0.009444965 0.04477917 -0.06768895 -0.016121913 0.026250223 0.011113469 -0.024217483
0.0009773152 0.0022498786 -0.005110776 0.017024452 0.022158558 -0.038430814 0.031904325 -0.09780296
0.06713447 0.004511348 0.03761699 -0.044563826 0.08618226 -0.09017107 -0.028032187 -0.03416993
0.02048994 0.018847393 -0.06214901 -0.024350293 0.0386631 0.02619388 0.0006902998 -0.063774645
0.02515927 0.0003929784 0.0018076067 -0.0064948048 0.021299163 0.025876796 0.03211238 -0.030265354
0.001590316 0.03829198 -0.0529025 0.015771994 0.01350143 -0.017446136 -0.0047378126 0.00077274645
-0.02995497 6.085336e-05 -0.034408007 0.08206267 -0.12000903 -0.026417816 0.057958577 -0.07964142
-0.0063365106 0.039547365 -0.03353696 -0.030390715 -0.007885655 -0.007833816 -0.022601765 0.068465956
0.029202154 0.04275551 0.02257552 -0.11370512 -0.05333493 0.01732265 0.009992569 -0.04253236
-0.026127966 0.019100562 -0.019489355 -0.06071587 0.044689596 -0.0936351 0.0146391215 0.05466985
0.043854494 -0.09289504 0.03483684 0.03487402 0.0065558795 0.035752222 -0.033461224 0.017598994
0.047138218 -0.0120668905 0.041577563 0.077457465 0.033554718 0.0028668914 -0.0044462145 -0.04039591
00000000: 9e77 b83b 1796 8dbb 749f fcbb 574d 92bd
00000010: 421e 293d 4e14 793c da62 683c a49a a5bc
00000020: b164 fe3c 77b1 9bbd a743 0bbd 91a8 f13c
00000030: c8e4 0b3d 5a11 1f3d 6f16 8ebc 5f16 df3b
00000040: 459e 86bc 1c01 f8bc 6b59 893d 3555 1abd
00000050: 8bd5 2ebc 86c8 8fbd 21f9 e13c 4306 d93c
00000060: 860b d33c f86d bfbc 2d19 453d bdc5 ae3c
00000070: 34e7 bc3a 0798 b33c c822 e43c 1f01 cc3c
00000080: a503 033c 7f03 8e3d 28f6 c73c 43df 0e3d
00000090: 994f 203b c62f e63c 0552 aa3c bba6 8a3d
000000a0: 342a 26bb 88aa 5ebc fcbb 813d 0646 0a3d
000000b0: 2e7a 243b 8a22 bfbd 51b4 d9bb 3d24 d7bc
000000c0: a23f 2e3d f8fd 18bd 90eb 44bc f5ea 2e3d
000000d0: a6a6 1ebd 399b 153d 796e 963d 4d09 7dbc
000000e0: 96a4 f13c df52 113d 1db9 acbc 2721 393d
000000f0: 1cb5 383d 4641 1e3d 972a d23d d246 033d
00000100: 6cbe 86bc ec5b 58bc 83d7 e3bc 1ef6 18bd
00000110: 5cbb 78bd a961 e03c f280 ad3c aff1 1f3c
00000120: f81f bbbd de52 50bc 6748 343d 195a 863c
00000130: cdac 13bc 11ad 80bd a119 77bd 3df6 843d
00000140: 7e4e c3bc 1b02 dc3c 464b 11bd abc0 8d3d
00000150: 0fd2 46bd 9bd9 8cbd 9737 cfbc 7fb5 6e3d
00000160: dfc0 3e3d c55f ec3a b3a5 53bd e262 223d
00000170: 46d3 923c 333a b3bc 28fb 30bd 848b 063d
00000180: 08f6 39bd 70e4 68bd 911f 263c d07f de3c
00000190: a641 8a3c 9389 73bd 6e1c 9fbd fbc2 323d
000001a0: 6c0c 803d f4d1 843c c740 2fbd 2451 2d3d
000001b0: 3783 53bd 3514 ddbc 6b04 88bc 1ed2 6ebd
000001c0: c4fe 723d fe1c 18bd 4fdd 8e3c ae1a 99bd
000001d0: f78a 58bd 2f9b c0bb 5273 203c 99c5 f93c
000001e0: afbd 2e3c 5556 153d 26fe 133d a965 643d
000001f0: 870c 803d 31bc 393c df1f b6bc da13 b6b9
00000200: daa0 80bd 8430 94bc 9ab1 dcbb 3f83 393d
00000210: 99e4 43bd 76d1 68bc fa81 723a 22fa a4bd
00000220: aa30 d23c 5ff7 343d ee93 3e3d 938b 1bbd
00000230: b48b 953c 3fa3 8b3d 602f 543d 66cd 453c
00000240: c4af aabd fe85 2dbd 52c1 81bd dff4 bf3c
00000250: db3e fe3c 2bf7 02bc dda2 26bc b571 223d
00000260: 2b83 5fbc 22d9 263b 7701 d73b 8d72 083d
00000270: d317 a63c b98b efbc 676f 42bd cd20 babc
00000280: 9726 55bc 0ebf 1abc 5d6a 373d 81a0 8abd
00000290: 1a12 84bc b50a d73c 4415 363c be63 c6bc
000002a0: 4219 803a b372 133b 4c78 a7bb dd76 8b3c
000002b0: dd85 b53c a169 1dbd 1cae 023d eb4c c8bd
000002c0: cc7d 893d eed3 933b 4614 1a3d 8f88 36bd
000002d0: 5380 b03d 9cab b8bd c2a3 e5bc c5f5 0bbd
000002e0: 85da a73c d965 9a3c f68f 7ebd 447a c7bc
000002f0: 335d 1e3d 8c94 d63c 3cf5 343a 489c 82bd
00000300: d01a ce3c ab08 ce39 37ed ec3a 5fd2 d4bb
00000310: 957b ae3c 93fb d33c 4588 033d 0cef f7bc
00000320: 2672 d03a 0dd8 1c3d 4bb0 58bd 4534 813c
00000330: 1a35 5d3c 33eb 8ebc a73f 9bbb 2392 4a3a
00000340: 2064 f5bc cc3c 7f38 69ef 0cbd 7910 a83d
00000350: 4bc7 f5bd 2d6a d8bc f965 6d3d 0a1b a3bd
00000360: 81a2 cfbb 6bfc 213d 0d5e 09bd f3f5 f8bc
00000370: d632 01bc 6859 00bc 5627 b9bc e137 8c3d
00000380: 5b39 ef3c 6720 2f3d 4cf0 b83c 3bde e8bd
00000390: ba75 5abd 3be8 8d3c dfb7 233c 6936 2ebd
000003a0: 510a d6bc c878 9c3c 24a8 9fbc 34b1 78bd
000003b0: 700c 373d c2c3 bfbd edd8 6f3c 7eed 5f3d
000003c0: c5a0 333d c13f bebd 13b1 0e3d 0fd8 0e3d
000003d0: b4d2 d63b ec70 123d a30e 09bd c42b 903c
000003e0: 0114 413d 35b4 45bc 3c4d 2a3d 05a2 9e3d
000003f0: ac70 093d 75e2 3b3b 8db1 91bb 2f76 25bd

bias f4 [512]
-0.008974369 0.0035627435 -0.04255157 0.03839158 -0.08200346 -0.036332544 -0.07492209 -0.06614028
-0.024141433 -0.14639175 0.00884705 -0.11883758 -0.029497577 -0.0030747186 -0.009951781 0.09423039
-0.10403204 -0.083268724 -0.025942283 -0.0025840423 0.009885341 -0.055537112 0.018575242 0.02547614
-0.0447128 -0.010609666 -0.01957735 -0.053866994 0.012101394 -0.0100915255 0.011409244 -0.12619379
-0.08820976 -0.03209676 -0.07838634 0.028267322 0.07572574 0.013802651 -0.065041326 -0.023563951
-0.06200951 0.037702646 -0.12565657 -0.10996376 -0.051301304 0.08159505 -0.012843046 -0.06094547
-0.10042007 -0.0664423 -0.0009698213 -0.12691647 -0.033773664 -0.051407915 0.021537472 -0.109548695
-0.039906047 -0.03292716 0.080534905 -0.004240659 -0.017292324 0.026259188 0.0011275467 -0.080792956
-0.026679639 0.014424053 0.12512438 -0.03184068 -0.008260256 0.020962136 -0.06558039 -0.05240828
-0.019722011 -0.047219194 -0.057581715 -0.048593815 -0.025204843 -0.06850906 -0.07126439 0.030102355
-0.0867764 0.13298677 0.11152148 -0.09816649 0.08694459 0.032157756 -0.07266078 0.057554044
-0.1160421 -0.10321755 -0.062302638 -0.18489979 -0.2659235 0.053970724 0.03537148 0.08228171
0.05717414 0.05033736 -0.09143111 -0.06907093 0.19424827 0.046247378 -0.019201688 -0.07118898
-0.021738796 -0.010996153 0.016107129 -0.02443194 -0.015852876 0.0396206 -0.092387505 -0.029407775
-0.022608029 -0.02314777 -0.16620933 -0.02382258 -0.003628083 -0.05259417 0.07414937 -0.15204671
0.056775898 -0.05649439 -0.039429884 -0.029141335 -0.04033789 0.022974573 -0.023220556 -0.036418535
-0.03064191 -0.022290457 -0.13718057 -0.08295378 -0.038689267 -0.16424568 -0.09772096 -0.040636268
0.006257679 0.015709924 -0.037423678 -0.15122566 0.024004146 -0.105048336 -0.06631396 -0.026825232
0.123952076 0.04671878 -0.060444247 0.061092418 -0.06551247 -0.06392925 -0.0061738286 0.05539857
0.11506651 0.008188295 -0.07186783 0.048459243 -0.0821678 -0.04747075 -0.041996613 0.01845376
-0.09183136 -0.008755417 0.09129219 -0.07872109 -0.045912314 -0.11445549 0.030127542 0.112410255
0.04429611 0.01287824 -0.11816479 -0.012694446 -0.015095422 -0.11289876 0.03543295 0.01312105
0.025828008 -0.05471021 0.011478781 0.012671687 -0.08700129 0.014704221 -0.09291155 -0.09287779
0.08913274 -0.069768265 0.06579937 -0.058219135 -0.04646353 -0.04592801 0.013206739 0.009198814
-0.020508628 -0.035790026 -0.016771888 -0.033350512 -0.066992156 -0.04576647 -0.012343334 -0.0132275205
0.06503496 -0.10988962 -0.033129748 0.066513866 -0.0074963025 -0.04485566 -0.11728304 -0.013137246
-0.08283221 -0.012296692 0.07270292 0.064640366 -0.038770255 -0.094035886 -0.07350053 -0.103805885
0.018121526 -0.030040517 -0.002263812 0.11001925 -0.073669724 -0.0027587754 -0.011054309 -0.060288254
-0.09255149 -0.0058412007 0.04507803 -0.15305851 -0.028525159 0.12414304 -0.08967366 -0.076231115
0.076439075 -0.1646975 -0.01002876 0.0888594 -0.017124379 -0.097158335 -0.12937297 0.014619514
-0.0053993133 0.0049265856 -0.06381908 -0.09683574 -0.08443004 -0.116289854 0.0027946588 0.0058203624
0.08017035 -0.12535441 0.038551062 0.11068871 -0.049236983 -0.09856403 -0.049392812 -0.08894532
00000000: 3b09 13bc eb7c 693b 8e4a 2ebd 7d40 1d3d
00000010: 6ef1 a7bd 6fd1 14bd c170 99bd 8e74 87bd
00000020: 41c4 c5bc b8e7 15be 38f3 103c 1e61 f3bd
00000030: e7a4 f1bc 3881 49bb cb0c 23bc ddfb c03d
00000040: c00e d5bd cb88 aabd e984 d4bc 0959 29bb
00000050: 20f6 213c e27a 63bd 1b2b 983c 57b3 d03c
00000060: c524 37bd 2ad4 2dbc ae60 a0bc a3a3 5cbd
00000070: ed44 463c ed56 25bc d6ed 3a3c f238 01be
00000080: 52a7 b4bd e477 03bd 0489 a0bd df90 e73c
00000090: 1916 9b3d 8424 623c 6334 85bd 3009 c1bc
000000a0: affd 7dbd 176e 1a3d 1eac 00be ae34 e1bd
000000b0: 5121 52bd 4e1b a73d a46b 52bc f5a1 79bd
000000c0: 0aa9 cdbd e712 88bd 9b3b 7eba 64f6 01be
000000d0: 4156 0abd 1b91 52bd 5a6f b03c 115b e0bd
000000e0: 8674 23bd a1de 06bd 7cef a43d 3af5 8abb
000000f0: a2a8 8dbc 821d d73c 30ca 933a c776 a5bd
00000100: 428f dabc dd52 6c3c 9b20 003e 5f6b 02bd
00000110: 0656 07bc c9b8 ab3c 034f 86bd 11aa 56bd
00000120: 0e90 a1bc ea68 41bd ceda 6bbd 4f0a 47bd
00000130: 637a cebc 7a4e 8cbd 11f3 91bd 3799 f63c
00000140: d3b7 b1bd af2d 083e 6065 e43d 830b c9bd
00000150: 0110 b23d dab7 033d 2dcf 94bd cabd 6b3d
00000160: 7ba7 edbd b963 d3bd 0d31 7fbd 5f56 3dbe
00000170: 2027 88be 6810 5d3d afe1 103d 5083 a83d
00000180: 6e2f 6a3d 8c2e 4e3d 3c40 bbbd 0f75 8dbd
00000190: 05e9 463e e46d 3d3d dc4c 9dbc 87cb 91bd
000001a0: 8f15 b2bc 3529 34bc 19f3 833c 7e25 c8bc
000001b0: e4dd 81bc 3649 223d a935 bdbd 93e8 f0bc
000001c0: 7934 b9bc 64a0 bdbc c732 2abe 9227 c3bc
000001d0: 22c5 6dbb fc6c 57bd a0db 973d 22b2 1bbe
000001e0: d88d 683d a966 67bd 3b81 21bd cfb9 eebc
000001f0: 5839 25bd 2c35 bc3c 0939 bebc 9a2b 15bd
00000200: be04 fbbc 7a9a b6bc 1079 0cbe ace3 a9bd
00000210: a378 1ebd 0530 28be ed21 c8bd 3772 26bd
00000220: 370d cd3b 19b2 803c 9249 19bd e6da 1abe
00000230: 58a4 c43c 9523 d7bd 9dcf 87bd 97c0 dbbc
00000240: 96da fd3d 315c 3f3d 6394 77bd 0b3c 7a3d
00000250: 672b 86bd 57ed 82bd d44d cabb 9ce9 623d
00000260: fea7 eb3d 3328 063c 712f 93bd 337d 463d
00000270: 9747 a8bd b070 42bd a404 2cbd 572c 973c
00000280: 1412 bcbd e172 0fbc 66f7 ba3d 8638 a1bd
00000290: 8d0e 3cbd a467 eabd 09ce f63c 5937 e63d
000002a0: d66f 353d 41ff 523c 6200 f2bd 5efc 4fbc
000002b0: ca52 77bc 7737 e7bd 2422 113d acf9 563c
000002c0: 4295 d33c d017 60bd 7f11 3c3c e89c 4f3c
000002d0: bb2d b2bd f9e9 703c 6948 bebd b636 bebd
000002e0: 3a8b b63d aae2 8ebd d2c1 863d 3077 6ebd
000002f0: 8b50 3ebd 021f 3cbd 1461 583c 9fb6 163c
00000300: b601 a8bc 9098 12bd 3365 89bc 8c9a 08bd
00000310: 2f33 89bd 9f75 3bbd b23b 4abc 3eb8 58bc
00000320: 0d31 853d cf0d e1bd 0fb3 07bd 6c38 883d
00000330: 8ba3 f5bb 92ba 37bd 1732 f0bd 9a3d 57bc
00000340: efa3 a9bd 1078 49bc 45e5 943d 2b62 843d
00000350: 8fcd 1ebd e395 c0bd 7287 96bd 2e98 d4bd
00000360: 9873 943c 8817 f6bc 775c 14bb c651 e13d
00000370: 27e0 96bd 92cc 34bb 221d 35bc d1f0 76bd
00000380: a38b bdbd 8b67 bfbb bea3 383d 5fbb 1cbe
00000390: 98ad e9bc b53e fe3d d3a6 b7bd 0f1f 9cbd
000003a0: 178c 9c3d 76a6 28be ab4f 24bc ebfb b53d
000003b0: 6d48 8cbc f3fa c6bd 597a 04be b086 6f3c
000003c0: b9ec b0bb 326f a13b 94b3 82bd d151 c6bd
000003d0: a8e9 acbd 6029 eebd 9826 373b bdb8 be3b
000003e0: 5a30 a43d e85c 00be b8e7 1d3d c3b0 e23d
000003f0: b8ac 49bd f0db c9bd 1e50 4abd f728 b6bd

weight f4 [128, 512]
-0.016974427 -0.031282745 0.0053353636 -0.029069234 -0.115172274 0.04259266 0.03091659 -0.02637843
0.027609067 -0.036185622 -0.00063485204 0.020623898 0.03351538 0.053733066 -0.024795791 -0.03788268
0.0546358 -0.026589759 0.041803397 -0.03085053 -0.04878293 0.0073644123 -0.022367246 0.021071631
-0.014164575 0.013670813 -0.002493165 -0.0008402034 -0.008444542 -0.040551726 -0.016614709 -0.017616225
-0.11455053 0.0154532045 0.019247478 -0.026296178 0.02718869 -0.041022528 -0.033301443 0.030031547
-0.027700257 -0.06337394 0.0022377179 0.042984344 0.025502747 -0.037873354 0.0069243377 -0.09920486
0.040668245 -0.07850334 0.07306208 0.0074891485 0.0278699 -0.05094246 -0.06802123 0.03856674
-0.0030490486 0.012880752 -0.03308207 -0.010486243 -0.050587524 0.035074517 -0.09169865 -0.03925499
-0.0071430975 -0.038973864 0.018199202 -0.105311 -0.06786901 0.031459965 0.029248733 0.032082826
-0.024708474 -0.03703368 -0.070315294 0.01925412 0.023453454 -0.07664511 -0.039056744 -0.01846995
-0.07264433 -5.872269e-05 -0.026128035 -0.01473781 -0.02906173 0.029637547 0.034049027 -0.012604501
-0.03824935 0.0553825 -0.012516618 -0.010951436 -0.014478825 0.040695474 -0.014779926 -0.023671687
0.047413763 -0.013321292 -0.00664686 0.024603013 -0.013132328 0.011282067 0.0353156 -0.0127451625
-0.0125287855 0.020979442 0.005984951 0.016124137 0.037169103 -0.018939944 0.020562815 -0.04299818
-0.015680201 0.05166169 0.021072214 -0.009225573 -0.002738022 0.022103751 0.02998304 0.06834982
0.0018327307 -0.0013159204 -0.0337583 -0.033215757 0.017939487 0.054551832 0.027436843 -0.04313794
0.012369209 0.030574342 -0.04178497 0.05056695 -0.0057528876 0.046102423 0.047949865 -0.038131475
0.027773783 0.022376968 0.017868621 0.0028365806 0.021388656 -0.081352994 -0.08944665 0.03847768
-0.03757637 -0.012099576 -0.021174131 -0.0061443117 -0.0013226789 -0.097394 0.07273665 -0.043296926
-0.07803309 0.058744743 -0.004175568 -0.0059908447 0.0023904731 -0.05794448 0.019166464 0.023834573
0.041549634 -0.02996762 -0.044172525 0.0087603135 0.005496674 0.08632074 0.032752533 -0.00742896
-0.009693119 0.01349262 -0.054727845 0.0044334535 -0.11344979 0.027020108 -0.068215445 0.06360737
-0.02557165 -0.07134136 0.031509656 0.018557584 0.04786611 0.011440517 -0.0006245578 0.031679984
-0.020780688 0.048976216 -0.017120881 -0.007100298 -0.0060814735 -0.054126497 -0.0819579 0.009174222
-0.027061377 -0.024705367 -0.028122552 -0.01518109 0.038954258 -0.021139633 -0.0076802825 0.045882624
-0.027757898 -0.015009169 -0.035013992 -0.05099074 0.02075549 0.021997469 -0.029786995 -0.028865779
0.009019888 -0.06416026 -0.06879663 0.020565914 0.026630344 0.021273822 -0.042274855 -0.0027139941
-0.007944991 0.020507311 0.038265817 0.04606852 -0.042757936 0.032529082 0.016563099 -0.02704636
0.0144468825 0.019982953 -0.048329316 0.0011360454 0.042844627 0.03373485 0.044417635 -0.06576341
-0.0044928365 0.009120907 -0.06600145 -0.008308423 -0.03293096 -0.009577606 0.027559849 0.010129395
0.030111404 -0.02563992 -0.023441512 -0.015760506 -0.08252298 0.041001815 -0.021171397 -0.015403025
0.0351397 -0.025703367 -0.044394918 -0.098954804 0.019869218 0.0013371699 -0.007747588 0.010240118
00000000: f40d 8bbc 5622 00bd 46d4 ae3b 9a22 eebc
00000010: 71df ebbd a475 2e3d ca44 fd3c 9417 d8bc
00000020: 692c e23c 6037 14bd 336c 26ba 73f3 a83c
00000030: 6c47 093d 3417 5c3d 8b20 cbbc de2a 1bbd
00000040: cac9 5f3d c4d2 d9bc 0a3a 2b3d 40ba fcbc
00000050: 9cd0 47bd 2b51 f13b 843b b7bc 6a9e ac3c
00000060: 8912 68bc 8cfb 5f3c 5e64 23bb 1841 5cba
00000070: fa5a 0abc 9119 26bd 921b 88bc e74f 90bc
00000080: 7899 eabd 702f 7d3c e3ac 9d3c 156b d7bc
00000090: d1ba de3c 3d07 28bd 1867 08bd b804 f63c
000000a0: a6eb e2bc 32ca 81bd ada6 123b 5a10 303d
000000b0: 23eb d03c 1721 1bbd 8ee5 e23b eb2b cbbd
000000c0: bf93 263d 5cc6 a0bd 92a1 953d 8867 f53b
000000d0: 6b4f e43c 0aa9 50bd b74e 8bbd 28f8 1d3d
000000e0: 8cd2 47bb ca09 533c 1181 07bd 7ece 2bbc
000000f0: dd34 4fbd 4caa 0f3d 80cc bbbd d7c9 20bd
00000100: a510 eabb 0fa3 1fbd 7e16 953c 4bad d7bd
00000110: e8fe 8abd 2adc 003d 0a9b ef3c 4869 033d
00000120: 6d69 cabc a1b0 17bd 7701 90bd d1ba 9d3c
00000130: 7521 c03c 1df8 9cbd f7f9 1fbd 4b4e 97bc
00000140: 8dc6 94bd 024d 76b8 760a d6bc db76 71bc
00000150: dd12 eebc 71ca f23c fe76 0b3d 1c83 4ebc
00000160: 5aab 1cbd c3d8 623d 8012 4dbc a76d 33bc
00000170: 9838 6dbc 4cb0 263d 8127 72bc 20eb c1bc
00000180: ef34 423d 8c41 5abc e7cd d9bb 428c c93c
00000190: fa28 57bc 6bd8 383c 17a7 103d 16d1 50bc
000001a0: 8945 4dbc 14dd ab3c 681d c43b c416 843c
000001b0: a13e 183d f127 9bbc 5973 a83c dc1e 30bd
000001c0: c473 80bc 359b 533d a39f ac3c dc26 17bc
000001d0: 6370 33bb ed12 b53c fe9e f53c fefa 8b3d
000001e0: 3d38 f03a f67a acba 2546 0abd 3f0d 08bd
000001f0: d5f5 923c be71 5f3d 3bc3 e03c 69b1 30bd
00000200: 39a8 4a3c 0b77 fa3c b726 2bbd 4a1f 4f3d
00000210: b882 bcbb e5d5 3c3d 1467 443d c02f 1cbd
00000220: d885 e33c e74f b73c 3761 923c ede5 393b
00000230: 4337 af3c 669c a6bd ce2f b7bd c69a 1d3d
00000240: aee9 19bd 4d3d 46bc 5f75 adbc 3956 c9bb
00000250: bd5d adba 8176 c7bd f4f6 943d 1e58 31bd
00000260: d0cf 9fbd 549e 703d 34d3 88bb d94e c4bb
00000270: 7ca9 1c3b 3157 6dbd fd02 9d3c b940 c33c
00000280: f32f 2a3d a77e f5bc 40ee 34bd 6b87 0f3c
00000290: 721d b43b eec8 b03d 8527 063d a26e f3bb
000002a0: e3cf 1ebc 2610 5d3c 4e2a 60bd 8146 913b
000002b0: 5d58 e8bd 4659 dd3c 8ab4 8bbd 9544 823d
000002c0: a37b d1bc 6b1b 92bd 4510 013d 1306 983c
000002d0: 410f 443d 0271 3b3c 5db9 23ba dfc2 013d
000002e0: 433c aabc 499b 483d 1741 8cbc 9ea9 e8bb
000002f0: 1947 c7bb bfb3 5dbd 8bd9 a7bd 7a4f 163c
00000300: d2af ddbc e962 cabc 4461 e6bc 1bba 78bc
00000310: 808e 1f3d 062d adbc e1aa fbbb 6bef 3b3d
00000320: 8864 e3bc 04e9 75bc d56a 0fbd abdb 50bd
00000330: 6b07 aa3c 0934 b43c db03 f4bc ed77 ecbc
00000340: 27c8 133c 7466 83bd 3fe5 8cbd d979 a83c
00000350: e127 da3c 7046 ae3c 6628 2dbd 44dd 31bb
00000360: b52b 02bc f3fe a73c 9ebc 1c3d 58b2 3c3d
00000370: f222 2fbd 373d 053d 56af 873c 5490 ddbc
00000380: 9eb2 6c3c 4ab3 a33c f6f4 45bd 5ce7 943a
00000390: d97d 2f3d 8e2d 0a3d 44ef 353d f7ae 86bd
000003a0: a538 93bb db6f 153c c52b 87bd 0d20 08bc
000003b0: 9de2 06bd 64eb 1cbc 31c5 e13c c3f5 253c
000003c0: 31ac f63c cf0a d2bc 6a08 c0bc 2d1c 81bc
000003d0: cf01 a9bd 85f1 273d a36f adbc f85c 7cbc
000003e0: a5ee 0f3d de8f d2bc 72d7 35bd d1a8 cabd
000003f0: c5c4 a23c fa43 af3a 7bdf fdbb 2bc6 273c

bias f4 [128]
0.015216459 -0.07350739 -0.104720555 0.042617895 -0.09869925 -0.039001755 0.060252234 -0.084918864
0.063606314 0.043287404 0.079218045 -0.028698986 -0.08617719 -0.052287526 -0.024818873 -0.04678497
0.058062106 -0.08771623 -0.10901787 0.030032892 0.044355646 0.041731726 -0.0060841898 0.04859398
-0.089741774 -0.02117574 0.0051833726 -0.04777215 -0.08199151 0.048919402 -0.0699918 -0.074028954
-0.07739819 0.03243542 -0.055173863 -0.09206497 0.02059429 0.023339488 0.002596028 0.0018025468
0.033401772 -0.040299878 -0.03143367 -0.07008733 0.0031198263 0.09044099 -0.0068394705 0.024395706
0.04050675 0.059610162 -0.08671519 0.021355104 0.0103801275 0.0081114685 0.063973896 0.0061321375
-0.059144296 -0.031911317 0.00045314556 0.043066714 -0.10594044 0.04843825 -0.083443 0.013078299
0.0025190804 -0.09778434 -0.024334256 -0.07651703 -0.01892479 -0.02175623 0.0699618 -0.07380163
-0.039238438 0.02232809 -0.11682979 0.045861565 -0.053883955 0.037862074 -0.036222175 -0.03123238
0.03207279 -0.006687734 -0.03777447 -0.1290689 -0.115250014 -0.070256606 0.006525893 -0.029086292
-0.020612998 0.03874336 0.054700036 0.025954613 -0.05841579 0.02705064 0.058168203 0.050182406
0.075435005 -0.09432932 -0.060068224 0.07357228 0.016571056 -0.08529907 -0.023815777 0.018566864
-0.038616773 0.04564086 0.017982798 -0.012369571 0.006009815 0.05394472 -0.040467437 0.035092834
-0.027859371 0.043437127 -0.07391046 -0.016097203 0.019568173 -0.11576837 -0.063244455 0.048578586
-0.078542 -0.0093474295 -0.020410748 -0.065757275 -0.048610263 -0.054842327 0.038096618 -0.10549659
00000000: 744e 793c 0b8b 96bd bb77 d6bd 1a90 2e3d
00000010: d522 cabd 4ec0 1fbd 0ccb 763d f1e9 adbd
00000020: 0744 823d 224e 313d 123d a23d 231a ebbc
00000030: ab7d b0bd 722b 56bd f350 cbbc 99a1 3fbd
00000040: 88d2 6d3d 91a4 b3bd c344 dfbd 8a07 f63c
00000050: 44ae 353d e3ee 2a3d e25d c7bb 7b0a 473d
00000060: 89ca b7bd bf78 adbc 48d9 a93b bbac 43bd
00000070: 2aeb a7bd b65f 483d dc57 8fbd 7e9c 97bd
00000080: f182 9ebd 01db 043d fdfd 61bd 8f8c bcbd
00000090: 5bb5 a83c 7432 bf3c 1f22 2a3b 6f43 ec3a
000000a0: 4cd0 083d 7c11 25bd 98c0 00bd f289 8fbd
000000b0: 0076 4c3b 2039 b93d a31d e0bb 81d9 c73c
000000c0: 68ea 253d c929 743d bc97 b1bd e6f0 ae3c
000000d0: 6911 2a3c f7e5 043c bf04 833d 19f0 c83b
000000e0: 4a41 72bd 71b5 02bd 2b94 ed39 b966 303d
000000f0: 4df7 d8bd 3067 463d 2ae4 aabd 5d46 563c
00000100: 2817 253b 2843 c8bd a258 c7bc f6b4 9cbd
00000110: 2908 9bbc 1f3a b2bc 2248 8f3d 4f25 97bd
00000120: 7cb8 20bd 66e9 b63c 7544 efbd 56d9 3b3d
00000130: 6cb5 5cbd 4315 1b3d b45d 14bd 0cdb ffbc
00000140: c25e 033d c724 dbbb 67b9 1abd a32a 04be
00000150: 3308 ecbd b2e2 8fbd 29d7 d53b 6046 eebc
00000160: 97dc a8bc 5cb1 1e3d 250d 603d c59e d43c
00000170: 6545 6fbd 4e99 dd3c c841 6e3d 118c 4d3d
00000180: ab7d 9a3d bb2f c1bd 190a 76bd 10ad 963d
00000190: 06c0 873c 47b1 aebd 4e19 c3bc 8919 983c
000001a0: 9f2c 1ebd e9f1 3a3d a950 933c bea9 4abc
000001b0: fbed c43b 24f5 5c3d 2fc1 25bd 81bd 0f3d
000001c0: 5639 e4bc 21eb 313d 5e5e 97bd 48de 83bc
000001d0: 6f4d a03c f817 edbd 4f86 81bd 57fa 463d
000001e0: a1da a0bd f625 19bc 7134 a7bc c0ab 86bd
000001f0: 8e1b 47bd 59a2 60bd 330b 1c3d 990e d8bd

weight f4 [1, 128]
0.0323102 -0.054419003 -0.040746797 0.058131948 -0.025126312 0.021528738 0.081229575 -0.027967537
0.009633115 0.07873886 0.031486135 -0.009976601 -0.07423741 -0.040129688 0.006711426 -0.074785
0.07670525 -0.030406678 -0.04406071 0.0432391 0.025846818 -0.00022593983 0.015681017 -0.00060786656
-0.074326426 0.004314252 0.00013439031 -0.036644697 -0.06351402 0.023118882 -0.0336302 -0.076716885
-0.061717402 -0.00199684 0.05462935 -0.0021312884 0.053080186 0.00093915954 0.03197155 0.0004094435
0.026901653 -0.035311516 -0.0010037386 -0.08625798 0.015884599 0.017238524 0.00041318664 -0.00053268974
0.081882864 0.019999122 -0.04442755 0.011821769 0.02775233 0.050647113 0.057028573 0.015091036
-0.05698876 -0.0016840007 0.0228006 0.008177811 -0.0585239 -0.00018287323 -0.06590004 0.009919821
0.04614924 -0.053834215 -0.07068966 -0.07507109 0.02041074 -6.734357e-05 0.019799292 -0.052161254
-0.0011120762 0.0001577762 -0.021815605 0.044021435 -0.08433217 0.013812024 -0.00042213648 0.00377364
0.029276049 0.06132841 -0.044959452 -0.038057607 -0.0644376 -0.06167609 0.099867426 -0.00083802757
0.06771184 0.07137115 0.000117177915 -0.001167702 -0.00032546223 0.0001139642 0.0051789246 0.0012341293
0.039850328 -0.09206909 -0.016703276 0.075581625 0.011570969 -0.025274614 -0.00042761944 0.0005283487
0.0009874372 0.04433233 0.00056319474 0.001088653 0.07414572 0.08382251 0.05616741 0.023658304
-0.020520987 0.050247215 -0.04037986 0.00053196616 0.0022137004 -0.04275852 -0.017335668 0.015139894
-0.0015485301 -0.0016479089 0.0004712668 -0.0008806782 -0.039958794 -0.00023916241 0.0033622573 -0.030729003
00000000: b357 043d 76e6 5ebd 1de6 26bd c41b 6e3d
00000010: b2d5 cdbc 095d b03c b15b a63d 2d1c e5bc
00000020: 36d4 1d3c d741 a13d 9bf7 003d e674 23bc
00000030: c909 98bd 075f 24bd 86eb db3b e128 99bd
00000040: a417 9d3d 6d17 f9bc 0179 34bd 7c1b 313d
00000050: b5bc d33c 43ea 6cb9 7a75 803c 3c59 1fba
00000060: 7438 98bd 925e 8d3b 20eb 0c39 c018 16bd
00000070: a313 82bd cf63 bd3c d2bf 09bd be1d 9dbd
00000080: 63cb 7cbd 6add 02bb 06c3 5f3d 16ad 0bbb
00000090: 9c6a 593d ee31 763a 9af4 023d 94aa d639
000000a0: db60 dc3c cfa2 10bd e18f 83ba 06a8 b0bd
000000b0: 6b20 823c ce37 8d3c f9a0 d839 34a4 0bba
000000c0: 34b2 a73d 33d5 a33c aaf9 35bd 18b0 413c
000000d0: db58 e33c 5973 4f3d cb96 693d 6540 773c
000000e0: 0c6d 69bd b0b9 dcba 53c8 ba3c 3afc 053c
000000f0: c2b6 6fbd a9c1 3fb9 9af6 86bd bf86 223c
00000100: fc06 3d3d 4481 5cbd bec5 90bd dfbe 99bd
00000110: 6d34 a73c ce3a 8db8 2032 a23c 0aa7 55bd
00000120: 16c3 91ba ba70 2539 a4b6 b2bc d24f 343d
00000130: 58b6 acbd d44b 623c 3352 ddb9 2c4f 773b
00000140: 53d4 ef3c 8033 7b3d 6727 38bd 4be2 1bbd
00000150: dcf7 83bd 11a0 7cbd 4b87 cc3d 14af 5bba
00000160: 81ac 8a3d 0a2b 923d 6abd f538 940d 99ba
00000170: cda2 aab9 1000 ef38 f8b3 a93b 82c2 a13a
00000180: 193a 233d b88e bcbd 4fd5 88bc 8aca 9a3d
00000190: 2994 3d3c b50c cfbc 1c32 e0b9 e280 0a3a
000001a0: e56c 813a d195 353d 5ca3 133a 22b1 8e3a
000001b0: b6d9 973d 23ab ab3d cc0f 663d 0fcf c13c
000001c0: a11b a8bc 06d0 4d3d 5a65 25bd a573 0b3a
000001d0: bb13 113b 8f23 2fbd 8803 8ebc 510d 783c
000001e0: 0cf8 caba a6fe d7ba 5c14 f739 50dd 66ba
000001f0: d5ab 23bd acc7 7ab9 5159 5c3b 64bb fbbc
