result/aug74_then_gan_40_model_22.pt (torch, 934338 bytes, 9 tensors)

weight f4 [128, 13]
0	0x3ead2ab1	0.33821633
1	0x3d9e1b06	0.07719998
2	0xbdb5782f	-0.08860814
3	0x3e6abbd1	0.22923209
4	0xbd10acbb	-0.03532098
5	0xbdc90b1f	-0.09816574
6	0x3da7ef1f	0.081999056
7	0x3df86de4	0.12130335
8	0x3d9ebd27	0.07750922
9	0x3e5b134e	0.21394083
10	0x3efee612	0.49784905
11	0x3db5a839	0.088699766
12	0xbd4fcc98	-0.050732225
13	0x3ea2b7b1	0.3178077
14	0xbeb624e1	-0.3557501
15	0x3e3a2804	0.18179327
16	0xbdb7ac16	-0.0896837
17	0x3ca89dde	0.02058309
18	0xbf090195	-0.5351804
19	0xbdfb2c31	-0.12264288
20	0xbea138ae	-0.31488556
21	0x3e4e71e4	0.20160633
22	0x3dd85467	0.105629735
23	0x3e7c0817	0.24612461
24	0xbe5b8942	-0.21439078
25	0xbe6d3bde	-0.23167369
26	0xbc922a33	-0.017842388
27	0xbda137a8	-0.07871944
28	0xbe398600	-0.18117523
29	0xbe0c7988	-0.13718235
30	0x3d6c3547	0.057667997
31	0x3d51bee5	0.05120744
32	0xbcc2afbd	-0.02376544
33	0xbd50ca3b	-0.050974112
34	0x3c04a861	0.008096785
35	0xbe4dd8c9	-0.20102228
36	0xbdc4b32c	-0.09604487
37	0xbce46c1b	-0.02788358
38	0xbd77321f	-0.060350534
39	0x3e8edafb	0.27901444
40	0xbe814589	-0.25248364
41	0xbe36d7db	-0.1785578
42	0x3d955a90	0.07292664
43	0xbe85783f	-0.26068303
44	0xbe962dd6	-0.29331845
45	0xbe4c7d2c	-0.19969624
46	0x3e20122c	0.15631932
47	0xbc7e591f	-0.015524178
48	0x3e43c233	0.1911705
49	0x3d2b8cf2	0.041882463
50	0x3da9fee0	0.08300567
51	0xbe2df38b	-0.16987436
52	0xbe3bc84e	-0.18338129
53	0x3dd7d089	0.10537822
54	0xbdbe226d	-0.0928391
55	0x3e382d5a	0.1798605
56	0xbe9864e3	-0.2976447
57	0x3efc1409	0.49234036
58	0xbea87339	-0.32900408
59	0x3d90a4a1	0.070626505
60	0xbebe9684	-0.3722421
61	0xbc6941ed	-0.014236909
62	0xbe703866	-0.23459014
63	0xbe1f6571	-0.1556604
64	0xbe1de5f5	-0.15419753
65	0xbe85dc14	-0.2614447
66	0x3dbaa4ba	0.0911345
67	0x39c5c494	0.0003772123
68	0xbec05bdd	-0.37570086
69	0xbeb4a1d4	-0.35279715
70	0xbddd846e	-0.108162746
71	0x3e01c5b9	0.12673081
72	0x3e988acd	0.29793397
73	0xbe8130d8	-0.25232577
74	0x3e618305	0.22022636
75	0xbeccb996	-0.3998534
76	0x3d36fe51	0.04467613
77	0x3e82fa02	0.25581366
78	0x3e706cb5	0.23478968
79	0x3de19b21	0.110159166
80	0xbe7aee71	-0.2450502
81	0xbe3ce84b	-0.18447988
82	0xbdd6a72b	-0.104811035
83	0x3ddcd90f	0.10783588
84	0xbe157767	-0.1459633
85	0xbd87a880	-0.06623936
86	0x3e1551b5	0.1458195
87	0xbe9c25ad	-0.30497494
88	0xbec8d4bd	-0.39224806
89	0xbbc63ea0	-0.006049946
90	0x3e0bb396	0.13642725
91	0xbe3c36c5	-0.18380268
92	0x3df3989b	0.118943416
93	0x3ea09c99	0.31369475
94	0x3eaa1696	0.33220357
95	0x3c204f9b	0.009784604
96	0x3ea46733	0.32109985
97	0xbe2b75e5	-0.16744192
98	0x3c827b19	0.015927838
99	0xbdde84b6	-0.10865156
100	0xbe06a861	-0.13150169
101	0xbb466869	-0.0030274636
102	0xbe401d4f	-0.1876118
103	0x3e0e4cc6	0.13896474
104	0x3c874443	0.016512042
105	0xbe36f829	-0.17868103
106	0xbdd4d460	-0.1039207
107	0x3c5b164e	0.013372017
108	0xbdbb8532	-0.09156264
109	0x3e58bca9	0.21165718
110	0x3e7606c5	0.2402602
111	0xbe1661ec	-0.14685792
112	0x3e26841b	0.16261332
113	0xb93083a8	-0.00016833714
114	0x3ea1f079	0.3162878
115	0x3d816095	0.0631725
116	0x3ea000d3	0.3125063
117	0x3d0411b0	0.03224343
118	0xbd486b30	-0.048930347
119	0x3db98020	0.09057641
120	0x3dc51c18	0.09624499
121	0xbd9a977a	-0.07548423
122	0x3e6d0204	0.231453
123	0x3e20f70f	0.15719245
124	0x3e8c45ab	0.27396902
125	0xbe191653	-0.14949922
126	0x3bae6eab	0.0053232512
127	0x3eeed844	0.46649373
128	0x3d0d8e6f	0.034559663
129	0x3ea6ba30	0.32563925
130	0x3e8282e7	0.25490496
131	0xbe066cef	-0.13127492
132	0x3e8651e3	0.2623435
133	0x3d4267d2	0.047462292
134	0x3e135525	0.14387949
135	0x3e75cafa	0.2400321
136	0x3d20c27c	0.039247975
137	0x3e1be2c5	0.15223224
138	0xbe4cc7c7	-0.19998084
139	0x3e64d5cf	0.22347187
140	0x3f32c7bc	0.6983602
141	0xbc03ef03	-0.00805259
142	0x3e8b90ca	0.27258903
143	0x3da73644	0.08164647
144	0xbe71f386	-0.23628053
145	0x3e588598	0.21144712
146	0xbedd3c86	-0.43210238
147	0x3c0cefb5	0.0086020725
148	0x3ce1d000	0.027565002
149	0xbd235ab0	-0.03988141
150	0x3db4bc73	0.08825006
151	0x3de6843c	0.112556905
152	0x3e96d414	0.29458678
153	0xbe9dc95d	-0.3081769
154	0xbc892396	-0.016740602
155	0x3e0f9339	0.14021005
156	0x3e269ec8	0.16271508
157	0x3d8066ce	0.062696084
158	0xbeb3ba44	-0.35103047
159	0xbdcc0ed9	-0.099637695
160	0x3df21deb	0.11822113
161	0x3dacdd16	0.08440606
162	0x3db9c39a	0.09070511
163	0x3e73b3a0	0.2379899
164	0x3d3b7b14	0.045771673
165	0x3e7be775	0.24600013
166	0x3e90016d	0.28126088
167	0x3e0611cc	0.13092726
168	0xbeb1b491	-0.34708074
169	0xbe662fc4	-0.22479159
170	0x3e871d75	0.2638966
171	0xbda668e0	-0.08125472
172	0x3d763714	0.06011112
173	0x3d9c7149	0.07638795
174	0xbe440f7c	-0.19146532
175	0x3e50c95d	0.20389314
176	0xbd5234ea	-0.051319994
177	0xbe35025a	-0.17676678
178	0xbe5407b5	-0.20706065
179	0x3dcd93fc	0.100379914
180	0x3c8dec24	0.017324515
181	0xbf13e385	-0.5776904
182	0x3cd5c93e	0.026096936
183	0xbccaa193	-0.024735248
184	0xbdf80b7e	-0.12111567
185	0x3dbbe89d	0.09175227
186	0xbd9b5190	-0.07583916
187	0xbe87f39b	-0.26553044
188	0xbd5df110	-0.054184973
189	0x3e0bce50	0.1365292
190	0xbdd0d059	-0.10195989
191	0xbe343432	-0.17598036
192	0xbd0cef99	-0.034408186
193	0x3b59e4c2	0.0033247923
194	0x3e970863	0.29498586
195	0x3eb6d007	0.35705587
196	0x3c8b2544	0.016985543
197	0x3e828b29	0.25496796
198	0xbe9bcb59	-0.3042858
199	0x3db116f0	0.08646953
200	0x3e25af3b	0.16180126
201	0xbd6cd1b1	-0.057817165
202	0x3e2a91f2	0.16657236
203	0x3dc808b9	0.09767289
204	0xbd77f7b1	-0.06053895
205	0xbeee80b6	-0.46582574
206	0xbbeb5db9	-0.0071828035
207	0xbe09a2e5	-0.13441046
208	0x3e08880b	0.13333146
209	0x3e398fcc	0.1812126
210	0x3d3aa35c	0.045565948
211	0x3ea000a1	0.3125048
212	0xbe531bc5	-0.20616062
213	0xbe948173	-0.29005012
214	0xbe151e0c	-0.14562243
215	0x3f0c8964	0.5489714
216	0xbab4ba2a	-0.0013788391
217	0x3d38f6e2	0.04515732
218	0xbf38f90e	-0.7225503
219	0xbdd6c984	-0.10487655
220	0xbf0d2b38	-0.5514407
221	0x3d3fd876	0.046837293
222	0xbb633e12	-0.0034674448
223	0xbe8e6fcc	-0.2781967
224	0x3e8b4a8d	0.27205315
225	0xbe7ae747	-0.24502288
226	0xbebac854	-0.36480963
227	0x3eb2ebb9	0.34945467
228	0xbd9d9703	-0.07694819
229	0x3dd45dfd	0.10369489
230	0x3e3c7224	0.18402916
231	0x3ea8aea9	0.32945755
232	0x3db4ec7f	0.088341706
233	0x3d86063d	0.065441586
234	0x3e6ecf9b	0.23321383
235	0x3d59965e	0.053121917
236	0x3dda91fa	0.10672374
237	0x3ec705c9	0.388716
238	0xbe95265d	-0.2913083
239	0x3e2d5b83	0.1692944
240	0x3dea467b	0.11439224
241	0xbcc20a2d	-0.023686493
242	0xbea6caf7	-0.32576725
243	0xbe540602	-0.20705417
244	0xbe3a029e	-0.18165061
245	0x3dda3cbc	0.106561154
246	0x3de2f341	0.11081553
247	0xbea01ddb	-0.31272778
248	0x3e8cbeca	0.2748931
249	0xbeba0d63	-0.36338338
250	0x3ec53c8b	0.38522753
251	0xbe0a96fe	-0.13534161
252	0x3dbd70e2	0.09250046
253	0xbd84a0eb	-0.06476005
254	0x3d8d8af5	0.069112696
255	0xbe39b2e3	-0.18134646

bias f4 [128]
0	0x3df45d8c	0.11931905
1	0xbe3e3035	-0.18573077
2	0xbd6b9779	-0.057517502
3	0xbe8c00a5	-0.27344242
4	0x3e74c1b9	0.23902024
5	0x3e653511	0.22383524
6	0x3e60ccb0	0.21953082
7	0xbde506d1	-0.11182941
8	0xbce64082	-0.028106932
9	0x3e801344	0.25014699
10	0xbd4d6c9d	-0.05015241
11	0x3dc42eb1	0.09579218
12	0xbd912f63	-0.070891164
13	0xbdf0d2d7	-0.117589645
14	0x3e2e3d2e	0.17015526
15	0x3e88069b	0.2656754
16	0x3e164cf2	0.1467779
17	0xbe295264	-0.16535336
18	0xbe524478	-0.20533931
19	0xbeacff20	-0.33788395
20	0xbe91c090	-0.28467226
21	0x3e3dae72	0.18523577
22	0xbc81ba4d	-0.015835905
23	0xbd9a1048	-0.07522637
24	0x3e5f7ead	0.21825667
25	0x3e287bc8	0.16453469
26	0xbd8450c2	-0.06460716
27	0xbc8bdaa6	-0.017072033
28	0xbd9c0a2d	-0.076191284
29	0xbe3ca975	-0.18424018
30	0xbe50aea2	-0.20379117
31	0xbe475c0e	-0.1946871
32	0xbe9a2e9b	-0.30113682
33	0xbde75311	-0.112951405
34	0xbe3d28ad	-0.18472548
35	0xbdd7ef64	-0.10543707
36	0x3ddafc3a	0.1069264
37	0x3e6e8722	0.23293737
38	0xbcfc6ba6	-0.03081305
39	0x3ea47fa0	0.3212862
40	0x3df327c1	0.11872817
41	0xbe51be63	-0.20482783
42	0x3e1a330b	0.15058534
43	0x3d91e43b	0.0712361
44	0xbdf0a133	-0.11749496
45	0x3dacefee	0.084442005
46	0x3cd2d2cb	0.02573528
47	0xbe8f419c	-0.27979743
48	0xbe751c0b	-0.23936479
49	0x3e2cdab3	0.16880302
50	0xbe66b90d	-0.22531529
51	0xbd635be4	-0.055507556
52	0x39a4329b	0.00031318222
53	0xbe7cac72	-0.24675158
54	0xbbe39b93	-0.006946036
55	0x3d30147f	0.042988297
56	0x3e7b488c	0.24539393
57	0x3e27032a	0.163098
58	0xbc374873	-0.011186707
59	0x3e80fe3e	0.2519397
60	0xbe0b8fc7	-0.13629065
61	0xbea93848	-0.33050752
62	0xbe8fab89	-0.28060558
63	0x3e5870ce	0.21136782
64	0xbddf8680	-0.10914326
65	0x3db9464b	0.090466104
66	0xbe674b6f	-0.2258737
67	0xbe0fed8e	-0.14055464
68	0x3c817f56	0.015807789
69	0x3c33d3c3	0.010975781
70	0xbcc42566	-0.023943614
71	0x3db37b97	0.08763807
72	0xbe4a85d6	-0.19777617
73	0xbd03f264	-0.032213584
74	0xbed762f1	-0.42067674
75	0xbe6fadb7	-0.2340611
76	0x3db6dc7f	0.08928775
77	0xbd80b4d6	-0.06284492
78	0x3e8ee6d5	0.27910486
79	0x3e08771f	0.13326691
80	0x3e90d063	0.28283986
81	0xbe5cc75a	-0.21560422
82	0x3c5b1b87	0.013373262
83	0x3e594d88	0.21220982
84	0x3d22f6f2	0.039786287
85	0x3d8156cf	0.063153856
86	0x3e36729e	0.1781716
87	0xbe866801	-0.26251224
88	0xbdd7f00f	-0.105438344
89	0x3e3fd6c4	0.1873427
90	0x3d437716	0.04772099
91	0x3db114a5	0.08646516
92	0x3db6fca7	0.08934908
93	0xbe1d2dc4	-0.1534949
94	0xbdd07ca7	-0.101800255
95	0xbe56a629	-0.20961823
96	0x3da1a2e0	0.07892394
97	0xbe453d37	-0.19261633
98	0xbd9526a5	-0.072827615
99	0x3e3ec64f	0.18630336
100	0xbe08cfdd	-0.13360544
101	0xbe34fb27	-0.17673932
102	0xbd64c0a8	-0.055847794
103	0x3d16f88e	0.036858134
104	0xbe8d26bc	-0.27568614
105	0x3de06e1d	0.109585024
106	0x3e2785be	0.16359612
107	0x3cf20b87	0.029546512
108	0xbda538f3	-0.08067503
109	0x3e445aa6	0.19175205
110	0x3e8806f7	0.26567814
111	0x3c5f30b5	0.0136224525
112	0xbe037526	-0.12837657
113	0xbd07554d	-0.033040334
114	0x3d2bb3a9	0.041919384
115	0xbd921ade	-0.07134031
116	0x3e26f049	0.16302599
117	0xbcc485a5	-0.023989508
118	0x3c429c28	0.011878051
119	0x3cc84d56	0.02445094
120	0xbe8a9aaa	-0.27071124
121	0x3e26d1bc	0.16290945
122	0x3cb14790	0.021640569
123	0x3dff9a3f	0.12480592
124	0xbe8723ee	-0.263946
125	0x3c96e985	0.018421898
126	0x3c6e5eda	0.014548982
127	0x3d5ee4d5	0.05441745

weight f4 [256, 128]
0	0xbd55f99f	-0.05224001
1	0x3df4ab63	0.11946752
2	0xbd492df5	-0.049116094
3	0xbbbbd041	-0.005731613
4	0x3b63aec5	0.0034741622
5	0xbd54b696	-0.05193194
6	0xbc823b03	-0.01589728
7	0x3ca8cf73	0.020606732
8	0x3b5955c4	0.0033162693
9	0xbd7c3064	-0.061569586
10	0xbc91efab	-0.017814478
11	0x3e418bd4	0.18900996
12	0x3a07f70f	0.0005186656
13	0x3cb039e2	0.021511976
14	0x3cd96368	0.026536658
15	0x3deeab2f	0.116537444
16	0xbccfd802	-0.025371555
17	0xbd5d107e	-0.053970806
18	0xbd646188	-0.055757076
19	0xbd8e8336	-0.0695862
20	0x3af49114	0.0018658959
21	0x3d0f5a5c	0.034998283
22	0xbde27238	-0.11056942
23	0x3a225f2a	0.000619399
24	0x3cb03a41	0.021512153
25	0xbda5f616	-0.08103578
26	0xbaca997c	-0.0015457119
27	0xbcde8456	-0.027162712
28	0xbda5bde3	-0.08092859
29	0xbd31a9ac	-0.043374702
30	0xbd656406	-0.056003593
31	0x3cfdea12	0.030995402
32	0x3c50a4e7	0.012734628
33	0x3e18a80f	0.1490786
34	0xbd378502	-0.04480458
35	0x3cde8fa4	0.027168103
36	0xbdf83462	-0.12119366
37	0xbd318a02	-0.043344505
38	0x3db8df8d	0.09027014
39	0xbd916675	-0.0709962
40	0xbb08a8e7	-0.0020852627
41	0x3c0aa388	0.00846184
42	0x3c5cbe1b	0.013473059
43	0xbd6477a0	-0.055778146
44	0xbde996ad	-0.11405692
45	0x3d0bd4f5	0.03413864
46	0x3c9ba798	0.019000813
47	0x3d44ebe7	0.048076537
48	0xbdc5ace7	-0.09652119
49	0x3d420501	0.047368053
50	0x3cb94a9b	0.022618582
51	0x3d16bce7	0.036801245
52	0xbcd14eb2	-0.02555022
53	0xbd075cb9	-0.03304741
54	0xbd8cc058	-0.06872624
55	0xbd94bfeb	-0.07263168
56	0x3d411b8f	0.047145423
57	0x3d107f03	0.035277378
58	0xbc1a6df4	-0.009425629
59	0xbdb63478	-0.08896726
60	0xbda2d73b	-0.07951208
61	0xbd289809	-0.041160617
62	0x3da3ea6c	0.08003697
63	0xbdce8541	-0.1008401
64	0xbcab67d6	-0.020923536
65	0xbdcba945	-0.09944395
66	0x3ce58ce8	0.02802129
67	0xbe008da4	-0.12554032
68	0xbdcebbf6	-0.100944445
69	0xbcc02592	-0.023455415
70	0x3b1b5880	0.0023703873
71	0xbe162511	-0.14662577
72	0xbcbaff71	-0.022826882
73	0x3d99259b	0.07477876
74	0x3dc0dcab	0.09417089
75	0xbcc99e41	-0.024611594
76	0x3cf8d3c6	0.030374419
77	0xbb8ef631	-0.0043628444
78	0xbe104d20	-0.14091921
79	0xbdb339d1	-0.08751262
80	0x3cc5ebaf	0.024160234
81	0xbb3411ab	-0.0027476351
82	0x3e2a1954	0.16611224
83	0xbc08d600	-0.008351803
84	0xbdbd116e	-0.0923184
85	0x3d82ab80	0.06380367
86	0xbe0395f7	-0.12850176
87	0xbcf53e0f	-0.029936818
88	0xbbbe0831	-0.0057993163
89	0xbd0969bf	-0.033548113
90	0xbd47869c	-0.048712358
91	0x3cb99286	0.022652876
92	0x3d5e166a	0.054220594
93	0xbc2a7dea	-0.010405997
94	0xbe07cb96	-0.13261256
95	0xbd0a8929	-0.033822212
96	0xbcd732bc	-0.02626931
97	0x3d50d287	0.050982025
98	0xbd8c3a9f	-0.068471186
99	0x3e03771a	0.12838402
100	0xbdd35dad	-0.103206016
101	0x3c4c0829	0.012453117
102	0xbc0526c4	-0.008126918
103	0xbd872844	-0.06599477
104	0xbdd70939	-0.10499806
105	0xbdea927b	-0.1145372
106	0x3c25e307	0.010124928
107	0xbab3054a	-0.0013658192
108	0xbd04e234	-0.032442287
109	0x3da59fe2	0.08087136
110	0xbce702b8	-0.028199539
111	0xbe20e3a7	-0.15711842
112	0xbdfa7b32	-0.12230529
113	0x3d082edc	0.033247814
114	0x3db4f2cd	0.08835373
115	0x3cbc9e09	0.023024576
116	0xbda1e998	-0.079058826
117	0x3ccc6172	0.02494881
118	0xbd13fea1	-0.036131505
119	0x3d4b91e9	0.049699698
120	0xbd88e497	-0.06684225
121	0xbe0d43c2	-0.13795379
122	0x3e34d989	0.17661108
123	0xbe1b1d84	-0.15147978
124	0xbdddfa25	-0.10838727
125	0xbd0d981d	-0.034568895
126	0x3766be90	1.3753437e-05
127	0xbdc4d72a	-0.09611352
128	0xbdb2c56c	-0.087290615
129	0xbd858d1e	-0.065210566
130	0xbd97f286	-0.074193045
131	0x3cdedfbd	0.027206296
132	0x3d052ee4	0.03251542
133	0xbc5dcd85	-0.013537769
134	0x3cecfaa7	0.028928114
135	0x3d7671cc	0.06016712
136	0xbd1a9234	-0.037737086
137	0xbcaa346a	-0.020776946
138	0xbe135cf1	-0.14390923
139	0xbd00d91d	-0.031457055
140	0xbce512ca	-0.02796306
141	0x3d9dd646	0.07706885
142	0xbe145a65	-0.14487608
143	0xbd45d73a	-0.04830096
144	0xbd27ef25	-0.04099955
145	0xbddc8d28	-0.10769111
146	0xbd7f4187	-0.06231835
147	0xbd9dd1a9	-0.07706005
148	0xbb860197	-0.004089545
149	0xbd6e1086	-0.058121227
150	0xba5acbdc	-0.00083464175
151	0x3deaff28	0.114744484
152	0x3e0d8fea	0.1382443
153	0x3d82c394	0.0638496
154	0x3de46049	0.111511774
155	0xbd6c7a4b	-0.057733815
156	0xbc95e5a7	-0.018297983
157	0xbd65da6a	-0.0561165
158	0xbddfc647	-0.1092649
159	0x3dccf58d	0.100077726
160	0xbd8b320d	-0.06796656
161	0xba9fadb6	-0.0012182507
162	0xbbef7235	-0.0073073157
163	0xbd8bbde8	-0.06823331
164	0x3d8257c7	0.063643984
165	0xbd6248f4	-0.055245355
166	0x3d2bfd21	0.04198945
167	0xbd8ff3f4	-0.07028952
168	0xbe06940b	-0.13142411
169	0xbe2800e4	-0.1640659
170	0xbd5a002d	-0.053222824
171	0xbbf211bf	-0.0073873694
172	0xbd4aa4b6	-0.049473487
173	0x3da93ede	0.08263944
174	0xbd3dc0fa	-0.046326615
175	0x3ca8a13e	0.020584699
176	0x3c376c6e	0.011195285
177	0x3db3725a	0.08762045
178	0x3c1ceedd	0.009578434
179	0xbc80f7b2	-0.01574311
180	0xbd9bcdb1	-0.07607592
181	0xbde5374a	-0.11192186
182	0x3b4b83b8	0.0031053852
183	0x3e193413	0.14961271
184	0xbcbac776	-0.022800189
185	0x3bd59e63	0.0065191253
186	0xbd80d990	-0.06291497
187	0xbd4bc3d8	-0.049747318
188	0xbcf4b299	-0.029870318
189	0x3dbc3455	0.09189669
190	0xbd0d51fc	-0.034502015
191	0x3c7b6eda	0.015346253
192	0xbdd5a372	-0.10431565
193	0x3d950a8c	0.07277402
194	0xbce78a95	-0.028264323
195	0xbccdbd14	-0.025114574
196	0x3d4b86c6	0.049689077
197	0xbe377879	-0.1791705
198	0x3d51e71b	0.05124579
199	0x3c347b9f	0.011015802
200	0xbe4a7628	-0.19771636
201	0xbd022f26	-0.031783246
202	0xbdeb2613	-0.114818715
203	0x3d454225	0.048158783
204	0x3adef908	0.0017011473
205	0x3d2b28b0	0.04178685
206	0x3b1da53e	0.002405479
207	0xbdd99603	-0.106243156
208	0xbcb626b8	-0.02223526
209	0x3ca2605d	0.01982134
210	0xbc2d02b5	-0.010559727
211	0x3dbc29bb	0.09187647
212	0xbcb0555c	-0.021525078
213	0x3d9bfd24	0.07616642
214	0xbb045c7e	-0.0020196731
215	0x3a81d547	0.000990548
216	0xbd8af5b8	-0.067851484
217	0x3df08fdd	0.1174619
218	0x3c87decd	0.016585732
219	0x3d13de13	0.03610046
220	0x3e2c1d9b	0.16808169
221	0x3d4a3caf	0.04937428
222	0x3cad9cf7	0.02119301
223	0x3d8ff6ba	0.07029481
224	0xbbe83c1f	-0.007087245
225	0x3e41a80d	0.18911763
226	0xbd6531ee	-0.05595582
227	0x3e4e7c08	0.20164502
228	0xbdeac48a	-0.11463268
229	0xbe5c7984	-0.2153073
230	0xbd50d65b	-0.050985675
231	0xbd3496e7	-0.044089224
232	0xbdc294f3	-0.09501066
233	0x3cb98693	0.022647178
234	0x3c630e73	0.013858425
235	0xbe2f4d8f	-0.1711943
236	0x3dc72bb9	0.09725136
237	0x3d8bf951	0.06834663
238	0xbcae3480	-0.021265268
239	0xbe0ae2f4	-0.13563138
240	0x3a8f5aee	0.0010937133
241	0xbdc07913	-0.09398093
242	0x3d54a383	0.05191375
243	0xbc1965ff	-0.009362697
244	0x3d87b341	0.06625987
245	0x3d2b6189	0.041841064
246	0x3cc4c164	0.024017997
247	0xbe126d07	-0.14299403
248	0xbddc1988	-0.10747057
249	0xbbff6711	-0.007794269
250	0x3d8cbbf3	0.06871786
251	0xbda5bb2e	-0.08092342
252	0x3d3463a1	0.044040326
253	0x3c2ffe70	0.010741815
254	0x3db7a740	0.08967447
255	0xbc2c6a6b	-0.010523419

bias f4 [256]
0	0xbda8601f	-0.08221459
1	0x3d94ebde	0.072715506
2	0x3de16e5f	0.1100738
3	0x3d589260	0.05287397
4	0x3c6ec9b8	0.014574461
5	0xbbbb358e	-0.0057131713
6	0x3dac2754	0.08405939
7	0x3db27c41	0.08715106
8	0x3c3281a0	0.010895163
9	0xbbe027a5	-0.0068406635
10	0xbe1306c3	-0.14358048
11	0xbe061dcc	-0.13097304
12	0x3dad3608	0.08457571
13	0x3d5afaac	0.053461716
14	0x3d9141d5	0.070926346
15	0x3d2f78df	0.04283988
16	0xbcf71876	-0.030163031
17	0x3d9b585f	0.07585215
18	0x3d9189ef	0.07106387
19	0x3d8abc8b	0.06774243
20	0xbdb5eb29	-0.08882744
21	0x3d9e466a	0.07728274
22	0x3b5e9ec5	0.0033969146
23	0xbd5d3cf7	-0.05401322
24	0x3d8d1d8d	0.06890402
25	0xbcab2616	-0.020892184
26	0xbdd57724	-0.10423115
27	0x3ce659b7	0.028118951
28	0x3c43cbb4	0.011950422
29	0x3ce5aca7	0.028036429
30	0x3dcf5bca	0.10124929
31	0x3e11c030	0.1423347
32	0x3d994ed4	0.074857384
33	0xbda2ca96	-0.079487965
34	0x3bd8d7cc	0.006617522
35	0xbe22e089	-0.15905966
36	0xbcb97722	-0.022639815
37	0xbd7d829c	-0.061892137
38	0x3d644cad	0.055737186
39	0xbd052340	-0.03250432
40	0x3e0a51ee	0.13507816
41	0xbd31094b	-0.043221753
42	0x3c936bf7	0.017995818
43	0xbdde21de	-0.108463034
44	0xbd93a336	-0.072088644
45	0x3d0741aa	0.033021607
46	0x3da21ea1	0.07915998
47	0xbd87ee06	-0.06637196
48	0xbcd620f6	-0.026138764
49	0x3cc31be8	0.023817018
50	0x3d0078bf	0.031365152
51	0x3d34aea0	0.044111848
52	0xbdd7da72	-0.10539712
53	0x3d957419	0.072975345
54	0xbc963003	-0.01833344
55	0xbc7fd880	-0.0156155825
56	0x3d725cfe	0.059170716
57	0xbd729669	-0.059225474
58	0xbdadd588	-0.084879935
59	0xbd016f5b	-0.031600337
60	0xbd3a1cbb	-0.045437556
61	0xbcaaaf66	-0.02083559
62	0xbd4737ce	-0.048637204
63	0xbd1ab74b	-0.037772458
64	0x3d8121db	0.063052855
65	0x3d131fda	0.035919048
66	0x3ce81fa8	0.028335407
67	0xbd264d7a	-0.04060123
68	0xbd0e0e75	-0.034681756
69	0x3da443db	0.08020755
70	0x3dac2cf6	0.08407013
71	0xbdd4a103	-0.10382273
72	0xbe123bf1	-0.14280678
73	0xbd9a5349	-0.07535417
74	0x3dc29b42	0.09502269
75	0x3e06b22c	0.13153905
76	0xbcf39613	-0.029734647
77	0x3d12d8b8	0.03585121
78	0xbca14f5c	-0.019691162
79	0x3d9182dd	0.07105038
80	0x3dacab37	0.08431094
81	0xbd123911	-0.035698954
82	0xbdffad58	-0.124842346
83	0xbe02764b	-0.12740438
84	0xbd17c510	-0.037053168
85	0xbcff8b89	-0.031194465
86	0x3ca552b0	0.02018103
87	0x3c8693f2	0.016427968
88	0x3d314431	0.043277923
89	0xbda394c5	-0.0798736
90	0x3c5327e7	0.012887931
91	0x3d85ced9	0.06533594
92	0xbd5eba60	-0.05437696
93	0xbde171b1	-0.11008013
94	0x3dd9507e	0.10611056
95	0x3d5d5824	0.054039136
96	0x3daee6fa	0.08540149
97	0x3d554534	0.05206795
98	0xbc17edd6	-0.009273013
99	0x3ca80432	0.020509813
100	0xbd605475	-0.054768045
101	0x3c971289	0.018441455
102	0x3d77ff71	0.060546342
103	0x3cc7bf39	0.024383174
104	0xbd4f18b6	-0.050560676
105	0x3e1d9763	0.1538978
106	0x3d43985c	0.047752723
107	0xbd5f7103	-0.054551136
108	0x3ba89a0f	0.0051453183
109	0x3d6124b5	0.054966647
110	0x3d8002a9	0.062505074
111	0xbc2dd1ed	-0.010609132
112	0x3deea57a	0.11652656
113	0xbc29740d	-0.01034261
114	0xbca68a9e	-0.02032977
115	0x3c0c265d	0.008554068
116	0xbdb85502	-0.09000589
117	0xbd23ae4d	-0.039961148
118	0x3da0e4ad	0.078561164
119	0xbc5a2692	-0.01331486
120	0x3dc39f31	0.09551848
121	0xbd34f007	-0.04417422
122	0x3c0e9ea1	0.008704812
123	0x3ddb4825	0.1070712
124	0x3d7890d1	0.060684983
125	0x3c550cb8	0.013003521
126	0xbda71164	-0.08157614
127	0xbbaf2f57	-0.0053462195
128	0xbdb84187	-0.08996873
129	0xbd932b5e	-0.07186006
130	0x3d18ad42	0.037274607
131	0xbd5ddb46	-0.054164194
132	0xbccd73a7	-0.025079561
133	0x3bf7798a	0.0075523304
134	0x3d3221ba	0.043489195
135	0xbd7821a0	-0.060578942
136	0x3dd6d1e2	0.10489251
137	0x3d244327	0.040103104
138	0xbce2ce39	-0.027686225
139	0xbd008daa	-0.0313851
140	0xbd021d4f	-0.031766232
141	0xbe21cf7e	-0.15801808
142	0x3c7f00b6	0.015564134
143	0xbcb88558	-0.02252452
144	0xbc84c209	-0.016205804
145	0xbe20fef6	-0.1572226
146	0x3d536ba2	0.05161632
147	0x3c7e524a	0.015522549
148	0xbbb2e8a6	-0.0054598628
149	0x3d3cf867	0.046135332
150	0x3d505135	0.050858695
151	0xbd9206e4	-0.071302205
152	0xbcb320eb	-0.021866282
153	0xbcceac7d	-0.025228733
154	0x3d65feb8	0.05615112
155	0xbca7acba	-0.020468105
156	0xbe029ecc	-0.12755889
157	0xbd6d9f9c	-0.058013543
158	0x3d52bc1c	0.051448926
159	0xbdd3a7dd	-0.10334752
160	0x3dd337c5	0.103133716
161	0x3c7b544d	0.015339923
162	0x3d61ab31	0.0550949
163	0xbd1a58c9	-0.03768233
164	0x3db1ef11	0.086881764
165	0x39f96d20	0.00047574285
166	0xbdcac108	-0.09900099
167	0x3cf2da6f	0.029645173
168	0xbd12b317	-0.035815325
169	0x3d1f7f07	0.038939502
170	0xbdbf1ef7	-0.09332078
171	0x3d82abfe	0.06380461
172	0x3de311b7	0.11087363
173	0x3d8af9c1	0.06785918
174	0x3d7ec04c	0.062195107
175	0xbda04dc3	-0.07827332
176	0xbc4d59a6	-0.012533581
177	0x3d31d43f	0.043415304
178	0x3dff96d3	0.12479939
179	0x3e197535	0.14986117
180	0xbdd64966	-0.104632184
181	0xbd8cd7c7	-0.06877094
182	0xbdc74627	-0.097301774
183	0xbcd21a59	-0.02564733
184	0xbc28feb8	-0.010314636
185	0xbd412d56	-0.047162376
186	0x3cae106c	0.021248065
187	0x3b715670	0.0036825202
188	0xbe062309	-0.13099302
189	0xbd6e7c0a	-0.05822376
190	0x3b8d6b28	0.0043157525
191	0xbd9ddf88	-0.07708651
192	0x3c930f61	0.01795167
193	0xbe027c0c	-0.12742633
194	0xbdc7ccfd	-0.09755895
195	0xbbe2ccd1	-0.0069213887
196	0xbd3cc07d	-0.04608201
197	0xbd59c7cd	-0.05316906
198	0x3ba7c39a	0.005119753
199	0x3dbc2677	0.09187024
200	0xbd19b42e	-0.03752535
201	0xbd7d482c	-0.061836407
202	0xbd18535d	-0.037188876
203	0xbaf601cd	-0.0018768847
204	0x3ded2379	0.115790315
205	0xbd95d5d2	-0.073161736
206	0x3b5d8db1	0.0033806378
207	0x3c53d02c	0.01292805
208	0xbcd9e395	-0.026597777
209	0xbcfe0bfe	-0.031011578
210	0x3ca294f2	0.019846413
211	0xbdfa961a	-0.12235661
212	0x3dbab70b	0.09116944
213	0xbdc5381b	-0.09629842
214	0xbe0d4d28	-0.13798964
215	0x3d476cbf	0.048687693
216	0x3b8af0ef	0.0042401473
217	0xbd48005d	-0.04882847
218	0x3c1f3d97	0.009719274
219	0xbd3e1fb8	-0.046416968
220	0xbc970143	-0.018433219
221	0x3d1c03ee	0.038089685
222	0x3dbfeae3	0.09370973
223	0xbb948145	-0.0045320117
224	0xbde2fff4	-0.110839754
225	0xbbb29c23	-0.005450742
226	0x3da358c4	0.07975915
227	0x3cc18c7c	0.023626558
228	0xbd0734ad	-0.03300922
229	0x3d0c69a9	0.034280453
230	0xbdfa8ef0	-0.122342944
231	0xbc312570	-0.010812148
232	0x3d263778	0.040580243
233	0xbdb5eea2	-0.08883406
234	0xbd41dad3	-0.047327828
235	0x3dab12aa	0.08353169
236	0x3d5e5836	0.054283343
237	0x3a6add5e	0.0008959378
238	0x3db4e3d5	0.08832518
239	0xbd452bc5	-0.048137445
240	0x3cad9660	0.021189868
241	0x3cb78f13	0.02240709
242	0x3cf40734	0.029788591
243	0xbdff4943	-0.124651454
244	0xbd64e818	-0.055885404
245	0xbcdfb4e4	-0.027307935
246	0xbcd1fc0a	-0.025632877
247	0xbd9e1df9	-0.077205606
248	0xbdc709f7	-0.097186975
249	0xbcb3cc09	-0.021947877
250	0x3d07942d	0.033100296
251	0xbddcc233	-0.10779228
252	0x3d93efa1	0.0722344
253	0xbd5c2fc7	-0.0537565
254	0x3d4e7f2e	0.050414257
255	0xbd21479e	-0.03937494

weight f4 [512, 256]
0	0xbdb421d4	-0.08795515
1	0x3d516777	0.051124062
2	0xbca90f41	-0.020637156
3	0x3d164da0	0.036695123
4	0x3daf8b17	0.08571451
5	0xbc0ab1c9	-0.008465239
6	0xbacadd16	-0.0015477266
7	0xbc2c4279	-0.010513895
8	0x3d32ec67	0.043682482
9	0x3cb02e38	0.021506414
10	0xbd57e2d3	-0.05270655
11	0xbd021389	-0.03175691
12	0xbc9c1c21	-0.019056382
13	0x3d976d3c	0.07393882
14	0xbd1b1d5b	-0.037869792
15	0x3c576d55	0.013148625
16	0x3d93282c	0.071853966
17	0xbd3ddd51	-0.046353642
18	0xbda47d83	-0.08031752
19	0xbd228356	-0.039676033
20	0x3d0aac6d	0.033855844
21	0xbddb610c	-0.107118696
22	0xbcc9597b	-0.0245788
23	0x3da341f2	0.079715624
24	0x3d8de9a7	0.06929331
25	0xbdf8a3e1	-0.121406324
26	0xbd86662b	-0.06562456
27	0xbd69543f	-0.05696511
28	0x3c921adb	0.017835071
29	0xbd0db466	-0.03459587
30	0x3d279afa	0.04091928
31	0x3c96525c	0.018349819
32	0xbd356048	-0.044281274
33	0xbcf9de20	-0.030501425
34	0xbd4e33f6	-0.050342523
35	0xbd70b381	-0.05876494
36	0x3da99558	0.08280438
37	0x3c871fdf	0.01649469
38	0x3dc07d1c	0.09398863
39	0xbc39c76e	-0.011339052
40	0xbd7ac59a	-0.061223604
41	0xbd4919a6	-0.049096726
42	0x3d1f3227	0.03886619
43	0xbbb288ba	-0.005448428
44	0xbafbdae9	-0.0019215021
45	0x3c4564ed	0.012047988
46	0xbc17fe36	-0.009276917
47	0x3d41514e	0.04719668
48	0xbb71faf0	-0.0036923252
49	0xbc91f968	-0.017819121
50	0x3d5d44ce	0.054020695
51	0x3bbef9a0	0.0058280975
52	0xbdb2f9d9	-0.08739061
53	0xbd5ffa83	-0.054682266
54	0xbc712abd	-0.014719662
55	0x390abdd1	0.00013231418
56	0xbb80746a	-0.0039201276
57	0x3bd2363f	0.006415158
58	0xbd5a46c4	-0.053290144
59	0x3d1cbb53	0.038264584
60	0xbd070bcf	-0.032970246
61	0xbdbf7798	-0.093489826
62	0x3ace9b37	0.001576281
63	0xbd87ba2d	-0.06627307
64	0x3d87c7da	0.066299155
65	0xbbb084c3	-0.00538692
66	0xbdcd149e	-0.10013698
67	0x3a6cfd15	0.00090403977
68	0xbbea6e58	-0.0071542673
69	0x3d4a9112	0.049454756
70	0x3d345650	0.044027627
71	0xbcb6cc6b	-0.022314271
72	0xbd45dd16	-0.048306547
73	0x3da7467f	0.08167743
74	0x3d65c296	0.056093775
75	0x3c9547c9	0.018222706
76	0x3c017db1	0.007903502
77	0xbda9363c	-0.082622975
78	0xbceb925c	-0.028756313
79	0x3b6def0c	0.0036305813
80	0xbd81af73	-0.063322924
81	0xbb954130	-0.00455489
82	0x3dbd3d97	0.09240263
83	0x3dcf5bf8	0.101249635
84	0x3d511429	0.051044617
85	0x3d9a4631	0.07532919
86	0xbce5cd1b	-0.028051903
87	0xbdd6298d	-0.10457144
88	0x3c3fbc7e	0.011702655
89	0x3b873fca	0.0041274773
90	0xbc0d964c	-0.008641791
91	0xbcf47ea3	-0.029845541
92	0x3c4661a4	0.01210824
93	0xbcc8c413	-0.024507558
94	0x3bc4d830	0.006007217
95	0x3c61616b	0.013756136
96	0xbd61b807	-0.055107143
97	0x3cb0e97c	0.021595709
98	0x3cc77ec3	0.024352437
99	0x3d849a78	0.06474775
100	0xbc0f8b98	-0.008761309
101	0xbd96077e	-0.07325648
102	0x3c0970b7	0.00838869
103	0xbd062d75	-0.032758195
104	0xbbf75dd7	-0.0075490284
105	0x3caf7870	0.021419734
106	0xbcba0330	-0.022706598
107	0x3c5ae020	0.0133591
108	0xbd7f3969	-0.06231061
109	0xbc832257	-0.016007585
110	0xbc992262	-0.018693153
111	0xbc76145c	-0.0150195025
112	0x3c86e168	0.016464904
113	0x3b06d5c3	0.002057419
114	0x3c3c7c8d	0.011504305
115	0x3b142690	0.0022605993
116	0xbaa41bbc	-0.0012520473
117	0xbc5d85f8	-0.01352071
118	0xbce324b1	-0.027727457
119	0x3d145791	0.036216322
120	0xbd51476b	-0.0510935
121	0xbcf51173	-0.029915547
122	0x3cec8380	0.028871298
123	0xbccc2d4d	-0.024923945
124	0xbd933773	-0.071883105
125	0x3d7f5668	0.062338263
126	0xbd02db3b	-0.031947356
127	0xbd887e13	-0.06664672
128	0xbd55725d	-0.05211102
129	0xbb96f5e5	-0.0046069496
130	0xbd8addbd	-0.067805745
131	0xbd2bad49	-0.041913304
132	0xbdb0284f	-0.08601438
133	0x3da0c3d0	0.07849848
134	0xb943c633	-0.00018670484
135	0x3d176415	0.03696068
136	0x3caf5943	0.021404868
137	0xbc8126d9	-0.015765594
138	0x3cbd3d49	0.023100512
139	0xbd9b740a	-0.07590492
140	0x3d7eb89c	0.062187776
141	0xbcfcf3bd	-0.030877942
142	0xbd4ab00b	-0.049484294
143	0xbd91eea3	-0.071255945
144	0xbc19600a	-0.009361276
145	0x3d6fd379	0.058551285
146	0x3d2aee10	0.04173094
147	0xbc39b7ed	-0.011335355
148	0xbca92c87	-0.020651115
149	0xbdb2975a	-0.08720274
150	0x3c8d1b39	0.017224895
151	0xbc8fcb66	-0.017553043
152	0xbc80d5fd	-0.015727038
153	0x3d59f70a	0.05321411
154	0xbc2bea32	-0.010492848
155	0x3c43171c	0.011907365
156	0x3d74cd3d	0.059766043
157	0xbd6dc956	-0.058053337
158	0x3bf7ae9b	0.0075586564
159	0xbc0e8b2a	-0.0087001715
160	0xbce41acb	-0.027844807
161	0x3d12560c	0.035726592
162	0x3d134517	0.03595456
163	0x3d92beba	0.071652845
164	0xbca12143	-0.01966918
165	0x3d4e7e27	0.050413277
166	0xbd9f4d71	-0.07778443
167	0x3da2d3cf	0.079505555
168	0xbcc48a94	-0.02399186
169	0xbda3c976	-0.0799741
170	0xbb38d431	-0.0028202648
171	0x3c4a99b9	0.012365752
172	0xbd3f80b0	-0.046753585
173	0xbce16a5d	-0.027516538
174	0xbd78b459	-0.060718868
175	0x3d533977	0.051568475
176	0xbc883920	-0.016628802
177	0x3d75f885	0.06005146
178	0xbd199a19	-0.037500475
179	0xbd0cc4d2	-0.03436739
180	0x3b50617c	0.0031796386
181	0x3d9ca290	0.07648194
182	0xbcfed1b4	-0.031105854
183	0x3d35ef8a	0.044417895
184	0x3dc5f618	0.09666079
185	0x3bb76249	0.0055964333
186	0x3d40e336	0.047091685
187	0xbd913c08	-0.07091528
188	0xbc16a08d	-0.009193552
189	0x3dd87af6	0.10570328
190	0x3d26dbeb	0.040737074
191	0x3cba2367	0.02272196
192	0xbc9c5dc9	-0.019087689
193	0x3c072cf0	0.00825046
194	0xbbfaa7f9	-0.0076494184
195	0x3ca09453	0.019601976
196	0x3d2eef2d	0.042708565
197	0xbd963247	-0.073338084
198	0xbc583dc6	-0.013198322
199	0x3c71aafd	0.014750239
200	0xbd716616	-0.058935247
201	0xbcfdae8a	-0.030967016
202	0x3c7aa29e	0.01529756
203	0xbd0faa4f	-0.03507453
204	0xbd383f98	-0.044982523
205	0xbc7053ce	-0.014668418
206	0xbcbaa996	-0.022785943
207	0xbd132611	-0.035924975
208	0xbd1efb39	-0.038813803
209	0x3d4dba08	0.05022624
210	0x3d3d1762	0.046164878
211	0x3cb7202d	0.02235421
212	0x3d52cd63	0.051465403
213	0x3d3b1621	0.0456754
214	0xbc813394	-0.015771665
215	0x3b76d303	0.0037662394
216	0x3cd0de2b	0.025496563
217	0x3c3dd67b	0.011586781
218	0xbd863405	-0.06552891
219	0xbc7ba1a3	-0.015358361
220	0xbcd0a7a6	-0.025470566
221	0x3d3e455e	0.046452872
222	0xbda194b9	-0.07889695
223	0x3b22f762	0.002486669
224	0xbd5a4019	-0.053283785
225	0x3cba2d01	0.022726538
226	0xbbbc6a8b	-0.0057500056
227	0x3cae224d	0.02125659
228	0x3da04ce8	0.07827169
229	0x3d2a1a7e	0.04152917
230	0xbd5977ff	-0.053092953
231	0x3d7d228c	0.061800525
232	0x3d192ab8	0.037394255
233	0xbdc3d4b8	-0.09562057
234	0x3c4fbd6f	0.012679442
235	0x3d583733	0.052787017
236	0xbda82188	-0.082095206
237	0xbd116a76	-0.03550192
238	0xbd84f020	-0.06491113
239	0xbb6df3af	-0.0036308577
240	0xbc48a1db	-0.012245621
241	0xbd5bdae3	-0.053675544
242	0x3d0bb90d	0.034112025
243	0x3d8eba4a	0.069691256
244	0xbb1b89b5	-0.0023733203
245	0x3d85a07d	0.06524751
246	0x3d141514	0.036152914
247	0xbd641d4c	-0.055692002
248	0x3d10eea1	0.035383824
249	0x3de4f6fa	0.111799195
250	0x3d8c7fae	0.068602905
251	0x3bafc38f	0.0053638886
252	0x3dcc8e36	0.09988062
253	0xbc9efd04	-0.019407757
254	0x3b7dee11	0.0038746635
255	0x3ae6efb8	0.0017619049

bias f4 [512]
0	0xbc90c3d2	-0.0176715
1	0x3dbe0d1d	0.09279845
2	0xbc352d4d	-0.011058164
3	0xbd1cae8b	-0.038252395
4	0xbda76688	-0.08173853
5	0xbcf15039	-0.029457198
6	0xbd835f12	-0.064146176
7	0x3c522bb2	0.012827801
8	0xbe817699	-0.25285795
9	0xbd533fb0	-0.05157441
10	0xbdcfa828	-0.10139495
11	0xbccb8e13	-0.02484802
12	0xbd588e21	-0.05286992
13	0xbd8ebb45	-0.069693126
14	0xbdbcd1a8	-0.09219676
15	0xbd68f832	-0.056877322
16	0xbda95232	-0.08267631
17	0x3ce556d5	0.027995506
18	0xbd1210c5	-0.035660524
19	0xbcc3b3b5	-0.023889402
20	0x3c7e55b9	0.015523368
21	0x3d3c61ba	0.045991637
22	0x3d8b4d6b	0.06801876
23	0x3d0aac0a	0.033855475
24	0x3c7e8bcd	0.015536261
25	0xbd5f1f61	-0.054473285
26	0xbcb822f1	-0.022477599
27	0xbd438c0a	-0.047740974
28	0x3d26c990	0.04071957
29	0xbcfcb612	-0.030848537
30	0xbbf0ac01	-0.007344723
31	0xbba7bfb1	-0.005119287
32	0xbdcc3264	-0.09970549
33	0xbd2ce996	-0.042214952
34	0x3d819b45	0.063284434
35	0x3b8c4ca3	0.0042815967
36	0x3d89f5f1	0.06736363
37	0x3d76356b	0.060109537
38	0xbce73d40	-0.028227448
39	0x3c99cda6	0.018774819
40	0x3dd6b99e	0.104846224
41	0xbdcd2642	-0.10017063
42	0xbcb44a20	-0.022008002
43	0x3d39491f	0.04523575
44	0x3d508341	0.050906423
45	0xbdc1c9e3	-0.09462335
46	0xbdefc99c	-0.11708376
47	0xbcd7bc3b	-0.026334872
48	0xbb8ec441	-0.0043568914
49	0x3d64f25f	0.055895206
50	0xbc20745d	-0.009793368
51	0xbcd661e9	-0.026169734
52	0xbc9b1956	-0.01893298
53	0xbdb67b19	-0.08910198
54	0xbd635891	-0.055504385
55	0xbc40e4c5	-0.011773293
56	0xbbaa46e7	-0.0051964405
57	0x3e4c87a8	0.19973624
58	0xbddf9174	-0.10916415
59	0x3c6a88ad	0.014314813
60	0xbd06c5cd	-0.03290348
61	0xbd4d87d1	-0.050178353
62	0xbdaa0893	-0.08302417
63	0x3d66789b	0.056267362
64	0x3bfaf34c	0.007658398
65	0xbd6198af	-0.05507725
66	0xbd289060	-0.04115331
67	0xbd836658	-0.06416005
68	0x3db4508b	0.08804425
69	0xbe0e4f53	-0.13897447
70	0x3d6a4f96	0.057204805
71	0xbd57a314	-0.052645758
72	0xbd558f17	-0.052138414
73	0xbe6a5e7f	-0.2288761
74	0xb9fe5d58	-0.00048516202
75	0xbdc8fa80	-0.09813404
76	0xbd9e369c	-0.0772526
77	0xbd8cde1e	-0.06878303
78	0x3d30e7b5	0.043189723
79	0x3dd829e8	0.10554868
80	0xbd0fa90e	-0.035073332
81	0xbd9cd84a	-0.07658441
82	0xbdfc3d9b	-0.12316438
83	0x3d73ae0a	0.05949215
84	0xbbb41ec4	-0.0054968316
85	0xbdcd0de7	-0.10012417
86	0x3d7147ce	0.05890637
87	0xbc80107e	-0.015632864
88	0x3b524cdb	0.0032089266
89	0xbdc794b4	-0.0974516
90	0xbde8f50d	-0.11374865
91	0x3da2f0ef	0.07956111
92	0xbdd07cf9	-0.10180087
93	0xbdc661f9	-0.096866556
94	0x3c0c2e10	0.008555904
95	0xbd139412	-0.036029883
96	0xbd89b4a4	-0.067239076
97	0xbdf382ea	-0.11890204
98	0xbd864a9a	-0.06557198
99	0xbc42be20	-0.01188615
100	0x3c2fd0f4	0.010730971
101	0xbc9fb8e9	-0.019497352
102	0x3df0edc6	0.11764102
103	0x3d2e712e	0.042588405
104	0xbd456d82	-0.048200138
105	0x3cf81d99	0.03028755
106	0x3c21325b	0.009838666
107	0xbd6ad0ba	-0.057327963
108	0xbdc7ef02	-0.09762384
109	0x3d8e5eba	0.069516614
110	0x3c94832b	0.018128952
111	0xbe5fda36	-0.21860585
112	0xbd45ce4c	-0.048292443
113	0xbdb449fa	-0.088031724
114	0x3d805739	0.062666364
115	0x3d18110d	0.037125636
116	0xbca68f8e	-0.020332124
117	0xbe3e41d1	-0.18579794
118	0xbdb44240	-0.08801699
119	0xbd611eac	-0.05496089
120	0xbd68e173	-0.05685563
121	0xbd50b63c	-0.050955042
122	0xbdebc65a	-0.11512442
123	0xbc834401	-0.016023638
124	0xbded6ade	-0.11592649
125	0x3d2e9762	0.04262484
126	0xbd712b9e	-0.058879487
127	0xbbc83431	-0.0061097373
128	0xbd9c7b7a	-0.07640739
129	0xbd0dcac5	-0.034617204
130	0x3de49f55	0.11163203
131	0x3c4e6583	0.0125974445
132	0xbcbd6151	-0.023117693
133	0xbe1a1043	-0.15045266
134	0x3d011a56	0.031519257
135	0xbd8e9aa0	-0.06963086
136	0xbd9bdce4	-0.07610491
137	0xbe62fb14	-0.22166091
138	0x3d4ea263	0.050447833
139	0xbcff8f25	-0.031196186
140	0x3ddd44bb	0.10804125
141	0xbcd1b859	-0.0256006
142	0x3de1c7bc	0.110244244
143	0x3dfbd2a0	0.12296033
144	0x3d8e271e	0.06941055
145	0xbc803a65	-0.015652845
146	0x3d1ff86b	0.03905527
147	0x3d4949d8	0.04914269
148	0xbde815d4	-0.113322884
149	0xbdce1cd0	-0.10064089
150	0xbdbcf1d8	-0.092258155
151	0x3b0065ca	0.001959192
152	0x3c1e2cf7	0.009654275
153	0xbde60f26	-0.11233358
154	0xbdb49e99	-0.088193126
155	0xbccf1ef4	-0.025283314
156	0xbde2320a	-0.110447004
157	0x3d93684f	0.0719763
158	0xbd13db43	-0.036097776
159	0xbdd1e956	-0.102495834
160	0x3adca092	0.0016832522
161	0x3d848bc9	0.064719744
162	0x3d64ef2b	0.05589215
163	0x3c75cc6d	0.015002352
164	0x3cf3dc20	0.02976805
165	0x3d24b547	0.040211942
166	0x3d4f80d5	0.050659973
167	0x3db50dab	0.088404976
168	0xbdbfbb59	-0.093619056
169	0x3d8ad997	0.06779783
170	0xbc0bd6a2	-0.008535059
171	0xbe07f75c	-0.13277954
172	0xbda87bc2	-0.0822673
173	0x3d34b617	0.044118967
174	0x3d265a06	0.040613197
175	0x3e0423d2	0.1290429
176	0xbd47c473	-0.048771333
177	0xbdc0356f	-0.09385192
178	0xbdc31b04	-0.09526637
179	0xbc957671	-0.018244954
180	0xbc96e7ee	-0.01842114
181	0xbd387a6d	-0.04503863
182	0x3dc87e7c	0.0978975
183	0xbcc83452	-0.02443901
184	0x3d682b65	0.05668201
185	0x3c89372c	0.01674994
186	0xbd030bff	-0.031993862
187	0x3dcaa197	0.09894102
188	0x3d2cb2f0	0.042162836
189	0xbc889aab	-0.016675314
190	0x3d298f7a	0.041396596
191	0xbc72125b	-0.014774884
192	0xbd46c0a1	-0.04852355
193	0x3c2fd75e	0.0107325
194	0x3cab110a	0.020882148
195	0xbe01080a	-0.12600723
196	0xbdeb9f81	-0.11505032
197	0xbd0797af	-0.03310364
198	0x3c68fb1c	0.014220025
199	0xbd8ccf46	-0.06875472
200	0xbddace3c	-0.10683867
201	0x3dc71eeb	0.09722694
202	0xbcb319aa	-0.021862824
203	0xbc96b66a	-0.018397529
204	0xbd42f912	-0.047600813
205	0x3ad2d0c6	0.0016083948
206	0xbd7ef646	-0.062246583
207	0xbc4fa49b	-0.012673522
208	0xbe4ebc87	-0.20189105
209	0x39d8d5a7	0.00041357914
210	0xbe1502f1	-0.14551903
211	0xbc6e1144	-0.014530484
212	0x3d41ec40	0.047344446
213	0xbdd72fc4	-0.105071574
214	0xbc20e0a1	-0.009819181
215	0x3d8d87fc	0.069107026
216	0xbd467887	-0.048454788
217	0x3d7c3f99	0.06158409
218	0x3c9153e5	0.0177402
219	0xbc9bc312	-0.019013915
220	0x3d9b4c8b	0.07582959
221	0x3d3a1dc1	0.04543853
222	0xbd491d79	-0.049100373
223	0xbd42cdc9	-0.047559533
224	0x3d889d70	0.06670654
225	0x3d65108d	0.055923987
226	0xbda609f3	-0.081073664
227	0xbdaf7dcb	-0.08568915
228	0xbcbea5fb	-0.023272505
229	0xbb47a7c0	-0.0030464977
230	0x3d90f0f5	0.07077209
231	0xbd94bb73	-0.072623156
232	0x3d685a9c	0.056727037
233	0x3dbb17ac	0.091353744
234	0xbde69458	-0.11258763
235	0x3d4f105f	0.050552722
236	0xbe050174	-0.12988836
237	0x3dfcfa2c	0.12352404
238	0xbe190b4d	-0.14945717
239	0x3d6e16cd	0.058127213
240	0xbd18883a	-0.03723929
241	0xbce1b11d	-0.027550275
242	0x3d1f0ac8	0.03882864
243	0xbdd7a393	-0.10529246
244	0xbd4fde00	-0.050748825
245	0xbc9a04bf	-0.018801091
246	0xbc47c542	-0.012193026
247	0x3c8c59a1	0.017132582
248	0x3dcadfca	0.099059656
249	0xbdd1f907	-0.10252576
250	0xbd82c9df	-0.0638616
251	0xbd68c18c	-0.056825206
252	0x3d1b5a4b	0.037927907
253	0xbd6748cb	-0.056465905
254	0xbc91bf50	-0.01779142
255	0xbe146f66	-0.1449562

weight f4 [128, 512]
0	0xbcedbd72	-0.029020999
1	0xbc7774f1	-0.015103565
2	0xbc4c3765	-0.012464379
3	0x3c73ffb1	0.014892505
4	0x3d90de1a	0.070736125
5	0xbd294001	-0.041320805
6	0xbae423bd	-0.001740567
7	0x3ce798fb	0.028271189
8	0xbdbcffc4	-0.09228471
9	0xbe01b614	-0.12667114
10	0x3adb3826	0.0016725108
11	0xbb8b0fae	-0.0042438125
12	0xbab2b354	-0.0013633766
13	0x3d167cc2	0.036740072
14	0xbd2ddc54	-0.04244645
15	0xbcd4e5f0	-0.025988549
16	0x3d41bb2f	0.047297653
17	0xbd7c2444	-0.061558023
18	0x3d659cc5	0.05605771
19	0xbd52ec98	-0.051495165
20	0xbe001374	-0.12507421
21	0xbd124330	-0.035708606
22	0x3c157092	0.009121077
23	0x3ceefa6e	0.029172149
24	0xbc9e57ce	-0.019328978
25	0xbba5a9f1	-0.005055659
26	0x3cbc39cf	0.022976784
27	0xbd0a39c2	-0.03374649
28	0x3d281606	0.04103663
29	0x3d2d6d6f	0.042340692
30	0xbd0ad36b	-0.03389303
31	0x3d8500fc	0.064943284
32	0xbd60b88c	-0.054863498
33	0x3bc68ef6	0.0060595227
34	0x3bebe571	0.0071989824
35	0xbd471cd2	-0.04861147
36	0x3d23421f	0.03985798
37	0x3ceb5ea8	0.028731659
38	0xbc763b56	-0.015028795
39	0x3cd45723	0.025920456
40	0x3d042080	0.032257557
41	0xbdd6da3e	-0.10490845
42	0xbab327f6	-0.0013668525
43	0xbcadcf2f	-0.021216957
44	0x3c2d564b	0.010579656
45	0x3d1b8a21	0.037973527
46	0xbd653c18	-0.055965513
47	0xbe11d8ea	-0.14242902
48	0x3ce7d9ce	0.0283021
49	0x3c69f6b5	0.014280011
50	0xbdc9a178	-0.09845251
51	0x3c73ada1	0.014872939
52	0x3d838779	0.06422324
53	0xbcafa23f	-0.02143967
54	0xbd902e0c	-0.07040033
55	0xbcbad852	-0.022808228
56	0xbc7ce37b	-0.015435095
57	0xbda12edc	-0.07870266
58	0x3d16b18f	0.036790427
59	0xbc2dc9f6	-0.010607233
60	0xbd0486c6	-0.032355092
61	0xbdaf736a	-0.08566935
62	0x3d1d6a1c	0.038431272
63	0xbd3535c8	-0.044240743
64	0x3c42a719	0.0118806595
65	0x3d1a9795	0.037742216
66	0x3cba2340	0.022721887
67	0xbdfd0e99	-0.123563
68	0xbdac7976	-0.08421604
69	0x3cce4fae	0.025184479
70	0x3c8585de	0.016299184
71	0x3bb529ab	0.005528649
72	0xbd2ecf65	-0.042678256
73	0xbdbd0dec	-0.09231171
74	0xbd8be663	-0.06831052
75	0xbd8369e3	-0.06416681
76	0x3c871a84	0.016492136
77	0x3c12aa3c	0.00895172
78	0xbc11681f	-0.008874922
79	0xbd1921a4	-0.037385598
80	0xbc84cea9	-0.016211824
81	0x3ca7e298	0.02049379
82	0xbc991c54	-0.018690266
83	0x3ba84014	0.005134592
84	0x3ca5e65b	0.020251444
85	0xbc07379a	-0.008253003
86	0xbd189e98	-0.03726062
87	0x3cc966e2	0.024585191
88	0xbcf706f0	-0.030154675
89	0x3d259cd9	0.040432785
90	0xbd2ab7ee	-0.041679315
91	0x3d4d8156	0.050172172
92	0xbd7e0367	-0.062014963
93	0xbc20af0c	-0.009807359
94	0x3bee9acb	0.0072816364
95	0xbd9219c8	-0.07133824
96	0x3c8fc7f0	0.017551392
97	0x3bd5d314	0.0065254066
98	0x3b4c2287	0.003114851
99	0x3cf02e1c	0.029318862
100	0xbd5608f2	-0.052254625
101	0xbb43a314	-0.002985184
102	0xbcde17b5	-0.027110914
103	0xbd0b4888	-0.034004718
104	0xbd934d53	-0.07192483
105	0xbd33021e	-0.04370319
106	0x3d0285ee	0.031866007
107	0xbd11b6dd	-0.035574783
108	0x3c9dd745	0.019267688
109	0x3d38bd01	0.045102123
110	0x3d2c1e41	0.04202104
111	0xbd9b20af	-0.07574593
112	0xbcab8a56	-0.020939987
113	0xbc7aaad0	-0.015299514
114	0x3d8397d0	0.0642544
115	0xbb7bddcf	-0.0038431769
116	0x3d4cad9c	0.049970254
117	0xbd4b33e7	-0.049610045
118	0x3d51c51b	0.051213365
119	0xbd3a31ed	-0.04545777
120	0x3d319491	0.043354575
121	0x3d26b334	0.040698245
122	0xbd2efcc2	-0.042721517
123	0x3d0de51a	0.034642316
124	0x3d915429	0.070961304
125	0x3a59bbe0	0.00083058886
126	0x3b88fb20	0.004180327
127	0x3ce1f972	0.027584765
128	0xbd0b2f9e	-0.03398096
129	0xbd56565c	-0.052328452
130	0x3d2ff537	0.042958464
131	0xbd3d48b1	-0.046211902
132	0xbc6b7420	-0.014370948
133	0xbe065af1	-0.13120629
134	0xbd287116	-0.041123472
135	0x3bdf3443	0.00681165
136	0x3cbc385b	0.022976091
137	0xbdac054f	-0.0839945
138	0xbdad9d85	-0.0847731
139	0xbd240ea3	-0.04005302
140	0x3cafac96	0.0214446
141	0x3d44bb70	0.048030317
142	0x3ce5493c	0.027989022
143	0x3bf6989f	0.007525518
144	0xbc9f5660	-0.019450366
145	0x3da4b2ad	0.08041892
146	0xbc5469d4	-0.0129646845
147	0xbc8a842a	-0.016908724
148	0x3d0e6fa0	0.034774423
149	0x3ca875c3	0.020563966
150	0xbc76c4dc	-0.015061583
151	0xbc978117	-0.018494172
152	0xbcf5cf24	-0.030005999
153	0x3d82178b	0.06352147
154	0xbdc25395	-0.09488598
155	0x3bbd246a	0.005772163
156	0x3a018c22	0.0004941841
157	0xbd9973ca	-0.07492788
158	0x3ba1154c	0.004915869
159	0xbc1a840a	-0.009430895
160	0xb8bba8c0	-8.948287e-05
161	0xbd5a03d0	-0.053226292
162	0xbd881eae	-0.06646477
163	0xbd39fc41	-0.045406584
164	0x3d31b1c5	0.043382425
165	0xbb8cdbb0	-0.0042986497
166	0x3cd55c44	0.026044972
167	0x3cb67ff0	0.022277802
168	0x3ab1cee7	0.001356569
169	0xbd350488	-0.044193774
170	0x3c6de80c	0.014520656
171	0xbb9a2913	-0.0047046035
172	0x3ba340a8	0.004982073
173	0x3c9686ed	0.018374885
174	0x3b31586c	0.002706076
175	0xbd0e820c	-0.03479199
176	0xbd3bf839	-0.04589102
177	0xbd47d4f0	-0.048787057
178	0xbcd7992b	-0.026318153
179	0xbc6fa613	-0.0146269975
180	0x3d3fe252	0.046846695
181	0x3d23901b	0.03993235
182	0xbd0fb351	-0.03508312
183	0x3b3ff55c	0.0029290533
184	0xbb9157bf	-0.004435509
185	0xbda3947b	-0.07987305
186	0xbbe6ddfd	-0.007045506
187	0xbc93d8aa	-0.01804765
188	0x3c2a0efd	0.01037955
189	0x3c755bec	0.014975529
190	0xbda5976f	-0.08085524
191	0x3beb7d50	0.0071865693
192	0xbc9a5176	-0.018837672
193	0xbd05e834	-0.03269215
194	0xbe1ab5e0	-0.15108442
195	0x3d592453	0.053013157
196	0x3d773f37	0.06036302
197	0xbcac3605	-0.021021852
198	0x3cf9d66e	0.030497756
199	0xbcf5754c	-0.029963158
200	0x3c1bac60	0.009501547
201	0x3ac4026f	0.0014954339
202	0xbc3c4f07	-0.011493451
203	0xbcba0999	-0.022709655
204	0x3dbd1994	0.09233394
205	0x3c8d6fb9	0.017265188
206	0xbbb00b6f	-0.0053724567
207	0x3cad5ab5	0.021161417
208	0xbcbfc57c	-0.023409598
209	0xbad4a26b	-0.0016222721
210	0xbb0b28f0	-0.0021234117
211	0xbdadaa19	-0.08479709
212	0xbcc99885	-0.02460886
213	0x38cbf984	9.72627e-05
214	0x3d2da1bb	0.042390566
215	0xbb7cebb2	-0.0038592634
216	0x3cb8a224	0.022538252
217	0xbcc324c3	-0.02382124
218	0x3c1ec2f7	0.009690038
219	0x3d16ff92	0.036864825
220	0xbce86f25	-0.02837331
221	0xba9ff406	-0.0012203462
222	0x3d21d738	0.03951189
223	0x3be12915	0.0068713524
224	0x3d3329b3	0.04374094
225	0x3d0b607d	0.034027565
226	0xbd0032d4	-0.031298473
227	0x3d1f692f	0.03891867
228	0x3d2e97c4	0.042625204
229	0x3c145151	0.0090525905
230	0xbdfc5cb6	-0.12322371
231	0xbcaf9e24	-0.021437712
232	0xbcf6b2bc	-0.030114524
233	0xbd3f18ed	-0.04665463
234	0x3d37cc9c	0.044872865
235	0x3c893ed8	0.016753599
236	0xbd1bceeb	-0.03803913
237	0xbd245b56	-0.040126167
238	0x3b7550d7	0.0037432218
239	0x3cdb84b4	0.026796676
240	0xbbf9c95d	-0.0076228813
241	0xbd2cea7c	-0.04221581
242	0xbcff0b44	-0.031133302
243	0x3d33efb5	0.043929774
244	0x3ccfb2c1	0.025353791
245	0xbd00191f	-0.031273957
246	0xbcc03c67	-0.023466302
247	0x3c1edbdf	0.009695976
248	0x3bb6d0e6	0.005579102
249	0xbd265a78	-0.04061362
250	0xbd0918b6	-0.03347083
251	0x3cb46651	0.022021445
252	0xbd395f11	-0.045256678
253	0x3dce7d54	0.10082498
254	0xbd3c1501	-0.04591847
255	0x3d6f6691	0.058447424

bias f4 [128]
0	0x3d803231	0.06259573
1	0x3c3a24db	0.011361326
2	0x3c79c98d	0.015245807
3	0x3c816424	0.015794821
4	0xbbac3a2e	-0.005255959
5	0xbd84dcff	-0.06487464
6	0xbd09d8a6	-0.033653878
7	0xbdfc86df	-0.12330412
8	0xbcd08d43	-0.025457984
9	0xbd022485	-0.03177311
10	0xbd007780	-0.031363964
11	0xbdd80d8b	-0.10549458
12	0x3d8a69fc	0.06758496
13	0xbd2e7869	-0.0425953
14	0x3d131802	0.035911568
15	0x3d911234	0.0708355
16	0x3dcda91e	0.10042022
17	0x3d892d8d	0.06698141
18	0xbdbb98c9	-0.09160001
19	0xba639c72	-0.0008682675
20	0xbcc9a59c	-0.024615102
21	0xbdc2bfe9	-0.0950926
22	0x3c946e68	0.018119052
23	0xbd4b3085	-0.04960682
24	0x3d5241fe	0.051332466
25	0xbdab182b	-0.08354219
26	0x3d904416	0.07044236
27	0xbd7a93d3	-0.061176132
28	0xbdaa0944	-0.083025485
29	0xbd3da51a	-0.04630003
30	0xbd302d4c	-0.04301195
31	0xbd07f153	-0.03318913
32	0x3c813f79	0.015777336
33	0xbddb5769	-0.107100315
34	0xbd764d1a	-0.060132124
35	0x3d07d1d4	0.033159092
36	0x3dae582a	0.0851291
37	0xbdb7e64c	-0.089794725
38	0xbd8617b1	-0.065474875
39	0x3d4d7375	0.050158937
40	0x3c924876	0.017856818
41	0xbd4e499f	-0.05036318
42	0xbcd3f1c2	-0.025872115
43	0x3ce8e829	0.028431015
44	0x3d811ca5	0.06304292
45	0xbd2a8ae1	-0.04163635
46	0xbdca620f	-0.098819844
47	0xbd7aca13	-0.06122787
48	0xbdb68a01	-0.08913041
49	0x3cc43ec3	0.023955708
50	0xbddf61b9	-0.10907311
51	0xbcb90f2f	-0.022590248
52	0xbdaedfc5	-0.085387744
53	0x3d3401b7	0.043946948
54	0xbcf40780	-0.029788733
55	0x3de742ca	0.11292036
56	0xbc703682	-0.014661433
57	0xbcd214fb	-0.02564477
58	0xbd8cb291	-0.06869996
59	0xbdd3d1e7	-0.1034277
60	0xbbf60026	-0.007507342
61	0xbd2dfbb3	-0.042476367
62	0xbd1d66a0	-0.03842795
63	0xbbb86713	-0.005627522
64	0x3d2a880e	0.041633658
65	0x3d0c72b1	0.034289066
66	0xbd504ef4	-0.050856546
67	0xbdbb709f	-0.0915234
68	0xbc4b550a	-0.012410412
69	0x3d764e44	0.060133234
70	0x3d309867	0.043114092
71	0xbdc72c88	-0.097252905
72	0x3d6a549a	0.05720959
73	0xbd30bc96	-0.0431486
74	0xbd71d99e	-0.059045427
75	0xbd900f07	-0.07034116
76	0xbd94b77d	-0.0726156
77	0xbc6b6ee2	-0.014369698
78	0x3ddc3fc4	0.1075435
79	0x3db982dd	0.09058163
80	0x3cc38a57	0.023869677
81	0xbd2bc3bc	-0.041934714
82	0xbcc2b557	-0.02376811
83	0xbd7e4ad7	-0.06208309
84	0xbd9bfe4d	-0.076168634
85	0xbdaa255a	-0.083079055
86	0xbdd18e45	-0.10232214
87	0xbcbdf5c8	-0.023188487
88	0xbd508393	-0.05090673
89	0xbd99d530	-0.075113654
90	0x3dce7855	0.10081545
91	0xbd8a8a5a	-0.0676467
92	0xbd1d73a8	-0.038440377
93	0xbda341cd	-0.07971535
94	0xbcc23967	-0.023709012
95	0x3d8354ae	0.06412636
96	0x3bd53aaa	0.0065072374
97	0x3c19b181	0.009380699
98	0x3d0ad131	0.033890907
99	0x3e21ea78	0.15812099
100	0xbc832c54	-0.016012348
101	0xbd59a9fd	-0.05314063
102	0x3c8113b9	0.015756475
103	0xb9d9d867	-0.00041550698
104	0xbdb19a23	-0.08671977
105	0xbdbea6ea	-0.0930918
106	0xbb12a5de	-0.0022376697
107	0x3c9ee576	0.019396525
108	0xbdc5b927	-0.09654456
109	0xb996420f	-0.00028659447
110	0x3cf6ee2e	0.03014287
111	0x3da3f64e	0.08005963
112	0x3d3bc3f4	0.045841172
113	0x3da0b8ed	0.07847772
114	0xbd44aa42	-0.048013933
115	0x3cd65ab3	0.026166296
116	0x3b8beba6	0.004270035
117	0xbdb64e89	-0.08901698
118	0xbcef0444	-0.029176839
119	0xbd277c0c	-0.040889785
120	0x3c99426d	0.018708432
121	0xbd9bf574	-0.07615176
122	0x3b4bcadc	0.0031096255
123	0x3ccf4f30	0.025306314
124	0xbdc48fca	-0.09597738
125	0xbccd45c7	-0.025057686
126	0xbb1b106f	-0.0023660918
127	0xbdc8068f	-0.09766876
