result/aug74_then_gan_40_model_13.pt (torch, 980066 bytes, 15 tensors)

weight f4 [128, 13]
0.070674814 -0.11069634 0.14357658 -0.13381125 -0.01974513 -0.22678293 -0.10756505 -0.32124698
-0.1754392 -0.12768409 -0.12882592 0.15107694 -0.41728348 -0.08543388 -0.2636244 -0.103001975
0.17030749 0.22592026 0.17307293 -0.09837202 -0.3513374 -0.35330775 -0.46573928 0.064378045
0.016355548 -0.21974356 0.06127902 0.20435598 -0.26784357 0.14967804 0.24589829 0.3301235
-0.28230727 -0.25434822 0.27523267 0.34406808 -0.5658137 -0.120385386 -0.17435178 -0.3055023
-0.19498582 0.08420871 -0.08698028 -0.10820735 -0.17656957 0.33605105 -0.22445793 -0.16697375
-0.115943685 0.35653472 -0.21286643 0.31103215 -0.15371583 -0.05937764 0.065798864 -0.18193635
0.0915196 -0.06685318 0.26629013 0.15565766 0.15587415 -0.012000506 -0.3385652 0.004509074
-0.4380473 -0.21195312 -0.077106565 0.096931845 0.06659313 -0.17729227 -0.4319849 -0.12566951
0.20298477 -0.036198616 0.18910307 -0.14532405 0.17943001 -0.38936773 -0.28981397 -0.04928766
-0.026609771 -0.26236483 -0.08836438 0.27827942 -0.12778802 -0.08294205 -0.24287453 0.29464445
-0.3715146 -0.04977158 -0.15313667 0.36667225 0.053806618 -0.08767709 0.013029656 0.10608647
0.099082366 -0.15784734 -0.14718881 -0.2689944 -0.22379252 0.09404271 -0.004417309 0.2955763
-0.10635288 -0.15078922 -0.15842313 -0.0012551772 0.13520153 0.33771703 -0.054640666 -0.3269196
-0.12057654 -0.074090414 0.15990277 -0.024566658 0.4375262 0.32716304 -0.43117946 -0.0018190087
0.18150088 0.24792942 -0.10448716 -0.22747952 -0.46690187 -0.09426774 0.30118313 0.62820697
-0.021180393 -0.03448986 0.4051853 -0.21646006 -0.06602727 -0.2094162 -0.079766236 0.14202844
0.16113526 0.23112617 -0.11142223 -0.253353 0.06452128 0.032780245 0.25092742 0.15146916
0.28177226 -0.21292493 -0.3127872 0.10625184 0.30932495 0.04717668 0.36418608 0.13045752
-0.2011749 -0.29878145 0.19523059 0.30887192 0.42038518 0.10256499 -0.33380985 -0.16999725
-0.28436106 0.060576998 -0.12119218 -0.17016199 -0.07059118 0.059943493 -0.020779302 -0.0019610422
0.07514861 -0.40368053 -0.13600188 0.15849672 0.16195674 0.09897533 0.21216726 0.064917296
-0.19905752 0.14768715 0.0019274896 -0.39265868 0.0036485228 -0.5258843 0.28716555 0.22851388
0.12204037 -0.0373481 0.11451794 -0.14462973 0.04318524 -0.008221015 -0.3643405 -0.2098473
-0.64958614 0.17200617 -0.5178951 0.07672144 -0.0659663 0.0064369077 -0.17503907 0.10717528
-0.25037077 -0.35899356 -0.36322987 0.08347785 -0.09278647 0.05141933 0.116308615 -0.056804426
-0.32555896 0.046149146 -0.24280122 -0.56402314 -0.3709868 0.21180609 -0.14372534 0.4046576
0.13034071 -0.3051488 0.21479814 0.2206475 0.13600504 0.08837494 0.117159404 -0.23380643
0.008208346 0.08227599 0.15823998 -0.07553777 -0.13003825 -0.34123582 -0.16610517 -0.43242577
0.16024086 -0.276402 0.053130556 -0.025835656 0.2521273 -0.32410562 -0.120796464 0.24874938
-0.15096758 0.034918193 -0.09580968 -0.095967494 0.21469757 0.14337546 0.37518972 -0.18484974
0.2525322 0.068647414 0.25519913 -0.10924488 0.04348654 0.14461657 -0.13179825 -0.31291834
00000000: f5bd 903d c3b4 e2bd bd05 133e d105 09be
00000010: 8ac0 a1bc c939 68be 114b dcbd 7c7a a4be
00000020: 55a6 33be 9ebf 02be f1ea 03be eab3 1a3e
00000030: 2ea6 d5be f5f7 aebd c7f9 86be b3f2 d2bd
00000040: 1665 2e3e a457 673e 083a 313e 4577 c9bd
00000050: 7fe2 b3be c1e4 b4be 6175 eebe a3d8 833d
00000060: 12fc 853c 7504 61be b6ff 7a3d b242 513e
00000070: cb22 89be 3345 193e c3cc 7b3e f305 a93e
00000080: 948a 90be ee39 82be 4ceb 8c3e b129 b03e
00000090: 2bd9 10bf 9d8c f6bd 4689 32be cc6a 9cbe
000000a0: 5daa 47be 9e75 ac3d b822 b2bd d19b ddbd
000000b0: a7ce 34be e20e ac3e 4dd8 65be 2bfb 2abe
000000c0: e273 edbd b88b b63e a8f9 59be 9b3f 9f3e
000000d0: af67 1dbe f835 73bd 8ec1 863d 864d 3abe
000000e0: a16e bb3d 52ea 88bd 2e57 883e b964 1f3e
000000f0: 799d 1f3e c59d 44bc 6b58 adbe dbc0 933b
00000100: bc47 e0be 3d0a 59be 0cea 9dbd 3484 c63d
00000110: fb61 883d 1b8c 35be 202d ddbe 82af 00be
00000120: 3ddb 4f3e 0045 14bd 3ca4 413e d4cf 14be
00000130: 80bc 373e 355b c7be 7f62 94be dbe1 49bd
00000140: bcfc d9bc af54 86be 62f8 b4bd a47a 8e3e
00000150: ddda 02be 86dd a9bd 1ab4 78be a3db 963e
00000160: 2937 bebe 49dd 4bbd dccf 1cbe 77bc bb3e
00000170: 5464 5c3d 0c90 b3bd 577a 553c dd43 d93d
00000180: b2eb ca3d bca2 21be aab8 16be a2b9 89be
00000190: de29 65be 7799 c03d 13bf 90bb c755 973e
000001a0: 8acf d9bd 7d68 1abe ac39 22be c284 a4ba
000001b0: 4572 0a3e 3fe9 ac3e e4ce 5fbd 0162 a7be
000001c0: d5f0 f6bd b7bc 97bd 8dbd 233e 0440 c9bc
000001d0: 6f03 e03e ea81 a73e 8ec3 dcbe ce6b eeba
000001e0: 5edb 393e 36e1 7d3e 5dfd d5bd 64f0 68be
000001f0: c30d efbe 720f c1bd ad34 9a3e 2cd2 203f
00000200: 8182 adbc 3d45 0dbd 7374 cf3e b5a7 5dbe
00000210: 4e39 87bd 3371 56be 7b5c a3bd e76f 113e
00000220: a400 253e 57ac 6c3e 5731 e4bd 7cb7 81be
00000230: bc23 843d 9444 063d 8f79 803e bb1a 1b3e
00000240: 7444 903e fe08 5abe a525 a0be 919a d93d
00000250: d75f 9e3e 563c 413d 9976 ba3e a896 053e
00000260: cb00 4ebe e2f9 98be 87ea 473e 7624 9e3e
00000270: ba3c d73e 980d d23d 20e9 aabe c213 2ebe
00000280: c697 91be 961f 783d 9b33 f8bd f23e 2ebe
00000290: 1c92 90bd 4f87 753d 5b39 aabc d484 00bb
000002a0: 84e7 993d 37af cebe 1444 0bbe f74c 223e
000002b0: fdd7 253e 94b3 ca3d 6042 593e 5cf3 843d
000002c0: bcd5 4bbe 4d3b 173e d2a3 fc3a 8f0a c9be
000002d0: 0e1c 6f3b 5aa0 06bf 5d07 933e 8bff 693e
000002e0: 4df0 f93d 52fa 18bd 6288 ea3d d119 14be
000002f0: 02e3 303d 70b1 06bc d78a babe 36e2 56be
00000300: 474b 26bf 6322 303e c694 04bf 2120 9d3d
00000310: 5719 87bd b2ec d23b 713d 33be b77e db3d
00000320: 9930 80be 01ce b7be 44f9 b9be 6ff6 aa3d
00000330: d506 bebd 139d 523d 3633 ee3d c2ab 68bd
00000340: aaaf a6be e306 3d3d e2a0 78be d263 10bf
00000350: fbf1 bdbe b2e3 583e bc2c 13be 482f cf3e
00000360: 0978 053e 773c 9cbe 0bf4 5b3e 6bf1 613e
00000370: e844 0b3e ecfd b43d 45f1 ef3d f46a 6fbe
00000380: 4c7c 063c 5080 a83d a909 223e 8cb3 9abd
00000390: bf28 05be 76b6 aebe 7917 2abe e966 ddbe
000003a0: 2e16 243e 9084 8dbe 6d9f 593d 4ca5 d3bc
000003b0: d416 813e 2cf1 a5be 2364 f7bd 28b8 7e3e
000003c0: 3f97 1abe 6106 0f3d de37 c4bd 9b8a c4bd
000003d0: aed9 5b3e 04d1 123e de18 c03e 4049 3dbe
000003e0: e74b 813e 0497 8c3d 76a9 823e c8bb dfbd
000003f0: f11e 323d 5e16 143e 1ff6 06be d536 a0be

bias f4 [128]
-0.2060105 -0.0045195897 -0.16818848 0.08699924 0.2680081 0.05510449 0.0112298485 0.22177702
0.010765061 -0.016920308 0.08258442 -0.14332852 -0.06605786 -0.009418156 0.018659761 -0.24544026
0.07163951 -0.12075759 0.088540554 0.17007668 -0.07981093 -0.066901505 0.009659451 -0.16519935
0.09888791 -0.24607871 0.32231817 0.1791894 0.11835638 0.2071632 -0.1038577 0.20423836
0.28882718 0.13868344 0.099019885 0.11516512 -0.18260726 0.008693731 -0.07300942 -0.10444164
-0.019926872 0.11003957 -0.047272254 0.030641057 -0.12745756 0.026486935 0.105108425 0.20820229
-0.3070611 0.12832691 0.18260989 0.17150666 0.30551124 -0.23518042 0.17768632 -0.09619738
0.2649792 0.17839563 -0.25195312 0.031584002 -0.119276896 -0.18682638 -0.07645959 -0.037292656
-0.10200822 0.38895652 -0.2563286 0.09166219 0.09524149 0.111720964 0.2848132 0.22274941
0.16097203 -0.08173883 -0.013469862 -0.04408592 -0.24174869 0.055221364 0.1275108 0.25873372
0.02440362 0.22597477 0.18371883 -0.07652379 -0.30197772 -0.06002808 0.09066767 0.21184249
-0.15728424 -0.06836968 -0.24327053 -0.030793672 0.15520093 -0.14256439 0.09282678 -0.23447219
0.15784578 -0.20783041 -0.17195894 -0.18333563 -0.05541102 -0.17145379 0.16437016 -0.17662194
-0.07524725 -0.220559 0.0893403 0.24654584 0.16112386 0.009065027 -0.17055029 0.28524423
0.011025828 0.0615446 -0.19460249 -0.19820122 -0.185047 -0.2885158 0.09240377 0.04057334
0.26828244 -0.017023707 -0.17601185 -0.23342986 0.092546836 0.04523102 -0.061033145 -0.16262268
00000000: 6bf4 52be 1119 94bb 9a39 2cbe a82c b23d
00000010: 5c38 893e 3fb5 613d 66fd 373c 8419 633e
00000020: f05f 303c 759c 8abc 0522 a93d b6c4 12be
00000030: 5849 87bd 9c4e 1abc 5bdc 983c b154 7bbe
00000040: bcb7 923d c14f f7bd c054 b53d 9528 2e3e
00000050: ea73 a3bd a803 89bd ad42 1e3c 052a 29be
00000060: bf85 ca3d 0ffc 7bbe e306 a53e 6d7d 373e
00000070: d464 f23d 9722 543e 59b3 d4bd dc23 513e
00000080: 28e1 933e 0803 0e3e f0ca ca3d b1db eb3d
00000090: 66fd 3abe 2770 0e3c f685 95bd 80e5 d5bd
000000a0: ae3d a3bc 6d5c e13d 8da0 41bd f402 fb3c
000000b0: 3c84 02be 21fb d83c 1643 d73d fb32 553e
000000c0: 1d37 9dbe 2168 033e 16fe 3a3e 719f 2f3e
000000d0: f86b 9c3e 23d3 70be 67f3 353e 2203 c5bd
000000e0: 5bab 873e 58ad 363e 0000 81be 3a5e 013d
000000f0: 7247 f4bd 6a4f 3fbe d896 9cbd 2fc0 18bd
00000100: b0e9 d0bd 4f25 c73e 813d 83be 63b9 bb3d
00000110: f80d c33d f6cd e43d 09d3 913e 6c18 643e
00000120: dad5 243e b066 a7bd b2b0 5cbc 7093 34bd
00000130: f88c 77be cc2f 623d 3192 023e bf78 843e
00000140: 1aea c73c ee65 673e ca20 3c3e 81b8 9cbd
00000150: d39c 9abe 01e0 75bd f9af b93d 3ded 583e
00000160: 1f0f 21be 6705 8cbd e91b 79be 0343 fcbc
00000170: feec 1e3e 66fc 11be f81b be3d 7a19 70be
00000180: 53a2 213e 7fd1 54be 0116 30be 56bc 3bbe
00000190: aaf6 62bd 9591 2fbe a750 283e 62dc 34be
000001a0: 3b1b 9abd 38da 61be 0cf8 b63d 8376 7c3e
000001b0: a7fd 243e 7b85 143c bca4 2ebe 880b 923e
000001c0: ada5 343c 3116 7c3d e045 47be 43f5 4abe
000001d0: f67c 3dbe 58b8 93be 303e bd3d 3b30 263d
000001e0: 515c 893e 4d75 8bbc 733c 34be 3d08 6fbe
000001f0: 3289 bd3d 2944 393d e4fd 79bd 8f86 26be

weight f4 [512, 128]
-0.02817148 0.058082484 0.0162413 0.038764603 0.054669034 -0.02930379 0.17631657 -0.0851308
0.014979788 -0.14040168 -0.06202374 -0.02117688 -0.012740951 0.04993858 0.098956324 -0.061153606
-0.03829275 0.059677493 -0.0035498203 0.0793882 -0.17155154 -0.01793104 -0.0854846 0.043373816
0.047004286 -0.039584707 0.018989773 -0.09642103 -0.03156991 0.08006052 -0.025874985 -0.049037643
0.09160593 -0.025628107 0.029162519 -0.03136834 0.022105427 -0.07359802 0.116445094 0.14577004
0.039650958 -0.016508747 -0.12659547 0.023132378 0.022318628 -0.023344118 -0.16963774 0.21462087
0.022198504 0.03934869 -0.078498326 -0.043208722 -0.006467418 -0.07634909 0.053512517 0.17594828
-0.062320355 -0.08701173 0.05942965 -0.058845267 0.07321165 0.07322152 0.017546834 0.043173827
0.34260026 0.12728584 -0.06890411 -0.008989589 0.08916738 -0.10586915 0.07550767 0.074577935
-0.1304829 0.035629306 0.06639176 -0.08787978 0.12370463 -0.05999533 0.038448785 -0.049617633
0.026583012 0.04993063 -0.14131044 -0.01362747 0.06835651 0.034680046 0.060470358 -0.04353987
-0.1462267 0.05440225 0.024978606 -0.0025652328 0.031578697 0.046834175 -0.038976483 -0.0031805327
-0.07756072 0.055850536 0.03624207 -0.060800105 -0.024168758 -0.054013714 0.009998644 -0.027846009
-0.04152747 0.10345696 0.022105103 -0.0021197726 0.04033078 0.036003266 -0.08556583 -0.01840215
-0.0018418888 0.009248598 0.047763273 0.07391785 -0.059101656 0.028868798 -0.0078066885 0.035779618
-0.081766866 0.032896843 -0.04435439 0.09886551 -0.0790378 0.09187508 0.023788149 0.06237639
-0.09361613 -0.064323634 0.027612489 -0.0024521814 0.007652402 0.03770656 -0.12073854 -0.04733935
0.031354614 0.009963438 -0.08977754 -0.0011699129 0.096536145 -0.029978385 -0.050674435 -0.0031413233
0.094474144 0.053137887 0.09356351 0.023359923 0.066830665 0.020141138 -0.020740747 -0.014336292
-0.027567312 -0.10473958 -0.024437094 -0.14742985 0.0977831 -0.08349021 -0.020283233 -0.010625807
-0.035087638 -0.05369747 -0.06389793 -0.08205235 -0.26166984 0.1009275 -0.18665163 -0.047461137
0.085449055 0.17161407 0.120266154 -0.10049632 -0.19694002 0.11379748 -0.12325047 -0.06259342
-0.08610134 -0.19725798 -0.05258259 0.05059673 -0.030337622 0.099071674 -0.017912086 -0.103490174
-0.11000722 -0.062295392 -0.08930705 0.039898314 0.0050284727 -0.059102338 0.007214569 0.07050198
0.028222246 -0.09288561 -0.04003795 0.21101576 0.019660592 -0.0038708593 -0.053638253 -0.06591614
0.0033667705 0.006643258 0.05737396 0.03921119 -0.10779553 0.036617387 -0.044592235 0.09304627
-0.14169279 0.098911166 -0.13010179 -0.063254826 -0.0209059 0.04419341 -0.07190831 -0.077712975
-0.041409004 0.09095592 -0.032488167 -0.12391963 -0.07725548 -0.061809868 0.14309755 -0.07476357
-0.0828398 0.071314305 -0.025220659 0.047844425 0.07381462 0.025085563 -0.061752684 -0.04267359
0.032830834 0.023062194 -0.0075230733 -0.082851075 0.037900817 -0.24626084 -0.2835615 0.060579337
0.046140052 0.10095477 -0.053433727 0.0104883015 0.114650615 0.07369473 0.0047639497 -0.18670124
-0.040240847 -0.00021863848 -0.058493648 0.061555844 -0.0052389703 -0.091572665 -0.07552174 -0.069909394
00000000: e0c7 e6bc e6e7 6d3d 7a0c 853c a2c7 1e3d
00000010: a3ec 5f3d 800e f0bc 558c 343e 0f59 aebd
00000020: c96d 753c 75c5 0fbe 9b0c 7ebd 237b adbc
00000030: 6cbf 50bc 658c 4c3d 9da9 ca3d 347c 7abd
00000040: dcd8 1cbd 6370 743d 1aa4 68bb 4896 a23d
00000050: 35ab 2fbe 1ee4 92bc 8d12 afbd bea8 313d
00000060: 9187 403d 9323 22bd 7190 9b3c 6478 c5bd
00000070: 734f 01bd c5f6 a33d c7f7 d3bc b2db 48bd
00000080: e49b bb3d 09f2 d1bc 3ce6 ee3c 177c 00bd
00000090: 7116 b53c 8fba 96bd c47a ee3d be44 153e
000000a0: 0b69 223d 5a3d 87bc 3ea2 01be 1d80 bd3c
000000b0: 8ed5 b63c 2a3c bfbc 84b5 2dbe 93c5 5b3e
000000c0: a3d9 b53c 182c 213d bbc3 a0bd a1fb 30bd
000000d0: a2ec d3bb e95c 9cbd f12f 5b3d c92b 343e
000000e0: a143 7fbd 3533 b2bd 816c 733d bc07 71bd
000000f0: fdef 953d 2af5 953d 61be 8f3c 0ad7 303d
00000100: 4d69 af3e 3857 023e 991d 8dbd 1249 13bc
00000110: 639d b63d edd1 d8bd c4a3 9a3d 51bc 983d
00000120: 4f9d 05be 09f0 113d 67f8 873d 50fa b3bd
00000130: da58 fd3d aabd 75bd 797c 1d3d dc3b 4bbd
00000140: 9ec4 d93c 0f84 4c3d afb3 10be c045 5fbc
00000150: 7ffe 8b3d aa0c 0e3d c4af 773d dd56 32bd
00000160: 74bc 15be e5d4 5e3d ef9f cc3c 771d 28bb
00000170: aa58 013d 31d5 3f3d cea5 1fbd 7c70 50bb
00000180: 28d8 9ebd 88c3 643d 9172 143d 8809 79bd
00000190: 8ffd c5bc 7c3d 5dbd 5ad1 233c 501d e4bc
000001a0: b518 2abd 3ee1 d33d c315 b53c e2eb 0abb
000001b0: e331 253d 2978 133d 233d afbd 1bc0 96bc
000001c0: 886b f1ba 6e87 173c 6ca3 433d 3e62 973d
000001d0: 9414 72bd 427e ec3c 40cf ffbb a68d 123d
000001e0: 6375 a7bd d7be 063d f3ac 35bd 007a ca3d
000001f0: 92de a1bd 0029 bc3d 5ddf c23c 637e 7f3d
00000200: d0b9 bfbd 1cbc 83bd 9633 e23c c7b4 20bb
00000210: 00c1 fa3b 3272 1a3d c545 f7bd e8e6 41bd
00000220: b26d 003d b03d 233c 49dd b7bd c357 99ba
00000230: beb4 c53d 3b95 f5bc ff8f 4fbd a9de 4dbb
00000240: a97b c13d 1da7 593d 3a9e bf3d 4f5d bf3c
00000250: 84de 883d 07ff a43c 80e8 a9bc c4e2 6abc
00000260: d8d4 e1bc b481 d6bd 4d30 c8bc daf7 16be
00000270: 8242 c83d eafc aabd 0629 a6bc dd17 2ebc
00000280: 0eb8 0fbd e1f1 5bbd ebdc 82bd 100b a8bd
00000290: 97f9 85be 14b3 ce3d 9b21 3fbe 9c66 42bd
000002a0: eaff ae3d 99bb 2f3e 1a4e f63d 04d1 cdbd
000002b0: a5aa 49be a70e e93d be6a fcbd fb30 80bd
000002c0: e655 b0bd fffd 49be d860 57bd 843e 4f3d
000002d0: 9b86 f8bc 17e6 ca3d 5ebc 92bc a8f2 d3bd
000002e0: 774b e1bd 7429 7fbd 9de6 b6bd 6a6c 233d
000002f0: e3c5 a43b 4b15 72bd 3168 ec3b 5863 903d
00000300: 5732 e73c d03a bebd d5fe 23bd 8414 583e
00000310: 400f a13c 3eae 7dbb c9b3 5bbd 0bff 86bd
00000320: 09a5 5c3b b0af d93b f500 6b3d ea9b 203d
00000330: e7c3 dcbd 1dfc 153d 59a6 36bd 0b8f be3d
00000340: ea17 11be f091 ca3d 6739 05be bf8b 81bd
00000350: da42 abbc 2604 353d aa44 93bd fb27 9fbd
00000360: 7d9c 29bd 1947 ba3d 5012 05bd 93c9 fdbd
00000370: 1f38 9ebd 582c 7dbd 2a88 123e a51d 99bd
00000380: eaa7 a9bd 3c0d 923d 8e9b cebc 84f8 433d
00000390: 1f2c 973d 3d80 cd3c 62f0 7cbd 81ca 2ebd
000003a0: a079 063d edec bc3c 1d84 f6bb d3ad a9bd
000003b0: e33d 1b3d cd2b 7cbe f92e 91be 0a22 783d
000003c0: 5afd 3c3d 60c1 ce3d 53dd 5abd 20d7 2b3c
000003d0: f1cd ea3d 43ed 963d e81a 9c3b 9c2e 3fbe
000003e0: 96d3 24bd 5242 65b9 0997 6fbd fb21 7c3d
000003f0: abab abbb 738a bbbd 24ab 9abd a82c 8fbd

bias f4 [512]
0.07272082 -0.02923697 -0.033432856 -0.020536076 -0.106906645 -0.07639038 0.011298004 0.0037794537
-0.06274322 0.018868487 0.0994966 0.006348637 -0.13948311 -0.1137557 0.07253736 -0.09410693
-0.05326517 0.03708985 -0.00789426 -0.06823587 0.08117066 -0.07843181 0.00812629 0.116207644
-0.00094146386 -0.124683164 0.010084188 -0.07520941 -0.14761896 0.106062785 0.046598 -0.03125967
0.0359373 0.010599467 -0.047348052 -0.039467208 -0.03097953 0.0076788426 -0.11451438 0.029284138
-0.0005484047 0.05806937 -0.07445399 -0.10345023 -0.064645745 -0.05775599 0.020410487 -0.08484293
0.04190465 -0.03861602 -0.18342938 -0.10933243 0.11737407 0.035374578 0.006394739 -0.0013364969
0.112401634 0.041009642 0.14314945 -0.0398361 0.0020907298 0.0939928 0.084445454 -0.030555895
0.09755023 0.06536779 -0.12502465 0.0028553263 0.023588467 -0.08619881 0.12716576 -0.033303045
0.03183245 -0.01669516 0.00698215 -0.0019321946 -0.046561882 -0.11550494 0.034386557 0.03314922
0.048187226 0.043997955 -0.027162913 0.014485172 0.104209624 0.007733618 0.018761612 0.040590294
0.002772193 -0.047122046 -0.011308552 -0.06382485 -0.075765185 0.17527583 0.11418479 0.042154137
-0.10698023 -0.00530281 -0.005470806 -0.0207441 -0.096294396 -0.04277036 -0.042768333 -0.01768732
-0.025204895 -0.15277444 -0.05359264 -0.13242584 0.039428327 0.016254865 -0.055503566 -0.034120817
-0.035829045 0.0958298 -0.039015044 0.012118637 -0.019101325 -0.0069544963 -0.08790805 0.0023181874
-0.09452029 -0.036331534 -0.09109398 0.091059916 0.036697444 0.011225808 0.040543895 3.807272e-05
0.043160442 0.027402496 0.01725641 0.06643608 -0.040191498 0.072624825 -0.0005456346 -0.037252653
-0.071439795 0.1365034 0.039342016 -0.023965096 -0.08103761 -0.054408837 -0.084112115 -0.033013314
0.053786546 0.038985327 -0.08582844 -0.013617278 0.08622191 -0.0593473 0.056233533 0.043518588
0.031486344 0.0052387137 -0.036376577 0.02206521 -0.078250065 0.051935773 0.09603628 0.025823899
0.00034290552 -0.16322543 0.003124546 0.030724512 -0.040665947 -0.15882389 0.1296749 -0.062221713
0.013874872 0.021317692 -0.012867393 0.028763827 0.024051983 -0.018536475 -0.063238986 0.12929904
-0.07034297 0.024339259 -0.06790801 0.017588118 -0.09815757 0.09926768 -0.058561765 -0.111245334
0.058289353 -0.012436513 -0.017702539 -0.07902386 0.0386632 0.045685116 -0.0025743598 0.023194637
0.015067306 -0.0013338798 0.0039211884 -0.15075447 -0.0025988175 0.05887288 0.041894067 -0.0989825
0.011750935 0.007478891 0.03300844 0.017201139 -0.019400757 -0.060732383 0.09033037 -0.026857441
0.072129875 -0.026945196 0.119537845 0.053013355 -0.07957103 -0.009870496 -0.08844022 0.035892975
-0.08189722 -0.07445868 -0.01501577 -0.027806453 -0.1212721 -0.031417705 -0.12756424 0.03986353
-0.14728099 -0.120404094 0.02349701 -0.044704106 -0.1891829 0.09691955 -0.056563657 0.11119832
-0.053103376 -0.08885015 -0.008029343 0.13329834 -0.030191958 -0.0087317 0.029525585 -0.10651728
0.1012472 -0.041808642 -0.053108092 0.00016272452 0.062493186 -0.031248372 -0.101729356 0.033217613
-0.054229397 -0.0005506435 0.0865597 0.08618492 0.01731329 -0.04725936 -0.009671571 0.08107996
00000000: a7ee 943d 5f82 efbc e4f0 08bd 463b a8bc
00000010: dff1 dabd 8f72 9cbd 431b 393c b6b0 773b
00000020: 847f 80bd 1692 9a3c e0c4 cb3d 3a08 d03b
00000030: a9d4 0ebe c0f8 e8bd 788e 943d 22bb c0bd
00000040: 942c 5abd 87eb 173d ed56 01bc 3fbf 8bbd
00000050: ce3c a63d dba0 a0bd 2124 053c 46fe ed3d
00000060: 92cc 76ba e359 ffbd 2638 253c 6407 9abd
00000070: 6d29 17be 7237 d93d 8bdd 3e3d 240a 00bd
00000080: fe32 133d 63a9 2d3c 08f0 41bd 5ea8 21bd
00000090: c9c8 fdbc cd9e fb3b 8486 eabd 4ae5 ef3c
000000a0: d1c2 0fba 26da 6d3d 557b 98bd b7dd d3bd
000000b0: fd64 84bd 8c91 6cbd e533 a73c 21c2 adbd
000000c0: 36a4 2b3d d52b 1ebd e9d4 3bbe aee9 dfbd
000000d0: d161 f03d efe4 103d f58a d13b 652d afba
000000e0: d432 e63d baf9 273d c595 123e 2e2b 23bd
000000f0: a004 093b 4c7f c03d bdf1 ac3d 5b50 fabc
00000100: 6ac8 c73d 8cdf 853d 7606 00be 6d20 3b3b
00000110: 9a3c c13c 0089 b0bd be37 023e c668 08bd
00000120: be62 023d 4ac4 88bc 85ca e43b b141 fdba
00000130: acb7 3ebd db8d ecbd ebd8 0c3d 7ac7 073d
00000140: f85f 453d 3337 343d c284 debc 3753 6d3c
00000150: db6b d53d 4a6a fd3b f4b1 993c 0242 263d
00000160: aead 353b 0c03 41bd 8147 39bc 9ab6 82bd
00000170: c72a 9bbd 827b 333e b7d9 e93d d1a9 2c3d
00000180: 7318 dbbd 32c3 adbb 7244 b3bb 88ef a9bc
00000190: ff35 c5bd f92f 2fbd d92d 2fbd 00e5 90bc
000001a0: 7f7a cebc e770 1cbe f583 5bbd a49a 07be
000001b0: 997f 213d ec28 853c b557 63bd 45c2 0bbd
000001c0: 7ac1 12bd 6a42 c43d 3dce 1fbd 3f8d 463c
000001d0: 627a 9cbc 8be2 e3bb 2309 b4bd bbec 173b
000001e0: db93 c1bd 60d0 14bd 7b8f babd 9f7d ba3d
000001f0: 0f50 163d 74ec 373c 5b11 263d 46b0 1f38
00000200: 01c9 303d 337b e03c 515d 8d3c a40f 883d
00000210: d79f 24bd 53bc 943d eb08 0fba 3d96 18bd
00000220: 074f 92bd 8cc7 0b3e 1825 213d 7352 c4bc
00000230: 0cf7 a5bd cddb 5ebd f942 acbd f838 07bd
00000240: 484f 5c3d 14af 1f3d d2c6 afbd 011b 5fbc
00000250: 1d95 b03d 2816 73bd 2255 663d 8c40 323d
00000260: d3f7 003d 84a9 ab3b 9bff 14bd 19c2 b43c
00000270: 9241 a0bd 9bba 543d abae c43d a48c d33c
00000280: 00c8 b339 9124 27be 2fc5 4c3b f9b1 fb3c
00000290: 5691 26bd bba2 22be 7fc9 043e 32dc 7ebd
000002a0: 6e53 633c 71a2 ae3c c2d1 52bc 1ea2 eb3c
000002b0: aa08 c53c ced9 97bc 7183 81bd f866 043e
000002c0: fa0f 90bd 2063 c73c 5b13 8bbd f514 903c
000002d0: d606 c9bd da4c cb3d 76de 6fbd 98d4 e3bd
000002e0: d1c0 6e3d 84c2 4bbc ea04 91bc 43d7 a1bd
000002f0: 4e5d 1e3d 5120 3b3d 97b6 28bb ae02 be3c
00000300: dddc 763c 94d5 aeba 507d 803b 615f 1abe
00000310: ec50 2abb b024 713d 1d99 2b3d 56b7 cabd
00000320: fe86 403c 7c11 f53b dc33 073d 67e9 8c3c
00000330: 56ee 9ebc 85c2 78bd 21ff b83d 2304 dcbc
00000340: d4b8 933d 2cbc dcbc 42d0 f43d 8824 593d
00000350: 23f6 a2bd dcb7 21bc 2520 b5bd 8304 133d
00000360: bbb9 a7bd cb7d 98bd b404 76bc 5cca e3bc
00000370: 825d f8bd daaf 00bd 33a0 02be f147 233d
00000380: d4d0 16be 6c96 f6bd cd7c c03c a71b 37bd
00000390: 2ab9 41be c27d c63d 4baf 67bd f2bb e33d
000003a0: ed82 59bd 11f7 b5bd 818d 03bc 5c7f 083e
000003b0: 2055 f7bc 670f 0fbc a4df f13c bb25 dabd
000003c0: b15a cf3d 8a3f 2bbd df87 59bd 08a1 2a39
000003d0: dbf8 7f3d 96fc ffbc 7b57 d0bd 310f 083d
000003e0: a51f 5ebd 0f59 10ba 3646 b13d b881 b03d
000003f0: 9ad4 8d3c 0893 41bd 8275 1ebc 400d a63d

weight f4 [256, 512]
0.04040249 -0.012063145 0.070364185 0.047675367 0.109075755 -0.028825952 0.08485578 0.026081417
0.0134040285 0.092310935 -0.1687557 -0.0319738 0.047192685 0.0008905311 -0.0026197478 -0.02790466
0.031960424 -0.012230215 -0.028224358 0.0894817 0.019111332 0.004123751 0.07858558 -0.062603876
-0.013695355 0.07361893 0.05254613 0.067131035 0.02372702 0.004454973 0.10404148 -0.02707976
0.023432018 -0.047465906 0.0113455495 0.05188812 0.022016313 -0.040114466 0.07628145 -0.021980692
0.013854537 -0.004704685 0.1119921 0.029116793 -0.020869328 0.011117624 0.017782256 0.050256588
0.04443813 0.043769833 -0.012681281 0.06293219 -0.049486853 -0.013778181 -0.00020086434 0.0068167266
0.015671408 -0.001145276 0.0011721227 0.018799044 0.087951824 -0.00525188 -0.104323044 0.041178882
-0.062593274 0.042788845 -0.021929385 0.022383703 0.04738797 0.010121817 -0.058989543 0.040479552
0.110326 0.02856573 -0.08495563 0.014086138 0.012833959 0.1281934 -0.010080549 -0.03583698
0.040872116 0.04626728 0.056742497 0.050199676 0.013758738 0.052866895 -0.0044635837 -0.03623892
-0.04625246 0.010973258 -0.07867129 0.16628103 0.009298671 -0.034042016 0.036461156 -0.0704699
0.009318273 -0.06831602 0.11315457 -0.05970462 0.040084247 -0.0039086 -0.02028323 0.04730148
0.0104932925 0.00817584 0.12265304 0.011381831 -0.10474833 0.010349583 -0.04147742 0.04438313
0.12385803 0.07027568 0.09941238 -0.008670227 -0.02526783 0.13533518 0.04815317 0.03459501
0.02062983 0.08807838 0.049331382 0.008068851 0.046672784 -0.08983888 -0.014082523 -0.10087079
-0.047227688 -0.02124618 0.06678466 -0.07182314 0.022443643 0.03703281 0.011871521 0.013820375
0.13112338 0.026995292 -0.0067375265 0.08525929 0.090530455 -0.007423157 0.16192663 0.104079954
-0.04121555 0.13039012 -0.04074585 0.050041087 0.02814389 0.12469403 -0.021002531 -0.0021322642
-0.022834824 0.02127978 0.013998 -0.02683846 0.058493953 0.0040295403 0.026396604 -0.042099252
-0.0125762625 0.02163216 0.033115193 0.019483618 -0.059028957 0.15548278 -0.059882227 0.022664404
0.014434183 -0.026543772 -0.027993323 0.1094364 0.0358487 0.025335139 0.039716076 -0.08051689
0.057113726 0.034166835 0.059325274 -0.019271737 0.0348864 -0.108009666 0.049753793 0.010449713
0.02119057 -0.02085122 0.018454194 0.021124806 0.057593826 -0.050368555 -0.00015396344 -0.022710597
-0.05644494 0.15196529 -0.01790596 0.051801797 0.07079039 0.021014523 -0.075600624 0.047201306
-0.04719653 -0.024318913 0.044535115 -0.01129673 0.0879433 0.016178282 0.0366691 0.04335315
-0.01747407 0.035583124 -0.061386388 -0.030853506 -0.035526786 -0.018140873 0.0629872 0.037150405
-0.08924734 0.1494024 -0.15619858 -0.033046395 -0.045421075 0.038442925 -0.024131194 -0.0492938
0.025677463 -0.07323034 0.0062122294 0.0121170245 0.063881285 -0.052308533 -0.006616732 0.018550878
0.031705998 -0.015045352 0.15657654 -0.0030462446 0.011241082 0.09466534 -0.038835157 0.014842263
-0.032980036 0.06294105 -0.100834705 0.05500138 -0.03487234 0.0473596 0.0881921 -0.06318351
0.02061123 -0.018840255 -0.057585645 0.020997332 -0.018142167 0.03931944 -0.05863917 -0.007794396
00000000: 157d 253d 7fa4 45bc 191b 903d 3f47 433d
00000010: 1c63 df3d 6724 ecbc dec8 ad3d b2a8 d53c
00000020: 929c 5b3c 840d bd3d 4bce 2cbe f6f6 02bd
00000030: 1e4d 413d 8872 693a 13b0 2bbb 5098 e4bc
00000040: efe8 023d 3d61 48bc c536 e7bc 2e42 b73d
00000050: 5e8f 9c3c 8820 873b 7af1 a03d 7636 80bd
00000060: 7b62 60bc 86c5 963d 9c3a 573d ff7b 893d
00000070: 2b5f c23c 06fb 913b b313 d53d 5fd6 ddbc
00000080: 81f4 bf3c 9c6b 42bd afe2 393c a388 543d
00000090: 8e5b b43c 114f 24bd 7339 9c3d da10 b4bc
000000a0: 24fe 623c c229 9abb 1d5c e53d 5786 ee3c
000000b0: 27f6 aabc b226 363c 18ac 913c dad9 4d3d
000000c0: c204 363d ff47 333d 26c5 4fbc 98e2 803d
000000d0: bab2 4abd e1bd 61bc 1c9f 52b9 d95e df3b
000000e0: 5361 803c 161d 96ba e9a1 993a 7400 9a3c
000000f0: 1620 b43d f617 acbb 52a7 d5bd 30ab 283d
00000100: e730 80bd 5b43 2f3d 41a5 b3bc 075e b73c
00000110: e319 423d fad5 253c 059f 71bd e3cd 253d
00000120: 99f2 e13d ae02 ea3c 38fd adbd 8cc9 663c
00000130: 8745 523c 2145 033e e328 25bc ccc9 12bd
00000140: 8569 273d c282 3d3d d26a 683d 2d9e 4d3d
00000150: 546c 613c f58a 583d 4143 92bb 436f 14bd
00000160: 3873 3dbd 2ec9 333c 6a1e a1bd 9345 2a3e
00000170: 7459 183c a46f 0bbd 4b58 153d 8652 90bd
00000180: abab 183c 45e9 8bbd 95bd e73d d58c 74bd
00000190: 612f 243d b713 80bb 0429 a6bc 32bf 413d
000001a0: 0fec 2b3c f5f3 053c 8431 fb3d dc7a 3a3c
000001b0: 4b86 d6bd 4c91 293c 3ae4 29bd 16cb 353d
000001c0: 47a9 fd3d b2ec 8f3d b898 cb3d 910d 0ebc
000001d0: 7bfe cebc 4e95 0a3e 423c 453d 7fb3 0d3d
000001e0: e4ff a83c 7062 b43d b40f 4a3d 3733 043c
000001f0: f62b 3f3d 72fd b7bd 62ba 66bc 5895 cebd
00000200: d271 41bd 780c aebc 65c6 883d 0318 93bd
00000210: bbdb b73c b7af 173d c580 423c db6e 623c
00000220: 3545 063e 3b25 dd3c 78c6 dcbb 6c9c ae3d
00000230: 0868 b93d f43d f3bb 18d0 253e df27 d53d
00000240: a3d1 28bd fd84 053e 1fe5 26bd e2f7 4c3d
00000250: 048e e63c 955f ff3d 800d acbc 75bd 0bbb
00000260: 1910 bbbc ef52 ae3c de57 653c 54dc dbbc
00000270: 5b97 6f3d 3c0a 843b b13d d83c 4470 2cbd
00000280: ab0c 4ebc ed35 b13c cca3 073d 1c9c 9f3c
00000290: 59c8 71bd e136 1f3e 1147 75bd b3aa b93c
000002a0: 5a7d 6c3c 5372 d9bc 4152 e5bc 3120 e03d
000002b0: 16d6 123d a38b cf3c 53ad 223d 0ae6 a4bd
000002c0: 15f0 693d 86f2 0b3d 0fff 723d c3df 9dbc
000002d0: 0be5 0e3d 2c34 ddbd a2ca 4b3d 4635 2b3c
000002e0: d997 ad3c 2dd0 aabc 402d 973c ee0d ad3c
000002f0: 81e7 6b3d 424f 4ebd 3f71 21b9 930b babc
00000300: cf32 67bd ca9c 1b3e 85af 92bc 1f2e 543d
00000310: 8dfa 903d a626 ac3c 80d4 9abd 2856 413d
00000320: 2651 41bd 7538 c7bc 746a 363d eb15 39bc
00000330: 9e1b b43d 5188 843c 5732 163d 1393 313d
00000340: c825 8fbc 9cbf 113d 4b70 7bbd 7ec0 fcbc
00000350: 8984 11bd 2b9c 94bc 6fff 803d 062b 183d
00000360: 4fc7 b6bd f1fc 183e 85f2 1fbe a85b 07bd
00000370: 730b 3abd 5476 1d3d c8ae c5bc 4ce8 49bd
00000380: 8b59 d23c caf9 95bd f58f cb3b 7c86 463c
00000390: 31d4 823d 7941 56bd 2cd1 d8bb 03f8 973c
000003a0: 26de 013d c880 76bc 9a55 203e 81a3 47bb
000003b0: 842c 383c e7df c13d 9d11 1fbd f72c 733c
000003c0: 1316 07bd 3de7 803d 6d82 cebd 2149 613d
000003d0: 4cd6 0ebd 24fc 413d 0f9e b43d 5b66 81bd
000003e0: e2d8 a83c e156 9abc edde 6bbd 9902 ac3c
000003f0: e29e 94bc 6c0d 213d a02f 70bd 2268 ffbb

bias f4 [256]
-0.108873054 -0.17705552 -0.021642322 0.036690522 0.029116698 0.06954479 0.06195329 0.036605038
-0.16604008 -0.0045847157 0.01735914 -0.008829324 0.04576704 -0.17172961 0.00914448 -0.0489423
-0.046049833 -0.015228091 -0.011571488 -0.026890697 -0.02840798 -0.07244911 0.065372854 0.057226192
-0.06475266 -0.05895136 -0.07852256 -0.050042104 -0.02613271 0.050273586 -0.02556401 -0.086325064
0.048910834 0.056011934 0.031859193 -0.017547017 -0.020205831 0.051310718 -0.042077113 -0.04556314
-0.026649993 -0.11996839 -0.020741642 0.092488684 0.04871814 -0.05514292 0.06319559 -0.0803116
-0.031181252 0.04174139 -0.08392657 0.0025997297 -0.031651504 0.02000872 -0.013641452 0.029577862
-0.051221065 0.02876428 0.06509706 -0.006437501 0.05117813 -0.06689933 -0.13200542 0.06861645
-0.020154374 -0.02796927 0.024229888 0.011453993 0.0131536545 0.079661705 -0.0940352 0.10833383
-0.12105122 0.010896081 -0.010590738 0.017250204 0.067205764 -0.08443949 -0.05263366 -0.042908147
-0.022858424 0.028746082 0.089453295 -0.038595945 -0.07054732 -0.07196643 0.0778219 0.0046410207
-0.1680512 0.06154704 -0.08605808 -0.081804 -0.019138733 -0.03315143 -0.033400673 0.08777753
-0.017896026 0.051697705 -0.05385029 0.007197282 -0.06197598 -0.11970823 0.0005855105 -0.013391616
0.02923151 0.0063613867 -0.07161419 -0.048286133 0.06183653 -0.069669366 -0.032687295 -0.11308683
-0.016787235 -0.035424132 -0.012898173 -0.017841378 0.10211181 0.03653717 0.078931354 0.02498614
0.003736212 0.006800537 -0.09165067 -0.020076182 0.0763987 -0.005154704 0.07220543 0.06312662
-0.025456702 -0.022949846 0.019643527 0.049327813 -0.029768426 0.10385021 -0.0020909368 -0.0353409
-0.034504753 -0.17358741 -0.14388059 -0.056512248 0.011843663 0.044807445 0.063252725 -0.058096696
-0.052629888 0.03302439 -0.08553339 -0.087057225 -0.14452581 0.035642702 0.15346326 -0.081251465
-0.042249292 -0.09741571 0.003446709 -0.15760234 0.015048416 0.07666275 -0.033064738 0.025666013
-0.030344943 0.033432223 -0.17333291 -0.06604836 -0.007215342 -0.066513464 0.033245184 0.04691578
-0.047607545 0.07495357 0.030456115 -0.018256688 -0.048495937 -0.049042866 -0.05550715 0.10082869
-0.11594031 0.004104881 -0.016525762 0.036104176 0.039779052 -0.08728705 0.055234373 -0.17864965
0.028649814 0.09668843 0.03388702 -0.032604963 -0.042164892 -0.054708797 -0.057946887 -0.037111007
0.03729456 -0.03685168 0.039403833 0.059824463 0.08525761 -0.034440745 -0.0808444 -0.032648426
-0.08105583 -0.027497536 -0.0568145 -0.11310428 0.0037653265 -0.06418222 0.08784351 -0.057871927
0.012392189 -0.16176447 -0.0027297393 -0.10995665 0.018086175 0.0700205 -0.155282 -0.0021642947
-0.103362925 -0.103484035 0.058623843 -0.08118305 0.04469141 0.01844667 0.04522872 0.0048479317
-0.07757881 0.025724804 -0.015324656 0.014386137 -0.054434106 0.0050550764 -0.0238389 0.013728829
-0.111002095 0.066489846 0.0034879402 0.06270952 0.0089245625 -0.12827931 -0.23917116 0.06356069
-0.022235261 0.039096743 -0.02815877 -0.13629918 -0.061166514 -0.08809878 -0.045321964 -0.004155644
-0.00015572217 0.07785678 -0.13081671 0.037550077 -0.073393255 -0.039595954 0.019863365 -0.051015656
00000000: d6f8 debd 0b4e 35be 3d4b b1bc cd48 163d
00000010: 2486 ee3c 806d 8e3d bcc2 7d3d 2aef 153d
00000020: 6906 2abe 623b 96bb c134 8e3c dea8 10bc
00000030: 3876 3b3d e3d9 2fbe bbd2 153c b977 48bd
00000040: c09e 3cbd 3e7f 79bc 5796 3dbc e149 dcbc
00000050: dab7 e8bc 3360 94bd 34e2 853d 0366 6a3d
00000060: 0b9d 84bd fb76 71bd 70d0 a0bd f3f8 4cbd
00000070: 4414 d6bc adeb 4d3d 9d6b d1bc 32cb b0bd
00000080: ba56 483d c56c 653d c97e 023d c3be 8fbc
00000090: b386 a5bc 302b 523d 0d59 2cbd 6aa0 3abd
000000a0: 1651 dabc fdb1 f5bd 60ea a9bc b56a bd3d
000000b0: ac8c 473d 8bdd 61bd b16c 813d 687a a4bd
000000c0: d36f ffbc 05f9 2a3d b2e1 abbd 3a60 2a3b
000000d0: 02a5 01bd 54e9 a33c 6680 5fbc 464d f23c
000000e0: 2ecd 51bd 11a3 eb3c 9b51 853d acf1 d2bb
000000f0: 29a0 513d 8402 89bd 6e2c 07be c886 8c3d
00000100: c91a a5bc cf1f e5bc c27d c63c 87a9 3b3c
00000110: 6d82 573c ad25 a33d 8795 c0bd 21de dd3d
00000120: b4e9 f7bd 7a85 323c c684 2dbc 4d50 8d3c
00000130: 2da3 893d 9dee acbd 6596 57bd 74c0 2fbd
00000140: 9741 bbbc e77c eb3c 4a33 b73d c816 1ebd
00000150: 1d7b 90bd 2363 93bd 1761 9f3d b413 983b
00000160: 9d15 2cbe c018 7c3d 383f b0bd db88 a7bd
00000170: d5c8 9cbc cbc9 07bd 25cf 08bd b5c4 b33d
00000180: b09a 92bc f9c0 533d 1f92 5cbd 2dd7 eb3b
00000190: 86da 7dbd 9729 f5bd f27c 193a 8268 5bbc
000001a0: eb76 ef3c 2e73 d03b 76aa 92bd aec7 45bd
000001b0: 4d48 7d3d d0ae 8ebd 1de3 05bd 119a e7bd
000001c0: 6285 89bc e518 11bd dc52 53bc 1528 92bc
000001d0: ff1f d13d 00a8 153d c3a6 a13d bcaf cc3c
000001e0: 3cdb 743b 0ad7 de3b 59b3 bbbd ce76 a4bc
000001f0: ec76 9c3d cbe8 a8bb 71e0 933d 8848 813d
00000200: 938a d0bc 5101 bcbc 76eb a03c f60b 4a3d
00000210: eadc f3bc 6baf d43d 1908 09bb 9fc1 10bd
00000220: db54 0dbd e6c0 31be 6f55 13be 6379 67bd
00000230: ec0b 423c 0388 373d a58a 813d cdf6 6dbd
00000240: 7092 57bd 9544 073d 212c afbd 0f4b b2bd
00000250: 93fe 13be 15fe 113d 7925 1d3e 2b67 a6bd
00000260: 980d 2dbd e381 c7bd 2ee2 613b 8262 21be
00000270: a28d 763c 5c01 9d3d e46e 07bd 8841 d23c
00000280: f595 f8bc 3af0 083d 2f7e 31be 5d44 87bd
00000290: ad6e ecbb 3638 88bd 1a2c 083d c32a 403d
000002a0: 2100 43bd 4281 993d 1a7f f93c 0d8f 95bc
000002b0: ada3 46bd 2ce1 48bd 775b 63bd 467f ce3d
000002c0: 1d72 edbd 3d82 863b 0961 87bc f9e1 133d
000002d0: 5cef 223d 8ec3 b2bd 703d 623d efef 36be
000002e0: 04b3 ea3c 9504 c63d 1ecd 0a3d c88c 05bd
000002f0: 18b5 2cbd 5516 60bd b759 6dbd b601 18bd
00000300: 2ec2 183d caf1 16bd ea65 213d 7f0a 753d
00000310: 8b9b ae3d bd11 0dbd c091 a5bd 5bba 05bd
00000320: 9900 a6bd 8342 e1bc 52b6 68bd 37a3 e7bd
00000330: b2c3 763b f871 83bd 4ce7 b33d 1d0b 6dbd
00000340: 9c08 4b3c 96a5 25be 6de5 32bb f430 e1bd
00000350: 7529 943c e866 8f3d 3f02 1fbe d7d6 0dbb
00000360: f1af d3bd 70ef d3bd 8e1f 703d 4d43 a6bd
00000370: 570e 373d 791d 973c c041 393d 66db 9e3b
00000380: a4e1 9ebd d3bc d23c 4414 7bbc d5b3 6b3c
00000390: 4cf6 5ebd 0ea5 a53b cc49 c3bc e2ee 603c
000003a0: 1155 e3bd d42b 883d ed95 643b d96d 803d
000003b0: 5438 123c a75b 03be 49e9 74be 1b2c 823d
000003c0: b926 b6bc e823 203d 39ad e6bc 0392 0bbe
000003d0: bd89 7abd 226d b4bd 86a3 39bd 122c 88bb
000003e0: 5a49 23b9 6073 9f3d d1f4 05be 1cce 193d
000003f0: 344f 96bd 5e2f 22bd 7fb8 a23c cbf5 50bd

weight f4 [128, 256]
-0.08201356 -0.011597507 -0.04686672 0.15650322 0.021251427 -0.046070747 -0.063561805 0.059765685
-0.078016475 -0.108530365 -0.09597604 0.050781935 -0.084484294 -0.009098991 0.06287194 0.004074485
-0.27266183 -0.0022910123 -0.18636449 -0.08949473 0.054384213 0.022205817 -0.032744873 -0.032926638
0.044926044 -0.010747785 -0.12268868 -0.0010194872 -0.1089791 -0.08815462 -0.033252213 -0.06501889
0.0038206347 -0.03032791 0.035574876 -0.05809241 0.032615263 0.041903213 -0.05991832 -0.16322576
-0.024246804 -0.038610645 -0.3809788 -0.016519798 -0.037595782 0.010710624 -0.04286817 -0.057221074
-0.17409836 0.037261333 0.053677533 -0.012161637 -0.003944219 -0.026309008 0.05254458 -0.022146782
-0.0009938364 -0.021187898 -0.031399064 0.08005581 -0.0046695173 -0.016540641 0.015121987 -0.0599834
0.008166015 0.034622177 -0.020536046 -0.0063576815 -0.0011383061 -0.054029174 -0.06725244 -0.027236337
0.032114223 -0.01551082 -0.07100923 0.031691942 -0.031659976 -0.009896586 -0.02640829 -0.0020438174
-0.10016726 0.051098898 -0.05747757 -0.064149715 -0.013363646 0.0013391338 0.037013866 -0.2131149
-0.19983317 -0.07118093 -0.005904276 -0.047426935 0.1180097 0.02114687 -0.107192256 2.1003638e-05
-0.10808526 0.022841504 0.09753784 -0.027481651 -0.073251806 -0.0074621174 -0.07260739 0.024375778
0.00028092336 0.039457113 -0.104147844 -0.031064637 -0.011133289 0.11171156 -0.05594206 -0.18892775
-0.016987393 -0.020758983 -0.0224782 0.03750533 -0.036066655 0.06009073 0.0038287833 -0.07765822
-0.022369774 -0.08096486 0.01255146 -0.029204205 -0.011010981 0.007923752 -0.022571817 -0.087074496
-0.12569815 -0.09658369 -0.025325147 0.04551582 -0.062489405 0.04556776 0.00909258 0.034704838
0.067376256 0.0034722742 0.025850276 0.036116753 -0.13866903 0.103452854 -0.030663094 -0.019748779
-0.093747824 -0.037120458 -0.025064709 -0.025374582 0.010835337 -0.019430934 -0.0808873 -0.037427794
-0.053229745 -0.061502904 -0.030397132 0.054890394 -0.0385753 0.023960903 0.0042961035 -0.031480525
-0.031530462 0.025887407 -0.026567603 -0.032560993 -0.043467186 -0.009926595 -0.06728288 -0.054675598
-0.053120453 -0.07494361 0.017175972 0.03242254 -0.024669755 -0.011223212 0.076096185 -0.053935796
0.045835957 0.012150702 -0.10507427 -0.039569207 -0.051243506 -0.020721667 -0.03398283 0.04232778
-0.036963683 -0.019501027 -0.06896949 -0.035712756 -0.11404092 -0.014509863 0.055576693 -0.03589059
-0.15504159 -0.057435103 -0.05028838 -0.006834823 -0.1131812 0.034327336 0.058609035 0.13154823
-0.007490323 0.0860949 -0.029306998 -0.07977887 -0.0924768 -0.018905886 0.038105734 0.04392195
-0.06451294 -0.03539896 -0.022591667 -0.088007934 0.024970815 -0.022433488 -0.07131315 -0.00025361
-0.05013041 -0.04377635 -0.17875949 0.023117736 0.11063595 -0.04582825 -0.037184455 0.00875322
-0.23136692 0.021493021 0.011506374 -0.082353756 -0.033559803 -0.02706131 -0.046348903 0.0032452382
-0.05856845 0.04882316 -0.07044001 -0.031305987 -0.13805462 -0.054542728 -0.008262838 0.017960059
0.09760391 0.02600771 -0.06293514 -0.007388479 -0.059473135 -0.057831712 0.014150366 -0.05455789
0.03830068 -0.02282034 0.047293816 0.016894452 -0.03320792 -0.05391271 0.037514612 0.011806853
00000000: baf6 a7bd 7803 3ebc 51f7 3fbd 6142 203e
00000010: 7917 ae3c aeb4 3cbd b12c 82bd ddcc 743d
00000020: 1ac7 9fbd 2b45 debd 168f c4bd b800 503d
00000030: 1a06 adbd ef13 15bc 01c3 803d 4283 853b
00000040: 559a 8bbe cf24 16bb 55d6 3ebe 0349 b7bd
00000050: fbc1 5e3d f9e8 b53c 7d1f 06bd 15de 06bd
00000060: 5f04 383d 7a17 30bc 3444 fbbd 50a0 85ba
00000070: 6f30 dfbd 698a b4bd 7933 08bd a028 85bd
00000080: 9d63 7a3b 3d72 f8bc f6b6 113d 4ff2 6dbd
00000090: 9597 053d b4a2 2b3d ea6c 75bd a724 27be
000000a0: 3ca1 c6bc 3226 1ebd a70f c3be 8754 87bc
000000b0: 09fe 19bd 9d7b 2f3c 8996 2fbd a560 6abd
000000c0: d746 32be 579f 183d f9dc 5b3d 9a41 47bc
000000d0: 823e 81bb fd85 d7bc fc38 573d 2b6d b5bc
000000e0: 9e43 82ba 3e92 adbc 4e9c 00bd 4df4 a33d
000000f0: c002 99bb 3d80 87bc 36c2 773c 27b1 75bd
00000100: c0ca 053c fccf 0d3d 363b a8bc 1954 d0bb
00000110: 3733 95ba b24d 5dbd a6bb 89bd bd1e dfbc
00000120: 348a 033d 1821 7ebc 4a6d 91bd 69cf 013d
00000130: e4ad 01bd 4a25 22bc 3356 d8bc 91f1 05bb
00000140: 7e24 cdbd 144d 513d 9a6d 6bbd ed60 83bd
00000150: 32f3 5abc e085 af3a da9b 173d cb3a 5abe
00000160: 11a1 4cbe 4fc7 91bd a878 c1bb bf42 42bd
00000170: 12af f13d 333c ad3c 9d87 dbbd f830 b037
00000180: ce5b ddbd 1b1e bb3c ebc1 c73d 3321 e1bc
00000190: 0b05 96bd c784 f4bb 2fb3 94bd b6af c73c
000001a0: e548 9339 c89d 213d 774b d5bd 447b febc
000001b0: 6668 36bc 08c9 e43d 8023 65bd 4776 41be
000001c0: 2529 8bbc be0e aabc 3424 b8bc 309f 193d
000001d0: a1ba 13bd b321 763d 53ec 7a3b 460b 9fbd
000001e0: d140 b7bc e8d0 a5bd a4a4 4d3c a83d efbc
000001f0: 6767 34bc a0d2 013c 88e8 b8bc 1d54 b2bd
00000200: 04b7 00be abcd c5bd af76 cfbc cc6e 3a3d
00000210: e4f4 7fbd 42a5 3a3d 0bf9 143c a926 0e3d
00000220: 90fc 893d 188f 633b f5c3 d33c 29ef 133d
00000230: 41ff 0dbe 17df d33d 2b31 fbbc 31c8 a1bc
00000240: dcfe bfbd 9f0b 18bd 8154 cdbc 5bde cfbc
00000250: b386 313c 9f2d 9fbc 3ea8 a5bd e34d 19bd
00000260: 6f07 5abd 78ea 7bbd 6803 f9bc c0d4 603d
00000270: 2201 1ebd a849 c43c 54c6 8c3b b9f1 00bd
00000280: 1626 01bd d411 d43c 4da4 d9bc ad5e 05bd
00000290: a60a 32bd 28a3 22bc 9bcb 89bd 85f3 5fbd
000002a0: d594 59bd 097c 99bd a0b4 8c3c 7fcd 043d
000002b0: 3a18 cabc 90e1 37bc 51d8 9b3d c8eb 5cbd
000002c0: 7cbe 3b3d bd13 473c 2e31 d7bd 5213 22bd
000002d0: b6e4 51bd 7cc0 a9bc 9431 0bbd e55f 2d3d
000002e0: 3b67 17bd 9ec0 9fbc e03f 8dbd 8a47 12bd
000002f0: 498e e9bd c7ba 6dbc 63a4 633d 0302 13bd
00000300: 39c3 1ebe 1241 6bbd 30fb 4dbd a7f6 dfbb
00000310: 8ccb e7bd d29a 0c3d 0710 703d 94b4 063e
00000320: 6271 f5bb 8652 b03d 3b15 f0bc 1b63 a3bd
00000330: 7a64 bdbd 84e0 9abc c214 1c3d 81e7 333d
00000340: 5c1f 84bd 80fe 10bd 2912 b9bc 813d b4bd
00000350: 988f cc3c 6fc6 b7bc a10c 92bd f5f6 84b9
00000360: 8b55 4dbd d44e 33bd ba0c 37be 6861 bd3c
00000370: 1a95 e23d 67b6 3bbd ba4e 18bd aa69 0f3c
00000380: 73eb 6cbe 2212 b03c 3b85 3c3c 16a9 a8bd
00000390: 0176 09bd aeaf ddbc 59d8 3dbd 10ae 543b
000003a0: 79e5 6fbd cbfa 473d da42 90bd b53a 00bd
000003b0: 315e 0dbe 3268 5fbd db60 07bc f920 933c
000003c0: 8fe4 c73d 1f0e d53c 24e4 80bd 0e1b f2bb
000003d0: 1a9a 73bd f2e0 6cbd f0d6 673c 1878 5fbd
000003e0: 2de1 1c3d b9f1 babc 29b7 413d 3c66 8a3c
000003f0: 0705 08bd 93d3 5cbd eca8 193d 8871 413c

bias f4 [128]
0.025388405 -0.06377722 0.14882667 -0.07019596 0.0058499277 0.07414228 -0.16734765 -0.13739797
-0.059145376 -0.1583008 0.08481173 -0.004699154 0.17341813 0.047189247 -0.014684994 0.15916595
-0.09681044 0.07069158 -0.0035078516 0.08317931 -0.07375279 0.0033046328 0.09034541 0.122838035
-0.08506848 0.07754913 -0.08236394 0.053108253 0.096909516 0.063128404 -0.109052315 0.13210519
-0.10424431 -0.019570472 -0.11724373 0.055933006 0.08415869 -0.13293004 0.010074308 -0.18429483
0.06611556 0.07951826 0.15863003 0.12894419 -0.06157755 -0.028823303 -0.12099221 -0.15492511
-0.02837529 -0.041219465 0.004991996 -0.081829675 -0.21530084 -0.14741272 -0.11956076 0.026309023
0.074112944 -0.10205018 -0.07303117 0.13071133 0.0035364092 0.12494774 -0.11404179 -0.19777052
-0.07536639 -0.1773218 0.076899365 0.06582372 0.10510182 0.08521123 0.050546795 0.017369503
0.12854534 0.08238526 0.12707992 0.08978598 -0.048097197 -0.08748281 -0.17508411 -0.19041641
-0.0070661036 0.14244138 0.059650462 -0.16016148 -0.057301078 0.05799624 0.11457025 0.15646696
-0.17526044 0.12089615 0.112875745 -0.1268366 -0.007978113 0.0060703685 0.05022183 0.11241212
0.09957541 -0.015135941 0.15451926 -0.07721675 -0.06461708 0.049361333 0.13214618 -0.027500361
-0.07342952 -0.0918844 -0.11785799 -0.17101665 -0.278837 0.031682625 -0.14365059 0.07626529
-0.0077212444 -0.11326799 -0.12537585 -0.095888406 0.019705536 -0.16462196 -0.1075362 0.10986094
0.1274097 0.11388032 0.13028948 0.03980344 0.06277563 -0.12370991 0.10213882 -0.10607549
00000000: 58fb cf3c a29d 82bd 0566 183e e6c2 8fbd
00000010: c0b0 bf3b e8d7 973d 2f5d 2bbe 0eb2 0cbe
00000020: 6c42 72bd 9b19 22be c6b1 ad3d 5cfb 99bb
00000030: 8694 313e 8349 413d 5499 70bc 66fc 223e
00000040: 8d44 c6bd bfc6 903d fce3 65bb ea59 aa3d
00000050: b40b 97bd 8a92 583b 0407 b93d 8292 fb3d
00000060: 6238 aebd 14d2 9e3d 6dae a8bd 0a88 593d
00000070: 7f78 c63d 7749 813d d256 dfbd 9546 073e
00000080: 0a7e d5bd 4152 a0bc 7b1d f0bd 021a 653d
00000090: 645b ac3d d01e 08be b60e 253c c9b7 3cbe
000000a0: 9867 873d 78da a23d e96f 223e f209 043e
000000b0: be38 7cbd d91e ecbc c4ca f7bd b0a4 1ebe
000000c0: 4c73 e8bc bed5 28bd e693 a33b 5196 a7bd
000000d0: d377 5cbe 5cf3 16be 46dc f4bd 0586 d73c
000000e0: 87c8 973d afff d0bd 5e91 95bd 31d9 053e
000000f0: 1ac3 673b 9ae4 ff3d be8e e9bd 5b84 4abe
00000100: b259 9abd d993 35be 6a7d 9d3d 96ce 863d
00000110: 9f3f d73d 3a83 ae3d 280a 4f3d 7d4a 8e3c
00000120: 64a1 033e 9ab9 a83d 3d21 023e b6e1 b73d
00000130: 9101 45bd 302a b3bd 4049 33be 85fc 42be
00000140: c68a e7bb 27dc 113e 0b54 743d 5f01 24be
00000150: 89b4 6abd 778d 6d3d cfa3 ea3d e038 203e
00000160: 7977 33be 6798 f73d 662b e73d 74e1 01be
00000170: a2b6 02bc f1e9 c63b 68b5 4d3d 5338 e63d
00000180: 31ee cb3d bdfc 77bc 4c3a 1e3e d123 9ebd
00000190: f655 84bd 1c2f 4a3d 5451 073e 7048 e1bc
000001a0: 3762 96bd e32d bcbd 885f f1bd fd1e 2fbe
000001b0: b9c3 8ebe a4c5 013d 2419 13be fa30 9c3d
000001c0: 7e02 fdbb 0cf9 e7bd 8762 00be 2461 c4bd
000001d0: 816d a13c a992 28be f03b dcbd c6fe e03d
000001e0: b077 023e 163a e93d 9b6a 053e ef08 233d
000001f0: 8290 803d 9f5b fdbd 282e d13d 1b3e d9bd
