result/aug74_then_gan_40_model_15.pt (torch, 980066 bytes, 15 tensors)

weight f4 [128, 13]
000000 1e 02 37 be ac c2 ad 3e ae 14 ad bb ce 7e 2e 3e
       -0.17871901 0.33937585 -0.005282006 0.1704056
000010 f8 e1 5d be a8 be 9e 3e 0a ea 37 be 50 0b 7d 3e
       -0.21668231 0.31004834 -0.17960373 0.24711347
000020 e5 84 ab 3e 2c a9 88 3e b6 16 c1 3c e7 57 10 bd
       0.33499828 0.26691568 0.0235704 -0.03524008
000030 c9 0c d3 be 22 ff bd be 62 d6 a1 3e 18 d0 6c 3e
       -0.41220692 -0.37108713 0.31608874 0.23126256
000040 0e c1 83 be be 7c 15 bd a6 c6 1c be ce e2 70 3e
       -0.25733227 -0.036495917 -0.15310153 0.23524019
000050 3a 42 f1 3c 87 33 89 3e a4 f4 b3 bd a1 85 f8 3e
       0.029450525 0.26797125 -0.08786896 0.4853945
000060 27 3b 4c 3e e4 fb 9a 3e cc e3 65 3d 8a 49 9d be
       0.1994444 0.30270302 0.056125447 -0.30720168
000070 59 02 2f be e9 a0 c9 3d 6b a7 56 bc 40 e9 9c 3d
       -0.1709074 0.09845144 -0.013101439 0.076616764
000080 00 50 2c 3d 97 50 8e bd 62 54 07 3e 98 87 dd bc
       0.04206848 -0.06948965 0.13215783 -0.027042195
000090 a8 d0 3f be 9e 8c a1 bc 12 d8 ed be 06 56 46 3e
       -0.1873194 -0.019720372 -0.4645391 0.19368753
0000a0 1a d9 9b be 1f 35 f7 3d 63 a4 8e 3e aa cb 94 3d
       -0.30439073 0.12070679 0.27859792 0.07265408
0000b0 8f 96 fa bd 9e d3 c0 3d af 27 ba be 74 2c e4 3d
       -0.12235748 0.09415363 -0.363584 0.11141291
0000c0 34 4f 9d be 69 78 b9 3e 6c f0 10 be f6 0a 5e be
       -0.3072449 0.36224678 -0.14154214 -0.21683869
0000d0 86 b0 6a bd 4e 95 87 3e 34 0d c3 bc ca fe 29 3e
       -0.057297252 0.26481098 -0.023810007 0.166011
0000e0 73 78 95 3e f8 48 0e 3d c5 31 5d be 84 e5 de 3d
       0.29193458 0.034737557 -0.21601017 0.108836204
0000f0 48 b3 82 3e d3 ef 58 be 31 93 09 3e 55 bb cd 3d
       0.25527406 -0.21185236 0.13435055 0.100454964
000100 d3 0a 8a 3e 54 71 78 bd 84 5e 1e 3e e1 c3 07 3e
       0.26961383 -0.060654953 0.15465742 0.13258316
000110 8b b3 df bd 2e db 70 be 94 e8 70 3d 5a 43 e6 bb
       -0.10922917 -0.2352111 0.058815554 -0.007027072
000120 86 ce 2d 3e da 8e d3 3d 81 6b 80 be 81 e9 24 bd
       0.16973314 0.10329981 -0.2508202 -0.04026175
000130 9c c7 50 3e 38 02 40 be 94 cb 84 3e f0 cc 15 3e
       0.20388645 -0.18750846 0.25936568 0.14628959
000140 55 d3 42 3e fc df 1c 3e e0 bc 66 be af dc 86 3e
       0.1902593 0.15319818 -0.22532988 0.26340243
000150 43 d4 2e be 70 aa 90 be a9 9e 80 bc dd 03 1d bd
       -0.17073159 -0.28255033 -0.015700655 -0.038333762
000160 cc d9 43 bd 5b 25 24 bd 19 fb db 3e e9 ec cb 3d
       -0.04781513 -0.040074687 0.4296501 0.099572964
000170 e4 e7 f5 bc 9d 9c ec 3d a9 a8 61 be f2 37 c0 3d
       -0.0300178 0.11553309 -0.22036995 0.09385671
000180 bd 0a d1 bd e4 bd ad 3c 83 ae ad 3e cc 12 c0 bd
       -0.10207126 0.021208711 0.33922204 -0.09378585
000190 15 a3 8b be 5a 2f 39 be c6 6b b5 bc f7 37 c3 3e
       -0.2727286 -0.1808447 -0.022146117 0.38128635
0001a0 63 5d 92 3e 2c 48 4f 3e 80 0e 06 be a7 9a 4c be
       0.28586873 0.20242375 -0.13091469 -0.1998087
0001b0 8e 0d 22 3e 81 b3 94 3e a0 33 2a bc 2d bd aa be
       0.15825483 0.290432 -0.010388285 -0.33347455
0001c0 b7 70 17 bf dc 0a 03 3f b2 fd 27 bd f3 4a 94 bb
       -0.59156364 0.51188445 -0.041013427 -0.004525536
0001d0 9a c7 16 3e 11 a6 8b be 35 d8 47 be 88 af c0 bd
       0.1472458 -0.27275136 -0.1951607 -0.0940848
0001e0 c1 f5 d7 3c 87 98 87 be 2f 44 ec bc b7 69 6b bc
       0.026362302 -0.26483557 -0.028841106 -0.014368466
0001f0 59 86 8c 3d b2 e7 43 be 3a d1 ba be 22 27 1c bf
       0.06861562 -0.19131353 -0.36487752 -0.6099721
000200 df 90 9f 3d fe 76 33 3e cb a6 a3 3e 58 6b 13 3e
       0.07791304 0.1752586 0.3196319 0.14396417
000210 68 b7 8b bd d8 db 94 be 2c 7b 98 3e 4b 7b 1e 3d
       -0.06822091 -0.29073977 0.29781473 0.0386918
000220 04 c5 9b be 26 89 da 3d f1 6e 00 bf 2d a5 a3 3e
       -0.30423748 0.1067069 -0.50169283 0.31961957
000230 b4 3b 9c 3e 6a 0f 3b 3e 3b ba 88 3e 00 46 7b be
       0.305143 0.18267599 0.26704583 -0.24538422
000240 8f 96 e1 bc 3e 1d 48 bd 0a d3 8e bc d8 f6 90 bd
       -0.027537612 -0.048856013 -0.017434616 -0.07078332
000250 a1 ea e0 bc e4 9c 43 3e 92 94 48 3e aa 31 94 3d
       -0.02745563 0.19102818 0.19587925 0.07236035
000260 50 60 2c 3e 3e c4 9b be 99 7a 4f be 62 30 0c be
       0.16833615 -0.30423158 -0.20261611 -0.13690332
000270 fe 97 7d 3d 9c 81 89 bd 6a 0b b4 3c 72 b1 4b be
       0.06191253 -0.06714174 0.021978099 -0.19891909
000280 e0 e8 7a bd 33 38 c9 3c a1 a8 98 3d 1a 70 80 3e
       -0.061257243 0.02456293 0.074540384 0.25085527
000290 f2 1f be 3e c9 65 31 bd 40 55 1b bf e1 4e db bd
       0.37133747 -0.04330996 -0.60676956 -0.10708404
0002a0 52 83 ef be 5c c8 bb be f3 9d 92 be b3 90 90 be
       -0.46779877 -0.366763 -0.2863613 -0.28235397
0002b0 b0 c9 ac 3e d0 ae 35 bd 9f c8 42 3e 9c 46 26 be
       0.33747625 -0.044356167 0.19021843 -0.16237873
0002c0 8e fb 37 3d 8c 61 61 be ef 4d 45 be de 3a cd bd
       0.044917636 -0.22009867 -0.1926801 -0.10020994
0002d0 d7 ec 01 3e 37 c1 84 be 3a e9 8e be 2a da dd 3e
       0.12688003 -0.2592866 -0.27912313 0.43330508
0002e0 6c 19 bf bd 95 61 7b 3d e1 bf 54 bd d6 13 59 3e
       -0.09331021 0.06137236 -0.051940802 0.21198973
0002f0 68 95 bb 3e f3 ed 43 be 28 dd 8d 3d 91 7f 71 be
       0.36637425 -0.19133739 0.06926948 -0.23583819
000300 1c 26 ef be 42 2c dc 3b 7c 2f bc be b6 8b 20 be
       -0.46708763 0.006719143 -0.36754978 -0.15678295
000310 99 96 46 be 2f 18 98 be d6 ad 84 3e 0b 7a 0b 3e
       -0.19393386 -0.2970595 0.25913876 0.13620774
000320 87 df 24 3e e3 ce 27 be 7e de 74 be 08 08 20 3e
       0.16100894 -0.16387515 -0.23912999 0.15628064
000330 5e 60 49 bd 3c 8d f2 bc 22 cb 6c 3e 22 6e f0 be
       -0.04916417 -0.029608361 0.23124364 -0.46959025
000340 b1 e9 36 be 96 ba 0f 3e e0 16 95 3e 91 27 9a 3d
       -0.17862584 0.1403602 0.29119015 0.07527078
000350 a7 12 55 3e 5c dc e1 be ee 8c 1c be 23 5c 89 3d
       0.20807897 -0.44113433 -0.15288135 0.06707027
000360 58 94 d8 3e c3 69 e2 3c ae d0 e6 3e e7 d5 0f be
       0.42300677 0.027638322 0.45081085 -0.14046441
000370 f3 a9 de bd e5 d0 2f 3e ef 82 7b bd b2 4e 6d 3e
       -0.10872259 0.1716953 -0.061404165 0.23174551
000380 80 fc 24 3e 25 90 0a be 35 9a 0b 3e 0c 23 26 3e
       0.16111946 -0.1353155 0.13633044 0.16224307
000390 ed 42 a2 3e 91 56 56 be 62 70 52 3e bd ef 87 bd
       0.31691685 -0.2093146 0.20550683 -0.06637523
0003a0 a3 8f 51 3e c7 55 bb 3e f0 06 8a bd 0e cf 3a bd
       0.2046495 0.3658888 -0.067396045 -0.04560762
0003b0 66 07 3b be 05 f0 ad 3d 12 ee 46 3d 91 33 92 bd
       -0.18264541 0.08493046 0.048566885 -0.07138742
0003c0 62 51 5c 3e e9 0d 43 be 31 61 01 3d 3a d7 11 3c
       0.2151542 -0.19048275 0.03158683 0.008901412
0003d0 fa 23 74 be 58 41 84 3e ea 68 00 bf 25 28 1b be
       -0.23841849 0.25831103 -0.50160086 -0.15152033
0003e0 ed 3b 71 be 7a 0b 28 be ba 86 9c be 1a 90 45 3e
       -0.23558016 -0.16410628 -0.30571538 0.19293252
0003f0 f4 8b 43 3e 4a a1 4a 3c d6 71 83 bd 5d 56 93 be
       0.19096357 0.012367556 -0.06418197 -0.28776827

bias f4 [128]
000000 ce a6 55 3e 2d 93 25 3e 54 d8 8b bd ab 5d be 3c
       0.20864412 0.16169424 -0.06828371 0.023238024
000010 4e c2 b5 3d ce b4 f7 3d 82 14 3f 3e 34 04 4b 3e
       0.08874951 0.12095033 0.18660167 0.19825822
000020 ff e7 5c be 0f 8e 24 3e 48 9c eb bc 53 fb 71 be
       -0.21572874 0.16069816 -0.028761044 -0.23631029
000030 ed 45 82 3d cb 44 28 be f9 0a 7e be 11 2b e1 bd
       0.063609935 -0.16432492 -0.24808873 -0.109945424
000040 b6 67 6a 3e dd 8a 1b bc 6f 16 ae bd 9a 15 53 be
       0.22891125 -0.009493557 -0.085003726 -0.20613709
000050 b3 32 4d 3d 21 a0 d5 3c c2 09 04 3e fa 13 b4 bd
       0.05009718 0.026077332 0.12894347 -0.08792873
000060 dd 93 4b 3e d6 62 71 3e dc 8b 59 bd d8 fd 08 be
       0.19880624 0.23572859 -0.053111896 -0.13378084
000070 c9 3b 99 be f4 34 a0 bc 07 11 04 3e ab 52 17 3e
       -0.29928425 -0.0195565 0.1289712 0.14777629
000080 8b 8c dc bd 3a 34 a3 be d7 5d 48 3b ab 67 1e 3e
       -0.10768994 -0.31875783 0.003057351 0.15469234
000090 74 18 26 be 2b e3 f9 3d ee de 2f be 48 74 e6 3c
       -0.16220266 0.12201532 -0.17174885 0.02813162
0000a0 9a ee 08 3e 92 d2 c0 3d 44 36 dc 3d 2a 85 e0 bb
       0.1337227 0.09415163 0.10752538 -0.006851812
0000b0 af 90 dd 3d d3 d6 3c 3d b4 54 8e be 05 4d 52 be
       0.10818612 0.04610331 -0.27798998 -0.20537193
0000c0 93 7f e5 3d 34 bf 1d be aa 08 08 be f7 9e f0 3c
       0.112059735 -0.1540497 -0.13284555 0.029372675
0000d0 c0 e4 69 3e b0 7f 60 3e a1 95 d3 3d ce 4b 73 be
       0.22841167 0.21923709 0.10331274 -0.23759386
0000e0 92 ee 6a be 5e ba f1 3a 1a b6 47 3e 08 c3 56 3e
       -0.2294257 0.0018442383 0.1950306 0.20972836
0000f0 8f 4d 4b bd f3 1c 8e be d7 c3 61 3e 55 31 9d bd
       -0.049634513 -0.27756462 0.22047363 -0.07675425
000100 a5 e5 18 be df 6f 44 3e a3 90 80 bd c7 f1 2a be
       -0.14931352 0.191833 -0.06277587 -0.16693793
000110 38 ce 23 be ad f4 ca bd a7 91 7e be 16 c9 f2 3d
       -0.15996635 -0.099099495 -0.2486025 0.1185476
000120 f9 23 63 be e8 75 18 be 16 48 03 be 65 6c 06 3e
       -0.22181691 -0.14888728 -0.12820467 0.13127287
000130 39 1d 2d 3e 76 04 c0 bd 40 09 84 be fa d2 93 be
       0.16905679 -0.09375851 -0.25788307 -0.288719
000140 14 48 01 3e 94 66 3e 3e 16 06 41 3e f5 e6 a3 be
       0.12625152 0.18593818 0.18849978 -0.32012144
000150 e3 10 a4 bc 96 a7 59 bd 0f 84 00 be f9 46 17 3e
       -0.020027583 -0.053138338 -0.12550376 0.14773168
000160 2a 94 21 3e f5 47 63 be 3f 8f f7 bc 75 33 27 be
       0.15779176 -0.22195418 -0.030219672 -0.16328223
000170 ce fc 41 be 03 5a 15 3e 11 2f 06 be 6c bd ef bd
       -0.18944094 0.14585118 -0.13103892 -0.11706051
000180 66 c9 26 be 80 79 72 be 5e 96 46 bd 1a 41 cb bd
       -0.16287765 -0.23679161 -0.048483245 -0.099245265
000190 e8 e2 e6 bd ed d2 70 3e 24 4d 8f 3e 33 12 7d be
       -0.11273748 0.23517962 0.2798854 -0.24713974
0001a0 fa e2 76 be 41 34 87 3d c3 14 58 be 88 a7 a3 bd
       -0.24110022 0.066017635 -0.2110167 -0.079909384
0001b0 c4 a6 1c 3e e5 f9 e8 bd 32 4d 84 bd dc 52 d3 3d
       0.15297991 -0.113757886 -0.06460036 0.103185385
0001c0 83 a1 62 3e 4f 4f 3e 3e 3d e0 8f 3b 1a e5 6a 3c
       0.22131924 0.18584941 0.004390745 0.014336849
0001d0 5d 22 3b 3e e4 73 34 be e8 3a 60 be c2 83 5d be
       0.18274827 -0.17622334 -0.21897471 -0.21632293
0001e0 4c 28 0b be 5a 6f 87 be b3 82 f1 bd dd 8f df ba
       -0.13589591 -0.26452142 -0.11792507 -0.0017056424
0001f0 fe 0a 6c 3d 33 b5 ce 3d 78 6d 7b 3d d2 6f 55 be
       0.05762767 0.10093155 0.061383694 -0.20843437

weight f4 [512, 128]
000000 6b f3 3a bd 5f e0 2e 3c a2 98 6f 3d f3 a1 45 bd
       -0.045642298 0.010673611 0.05849517 -0.04825015
000010 fd 6d 0c bd 44 f0 35 3d 60 5d c3 3c b1 84 62 bc
       -0.03428458 0.04441859 0.023848236 -0.013825581
000020 d2 bb 4e 3d 94 2a c8 bd 07 36 d3 3b e2 e5 c8 bc
       0.05047209 -0.09773746 0.0064456495 -0.02452368
000030 78 62 8b 3c 2f 56 af bd 45 94 1c bd 60 a4 f7 3c
       0.017014727 -0.0856136 -0.03822734 0.030229747
000040 52 70 46 3d 88 6f 91 bd 9d 99 04 bd 9f 99 b0 3d
       0.04844696 -0.07101351 -0.03237306 0.08623051
000050 5c 9e 6e 3c 63 0c 8b ba 8c c4 00 be 31 2b a4 3d
       0.014564123 -0.001060855 -0.12574977 0.080160506
000060 5e fc 0a 3d 5f 31 18 bd c7 a0 83 3d fe fc 40 bd
       0.033932082 -0.03715646 0.0642715 -0.047116272
000070 85 ad 5a bc 76 77 ba bd 3e ea 75 3d ac a2 a2 3d
       -0.013347034 -0.091048166 0.060037844 0.079411834
000080 9e 42 a5 bb e4 ee 6e 3d fa b3 26 bc 95 5c 0c ba
       -0.005043342 0.058333293 -0.010174746 -0.0005354372
000090 48 d4 6f bd 7c b6 90 bd 7f f6 16 bd c6 ee 6a 3c
       -0.058552057 -0.07066056 -0.03685617 0.014339155
0000a0 22 c0 e0 3c af 98 91 3d 93 e5 6c 3e 4e 1a 60 3c
       0.027435366 0.071092 0.2313445 0.0136781465
0000b0 93 33 fe bd 5f ea 56 bd 4d af b6 bd 12 cc 11 3d
       -0.12412181 -0.052469607 -0.08920155 0.035595007
0000c0 2c b1 1a bd 65 6a 16 bd 9f 16 3f bd 1b c9 82 bc
       -0.03776662 -0.03672256 -0.046652433 -0.015965035
0000d0 a4 e7 99 3d b9 4c a3 3d 82 eb 44 bd 6b 38 b8 bd
       0.07514885 0.07973618 -0.04807616 -0.08995136
0000e0 26 56 c4 bc 14 db 1f 3c 0a 27 fd 3d 5b be 4c bd
       -0.02396686 0.009756822 0.12360962 -0.049986225
0000f0 47 51 f5 3c 1d 84 93 3d 7f 74 f5 39 b4 42 58 bb
       0.029945983 0.07202933 0.00046816838 -0.0032998743
000100 6f ed b5 bd 41 37 9f 3c 00 88 43 3e 86 38 29 3a
       -0.088831775 0.019435527 0.19094849 0.0006455261
000110 2f 32 7f bd a3 17 b5 bd 3f fb 2c 3d 93 7b 9a 3c
       -0.06230372 -0.08842399 0.042231794 0.018857753
000120 29 ab a6 bd 9f 46 26 3d 0d 45 a0 3d 4c 7c de 3c
       -0.08138115 0.040594693 0.078256704 0.027158879
000130 da c7 ce ba 3a b5 fb bc 0a fa fe bb 71 3d 6e 3d
       -0.0015776113 -0.030726064 -0.007781272 0.058164064
000140 09 5d 86 3d c2 f1 a4 3d 31 23 40 3d 4e 4f f6 ba
       0.06560714 0.08053924 0.04690856 -0.0018791945
000150 ad 49 8e 3d ee 9f 1e 3b 75 72 14 bd 98 0b 1f bd
       0.06947646 0.0024204212 -0.036241967 -0.038829416
000160 bc cc e5 bc 82 29 5a bd c5 26 9d bd 1d ba 73 3d
       -0.028051727 -0.05326224 -0.0767341 0.059503663
000170 7a c5 d7 bd 80 9b 0d be 68 a2 3d bd 24 46 2c bd
       -0.105357125 -0.1382885 -0.04629746 -0.04205908
000180 5a 87 97 bd 4c 15 f9 bc 60 0d 77 3d 32 89 f1 bd
       -0.07398863 -0.030405663 0.06031549 -0.11793746
000190 2c 45 af 3d b1 33 aa 3d d2 c6 16 3d 2e 24 02 3d
       0.08558115 0.083106406 0.036810704 0.031772785
0001a0 ad 94 2c bd 29 2d b9 3d a5 f9 a6 bd d9 44 d2 bd
       -0.042133976 0.09041817 -0.08153085 -0.10267038
0001b0 36 26 14 bd d1 29 5d bd e6 2d f2 bc 64 64 9c 3d
       -0.036169253 -0.053994957 -0.029562902 0.076363355
0001c0 34 a1 cb 3d 45 dd 54 bc a3 30 b9 3a 84 53 93 3d
       0.099428564 -0.012992208 0.0014128875 0.07193664
0001d0 4e 05 1e bd 80 6d f9 3d 5e f8 de 3d 64 3e 9e 3c
       -0.038579278 0.121790886 0.10887216 0.01931686
0001e0 8b 7c 6b bc e9 fd b5 bd e4 2f c0 3d d4 10 8b bd
       -0.014372955 -0.0888632 0.093841344 -0.06790319
0001f0 5a 2a 74 bd 21 fe f3 bc c3 3b 52 bd 91 17 df bd
       -0.059610702 -0.029784264 -0.051326524 -0.10893167
000200 17 b9 ef bd 09 57 d1 bc 1d 47 4b 3d 41 0e a4 bd
       -0.11705225 -0.025554197 0.049628366 -0.08010531
000210 0a 5e 9b bd 72 06 6e bd 77 97 5b 3c 1d 28 07 3e
       -0.07586296 -0.058111615 0.013402811 0.13198896
000220 f7 69 a9 3d 5c 04 14 3e 19 b1 38 3d 50 38 62 bd
       0.08272164 0.14454788 0.04509077 -0.055229485
000230 5e 57 8c bd 45 be e3 bc c3 7e a6 3c 0a 85 39 3b
       -0.068526015 -0.027800689 0.020324117 0.0028308057
000240 92 ff 85 be 7e 3d c2 3d 78 99 d8 bc 83 10 23 3e
       -0.26171547 0.09484385 -0.026440367 0.15924267
000250 a4 4f 77 bd e5 47 30 be e7 a1 70 3e 98 c9 c4 3b
       -0.060378686 -0.17214926 0.23499261 0.006005477
000260 18 36 c1 bd 92 bb 1f 3d 3a ec 1b 3d 3d 0d 76 3c
       -0.09434146 0.03899724 0.03806708 0.015017805
000270 3f 8f 2b 3e 8f 71 72 3d df ed fc bd 7e 42 12 3d
       0.16753863 0.05919033 -0.12350058 0.035707943
000280 73 d3 8e 3c 57 05 09 3e d0 7d b7 bd bd 22 e4 3b
       0.017434811 0.13380943 -0.08959544 0.006962149
000290 93 da bb 3d 75 c4 37 be b5 98 4f 3d ed 2f 82 bd
       0.09172549 -0.17946036 0.050682742 -0.06356797
0002a0 6c 9a 0f be a5 e6 64 be 6f 47 e4 bd 3b 53 54 be
       -0.14023751 -0.22353609 -0.111464374 -0.20734875
0002b0 a2 6c 8f 3d 7d 9b 79 bd 66 a0 a7 3d 16 33 11 3e
       0.07003142 -0.0609393 0.081848904 0.14179644
0002c0 dc 30 06 be 2d e0 d6 b9 f8 64 20 3e 07 ca 8f 3d
       -0.13104576 -0.00040984285 0.15663517 0.070209555
0002d0 f7 c6 70 bd cb 79 55 bc 20 b5 a6 bd 59 94 8f 3d
       -0.058783498 -0.013029526 -0.081400156 0.07010717
0002e0 14 e5 7b 3c 58 83 d9 bb 77 f3 82 bd 62 39 ef bd
       0.015374441 -0.006637972 -0.063940935 -0.11680867
0002f0 b1 fd d8 bd 8b ee 3f bc 3b bd 5c bd 15 0a 2d 3e
       -0.10595263 -0.011714588 -0.0538914 0.16898377
000300 41 65 9a 3d d0 89 01 bd 05 d7 86 bd 00 24 1b 3e
       0.07538844 -0.03162557 -0.065839805 0.15150452
000310 4a eb 09 be f1 e2 5e 39 f4 be 98 bd 29 6e 88 bd
       -0.13468662 0.00021256112 -0.074582964 -0.066616364
000320 7a 2b d4 3d d3 32 58 bd 03 6d 0d bd 54 72 d2 3d
       0.10359855 -0.052782845 -0.03452779 0.102757126
000330 32 ae aa 3d f9 22 28 3e 43 8f f4 3d 1d 33 8d bc
       0.08334006 0.16419591 0.119413875 -0.017236287
000340 81 a5 47 bd d6 8c 1e 3d 87 5e 02 3d 92 8b 2c 3e
       -0.04874182 0.03870853 0.03182843 0.16850117
000350 10 70 ae 3d 00 56 03 3d dc 13 22 3d 2e 1f a2 3d
       0.08517468 0.032064438 0.03956972 0.07916103
000360 94 ee 6a 3d db a4 0f bd 43 42 16 be fd 17 20 bb
       0.057356432 -0.035069328 -0.14673714 -0.002442836
000370 bb 29 b8 3d be 85 00 3e 18 5f 58 3d 9f c4 eb bc
       0.089923345 0.12551019 0.052825063 -0.02878028
000380 49 9a e6 3d b1 d1 5e 3d 65 49 f3 3d 90 2e 37 3d
       0.11259896 0.054399196 0.11879233 0.04472214
000390 a5 0b 3b be 75 f3 49 3d f0 24 f8 bd 03 cc e6 3d
       -0.18266161 0.049304444 -0.1211642 0.11269381
0003a0 01 3d 04 3e 8e d7 38 3d 11 46 1e 3d ed 7b 82 bb
       0.12913896 0.045127444 0.03864104 -0.0039820583
0003b0 c8 87 83 bc b6 d6 92 3d 08 85 83 bb 3a 49 81 bd
       -0.016055956 0.07169859 -0.0040136613 -0.06312795
0003c0 be a5 b8 3d 3c b1 23 be df ef f7 bb 4b 7b a4 bd
       0.09015988 -0.15985578 -0.0075664367 -0.08031329
0003d0 64 c9 c3 be f7 59 cb bd d9 26 bd bd 00 8a 3d 3c
       -0.38239586 -0.09929269 -0.09235925 0.011568546
0003e0 71 e6 e2 3b 70 f7 b4 3d 8b a9 a4 3d 26 17 17 bd
       0.0069244434 0.088362575 0.0804015 -0.03688731
0003f0 1a cd b3 bd 84 de b0 bd 9f 8b a7 3b 69 5d fb bc
       -0.087793544 -0.086361915 0.0051130797 -0.03068419

bias f4 [512]
000000 bd 5b 08 bd 67 40 ff bd a4 60 79 bc 50 65 d6 3c
       -0.033290613 -0.12463456 -0.015220795 0.026171356
000010 59 24 6e 3d 9d dd b8 3d 76 da 66 3d 2b 87 c5 bd
       0.058140133 0.090266444 0.056360684 -0.09644922
000020 dc 2a 84 3c 5c af af bd 39 dc 6e bc 94 cf 31 3d
       0.016133718 -0.08578369 -0.014578872 0.043410853
000030 a8 d6 c0 3c 04 a3 d3 bd 8d 63 8b bd 13 76 00 3d
       0.023539856 -0.10333827 -0.06806097 0.031362604
000040 a7 aa c8 bd ad 7a f2 bd a4 76 1f bd 04 8e b3 3c
       -0.09798174 -0.11839805 -0.038931504 0.021918304
000050 44 73 66 bd 90 7f f4 bd 40 d8 b5 bd 22 7f 8d bd
       -0.05626227 -0.11938393 -0.08879137 -0.06909014
000060 b8 83 40 bd 05 62 43 bd c6 8b 91 bd 9c 5c 8d 3d
       -0.047000617 -0.0477009 -0.07106738 0.069024295
000070 d7 2e 35 bd f2 d1 83 bd 1c 83 c0 bd 64 dd 82 bd
       -0.044234123 -0.06436528 -0.09400007 -0.06389883
000080 b7 f6 02 bd 17 2d 65 3d fd 30 29 bd 62 9a 18 3d
       -0.031973567 0.055951204 -0.041306484 0.037256606
000090 eb a5 bd bb cb 08 d3 bd 21 62 6a bd 16 c5 1f 3d
       -0.005787601 -0.103044115 -0.05722249 0.039006315
0000a0 a3 ba bb 3d ee 15 7f bd 7e b2 0b bd 82 d4 f4 bc
       0.091664575 -0.062276773 -0.03410577 -0.029886488
0000b0 60 3f 73 3c 78 af da 3c 4f 81 8e bd d1 f5 0b 3d
       0.014846653 0.026694998 -0.069582574 0.034169976
0000c0 d0 64 02 be 11 71 83 3d c5 7c 97 bd e6 16 f0 b9
       -0.1273377 0.0641805 -0.07396845 -0.00045793428
0000d0 96 35 68 3d 84 04 7e 3d cc 27 9d 3d ac 81 fb bb
       0.05669173 0.062016025 0.07673606 -0.00767537
0000e0 78 79 7a 3d c5 9a be 3d f7 43 f7 3c 30 0a e9 bb
       0.061150998 0.09306864 0.030183775 -0.00711181
0000f0 1d 14 e8 3c 5b 45 b4 3d 99 33 54 bd a6 57 52 3d
       0.028329903 0.08802291 -0.05180702 0.05135312
000100 15 45 ed bc 11 7f 2b 3d 18 2a 96 3d 85 86 6f 3d
       -0.028963605 0.041869227 0.073322475 0.058477897
000110 78 81 38 3c 64 4d dd bb ad 4e 62 3d 77 f1 29 bd
       0.0112613365 -0.0067536104 0.055250812 -0.041490044
000120 ab a5 7e 3c bc 28 e2 39 38 29 e5 bc f9 4e 07 bd
       0.015542428 0.0004313643 -0.027973756 -0.0330343
000130 26 57 e2 bc b3 0e 6b bc 38 fb 01 bd ec 47 b9 3c
       -0.027629446 -0.014346766 -0.03173372 0.022617303
000140 a5 46 fb bd ca 6e b7 bc b3 80 8f bd ff 87 a3 bd
       -0.12269334 -0.022391696 -0.07006969 -0.079849236
000150 3a 61 91 3d 9e a9 ee bd c8 0d e1 3c a7 de 28 bd
       0.070986226 -0.11653446 0.027472392 -0.041227963
000160 8f 17 9d 3d 2d 5b 26 3e 3b fa da bd 8a 17 72 bd
       0.07670509 0.16245718 -0.10692259 -0.05910448
000170 e5 67 ff 3b 21 0b 8b 3c 26 12 7d 3d ca fd 75 bd
       0.0077943676 0.01697308 0.061784886 -0.060056485
000180 7e ee 6b bc 5c 4c c7 bd c7 5c fa 3a 97 50 60 3d
       -0.014400123 -0.09731361 0.0019101136 0.054764356
000190 df 97 8a bc e8 3b d8 bd 95 41 77 bc cb f1 c9 bd
       -0.01691812 -0.10558301 -0.01509132 -0.098605715
0001a0 18 f5 bb bd c0 11 48 bc fb be 35 3d d7 47 a3 3c
       -0.09177607 -0.012211263 0.044371586 0.019931717
0001b0 56 33 33 3d 1d 6b 15 3c 69 eb b1 bd a9 af 87 3d
       0.04375013 0.009119776 -0.08687479 0.066253014
0001c0 9d 72 46 3d 5b f4 89 3c 46 43 ab 3d a1 42 a0 bd
       0.048449147 0.01684015 0.08362441 -0.078252085
0001d0 d3 71 38 3c af fe a9 bc 77 47 8e bd 2c ac ef 3b
       0.011257607 -0.020751325 -0.069472246 0.0073142257
0001e0 7f df 7b 3d 96 c7 91 bd b2 e8 cf bc 74 23 16 bd
       0.06149244 -0.07118146 -0.025379512 -0.036654904
0001f0 54 00 da 3c 55 66 c0 3b 47 2f 6d 3d b3 9a 2e bc
       0.026611485 0.005871574 0.057906415 -0.010657
000200 38 69 07 3c e9 71 63 3d 54 5a dd 3d c9 23 42 3d
       0.008264832 0.055528555 0.10808244 0.04739741
000210 fe bd 9b 3d 6c b5 4b 3d 50 7b ed bd 39 28 f1 bd
       0.076045975 0.049733564 -0.115957856 -0.1177525
000220 16 c3 21 be 5a f0 8f 3d 86 62 54 bc 87 65 84 3d
       -0.15797076 0.07028265 -0.012962943 0.06464677
000230 50 58 a4 3d 92 af c1 3d 4f b2 bf 3c c7 bf a8 bc
       0.08024657 0.094573155 0.023400454 -0.020599259
000240 3f 79 67 bc e4 3a 4d 3d e5 ea ee 3c 21 10 c2 bd
       -0.014128028 0.05010499 0.02916474 -0.094757326
000250 54 dc 97 3c bf 2b 6a 3d 1b cb 23 3e 92 b9 af bc
       0.018537678 0.057170626 0.15995447 -0.021450792
000260 37 8e ad 3d 1f 84 3b 3d 1d 91 ab bd 2d 8f 8e 3c
       0.08474391 0.045780297 -0.083772875 0.017402256
000270 be a2 d4 3c 95 d1 56 bd af bc 5d 3d a3 80 c6 bd
       0.025956508 -0.052445967 0.05413502 -0.09692504
000280 f0 a6 12 3d 2d 3f a0 bc 40 f3 21 3c 74 93 24 bd
       0.035803735 -0.019561375 0.0098846555 -0.040179685
000290 b9 1a 86 bc 34 a9 6c 3b cb a8 03 3e 6c 50 93 bd
       -0.016370164 0.0036111595 0.12857358 -0.07193074
0002a0 9c 6d ab bd e6 e8 b4 bc 61 0e 5f 3e 65 ac fb bc
       -0.08370516 -0.02208371 0.21782829 -0.030721853
0002b0 8e c0 38 bd 74 04 a9 bd 26 67 d0 bd 40 9f 97 bc
       -0.04510551 -0.082528025 -0.10175924 -0.018508554
0002c0 c3 3a 18 3d b1 85 e0 3d 96 cf d7 bd 5f f1 16 3d
       0.037165415 0.109629996 -0.10537641 0.036851283
0002d0 5a 4f 3a bd 8a 23 40 bd 4e ef 97 3d 9f d7 a9 bd
       -0.04548583 -0.046908893 0.074186906 -0.082930796
0002e0 b1 37 01 3d 22 de 2b bc 5f 33 a5 3d 62 81 03 be
       0.031547252 -0.010489972 0.08066439 -0.12842324
0002f0 2f 84 8b 3c 83 39 28 bc e0 ba 3b bc 4d 5f 0d 3d
       0.017030803 -0.010267618 -0.011458129 0.034514714
000300 e1 a7 59 3d ef ae 17 3d ef 42 e2 3d 1f 65 87 3d
       0.053138617 0.037032064 0.11047923 0.06611084
000310 a7 5a 8b 3c f8 11 86 bc 13 8c 60 bd be 35 4f bb
       0.017011 -0.01636599 -0.054821085 -0.0031617726
000320 93 a3 6a bd 9f 09 cc bd 66 44 ff 3d 87 b9 2f 3e
       -0.057284903 -0.099627726 0.12464218 0.17160617
000330 e9 7c da bd 0b 09 a8 bc eb f5 61 bd d8 da 31 be
       -0.10668356 -0.020512125 -0.055166166 -0.17368639
000340 60 2b 96 3d b8 98 4d bd 08 3a 00 3d dd fb e4 3d
       0.07332492 -0.050194472 0.031305343 0.111808516
000350 50 ee 73 3d 18 58 75 3b 9e 34 9a bd 41 24 bd bd
       0.059553444 0.0037436541 -0.07529567 -0.092354305
000360 9f 3a a4 bc 0c b5 ae 3b b1 72 00 bb 34 6d a0 bc
       -0.020047484 0.005331641 -0.0019599611 -0.019583322
000370 40 a5 b2 bd 5f 28 68 bd 7b a2 b9 3d 4a 32 53 3d
       -0.08722925 -0.056679126 0.09064194 0.05156163
000380 a1 d2 8d bd 17 e5 2f 3d 6e ec a7 bc 1a 45 cb 3b
       -0.0692494 0.042943086 -0.02049848 0.006203306
000390 c0 26 7c 3d c0 a4 89 bd ef 1e 46 bd 6f 65 7b bd
       0.061560392 -0.06720877 -0.048369344 -0.06137603
0003a0 19 eb 18 3d 38 f8 96 bd 9d 0e 09 3e 14 b8 60 bd
       0.03733358 -0.07371563 0.13384481 -0.05486305
0003b0 a1 9d 60 3c 98 f9 81 3d 6d 7c 96 3b 19 fb 06 bd
       0.013709457 0.06346434 0.0045924694 -0.03295431
0003c0 e5 23 fb 3d a2 a8 bd 3d 72 cf 8f bc 3a c0 6d 3b
       0.12262706 0.0926068 -0.017554972 0.0036277906
0003d0 9e 2c bb bc 4c b1 98 3c 40 e3 a8 bc 09 10 84 ba
       -0.022848424 0.01863923 -0.020616174 -0.001007558
0003e0 5c 00 8d bd f9 5a ab 3b 87 82 00 3d d5 10 8f 3d
       -0.06884834 0.0052293506 0.03137448 0.06985632
0003f0 d7 be c7 3d 94 6e d5 3d 6b c0 fa bd ce 06 65 3b
       0.09753197 0.10421482 -0.12243732 0.0034946683

weight f4 [256, 512]
000000 ed 26 cd 3c e7 af 36 bd f3 4b 7d bd 1f ab 4b 3c
       0.025042975 -0.044601347 -0.06184001 0.012430935
000010 4a 21 a3 3d b4 ba 1d 3b 79 e0 41 3d c3 f2 68 bd
       0.07965334 0.0024067583 0.047333214 -0.05687214
000020 33 a5 af b9 71 60 d3 bc 7f c1 a1 bc a3 8c 96 bd
       -0.00033501684 -0.025802823 -0.019745586 -0.07351043
000030 cc 6c 47 3c 75 0c 99 bd 13 44 5f 3b 4f 6d 34 bd
       0.012171935 -0.07473079 0.0034067675 -0.044049557
000040 62 d8 d9 bd 4f ee 8d 3c bf 64 2c bd d3 21 42 bd
       -0.10636975 0.017325548 -0.042088266 -0.04739554
000050 e7 61 ba 3d e8 01 b0 bd 9a 88 7d bd a4 03 89 3d
       0.09100705 -0.085941136 -0.06189785 0.066901475
000060 4d bd 89 bd f4 24 af 3a 06 b4 95 bc 0e 71 d6 bc
       -0.067255594 0.0013362453 -0.018274318 -0.026176956
000070 73 2e 9f 3d e5 3a 3a 3c d1 9e 9c bd 46 4d 47 3c
       0.07772531 0.011366581 -0.07647479 0.0121644195
000080 24 7e 23 bd 41 cb 2c 3d b9 f5 fd bc 8d 6e f6 ba
       -0.03991522 0.042186026 -0.031000959 -0.0018801257
000090 bd 68 bc bc da b1 bb bd 6d d8 71 bd fc bd d4 bc
       -0.022999162 -0.09164782 -0.05904429 -0.025969498
0000a0 8e b1 9d 3d 1c be 14 bd 5d 00 22 bd 81 9d 44 3b
       0.076998815 -0.036314115 -0.039551128 0.0030001106
0000b0 e8 e6 28 bd 7d 29 29 3c 83 07 8e bd 4f dd 37 bd
       -0.041235834 0.010324833 -0.069350265 -0.04488879
0000c0 a4 c4 f7 bd da d1 a4 3a c4 dd a2 bd 96 a0 af 3c
       -0.12098053 0.0012574748 -0.07952455 0.021438878
0000d0 26 9c 21 3d 11 38 4a bd 84 df cc bc 6a 48 27 3d
       0.039455555 -0.049369875 -0.025008924 0.040840544
0000e0 95 3d ee bc 58 9d ad 3c 38 5e 8f 3c b7 7e 13 bd
       -0.029082099 0.021193191 0.017500982 -0.036009517
0000f0 b5 69 35 bd c3 42 eb bc 97 36 85 3d 33 89 90 bb
       -0.044290263 -0.028718358 0.06504553 -0.0044108867
000100 77 12 a6 bd 7c ff f5 3c 6a 58 dc 3c 7a 97 66 3c
       -0.08108991 0.030029051 0.026897628 0.014074201
000110 a3 34 b9 bd 64 30 6c 3c c8 ce e6 bc 99 ca 7a bc
       -0.09043243 0.014415834 -0.028174773 -0.015307092
000120 6e 31 24 3d c3 f8 56 bd 2f a3 0d 3d 9c 0b e8 3c
       0.040086202 -0.05248333 0.034579452 0.028325848
000130 d0 25 8b bd 11 35 9a 3d 95 e9 d2 bd 3a 99 20 bd
       -0.067943215 0.07529653 -0.102984585 -0.03920863
000140 6d ea 21 be 79 b8 74 3d 45 a3 e1 3d 63 d2 ab bb
       -0.15812083 0.05974624 0.11017469 -0.005243586
000150 72 74 f8 3d 1e ef 1c 3d fc 09 e0 3b 4b b8 32 bd
       0.12131585 0.038313977 0.0068371277 -0.043632787
000160 3e 1f 94 ba 87 55 c1 3d 9c 40 ea bc e9 4a aa bd
       -0.0011300815 0.09440141 -0.028595261 -0.08315069
000170 eb 39 d7 3c e7 20 00 3e fa 93 f9 39 54 58 a3 bd
       0.026272735 0.12512551 0.00047603232 -0.07975832
000180 4a 6c 5c 3d 91 85 f1 bd e1 35 8e bc 5f 8b c0 3c
       0.05381421 -0.11793054 -0.017359676 0.023503957
000190 10 72 ed bc eb a8 09 bd ad 31 db 3c e0 c3 61 bb
       -0.028985053 -0.03360836 0.026757086 -0.0034449026
0001a0 c2 a9 be bd f8 0f 88 bd cd 35 a1 3c c3 81 2f bd
       -0.093097225 -0.06643671 0.019678975 -0.04284836
0001b0 d1 4f b4 bc 70 0c 44 bd 2a ec 41 bd 04 93 26 3c
       -0.022010716 -0.047863424 -0.047344364 0.010166887
0001c0 64 58 c6 3c cf 67 ae 3c 27 9d 3b bc d8 64 88 3c
       0.02421207 0.021289734 -0.011451042 0.016649649
0001d0 d5 4f 59 3d b0 b9 bd bd 6e 42 52 bd 38 91 64 3d
       0.05305465 -0.09263933 -0.051332884 0.055802554
0001e0 32 5e b5 3c af 00 0a 3d c5 29 4c 3d 90 38 c6 3d
       0.022139642 0.03369206 0.049844522 0.09678757
0001f0 bb 78 8e 3c 52 e5 1b 3d 8d 78 33 3d b0 1e 0a be
       0.017391553 0.038060494 0.043816138 -0.13488269
000200 11 bd 8c 3c b4 e6 21 3d 4f ed 0b be 18 c6 d8 bc
       0.017179998 0.039526656 -0.13664745 -0.026461646
000210 66 3c 56 3d b0 0c 78 3d 71 ef 05 3d 38 f8 89 bd
       0.052303694 0.060558975 0.032699052 -0.06736797
000220 cb 5d 3d 3d c8 6b 4b 3b 6e 74 80 bd 84 da 44 3d
       0.046232026 0.0031039584 -0.06272207 0.048059955
000230 6f ec 27 3c 7a f6 64 3d b9 94 32 bb 60 71 6b bd
       0.010249241 0.05589912 -0.002724929 -0.05748117
000240 f0 54 f1 bc a0 33 a0 3d f6 b6 88 bc 58 83 00 3c
       -0.029459447 0.07822347 -0.016688805 0.007843815
000250 60 2e 32 3d 8d d7 23 bd f7 6e 3f 3d 2b 66 23 bd
       0.043501258 -0.040000487 0.046736684 -0.039892357
000260 32 69 53 3d 5e d7 67 bd a9 33 25 bd c1 21 02 3d
       0.051613994 -0.056601875 -0.04033247 0.03177047
000270 81 84 6c bd 66 b2 fe bc aa 88 3b bd 53 66 53 bd
       -0.057743553 -0.031090926 -0.04578463 -0.051611256
000280 69 48 90 bc 11 8b 41 bc fd fb 77 3d cf 2d 18 bd
       -0.017612653 -0.011812941 0.06054305 -0.03715306
000290 46 56 48 bd 9e ff 02 bc 55 76 05 3e c8 df 3a bc
       -0.0489104 -0.007995514 0.13033421 -0.011405893
0002a0 bd 94 d1 3c 0e 6d 00 bd db d1 f0 3c 72 c8 4b bd
       0.02558362 -0.031354003 0.029396942 -0.049751706
0002b0 fb ae c5 bd f0 02 f3 3c b6 bb 07 bd c3 ac ca 3c
       -0.096525155 0.029664487 -0.033138 0.024740582
0002c0 1a 31 d3 3c 4a f3 f0 3d 23 0a a7 bd f9 68 2e 3d
       0.02578025 0.11765154 -0.0815623 0.04258058
0002d0 fa aa 8d bd a8 b7 5f 3c 33 ca 81 bc 40 41 3e 3d
       -0.06917377 0.013654627 -0.015843486 0.046448946
0002e0 94 41 5b bd 5a 3e eb 3d a2 96 2b be 02 c0 95 bd
       -0.053529337 0.11486502 -0.1675668 -0.07312013
0002f0 67 aa 3d bd 11 b6 b4 bc 97 31 66 3c c3 be 9d bc
       -0.046305086 -0.022059472 0.014049909 -0.019256001
000300 53 49 86 3d 38 05 21 be f5 fc 47 be d6 cf 02 bd
       0.06556954 -0.15724647 -0.19530089 -0.03193649
000310 6d 41 e2 bc ac 91 25 3d d6 4b 25 3d 88 e8 61 3d
       -0.027619088 0.040422127 0.040355526 0.0551534
000320 fd 1c cf bc 6c 3f 1c 3d 48 6f ea 3d e0 b5 dd 3d
       -0.025282377 0.03814642 0.114470065 0.108257055
000330 58 9a dd bc ac 1c 41 3d 04 d4 a0 3c 62 83 26 bd
       -0.027051136 0.047146484 0.019632347 -0.04065264
000340 6a b3 40 3c d1 73 71 3c 43 2e 0b bd 5a f2 d1 3d
       0.011761526 0.014737085 -0.033979665 0.10251303
000350 56 52 93 bd 1a 76 5e bd 03 1c c0 bd 4f fc 81 bd
       -0.07193439 -0.05431185 -0.09380343 -0.06346952
000360 a1 1c 35 3d 61 5f 98 3c 5e 30 ab bb f3 07 90 bb
       0.044216756 0.018600168 -0.0052242717 -0.004395479
000370 40 cf 6f be 4d 9e 04 be 16 ab ac bd 46 c2 56 3d
       -0.23418903 -0.12951012 -0.084310696 0.052431367
000380 6b 0d 5d ba 42 a2 17 bd c8 3b 18 bd 10 a7 eb bd
       -0.00084324804 -0.037019975 -0.037166387 -0.11506474
000390 37 59 01 be 2c c2 90 bc ae 6d 95 bd a2 26 19 3c
       -0.12631689 -0.017670713 -0.0729631 0.00934759
0003a0 17 3e 88 ba f4 e4 9c 3c bf dd 70 bc 22 e6 ab bb
       -0.0010394481 0.019152142 -0.014701306 -0.00524594
0003b0 d5 8f 7b 3d 82 04 5e bc d6 79 ec bc 54 e9 3e b9
       0.061416466 -0.013550879 -0.02886669 -0.00018206734
0003c0 cb 1c d0 bd cc c1 d2 3b 99 95 39 3c 6f ca 9a bd
       -0.10161742 0.006431794 0.011327171 -0.075581424
0003d0 c5 8d 55 bd c1 e8 75 3d db 35 2c 3d b8 51 d2 3a
       -0.052137155 0.060036425 0.042043548 0.0016046083
0003e0 3a 22 1b bd 2f 4b 89 3d 2c e0 28 bd 92 5d 93 bb
       -0.037874438 0.06703793 -0.041229412 -0.0044972384
0003f0 a3 fe 10 3c 8e aa a3 3d ea 8b 09 bd c6 8b 97 bd
       0.008849773 0.07991515 -0.033580698 -0.073997065

bias f4 [256]
000000 f4 e4 26 3d 56 38 8d 3d 46 9f f8 bc be e1 1a be
       0.04074569 0.06895511 -0.030349385 -0.15125176
000010 29 b6 d9 3c bc 70 a8 3c 9b a9 ee bd 71 9b 4f bd
       0.026576119 0.020561568 -0.116534434 -0.05068535
000020 0d dc 3d 3d 83 e7 c5 bd aa ec 89 3d d8 74 2e be
       0.046352435 -0.09663298 0.06734593 -0.1703676
000030 e6 0d 8c 3d 51 df 03 be d0 e4 5e 3d 44 0c 13 3c
       0.068385884 -0.12878157 0.05441743 0.008975092
000040 98 61 90 bd 39 c4 ab 3c 84 63 33 be c4 6a f3 bd
       -0.070498645 0.02096759 -0.17518431 -0.11885598
000050 f5 d1 86 3b 29 e4 8c bd f3 17 e5 ba 12 47 39 3d
       0.0041143843 -0.068794556 -0.0017478451 0.045233794
000060 23 13 6f 3d 00 bc 83 3b 7e e7 80 3d b3 85 27 3d
       0.05836786 0.004020214 0.06294154 0.04089899
000070 2e 64 41 3d cc 2d be bd 25 59 eb bc a9 c5 47 bd
       0.04721468 -0.09286079 -0.02872903 -0.048772488
000080 a6 98 4b bd e1 31 8d 3c 1d e1 57 bc 0e 9a 14 3d
       -0.049706124 0.017235698 -0.01317623 0.03627973
000090 cb b0 2d 3d d0 cc e3 3d 39 23 13 3d 75 8f 4c 3d
       0.04240493 0.11123049 0.035922263 0.0499415
0000a0 66 43 2e 3d fa 6b 13 3d 03 f3 70 bb 73 45 6b 3d
       0.042544745 0.035991646 -0.003676594 0.05743928
0000b0 33 6f b3 bd 36 77 0b 3c c9 cf 99 bd 09 7b 24 3d
       -0.08761444 0.008512309 -0.07510335 0.040156398
0000c0 a9 6a 2d 3c c3 10 c6 bd 3b 1e 98 3d c9 3a 80 bd
       0.010584512 -0.09671166 0.07427641 -0.062612124
0000d0 56 82 33 3b 40 50 8f bd 4c 8c 74 bc ee de b0 3d
       0.0027390919 -0.06997728 -0.0149260275 0.086362705
0000e0 9b 29 be 3c 8c fb f0 3d d7 77 a8 bd 27 27 37 bd
       0.023213198 0.11766729 -0.08225983 -0.044715073
0000f0 e8 48 39 3d 15 de ae 3c 18 09 4a 3d dd aa c2 3c
       0.045235544 0.021346131 0.04932508 0.023763115
000100 6f 4a 8c 3d 6c 50 c4 bc 75 be cc bc 99 e9 c2 bd
       0.068501346 -0.02396413 -0.02499316 -0.095172115
000110 64 ac 31 bd 98 1d 89 bd 3d b5 42 3b d2 1f 36 bb
       -0.043377295 -0.06695098 0.0029710077 -0.0027789962
000120 84 4e b2 bd f2 54 18 bd 75 c9 df bc 60 b9 a7 bd
       -0.08706382 -0.037190385 -0.027317742 -0.08189654
000130 fd d8 95 3c ba 2b aa bd 83 c0 2e be 15 99 1d bd
       0.018291945 -0.083091214 -0.17065625 -0.03847607
000140 28 f9 4d bd d9 22 db 3d cf 3d 90 bd 57 8f ae 3c
       -0.050286442 0.10700006 -0.07043039 0.021308584
000150 47 77 ef ba 7c 53 d6 bb 5d df c2 3b bd 34 3f 3d
       -0.00182698 -0.006540714 0.005947037 0.046681155
000160 b1 b6 26 3d bc 71 3e 3c 4b fe 11 be 7f 84 ab bd
       0.04070157 0.011623796 -0.14257161 -0.08374881
000170 21 60 e8 bd 10 aa bb bc 31 48 01 3d de 18 94 3d
       -0.1134646 -0.02290824 0.031562988 0.072313055
000180 50 08 18 3d b0 0c 2d bd 80 2e af 3c a3 07 93 bd
       0.037117302 -0.042248428 0.021384478 -0.07179191
000190 d3 9d 8a bd a5 72 c1 3b f0 af c0 bd 21 9b 53 3d
       -0.06768384 0.0059035593 -0.094085574 0.051661614
0001a0 ca 63 45 bd c7 bb a0 bd ec 7d 62 3d 96 7c fc bd
       -0.04819087 -0.07848316 0.05529587 -0.123284504
0001b0 8f 9c 78 bd b3 dc 22 bd b9 63 57 3c 61 3d 4d 3b
       -0.06069618 -0.039761256 0.013146334 0.0031317102
0001c0 84 44 16 3d 1a 57 c8 bc 56 26 03 3e d8 1f bc 3c
       0.036686435 -0.024455596 0.12807593 0.022964403
0001d0 6d 06 b2 ba 07 86 62 3c 3e 7b b0 bc 5e 63 21 bd
       -0.0013582237 0.0138259 -0.021543141 -0.039401405
0001e0 4d 6e 86 3b 19 ec 96 3b b0 b0 f4 3b 28 37 97 3d
       0.0041025043 0.0046057818 0.007467352 0.07383567
0001f0 67 c3 7a 3d 93 dd 10 bc 10 0a 35 3c 1f da b2 3d
       0.061221506 -0.00884189 0.011049762 0.087330095
000200 5c 77 c7 bc fd 2c 29 3d c2 16 5f bd 61 e4 88 bd
       -0.024348907 0.04130267 -0.054465063 -0.06684185
000210 7b 89 af bd 85 93 b3 bb c0 b6 a3 bc 9c 32 d7 3d
       -0.08571144 -0.005480232 -0.019984603 0.105077
000220 82 5b 2c 3d e7 03 0e 3c b0 93 88 bc b6 32 a9 bc
       0.042079456 0.008667923 -0.016671985 -0.020654064
000230 26 f3 44 3c 92 94 1c bd 39 eb 09 be d1 33 20 3c
       0.012020862 -0.038227625 -0.13468637 0.009777979
000240 7b 10 bc bd 8a 5a 92 3d 87 8b 8f 3d 3e 78 d9 bd
       -0.09182831 0.07146175 0.070090346 -0.106186375
000250 ef 43 34 bd 58 96 9a 3d 91 9d 0f bd ae a9 7c bd
       -0.0440101 0.07548207 -0.035062376 -0.061685257
000260 37 d6 5a bc 62 dd 79 3b 5c fd 7a 3d f0 70 84 bc
       -0.013356737 0.003812634 0.06127678 -0.016167134
000270 78 de 15 bd 4a 47 a1 3b 5c 52 38 3d 3b 20 06 bd
       -0.036589116 0.0049218284 0.04500042 -0.03274558
000280 b7 fe e5 bd 1d 4c 9a bd a9 f0 82 3d 16 10 db bd
       -0.112302236 -0.07534049 0.063935585 -0.106964275
000290 c1 f8 a9 3c 3c 29 bd bd 64 0a 9b 3d 7e 01 d0 3c
       0.020748498 -0.092363805 0.07570341 0.025391337
0002a0 88 da 82 3c 46 d7 05 3d a2 f4 c0 3d 23 58 d4 bd
       0.015973344 0.032676004 0.0942166 -0.10368373
0002b0 e1 3a 3d 3d d0 80 59 3d 61 b3 ec bb a9 ab 84 bd
       0.04619873 0.05310136 -0.007223532 -0.06478054
0002c0 9f 7f 35 bd fe c4 ca bd 4e 9d b7 bd dc de c6 bd
       -0.044311162 -0.099008545 -0.0896555 -0.09710476
0002d0 54 24 ea 3a 85 8b ab bc eb 87 d7 bd c1 25 66 3d
       0.001786361 -0.020940552 -0.10523971 0.05618835
0002e0 2c 26 92 3d 26 87 46 bd f5 83 6b bb e6 44 d9 3c
       0.07136187 -0.04846873 -0.0035936807 0.026522111
0002f0 ca cb 02 3d 92 32 84 3d cd fa 29 be 4e 87 36 3d
       0.03193263 0.06454958 -0.16599579 0.04456263
000300 8a 84 83 bd 7a d6 b4 bc c9 51 7a 3c f9 41 1b bd
       -0.06421764 -0.022074927 0.015278288 -0.037904713
000310 dc 50 91 3d 04 8f df bd 59 ed 60 3c 0e f4 8a bc
       0.07095501 -0.1091595 0.013728463 -0.016962077
000320 3f f7 7f 3a 4d dc 8f bc 12 43 86 bd 6e 5a b1 bd
       0.00097643206 -0.017561102 -0.065557614 -0.08659826
000330 2c 06 62 3c 31 8f cc 3d 61 29 0b 3c b4 7c ba bd
       0.013795417 0.09988249 0.008493752 -0.091058165
000340 09 9e 20 3d 3f 1f 1f 3c db 60 a4 3d 30 b2 df bc
       0.039213214 0.0097120395 0.08026286 -0.027306646
000350 0c 62 1d bc d9 cb 3f be 14 fd c7 bc b6 33 39 bb
       -0.009605896 -0.18730105 -0.02441267 -0.0028259582
000360 d9 0d 9d bc 19 1a a9 3d 1a b1 90 3d 33 7a 92 bd
       -0.019171642 0.08256931 0.070650294 -0.07152214
000370 c5 85 d9 bc 6b 10 0b be d4 ca e8 3b 54 6b fd bd
       -0.026553044 -0.13580482 0.007104257 -0.12373987
000380 b1 26 ca bd 2d 6b e8 3c f6 19 e5 bc a8 90 3b 3d
       -0.09870661 0.028371418 -0.02796648 0.04579225
000390 8d e4 3f bd 71 64 2b 3d 02 ac 65 3d cf 83 11 3d
       -0.046848822 0.041843835 0.056072243 0.035526093
0003a0 3a 3e cb 3c c0 6c 3f 3d 32 c7 01 3e 46 c9 43 bc
       0.024809945 0.04673457 0.12673643 -0.011949843
0003b0 b2 4e c9 bc 4e 10 c5 bd ea f8 43 bd c0 c6 d3 bd
       -0.024573658 -0.096222505 -0.047844805 -0.10340643
0003c0 a2 3a e6 3c af e9 19 be b0 40 1d 3d 9c 41 0c bc
       0.02810413 -0.1503055 0.03839177 -0.008560564
0003d0 6e f5 80 3c 5c 51 93 3d c9 d0 29 3d 85 3c d2 bb
       0.01574203 0.071932524 0.04145888 -0.006415906
0003e0 5b ed 2f 3a aa 4d 99 3d 5a c1 ba 3b 24 4c 92 3b
       0.0006711089 0.07485516 0.005699319 0.004464643
0003f0 2f b3 ff 3c da 96 cc 3d e9 4d 93 bd 5e 9a e9 bd
       0.031213371 0.0998971 -0.071925946 -0.11406396

weight f4 [128, 256]
000000 36 8d a8 3c 09 6c 83 bb f8 d6 70 3d 71 18 2c 3d
       0.020575147 -0.0040106815 0.05879876 0.042015497
000010 c0 e7 7a bc 3c f5 7e 3c 3d b0 16 3d b7 1d 8b 3d
       -0.015314043 0.015561398 0.036789168 0.06792777
000020 72 39 7d 3d 9b 28 4b 3d 1e aa 6b 3c 52 ae d5 3c
       0.061822362 0.04959927 0.014383821 0.026084099
000030 1e f5 65 bc 3f 31 91 3c 88 99 3e bd da fb bc 3d
       -0.014035491 0.017723678 -0.046533138 0.092277244
000040 69 29 ca 3d 34 fd 85 3d 12 25 eb 3d 92 43 01 3e
       0.098711796 0.06542435 0.1148168 0.12623432
000050 f9 e3 85 bd cd 4f b6 3d fe 82 bd 3d 9a 44 1d 3d
       -0.06537623 0.089019395 0.092535004 0.0383955
000060 60 72 e4 3c 02 75 d0 3d a6 4f 1f 3d 03 86 e5 bc
       0.02788657 0.101785675 0.038894318 -0.028018003
000070 94 42 a6 b9 2f 0a 08 3e 45 b8 b4 3d 9c d1 11 3c
       -0.00031711592 0.13285135 0.08824209 0.008900072
000080 da c2 f5 3d f8 07 12 3e f1 91 51 3d de a2 af 38
       0.120000556 0.14260852 0.05116457 8.374987e-05
000090 8e 03 83 3d f8 1c cf bd 52 68 a2 3d 36 c5 11 3d
       0.063971624 -0.10112947 0.07930054 0.035588466
0000a0 e6 75 87 3d 4f 8c 62 bc 4c 14 90 3d b2 61 6c bd
       0.06614284 -0.0138273975 0.07035121 -0.057710357
0000b0 1b 9e 57 3e e2 d6 8f bb 20 d8 cc 3d 02 1c 34 3c
       0.21056406 -0.0043896297 0.1000216 0.010993006
0000c0 33 11 d0 bb 08 cb db 3d 7d ca 30 3d 6f c0 6a 3d
       -0.0063497066 0.107320845 0.043161858 0.057312425
0000d0 3f 30 24 3c c1 20 03 3e 16 76 54 3d a2 7f ee bc
       0.010021268 0.12805463 0.051870428 -0.029113594
0000e0 07 c5 ec 3d af 69 f8 3c 1f ca 8a 3d 81 7a 81 3d
       0.115610175 0.030323831 0.06776833 0.06322194
0000f0 84 bc 88 3d 5f e9 a4 3d 6b 60 03 bd 46 7a 5d bd
       0.066765815 0.080523245 -0.032074373 -0.054071687
000100 64 ce eb bc 47 24 43 3c 6d ad 0b 3c c3 8b cb 3d
       -0.028784938 0.011910505 0.008525235 0.09938767
000110 4b 63 b9 3d 47 ae 1e bb 34 79 d3 bc 11 48 88 3d
       0.09052142 -0.0024212764 -0.02581463 0.066543706
000120 6e 63 ad 3d 1f bc 9e 3c 75 d8 77 3d 77 09 5b 3d
       0.0846623 0.019376813 0.060509164 0.053475823
000130 a0 ec c2 3c 25 a4 26 bd ad 9e e2 3d 53 0b 44 3d
       0.023794472 -0.040683884 0.11065421 0.047862362
000140 e0 75 b2 3d 3e da 7d 3c 48 36 91 3d 48 2e 1b bd
       0.08713889 0.0154939275 0.070904315 -0.037885934
000150 ad a1 d7 bb 06 ef 2b bc 48 2c 2a 3d 2d dd 0d 3d
       -0.0065805526 -0.010493999 0.041546136 0.034634758
000160 55 99 96 bb 34 bf 8f bb 87 45 98 3d 09 c4 ff bb
       -0.0045959153 -0.004386807 0.07435136 -0.0078053516
000170 d6 25 3e bc 20 b3 38 3c 54 bf 7b 3b 8b 7c 4e 3d
       -0.0116057005 0.0112731755 0.00384136 0.050411742
000180 51 0a 6a 3d b4 78 81 bd da 2a 75 3d 82 fd 48 3d
       0.057138745 -0.063218504 0.05985532 0.04906989
000190 23 81 1b bd be fb c0 bd 1b da 99 3d 48 60 a8 bc
       -0.03796495 -0.09423016 0.075123034 -0.020553723
0001a0 c7 da 08 bc 51 75 a7 3d 9f 3a aa bd 34 f4 83 ba
       -0.008352942 0.08176673 -0.08311962 -0.0010067285
0001b0 bc 87 a7 3d 3f 6e 02 3d 7d f4 5b bc 71 2a 61 bd
       0.08180186 0.03184342 -0.01342499 -0.054972116
0001c0 f9 21 8e 3c 3d c8 30 3e f8 d3 a1 bd 89 17 a9 3d
       0.017350184 0.17263885 -0.07901758 0.08256442
0001d0 f4 09 06 3d 56 f5 0e bb d4 e2 7a bd c1 f0 fb bc
       0.032724336 -0.0021813712 -0.061251476 -0.030754449
0001e0 cb ea e0 bb cd 91 f0 3b 0c 8d c5 3c 38 fc 5b bc
       -0.006863927 0.0073415996 0.024115108 -0.013426833
0001f0 41 7f b3 bd c1 b6 28 3e 63 f5 a0 3c 44 b6 33 3d
       -0.08764506 0.16475965 0.01964826 0.043874994
000200 93 ed e1 bb 65 e4 bc bc 90 f7 28 3d 3f c4 14 3e
       -0.006894776 -0.023058126 0.04125172 0.14527987
000210 e4 df d6 3d 1b bb 16 3d ea fe 75 3d a7 c0 c4 3d
       0.104919225 0.03679953 0.060057558 0.09607058
000220 5c f2 66 3d 01 c0 c1 3d 53 d4 d6 3c 0e 76 64 3c
       0.056383476 0.0946045 0.026224291 0.013944162
000230 80 86 c3 ba f7 73 ba 3d c0 3f f7 3c 3c d6 c4 bc
       -0.0014917403 0.0910415 0.030181766 -0.024027936
000240 cd c9 7c 3d 29 2c 52 bd 2a b3 d3 bc d4 4a 31 3d
       0.06171589 -0.051311646 -0.025842268 0.043284252
000250 9a 78 d7 3b af 1b eb bc 15 c5 d0 3d dd 62 ad 3d
       0.006575656 -0.028699724 0.101938404 0.08466122
000260 99 b3 84 3d 93 6a 86 bc 05 7f 05 3d 32 55 12 bd
       0.06479568 -0.01640824 0.03259184 -0.03572578
000270 19 6b e4 3d 03 2c a6 bc 17 ac b6 3d ef b7 e9 3d
       0.1115324 -0.020284658 0.08919542 0.11412036
000280 61 da d6 3c 9a 68 da 3d 6f 93 d3 3d 66 19 a0 3d
       0.026227178 0.106644824 0.10330855 0.07817344
000290 63 1a 3e bc ae 64 e4 3d 54 d7 6a 3d 17 8f 07 3e
       -0.011602971 0.111520156 0.05733426 0.13238178
0002a0 39 07 27 3d 5d d8 a1 bd 33 ba 2b 3c 30 09 f6 3d
       0.040778372 -0.07902596 0.010481405 0.12013471
0002b0 43 9f b9 3c 37 d6 0c bd 0b bd c8 bc cc a9 ba 3d
       0.02265895 -0.03438398 -0.024504205 0.091144174
0002c0 27 f2 d1 3d 59 66 ee 3d 29 e9 03 3e e8 8e 9b 3d
       0.10251265 0.11640615 0.12881912 0.075956166
0002d0 17 27 89 bc 0b 8c 5e bc 53 1e 89 3d 61 85 71 3d
       -0.016742272 -0.0135831935 0.06695237 0.05896509
0002e0 0b ba 00 bd 7b c7 41 bd 55 5a ba 3d a9 f1 b6 bc
       -0.031427424 -0.04730938 0.09099261 -0.02233203
0002f0 df 39 11 3d 05 f0 11 bd 26 37 54 3d 12 37 d1 bc
       0.03545558 -0.03562929 0.051810406 -0.025538955
000300 ac 9d 35 3e 8d 1e 95 3c fe ae af 3c b5 b4 81 3d
       0.17735928 0.018203044 0.021445747 0.06333295
000310 75 fb 5c ba 29 f1 ce 3d 89 56 be 3c 1a 3a c5 3d
       -0.0008429804 0.101045914 0.023234623 0.096302226
000320 7b c7 da bc d1 a7 f6 3c fa 53 e0 3b 0c e5 50 3d
       -0.026706448 0.030109318 0.0068459483 0.050999686
000330 6d d0 77 3d ef ea 42 3d 5e a4 28 3d 3a f9 f2 3d
       0.060501505 0.04758733 0.041172378 0.118639424
000340 c0 9c df 3c 47 d4 9e bc 59 4c 0e bd 25 93 78 3d
       0.027296424 -0.019388331 -0.03474078 0.060687203
000350 4c 11 cf 3d f6 ac 96 3b 9a a7 81 3d e6 e8 b2 3d
       0.10110721 0.0045982553 0.063307956 0.08735828
000360 2f 3e 2c 3e d4 cd 9f bc 73 46 84 3d fa 2a 33 3d
       0.16820596 -0.019507326 0.064587496 0.043742158
000370 54 95 c1 3c 3f 5e e1 bd d1 6c 0c bd ad 49 da 3d
       0.023630776 -0.11004304 -0.034283463 0.10658584
000380 c3 e9 24 3e 88 b2 92 3c f2 08 a2 3d c8 54 9c bc
       0.16104798 0.017907396 0.079118624 -0.019083396
000390 2b 26 89 3c 9e 47 11 3d 2d 36 36 bd c2 6a 00 3e
       0.016741833 0.03546869 -0.04448526 0.12540725
0003a0 81 6a 11 3d 9e 2f 3c 3c 70 83 93 bd 12 e0 6c 3d
       0.03550196 0.011485962 -0.07202804 0.057830878
0003b0 7f d1 0d 3d 7e 30 e1 3d 07 be 18 3e 77 2a 4a 3c
       0.03462362 0.10995577 0.1491624 0.012339226
0003c0 a3 f7 a5 bc 21 77 35 3d a3 68 0a 3d f7 82 01 3d
       -0.020259684 0.044303063 0.033791196 0.03161904
0003d0 11 51 36 3b 54 59 e1 3c e2 5f 8d 3d 49 72 36 3e
       0.0027819315 0.027508415 0.06903054 0.17817034
0003e0 0e 4b fd 3c 7b 1f c9 3c 9a f0 25 bc 60 45 14 3d
       0.030919578 0.024551144 -0.010128165 0.036198974
0003f0 fb 99 b2 bc 6f 95 b7 3d 31 03 1e bb d4 b5 a4 3d
       -0.02180194 0.08964049 -0.002411079 0.080424935

bias f4 [128]
000000 5d d8 9d bd a7 32 7b bd 02 88 48 bd 76 47 30 3d
       -0.07707284 -0.061327603 -0.048957832 0.0430369
000010 7e 08 b8 3d bb c3 91 3d 7e bc b3 3d 4e e6 0a be
       0.08985995 0.07117411 0.087761864 -0.13564417
000020 0d 3e 1b be 22 74 eb bd b5 87 b9 3c 1d 6c a1 bd
       -0.15160389 -0.1149676 0.022647718 -0.07881949
000030 e5 25 f8 3c 33 dc 52 bd 5c 07 e3 3d 62 f7 40 3d
       0.030291507 -0.05147953 0.11085388 0.047110923
000040 88 e4 11 bb 4e 1b 26 bc 16 8b 08 3c 19 d9 f6 bb
       -0.002226146 -0.010138346 0.008333942 -0.0075332043
000050 27 f8 87 bc 21 b2 0a 3e 6c ea 7d bd 11 b3 96 bd
       -0.01659782 0.13544513 -0.06199114 -0.07358373
000060 c6 03 24 3c 28 6c 63 bd 4b c9 1e bc 60 ef ba bd
       0.010010665 -0.055523068 -0.009691547 -0.091276884
000070 78 87 09 be a4 65 58 bd 55 a1 d7 3d 5c 9e eb bd
       -0.13430583 -0.052831307 0.105288185 -0.11504814
000080 1d 74 1c 3e 4b 6f 07 3d b5 4f 08 be da b8 19 bc
       0.15278669 0.03306512 -0.13311656 -0.009382451
000090 a5 e1 f1 bd 52 a1 00 3e a4 ef f1 bd 1e 46 d4 3d
       -0.118106164 0.12561539 -0.11813286 0.10364936
0000a0 78 a0 a4 3d 9b 95 02 be 29 0d 05 3e 7f 5b 88 bc
       0.080384195 -0.12752382 0.12993301 -0.016645191
0000b0 ac 27 71 bd a7 5f 9c bd 8a 6f 40 bd e9 1c 1e 3e
       -0.058875725 -0.07635432 -0.046981372 0.15440716
0000c0 2e 15 df bd f0 bc 62 3d 56 a8 90 3d 37 52 26 bd
       -0.108927116 0.055355966 0.070633575 -0.04060575
0000d0 34 18 c1 3b 8e e5 05 3e f8 26 cf bd 21 61 09 3d
       0.005892778 0.1307585 -0.101148546 0.033539895
0000e0 1d 82 d8 bd a8 cc be 3d d8 15 89 bc fc af 9f 3d
       -0.10571692 0.09316379 -0.016734049 0.07797238
0000f0 d3 0f 12 3d 24 79 18 be ca c9 86 3d 6b c0 1e 3e
       0.035659622 -0.14889961 0.06581457 0.15503089
000100 78 5d ad bd a2 ef 23 3e b0 23 03 3e 0b d5 80 bd
       -0.084650934 0.16009381 0.12806582 -0.06290635
000110 68 55 2e 3d 88 ad c5 bd 80 22 d3 3c 32 23 29 3e
       0.04256192 -0.09652239 0.025773287 0.16517332
000120 85 27 95 3c c2 88 f6 3d ff 02 8e 3d 39 eb a5 3c
       0.018207321 0.12037803 0.06934165 0.020253764
000130 62 15 db 3b e9 c7 c2 bc da 0d 63 3c a6 4e 92 3d
       0.0066858986 -0.023776965 0.013858283 0.07143907
000140 87 90 f5 3d 90 94 52 3d f9 df 4d 3d 1a 7b ea bd
       0.11990457 0.05141121 0.050262425 -0.11449261
000150 dc 9a de bc 54 45 9e 3c 23 7d e1 3d ed 58 37 bd
       -0.027173452 0.019320168 0.11010196 -0.04476254
000160 6a aa 40 bd 7d 9a 82 3d 76 d4 d6 3d 2d fc df 3d
       -0.04703752 0.063771226 0.104897425 0.109367706
000170 32 99 85 3d 49 1f 02 3e 85 ce de 3d 61 50 f3 3d
       0.0652336 0.12707247 0.10879234 0.118805654
000180 fa 7d 9b bd 3f 77 a1 bd db 9a 5d 3d ed 4a ef 3d
       -0.075923875 -0.078840725 0.05410276 0.11684213
000190 3c ce 58 be 79 53 f9 bb 04 bc 0b bc b5 02 4d 3d
       -0.21172422 -0.0076088277 -0.008528713 0.05005141
0001a0 48 f3 3b be 6e 04 fe 3d 76 10 c5 3c f1 c7 a4 bd
       -0.18354523 0.12403189 0.0240557 -0.08045948
0001b0 f3 6f 18 be 0c 3c b7 3d b5 ab 83 bd 87 29 d4 bd
       -0.14886455 0.08947 -0.06429235 -0.10359483
0001c0 7a ac 9c 3d 87 b2 1e be eb e0 11 3d b7 e4 79 be
       0.07650085 -0.1549779 0.03561489 -0.24403654
0001d0 f7 07 38 3d ab 22 92 be a3 dc 20 be fb 09 9d bd
       0.04492947 -0.28542075 -0.15709166 -0.07667919
0001e0 c6 d3 dc bd bb 6b ab 3d 73 d2 18 3e 74 d6 00 be
       -0.1078258 0.08370157 0.1492403 -0.12581807
0001f0 bf a7 84 bd f1 51 7f 3d 83 0b cd bd cd 8c 9c bc
       -0.064773075 0.062334005 -0.10011961 -0.019110108
