result/aug74_then_gan_40_model_24.pt (torch, 934338 bytes, 9 tensors)

weight f4 [128, 13]
000000 19 0b f4 bd 1f 79 52 3e 39 c0 63 bc 77 aa 5d 3d
       -0.11916179 0.20554017 -0.01390081 0.054117646
000010 9a 84 e5 bc f5 47 3b be 4c 51 81 bc 44 78 39 bd
       -0.02801733 -0.18289168 -0.015785836 -0.04528071
000020 e3 7b 81 be 16 a3 98 3d fb c5 7a 3e 0a ed 56 3d
       -0.2528983 0.07452981 0.24489586 0.05247215
000030 8a 44 b9 3c 66 52 96 3e b9 68 b9 3e 96 6e 01 3e
       0.02261569 0.2935974 0.3621271 0.12639841
000040 f1 9f 8c bd 23 a8 70 3d 03 30 ea 3c 33 d0 8a be
       -0.06866444 0.058754098 0.028587347 -0.27111968
000050 40 3f b3 be d4 82 d8 bd 13 90 df bd 99 2d 0d be
       -0.35009193 -0.105718285 -0.10916152 -0.13786925
000060 7c a5 02 3e c7 97 07 3e 47 5f c9 3c 83 d3 96 bd
       0.1275844 0.13241492 0.024581565 -0.073645614
000070 c5 99 91 be 3c 3d f8 3d 43 09 80 be c8 76 82 be
       -0.2843763 0.121210545 -0.25007066 -0.25481248
000080 cc 84 38 3e 6b a5 0b 3e c4 b8 aa be b5 b9 0b 3e
       0.18019408 0.1363732 -0.3334409 0.1364506
000090 f2 27 d7 bc ef e5 4c 3d a4 60 8b be 05 a9 cc bd
       -0.026264165 0.05002397 -0.27222168 -0.099931754
0000a0 fd 9f 34 bd f0 e9 09 be cc cc 8f 3e 3b 27 38 3d
       -0.04409789 -0.13468146 0.28085935 0.044959288
0000b0 dd 6f 83 be 10 6c 40 3d 63 b1 7b be 40 ad 80 bd
       -0.25671282 0.046978056 -0.24579386 -0.06283045
0000c0 e8 fd d4 3d d9 29 19 3f 9d 10 02 3e 18 6d 38 3e
       0.10399991 0.5982948 0.1270165 0.18010366
0000d0 9d 47 4b 3e 26 f5 72 bd 7b 56 60 be fd 3c 09 bd
       0.19851537 -0.059315823 -0.2190799 -0.03350543
0000e0 60 2a 85 3d d0 95 97 be 8c bf 85 be aa 7b 18 be
       0.06502223 -0.29606485 -0.261227 -0.14890924
0000f0 f3 d8 be 3e 8c f2 1e be 6f 0d 26 be 28 20 2c 3b
       0.37274894 -0.15522212 -0.16216062 0.0026264284
000100 47 b2 cc 3e bd 4e 47 bd 2f 05 4f be 6e ff b2 3d
       0.39979765 -0.048659075 -0.20216821 0.087401256
000110 26 0a e7 bd 36 21 48 bc 39 a6 39 3e 9a f8 32 3d
       -0.112812325 -0.012214949 0.18129815 0.043694116
000120 7c 64 2a 3e 42 57 e6 3d 82 0e 57 3e c6 35 96 be
       0.16639894 0.11247112 0.21001628 -0.293379
000130 28 fb 08 3e 34 0e 49 be 9e 12 13 3e 7b 73 11 3c
       0.13377059 -0.19634324 0.1436257 0.00887763
000140 ae 11 83 be 43 ff 2c 3e 89 3c e9 bd 23 bc 21 3e
       -0.25599426 0.1689425 -0.11388499 0.15794425
000150 be ed 89 3c 73 4d 81 be ae a8 14 3e c0 8d 14 be
       0.016836997 -0.25254402 0.14517471 -0.14507198
000160 13 6e 97 3e 87 87 36 3e ac 7f 4f 3e 7f 24 c4 bc
       0.29576167 0.17825137 0.20263547 -0.023943184
000170 02 2e 87 be a7 15 cf 3e 20 43 3e be e3 66 d7 ba
       -0.2640229 0.40446207 -0.18580294 -0.0016433861
000180 fa 84 ba 3e a5 eb 68 3e 10 6c 65 bd 0e 42 da bd
       0.36429578 0.22746141 -0.05601126 -0.1065713
000190 48 fa 36 3e 19 95 23 3f 10 f6 f7 bd 1d 01 85 be
       0.17868912 0.6389938 -0.121074796 -0.25977412
0001a0 c1 46 a1 3e 43 39 93 bd 90 36 5e 3e a5 c1 40 be
       0.31499293 -0.07188656 0.21700501 -0.1882387
0001b0 5b a6 40 3e d5 a9 1d be 4e f8 48 be d0 cd 97 3d
       0.1881346 -0.15396817 -0.1962597 0.074123025
0001c0 f5 a9 5b 3e e2 ad e7 bd 37 2b 50 be 5c 2e 9f 39
       0.21451552 -0.113124624 -0.20328985 0.00030361384
0001d0 92 a0 99 be e8 d3 90 bc 5e 4f 8b 3e 9e cb 93 be
       -0.30005318 -0.01767917 0.2720899 -0.28866285
0001e0 3b b1 61 3d 05 1e 38 be 88 a6 c3 bc d5 31 3e 3c
       0.05510066 -0.17980202 -0.02388312 0.011608561
0001f0 84 f4 a6 3b d2 f6 6d 3c 18 cd fa 3a 73 1e ac be
       0.0050950665 0.014524179 0.0019134609 -0.3361698
000200 3b c1 14 3e c3 96 80 bd f5 51 8e 3d 9e fe 26 be
       0.14526837 -0.062787555 0.06949226 -0.16308066
000210 19 d0 b5 3e f0 4f fa bd c6 6c 68 be 94 90 8f be
       0.35510328 -0.12222278 -0.22697744 -0.28039992
000220 6c 4e 0e be e0 20 1c 3e 63 bf 71 bc b6 f1 40 3e
       -0.13897103 0.15246916 -0.014755103 0.18842205
000230 40 f1 f3 be e0 e4 95 bd 72 34 6a 3e 23 03 b8 bd
       -0.47644997 -0.07319045 0.22871569 -0.08984973
000240 c8 77 73 be e7 45 2a bd 5e 9a 29 be 60 2d 74 bc
       -0.23776162 -0.04157057 -0.16562793 -0.014903396
000250 39 fb a0 bc 6e 29 98 be 95 35 a5 3e c8 7d 8d 3c
       -0.019651042 -0.29719108 0.32267442 0.017271891
000260 af 2a 35 bd e8 82 5d bc 2a 63 e3 bc f7 e1 e3 3e
       -0.04423016 -0.01351998 -0.027757246 0.44508335
000270 10 a7 67 be 18 3e 87 3e 04 48 a8 3d aa 94 50 be
       -0.22622323 0.2641456 0.08216861 -0.20369211
000280 bd 29 0a 3d 6f b6 1a be 5d e8 4d be cb 3e 45 bd
       0.03373121 -0.15108655 -0.20108171 -0.048155587
000290 dc 8a 42 bc 73 5f 92 bd 6d 38 a5 be 95 85 c1 3d
       -0.011873927 -0.07147112 -0.32269612 0.09449307
0002a0 0e 50 b4 be 68 17 b5 3e 7b 32 41 be 0c 49 b8 bc
       -0.35217327 0.3536942 -0.18866913 -0.022495769
0002b0 05 f1 c2 be 96 3c ff bd a2 3e 0a bf 45 71 76 3e
       -0.38074508 -0.12462728 -0.5400182 0.24066646
0002c0 78 f1 1d 3e a8 b9 af 3e d3 99 c1 3d 87 a6 2a bf
       0.15424144 0.34321332 0.09453168 -0.6666035
0002d0 74 63 e7 bd c5 dc 56 3e dc 05 66 3e ea a3 2d 3e
       -0.11298266 0.20982654 0.22463173 0.1695706
0002e0 56 7b ae 3e 81 56 0a 3e e6 4f a2 3e e4 66 82 3e
       0.34078473 0.13509561 0.31701583 0.25469124
0002f0 04 cb fd bd f7 9c 8e bd 93 ea fb bd 82 c5 bf 3e
       -0.12392238 -0.069635324 -0.12300601 0.37455374
000300 99 49 9a 3e 29 c1 4a bd 4c 9e d8 be 3f c4 ee bd
       0.30134276 -0.049500618 -0.4230827 -0.11658525
000310 ea e2 5e 3c 54 7c b7 3d fc f2 c0 bc de 4d d4 3c
       0.013603905 0.089592606 -0.023553364 0.025916036
000320 85 ea 8b 3e 97 85 bd 3b 4a 30 6b bd c5 16 fc bc
       0.27327362 0.0057837474 -0.0574191 -0.030772576
000330 86 78 82 bd 6c 0f 2a 3f 36 59 33 be 10 43 83 3e
       -0.06370644 0.6642978 -0.175145 0.25637102
000340 c3 be 49 be d9 5b 91 3e 16 73 a4 3e 8d 90 c6 3e
       -0.19701676 0.28390387 0.32119054 0.38782158
000350 db 62 9e 3e 23 ba e9 3e 67 b5 90 bd 68 2c 9a 3d
       0.30934796 0.45649824 -0.0706585 0.07528001
000360 ae 03 46 3d 69 e3 d5 be 48 7c e6 3e 8c ea 3d be
       0.048343353 -0.41775063 0.45016694 -0.18546504
000370 1c 11 29 be 51 92 1b be 3e 5a 89 3e cf 55 1f be
       -0.16510433 -0.15192534 0.26826662 -0.15560077
000380 94 17 50 be 42 5c ea 3d 4f b6 d2 3e cf 4a b1 bc
       -0.20321494 0.11443378 0.41154715 -0.021642117
000390 49 5c 83 be ae 42 8b be e3 b4 32 be f0 50 02 bd
       -0.25656345 -0.2719931 -0.17451815 -0.03181547
0003a0 c5 e7 9a bd 0c 8c 62 be 70 be 90 bd 11 c0 b8 3d
       -0.07563738 -0.22123736 -0.07067573 0.09021009
0003b0 3c f6 46 be db 1a 1a 3e eb 67 cf bd ba b9 c1 bd
       -0.19429868 0.15049307 -0.10127243 -0.09459253
0003c0 6b 96 86 3e d5 8e d5 3d a4 22 58 3e b0 42 4e bd
       0.26286635 0.10427634 0.21106964 -0.050356567
0003d0 4a 44 4a 3e 4f 7d 4e 3e 19 95 95 be 03 7f 58 3e
       0.19752613 0.20164989 -0.29215315 0.21142201
0003e0 b7 3b 4d 3e a5 a4 27 3e 94 aa b9 3e a6 5f 94 be
       0.2004231 0.163714 0.36262953 -0.28979224
0003f0 ee 17 a4 3d 95 17 aa bc c3 41 92 be a5 81 49 3e
       0.08012377 -0.020763198 -0.28565797 0.19678362

bias f4 [128]
000000 bf 3c ca 3d d3 1e 56 be f3 0c 51 3d bb a4 f6 bd
       0.09874868 -0.20910196 0.05103774 -0.120431386
000010 7a bf ab 3d 79 b1 29 3e 39 7f 8a bd b8 21 2f be
       0.08386131 0.16571607 -0.06762547 -0.17102706
000020 21 17 2d 3e 42 5f 10 3d 2a cc fb 3d e3 e9 79 3e
       0.16903354 0.035247095 0.122948006 0.24405627
000030 36 ef 7d 3e 62 d3 48 be b5 8c 43 3e 00 de 9c 3e
       0.24798283 -0.19611886 0.19096644 0.30638123
000040 e7 69 5e 3d 9d e2 49 3e 0c 9a a6 bd 2e 03 f0 3d
       0.054300215 0.19715352 -0.08134851 0.117193565
000050 54 77 7c be 59 a8 e9 3b 0b b5 8e bd 79 6c 00 3e
       -0.24654895 0.0071306643 -0.06968125 0.12541379
000060 68 84 9e 3d 7b 4c 91 3e 3b 78 74 ba f1 9e cc 3d
       0.07740098 0.28378662 -0.0009325777 0.09991253
000070 a4 83 2b be e8 b4 7d be 5e 46 8f bd 9e 0a 5a be
       -0.16749436 -0.24776042 -0.06995843 -0.21293113
000080 fc c1 3c be e9 46 8b be 0a 56 13 bd 14 71 37 be
       -0.18433374 -0.27202538 -0.035970725 -0.1791423
000090 7a 08 1f 3e 50 26 83 bd e0 e2 98 3e fd ef c6 3d
       0.15530577 -0.06403792 0.29860592 0.09713743
0000a0 52 48 1f bc 11 0f 7f bd 29 2d ed bd f9 39 a8 bd
       -0.009721832 -0.062270228 -0.11580879 -0.082141824
0000b0 15 bf 64 be fe 1a ce 3b 00 e5 fc 3d 27 d3 40 3d
       -0.22338517 0.006289839 0.12348366 0.04707637
0000c0 67 48 0a bd d0 b0 37 bc ba f2 b6 3d 3b 4e 51 3d
       -0.033760455 -0.011211589 0.08933015 0.051099997
0000d0 74 80 30 be 27 e3 45 3e cf c2 50 3e 96 70 a2 3d
       -0.17236501 0.19324933 0.20386814 0.0793163
0000e0 ef 27 11 bb 1c e6 0a be 6a 6e 9e 3d 03 8f 97 be
       -0.0022149046 -0.13564342 0.077359036 -0.29601297
0000f0 49 dc 9a 3e 2a fa 0f 3e f6 a4 5f bd 4c 69 59 3e
       0.3024619 0.14060274 -0.05460068 0.21231574
000100 4a ce 12 3e 96 ef ed 3d 1f 00 73 3e a1 a2 5f bc
       0.14336506 0.11617963 0.23730515 -0.013649614
000110 27 b6 a7 bd 7c 72 11 be 5f ea 4e be a6 28 bf bb
       -0.0818904 -0.14203829 -0.20206593 -0.005833703
000120 7a d8 70 bb 20 51 a5 3e 2b d9 2b 3e ab 46 23 3e
       -0.0036750124 0.32288456 0.16782062 0.15944926
000130 47 51 f4 3a 85 36 91 bd 0b 9a 27 3e 52 3f 3e 3e
       0.0018639945 -0.07090477 0.16367356 0.18578842
000140 7a 50 03 be cb ec 0f be e5 ce 4e be c7 26 53 be
       -0.12823668 -0.14055173 -0.20196112 -0.20620261
000150 20 c7 a5 be d8 39 ca 3d 21 de b8 3c d3 49 3e 3e
       -0.32378483 0.09874314 0.022566857 0.18582849
000160 31 13 b0 bd ba eb 89 bc a2 01 6c 3e f7 c1 74 3e
       -0.085974105 -0.016836036 0.23047498 0.23902117
000170 2d cf 2d 3e d6 30 62 3e e5 e4 c9 bb 6b 17 20 3e
       0.16973563 0.22088942 -0.0061613196 0.15633933
000180 ec 8a 8a bc 7f 24 3c 3a 52 0f b3 3d 2f 71 27 3b
       -0.016911946 0.0007177069 0.087431565 0.002554964
000190 06 6c 81 bd 8f 5a 6e 3e cb 46 dc 3d e3 9d 70 3e
       -0.06319432 0.23276733 0.1075569 0.23497729
0001a0 5f b1 46 bd 95 80 ef 3d fc 0b 06 3e 16 73 0c 3e
       -0.048508998 0.11694447 0.13090509 0.13715777
0001b0 6c 28 24 be dd 93 17 be ac 30 a8 be 43 d3 37 be
       -0.16031045 -0.14802499 -0.32849634 -0.17951684
0001c0 d7 44 29 be 3a 3f 9b 3e 5e 07 ac bb f6 8b 38 be
       -0.16530167 0.30321676 -0.0052499017 -0.18022141
0001d0 3f 96 03 3d 1e 6b 84 3e ba 1e 97 3d 96 a8 90 3e
       0.032125708 0.25862974 0.073789075 0.2825362
0001e0 ec f7 19 3e ba c3 9e 3c 5c 40 85 be 0d a3 00 be
       0.15035981 0.01938044 -0.26025665 -0.12562199
0001f0 f1 18 13 3e 0e 88 87 be bc 04 8a 3c f5 ba b7 be
       0.14364983 -0.2647099 0.01684796 -0.35884824

weight f4 [256, 128]
000000 46 4b 8b bd 57 85 7d bd 7f 8b 53 bd 9e 60 9e 3c
       -0.06801467 -0.06189474 -0.051646706 0.01933318
000010 10 55 f9 bb 3e b8 ca bd f3 4e 5e bd 6d d6 0d 3c
       -0.007609017 -0.09898423 -0.05427451 0.00865708
000020 50 0e 58 bd 37 a1 bd ba 54 ca 98 bb d2 62 88 3b
       -0.052748024 -0.0014467601 -0.0046627913 0.004162171
000030 49 75 9b bd cd 7b 53 3d 90 eb b8 bd fe 6b ca bd
       -0.0759073 0.051631738 -0.09029305 -0.09883879
000040 7c cc b5 3d e6 9d fe bd 0c ca 23 3c 11 3b 8f bc
       0.08876893 -0.124324605 0.009996902 -0.01748422
000050 0f e1 2c 3d 62 85 af bd 2f ee c0 bd 99 a3 3c 3d
       0.04220682 -0.08570363 -0.0942043 0.046054456
000060 0d 71 36 3b cf d6 ce bd c9 6c b1 bd 46 66 3e 3d
       0.002783838 -0.10099565 -0.08663327 0.046484254
000070 9e ed bd bd a5 b2 89 bd 74 7c a7 bd ea fb 1a bd
       -0.092738375 -0.06723527 -0.081780344 -0.0378379
000080 3e a2 b4 3d 19 76 b5 bd 42 30 24 be 8c fd 4f bc
       0.08820008 -0.08860416 -0.16034034 -0.012694728
000090 9a 21 a5 3c 87 f4 e8 3c 2b fe 2e bd 71 98 9b bd
       0.020157624 0.028436912 -0.042722862 -0.07597435
0000a0 31 25 b6 bc 08 a4 93 bc ce 42 1e 3e 36 91 2c bc
       -0.022234531 -0.018022552 0.15455171 -0.010532668
0000b0 71 aa 9c bd 9c 5b 72 bc d3 6f 40 bd 22 95 91 bb
       -0.076496966 -0.014792349 -0.046981644 -0.004442827
0000c0 a2 39 d7 3d 81 fc 99 bd e5 27 28 3d 76 81 53 bd
       0.105090395 -0.075188644 0.04105367 -0.051637135
0000d0 94 af 0e 3d 20 4f 2e 3d c0 b6 b2 bd e7 5a 6a 3d
       0.034835413 0.04255593 -0.08726263 0.057215597
0000e0 18 a0 2e 3c 9b 4b e6 3c 7d e7 b3 bc 67 a0 9d 3c
       0.0106582865 0.028112223 -0.021960968 0.019241525
0000f0 1c d6 c8 bd be 17 54 bd 12 fc e2 3c c0 bb ee bd
       -0.09806463 -0.051780455 0.027708087 -0.11656904
000100 ef 00 5b 3d 7f 34 18 bb f6 9e c3 bc b0 ba 9a bd
       0.053467687 -0.002322465 -0.02387951 -0.07555139
000110 4e b8 11 bc 23 8f 1f 3e 87 bd bc bc 5e 1b 5c bd
       -0.008894039 0.15581946 -0.023039592 -0.053737037
000120 89 2e 53 3c 80 c5 01 be c6 b0 77 3d a5 64 3a 3d
       0.012889513 -0.12672997 0.06047132 0.04550614
000130 f5 7a 3d bd 1a 23 5a 3d ed e2 c0 bd 47 3e 72 bd
       -0.04625984 0.05325613 -0.09418283 -0.059141424
000140 15 cc 7f 3d 17 2a 2a 3d 8b c2 d9 3c 30 e4 5f 3d
       0.062450487 0.041544046 0.026582023 0.054660976
000150 6a 1d ec 3d 6f d7 5a 3d 5f c5 70 3d 17 ce 11 3d
       0.11529048 0.05342811 0.058781978 0.035596933
000160 af 5a d0 bc b4 77 86 bb 1d 14 10 be db c8 6a bd
       -0.025433866 -0.004103625 -0.14070173 -0.057320457
000170 fd b7 d6 bc 53 8f 81 3d 33 f6 98 3d 67 cc c4 bd
       -0.02621078 0.06326165 0.07468834 -0.09609299
000180 56 4e 8f 3d 9c 58 9b 3d 0b fd f8 3c 17 52 9c bd
       0.06997363 0.0758526 0.030394098 -0.07632845
000190 3c 52 b0 3c ba 5f ed 3b 65 83 49 3d 24 fa 6b bd
       0.021523587 0.0072440775 0.049197573 -0.0576116
0001a0 b8 17 d1 3d 97 95 44 bd cf 1c 61 3d f9 22 d7 3c
       0.10209602 -0.047994222 0.054959115 0.026261793
0001b0 bb c9 9f 3a 71 90 84 3d 52 e4 f7 bc ce b2 63 3d
       0.0012190858 0.064728625 -0.030260239 0.055590443
0001c0 df e1 c6 bc ef ef 33 be 37 25 87 bd 9e 19 97 3c
       -0.024277626 -0.17571996 -0.06598895 0.018444832
0001d0 7b ee 93 3c 5f 22 34 3d 9f b0 24 bd b8 17 44 be
       0.018058052 0.04397809 -0.0402075 -0.19149673
0001e0 a9 7c 15 3d 53 ad a8 bc 88 f3 5e bc 13 f0 08 3c
       0.03649584 -0.02059046 -0.013607867 0.008358019
0001f0 09 4a 8f bd 29 34 1b bd 9d ed e8 bc 4d 59 3d 3d
       -0.06996543 -0.03789154 -0.028433615 0.046227742
000200 55 92 63 3c 65 8a 30 bc e4 e6 b4 bd 98 23 97 bd
       0.013889869 -0.010775183 -0.088331014 -0.07379836
000210 f2 d8 40 3e ad 9e 97 3c 77 2e 60 3c ce 41 20 bd
       0.18832758 0.01850828 0.013682953 -0.039125256
000220 70 35 a2 3d 83 af d4 bd 4b 6b 5f 3d 72 5b 25 bd
       0.07920349 -0.10385039 0.054545682 -0.040370412
000230 7d 29 85 bd 83 19 2d 3e 66 cf db bd 6d 06 16 be
       -0.06502054 0.16904263 -0.107329175 -0.14650889
000240 bf 06 f5 bd 4a aa 67 bc 62 5c 07 3d 43 d1 45 3c
       -0.11964177 -0.014139721 0.033047087 0.012073818
000250 2b 4e cf bd b8 18 3b bd 59 f8 2b bc b6 d7 05 bd
       -0.10122331 -0.04567787 -0.010496222 -0.03267642
000260 bc 14 6e 3b ff 09 84 bc dc 5b 74 bd 7e e9 84 bd
       0.0036328277 -0.016118048 -0.059657916 -0.064898476
000270 93 1a 92 3d ef b0 e1 bd 3c 42 49 3e d4 ae 48 3d
       0.07133975 -0.110200755 0.19654173 0.048994854
000280 2f fc ab 3d e9 59 76 3d 2e a7 ca 3d cb 0f ad 3d
       0.083977096 0.06014434 0.09895168 0.08450278
000290 2d 56 32 3d 62 a6 96 3c 85 9c 54 3c 9f b7 1d be
       0.043539215 0.018389884 0.01297677 -0.15402077
0002a0 cf 4e e3 bd ef c9 f5 bd 51 35 49 bd 94 c7 38 be
       -0.11099016 -0.120014064 -0.049123112 -0.18044883
0002b0 44 68 05 bd 64 db 83 bd e5 ac 9c bd 4f 2b 0c bd
       -0.03257014 -0.0643833 -0.076501645 -0.03422099
0002c0 a0 65 02 3e 65 7a bc 3c c5 3b bb bc 64 88 cb bd
       0.1273408 0.023007581 -0.022855649 -0.09938124
0002d0 4b 8b 15 be a1 33 39 bd 95 98 b5 bd 2c a3 94 39
       -0.14603917 -0.045215253 -0.08866993 0.00028350332
0002e0 84 cd f4 bc 3b ff 88 bc 3b 54 c7 3d 2f 9b 20 bd
       -0.029883154 -0.016723266 0.097328626 -0.039210495
0002f0 5f e7 11 3d ac fb 1b bd d7 dd 94 3d 0f 6d 19 3d
       0.035621043 -0.03808181 0.07268875 0.037457522
000300 b3 a3 7b bb 40 d9 9c bd 93 21 a4 3d 81 94 21 3d
       -0.0038397133 -0.07658625 0.08014216 0.039448265
000310 8d 64 76 3d c1 02 89 3c 14 4b 6e bc 40 16 9c 3d
       0.060154486 0.016724946 -0.014544267 0.07621431
000320 5e af 7d 3d bf 11 16 be ad a6 05 be 69 15 c5 bc
       0.06193482 -0.14655207 -0.13051863 -0.02405806
000330 27 45 14 bc 1f 51 d1 3d 84 bc 9c bd 2c 16 9f 3b
       -0.00904969 0.10220551 -0.07653144 0.004854938
000340 b8 65 7a bc b6 e7 c9 bd cf d0 77 3d 69 c1 9b 3d
       -0.015283041 -0.098586485 0.06050187 0.076052494
000350 24 a9 47 3d 0f 39 57 3c bc c7 0e 3e d2 c5 92 3d
       0.04874529 0.013136162 0.1394338 0.071666375
000360 7a f2 10 bc ae 32 bf bd de 54 f9 bd 2f 9e 93 bc
       -0.008846873 -0.09335838 -0.1217439 -0.018019764
000370 e5 5f 1c bd dc 59 ec bd 5f 50 33 bd 4e 33 0e 3c
       -0.03817739 -0.11540577 -0.04377782 0.008679224
000380 23 b1 10 be b6 fc 49 3d 5a ad a4 bd 2c 9a 82 bb
       -0.14130072 0.04931327 -0.08040877 -0.003985664
000390 96 98 dd bc 5b 8a 3c 3d 02 30 a7 bc 62 e3 94 bc
       -0.027050298 0.046030384 -0.020408634 -0.01817483
0003a0 90 3b 04 3d c0 2f 26 bd c3 e9 ad bd 4a 1b 0e bd
       0.032283366 -0.04057288 -0.08491852 -0.034693994
0003b0 1e 5d 81 3d 1d dc c7 bd e2 d8 94 3d 24 b2 98 bd
       0.06316589 -0.0975878 0.072679296 -0.07455853
0003c0 ce 60 97 3c ea 68 24 3b 16 f9 92 bd 47 96 e5 bc
       0.018478777 0.0025086948 -0.071764156 -0.02802576
0003d0 af 47 bd bd 80 eb 84 bd 1a 25 b0 3d 57 52 1c be
       -0.09242188 -0.064902306 0.086008266 -0.15265785
0003e0 64 da 8b bd 89 1b 1c 3d af 8e fa 3d 26 b6 03 bd
       -0.06828764 0.038112197 0.12234246 -0.032156132
0003f0 bc 62 61 bc 7c 26 a7 bc ec f7 c9 3d d5 41 21 3d
       -0.01375645 -0.020404093 0.098617405 0.039369423

bias f4 [256]
000000 43 96 91 bd 71 c1 bd bd 17 c3 1d 3d e3 11 e5 bc
       -0.07108738 -0.09265412 0.03851613 -0.02796263
000010 13 9e cb bd 41 63 a2 bd 39 cd 23 bc 41 c5 a0 bd
       -0.0994226 -0.079290874 -0.009997659 -0.07850123
000020 22 10 e3 bd a4 eb a2 ba 48 30 72 3d 36 51 20 3c
       -0.110870615 -0.0012429846 0.059128076 0.009784987
000030 c2 0e 5e bd c6 dd 9e 3d f3 1d 48 bd 51 94 e9 bc
       -0.054213293 0.07757144 -0.048856687 -0.028513106
000040 2e 8d c0 bd a9 9a 70 bd ab 03 c2 3b e1 66 2f bc
       -0.09401928 -0.058741245 0.0059208474 -0.010705681
000050 a1 eb 52 bc b3 3e ce 3c 1d 18 c3 bd dd ec ce 3d
       -0.012873561 0.025176382 -0.095260836 0.10103772
000060 13 40 e4 bd d4 58 dc 3d 66 21 03 3d 2f 79 41 bd
       -0.11145034 0.1075913 0.032014273 -0.04723471
000070 39 29 9e 3d f9 3a 55 bd 6d 80 0c 3b fe 19 5e 3d
       0.07722706 -0.052058194 0.0021438852 0.054224007
000080 68 71 bb 3c 63 47 99 3b 82 d4 92 3c bd 93 95 bb
       0.022881225 0.0046776994 0.017923597 -0.004564731
000090 0b 73 cd 3c b8 84 3d bd eb 7d 57 3d 4a 85 c2 bd
       0.02507927 -0.04626915 0.05261032 -0.09498079
0000a0 43 48 90 3c 10 37 31 3d 72 93 76 bd d6 41 b1 3d
       0.017612582 0.043265402 -0.06019921 0.08655135
0000b0 a9 80 c2 bc cf a5 47 3c dc 72 14 bd f0 4c 92 bd
       -0.02374299 0.012185528 -0.03624235 -0.07143581
0000c0 83 33 e0 3d 82 74 33 bd 28 e9 8a bd bf cd e2 3d
       0.10947325 -0.043812282 -0.06782752 0.11074399
0000d0 87 4a c6 3c b2 e9 bf 3d 43 e3 0e 3d a6 0f 1c bd
       0.02420546 0.09370746 0.034884702 -0.03810086
0000e0 2e 74 e0 3c e0 dc a7 3d 99 c7 25 bd 5f 5a 12 3d
       0.027399149 0.081964254 -0.040473554 0.035730716
0000f0 cc 8d a0 3d 26 6d 9d bd fe 08 ad bc c2 a7 6b bd
       0.078395456 -0.07686834 -0.021122452 -0.057533033
000100 57 18 01 3d 98 f7 1a 3c ea 1a e3 bc 19 e2 03 bd
       0.031517353 0.009458445 -0.027722795 -0.032198045
000110 ce b9 83 bd fd ed 07 bd 67 47 cb bd 62 1a fb 3b
       -0.06431924 -0.033185948 -0.09925728 0.007663057
000120 c8 39 f8 bc 76 88 a8 3b 1c f3 cc 3c c3 6b ed 3c
       -0.03030099 0.0051432205 0.025018267 0.028982049
000130 7f 82 76 bd 48 34 9f bd 94 64 b1 3c a5 2a 57 bc
       -0.060183045 -0.07773644 0.021654405 -0.013132726
000140 9e 0d 7b bd 0e c0 35 bd 87 47 64 3d 54 58 0b 3d
       -0.061292283 -0.04437261 0.055732276 0.034019783
000150 4d c1 af 3c 19 bb 06 3d ca 21 40 b9 2f e6 e8 bd
       0.021454478 0.032893274 -0.00018323134 -0.11372029
000160 e7 51 0a bd 73 87 1f bc 46 f8 f0 3b 68 1b 00 bc
       -0.033769514 -0.009736883 0.0073538153 -0.007819034
000170 6c a0 c5 bd 94 59 3f 3d 31 fa 44 3d 98 06 7a bd
       -0.09649739 0.046716288 0.048090164 -0.061041445
000180 cc 4d a4 bd db 16 e3 3c 47 9c d3 3c 68 87 9c bd
       -0.08022651 0.02772086 0.025831355 -0.07643014
000190 21 22 0b 3d 2e 0a 7f bd 22 74 29 3d 81 73 b3 bc
       0.033968095 -0.062265567 0.04137052 -0.021905662
0001a0 29 4d 6c 3d 4f f3 27 3d f6 f9 64 bd b5 36 79 bc
       0.057690773 0.04100352 -0.055902444 -0.015210797
0001b0 1f 71 7d 3d e6 ef a3 3c e1 b3 64 3d 8f 31 f2 3c
       0.06187546 0.020011853 0.05583561 0.029564647
0001c0 e8 5b 6b bd 0a c4 f3 bd 76 8c 60 3d 2f e0 9d 3d
       -0.057460696 -0.11902626 0.054821454 0.07708775
0001d0 ad 8f d0 3d b1 3d 9f bd 42 83 b3 3d 2a a9 ac bc
       0.10183654 -0.077754386 0.0876527 -0.021076757
0001e0 d8 26 95 bd 73 74 97 bd 2f 00 0b bc 57 6c b5 3d
       -0.072827995 -0.07395258 -0.0084839305 0.08858555
0001f0 45 83 c8 bd 25 1f 18 bc e1 f3 c7 bd 00 e2 1e 3d
       -0.09790663 -0.009284769 -0.09763313 0.03878975
000200 bd 74 87 bd ce 60 f2 bd f9 9a 55 bd 47 d2 03 3d
       -0.06614063 -0.1183487 -0.052149747 0.032182958
000210 65 d3 4f 3d f0 66 90 3d 4b 09 89 3d 99 7d ab 3d
       0.05073871 0.07050884 0.066912256 0.08373565
000220 46 b8 b3 bc 0d e4 f2 3d b9 d0 e2 3d 77 37 1b bd
       -0.021938454 0.118599035 0.11074967 -0.037894692
000230 08 5a b9 3a 4e 75 42 3d 8a 05 20 3c 7e 9c e6 3b
       0.0014141211 0.04747515 0.009766946 0.0070376983
000240 49 8e 95 bd bb 86 13 3d d0 aa 3f bc 66 90 d3 bd
       -0.07302529 0.03601716 -0.01169844 -0.10330276
000250 79 13 d7 3c c6 39 85 3d 5b a7 9a ba 8c 0d 97 bd
       0.026254402 0.0650516 -0.0011799143 -0.07375631
000260 fe bc 85 bc a8 4c ad bc a6 c8 c3 bd 2b 82 18 3d
       -0.01632547 -0.021154717 -0.09559755 0.037233513
000270 f4 bd 65 bc a6 61 68 3a 1f 9f 06 3d d8 37 c9 bd
       -0.014022339 0.00088646484 0.032866593 -0.098251045
000280 82 dc e1 bb a1 6a 63 bc a8 b8 d5 bc 51 ff d1 bb
       -0.0068927417 -0.013880403 -0.026089028 -0.00640861
000290 da 0e 1d 3d 1c d5 5c 3d 4e e5 c5 3d b9 c4 c7 bd
       0.03834424 0.053914174 0.09662877 -0.09754319
0002a0 b5 4c 03 3e 9f 28 2b 3d ea 7e ac bd 9f d6 0c bd
       0.1282223 0.041786786 -0.084226444 -0.034384366
0002b0 fc 09 7d 3d 43 ce 83 3d 76 9b 16 bd 1f 2d d1 bd
       0.0617771 0.06435826 -0.036769353 -0.10213684
0002c0 82 5c 86 bd 51 7b 03 3e d0 d1 2a bc 32 56 f0 3b
       -0.06560613 0.1284001 -0.010426 0.007334494
0002d0 d7 eb 87 bc 3b 5d d9 bc 85 71 2d bd 77 d0 c5 3d
       -0.01659195 -0.026533714 -0.04234459 0.09658902
0002e0 83 9a 82 bd f8 ca a6 3d a3 d8 85 bc cf 2d 1b 3d
       -0.06377127 0.08144182 -0.016338652 0.037885483
0002f0 ff 23 9b bc b9 47 9f 3d fc 11 e6 bd 3c 8a ae 3c
       -0.018938063 0.07777352 -0.11233899 0.02130615
000300 61 eb 8b bd a5 3a 7e bd e3 61 96 bd aa 39 1c 3d
       -0.06832004 -0.062067647 -0.07342889 0.03814093
000310 d3 af e0 bb 47 16 7e bd f3 e1 66 3c 47 cf e2 bd
       -0.0068568974 -0.062032964 0.014091956 -0.11074691
000320 60 93 35 bd 72 8a 5a 3d ea 5f e0 bd 1b 71 11 3d
       -0.04433 0.053354688 -0.10955794 0.035508256
000330 d2 f1 e1 bd dc 4b 0f 3d 77 ae a0 bc 2a b4 b4 3c
       -0.11032452 0.034984455 -0.019614441 0.022058565
000340 14 45 6e bd dc 73 d7 3d 49 fe 82 bd 08 22 ac 3d
       -0.058171347 0.10520145 -0.06396157 0.084049284
000350 34 72 31 3d f2 64 24 bc 19 57 cb bd 00 96 3c bd
       0.043321803 -0.010033833 -0.09928722 -0.04604149
000360 9e 8e 06 bd c9 1a 27 3d b3 e6 e9 bd 10 cd 59 bd
       -0.032850854 0.04079703 -0.114209555 -0.05317408
000370 fa 9b f7 ba 97 58 02 bd 0d 2c 12 3d 0d 60 a7 3d
       -0.0018891089 -0.031822767 0.03568654 0.08172617
000380 3e 90 4b 3d 3d 8d e6 3d 48 72 49 3d 5c 95 36 3d
       0.049698107 0.11257408 0.049181253 0.044576034
000390 a7 f5 b7 3d dd a6 4d bd 04 47 9f 3d c7 42 91 3a
       0.08982401 -0.05020796 0.07777217 0.0011082523
0003a0 8a be 14 3e 92 80 99 3c 5a 7c b4 3d e2 ca e7 bc
       0.1452581 0.018738065 0.08812781 -0.028294984
0003b0 e4 cc 45 bd fb 38 7e 3d 06 a3 97 3c d0 69 11 bc
       -0.048291102 0.06206606 0.018510353 -0.008875325
0003c0 25 50 77 3d bf 1d af 3d b0 18 95 bd ae 56 93 3d
       0.060379166 0.085505955 -0.072800994 0.07194267
0003d0 b3 61 e2 bc 4c 87 cc 3d d0 2b 63 3d c2 ee 53 bc
       -0.027634477 0.09986743 0.055461705 -0.012935342
0003e0 e6 84 f8 3c 4e c9 70 bc 76 6b 80 bd 4e 70 b6 bc
       0.030336808 -0.014696432 -0.062704965 -0.022270348
0003f0 45 18 84 3d 1a 5c 6d bc 12 de e4 bd 61 2e f1 3c
       0.064499415 -0.014487291 -0.11175169 0.02944106

weight f4 [512, 256]
000000 38 e7 a4 3d 0d 0c 50 3d 67 16 5e bc 00 47 eb bc
       0.08051914 0.050792743 -0.013555146 -0.028720379
000010 3d 60 9e bc 66 2e 09 3e 0e 39 c7 bd d6 93 0f bb
       -0.019333 0.13396606 -0.09727679 -0.0021908185
000020 1c 33 b4 bc 2f a5 00 bd 56 19 89 3d c9 c7 25 3c
       -0.021997027 -0.03140753 0.066942856 0.010118433
000030 c7 1e aa 3d 16 7c 77 bc 9a 26 0a 3e 10 ca 8e 3d
       0.083066516 -0.015105268 0.13491288 0.06972134
000040 cf eb 77 bc 84 c4 9d bc 0e fc 98 3d 28 ec 3a bd
       -0.015131905 -0.019258745 0.074699506 -0.045635372
000050 ca 43 2a bd 16 cc 7c 3c e2 d8 bf 3d 91 c4 31 3c
       -0.041568555 0.015429517 0.09367539 0.010850088
000060 5f ae 4f 3d 6b c1 34 bd d3 69 a9 3b a6 76 e4 bd
       0.050703403 -0.04412977 0.005170086 -0.11155443
000070 0a d9 93 3c b1 50 01 be ef 03 13 3b 3a 5b 6d bb
       0.018047828 -0.12628438 0.0022432765 -0.0036217705
000080 84 82 12 be 1c 30 92 bd 3b 4b 35 3d 9f 47 95 bc
       -0.143076 -0.071380824 0.0442612 -0.018222628
000090 99 73 19 3d 8b 69 94 bd 54 b9 17 3c d8 7e 46 3d
       0.03746376 -0.07246693 0.009260494 0.04846081
0000a0 84 b5 8e 3c 7d f2 e7 3d 0c fe 3f 3d 97 e1 63 3d
       0.017420538 0.11325548 0.046873137 0.05563506
0000b0 81 b5 39 bd b8 0f 57 bd 48 83 64 bd f6 a9 8f bd
       -0.04533911 -0.052505225 -0.055789262 -0.07014839
0000c0 55 8c b5 bd 38 85 03 3d 10 c3 7f bc 9d e8 d4 bc
       -0.08864657 0.03210947 -0.015610471 -0.025989825
0000d0 01 67 fa bd da 2a cc ba bc 77 1d bd 43 71 8e 3c
       -0.12226678 -0.0015576736 -0.038444266 0.017387992
0000e0 9b 04 6b 3d d9 3b 4d bd c0 80 4a 3d c5 d9 0e bd
       0.05737744 -0.050105903 0.04943919 -0.03487565
0000f0 8e d9 d4 bd ac 04 5d bd 62 2c 26 3d 08 ea b2 3d
       -0.10393058 -0.053959534 0.04056967 0.08736044
000100 0f 1c 73 bc f4 6c db bc 89 57 cb 3d 81 e0 3a 3d
       -0.014838233 -0.026785351 0.099288054 0.04562426
000110 a6 0f 7a bc 96 f2 38 bd 93 ff 47 3d a7 fa 05 3c
       -0.01526252 -0.045153223 0.04882772 0.008177436
000120 93 aa aa 3b 8a 50 6a bd e5 63 9c bc a8 86 87 bd
       0.0052083223 -0.057205714 -0.019090602 -0.066174805
000130 1d ba b9 3d c4 90 5f bc 0e 02 51 bd 45 f3 0c bd
       0.090687014 -0.013645355 -0.05102735 -0.034411687
000140 a3 e4 68 3d 32 3a 3c 3c a8 0a 0d be f4 36 bd bd
       0.05685867 0.011488484 -0.13773596 -0.09238997
000150 91 5a 3e 3d 44 7c e8 bd 76 b9 23 3d 2d 88 53 bd
       0.04647309 -0.11351827 0.03997179 -0.05164354
000160 cd 86 bc 3c b3 ed de bc 0a 17 bb bd 38 ec f4 3d
       0.023013497 -0.027212953 -0.09135254 0.11959118
000170 7c 3b 44 3d a1 ae 2f bd 65 d1 e1 bd 7d fe 66 bc
       0.04790829 -0.04289115 -0.11026267 -0.014098761
000180 09 68 79 ba 42 84 72 3d be d6 c9 bc 9e c1 62 3d
       -0.00095140986 0.059208162 -0.02463853 0.05536043
000190 57 2b fb bd 5e 7c 85 3d 33 24 9e 3d 51 7b b7 3d
       -0.12264126 0.06517862 0.07721748 0.089590676
0001a0 3e 58 8b bc f2 71 a0 3d 60 a5 18 3d 22 6d 01 3d
       -0.01700985 0.07834233 0.03726709 0.031598218
0001b0 b0 9b 77 bc dd d7 af bd e4 0d 36 bd 3e 94 07 bd
       -0.015112802 -0.085860945 -0.04444684 -0.03310036
0001c0 28 67 5c 3c 97 4b a2 3d 69 0d 61 bd 73 ba 82 3c
       0.013452329 0.07924574 -0.05494443 0.015958047
0001d0 02 bd 1f 3d 28 2a b2 3d 73 bc f4 bd da f9 3c 3c
       0.03899861 0.08699447 -0.11950006 0.011534179
0001e0 db 4a 93 bc 8e b1 3f 3a 73 b9 ac 3d 33 60 0b 3d
       -0.01798003 0.00073125295 0.08433809 0.03402729
0001f0 83 e9 38 3e 73 da 16 bd 0d ce 33 3c b8 13 c9 3b
       0.18057828 -0.036829423 0.010974419 0.006136384
000200 c9 c1 a9 bd 38 6c 69 3d ee bf 0a bd bd 3c 17 3b
       -0.08288915 0.05698797 -0.033874445 0.0023076974
000210 c6 06 a5 bd f7 17 f7 bd 9f 60 30 3d a6 74 55 3c
       -0.080579326 -0.12065118 0.043060895 0.013028299
000220 0b 9d 6f bc 5d 92 b4 bd 1d c7 41 3c 22 39 c0 3c
       -0.014624844 -0.08816979 0.011827257 0.023464743
000230 45 9f 37 3c d2 d3 d6 bc ef 8e f4 3c 01 45 16 bd
       0.011207406 -0.02622405 0.029853312 -0.0366869
000240 41 64 84 bd fb d1 c2 3c ed d1 3b bd 91 90 7b 3d
       -0.064644344 0.023781767 -0.045854498 0.061417166
000250 fa fb fd 3d 52 fe 45 bd 1b e2 03 bd b2 f5 fe 3c
       0.12401576 -0.048338242 -0.032198053 0.031123016
000260 14 9d d6 39 3c ab 08 3d 5a 6b ee 3d 23 f4 54 3c
       0.00040934293 0.033366427 0.116415694 0.01299766
000270 e8 d4 96 bc d8 17 8f 3d 3c 25 87 bd 22 c1 d1 3b
       -0.018412068 0.0698697 -0.06598899 0.006401197
000280 fa b5 1e 3d 2a d1 81 3d a0 31 44 bd bd ce e8 bd
       0.038747765 0.06338723 -0.04789889 -0.11367557
000290 44 f9 0c 3c 1a 3c ab bc 5c bb d6 bd 23 cb 61 3d
       0.008604351 -0.020902682 -0.10484955 0.055125367
0002a0 fd d2 cb bb d2 dc 14 bd 9f 06 11 3d a6 bd fa 3c
       -0.00622022 -0.036343403 0.035406705 0.03060801
0002b0 fa 44 b7 bc 85 f6 88 bd 04 5c d1 bc 32 64 44 3c
       -0.022371758 -0.06687645 -0.025556572 0.011986779
0002c0 ee eb 8c bd 08 a2 3e bd b3 82 e5 bb f0 ee cf 3d
       -0.068809375 -0.046541244 -0.007004106 0.101529956
0002d0 d2 20 6d 3d c6 4a 8e 3d 81 90 e6 3c 4f 22 2d 3d
       0.057892628 0.06947856 0.028145077 0.042269047
0002e0 af 86 6e 3d 94 0f f1 bc 2b 02 19 bc 36 c6 27 be
       0.058233913 -0.029426374 -0.009338896 -0.16384205
0002f0 0e f6 c0 3d 6c 76 61 bc c6 9e 8c 3c 32 ad c3 3d
       0.09421931 -0.013761144 0.017165553 0.09554519
000300 05 fa 87 bc 7a d0 27 bd 59 3a b9 3d 69 bc 4b 3d
       -0.01659871 -0.040970303 0.09044332 0.04974023
000310 ab c0 5e bd a0 cc 95 bc 0b e5 0a 3e b4 57 92 3d
       -0.05438296 -0.01828605 0.13563935 0.07145634
000320 83 44 e3 bd 7c 62 9a 3c b9 8a 94 3d c8 92 7e bd
       -0.11097052 0.01884579 0.07253022 -0.0621517
000330 50 bd fa 3d fa 77 3d bd a2 68 30 3d cf bb 9d 3d
       0.1224314 -0.046256997 0.043068536 0.07701837
000340 b4 41 fd 3d ac 68 04 bd 24 38 84 3d 9d ce 97 bd
       0.123660475 -0.032326385 0.064560205 -0.07412455
000350 68 b7 c1 3c 1b 96 30 3d 29 d3 df 3d 98 65 e4 3c
       0.023647025 0.0431119 0.109289475 0.027880475
000360 b6 1d b3 bd 9a e3 28 bb 7d 5d f1 bd 46 6a 2f 3c
       -0.08745901 -0.0025770427 -0.117854096 0.01070649
000370 9a 8f b6 bd b5 f5 2c bd a1 7b 08 3e a5 a9 51 bd
       -0.089141086 -0.042226512 0.1332841 -0.051187176
000380 87 b8 e0 3b de 32 12 bd f7 7a 14 bd 32 dd c2 bd
       0.006857935 -0.035693042 -0.03625008 -0.09514846
000390 f4 a8 fb bd 09 7c 6f 3c a9 97 8d bd e0 70 22 3d
       -0.122880846 0.014616975 -0.069136925 0.039658427
0003a0 cb d5 bc bd 48 8c 2f bc 33 40 43 3c df a2 89 bd
       -0.09220465 -0.010714598 0.011917162 -0.06720518
0003b0 ba 99 4c bc 00 98 64 3c 6f 52 4b 3d 76 ba 51 bd
       -0.012487823 0.013952255 0.04963916 -0.051203214
0003c0 84 37 5c bc 48 dc ca bd 4f 23 46 bc c5 1e 14 be
       -0.01344097 -0.099052966 -0.012093379 -0.14464863
0003d0 46 58 69 bd 02 05 5d 3d ca f7 c5 3d 63 84 f4 3c
       -0.05696895 0.053959854 0.09666403 0.029848283
0003e0 bb c4 07 3a 68 b2 79 3a 81 da 2c bd 7a 02 a6 3d
       0.00051791564 0.0009525181 -0.04220057 0.08105941
0003f0 2e d4 0f be 0e bd ab bd 0e 5f b3 3d 9d 47 a0 bc
       -0.14045784 -0.08385669 0.087583646 -0.019565398

bias f4 [512]
000000 59 1d 0c 3c b0 47 2f bc 78 63 db bb 9b d8 f5 bd
       0.008551919 -0.010698244 -0.006695207 -0.12004205
000010 5a a0 ce bd 50 16 26 be 52 98 34 be a1 65 9d bc
       -0.100891784 -0.16219449 -0.1763623 -0.0192135
000020 9a 37 e1 bd e7 fd c7 bd a0 63 a1 bc 95 10 7e 3d
       -0.10996933 -0.09765225 -0.019700825 0.062027533
000030 6c 70 af bd 79 5e cd bd d9 4f 93 bd 16 d2 b9 bd
       -0.08566365 -0.10027785 -0.07192964 -0.09073274
000040 68 1a ae bc 02 22 8e bd 3d d7 57 bd ca f0 28 3e
       -0.021252826 -0.0694008 -0.0526955 0.16498104
000050 f6 4e 88 3c c6 bb 87 ba b9 3d 06 be 45 43 70 bd
       0.016639214 -0.0010355643 -0.13109483 -0.058657903
000060 49 c8 36 3d 41 26 b6 3c 06 1b 46 bc 0c 13 87 bd
       0.0446246 0.022235038 -0.012091404 -0.0659543
000070 b5 b6 40 bd 88 2e f6 3d 5b c5 11 bd b0 24 8b 3d
       -0.047049243 0.12020594 -0.035588603 0.06794107
000080 09 13 8b bc b4 86 2c bd 79 d8 e5 3d 50 43 29 be
       -0.01697685 -0.04212065 0.112229295 -0.16529584
000090 eb 24 07 bc 57 06 bb bd fc 8f 65 bd cc f2 d0 bd
       -0.008248548 -0.091320686 -0.056045517 -0.1020256
0000a0 de 98 51 3c f5 7e a4 bc 57 d4 b0 bd 7f c8 3b be
       0.012792794 -0.02008007 -0.086342506 -0.18338202
0000b0 7d 57 a1 bd 9b ac 53 bc c2 9c 90 bd c6 db f3 bd
       -0.07878015 -0.01291957 -0.07061149 -0.11907153
0000c0 f2 7d 0e 3e 1c 0b e3 bd 84 ec 2e 3d fd 7d bd 3d
       0.13915232 -0.11086103 0.042706028 0.09252546
0000d0 97 ac 85 bd e8 e5 0a 3d a4 14 f8 bd 6b 04 a4 bd
       -0.065270595 0.033910662 -0.12113312 -0.08008655
0000e0 b5 c0 a1 bd 72 ab b3 bd a8 e7 54 bd 37 b3 60 bd
       -0.07898084 -0.08772935 -0.051978737 -0.054858413
0000f0 8f 97 1c 3b f2 32 d4 bd ae 54 9c bd 7e 4f fd bc
       0.0023894047 -0.103612795 -0.07633339 -0.030921694
000100 c5 9b e6 bd bd b9 c1 bc c8 05 d2 3c 73 d1 e7 bc
       -0.112601794 -0.023648137 0.025637522 -0.028298115
000110 73 50 b3 bd 14 b8 4f 3c 6b f2 6e 3d 13 5d 36 be
       -0.08755579 0.012678165 0.058336657 -0.17808942
000120 dc fd 07 be 55 2f 52 3c 61 7d 46 bd a5 86 bb bd
       -0.13280433 0.012828668 -0.048459414 -0.09156541
000130 43 e8 b7 3d 3e 2a 92 bd 28 b9 2e be 4b b4 2a be
       0.08979847 -0.07136963 -0.17062819 -0.16670339
000140 ed 99 08 be f2 81 5c bc b3 00 2b bd 5e 68 c3 bd
       -0.13339968 -0.013458716 -0.041748714 -0.09541391
000150 c3 82 2d bd 09 85 09 3d ee 60 9a 3d f2 8f 8f 3c
       -0.042361032 0.033574138 0.07538019 0.017524693
000160 4d 3d 27 bd 3c e2 41 bd 9f e0 2f 3c e4 34 4e bd
       -0.040829945 -0.047334895 0.010734706 -0.05034341
000170 49 b9 e6 bd 2b b2 66 bd 79 e8 4e bd f5 35 91 3d
       -0.11265809 -0.056322258 -0.050514672 0.070903696
000180 c9 88 85 3d 0e 71 42 bd c3 cd 6c be b3 2b 76 3d
       0.0652023 -0.0474711 -0.23125367 0.06010027
000190 82 17 80 bc df 5f f5 bc 7a 3d 68 bd 33 06 9f 3b
       -0.01563621 -0.029952941 -0.056699254 0.004853034
0001a0 5c e2 60 bd 4d a7 23 3d 91 bf 36 bd 5f c8 bd bb
       -0.054903373 0.039954472 -0.044616286 -0.0057917084
0001b0 8c 3a ac bd d6 27 a3 bd 11 5d f4 bd 59 4c f8 bd
       -0.084096044 -0.079665825 -0.119318135 -0.12123937
0001c0 ff ef 80 3d d0 49 94 bd a6 f8 2f bd e5 9b 22 3d
       0.062957756 -0.07240641 -0.04296174 0.039699454
0001d0 1c 84 c5 bd c5 bc 1e be 6f 57 0e be 63 8a 9e bd
       -0.096443385 -0.15501697 -0.13900541 -0.07741239
0001e0 ba 8b 5b 3d 45 34 66 bc 45 74 68 bc 93 e1 91 bd
       0.05360005 -0.014050548 -0.014187877 -0.07123103
0001f0 35 23 9a 3d 0b 54 19 be ee e8 44 3c 5c fd 08 bd
       0.075262465 -0.14973466 0.012018425 -0.033444747
000200 d8 ad bb 3b 15 7a 80 3d ab 98 3e bc aa fa a6 3d
       0.005727511 0.06273285 -0.011633079 0.08153279
000210 7d e8 2e 3d df 24 d4 3d 5d 2e 30 bd 2e 55 d0 3d
       0.042702187 0.10358595 -0.043012965 0.10172497
000220 7d af 0d be 4c 50 d4 bc 30 99 e2 bb 01 76 15 be
       -0.13836475 -0.025917195 -0.006915234 -0.14595796
000230 4b d1 dc bb e2 08 bc bd 57 9f 2f be 0f 76 30 be
       -0.006738817 -0.09181382 -0.17150627 -0.17232536
000240 30 82 d9 bd 74 ac fd bd 8f 36 9f bc ed 3e dd 3c
       -0.106205344 -0.123864084 -0.019435195 0.027007544
000250 47 77 84 3d 07 c0 d4 bd 40 9c d6 3d 6f 72 25 3d
       0.06468063 -0.10388189 0.10479021 0.040392336
000260 85 b5 d8 bd d3 38 04 be c5 e1 e9 bd 34 69 7d 3c
       -0.10581497 -0.12912302 -0.11420015 0.015466977
000270 4c be 2e bd 05 fb 78 bd 0c 0c 15 3d 86 8f a1 bd
       -0.04266195 -0.060786266 0.036388442 -0.07888703
000280 f4 00 aa bd e5 46 a9 bd 76 5b ec bb 78 53 0f bd
       -0.08300963 -0.08265475 -0.0072130514 -0.03499171
000290 08 d6 ad 3d c8 49 f8 bd b5 82 ab 3c ba 4b a8 bd
       0.08488089 -0.12123448 0.02093635 -0.08217569
0002a0 3c 32 4b 3c 5f 76 98 3d a5 14 96 bc 3d 3d 8c bd
       0.0124021135 0.074444525 -0.018320391 -0.06847618
0002b0 ca 9f f9 3c 3d dc 59 3d c5 62 e0 3c 67 29 3a 3d
       0.030471701 0.05318855 0.027390847 0.04544964
0002c0 d3 e3 2f bd 22 0f d8 bd 79 27 c9 3d fc 0e ca bd
       -0.04294188 -0.10549761 0.09821982 -0.09866139
0002d0 8e e6 23 be 74 a9 73 3d f4 1a 03 3d 96 33 02 3c
       -0.16005918 0.059487775 0.032008126 0.007946869
0002e0 7f 0b 11 3d 09 3a 1d 3d fe d7 c8 bd 1b fe f8 3d
       0.035411354 0.038385425 -0.09806822 0.12157842
0002f0 98 36 51 bd 01 d2 8d 3d dc ac 9c bd 36 8c 58 bd
       -0.051077455 0.06924821 -0.07650158 -0.05286809
000300 1c 6a 15 bd 4f 64 5a bd d3 d5 8c bd 81 5f a6 3c
       -0.036478147 -0.053318318 -0.06876721 0.020309212
000310 e4 36 86 bd 4b 05 b4 3d 34 93 71 3d 76 e0 ac 3a
       -0.06553438 0.08790072 0.058978274 0.0013189453
000320 c9 43 ee 3c 94 b4 be bd 4f 34 b0 3c a7 d9 df bd
       0.029085057 -0.09311786 0.021509318 -0.10930186
000330 d7 84 79 3d 6e 13 65 3c fb 9c 0b 3e 43 fd 6c 3d
       0.0609177 0.013981683 0.13634102 0.057858717
000340 22 bf 0d 3d 30 96 d2 bd 56 2e 34 3d 45 79 a7 bd
       0.034606107 -0.10282552 0.043989502 -0.08177427
000350 8c 70 1c bd 46 1a 29 be 1e 6e 98 bd 55 1d 23 3d
       -0.03819327 -0.16513929 -0.07442878 0.039822895
000360 fe 9b f5 3c 63 bb ff 3d e5 42 d0 bd d4 1e d4 bc
       0.02998161 0.12486913 -0.10169009 -0.025893606
000370 77 ff 76 3d ba ba b6 bd ac f1 0e be 9c 9a 97 3d
       0.060302224 -0.08922334 -0.13959378 0.07402536
000380 1a 32 07 3d f6 20 82 bd 7f 5d 4f 3d af ff e8 bd
       0.033006765 -0.06353943 0.050626274 -0.11376893
000390 e6 50 28 bd 1a 43 89 bb 8c d7 04 be e6 63 a4 bd
       -0.041092776 -0.0041889073 -0.1297285 -0.080268666
0003a0 96 d0 d1 bd 90 df 8b 3d 29 66 37 be 58 62 4a 3d
       -0.10244863 0.068297505 -0.17910065 0.049410194
0003b0 ba 3e 9e 3c 31 2a 0f bd 39 65 e4 3b cc 70 be bd
       0.01931702 -0.034952346 0.0069700745 -0.09298858
0003c0 43 52 4c be e0 1d f7 3c 48 6f 34 bd de 21 30 3c
       -0.19953255 0.030165613 -0.04405144 0.010750262
0003d0 db a5 19 bd 1f 7e 4d 3d d0 61 06 be 78 69 92 3c
       -0.037511688 0.050169107 -0.1312325 0.017872557
0003e0 48 89 c5 3c a3 fe 8f bc 68 db 58 3a f4 ee a1 bd
       0.024113312 -0.017577475 0.000827244 -0.07906905
0003f0 4e 54 4b bd 3a 52 17 3d 3d 0b b5 3d a8 a9 4d bd
       -0.049640946 0.03694365 0.08840034 -0.050210625

weight f4 [128, 512]
000000 d1 2d a0 3c df c4 04 bd 12 96 cb 3b 56 2f 2e 3d
       0.019553097 -0.032414313 0.006212958 0.04252561
000010 5f e6 bb 3c 50 35 f2 3c 1b 15 34 bd 4d f5 05 3c
       0.022936998 0.029566437 -0.04396544 0.00817616
000020 3d ea 5a bc c5 f7 6f 3c 88 21 31 bd d4 e1 15 3d
       -0.013361511 0.014646475 -0.04324487 0.03659232
000030 e3 b6 a1 3b e9 db 82 bc a3 a0 d6 bd 21 24 53 bb
       0.004935132 -0.015974002 -0.10479858 -0.003221758
000040 e8 b5 2e bd ae d5 4b 3c 6b 8c 01 3d 07 ea 20 bd
       -0.042653948 0.012441082 0.031628054 -0.039285686
000050 f2 ab 0b 3c 97 a5 16 3c 28 c7 05 bc 06 93 75 bd
       0.008524882 0.009194753 -0.008165158 -0.059954666
000060 b6 2a 2a 3d b0 16 3f bd 85 0e 09 bd 2b a0 2d bd
       0.04154464 -0.046652496 -0.033461113 -0.042389076
000070 c4 d3 7b 3b 8d a4 3e 3d dc e4 37 3c 23 a5 2a bd
       0.0038425783 0.046543647 0.011223998 -0.041661393
000080 51 fe e5 3c c8 e0 13 bd a0 b4 10 3d e0 1c 32 bc
       0.02807537 -0.03610304 0.035328507 -0.010871142
000090 17 b5 73 bc 1e ec 05 3c f0 52 f7 3c 49 e4 9f ba
       -0.014874718 0.0081739705 0.030190915 -0.0012198772
0000a0 44 46 8e 3b 61 34 52 bc 2a 1c 8b 3c 31 6d 8a bd
       0.0043418724 -0.012829871 0.016981203 -0.06759108
0000b0 5a bd 7d bd 27 80 0d 3d 2e eb 2c bd bd c4 56 3d
       -0.061948158 0.034546044 -0.042216472 0.052433718
0000c0 00 3d 10 bd ff 56 47 3d 35 4a 2e bd 81 86 46 bc
       -0.035214424 0.04866695 -0.042551238 -0.012117029
0000d0 82 b3 40 3d 70 ff 2f bc 52 ac 75 bd 27 de c5 bb
       0.047046192 -0.010742053 -0.05997879 -0.0060384455
0000e0 c7 ac a3 bc 60 be 53 3d b7 21 9b 3c b6 30 46 3c
       -0.019979848 0.051695228 0.018936975 0.0120965745
0000f0 df 0b 66 bd 1d cb 91 bb 4f 99 9c bd ce 14 a6 bc
       -0.056163665 -0.004449262 -0.07646429 -0.020273592
000100 8e 42 79 bb 67 e3 37 bd 5d 6b 9a 3a 9a 18 41 bc
       -0.0038034054 -0.044894602 0.0011781264 -0.011785651
000110 a7 ff fa 3c 38 b2 ae b9 81 ad 7a 3c 94 16 ee 3c
       0.030639483 -0.0003332065 0.015300156 0.0290635
000120 50 19 4f 3b 00 65 35 3d 3a eb 25 bc a3 83 78 3d
       0.003160078 0.044285774 -0.010126883 0.060672414
000130 ed 73 cb 3c 81 2d 21 3d 40 dd 1a bd 1d 9e 00 3d
       0.024835551 0.039350037 -0.037808657 0.03140079
000140 a8 85 eb bb bc d0 58 3d 6c f9 91 3c 61 72 2d bc
       -0.007187564 0.05293344 0.017819129 -0.010586352
000150 15 7b e7 bc 84 d0 f8 bb 95 bb 1d bd 1d 91 3b 3d
       -0.028256932 -0.0075932164 -0.03850897 0.045792688
000160 88 4f 84 bb 44 08 aa 3d ad 37 a6 bb f8 b0 24 bb
       -0.004037801 0.08302358 -0.005072555 -0.0025129896
000170 65 a4 f9 3b 8d 26 0d bd 1c f4 85 bc 07 d5 73 3d
       0.0076184743 -0.034460593 -0.016351752 0.05952933
000180 bf 62 a7 bc b6 ec b9 bb f8 1b 6e bd e4 ac 3d bd
       -0.020432828 -0.00567397 -0.05813214 -0.04630746
000190 98 bd 86 3b dc 57 71 bd eb 3b 77 3c a1 5d 11 bd
       0.004111957 -0.05892168 0.015089969 -0.035489682
0001a0 d1 6f 4a 3c 04 0f c9 3c 41 cc b0 bb 6c ab 1a 3d
       0.012355761 0.024543293 -0.0053954427 0.037761137
0001b0 41 ce 37 3c 11 d7 48 3d 57 26 02 3d fe 68 83 3d
       0.011218608 0.04903323 0.031774845 0.0641651
0001c0 2f 9a 3a 3d 5d 7d f8 3c 76 e5 8f 3d 08 d1 5a 3c
       0.045557197 0.030333215 0.07026188 0.013355501
0001d0 31 28 ef bc 62 ac 7d 3c 8e 37 88 bc 85 be c1 3b
       -0.02919397 0.015482994 -0.016628053 0.0059126043
0001e0 cf 7f 51 3c d4 65 0d 3d fd da 3a bd 9c b3 19 3d
       0.01278682 0.03452094 -0.045619 0.037524804
0001f0 5c 9d f0 3c a7 9e 9b bc 4e a4 b0 bb 04 d7 51 3d
       0.02937191 -0.01899655 -0.0053906804 0.051230446
000200 59 32 cd 3c 24 e8 a8 3c 99 57 11 bc a7 b1 45 3d
       0.025048422 0.020618506 -0.008870983 0.048265126
000210 ff a9 b7 bc 12 8d f3 3b 89 3b 06 bd 6b 47 ce bc
       -0.022419928 0.0074325884 -0.03277162 -0.02518054
000220 61 f4 63 3d 47 f9 47 bc 3b db 06 3d 2f 9b e1 bc
       0.05565298 -0.012205428 0.03292392 -0.027539818
000230 ca fe 19 3d cd 47 28 3b 74 ab 81 bc 7e 0b 37 bd
       0.0375965 0.0025677562 -0.015828826 -0.044688694
000240 b4 8f 22 bd 3a 18 d5 3b 78 fe 75 bd 96 5c 00 bc
       -0.039687827 0.006503132 -0.060057133 -0.007834574
000250 a0 fa 68 bc 5e 52 0f 3c 94 cc c3 bb 8c b4 d0 3c
       -0.01421991 0.008747665 -0.0059753153 0.025476716
000260 9a 96 62 bd 8b 66 0b 3d 37 c5 30 3c bf 04 02 bd
       -0.055319406 0.03403334 0.010789207 -0.031742807
000270 38 81 e1 3c 48 3d 8e bc fc 20 60 3c 58 25 38 bd
       0.027527437 -0.017363206 0.013679739 -0.04495749
000280 00 40 d1 3c de 0e 8e 3c 2f 63 69 3c 84 60 4a 3d
       0.025543213 0.017341074 0.014244839 0.04940845
000290 a8 e0 01 3d 2c eb 95 3c 81 e3 26 bd f9 97 54 3d
       0.03170839 0.018300615 -0.04074431 0.051902745
0002a0 ad 8c 93 bc 14 88 b9 bc 19 77 ad bc f4 41 0a 3c
       -0.018011415 -0.022647895 -0.021174954 0.008438576
0002b0 7a a5 56 3c fc 79 d0 3c 81 32 0d bc 94 da aa 3a
       0.013100976 0.025448792 -0.008617998 0.0013035112
0002c0 c4 0b 3d 3d a2 24 04 3d 85 e0 30 bd ee 16 50 3d
       0.0461538 0.0322615 -0.04318287 0.050803117
0002d0 53 bf 81 3d db dc c4 ba 62 6c 0c 3d 72 da d4 bc
       0.0633532 -0.0015019433 0.03428305 -0.02598307
0002e0 08 80 42 3c 09 7d 0b bd c7 5d 60 3c b2 c8 30 bc
       0.011871345 -0.03405479 0.013694233 -0.010790037
0002f0 50 bc 9d bd f0 64 19 bb e2 d8 fa bc fc 2b d0 bc
       -0.077019334 -0.002340611 -0.030620996 -0.025411598
000300 c7 50 9d 3d 3a 65 1e 3c 2d 2a 47 3c 0a 96 d8 3c
       0.07681423 0.009667689 0.012156052 0.026438732
000310 9c 8e 93 bd af 64 68 3c 5e ac 4d 3d c9 95 69 bb
       -0.07204935 0.014184161 0.05021321 -0.0035642257
000320 ae 98 22 bc 26 ec 74 bd 4a 2e 69 bc 37 e3 f4 bc
       -0.009924097 -0.05979552 -0.014232228 -0.0298935
000330 99 0c 04 3c 2f 5a ac 3b 50 10 29 3c b3 a3 48 3b
       0.008059644 0.005259774 0.010318831 0.003061515
000340 dc 59 0e bd 3b ac d1 3c 09 89 98 bd 6d 57 67 bd
       -0.034753665 0.025594821 -0.074480124 -0.05647986
000350 b7 1f 7f 3b 23 cc 1f bd 42 e6 86 bd 49 95 a5 bb
       0.0038928816 -0.03901304 -0.06586887 -0.0050531966
000360 5e 38 9d bd fa 2d b8 3c e2 3c 0a 3d c4 a9 3c bc
       -0.07676767 0.02248286 0.03374947 -0.011515085
000370 a9 d7 db 3c 65 0e 08 3d 97 f8 e2 ba 27 14 4c 3c
       0.026836233 0.033216853 -0.0017316517 0.012455977
000380 b3 be d0 3c 35 07 31 3d 69 d1 73 3c 86 a0 2a 3c
       0.025481557 0.043219764 0.01488147 0.010414248
000390 af 1c 28 bd 58 73 5f 3c 93 58 83 bc da 1c f6 3c
       -0.04104298 0.01363834 -0.016033446 0.030043054
0003a0 0e 2a c6 bb 46 07 f6 3c b6 27 bb 3b a5 5b d5 bc
       -0.006047494 0.030032765 0.005711521 -0.026044676
0003b0 10 92 8f 3c ec 62 ec bd 70 45 33 3d 17 eb a3 3c
       0.017525703 -0.11542305 0.043767393 0.02000956
0003c0 27 4c 25 bd 9b 81 11 3d d9 83 90 bc 61 1f d9 bc
       -0.040355828 0.035523992 -0.017640995 -0.02650422
0003d0 f5 b2 47 3d c4 ea 75 3d ba 0f ef bc 3d cc 07 3d
       0.04875465 0.060038343 -0.029182304 0.03315376
0003e0 61 ee 66 3d bd ae 14 bb 8f e2 1c bd e3 7d 43 3c
       0.05637968 -0.002268716 -0.038302 0.011931869
0003f0 3d 31 40 3b 7b ab 04 bd 18 ed b1 3b b4 3d 07 3d
       0.0029326223 -0.0323901 0.005429875 0.03301783

bias f4 [128]
000000 06 2d 57 bc 23 0c ce bd c2 5b 5c bd b6 11 0f bd
       -0.013133293 -0.10060909 -0.053798445 -0.034929
000010 de b3 d8 3c 01 ff 0c bd 5c 4e 8b bd 77 c2 aa bd
       0.026452955 -0.03442288 -0.06802055 -0.083378725
000020 a9 23 23 bd 55 2d 1c 3c c5 2d c4 bd 55 83 b2 3c
       -0.03982893 0.009532292 -0.09579042 0.02179114
000030 cb b7 2d 3d 96 4f 8b bd 01 a8 96 bc 26 55 a4 3c
       0.042411607 -0.06802289 -0.018390657 0.020060133
000040 35 75 cc bc 8c 8a 7a bd 81 2d d9 bd 30 b9 07 bd
       -0.024958232 -0.061167285 -0.10604382 -0.033135593
000050 ae a9 b9 bd f1 99 3b 3d fc 72 a2 bc b1 1a 31 3d
       -0.09065567 0.045801107 -0.01983022 0.043238346
000060 99 7e 8e 3d 35 88 9e bb 3d f1 37 3d d7 1c 0c 3d
       0.0695774 -0.0048380145 0.044907797 0.03420719
000070 11 c8 8b 3d 2c 44 c8 ba e7 d9 c6 bd f1 10 ba bd
       0.06825269 -0.0015279106 -0.0970953 -0.090852626
000080 3f 3f 5f 3d 7a 24 97 bd 68 a5 c8 3b 69 f3 76 3d
       0.054503676 -0.07380004 0.0061232336 0.060290728
000090 e7 4c a1 bd 9c 73 aa bd d9 cb be bd d4 06 32 3d
       -0.07875996 -0.08322832 -0.093162246 0.043463543
0000a0 29 3e 07 be dd a4 0e 3d 5f 34 29 bd 1b a6 28 bb
       -0.13207306 0.034825195 -0.04130971 -0.0025733772
0000b0 f1 7f dd 3c 3b 2f c0 bd 7a a9 c2 bd 37 26 8d bd
       0.027038546 -0.093840085 -0.09504981 -0.068920545
0000c0 94 97 d1 bd 0f 2f 72 bd 18 f2 0f 3d 9e 6c 14 3d
       -0.10233989 -0.05912691 0.035142988 0.036236398
0000d0 68 c6 ac bd 64 84 7b 3d 80 06 7d 3d 08 80 b2 bd
       -0.084362805 0.061405554 0.061773777 -0.08715826
0000e0 c2 65 2e bd 4e d1 b7 bd ff eb 46 3d 6e fb 89 bd
       -0.042577513 -0.089754686 0.048564907 -0.067374095
0000f0 70 f1 c3 bd 52 66 b9 3c ab fc 58 3d 46 2a 7c bd
       -0.09567535 0.022631798 0.052975338 -0.061563753
000100 35 07 0d 3d 63 25 9f bc 6e b1 3a bd 98 05 98 3d
       0.0344307 -0.019427007 -0.045579366 0.07422942
000110 98 cb b9 bd 7e e5 27 3d 4e 57 c4 bd f8 23 76 3d
       -0.090720356 0.040990345 -0.095869645 0.060092896
000120 ba 11 1f bd c8 92 5b bd 96 bd 93 bd 42 a9 62 3d
       -0.038835265 -0.05360678 -0.07213895 0.055337198
000130 15 d2 8e 3c 90 3f 49 3d de 07 09 bd 6c e6 25 3d
       0.01743416 0.049132884 -0.03345477 0.04050295
000140 79 1b 36 3d ce a1 7d 3d a8 b2 25 3d 59 4d 81 3d
       0.044459794 0.061921887 0.040453583 0.06313581
000150 d9 7e 03 3d 30 a7 37 bc b5 70 a7 bd 82 15 9d bd
       0.032103393 -0.011209294 -0.08175794 -0.07670118
000160 f3 bc a0 bd 0e a5 03 3c 40 7d 3e 3d 84 d7 f9 3b
       -0.07848539 0.008034958 0.046506166 0.0076245684
000170 62 6e 1f bd e6 2a 7d bd 9d 95 87 bc 9b ed 11 bd
       -0.03892363 -0.06180849 -0.016550833 -0.03562699
000180 17 95 90 bd 50 74 b9 3d 8a c9 8d bd 84 ef 4d bd
       -0.07059687 0.09055388 -0.06923206 -0.050277248
000190 d3 c9 90 3c ac 4a e8 3c cd 3f 7f bd 4b e3 60 3d
       0.017674362 0.028355919 -0.062316705 0.054904263
0001a0 70 3c c0 bd bf f2 66 3d a9 4d 5c bd 70 4b 8d 3d
       -0.093865275 0.056383844 -0.053785 0.06899154
0001b0 3d cc fc bb bb 12 e6 3c 8e 98 b1 bd 64 ae 0f 3d
       -0.007714777 0.028085103 -0.086716756 0.03507842
0001c0 4e c2 69 bc 6e 7a 23 3d 4e 6b f2 bb 62 d9 e2 3d
       -0.014267517 0.03991168 -0.0073980456 0.11076619
0001d0 e0 26 1e 3d 5a 25 29 3d 0c 24 44 3d 05 24 97 bc
       0.038611293 0.041295387 0.04788594 -0.018449793
0001e0 d4 ae 6e 3d df a7 26 3d 75 6d d4 bd 06 2d 95 bd
       0.058272198 0.040687438 -0.1037244 -0.07283978
0001f0 08 39 56 3d b5 02 da 3c 35 91 ef 3c a9 96 3d 3d
       0.052300483 0.026612619 0.029244045 0.04628626
