result/aug74_then_gan_40_model_23.pt (torch, 934338 bytes, 9 tensors)

weight f4 [128, 13]
0.03699197 0.29091462 -0.27962023 0.011905213 0.16658391 0.088623516 -0.07822235 -0.26067197
0.22389835 0.08654117 -0.17880012 0.08501956 -0.23956135 -0.25906253 0.013243837 0.28352433
-0.25590113 -0.4804174 0.025916742 -0.3286812 -0.025110045 0.06561905 -0.47321215 -0.20174727
-0.26830837 0.08126371 -0.19897664 0.26253295 -0.08458078 0.15858167 -0.032050665 0.072728515
-0.3216412 -0.27788547 -0.38878804 0.19156235 0.25706375 -0.023477674 -0.08999979 -0.23230289
-0.01938193 -0.23379265 0.09912417 0.25322202 -0.11297294 -0.071490705 -0.058191355 -0.2837947
-0.026801968 0.36820066 -0.0038012268 -0.5272173 -0.18971609 -0.20320974 -0.17438214 0.1881926
-0.101812646 -0.411615 0.14200345 -0.0656488 0.18279399 -0.12064523 0.32364783 0.10002453
-0.024523595 0.14792594 -0.03388924 -0.13043608 0.13003819 -0.20498167 -0.21672258 0.22654067
0.18034525 0.057011824 -0.06569051 -0.27512288 -0.19608021 -0.32109198 0.21692252 -0.18560664
0.13512538 -0.061837792 0.057733294 0.29621425 0.17658205 -0.23715042 -0.29827872 0.07815432
0.91465944 -0.0361458 0.28397754 0.06217326 -0.20299453 -0.058509115 0.30438524 0.089599274
-0.22422676 0.12748311 -0.21927328 0.07420085 0.25101176 0.5357718 -0.11772251 -0.3054128
0.063088305 0.12914592 0.01923192 0.09804079 -0.17946526 -0.33637038 -0.14679657 0.2170664
-0.11829721 0.27723858 0.37052447 0.12311537 0.25010017 0.288514 0.2666461 -0.31736416
-0.11802796 -0.0024022171 -0.22407417 0.11803289 -0.15465662 0.062889196 0.16825618 -0.29194614
-0.009937587 0.046292476 0.24195078 0.23269585 -0.23608696 0.12290968 0.06955946 0.0744764
0.17040119 -0.23082079 -0.027136685 0.20696457 0.25253862 0.14745821 0.22697958 -0.19646546
-0.27481848 0.07130894 -0.12266645 0.13266909 -0.2323165 0.16373676 0.2258858 -0.11765673
0.2755965 0.038527887 0.051654797 -0.17187624 -0.14025235 0.12043158 -0.09311218 0.38655633
0.04328227 -0.18281303 0.4697645 -0.31150502 0.27379036 0.18937466 0.15228568 0.16464895
-0.33761838 -0.13313909 0.14321321 0.11650561 0.30410385 0.31742373 -0.03537856 0.13805912
0.1333487 0.16795191 0.25394693 0.3181077 -0.12985484 0.15604898 -0.22471513 -0.10361274
-0.1122374 -0.05591952 0.053579394 0.06715176 -0.09050908 -0.07520094 -0.145318 0.33137357
-0.32334435 0.103273794 -0.3452388 -0.26029924 0.37522948 -0.2717452 -0.051806547 0.30296487
0.21887542 -0.35311803 0.3623934 0.09536612 0.075510375 0.37203294 0.019936407 0.23458801
0.29979184 -0.2387412 0.40372503 -0.05464691 -0.07981625 0.2864958 -0.015609567 0.16227718
-0.058918238 -0.13908944 0.5011942 -0.15899876 0.25508663 -0.101727135 0.190036 -0.14960197
-0.20798205 -0.00031741263 0.17437826 0.05383323 0.1410587 0.00012145964 0.09585427 -0.48268038
-0.062464386 0.13139434 0.061006058 -0.22384293 0.22055575 -0.2902993 0.33234942 0.29488853
0.06926266 -0.21467626 -0.12154741 0.2963957 0.833551 0.020014012 0.32098866 0.18208821
0.16599298 -0.13613378 -0.2877886 0.20510437 0.26984924 -0.41629347 -0.1062512 0.110670306
00000000: e484 173d c3f2 943e 622a 8fbe 150e 433c
00000010: f994 2a3e 3f80 b53d 0a33 a0bd cc76 85be
00000020: 9c45 653e 7f3c b13d 6117 37be bc1e ae3d
00000030: 924f 75be d8a3 84be aefc 583c 1a2a 913e
00000040: 7905 83be 45f9 f5be 594f d43c e748 a8be
00000050: 95b3 cdbc 4863 863d dd48 f2be d696 4ebe
00000060: b75f 89be 976d a63d 88c0 4bbe b86a 863e
00000070: b038 adbd 3c63 223e 8f47 03bd b0f2 943d
00000080: 28ae a4be 0147 8ebe 3a0f c7be ec28 443e
00000090: dc9d 833e 4054 c0bc cf51 b8bd cfe0 6dbe
000000a0: dac6 9ebc 5767 6fbe 9d01 cb3d 51a6 813e
000000b0: 5b5e e7bd b869 92bd 0f5a 6ebd 8a4d 91be
000000c0: cd8f dbbc cc84 bc3e 011e 79bb b7f7 06bf
000000d0: ef44 42be 3716 50be 3b91 32be 90b5 403e
000000e0: 2683 d0bd 34bf d2be 5a69 113e e172 86bd
000000f0: 592e 3b3e d914 f7bd 2bb5 a53e a9d9 cc3d
00000100: b5e5 c8bc e679 173e 72cf 0abd 0991 05be
00000110: bb28 053e b7e6 51be 86ec 5dbe 47fa 673e
00000120: 6dac 383e 3b85 693d bf88 86bd e8dc 8cbe
00000130: 40c9 48be 2b66 a4be f020 5e3e ab0f 3ebe
00000140: 4f5e 0a3e a049 7dbd bf79 6c3d 65a9 973e
00000150: edd1 343e 8fd7 72be fdb7 98be 5f0f a03d
00000160: 1f27 6a3f 9e0d 14bd 8165 913e 63a9 7e3d
00000170: ccdd 4fbe 41a7 6fbd 62d8 9b3e d37f b73d
00000180: b39b 65be ef8a 023e 2d89 60be 9ef6 973d
00000190: 9d84 803e 5728 093f 8018 f1bd 115f 9cbe
000001a0: 7134 813d d43e 043e 428c 9d3c 9cc9 c83d
000001b0: bec5 37be bd38 acbe d751 16be a846 5e3e
000001c0: cf45 f2bd 37f2 8d3e 62b5 bd3e e923 fc3d
000001d0: 210d 803e 1bb8 933e d685 883e 8e7d a2be
000001e0: a5b8 f1bd 846e 1dbb b373 65be 3abb f13d
000001f0: 4e5e 1ebe 0dcc 803d 594b 2c3e f779 95be
00000200: 43d1 22bc 2e9d 3d3d f2c1 773e d247 6e3e
00000210: c8c0 71be 12b8 fb3d 3175 8e3d 1587 983d
00000220: a67d 2e3e 495c 6cbe c14d debc 85ee 533e
00000230: be4c 813e 49ff 163e 566d 683e 3e2e 49be
00000240: 02b5 8cbe 6c0a 923d 8c38 fbbd 68da 073e
00000250: 60e4 6dbe 9caa 273e 9b4e 673e 03f6 f0bd
00000260: fc1a 8d3e 6bcf 1d3d fb93 533d 5300 30be
00000270: 509e 0fbe d5a4 f63d 99b1 bebd b6ea c53e
00000280: c048 313d 5733 3bbe f984 f03e 967d 9fbe
00000290: 402e 8c3e 6eeb 413e c7f0 1b3e bc99 283e
000002a0: 51dc acbe 9d55 08be 7ca6 123e 7e9a ee3d
000002b0: 80b3 9b3e 5d85 a23e 1ce9 10bd 5f5f 0d3e
000002c0: 908c 083e 96fb 2b3e 5505 823e 03df a23e
000002d0: abf8 04be 4ecb 1f3e b91b 66be eb32 d4bd
000002e0: b9dc e5bd de0b 65bd 1176 5b3d dd86 893d
000002f0: d35c b9bd f302 9abd 3ece 14be cca9 a93e
00000300: 648d a5be 3681 d33d 24c3 b0be f145 85be
00000310: 141e c03e 3022 8bbe 1a33 54bd 361e 9b3e
00000320: e120 603e e3cb b4be a18b b93e 504f c33d
00000330: 2fa5 9a3d 1a7b be3e ad51 a33c d737 703e
00000340: 517e 993e 9378 74be 0cb5 ce3e 70d5 5fbd
00000350: b476 a3bd 94af 923e 45bf 7fbc fd2b 263e
00000360: 4054 71bd 766d 0ebe 434e 003f 92d0 22be
00000370: b79a 823e 5156 d0bd cc98 423e 4231 19be
00000380: 3ff9 54be 676a a6b9 3790 323e 3c80 5c3d
00000390: b171 103e 26b8 fe38 3e4f c43d e221 f7be
000003a0: a8da 7fbd 3d8c 063e 7de1 793d 1537 65be
000003b0: 5ed9 613e 1ca2 94be b429 aa3e a1fb 963e
000003c0: 95d9 8d3d 18d4 5bbe d9ed f8bd 2dc1 973e
000003d0: 9963 553f 6df4 a33c a058 a43e 5575 3a3e
000003e0: 10fa 293e a766 0bbe 0759 93be e106 523e
000003f0: ae29 8a3e 6b24 d5be 3b9a d9bd 1da7 e23d

bias f4 [128]
0.17527111 0.051654153 -0.18716219 -0.21485569 -0.35402438 -0.25442883 -0.12161953 0.14809194
0.31459323 0.00822282 0.23335016 -0.15213038 -0.24259591 -0.33006692 0.20069209 -0.10195365
-0.08559977 0.12818918 0.014973769 0.029464317 -0.31154492 -0.0786908 -0.11534437 0.051954076
0.19870758 0.22313343 0.12990353 0.19642122 0.18891065 -0.17498319 -0.27915207 0.18127434
0.101065524 -0.09477142 0.15737602 -0.2206617 -0.17058074 0.11210712 -0.23591338 -0.03329946
-0.16924182 0.21115266 -0.10791992 0.053228695 0.16822772 0.1954625 0.24430737 0.07806668
0.06632252 -0.12041793 -0.10779121 -0.098977014 0.07786329 0.28009102 -0.1029916 -0.18393126
0.13856682 0.24990413 0.013256081 -0.017129822 0.09049019 -0.026238875 -0.16760518 -0.3185598
0.1701785 -0.23052718 0.032921534 0.13948064 -0.16918284 -0.20278157 0.16552302 0.21567227
-0.21001606 0.036742363 0.20235851 -0.07705598 -0.111673795 0.19367154 0.072843626 -0.33757794
0.028188828 0.039731823 -0.1430496 -0.13970962 -0.06802459 -0.047369007 -0.1370992 0.16977929
0.11766109 0.09160388 -0.07201639 0.15498923 0.19773199 -0.15426312 0.22728983 0.28973657
0.27192432 0.20948087 -0.15715942 0.18623435 0.031818442 -0.1820479 0.31586707 0.26086235
0.17543876 -0.0044326335 0.08462399 0.1938487 0.21354723 0.2380178 -0.099680774 -0.044503417
-0.19351402 0.16329063 -0.102964066 -0.19528784 0.18181087 -0.3444297 -0.17133434 0.0020800424
0.23563258 0.10890545 0.073886886 0.17795806 -0.05819655 -0.2184253 -0.08854139 -0.010129535
00000000: 457a 333e 4e93 533d 72a7 3fbe 2103 5cbe
00000010: af42 b5be 7f44 82be a913 f9bd 6aa5 173e
00000020: 5d12 a13e 02b9 063c 58f3 6e3e 11c8 1bbe
00000030: 106b 78be 88fe a8be 3a82 4d3e 13cd d0bd
00000040: ef4e afbd 0644 033e 8a54 753c 275f f13c
00000050: d182 9fbe a428 a1bd ab39 ecbd cccd 543d
00000060: 007a 4b3e 177d 643e 6e05 053e a522 493e
00000070: cb71 413e cb2e 33be 05ed 8ebe fb9f 393e
00000080: 71fb ce3d 8517 c2bd 2e27 213e 24f5 61be
00000090: b8ac 2ebe 6b98 e53d 4793 71be 0465 08bd
000000a0: ba4d 2dbe 6738 583e 1e05 ddbd 5506 5a3d
000000b0: e343 2c3e 5227 483e b62b 7a3e 6ce1 9f3d
000000c0: 1ad4 873d ad9d f6bd a3c1 dcbd 76b4 cabd
000000d0: ca76 9f3d 1768 8f3e 43ed d2bd 7a58 3cbe
000000e0: 76e4 0d3e dee6 7f3e 0930 593c d753 8cbc
000000f0: ec52 b93d e9f2 d6bc b1a0 2bbe 451a a3be
00000100: 4643 2e3e 510f 6cbe bbd8 063d 03d4 0e3e
00000110: 443e 2dbe f9a5 4fbe de7e 293e 31d9 5c3e
00000120: 730e 57be 297f 163d 1237 4f3e 87cf 9dbd
00000130: 3bb5 e4bd d551 463e 0a2f 953d 04d7 acbe
00000140: 42ec e63c d6bd 223d 987b 12be 0a10 0fbe
00000150: 7a50 8bbd 0106 42bd bc63 0cbe 9fda 2d3e
00000160: 4cf8 f03d d19a bb3d 547d 93bd 7fb5 1e3e
00000170: 417a 4a3e 27f7 1dbe aabe 683e 5a58 943e
00000180: aa39 8b3e 2782 563e 66ee 20be 38b4 3e3e
00000190: 0e54 023d c46a 3abe 54b9 a13e c08f 853e
000001a0: 38a6 333e a03f 91bb 584f ad3d 4680 463e
000001b0: 20ac 5a3e f0ba 733e 6f25 ccbd 3749 36bd
000001c0: 8a28 46be a935 273e d3de d2bd 89f9 47be
000001d0: a12c 3a3e 1759 b0be 4572 2fbe 5251 083b
000001e0: ab49 713e d209 df3d 0252 973d a33a 363e
000001f0: 815f 6ebd e2aa 5fbe 3055 b5bd 59f6 25bc

weight f4 [256, 128]
0.03179569 -0.027755411 0.016325658 0.08962026 -0.0028555936 -0.06570618 -0.08898783 -0.023869557
-0.0117609985 -0.019582447 0.04502901 0.036465067 0.019316334 -0.052033428 0.015449635 0.030222718
-0.04739274 -0.02141143 -0.056023 0.08306965 -0.033523146 0.06881026 0.085852355 0.042552184
-0.018347604 0.044058464 -0.0028518967 -0.05484838 0.039524913 -0.04341348 -0.0822032 0.08662578
-0.061796006 -0.0579648 0.050609734 0.040293697 0.07327851 -0.06270442 -0.07197121 0.005563579
0.08970504 -0.12052219 0.008500329 0.18666406 -0.03654564 -0.13056561 0.08392205 -0.038581174
0.022081157 -0.06320026 0.060799103 -0.09625459 0.019851472 -0.007551792 -0.03272709 -0.03941749
0.030158237 0.033323657 -0.023804126 -0.047064565 0.024183627 0.065653265 0.042738292 -0.08669011
0.050285865 -0.018007461 0.09921513 0.019789789 0.094276205 0.12879053 0.061249938 -0.09099962
0.04265417 -0.17468494 -0.19835573 -0.021645818 -0.074637644 -0.0030556715 0.07141074 -0.026294583
-0.06257848 0.061237015 0.05963739 0.019098643 0.10096323 0.04751625 0.10282544 0.019071708
0.03076555 0.079794995 0.060093395 -0.06384823 0.07926904 0.116440326 -0.029981978 0.00065630145
0.01450024 -0.013470815 0.26065317 -0.07203695 -0.06144684 0.023057679 0.08758155 -0.050894663
0.12306121 0.015260932 0.01415837 0.08408068 -0.015811466 -0.07515527 0.10155196 -0.027019432
-0.07311536 0.10299883 0.073949024 -0.006948961 0.023942139 0.026052726 -0.059729636 0.036272377
-0.06860228 0.11491922 -0.09067466 -0.082442865 -0.004580129 -0.03397508 0.04653766 -0.03646034
-0.0062428736 0.018812623 -0.03576563 0.09807312 0.14230222 0.066436335 0.014198972 -0.09509609
0.0072299615 0.06373626 0.03091317 0.063493446 -0.0447596 0.050098248 -0.019751575 -0.1046833
0.0326971 0.07527013 0.021054242 -0.03298619 -0.033366174 -0.0003206181 0.0035869859 -0.05246478
0.004474078 0.022691913 0.089621305 -0.07857588 0.02719582 -0.048094828 -0.08244945 -0.01649982
-0.0935543 0.10305362 -0.113604024 0.10088751 0.09415618 -0.0051056906 -0.024138693 0.1482405
0.034358118 -0.14687581 0.04139729 -0.08522699 0.0036032745 -0.057056006 0.004888614 0.11434552
0.07265279 0.06339184 -0.04322893 0.03489491 -0.102536246 -0.06174559 -0.07450926 -0.01322109
0.03677259 -0.061814144 -0.016383005 0.08234181 0.02468878 -0.032316476 0.07126265 0.082828246
0.08584827 0.05571018 0.108028784 -0.08909822 -0.032955553 -0.02239807 -0.09075814 -0.09374933
-0.043686405 -0.06572646 -0.21828383 0.057785075 0.0076244497 -0.1570992 -0.050478607 0.053198513
0.0038306727 -0.089147806 0.004419873 0.11569406 -0.0021335187 -0.05911062 -0.050408307 0.011577714
-0.018023018 -0.058052484 -0.07293437 0.03601579 -0.08386501 0.024612717 -0.08874739 -0.028890742
-0.069981 -0.12265997 0.045976207 -0.03414261 -0.011682096 -0.039195172 0.006378191 -0.15062723
0.06911594 0.016237017 0.06827708 -0.021658203 -0.07502765 -0.032574918 0.030819733 -0.040328037
0.01602615 0.021091059 0.110410385 -0.063823834 0.011613618 -0.016660552 -0.08442118 0.010735994
-0.036704674 0.036172282 -0.06574 0.019052852 0.09493895 -0.013046615 0.052993603 -0.005185705
00000000: 333c 023d 515f e3bc 63bd 853c d48a b73d
00000010: e924 3bbb f690 86bd 403f b6bd 178a c3bc
00000020: 34b1 40bc 5e6b a0bc 5770 383d 655c 153d
00000030: 4a3d 9e3c 0121 55bd 7720 7d3c a295 f73c
00000040: e41e 42bd 0667 afbc 6078 65bd 6c20 aa3d
00000050: 914f 09bd 65ec 8c3d 5cd3 af3d 334b 2e3d
00000060: b74d 96bc a676 343d e3e6 3abb b2a8 60bd
00000070: e0e4 213d 55d2 31bd 275a a8bd db68 b13d
00000080: cf1d 7dbd 806c 6dbd 274c 4f3d 010b 253d
00000090: 0b13 963d 2d6b 80bd a465 93bd af4e b63b
000000a0: 47b7 b73d 57d4 f6bd f744 0b3c dd24 3f3e
000000b0: e2b0 15bd feb2 05be 53df ab3d 4b07 1ebd
000000c0: 8be3 b43c 236f 81bd 7b08 793d 2021 c5bd
000000d0: 8e9f a23c 0675 f7bb d70c 06bd 3c74 21bd
000000e0: 680e f73c 637e 083d df00 c3bc c6c6 40bd
000000f0: be1c c63c 3875 863d 590e 2f3d 968a b1bd
00000100: 8df8 4d3d 6284 93bc 4d31 cb3d 321e a23c
00000110: e213 c13d aae1 033e 37e1 7a3d 025e babd
00000120: 24b6 2e3d 9ce0 32be c41d 4bbe 9252 b1bc
00000130: 9fdb 98bd a941 48bb cb3f 923d bd67 d7bc
00000140: 2529 80bd aad3 7a3d 5646 743d c274 9c3c
00000150: cfc5 ce3d 66a0 423d 2596 d23d 453c 9c3c
00000160: 0908 fc3c 8f6b a33d 7e24 763d dcc2 82bd
00000170: ce57 a23d 4478 ee3d c49c f5bc a50b 2c3a
00000180: 6a92 6d3c b1b4 5cbc 5574 853e 1c88 93bd
00000190: afaf 7bbd 75e3 bc3c f55d b33d ec76 50bd
000001a0: 8407 fc3d fd08 7a3c 82f8 673c 7e32 ac3d
000001b0: 0c87 81bc 02eb 99bd 79fa cf3d db57 ddbc
000001c0: 82bd 95bd 0df1 d23d 9672 973d 1cb4 e3bb
000001d0: 4e22 c43c 876c d53c 10a7 74bd 5892 143d
000001e0: 5a7f 8cbd c55a eb3d a3b3 b9bd ced7 a8bd
000001f0: e814 96bb 7429 0bbd 469e 3e3d 7057 15bd
00000200: 0591 ccbb ee1c 9a3c fb7e 12bd 8fda c83d
00000210: acb7 113e c60f 883d cea2 683c bdc1 c2bd
00000220: 50e9 ec3b 2888 823d 9e3d fd3c da08 823d
00000230: d855 37bd d233 4d3d 0ece a1bc 3364 d6bd
00000240: 65ed 053d 3a27 9a3d f279 ac3c 871c 07bd
00000250: f8aa 08bd a218 a8b9 a313 6b3b 4fe5 56bd
00000260: 499b 923b 64e4 b93c 608b b73d 64ec a0bd
00000270: c5c9 de3c 15ff 44bd 42db a8bd a12a 87bc
00000280: 6699 bfbd c70d d33d 3aa9 e8bd 1c9e ce3d
00000290: f5d4 c03d a34d a7bb 82be c5bc 5ccc 173e
000002a0: 19bb 0c3d 9d66 16be 3490 293d 7d8b aebd
000002b0: ea24 6c3b 8fb3 69bd ab30 a03b fc2d ea3d
000002c0: fcca 943d 95d3 813d d210 31bd f7ed 0e3d
000002d0: 86fe d1bd f2e8 7cbd 5098 98bd 459d 58bc
000002e0: db9e 163d d430 7dbd a735 86bc d3a2 a83d
000002f0: 2040 ca3c 485e 04bd 27f2 913d dba1 a93d
00000300: 38d1 af3d 5c30 643d 323e dd3d 2179 b6bd
00000310: 67fc 06bd 287c b7bc 67df b9bd a6ff bfbd
00000320: 84f0 32bd 989b 86bd cc85 5fbe 0bb0 6c3d
00000330: 85d6 f93b 9dde 20be a8c2 4ebd afe6 593d
00000340: 060c 7b3b 2093 b6bd 95d4 903b 02f1 ec3d
00000350: 81d2 0bbb fa1d 72bd f178 4ebd 74b0 3d3c
00000360: 02a5 93bc 71c8 6dbd 9d5e 95bd 4b85 133d
00000370: 6bc1 abbd 9ca0 c93c 31c1 b5bd 47ac ecbc
00000380: 3352 8fbd 2635 fbbd 8c51 3c3d 1fd9 0bbd
00000390: 4366 3fbc 1e8b 20bd 2500 d13b 063e 1abe
000003a0: a88c 8d3d 7e03 853c dbd4 8b3d 8b6c b1bc
000003b0: 19a8 99bd 476d 05bd aa79 fc3c 032f 25bd
000003c0: 4649 833c 28c7 ac3c d71e e23d 12b6 82bd
000003d0: 0b47 3e3c b67b 88bc 03e5 acbd 06e6 2f3c
000003e0: a457 16bd 6329 143d b1a2 86bd ba14 9c3c
000003f0: 5a6f c23d 78c1 55bc d20f 593d d9ec a9bb

bias f4 [256]
-0.037657704 -0.062222086 -0.08735969 -0.041978672 0.07280347 -0.08756738 0.02932478 -0.025665332
0.061377384 0.08068722 0.0035636001 -0.054835454 0.0218619 -0.0037471338 0.078173496 0.02562819
0.05446564 0.06695043 0.015189157 0.04347927 0.03439224 -0.02775871 -0.11636503 -0.056305345
0.042960536 0.052465934 0.023768341 0.03315559 -0.029784955 -0.012427107 -0.012442619 0.116866514
0.04309073 0.018989423 0.057774667 0.082612254 0.05603727 0.05191783 -0.03527166 -0.03883335
-0.0011039302 0.0102319615 -0.00908495 -0.090443105 0.059858967 0.08001786 0.08419755 -0.032324847
0.06287787 0.037921898 -0.015980657 -0.037474245 0.009720973 0.013858316 0.059344463 0.04884025
-0.0061767586 -0.042690653 -0.07491949 -0.07503156 -0.03815354 -0.05714961 -0.059826076 0.0020486596
-0.010387965 0.053220145 -0.07591343 0.09602338 -0.06950506 0.1263503 0.0841595 -7.584705e-05
-0.11392525 0.048452903 -0.0365547 0.010650043 0.02974945 -0.01888556 0.015636092 0.078659624
0.084375665 0.057370864 0.017066078 0.029716225 -0.08364388 -0.022249693 0.1128898 -0.014305818
0.05623441 -0.028333664 0.03435367 -0.07223791 0.06591922 0.016593732 -0.0428159 -0.08138981
-0.05230431 -0.0408929 0.016933527 0.013659383 0.031324144 0.036321428 -0.05456682 0.13420469
0.012914969 0.11037013 0.1039702 0.056977507 0.074349456 0.040131733 0.008126465 -0.04826915
-0.011393675 0.055562187 -0.07379861 -0.11702357 -0.03741125 -0.059156764 0.051070485 0.008033257
0.023036655 -0.08267839 0.06567397 -0.035437264 0.036196623 0.008899777 -0.07370984 0.08529361
0.045722075 -0.049281187 0.07201673 0.0058417697 0.062438045 -0.020528888 -0.04768737 0.035565216
0.017245056 0.124170974 0.090165004 0.04558531 -0.031428747 0.061458096 -0.042452782 0.076249845
0.020922529 0.008957369 0.022884231 -0.031050764 -0.055199064 -0.0076089436 0.04687282 0.05093643
-0.04543437 0.01613312 -0.01649074 -0.036638543 0.06386451 0.051855035 -0.07257982 -0.01159654
-0.015458428 -0.010749758 0.063108705 0.036392506 0.06350135 -0.046023745 -0.0314113 0.070638046
-0.042639326 0.026267484 -0.027339155 0.007983219 -0.0934364 9.532518e-05 -0.099356264 0.01381506
-0.057952233 0.040570352 -0.02151725 -0.042680018 0.0553388 0.02833548 -0.014688943 -0.14414357
0.08090469 0.079825364 0.02511453 -0.013440419 -0.041683305 0.07247253 -0.068563424 -0.028573316
0.042151764 -0.09695964 -0.04992587 0.040852234 -0.03401801 -0.045997564 -0.06300037 -0.061213907
-0.06956956 -0.006818652 -0.05505634 0.017981676 -0.045228533 -0.06415504 -0.06988334 -0.03737477
0.07594832 0.092193894 0.04197021 -0.09939608 0.050308235 0.08583737 -0.06342946 0.085555315
0.037423395 -0.044170868 0.053279925 0.052478503 -0.0038226137 0.069436945 -0.012701177 0.08452515
-0.009988695 0.047265667 0.035293758 -0.09522581 0.020436443 -0.042029712 0.11266091 0.015853127
-0.008130811 0.038262367 -0.07310365 0.008975113 -0.037917916 -0.0333241 0.020696836 -0.014905659
0.01826271 0.018839004 -0.060028166 -0.044673983 -0.006972199 -0.06973213 0.03758762 -0.03201883
-0.0771859 -0.00065128936 0.05894629 -0.07669638 0.030121088 -0.009960515 0.022291193 -0.0073247766
00000000: f73e 1abd 96dc 7ebd a3e9 b2bd d4f1 2bbd
00000010: fc19 953d 8756 b3bd 853a f03c 1a40 d2bc
00000020: da66 7b3d 573f a53d 4a8b 693b 249b 60bd
00000030: ba17 b33c 7992 75bb 6d19 a03d 36f2 d13c
00000040: 5d17 5f3d 4f1d 893d f1db 783c 5217 323d
00000050: e1de 0c3d 3c66 e3bc ca50 eebd 6fa0 66bd
00000060: 63f7 2f3d 85e6 563d d3b5 c23c 28ce 073d
00000070: 94ff f3bc 119b 4bbc 20dc 4bbc b657 ef3d
00000080: e87f 303d b58f 9b3c 21a5 6c3d 9d30 a93d
00000090: 5687 653d caa7 543d 0479 10bd b80f 1fbd
000000a0: c0b1 90ba f5a3 273c 0bd9 14bc 3c3a b9bd
000000b0: ad2e 753d 67e0 a33d c46f ac3d 0f67 04bd
000000c0: 1dc6 803d fe53 1b3d dee9 82bc 987e 19bd
000000d0: b744 1f3c fd0d 633c 2e13 733d b70c 483d
000000e0: 6866 cabb 65dc 2ebd 646f 99bd 26aa 99bd
000000f0: e346 1cbd b615 6abd 300c 75bd ce42 063b
00000100: 4832 2abc 5efd 593d 8078 9bbd e8a7 c43d
00000110: ab58 8ebd f961 013e d15b ac3d 1310 9fb8
00000120: a451 e9bd 8d76 463d 62ba 15bd 857d 2e3c
00000130: 1eb5 f33c e4b5 9abc 4317 803c 4c18 a13d
00000140: 26cd ac3d b6fd 6a3d 29ce 8b3c 716f f33c
00000150: 7c4d abbd fd44 b6bc c432 e73d f362 6abc
00000160: 0d56 663d 001c e8bc 6fb6 0c3d 78f1 93bd
00000170: a800 873d 94ef 873c ba5f 2fbd b3af a6bd
00000180: 0b3d 56bd 507f 27bd 2eb8 8a3c 9bcb 5f3c
00000190: bf4d 003d c7c5 143d 7581 5fbd f46c 093e
000001a0: 4e99 533c bc09 e23d 54ee d43d 3f61 693d
000001b0: 8744 983d 2c61 243d dd24 053c dfb5 45bd
000001c0: 89ac 3abc 2d95 633d ba23 97bd 0eaa efbd
000001d0: 8a3c 19bd 5d4e 72bd 492f 513d ec9d 033c
000001e0: 5eb7 bc3c 4a53 a9bd 1380 863d aa26 11bd
000001f0: e942 143d 5fd0 113c 2ff5 96bd 6bae ae3d
00000200: 1247 3b3d 12db 49bd 827d 933d 516c bf3b
00000210: 09bf 7f3d 332c a8bc d553 43bd d5ac 113d
00000220: 8145 8d3c 5a4d fe3d 6ea8 b83d a9b7 3a3d
00000230: 6ebb 00bd 7cbb 7b3d f8e2 2dbd e128 9c3d
00000240: b965 ab3c eec1 123c b677 bb3c 2c5e febc
00000250: 6a18 62bd 7254 f9bb b7fd 3f3d b8a2 503d
00000260: 6419 3abd 9b29 843c 9717 87bc 4c12 16bd
00000270: 65cb 823d f265 543d bba4 94bd 6aff 3dbc
00000280: 5945 7dbc c11f 30bc 233f 813d 4f10 153d
00000290: ff0c 823d 6583 3cbd 23a9 00bd aeaa 903d
000002a0: 93a6 2ebd e82e d73c 5df6 dfbc 0ccc 023c
000002b0: 955b bfbd 51e9 c738 4c7b cbbd 9058 623c
000002c0: 525f 6dbd 192d 263d f244 b0bc 3ed1 2ebd
000002d0: f0aa 623d cf1f e83c e4a9 70bc 5f9a 13be
000002e0: 5cb1 a53d 7b7b a33d fdbc cd3c 3435 5cbc
000002f0: 1dbc 2abd 7a6c 943d fb6a 8cbd 9612 eabc
00000300: 54a7 2c3d c792 c6bd 127f 4cbd ac54 273d
00000310: 7856 0bbd f167 3cbd 5706 81bd 6fbb 7abd
00000320: 7c7a 8ebd 006f dfbb c282 61bd 4f4e 933c
00000330: 8e41 39bd b863 83bd ff1e 8fbd 4916 19bd
00000340: cb8a 9b3d 27d0 bc3d f4e8 2b3d 2c90 cbbd
00000350: 0210 4e3d 81cb af3d 4ee7 81bd a037 af3d
00000360: 4649 193d 83ec 34bd 0d3c 5a3d b3f3 563d
00000370: d184 7abb f534 8e3d 9918 50bc 861b ad3d
00000380: a0a7 23bc a599 413d 3090 103d c005 c3bd
00000390: 546a a73c 5927 2cbd c3ba e63d 6bde 813c
000003a0: 1837 05bc 00b9 1c3d 5eb7 95bd 5a0c 133c
000003b0: d14f 1bbd da7e 08bd 698c a93c dd36 74bc
000003c0: ae9b 953c 4154 9a3c 18e0 75bd 11fc 36bd
000003d0: 0b77 e4bb b8cf 8ebd 7af5 193d 2d26 03bd
000003e0: a413 9ebd 4abb 2aba aa71 713d fe12 9dbd
000003f0: 80c0 f63c 6e31 23bc 059c b63c ae04 f0bb

weight f4 [512, 256]
-0.05218459 -0.12585305 -0.04786551 -0.018963056 0.057081923 0.05433585 -0.02747519 -0.0883749
0.11258524 -0.073486224 0.085805334 -0.02469882 -0.009752015 -0.017234003 0.05799938 0.042597294
0.01361324 -0.0044923383 -0.009628534 -0.012802472 0.06430796 -0.09405994 0.08754399 0.0014129586
-0.0064585307 0.018644262 -0.06196474 -0.064682156 -0.0104137845 0.01132817 0.017276656 0.1354006
0.054172006 -0.024082968 -0.0049153827 0.01478765 -0.008476939 -0.012723632 -0.08401752 -0.0441394
-0.039875958 -0.05949931 0.021517938 0.043447692 0.05990184 0.0054314015 -0.013434299 0.028107265
0.1713787 0.03372147 0.04401972 -0.015570231 -0.015427093 -0.012028286 -0.07976497 -0.14642322
0.01974159 0.028195197 -0.03430155 -0.0016962363 0.06676682 -0.095376335 -0.0052554887 -0.03724427
-0.038633753 0.019838132 0.0644733 -0.029002162 -0.027289389 0.040456586 -0.049775455 0.111134134
-0.024180725 0.118660495 -0.061304264 -0.042645898 -0.03144761 0.008389653 0.0630644 0.036460154
-0.012676505 -0.006820327 -0.19930536 0.020670164 0.024173243 -0.103888504 0.036302652 -0.00041770723
-0.013542963 0.033254668 0.039035644 -0.009812725 -0.0123655675 0.012428018 -0.006912583 -0.01655565
-0.12894705 0.06504746 -0.043178786 -0.06199815 0.158862 -0.02119131 -0.03553756 0.036356602
0.04784779 0.034676824 0.022219826 0.050096028 -0.0062312772 0.070648365 -0.017846255 -0.003508267
0.023188805 -0.011494243 -0.038315535 -0.001986038 0.031949803 -0.08538973 0.055938683 0.0035395843
-0.022693839 -0.015222883 0.13195266 -0.016938299 0.07835113 0.1383873 -0.0039074514 0.023742056
0.14524226 -0.0048670373 0.019798633 0.011438946 -0.015594546 -0.10845376 0.03974992 -0.18382408
-0.017763365 -0.010207587 -0.01831138 0.002686339 0.11124986 0.06704956 -0.05317651 0.08907723
0.09370336 0.14949563 -0.09242872 -0.036236465 -0.01934306 -0.087263286 0.016293466 -0.003562752
0.02241175 -0.053951036 -0.052806415 -0.008656507 0.02065633 0.024026344 -0.13381077 0.12436297
0.015111179 0.02022326 0.07931964 0.17001255 0.0800922 -0.0013530162 0.016973618 0.08293776
0.020628473 0.056630082 0.044707775 -0.110074036 -0.0088007925 -0.06448404 0.014261211 -0.046497587
-0.08424011 0.02057748 -0.07354975 -0.060019244 0.006809095 0.07003714 -0.018084645 -0.027494604
0.13283494 -0.13116583 -0.020884806 0.014431417 -0.075724 -0.0050133853 -0.1518309 -0.0963391
0.040520836 -0.07857409 -0.04969426 0.02782149 0.004629373 -0.06761079 -0.16697192 -0.058105707
-0.022103826 0.024130775 0.054187443 0.22500971 0.046360098 -0.019534463 0.04058646 0.15327561
0.12034654 0.04676212 -0.0019861893 -0.21303456 -0.07610343 0.17954777 0.0077313436 0.16047922
0.0055982526 0.10064225 0.019743664 -0.07829832 -0.047388446 -0.0044448986 -0.15783514 0.048034407
0.031419702 -0.12492288 0.03305968 0.022130378 -0.0404977 -0.045874305 0.056152597 0.019564828
-0.042677842 0.10030644 -0.123683095 -0.17583735 -0.11541398 -0.014153849 0.040044878 -0.06745791
0.046091463 -0.059353393 -0.022192905 -0.073378086 -0.037752274 -0.10263665 -0.04658593 -0.073762774
0.014399627 -0.02636407 -0.015431137 0.04216678 -0.056687254 -0.0024158943 -0.008150962 -0.061939567
00000000: 82bf 55bd 9fdf 00be a00e 44bd 6958 9bbc
00000010: bcce 693d 458f 5e3d a613 e1bc e6fd b4bd
00000020: 1793 e63d f27f 96bd b5ba af3d 2e55 cabc
00000030: eac6 1fbc 532e 8dbc c290 6d3d 807a 2e3d
00000040: 110a 5f3c 7734 93bb 00c1 1dbc 76c1 51bc
00000050: e4b3 833d 7fa2 c0bd 434a b33d 0633 b93a
00000060: 15a2 d3bb dabb 983c bdce 7dbd 1478 84bd
00000070: 949e 2abc ca99 393c c687 8d3c 74a6 0a3e
00000080: 77e3 5d3d a549 c5bc 3811 a1bb e647 723c
00000090: dce2 0abc c876 50bc 6111 acbd 84cb 34bd
000000a0: f954 23bd 8cb5 73bd 6346 b03c 35f6 313d
000000b0: a25b 753d e6f9 b13b 891b 5cbc 3541 e63c
000000c0: e67d 2f3e 861f 0a3d 064e 343d 481a 7fbc
000000d0: ebc1 7cbc 4a12 45bc d15b a3bd f8ef 15be
000000e0: 1db9 a13c 9df9 e63c c87f 0cbd 3f54 deba
000000f0: 0bbd 883d ab54 c3bd 3c36 acbb 738d 18bd
00000100: 6d3e 1ebd 9483 a23c 940a 843d f195 edbc
00000110: ff8d dfbc ceb5 253d 59e1 4bbd 4b9a e33d
00000120: a816 c6bc 4604 f33d 2e1a 7bbd 77ad 2ebd
00000130: 36cf 00bd c174 093c e827 813d 3e57 153d
00000140: 1eb1 4fbc 0d7d dfbb b416 4cbe 7a54 a93c
00000150: f706 c63c 7fc3 d4bd 17b2 143d b7ff dab9
00000160: 4ee3 5dbc 0c36 083d d7e3 1f3d 8dc5 20bc
00000170: f398 4abc e39e 4b3c f382 e2bb b79f 87bc
00000180: b20a 04be 9a37 853d 3ddc 30bd c6f1 7dbd
00000190: b8ac 223e 6699 adbc d58f 11bd a9ea 143d
000001a0: 0bfc 433d 4909 0e3d 5a06 b63c 7e31 4d3d
000001b0: be2f ccbb 17b0 903d 4f32 92bc f4ea 65bb
000001c0: 73f6 bd3c 5952 3cbc c0f0 1cbd 3028 02bb
000001d0: ccdd 023d d0e0 aebd f61f 653d 5ff8 673b
000001e0: 6ee8 b9bc 6669 79bc 991e 073e 30c2 8abc
000001f0: 8f76 a03d 66b5 0d3e 140a 80bb b37e c23c
00000200: 63ba 143e ab7b 9fbb be30 a23c 6b6a 3b3c
00000210: 4480 7fbc 011d debd d0d0 223d 613c 3cbe
00000220: 7a84 91bc b93d 27bc bf01 96bc 4a0d 303b
00000230: f7d6 e33d 4851 893d 9dcf 59bd 1f6e b63d
00000240: 8ce7 bf3d 6215 193e 454b bdbd b06c 14bd
00000250: 5675 9ebc 18b7 b2bd e079 853c 0f7d 69bb
00000260: d998 b73c c3fb 5cbd 8a4b 58bd 06d4 0dbc
00000270: 7737 a93c e5d2 c43c b105 09be 03b2 fe3d
00000280: e194 773c 40ab a53c 5672 a23d c517 2e3e
00000290: 6107 a43d b157 b1ba 420c 8b3c 46db a93d
000002a0: 0bfd a83c f2f4 673d 801f 373d 7f6e e1bd
000002b0: 3331 10bc 3510 84bd dba7 693c 4174 3ebd
000002c0: 1486 acbd 1a92 a83c 40a1 96bd bdd6 75bd
000002d0: d41e df3b a26f 8f3d 4026 94bc 5d3c e1bc
000002e0: e205 083e 5650 06be 9d16 abbc c071 6c3c
000002f0: 2f15 9bbd 5347 a4bb 8f79 1bbe 6f4d c5bd
00000300: 2df9 253d 74eb a0bd 358c 4bbd e5e9 e33c
00000310: ffb1 973b 8777 8abd b0fa 2abe 4000 6ebd
00000320: 1513 b5bc e7ad c53c a7f3 5d3d f268 663e
00000330: 16e4 3d3d bd06 a0bc fd3d 263d 48f4 1c3e
00000340: 3f78 f63d a389 3f3d ba2a 02bb bb25 5abe
00000350: 1ddc 9bbd 5fdb 373e 3657 fd3b aa54 243e
00000360: 8c71 b73b 861d ce3d 77bd a13c df5a a0bd
00000370: 631a 42bd 83a6 91bb 899f 21be babf 443d
00000380: f2b1 003d 91d7 ffbd 9669 073d c44a b53c
00000390: ebe0 25bd b2e6 3bbd 4400 663d 6b46 a03c
000003a0: f6ce 2ebd 766d cd3d 904d fdbd b50e 34be
000003b0: 2a5e ecbd 8ce5 67bc 1906 243d 5f27 8abd
000003c0: 67ca 3c3d 8b1c 73bd e5cd b5bc 4047 96bd
000003d0: 21a2 1abd 2a33 d2bd e3d0 3ebd f010 97bd
000003e0: 6aec 6b3c 76f9 d7bc e1d2 7cbc 13b7 2c3d
000003f0: e530 68bd fb53 1ebb 9d8b 05bc 58b4 7dbd

bias f4 [512]
0.09106789 -0.07119864 0.1271245 0.045405295 -0.039306413 -0.0827946 0.027477814 -0.062139057
-0.15090737 0.019709097 -0.014416868 0.007872412 0.029596414 0.0056100353 -0.0229841 -0.08005616
-0.097498335 -0.03249824 0.10554822 -0.06948604 0.01534602 0.12457868 -0.0038817876 -0.1462879
-0.014337774 0.11074696 -0.05758286 -0.09092331 0.05545451 -0.1264403 -0.102316625 0.14188251
-0.0007216699 -0.012423263 0.009142305 -0.0031384516 0.08577372 0.04150152 0.0021266188 0.043310706
-0.08343385 -0.030436078 -0.039369926 -0.07941858 -0.105689205 0.010459049 0.06762111 0.08244288
-0.024582533 -0.12699407 -0.11880004 0.0070707323 -0.018454228 -0.16287681 -0.034812115 -0.09188306
-0.023395231 -0.08591408 -0.08305797 -0.03341709 -0.010964809 -0.13348106 -0.13382222 -0.080829166
-0.09703832 0.009194504 0.04376339 0.05971448 -0.12593955 -0.109556675 0.01303435 0.029417722
-0.09035922 -0.037513502 -0.13917802 0.0123394765 0.023805432 -0.06408494 -0.04284668 0.0916246
-0.09281534 0.07960431 -0.12094468 -0.10431285 0.0021825705 -0.136992 0.04568606 -0.049759608
-0.060736775 0.024603786 0.0832504 -0.11040098 0.073548675 -0.091388784 -0.056587934 0.0779632
-0.0915425 0.064724155 0.03956479 -0.045099407 -0.056271136 -0.11725204 -0.088571966 -0.14583346
-0.0436395 -0.051644392 0.09029995 -0.08151686 -0.09977092 -0.1095802 0.0761871 0.06823895
0.008941633 -0.0961927 0.026866078 -0.055931013 0.06568823 0.041550007 -0.11172039 0.10026511
0.07982899 -0.14566347 -0.012830329 0.019966163 0.09782033 -0.015189016 -0.011863642 -0.026392028
0.05530021 0.07905687 -0.11705294 -0.13671707 -0.12774679 0.07634645 0.124805205 -0.03990945
-0.053420696 0.035390027 0.07371992 0.010107696 0.050843757 -0.05889608 -0.015128839 0.0638851
-0.13716982 0.017246932 -0.008123313 -0.015050703 -0.06744735 -0.08024757 -0.09171057 -0.017548438
-0.04799034 0.04015477 -0.073974974 -0.054447174 -0.09391312 -0.047841873 0.090907805 -0.06614069
-0.037843376 -0.119629785 0.1345612 -0.07502595 0.06239466 -0.10120824 -0.07678958 -0.0004025336
-0.004579643 0.07954472 -0.13421108 0.1285997 -0.09468816 -0.085551895 0.07212622 -0.017018307
-0.046226133 0.008385202 0.03358348 0.05113782 -0.050576355 0.008751549 -0.07234577 -0.1450391
-0.03983746 -0.13411365 0.019097961 -0.0030138968 -0.20198835 0.02514657 0.06892061 -0.06704476
0.12470837 -0.123863794 -0.026784964 -0.025391562 -0.15659857 -0.09263271 -0.035816725 0.0034461424
-0.057554044 -0.057077102 -0.060327623 -0.18638296 -0.04702442 -0.051933706 -0.13028054 -0.11824902
-0.045833863 -0.10145155 0.011064779 -0.02267898 -0.0053029708 -0.060831428 -0.042447664 0.042015713
0.0013247614 0.07548576 -0.05815744 0.11003453 -0.049974926 0.082264826 0.078756705 -0.08122917
-0.09208147 -0.1328655 0.05751085 -0.054035332 0.027317317 0.10861088 -0.043637555 -0.01319244
0.07999929 -0.05194983 -0.024718804 -0.0005749197 -0.14437865 -0.086055934 -0.0149616245 0.010357328
-0.16991135 -0.108778395 -0.033731747 0.08059238 0.014146056 -0.014247098 0.0062599964 -0.19989163
0.071089536 -0.10382445 -0.09679793 -0.017145308 -0.016305102 -0.057938065 -0.0840978 0.09287052
00000000: cd81 ba3d 98d0 91bd ed2c 023e e7fa 393d
00000010: c3ff 20bd 3790 a9bd 2719 e13c 8685 7ebd
00000020: 7687 1abe f974 a13c ba34 6cbc 4afb 003c
00000030: 2e74 f23c 63d4 b73b 2749 bcbc 7cf4 a3bd
00000040: 35ad c7bd e01c 05bd aa29 d83d b24e 8ebd
00000050: e06d 7b3c 1b23 ff3d 9765 7ebb 7fcc 15be
00000060: fce8 6abc 4dcf e23d 01dc 6bbd 0036 babd
00000070: 4524 633d 9179 01be 618b d1bd a649 113e
00000080: 722e 3dba f18a 4bbc 9bc9 153c 7bae 4dbb
00000090: 22aa af3d 7ffd 293d be5e 0b3b 9166 313d
000000a0: 5edf aabd 1555 f9bc 5c42 21bd 35a6 a2bd
000000b0: 9573 d8bd 6e5c 2b3c f07c 8a3d d0d7 a83d
000000c0: 4f61 c9bc bc0a 02be 6f4d f3bd 9ab1 e73b
000000d0: 522d 97bc 2ec9 26be 2697 0ebd 302d bcbd
000000e0: 5ba7 bfbc b9f3 afbd 4c1a aabd 5ce0 08bd
000000f0: bea5 33bc 42af 08be b108 09be c389 a5bd
00000100: 07bc c6bd 8ba4 163c 3e41 333d 2c97 743d
00000110: 4cf6 00be 405f e0bd 078e 553c 6ffd f03c
00000120: 410e b9bd c2a7 19bd af84 0ebe 842b 4a3c
00000130: 9c03 c33c f73e 83bd 0080 2fbd aea5 bb3d
00000140: f815 bebd 9607 a33d d8b1 f7bd faa1 d5bd
00000150: 7509 0f3b a147 0cbe 4e21 3b3d bbd0 4bbd
00000160: 20c7 78bd e18d c93c 307f aa3d e919 e2bd
00000170: b0a0 963d 0b2a bbbd c0c8 67bd 2cab 9f3d
00000180: a27a bbbd 198e 843d b00e 223d 28ba 38bd
00000190: 907c 66bd d621 f0bd 3865 b5bd 5e55 15be
000001a0: 55bf 32bd 1289 53bd 2eef b83d 50f2 a6bd
000001b0: b254 ccbd 956b e0bd fb07 9c3d ddc0 8b3d
000001c0: ed7f 123c ae00 c5bd 4016 dc3c eb17 65bd
000001d0: 8d87 863d 5730 2a3d a9cd e4bd cb57 cd3d
000001e0: 627d a33d ce28 15be 4d36 52bc 1490 a33c
000001f0: 0656 c83d 5adb 78bc b95f 42bc 1834 d8bc
00000200: 7982 623d 91e8 a13d 74b9 efbd 8fff 0bbe
00000210: 0ed0 02be 875b 9c3d df99 ff3d 1778 23bd
00000220: a9cf 5abd 22f5 103d 78fa 963d c09a 253c
00000230: 8b41 503d 043d 71bd f3de 77bc 31d6 823d
00000240: 3f76 0cbe 7049 8d3c a517 05bc 3997 76bc
00000250: d621 8abd d758 a4bd c0d2 bbbd bec1 8fbc
00000260: 8591 44bd 5479 243d 3180 97bd 0004 5fbd
00000270: 8655 c0bd d7f5 43bd df2d ba3d c574 87bd
00000280: a801 1bbd 7600 f5bd 69ca 093e 35a7 99bd
00000290: 8b91 7f3d 4446 cfbd db43 9dbd 250b d3b9
000002a0: d410 96bb 58e8 a23d a16e 09be a4af 033e
000002b0: deeb c1bd d535 afbd e9b6 933d fa69 8bbc
000002c0: 9d57 3dbd 1662 093c d58e 093d e475 513d
000002d0: 2729 4fbd a862 0f3c 052a 94bd 2185 14be
000002e0: 9b2c 23bd 1755 09be 5473 9c3c cc84 45bb
000002f0: 09d6 4ebe 2e00 ce3c 4026 8d3d c34e 89bd
00000300: 1a67 ff3d 4dac fdbd 246c dbbc f701 d0bc
00000310: 605b 20be 38b6 bdbd 8fb4 12bd add8 613b
00000320: cabd 6bbd aec9 69bd 191a 77bd 2ddb 3ebe
00000330: ae9c 40bd 70b8 54bd 4368 05be 8b2c f2bd
00000340: 4abc 3bbd d5c5 cfbd 0c49 353c 45c9 b9bc
00000350: 8bc4 adbb 602a 79bd 9add 2dbd ab18 2c3d
00000360: 9ea3 ad3a 4798 9a3d 7f36 6ebd c959 e13d
00000370: 82b2 4cbd 767a a83d 324b a13d 7b5b a6bd
00000380: 3695 bcbd e50d 08be 7f90 6b3d 2754 5dbd
00000390: 91c8 df3c 626f de3d 4bbd 32bd 1b25 58bc
000003a0: abd6 a33d 58c9 54bd 177f cabc 35b6 16ba
000003b0: ffd7 13be 183e b0bd 9a21 75bc c8b1 293c
000003c0: 3efd 2dbe 35c7 debd 4d2a 0abd 9e0d a53d
000003d0: dcc4 673c a96c 69bc a820 cd3b 64b0 4cbe
000003e0: 6497 913d eaa1 d4bd fe3d c6bd 5174 8cbc
000003f0: 4792 85bc 7750 6dbd 783b acbd e632 be3d

weight f4 [128, 512]
0.048469044 -0.060330015 -0.020813113 0.0059891557 0.013386904 -0.047494378 0.0062468555 -0.047981277
-0.037088674 -0.060766455 -0.010705517 -0.017015604 -0.0027379286 0.007928589 0.009981261 0.10508869
-0.021308415 -0.0011770397 0.03365463 -0.005296502 -0.0008844338 -0.021102183 0.052871265 -0.040103327
0.041508004 -0.022296866 -0.12386866 0.0105106495 0.0022931148 0.017405514 0.02741187 0.005916166
-0.05251004 -0.026044833 0.044049222 0.02075917 0.02263438 -0.023081362 0.04557974 0.050822217
-0.02492745 0.042758483 0.015570248 -0.047925405 0.029825049 -0.04343463 -0.02690396 -0.022160852
0.028543524 0.031534705 -0.06467688 -0.06395375 0.016012644 0.050188184 0.04154596 0.051310204
-0.029160356 -0.06250817 -0.052064292 0.1285456 0.050133478 -0.032642514 -0.062364157 0.0038122456
-0.010786632 -0.052127037 0.029018108 0.062871836 0.016385514 -0.029506853 -0.03693767 0.06615896
-0.03733184 0.012222196 0.023080036 0.054117158 -0.054937564 -0.018531848 0.07859473 0.046088863
-0.016677646 0.044660266 -0.00087676535 -0.11238984 0.028335936 -0.03192532 0.0020999904 -0.01363206
-0.024653262 -0.028572833 0.09774166 0.0020365664 0.058748674 0.022839274 0.108474776 -0.025770681
-0.0039394083 -0.012216984 -0.04350733 0.013181867 -0.06322702 -0.009469516 0.011159123 -0.048640605
-0.055427987 -0.07668724 0.016015377 0.0021216616 -0.009658456 -0.03224524 0.004435753 -0.045793336
-0.022413805 -0.0440451 0.031063076 0.077738754 0.03756326 0.026860662 -0.08141604 0.027571851
0.056086093 -0.018423036 -0.006588521 -0.05939298 -0.019625252 -0.03977355 -0.0495624 0.04229171
0.02175114 0.033331957 0.010213769 0.02257968 -0.035735007 -0.03112411 -0.10693966 0.07362969
-0.049573097 0.04557429 -0.010311942 0.012192979 0.0021240213 -0.104717016 -0.050159566 -0.028805342
-0.03980547 -0.034435395 -0.006142753 0.00063332723 -0.02037595 -0.02026916 -0.19551796 0.072416686
0.013711013 -0.03741726 -0.048579898 -0.067161076 0.0051447293 0.031717386 0.048864905 -0.005574335
0.018580312 -0.0805938 -0.050941978 -0.05844081 -0.077817254 -0.010247829 0.10361193 0.06673659
-0.02522235 0.035924524 -0.022242649 0.046918083 -0.016330823 -0.008438576 0.06225216 -0.01816626
-0.0049517937 -0.016466921 -0.021122517 -0.010045327 0.029776646 0.0048078536 -0.025770253 0.025349401
-0.015316332 0.00020598387 0.011736627 -0.060877208 -0.10206548 -0.098459214 0.020858068 -0.05118791
0.029506601 -0.11662657 -0.054994117 0.021306582 0.009630968 -0.025081813 -0.04392659 0.00068244094
-0.017015105 0.019218076 -0.050496798 -0.052882705 -0.026909808 0.04285345 -0.0767313 -0.02270225
-0.022140857 0.043155123 -0.029000176 -0.043274123 0.002138647 -0.05914951 0.03446069 0.0180039
-0.032237317 0.05639318 -0.0020890534 -0.076160006 -0.016420612 0.030204965 0.018702993 -0.04682766
-0.017046906 -0.04109796 0.033608895 0.065481536 -0.038714726 -0.041729476 -0.025596898 0.022783453
0.059023205 0.03594795 -0.04201451 -0.0071543623 -0.11140089 0.005010537 0.023932764 -0.0025333115
0.0061515765 -0.06728292 -0.027336432 0.057803463 -0.017182862 0.04787183 -0.020855438 -0.044319753
0.007430038 -0.00059969473 0.033421453 -0.038504574 -0.012251474 0.021566411 -0.041003242 0.00915017
00000000: 7a87 463d 9b1c 77bd 4380 aabc ae40 c43b
00000010: bf54 5b3c 7789 42bd 6cb2 cc3b 0488 44bd
00000020: 4bea 17bd 3fe6 78bd 3166 2fbc 4f64 8bbc
00000030: d26e 33bb eae6 013c 7188 233c bd38 d73d
00000040: fc8e aebc e646 9aba 70d9 093d 478e adbb
00000050: 59d9 67ba 7cde acbc 8a8f 583d 6343 24bd
00000060: 4c04 2a3d eba7 b6bc daae fdbd dc34 2c3c
00000070: 1548 163b 0296 8e3c dc8e e03c 66dc c13b
00000080: c514 57bd f95b d5bc f56c 343d 230f aa3c
00000090: bc6b b93c 2015 bdbc d2b1 3a3d f52a 503d
000000a0: a734 ccbc 8523 2f3d 5a1a 7f3c 6e4d 44bd
000000b0: a953 f43c 83e8 31bd b265 dcbc ad8a b5bc
000000c0: 1cd4 e93c 892a 013d 5075 84bd 2ffa 82bd
000000d0: f32c 833c 2092 4d3d 192c 2a3d a62a 523d
000000e0: b3e1 eebc 4904 80bd 5e41 55bd 75a1 033e
000000f0: c358 4d3d 28b4 05bd 8f71 7fbd ded6 793b
00000100: 6aba 30bc 2983 55bd 62b7 ed3c f3c2 803d
00000110: ea3a 863c 5bb8 f1bc f44b 17bd 597e 873d
00000120: 45e9 18bd 9b3f 483c 5812 bd3c f4a9 5d3d
00000130: 3606 61bd 1ad0 97bc 46f6 a03d adc7 3c3d
00000140: 8f9f 88bc afed 363d bad6 65ba a52c e6bd
00000150: c420 e83c 20c4 02bd fe9f 093b 0159 5fbc
00000160: a3f5 c9bc 9311 eabc c82c c83d ea77 053b
00000170: 73a2 703d 6e19 bb3c 0628 de3d 091d d3bc
00000180: 2716 81bb bf29 48bc be34 32bd c2f8 573c
00000190: 2b7d 81bd 0726 1bbc c1d4 363c 5f3b 47bd
000001a0: 7508 63bd 330e 9dbd ae32 833c 930b 0b3b
000001b0: 803e 1ebc 9613 04bd cb59 913b cb91 3bbd
000001c0: 289d b7bc a368 34bd fe77 fe3c 7f35 9f3d
000001d0: efdb 193d e40a dc3c 74bd a6bd 5dde e13c
000001e0: 88ba 653d e8eb 96bc 85e4 d7bb 0e46 73bd
000001f0: 23c5 a0bc 97e9 22bd f101 4bbd 123a 2d3d
00000200: 722f b23c 1787 083d a757 273c 05f9 b83c
00000210: df5e 12bd fdf7 febc 2e03 dbbd 2acb 963d
00000220: 290d 4bbd 1bac 3a3d 6bf3 28bc 10c5 473c
00000230: 2a33 0b3b e075 d6bd 1e74 4dbd 2ef9 ebbc
00000240: 0f0b 23bd 210c 0dbd 2649 c9bb df05 263a
00000250: 77eb a6bc 820b a6bc dc35 48be 334f 943d
00000260: 28a4 603c d742 19bd b7fb 46bd bf8b 89bd
00000270: 1e95 a83b 17ea 013d 9126 483d e9a8 b6bb
00000280: bd35 983c 5d0e a5bd 89a8 50bd a15f 6fbd
00000290: a75e 9fbd 83e6 27bc 7e32 d43d 31ad 883d
000002a0: 1a9f cebc 9825 133d 3736 b6bc 2d2d 403d
000002b0: 38c8 85bc f441 0abc 1ffc 7e3d 69d1 94bc
000002c0: a842 a2bb a3e5 86bc 2109 adbc 2895 24bc
000002d0: 27ee f33c 338b 9d3b 231c d3bc 8ca9 cf3c
000002e0: 5af1 7abc 60fd 5739 fb4a 403c 615a 79bd
000002f0: b507 d1bd fca4 c9bd 8ade aa3c 6aaa 51bd
00000300: d4b7 f13c e9d9 eebd 8341 61bd 248b ae3c
00000310: 35cb 1d3c 6078 cdbc 5eec 33bd d6e5 323a
00000320: 4363 8bbc 3a6f 9d3c bbd5 4ebd 899b 58bd
00000330: f571 dcbc 1987 2f3d 4d25 9dbd 12fa b9bc
00000340: be60 b5bc 6dc3 303d c791 edbc 3540 31bd
00000350: 8b28 0c3b c246 72bd a726 0d3d ea7c 933c
00000360: 470b 04bd 89fc 663d 80e8 08bb c7f9 9bbd
00000370: 8584 86bc 6770 f73c 0537 993c 5cce 3fbd
00000380: f4a5 8bbc 5656 28bd 7ba9 093d 2f1b 863d
00000390: 5593 1ebd 87ec 2abd 96b0 d1bc 5da4 ba3c
000003a0: 51c2 713d 283e 133d 6817 2cbd 246f eabb
000003b0: 2626 e4bd 6e2f a43b a50e c43c ea05 26bb
000003c0: 2a93 c93b a1cb 89bd a7f0 dfbc 53c3 6c3d
000003d0: 13c3 8cbc 4115 443d 06d9 aabc a188 35bd
000003e0: ad77 f33b d534 1dba efe4 083d f9b6 1dbd
000003f0: 68ba 48bc 0bac b03c 04f3 27bd 98ea 153c

bias f4 [128]
0.061678994 -0.13230771 0.023034697 0.0029121633 0.053556126 0.004577194 -0.028898308 -0.06730001
0.0800885 -0.07808765 0.043608125 -0.14481004 -0.011124742 -0.0072356304 -0.041399185 -0.047884863
0.009944468 0.0045338064 -0.07817175 0.06456184 -0.08696961 -0.10177705 0.0683511 -0.070249654
0.029606622 0.014099317 -0.00013911896 -0.06855636 -0.07415854 -0.08655713 0.12580383 -0.04343134
-0.024642384 -0.08736645 -0.060467035 0.051267274 0.09911493 -0.06671527 0.026819468 -0.041742142
0.03332244 -0.05547088 0.04606339 -0.09308883 0.055100404 -0.09120466 -0.030913351 0.06760702
0.078857735 0.04372566 0.03721471 0.10033481 0.058919795 0.06274937 0.07148078 0.075894244
-0.061225645 -0.025250766 0.03721024 0.016576156 -0.0231728 0.05417664 0.02294827 -0.028191317
0.043154534 -0.047843587 -0.09299663 0.038301434 0.048780754 0.06672719 -0.11428811 -0.10224502
-0.0037002123 -0.04589971 0.01808506 0.068354785 0.048359644 0.06183984 -0.07195227 0.05230507
0.03950006 0.016273687 -0.07882731 -0.049278744 0.07790413 -0.06492313 0.082217254 -0.039611153
0.040250186 -0.08445886 -0.05827913 -0.06822469 0.07612841 -0.020304313 0.050782368 -0.11426307
0.17950232 0.0027379629 -0.05925758 -0.066484205 0.06420392 -0.08893233 -0.06200354 0.056820344
-0.095392555 0.025023323 0.024305305 0.08596258 0.007717307 -0.0010544751 0.07957429 0.025188642
-0.044708434 0.053507883 -0.051364347 0.007647318 -0.021939505 -0.11894536 0.009147805 -0.015561682
0.04284246 -0.09548495 -0.025166605 -0.05648814 -0.07301763 0.002994646 -0.08858784 0.05714856
00000000: 1da3 7c3d ac7b 07be 43b3 bc3c fed9 3e3b
00000010: ab5d 5b3d 49fc 953b 25bc ecbc 96d4 89bd
00000020: 7105 a43d 6bec 9fbd 6f9e 323d 1549 14be
00000030: 8d44 36bc de18 edbb 3192 29bd eb22 44bd
00000040: 1fee 223c 5390 943b 8318 a0bd ff38 843d
00000050: 1f1d b2bd 7c70 d0bd a9fb 8b3d 0ddf 8fbd
00000060: 9689 f23c d200 673c 76e0 11b9 4767 8cbd
00000070: 6fe0 97bd dd44 b1bd b8d2 003e 10e5 31bd
00000080: d3de c9bc 2eed b2bd 48ac 77bd a2fd 513d
00000090: c5fc ca3d 04a2 88bd 80b4 db3c cff9 2abd
000000a0: 1c7d 083d 6f35 63bd f7ac 3c3d 5ba5 bebd
000000b0: f6b0 613d 82c9 babd ff3d fdbc 8d75 8a3d
000000c0: 2a80 a13d ad19 333d 746e 183d 567c cd3d
000000d0: e255 713d be82 803d 8464 923d 716e 9b3d
000000e0: bec7 7abd b2da cebc c469 183d b8ca 873c
000000f0: e2d4 bdbc 53e8 5d3d 03fe bb3c 7af1 e6bc
00000100: cfc2 303d a3f7 43bd 0475 bebd f7e1 1c3d
00000110: 54ce 473d 44a8 883d e20f eabd d665 d1bd
00000120: 437f 72bb 5601 3cbd 1f27 943c 98fd 8b3d
00000130: c314 463d c64b 7d3d b65b 93bd d73d 563d
00000140: d1ca 213d 6550 853c 3670 a1bd 82d8 49bd
00000150: 338c 9f3d 6bf6 84bd 8561 a83d 4e3f 22bd
00000160: 61dd 243d c4f8 acbd 19b6 6ebd 63b9 8bbd
00000170: 36e9 9b3d 3b55 a6bc 2c01 503d c202 eabd
00000180: 75cf 373e 656f 333b 14b8 72bd df28 88bd
00000190: 587d 833d 2722 b6bd 6df7 7dbd 73bc 683d
000001a0: 2c5d c3bd b6fd cc3c eb1b c73c 260d b03d
000001b0: 77e1 fc3b 5036 8aba d8f7 a23d 6958 ce3c
000001c0: 3120 37bd 152b 5b3d 6c63 52bd 5a96 fa3b
000001d0: 7aba b3bc a099 f3bd ade0 153c 6df6 7ebc
000001e0: 937b 2f3d 9d8d c3bd 322a cebc 1c60 67bd
000001f0: 448a 95bd d341 443b 8b6d b5bd 9c14 6a3d

weight f4 [1, 128]
0.06324288 -0.026207358 0.053579926 0.031444233 3.292176e-05 0.0014400942 -0.090916224 -0.06724958
0.020207997 -0.031310476 0.009541328 -0.03834666 0.07230549 0.024185231 -0.07859346 -0.0499843
-0.00030531862 0.00024224557 -0.10965045 0.04321749 -0.017185202 -0.08445789 0.039136633 -0.017052779
0.008039516 0.021577053 0.040736258 -0.035376675 -0.058637843 -0.061377782 0.049345147 -0.055811305
-0.061639905 -0.03125038 -0.054603714 0.01896433 0.04541038 -0.0013995627 0.04147098 -0.023466665
0.018187588 -0.021528294 0.057796486 -0.07419654 0.040996466 -0.068328634 -0.0966686 -0.00020155121
0.046895605 0.007406745 0.041738063 0.057674866 0.06970089 0.0036694228 0.043965686 0.09057266
-0.04391335 -0.019785816 0.00039769142 0.067453444 0.041830923 0.012419886 0.082036905 -0.036778543
0.0966868 -0.04155658 -0.07432498 0.019122897 0.033099324 0.045293998 -0.023192076 -0.033981286
-0.084890306 -0.10566455 0.055423073 0.044715893 0.01927789 0.016387383 -0.06983508 0.032451026
0.051855713 0.043428622 -0.011641753 -0.047070067 0.026847143 -0.028351584 0.00907962 1.2516568e-05
0.07021507 -0.07314311 -0.07871027 -0.00079518196 0.06807313 0.06470931 0.033613123 -0.05107461
0.04635414 0.0003505831 -0.05828324 -0.013044301 0.103793144 -0.04975481 -0.04880489 0.03152904
-0.081562236 0.03239918 0.07082573 0.08246737 0.015599832 0.10051474 0.041834924 0.045069367
-0.09291776 0.018478267 -0.101747245 0.0007332559 -0.01022611 -0.06541446 -0.0006381209 -0.014660972
0.056505363 -0.0512639 0.0002550362 -0.088365406 -0.1031331 0.064646915 -0.033068992 0.03338906
00000000: 7c85 813d d0b0 d6bc a076 5b3d abcb 003d
00000010: 7815 0a38 8bc1 bc3a 4932 babd 26ba 89bd
00000020: 3e8b a53c 6a3f 00bd 3b53 1c3c 6311 1dbd
00000030: e714 943d 1b20 c63c 9cf5 a0bd 56bc 4cbd
00000040: 2c13 a0b9 4d03 7e39 6a90 e0bd d304 313d
00000050: fbc7 8cbc 42f8 acbd bc4d 203d 45b2 8bbc
00000060: 2db8 033c 5cc2 b03c 10db 263d 22e7 10bd
00000070: 3c2e 70bd 4567 7bbd 231e 4a3d 659a 64bd
00000080: 207a 7cbd 6600 00bd 25a8 5fbd 155b 9b3c
00000090: 3c00 3a3d 8871 b7ba 79dd 293d 2a3d c0bc
000000a0: 23fe 943c 1b5c b0bc 02bc 6c3d 5bf4 97bd
000000b0: e9eb 273d e2ef 8bbd 30fa c5bd 7e57 53b9
000000c0: 9b15 403d 48b4 f23b 88f5 2a3d 7b3c 6c3d
000000d0: 57bf 8e3d b37a 703b 5d15 343d 297e b93d
000000e0: 7cde 33bd dd15 a2bc 3d81 d039 0825 8a3d
000000f0: e756 2b3d c77c 4b3c f702 a83d 19a5 16bd
00000100: bb03 c63d 3c37 2abd b237 98bd 9fa7 9c3c
00000110: 2893 073d 3386 393d 4ffd bdbc f62f 0bbd
00000120: f8da adbd a866 d8bd 4e03 633d 0328 373d
00000130: aaec 9d3c d53e 863c b205 8fbd 5eeb 043d
00000140: a866 543d 36e2 313d 0dbd 3ebc 8bcc 40bd
00000150: 8aee db3c 9541 e8bc b0c2 143c 40fe 5137
00000160: ebcc 8f3d 0ecc 95bd da32 a1bd c273 50ba
00000170: ed69 8b3d 5186 843d eaad 093d 9c33 51bd
00000180: d7dd 3d3d 78ce b739 68ba 6ebd c4b7 55bc
00000190: 8091 d43d b3cb 4bbd a3e7 47bd 9824 013d
000001a0: 1a0a a7bd 01b5 043d 150d 913d a7e4 a83d
000001b0: 7096 7f3c acda cd3d 195b 2b3d a89a 383d
000001c0: ab4b bebd bc5f 973c dc60 d0bd f837 403a
000001d0: 6a8b 27bc 04f8 85bd 9247 27ba 9334 70bc
000001e0: 2b72 673d 18fa 51bd 61b6 8539 ecf8 b4bd
000001f0: 7237 d3bd 9a65 843d 5a73 07bd f8c2 083d
