result/aug74thenVAE40_11.pt (torch, 979822 bytes, 15 tensors)

weight f4 [128, 13]
000000 00 da f2 3a 0f ee 0e bc dc d1 c4 39 85 d3 70 be
       0.0018528104 -0.00872375 0.0003754039 -0.23518188
000010 00 36 44 be b7 6f 3a 3e 0c 74 8a bd 10 b1 9a be
       -0.19161224 0.18206678 -0.067604154 -0.30213213
000020 58 51 60 3e 95 11 b5 bd 99 4b e7 bd 33 95 53 be
       0.2190603 -0.08841244 -0.11293716 -0.20662384
000030 e7 dc 4c 3e ec 93 da bd fa a9 b7 3d da 57 59 3e
       0.20006143 -0.10672745 0.08967967 0.21224919
000040 fc fa ed bc 5b 1d 3b bd a0 e1 8b be 20 bd 5d bd
       -0.029050343 -0.045682292 -0.27320576 -0.05413544
000050 9c ba 27 be e5 57 28 3e 88 97 22 bc ed a7 98 be
       -0.1637978 0.16439779 -0.009923823 -0.29815617
000060 12 51 27 3e 21 c9 29 bf 00 37 1d 3c 9d 88 4c 3d
       0.1633952 -0.66322523 0.009595633 0.049934972
000070 b9 1e 29 3e 0d 9a 64 bd ec ee 64 be 52 af 89 3d
       0.16515626 -0.055810977 -0.22356766 0.06722893
000080 8c 48 9f be 87 d7 c5 bd 7d 25 a6 3d 13 ca 65 bb
       -0.31110036 -0.09660249 0.08112619 -0.0035063073
000090 b7 d2 bf 3e 1e 4a cd 3d 52 7d 11 3e 91 03 0f be
       0.3746545 0.10023902 0.14207962 -0.13966204
0000a0 06 c2 52 3e 78 99 c6 bc 1c ce 03 3e 47 b1 54 3e
       0.20581827 -0.024243101 0.12871593 0.20770751
0000b0 11 c6 96 3c ec 45 25 be 7c e5 a3 3e 3b 28 eb 3c
       0.018404992 -0.16139954 0.3201102 0.028705707
0000c0 82 a6 9f 3d 7c 18 a1 bd a9 90 5c be 39 44 b7 3e
       0.07795431 -0.07865998 -0.21539558 0.35794237
0000d0 60 f1 ff 3d 35 92 38 3e ef d3 60 3e 33 03 88 bc
       0.124972105 0.18024524 0.21955846 -0.016603088
0000e0 0f b4 2e 3d ca ac f8 bd b0 13 47 be ab 08 98 3e
       0.042652186 -0.12142332 -0.19441104 0.29694113
0000f0 04 96 8c 3d 39 f5 65 be 48 8c ca 3e 0e 1d 69 be
       0.06864551 -0.22456826 0.3956015 -0.2276499
000100 92 5f b0 3d 00 68 47 ba 17 bb 06 3e 5c 86 72 be
       0.086119786 -0.0007606745 0.13157307 -0.23684067
000110 5f 90 a4 bd 04 2f 01 3e 4d ef 88 3e 86 29 36 be
       -0.08035349 0.12615591 0.26745072 -0.17789277
000120 03 16 0c be 83 4a 5b 3e ae d9 69 be d5 d8 fb be
       -0.13680272 0.21415143 -0.22836944 -0.49188867
000130 8f 03 7c 3e f0 c7 44 be 40 94 54 bc 10 43 0b be
       0.24610732 -0.19216895 -0.012974799 -0.13599801
000140 3f 44 5d 3d 61 2a 99 3e 90 b4 e1 bd 61 71 34 3e
       0.054020163 0.29915145 -0.11020768 0.17621376
000150 62 c6 76 be f4 0d c4 bd 44 a7 7c bd f7 dd e3 3c
       -0.24099115 -0.09572974 -0.061682954 0.027815802
000160 ec db 11 bc eb 29 91 3e 35 f2 73 3e e0 9c 57 3c
       -0.008902531 0.28352293 0.23822863 0.0131599605
000170 35 ff 5b 3e 14 ab ce 3d 7c c6 77 3e de 87 1c 3e
       0.21484073 0.10091224 0.2419681 0.15286204
000180 1c de a0 bd 94 34 83 be fd e2 2c 3e 68 64 54 be
       -0.07854864 -0.2562605 0.16883464 -0.20741427
000190 ef 00 2a be 8c ed 96 3e ed bd c2 3e 34 e3 6e 3e
       -0.16601919 0.2947811 0.38035527 0.23328859
0001a0 18 d8 60 3d e1 6e c7 bd 4b 6f 23 be 4d 77 8a 3c
       0.054893583 -0.09737945 -0.15960424 0.01690259
0001b0 2c d9 65 3e 45 2c 98 bd c7 b5 d7 bc 15 a4 92 bc
       0.22446126 -0.07430319 -0.026331795 -0.017900506
0001c0 a9 b2 b2 3d 02 c2 86 bd 21 b7 6b 3e b4 86 a5 bb
       0.08725483 -0.06579973 0.23019077 -0.0050514583
0001d0 84 56 81 3e 30 dd 2e 3d ad 01 39 3e 90 85 d8 3d
       0.2526132 0.04269141 0.18067046 0.1057235
0001e0 3f a5 99 3d 95 4c 8a be 68 16 6f 3e d5 55 3d 3e
       0.07502221 -0.27011552 0.23348391 0.18489774
0001f0 3b 6c 58 be 91 07 18 3e 2b 26 0a be 10 27 7e 3e
       -0.21135037 0.14846636 -0.13491122 0.24819589
000200 6c f6 9b bd cd e5 f8 3b 2b 0d 8d 3e 0a 57 07 3e
       -0.076153606 0.0075957538 0.2754911 0.13216797
000210 a9 45 59 3e 20 17 4f 3e f2 1f 32 3e b3 ca 7b be
       0.2121798 0.20223665 0.17394999 -0.24589042
000220 8e 2c 5a bd 8f fd 20 3e a3 d1 f2 bd 82 5e b5 3c
       -0.053265147 0.15721725 -0.11856391 0.022139791
000230 6a 22 ac bd 43 3e cc 3d 2f 80 0a be e3 3b 8a 3e
       -0.084050015 0.09972813 -0.1352546 0.26998815
000240 3e 78 c0 bd e1 76 34 3e 57 67 d6 3c b6 6b 9e 3d
       -0.093979344 0.17623474 0.026172323 0.07735388
000250 3e 5c 47 3e 40 9e 84 3d db 29 39 3e f0 16 7b bc
       0.19468781 0.06475496 0.18082373 -0.015325293
000260 86 f5 29 be 00 45 d6 bc ea 8d 8e 3d 50 81 09 be
       -0.16597566 -0.026155949 0.06960662 -0.13428235
000270 a0 5f 1f bd 5e a4 44 3d 74 f9 cb bd 48 e0 78 3e
       -0.038909554 0.048008315 -0.09959689 0.24304307
000280 5b 59 c9 bd 75 a8 28 3e 43 79 ce 3d 9f d5 16 be
       -0.09831496 0.16470511 0.100817226 -0.14729927
000290 57 ee 28 3e ca dd 15 be fc e4 10 be b4 77 5a be
       0.1649717 -0.14635387 -0.1414985 -0.21334726
0002a0 16 c1 97 3e b0 c0 49 bd 86 c1 14 3e 54 92 a2 3d
       0.296395 -0.049256027 0.14526948 0.07938066
0002b0 6d 1c ea 3d 2d 3a fc 3d e0 bb e5 3d e8 02 e5 3d
       0.11431203 0.12315784 0.11217475 0.11182195
0002c0 7f 8f 59 be 7f f5 82 be 37 ad ee 3c 7b f4 48 be
       -0.21246146 -0.25577924 0.02913533 -0.19624512
0002d0 ba b3 60 3e 76 f3 7f 3e ba 5e 07 3e b2 d5 bf 39
       0.2194356 0.24995217 0.13219729 0.00036589574
0002e0 3e 72 b0 3d d5 1d c0 bc 90 d2 30 3e d9 61 be 3d
       0.0861554 -0.023451725 0.17267823 0.09296007
0002f0 4c 74 42 be 4f a2 54 3e e6 4c 79 bd 61 33 ae bc
       -0.18989676 0.20765041 -0.06086435 -0.021264734
000300 4e 1c 84 bd 6a 45 a2 bd 3d 83 63 be 4e 39 7d 3e
       -0.06450711 -0.07923396 -0.22218032 0.24728891
000310 33 a5 6b bd 2a f3 84 3e c3 8b 6b be cb a0 ab 3c
       -0.057530593 0.2596677 -0.23002534 0.020950695
000320 50 16 12 be d5 15 bb bd 6b 08 7f be 71 25 5a bc
       -0.14266324 -0.091350235 -0.24905555 -0.013314591
000330 af 2a 58 3d f4 cd 6c be f1 74 be be 80 61 a3 be
       0.05277508 -0.2312544 -0.37198594 -0.31910324
000340 e0 09 94 3d 01 4e 01 3e 73 44 88 be fc 8a 73 be
       0.07228446 0.12627412 -0.26614723 -0.23783487
000350 62 57 4b 3c 10 ad 46 3e e7 85 6c be c1 ff a8 be
       0.01241097 0.19401956 -0.23097955 -0.33007625
000360 14 9f e7 3d 6f 6d b5 3e 05 40 49 be 9a cd 32 3d
       0.113096386 0.35435054 -0.19653328 0.04365311
000370 53 53 03 be 4c f2 ea bd ad 79 de 3d bf 61 ea 3c
       -0.12824754 -0.11471996 0.108630516 0.028611062
000380 c1 ab 76 3e a9 37 b1 bd 2d 95 07 3d 04 d2 28 bc
       0.24088956 -0.086531945 0.03310125 -0.010303978
000390 7b 3f 22 3e da df 1f bd 84 86 d7 3d a4 76 af be
       0.15844528 -0.03903184 0.10523704 -0.34270203
0003a0 a3 57 b6 3e d7 81 06 bf 6e 8c 1a 3e af d4 16 be
       0.35613737 -0.5254187 0.15092632 -0.1472957
0003b0 1f 8b e1 bd 44 51 10 be 27 cd 91 be f7 ff 71 be
       -0.11012863 -0.140935 -0.2847683 -0.23632799
0003c0 c4 07 81 3c 71 a4 9a be fa dd 82 be 7e ef 36 3d
       0.015750773 -0.30203584 -0.2555998 0.04466199
0003d0 60 a0 d1 3d c7 ed ca 3d d4 36 3a 3e 18 36 05 bd
       0.10235667 0.09908634 0.18184978 -0.03252229
0003e0 01 65 1e be 61 db 4d be 80 73 b5 bd d2 75 b0 bd
       -0.15468217 -0.20103218 -0.088599205 -0.086162224
0003f0 dd 70 95 3e ab af c7 bd e2 9e df bd 1a 8e 5a be
       0.2918767 -0.09750303 -0.10918976 -0.2134327

bias f4 [128]
000000 01 b0 41 3e e6 24 8a be 2f ac c9 bd 4e 88 bc 3d
       0.18914796 -0.26981276 -0.098472945 0.092056856
000010 78 0f 6e 3e 31 f3 d2 3d 97 07 21 3c 79 7a ad bd
       0.23248088 0.10300291 0.00982847 -0.084706254
000020 4b 83 0d 3e 15 8e 8d 3e 16 41 69 3e cc d4 f4 bc
       0.13819616 0.27647462 0.22778735 -0.029886626
000030 da d4 00 3e 29 f0 77 3e 7e 3e 4d 3e e9 d5 17 be
       0.12581196 0.24212708 0.2004337 -0.14827694
000040 ab 93 4b 3e f8 40 8a be cf f8 df 3c 42 71 ab 3d
       0.1988055 -0.27002692 0.02734032 0.083712116
000050 55 48 41 3e 41 75 40 3e 50 c5 09 bd 79 e1 84 3e
       0.18875249 0.18794729 -0.033635437 0.25953272
000060 b2 69 f6 3d c7 8f 08 be 24 18 5a bc db c6 25 3d
       0.120318785 -0.13336097 -0.01331142 0.040472846
000070 4a 15 60 3e fd 24 1a 3e 7b 73 cf 3d 0e 1c db 3d
       0.21883121 0.15053172 0.10129448 0.106987104
000080 be b0 1e be 00 0d 3e be e7 23 e1 bd 9d 84 2a 3e
       -0.1549711 -0.18559647 -0.10993176 0.1665215
000090 66 ff fd bd b1 31 41 3c f6 eb bb 3c 13 b7 4e 3e
       -0.12402229 0.0117916325 0.022939663 0.20187025
0000a0 3c 18 b6 bd 40 ba a4 bd 8a 1b be 3c a2 0b d1 bd
       -0.08891341 -0.08043337 0.023206491 -0.10207297
0000b0 68 65 55 3e f4 bc a1 bd 9c 4e 2f be bc 8b 2b 3e
       0.20839465 -0.07897368 -0.17119831 0.16752523
0000c0 9d 78 6b 3e c0 1d 8e 3d 68 0c 74 bd ca 91 e3 bd
       0.22995229 0.06939268 -0.059582144 -0.111117914
0000d0 f1 72 3c 3e db 51 f0 bd aa 5c 21 3e cd af 06 be
       0.18403222 -0.11734363 0.15758005 -0.13153
0000e0 ed 38 1f 3e d4 d4 7d 3d 91 d4 20 bb b4 99 8d 3e
       0.15549059 0.061970547 -0.0024540762 0.2765633
0000f0 36 7a 82 3e 74 9b fd bd d0 ed ba 3b da ab 13 3e
       0.25483865 -0.12383166 0.005704619 0.14421025
000100 90 44 36 be 31 3a 4e 3d f8 91 4b be 28 78 56 be
       -0.17799592 0.050348464 -0.19879901 -0.20944273
000110 42 71 2c be d9 f7 50 3e b0 cd 5a bd 85 07 a2 bd
       -0.1684008 0.20407046 -0.053418815 -0.079115905
000120 d6 d4 a7 3c 2b 8b 29 3e f0 f8 38 be 40 31 86 3d
       0.02048723 0.16556995 -0.18063712 0.065523624
000130 4f ed 6a 3e 51 0d 26 be 84 d2 5e 3e ab 6b be 3d
       0.22942089 -0.16216017 0.21759993 0.0929788
000140 8e d4 5f 3e 16 ae e2 3d f0 52 84 be c3 2b 75 be
       0.21858427 0.110683605 -0.25844526 -0.23942475
000150 f8 36 c1 3d b2 93 94 3e 22 1d 7c be f5 1f 01 be
       0.094343126 0.29018933 -0.24620488 -0.12609847
000160 49 43 d4 3d 79 8e 3a 3e f6 e3 53 3e 13 13 ad bd
       0.10364396 0.18218412 0.20692429 -0.08450904
000170 3e 60 ca 3d d1 76 00 be 15 7a 2b bd b0 79 e6 3d
       0.09881638 -0.12545325 -0.041864473 0.11253679
000180 72 75 85 ba 85 33 b9 3d 01 ba ed bd fc 63 5c be
       -0.0010182096 0.0904303 -0.11607743 -0.21522516
000190 7b 84 a4 bd c9 2b b7 bc 24 ed 06 bd b8 7d 12 3e
       -0.08033081 -0.022359746 -0.032941 0.1430577
0001a0 f0 1e c7 bc 8a 3c e8 3d c0 df 41 be 7a 82 8c be
       -0.024306744 0.11339672 -0.1893301 -0.27443296
0001b0 a6 e5 55 3e 87 55 6f 3e 28 e1 2e 3d cc 53 0c be
       0.20888385 0.2337247 0.042695194 -0.13703841
0001c0 c5 74 85 be 9d dd 27 3e 31 4d 14 3e 90 60 61 be
       -0.2606565 0.16393133 0.14482571 -0.22009492
0001d0 14 8a ea 3d 91 9c 1b be 0f 40 36 be 0f 7a 15 be
       0.114521176 -0.15196444 -0.17797874 -0.14597343
0001e0 dc c0 5c be 87 3a 30 bd f3 2c 00 3e f5 c6 54 3e
       -0.21557945 -0.043024566 0.12517147 0.20779021
0001f0 c7 c3 38 be ae d8 2e be 43 fe 5f be 18 20 22 be
       -0.18043433 -0.17074844 -0.21874337 -0.15832555

weight f4 [512, 128]
000000 86 f5 32 3e cb c4 1b 3d a7 1a 55 bd bf 26 9f bb
       0.17476472 0.038029473 -0.05202737 -0.004856914
000010 71 f3 1a bd 0c 6d f8 3c 2f 85 61 3d da ae 2b be
       -0.03782982 0.030325435 0.055058654 -0.1676592
000020 95 96 99 bd 4d 61 ab 3d 98 83 c2 bc d5 56 80 3d
       -0.07499424 0.08368168 -0.02374439 0.06266562
000030 b5 c8 fd bc 47 d1 96 bc cf 7c 7e 3d fd e9 a5 3d
       -0.030979494 -0.018410338 0.062130746 0.0810127
000040 ea d2 02 3e fe 73 55 3d 40 e1 18 be 7e b7 66 bc
       0.1277577 0.052112572 -0.14929676 -0.014081834
000050 4c 52 68 bd ad 65 9c bd a9 68 6b bb 28 8c ca bd
       -0.05671911 -0.076365806 -0.0035920537 -0.09890014
000060 90 aa 8a bd f2 5d 9a bd 98 9f 04 3d 2a ce 1a bc
       -0.067708135 -0.0753745 0.032378763 -0.009448567
000070 b0 12 07 bb 11 b8 28 3d 3a 01 ae 3d 77 3b ed 3d
       -0.0020610504 0.041191164 0.08496328 0.11583608
000080 9d 68 c3 3c 88 d6 0d bc 4b a7 d5 bc e1 84 bd bc
       0.023853594 -0.008657105 -0.026080748 -0.02313465
000090 e5 c9 7a 3d e1 7a 62 3d 4b f9 ba 3d f7 d9 a3 3d
       0.061227698 0.055292968 0.0912958 0.08000558
0000a0 17 a7 65 bd 32 4a a9 3c 1f 03 85 bd d1 32 b2 bc
       -0.056067552 0.020665262 -0.06494736 -0.021752747
0000b0 d2 9c 55 be 7d 64 ea 3d 24 74 a2 bd 51 22 26 3d
       -0.20860603 0.11444948 -0.07932308 0.04056007
0000c0 64 74 40 3d b4 d5 1d be eb 46 ce bc 18 c4 e0 3d
       0.046986 -0.15413553 -0.0251803 0.10974902
0000d0 ce 1a 84 3c 62 f3 6d 3d 5a ba 94 bd 99 8d cc bc
       0.016126063 0.058093436 -0.07262106 -0.024969863
0000e0 2e ac 24 bd b0 2b f2 bc 81 ac 11 be ad 7a 7a 3e
       -0.040203266 -0.029561847 -0.14225961 0.2446086
0000f0 1d 0b 22 bc 78 6e e1 3d 97 18 32 be f8 01 a2 bd
       -0.009890345 0.11007398 -0.17392193 -0.07910532
000100 4a c8 09 bd 2c 18 4a be dd a4 9a bd ed 5a 05 bd
       -0.033638276 -0.19735783 -0.075509764 -0.032557417
000110 4f 2b 4e be 9c 65 d0 3d 79 a4 9d 3d e9 8f 53 bd
       -0.20133708 0.101756305 0.07697386 -0.051650915
000120 40 62 90 bc cf cf 2b 3d 1d dc 17 3d df af 81 bb
       -0.017624974 0.04194623 0.03707515 -0.003957733
000130 38 35 c8 bb d1 46 30 bd fa 32 04 3e a3 66 0a bc
       -0.00610986 -0.043036286 0.12910071 -0.008447322
000140 74 63 dd 3d 72 b0 93 3c 6d f2 c4 bd 52 4c 5c be
       0.10809985 0.018028472 -0.096165515 -0.21513489
000150 8d 50 e6 3d dd 5b d8 bd f6 9d 85 bd f6 0b 2f 3c
       0.112458326 -0.105643965 -0.06524269 0.010684004
000160 d4 a3 49 bc 74 bf dc 39 e9 14 e5 3d 53 ef 4f 3d
       -0.012307126 0.00042104314 0.11185629 0.050765347
000170 c8 2f 90 3d b8 e4 7d be a1 47 30 bd 66 95 89 bd
       0.070403636 -0.2479428 -0.04303706 -0.067179486
000180 d7 61 6b bc 85 05 1e be 1b ea 95 bd 62 68 37 bd
       -0.014366589 -0.15431793 -0.07320043 -0.04477728
000190 c6 29 eb 3d 9c 91 7b bd a3 b6 08 be fd 45 99 3b
       0.11482577 -0.06141816 -0.1335092 0.0046775327
0001a0 65 71 5b 3e 6a 25 d1 bc 07 f9 00 be 00 59 75 3d
       0.21429975 -0.025530536 -0.12594996 0.05989933
0001b0 70 b1 11 3e 80 27 d0 3c 5a b1 c1 3c b8 65 12 be
       0.14227843 0.02540946 0.023644138 -0.14296615
0001c0 47 b5 e8 3c 79 16 87 bd 8a bf 09 3d f6 27 b1 3d
       0.028406752 -0.06596083 0.03362993 0.086502
0001d0 f7 d1 95 bc 05 7d f0 3c 07 e0 d6 bd f6 ec b3 bd
       -0.018288596 0.029356489 -0.104919486 -0.08785431
0001e0 34 bf 9a bb f7 a9 98 3d 9a 8b b7 bd 9a aa bf 39
       -0.0047225 0.07454293 -0.08962174 0.00036557467
0001f0 e1 c1 ce bc 2a c6 40 bd 3d 81 24 be f0 3b a0 bd
       -0.025238933 -0.047063984 -0.16064925 -0.07823932
000200 75 d0 c3 bc b4 da a6 bd e9 12 96 3d 09 c4 49 bc
       -0.023903111 -0.08147183 0.073278256 -0.012314805
000210 bb f8 9f 3c ac 51 f2 bb d2 59 61 3d a2 fe a0 bc
       0.019527784 -0.00739499 0.0550173 -0.019652668
000220 55 fe 12 3c a6 92 64 bd 79 cf bc 3d 19 4b e8 3c
       0.00897177 -0.055803917 0.0921926 0.028356122
000230 0f 00 34 bd 4b 37 0e bd 10 4b b7 3c e2 9b 1e 3d
       -0.04394537 -0.0347207 0.02237466 0.03872288
000240 a8 7d 90 bc ba 35 44 be 9f e9 a9 3d cb 65 72 bd
       -0.017638043 -0.1916112 0.08296513 -0.05917911
000250 d9 b3 a4 bd b2 5d d6 3d 54 20 39 3d 82 8f 95 3d
       -0.08042116 0.1046709 0.045196846 0.073027626
000260 33 2a f8 bc 6f 50 10 bd dd 94 38 bd a6 b6 67 3d
       -0.03029356 -0.035232957 -0.045063842 0.05657067
000270 54 02 69 b9 a6 bb 0a 3d a3 ca 99 3b 35 59 70 3d
       -0.00022221479 0.03387036 0.0046933456 0.058678824
000280 72 1d 11 be 40 64 03 be 22 31 8f 3c 7d 89 8f 3c
       -0.14171389 -0.12831211 0.017479483 0.017521614
000290 b7 a7 b5 bc 8a 12 25 3d 1c 56 7a 3d dc bc 89 3c
       -0.0221747 0.040300883 0.061117277 0.016813688
0002a0 21 dc 2d 3d d0 9c 3a be ab e9 48 3c d8 59 8b bd
       0.04244626 -0.18223882 0.012262742 -0.06804246
0002b0 91 02 78 bd d8 1c 6c 3d 67 38 f8 3d 6a 48 37 3d
       -0.060549323 0.057644695 0.12120133 0.044746794
0002c0 0b 56 dd 3d 49 d4 4a 3d df a6 0d 3c 85 f5 01 be
       0.10807427 0.049518857 0.008645742 -0.12691315
0002d0 a4 68 cb bb 1f 7f 83 bc 78 4e 21 3d 4f fc 87 3d
       -0.0062075425 -0.016051827 0.039381474 0.06639921
0002e0 d3 b0 a6 bd f7 cf 4e bd b2 0c 7d bd a8 68 82 bc
       -0.08139195 -0.0504913 -0.061779685 -0.015919045
0002f0 03 e8 0c 3c c7 c0 56 bd 28 2b 03 3d 0a 30 28 3d
       0.008600238 -0.05242994 0.03202358 0.04106144
000300 09 b2 42 bd fd 9f ec 3c 7c 87 31 bc 2f c3 d1 bd
       -0.04753307 0.028884882 -0.010835525 -0.102423064
000310 a0 49 a6 3d e5 50 ab bd 21 5f 79 3d 9d 0a 21 3e
       0.081195116 -0.08365039 0.060881738 0.15726705
000320 d9 ff fa 3c ed 58 8d bd 90 16 dc 3d 25 f7 95 3c
       0.030639576 -0.06901727 0.10746491 0.018306324
000330 ee cb 6b bc e2 b1 4d bb 8e f4 9e bc 8c e7 ae 3c
       -0.014391882 -0.0031386544 -0.019403722 0.021350645
000340 a9 22 93 bd 75 7c a8 bc 96 ea 88 3d b6 41 ba 3d
       -0.07184345 -0.020567158 0.06685369 0.090945646
000350 ea b8 5f 3c 32 67 99 bd 49 d1 09 3d 21 ac 92 bb
       0.013654927 -0.07490386 0.033646856 -0.004476086
000360 d9 f1 bd 3c fe 03 6f 3d b2 f3 2e 3d 13 ac 03 3e
       0.023186611 0.058353417 0.042712875 0.1285861
000370 28 d8 b6 bd be 05 bb bc ec 18 89 3c 59 51 2d bc
       -0.08927947 -0.022829887 0.016735516 -0.010578477
000380 a2 b1 1c 3d d1 ea 42 bd 48 dd aa 3c aa d1 66 bd
       0.03825534 -0.04758722 0.020857468 -0.056352295
000390 04 fc 32 3d a2 c4 00 be ae 00 d2 3d 5e 0a 89 bd
       0.043697372 -0.1257501 0.10254036 -0.066914305
0003a0 8f 2a 5c bd 86 6e cc bb 5d d4 20 3d 8f a7 82 3d
       -0.053751525 -0.0062387614 0.039265025 0.063796155
0003b0 7e 23 d9 bc 4a b2 2e bc d0 7a 88 3d 79 b7 ce bd
       -0.026506182 -0.010662625 0.066640496 -0.100935884
0003c0 6c ff 99 3d 73 17 d0 3d e7 f9 a5 3c 53 36 85 bd
       0.07519421 0.101607226 0.020260764 -0.06504502
0003d0 6e f5 da bd e7 58 eb bc cb bc 34 bd ca a3 1f be
       -0.10691343 -0.028728915 -0.04412536 -0.15589824
0003e0 77 8c 54 bd b5 7e 17 3c 5b a3 36 bd ec b8 35 bd
       -0.05189177 0.009246518 -0.04458938 -0.04436581
0003f0 53 6e 88 3c 76 15 49 bd 71 26 5b 3d aa c0 0a bd
       0.01665417 -0.049092732 0.053503457 -0.033875145

bias f4 [512]
000000 12 ee dd 3d 1c 5c 23 3d b4 2b 92 3d 20 1c d4 3d
       0.10836424 0.039882764 0.07137242 0.10356927
000010 f8 b0 6d 3d d4 b6 12 3d 30 a2 5c bd d5 d8 29 3d
       0.0580301 0.03581889 -0.05386561 0.041466553
000020 06 b6 a2 bd 6d 43 49 bd 2d ba 14 bd db 58 11 3d
       -0.079448745 -0.049136568 -0.036310364 0.03548513
000030 f6 c1 bb 3d 62 ad d3 bd 21 0b 66 bd b7 47 24 bd
       0.091678545 -0.103358045 -0.056162957 -0.040107455
000040 08 d4 96 bd 11 db 24 3d 6d b0 47 3c d7 c4 08 3c
       -0.073646605 0.04024798 0.012188059 0.0083477115
000050 38 3a 6a 3d 9c dd dc 3c d8 91 e9 3d 5d a7 67 3d
       0.057184428 0.02696114 0.114047706 0.056556094
000060 85 be 80 bd 9e 4d b8 bd 04 1c 83 3d 42 f0 c6 bb
       -0.06286339 -0.08999179 0.06401828 -0.0060711214
000070 4b b3 83 3c ea 3e f2 bb 1e 0f fd bb 3c 3f 2b bd
       0.016076704 -0.007392754 -0.0077227494 -0.041808352
000080 99 19 9c 3d c9 98 86 bd 43 28 26 bc d1 8c 90 3d
       0.0762207 -0.0657211 -0.010141435 0.070581086
000090 0b 38 60 3d 86 9f c6 bd 64 0d 80 bd c9 17 ab bd
       0.054740947 -0.096983954 -0.06252554 -0.08354146
0000a0 68 43 8a bd 79 cf a7 3d 22 15 05 bd 38 72 a3 3d
       -0.06751138 0.08193869 -0.032490857 0.0798077
0000b0 8e e9 86 3d 83 eb e4 3a 95 97 dc bc b8 c1 40 bc
       0.06587516 0.0017465207 -0.026927749 -0.011764936
0000c0 3d cb da bd e4 aa 4e bb 2c e4 8f bd 33 0a 42 bd
       -0.10683296 -0.0031534964 -0.07025942 -0.047373008
0000d0 e1 d6 72 3c 8e 8a 52 bc 41 f7 78 3d 5c 12 02 3d
       0.014821739 -0.012850417 0.060782675 0.03175579
0000e0 cd 41 95 bd f7 b8 f0 3b 45 04 8a 3d 0d dd 20 bc
       -0.07287941 0.0073462683 0.067390956 -0.009818328
0000f0 c6 d5 d9 3d 6e 58 67 3d 01 2c 79 3d 7c dc c1 bd
       0.10636477 0.056480817 0.06083298 -0.09465882
000100 6b bf 02 3c 5d 0b dc 3d ac 33 88 3c 6e 44 59 bd
       0.007980208 0.10744355 0.016626202 -0.053043775
000110 9c bb 82 3d e5 b1 d5 bc 4b 45 43 bd 68 ba 9d 3c
       0.0638344 -0.026085803 -0.047673505 0.019253924
000120 fb c7 97 3d 1e 60 8a 3c ec af b9 3d c2 52 9d bd
       0.0741119 0.016891535 0.090667576 -0.076818004
000130 c4 4d 8c 3b 3c 24 cb 3d e4 f2 f3 3d 07 44 65 bc
       0.0042817313 0.099190205 0.11911562 -0.01399327
000140 98 6a 99 3c 02 56 cb bd f6 b5 ae 3d 73 05 ad 3c
       0.018727586 -0.09928514 0.085308 0.021120762
000150 08 15 3e 3b b6 e2 89 bd bb fc b9 3c 43 bf 64 3d
       0.0029004235 -0.06732695 0.02270352 0.055846464
000160 b5 b5 82 bc e4 e9 40 3d 4e b7 16 3b 88 dd 97 bd
       -0.015955785 0.047098055 0.0022997442 -0.074153006
000170 ad 5a 99 bc 76 b2 eb bc 7f 97 a3 3d 34 05 f8 b9
       -0.018719995 -0.02877162 0.0798788 -0.00047306123
000180 72 91 04 be 65 ef 8c bd 71 eb ea 3c bf c8 72 bd
       -0.12946108 -0.068815984 0.02867672 -0.059273478
000190 61 dd 20 bd e1 17 6a bd 97 27 34 3d 13 35 ae 3c
       -0.039273623 -0.05715168 0.04398307 0.021265542
0001a0 80 c7 54 bc ca 7b cc bc 76 31 35 bc 50 6e a5 bc
       -0.012987018 -0.024961371 -0.011059156 -0.020194203
0001b0 ad 4d ae bc 8e 37 e5 bd e4 dd 39 bc 3b 00 cd bd
       -0.021277273 -0.11192237 -0.011344407 -0.100098096
0001c0 53 01 6e bd bb 14 3a 3d f4 c2 b2 bd 64 38 03 be
       -0.05810673 0.045429926 -0.087285906 -0.1281448
0001d0 bd e5 02 bd 2d 59 1c 3d ad 31 e4 3d a2 57 4a bd
       -0.031957377 0.038170982 0.111422874 -0.04939998
0001e0 92 c4 6e 3c 54 2e cb 3c 3e 3d 14 bd 94 eb ad 3d
       0.014573233 0.024802364 -0.036191218 0.084921986
0001f0 6f f4 7f 3d f6 ad b1 bc 28 e6 99 bd 04 87 65 bd
       0.06248897 -0.021689396 -0.07514602 -0.056036964
000200 be 0a ac bd 11 83 00 be ab d7 40 3d c6 82 76 bc
       -0.084004864 -0.12549998 0.047080677 -0.015045827
000210 a0 d3 86 bd 53 17 93 3d fd 66 7c bb 23 0f 27 bc
       -0.06583333 0.07182183 -0.0038513534 -0.01019648
000220 3c 81 f0 bb b7 57 87 bd cd 42 c7 bd 36 9e 7a bb
       -0.0073396247 -0.06608527 -0.09729538 -0.0038241274
000230 7b b9 ae 3d d7 52 d5 bc 5d e8 a0 3c 07 c0 e3 3c
       0.08531471 -0.026040478 0.01964205 0.027801527
000240 a3 6b b7 bd 31 65 ce bc 64 bc ea 3c b3 67 59 3d
       -0.08956077 -0.025194736 0.028654285 0.05307741
000250 5f d0 a9 bd 6a 27 bc bd 36 5a 0f 3d 47 58 02 bd
       -0.08291697 -0.09187205 0.03499814 -0.03182247
000260 dc cb c5 bd 6a 9f 49 bd 24 f1 59 bd 34 b7 cf bd
       -0.09658024 -0.049224295 -0.053208485 -0.10142365
000270 5b 74 f8 bc ee 7f 76 3d 90 1b 1a bd 95 aa bd 3d
       -0.03032892 0.060180597 -0.037623942 0.092610516
000280 8a fb 64 3c 1c 20 9d bc 6c 1f 31 bd 44 a0 b7 3c
       0.013975987 -0.01918035 -0.043242857 0.022415288
000290 9b 5a 78 3d dc 24 c1 bc b4 0a 92 3d 92 c4 d2 bd
       0.060633283 -0.023577146 0.07130948 -0.10291399
0002a0 fd 0f 95 bd d8 af 57 bd 19 99 c3 bd b4 49 65 bd
       -0.0727844 -0.052657932 -0.095506854 -0.055978492
0002b0 9b 68 63 bd ed ae 27 3c 82 f4 b5 bb a7 a1 f6 bc
       -0.05551968 0.010234577 -0.0055528292 -0.030106379
0002c0 73 89 90 3d 02 7f 43 3b 58 e2 dd bc 75 8c c6 3d
       0.07057466 0.0029830341 -0.027085468 0.09694759
0002d0 dc 1b 54 3d 01 66 29 bd 48 a5 e7 bc d0 e9 96 bd
       0.05178438 -0.041357044 -0.028277054 -0.07368815
0002e0 e0 72 8b 3c 00 d6 8e bd ee 7d 44 3d 5d 76 5f 3c
       0.01702255 -0.06974411 0.04797166 0.01363906
0002f0 f8 fe ca bc 35 62 8c bc d6 a7 87 3d 41 4f 30 bd
       -0.024779782 -0.017136673 0.06623809 -0.043044332
000300 de f5 a8 3d 21 22 84 bc 09 52 3a bd 1f b3 37 bc
       0.082500204 -0.016129555 -0.04548839 -0.011212139
000310 5d 9e 12 3e fb b8 9d bd cc 79 b3 3d be e9 b8 3b
       0.14318223 -0.07701298 0.08763465 0.0056430986
000320 12 bc 4e 3d 4b ec f1 bd 74 98 bb bd d1 86 aa bc
       0.050472327 -0.118126474 -0.091599375 -0.020816239
000330 e9 91 ac bd 58 3b 01 3d 1b 0d ea 3b 64 26 7c 3d
       -0.08426268 0.031550735 0.0071426756 0.06156005
000340 6d 14 be bc 55 2e 2a 3d 2e 5a 9f 3d 2b 8c a9 bd
       -0.0232031 0.041548092 0.07780872 -0.08278688
000350 b3 88 f1 3c d3 22 79 3c 5f cf 3b bd c3 70 a6 bd
       0.029484129 0.015206057 -0.04585206 -0.08126976
000360 1b 2d 85 3d 58 a1 9f bd 56 70 40 3d 4e 81 ca bc
       0.06502744 -0.07794446 0.046982132 -0.02471986
000370 ab 06 27 3d 37 ff d4 bc c6 51 c4 bd e4 6f 2b 3d
       0.040777843 -0.026000602 -0.095859095 0.041854754
000380 e5 d5 8c bd 48 20 9a 3d 8f 64 e2 3c 3b f1 95 bd
       -0.06876735 0.075256884 0.02763584 -0.07321402
000390 0c 89 15 3d 7f 65 2e bc ed 61 e0 3c 76 a8 3e 3d
       0.03650765 -0.010644316 0.027390445 0.046547376
0003a0 87 6b c4 bd c1 e6 1c bb 02 99 b7 3a ac dc c4 bd
       -0.09590822 -0.002394125 0.0014007392 -0.09612402
0003b0 e3 0d 04 3d 1a 13 ef 3c b1 09 8b 3d df 42 b9 3c
       0.032239806 0.029183913 0.06788958 0.022614894
0003c0 c7 42 aa 3b 7a 7d 04 3c cc 9c d6 3d cf ab c6 3d
       0.0051959488 0.008086557 0.104791254 0.09700739
0003d0 3f 70 44 3d 55 92 cd bd 8a 3e 85 3d 64 79 ae bc
       0.04795861 -0.10037676 0.06506069 -0.021298118
0003e0 8f a7 00 bd 3f f3 1b bd 73 77 4a bd 8d 2e 1f bd
       -0.031409796 -0.038073774 -0.049430322 -0.038862754
0003f0 2f 52 ee bc cd 08 b5 bd b1 e2 b2 bd b2 f4 4c bd
       -0.029091923 -0.08839569 -0.08734644 -0.050038047

weight f4 [256, 512]
000000 41 49 8d 3d fd 47 f8 bd e4 09 9c 3a 78 46 94 bc
       0.06898738 -0.12123106 0.0011904803 -0.018100008
000010 8e 61 80 3d d2 e0 8e bc 50 4f ac 3b d1 94 d0 bb
       0.06268607 -0.017441187 0.005258478 -0.0063653965
000020 12 e9 d6 bd 82 58 13 3d 34 65 43 bd 58 d6 53 bd
       -0.104936734 0.03597308 -0.047703937 -0.051718086
000030 d0 72 82 3d 0c 3d 5e 3e 0d 8b 42 3c 95 24 08 bd
       0.06369555 0.21702975 0.011873973 -0.033238012
000040 64 a9 3a 3d 6c 00 04 bd 13 12 14 bd d7 79 69 3d
       0.0455717 -0.032226965 -0.03615005 0.05700096
000050 c3 84 96 3c ae a5 c7 3d e5 14 b6 bd 5e be c5 3c
       0.018373853 0.09748398 -0.08890704 0.024138626
000060 1c eb 72 bc a8 cc 94 bc 1f ab 64 bd 94 4c cf 3d
       -0.014826562 -0.018163994 -0.055827256 0.10122028
000070 65 ff 72 3d 8d 0c f3 3c 8c 1c d8 3d 3b 31 b7 3d
       0.059325594 0.02966907 0.1055232 0.08944937
000080 3d ec 47 bd e3 f6 5c bd 18 32 7c 3d f9 0f 4d 3d
       -0.04880928 -0.053946387 0.06157121 0.05006406
000090 37 92 a7 3d d4 a9 50 bd 51 8b b5 bc 64 b2 5e bd
       0.08182185 -0.05094321 -0.022161158 -0.054369345
0000a0 77 ed 31 bd 30 08 7c 3c 5b 7a 00 3d e6 e8 bc 3c
       -0.043439355 0.015382811 0.031366687 0.023060273
0000b0 39 08 0e 3d 58 70 7d bd 16 45 93 3d 91 ba f0 3d
       0.03467581 -0.061874717 0.071909115 0.11754335
0000c0 e3 f1 fa 3c 09 a3 74 bd dd e9 24 3e f0 dc b6 bc
       0.030632919 -0.059725795 0.16104837 -0.022322148
0000d0 3e c9 86 bb f1 ba ad 3b 1f 5f 9c 3c b2 1b 80 3d
       -0.0041133454 0.005301826 0.019088326 0.062552825
0000e0 ef 76 19 3d 33 2e fe 3c d4 d1 11 3c f7 9c 43 bc
       0.03746694 0.031027889 0.008900125 -0.011939279
0000f0 4d 41 7b bd f1 03 74 bb 4f f8 d4 bd c8 6e 17 bd
       -0.061341573 -0.0037233795 -0.103989236 -0.036970884
000100 2f fe 9e bc 22 4c d6 3d 29 33 b3 bd 9b 96 7c bc
       -0.019408314 0.1046374 -0.087499924 -0.0154167665
000110 49 ce 91 3d 45 0c 9d 3c f2 e9 fc 3d 79 1f 00 3e
       0.07119424 0.01917089 0.12349309 0.12512006
000120 bb 9e 9b bd 27 f0 33 bc b4 05 cf bc c1 c3 0e 3d
       -0.07598635 -0.01098255 -0.025271274 0.034854654
000130 e6 60 a7 bd 04 24 8a bd 28 3e 70 3d 08 47 17 be
       -0.08172779 -0.06745151 0.058653027 -0.1477319
000140 eb 97 cf bc 97 2d 99 3d e2 a7 d9 bc 14 55 89 bd
       -0.025340995 0.07479399 -0.02656931 -0.067056805
000150 3b 4f 69 3c 77 72 e5 bd 85 8e d4 bc 9f 45 10 bd
       0.014240081 -0.11203473 -0.025946865 -0.035222646
000160 9b cc 88 3d f5 24 29 3c ed 55 fb 3c dc e0 9a 3d
       0.066796504 0.010323753 0.030680621 0.0756242
000170 f6 3e ee 3c 69 57 b8 3d 3e 61 d2 3d b5 04 60 3d
       0.029082756 0.09001047 0.10272454 0.05469199
000180 a2 f8 89 3d c2 8d d8 3d df bd 7c 3b 28 d1 86 ba
       0.06736876 0.10573913 0.003856532 -0.0010285722
000190 e6 4c d4 3c 38 5b 9a bc 20 75 4a 3c 1e 77 06 3c
       0.025915574 -0.018842325 0.012357026 0.008207111
0001a0 d2 86 6d bb f5 8a 35 3b 53 7d 83 bd e3 f0 03 3d
       -0.003624369 0.0027701233 -0.06420388 0.03221215
0001b0 09 fa 79 3c 00 86 3d bb 8d 6f be bc d4 58 d7 bb
       0.015257367 -0.0028918982 -0.023246551 -0.0065718684
0001c0 07 87 c7 3d da d4 d5 bc 38 07 a5 3d ca f5 42 ba
       0.09742551 -0.026102472 0.080580175 -0.0007437138
0001d0 bf 68 04 3c 3f 91 06 3c 47 be 7f bc 77 f8 8e bd
       0.008081614 0.00821334 -0.0156093305 -0.06980985
0001e0 ce 2f 45 3e f8 5e 0f bd 8a 29 71 bb 09 bf bb bd
       0.19256517 -0.03500268 -0.003679844 -0.091672964
0001f0 68 84 21 bd c9 53 92 3c 2d 33 eb bb 27 8a d1 bd
       -0.039432913 0.017862218 -0.0071777315 -0.102314286
000200 f0 ef 00 3d a1 3d 8c bc 79 6a d7 bc 77 af 9a bd
       0.031478822 -0.01711923 -0.026295887 -0.075529985
000210 e1 00 3d bd 8e 7c 21 bc 2b 14 46 3d 48 ef 0b 3e
       -0.046143416 -0.009856356 0.048359077 0.13665497
000220 be f4 35 bd 43 68 5c bd 01 d8 b8 bd 0e db dd bc
       -0.044422857 -0.05381037 -0.090255745 -0.027081992
000230 ad 34 4f 3d 68 c6 60 3d e4 9e 1f bb 39 2d f7 3b
       0.050587345 0.054876715 -0.002435618 0.0075432328
000240 53 cd c3 3b 20 ea 2b bd fc d6 21 3d 14 24 2c 3e
       0.0059754043 -0.041971326 0.039511666 0.16810638
000250 d7 93 85 bc dc 12 65 3b e5 92 0b 3d 3c 51 c2 3d
       -0.016305847 0.0034953868 0.034075636 0.094881505
000260 fd 27 89 3d 0c a3 07 be 18 22 f6 3d 00 4e ba 3d
       0.0669708 -0.13245791 0.120182216 0.090969086
000270 6e da ae bd d1 cb 92 bd c2 a3 fc bc 1a 41 a7 3c
       -0.08537756 -0.07167781 -0.030839805 0.020416785
000280 e1 2f 5f 3d a1 30 12 3a 95 07 c4 bb 40 0d ad bc
       0.05448902 0.0005576704 -0.005982349 -0.021124482
000290 38 6a 4a bc 3c f3 29 3d ee 19 0d 3e 19 d8 a2 3d
       -0.012354426 0.041491732 0.13779423 0.079513736
0002a0 ad db ad 3d bf 2d 9b 3c f7 d9 30 bb c5 ab 15 3d
       0.084891655 0.018942712 -0.0026985386 0.036540765
0002b0 63 a4 53 3d 84 44 bc 3c 03 69 35 3e 01 30 74 bd
       0.051670443 0.02298189 0.1771584 -0.059616093
0002c0 3b 9b 4e 3d ad 5f a3 bc 57 ff 07 3d 95 c0 81 bc
       0.050441008 -0.019943083 0.033202495 -0.0158389
0002d0 98 a8 6a 3d 45 43 ab 3c a7 56 97 3d 76 21 07 3d
       0.05728969 0.0209061 0.073895745 0.032990895
0002e0 42 c2 05 bc 16 8a 25 3e db d8 2d bb 4f 12 3d 3c
       -0.00816399 0.16165957 -0.002652696 0.01154001
0002f0 74 5b 0a bc 47 01 05 3c bc 00 ab bd 95 35 78 bd
       -0.008444656 0.00811798 -0.083497494 -0.060597975
000300 8f 6d 94 3d 91 2f 87 bd 6a 24 18 bd f4 96 0a 3d
       0.07247459 -0.066008694 -0.037144102 0.033835366
000310 31 14 34 bd fc 9d 9a 3d 8c 10 10 3e 71 2b b1 bd
       -0.04396457 0.075496644 0.14068812 -0.08650864
000320 4a bd af 3d 3f 28 cc bc ec bb 34 3e 2b ef 93 3c
       0.08581026 -0.024921535 0.17649812 0.01805838
000330 b4 1b a6 3d 29 27 a8 3d 01 65 0a bd 2f 86 23 bc
       0.08110753 0.08210594 -0.03378773 -0.009980722
000340 0c c2 c3 3b cb df 94 3d 33 25 9a 3c bb 32 83 3d
       0.00597406 0.072692476 0.018816566 0.064061604
000350 64 48 e4 3d b8 41 9a bd ce a2 6d bd f4 57 cd 3d
       0.1114662 -0.07532066 -0.05801659 0.10026541
000360 a3 de 88 bd 05 1e fb bc 5a 46 81 3d 23 44 fa bc
       -0.066830896 -0.030653963 0.063122466 -0.030550068
000370 c6 a4 cd bc 50 c2 75 3d 4b 63 62 3c ec d0 ea 3c
       -0.025102984 0.059999764 0.013817619 0.028664075
000380 00 b8 86 bd a9 04 0b bd f0 41 15 bd 49 9b 90 3c
       -0.06578064 -0.03393999 -0.036439836 0.01765217
000390 1c bd 46 3d 14 73 b0 3c a0 69 65 3d 01 4a 43 bd
       0.048520193 0.021539249 0.056008935 -0.047677997
0003a0 44 1a 42 bd d3 09 48 bd 87 08 7a bd 11 9d a8 3d
       -0.04738833 -0.048837494 -0.06104329 0.08233083
0003b0 3e d4 2d bd bc ad 07 3d 5c 26 47 3d fb 79 18 bd
       -0.042438738 0.03312467 0.048620567 -0.037225705
0003c0 bc b9 94 3d 9c 1a 2b bd 9c b3 0b bc 34 9f 95 3d
       0.072619885 -0.041773424 -0.008526709 0.07305756
0003d0 16 51 b4 3d 85 f6 10 3d da 56 43 bd 30 46 26 3e
       0.088045284 0.03539135 -0.04769025 0.16237712
0003e0 fc 1d a0 3c 11 40 c7 bc a2 37 fe bc 60 64 2e 3d
       0.019545548 -0.024322541 -0.031032387 0.042576194
0003f0 a8 ff 16 3c 58 7b 2f 3e 74 b1 3d 3d 72 66 59 3d
       0.009216227 0.17136896 0.04631181 0.053076215

bias f4 [256]
000000 78 96 a9 bd 32 7a 01 bc 6f 6a 83 3c 0c 87 0e bd
       -0.08280653 -0.007902669 0.016041962 -0.03479676
000010 c3 f2 7e 3d 57 be 96 bd 17 38 67 bc 2a 70 c1 bd
       0.062243234 -0.07360523 -0.014112494 -0.09445222
000020 fa 19 d1 3c 06 00 b0 3d 41 09 ca 3c 11 0a 0f 3d
       0.025525082 0.085937545 0.024662616 0.03492171
000030 c3 ba 2b 3d 2a 6b e2 bc 2d 6c a7 bd 2b 02 3e bd
       0.041926157 -0.02763899 -0.0817493 -0.046388786
000040 37 e3 29 3b d1 2a 68 3d 5c b2 88 bc 90 d5 38 bc
       0.0025922784 0.056681458 -0.01668661 -0.011281386
000050 66 e4 b8 bc c7 a4 86 3d 11 c5 8c 3d a4 24 0b 3d
       -0.022569846 0.065743975 0.06873525 0.03397049
000060 b2 52 a4 3b cc 8e 54 3d c1 1e 1d 3c b7 f7 f4 3b
       0.005014741 0.051893994 0.009589852 0.007475819
000070 a5 ac 66 3a 67 14 5a 3c 6e ff bf 3c 8c af 99 3d
       0.000879953 0.013310528 0.023437228 0.07504186
000080 99 76 dc bd ab c5 a0 3d fd fe 8f 3d a9 10 6a 3c
       -0.10764808 0.07850202 0.07031057 0.014286199
000090 ce 95 0f 3d 92 a9 9d bd ea 14 06 3d 4c 2e 67 bd
       0.035054974 -0.076983586 0.03273479 -0.056440637
0000a0 55 54 b5 3c 94 49 08 3d 7b 44 a3 3d 1e 6e 78 3d
       0.02213494 0.033273295 0.07972046 0.06065189
0000b0 34 33 b5 3b 18 0d 19 3a 15 7f bb ba dc 12 df bb
       0.0055297855 0.0005838438 -0.0014304841 -0.006807668
0000c0 8e 3b 04 bc 42 a0 3b 3d 93 63 09 bd e1 12 ae bb
       -0.00807084 0.04580713 -0.033542227 -0.005312309
0000d0 c2 ac 73 bd d2 5f 14 3d f5 91 4e bd b3 ca 96 3c
       -0.059490927 0.036224194 -0.050432164 0.018407201
0000e0 b7 be 3b bc ab b0 25 bd 54 66 99 bd 75 a9 c5 3c
       -0.011459044 -0.040451687 -0.07490221 0.024128655
0000f0 0c 77 8e 3b 2c 7f 37 bb 0b b9 12 3d d7 b5 2d bc
       0.0043476876 -0.0027999384 0.035821002 -0.010602436
000100 e5 d4 90 bc c3 6c 17 3d 27 f5 6a 3d a2 21 68 bd
       -0.017679641 0.036968958 0.0573627 -0.0566727
000110 31 bf b4 3c 02 4c a9 bc b7 54 16 3c fa 3d bd 3a
       0.022063823 -0.020666126 0.009175471 0.0014438026
000120 d5 ac 51 bc 33 3f 73 bc 08 33 65 bc 0d 4b 93 3c
       -0.012797554 -0.014846611 -0.013989218 0.017980123
000130 b7 a1 89 bd a8 f8 62 3d dc 92 ad 3d bc 4d 31 3d
       -0.06720298 0.05541292 0.08475277 0.043287024
000140 77 8d 24 3d 8d ae 09 3d 7e cd 5c 3d 97 15 0f 3d
       0.040173974 0.03361373 0.05390691 0.0349327
000150 8e fd 49 3c 01 54 01 bd f5 cf c7 3c 3d 33 18 3d
       0.012328519 -0.031574253 0.024391154 0.03715824
000160 fd ed a0 bd 32 f5 00 3d f9 31 2a bd 6e f5 d3 3c
       -0.07857893 0.031483836 -0.041551564 0.025873866
000170 7b 0c 42 3d 59 17 2e bd 5e 1b 88 bc cc e6 01 3d
       0.047375184 -0.042502735 -0.016614612 0.031714246
000180 c4 de 16 be c8 89 47 3d e5 79 64 bd d8 b3 9e bd
       -0.14733416 0.048715383 -0.05578031 -0.07749146
000190 c1 4c f2 3c 94 e8 09 3c 17 6d 94 3d 27 ee 48 3d
       0.029577615 0.008417267 0.0724737 0.049055245
0001a0 a6 84 88 bc 7d 9e da bc dc 4d 4b bc 04 e8 8e 3d
       -0.016664814 -0.026686901 -0.0124087 0.06977847
0001b0 99 50 85 bc cd 33 87 3b ee bc f2 bb 5f a0 12 3c
       -0.016273784 0.004126048 -0.007407776 0.008949368
0001c0 c1 08 b8 3c 5a c2 2e bc 33 52 49 3d db 53 51 3d
       0.022465112 -0.010666454 0.049150657 0.05110536
0001d0 9c 78 20 bc 73 ad 26 bc 44 3f d8 3d 49 10 49 3c
       -0.0097943805 -0.010173189 0.10558942 0.012271949
0001e0 58 6c 43 3d 66 9a be bd 51 f3 ce 3b db 3b 24 3d
       0.047710747 -0.09306793 0.0063156267 0.040096145
0001f0 47 33 e8 bc a3 1a 9c bd f4 65 27 3d bf 2a 9e bd
       -0.028344763 -0.07622268 0.040868714 -0.07722997
000200 0e fd 15 bd 89 c6 98 bc 85 5f 4d 3d 15 42 b9 3d
       -0.036618285 -0.018649356 0.050139923 0.09045807
000210 b4 67 c2 3c 6a d4 ec 3b c1 ae 57 3b 1a 09 e3 bc
       0.02373109 0.00722747 0.0032910558 -0.0277143
000220 37 0a 41 3d b2 1a 25 bc 32 23 63 3d 31 ef 93 3c
       0.047128882 -0.010077165 0.055453487 0.018058391
000230 e0 5a 28 3d 2f c9 39 3d ca 4e 9e bc 95 82 61 bd
       0.04110229 0.04535788 -0.019324679 -0.055056173
000240 ab 19 6d 3d 54 00 03 3d dd f5 3d 3d f7 eb eb 3c
       0.057885807 0.031982735 0.04637705 0.02879904
000250 e7 fc 2c 3d 55 34 6c bd ed d1 83 bc 71 ba a8 bc
       0.042233374 -0.057667095 -0.016091311 -0.020596715
000260 2b 1a ac 3d 5f d4 a5 bb 43 cf 77 3d 70 ad e4 bc
       0.08403429 -0.005060717 0.060500395 -0.027914733
000270 14 4e 6c bd b7 14 c9 3c bc 51 4a 3c 07 e1 8f 3d
       -0.05769165 0.02454601 0.012348589 0.070253424
000280 7b 9f 99 3d 99 a9 75 3d d0 00 15 bc fe 36 f9 3c
       0.075011216 0.059976194 -0.009094432 0.03042173
000290 0c 52 84 bd 9b 17 b3 bd 46 12 1f 3d ed 29 c4 bd
       -0.06460962 -0.08744737 0.038835786 -0.09578309
0002a0 b9 e6 4c 3c ee 0d 69 bb b8 e6 93 3d 6d 8e d3 bc
       0.01250618 -0.0035561281 0.072217405 -0.02582475
0002b0 9c bb 9b bd 73 bf d4 bb f4 0c dd 3c 16 4b b7 3c
       -0.07604143 -0.006492549 0.026983716 0.022374671
0002c0 d1 cd 80 3d b0 c4 c9 3a a5 7f eb 3b 4e e9 93 bb
       0.06289256 0.00153937 0.0071868473 -0.004513896
0002d0 fc f5 04 bd 72 fc be 3a f5 c7 f0 3c 91 99 14 3d
       -0.03246115 0.0014571084 0.029392222 0.036279265
0002e0 e3 e7 4a 3d 55 f6 db 3b 98 2e 2c 3d 81 a0 ca 3c
       0.04953755 0.0067127147 0.042036623 0.024734737
0002f0 0b 24 01 3d fd 3a 98 bc c9 7a c9 bd 1f 5f 33 3c
       0.031528514 -0.018582815 -0.098378725 0.010947972
000300 86 bf 85 bd 82 3d 7f ba d5 a6 65 3c b0 c4 8c bc
       -0.06530671 -0.00097366434 0.014016827 -0.017183632
000310 60 96 9c 3d ed 52 a3 bd 19 73 95 3d a6 df c3 3c
       0.07645869 -0.07974801 0.07297344 0.023910355
000320 dd d8 bc 3b 19 ee c4 bc 33 fe 60 3d 81 71 79 3d
       0.005763157 -0.024039315 0.054929923 0.06089926
000330 cc fd ac bc c8 72 ad 3d 33 d7 94 3b b9 0d de 3b
       -0.021117114 0.084691584 0.0045422553 0.006776538
000340 72 8c ef 3c d7 f2 2a 3d 9d f9 ae bd 82 90 d1 bd
       0.029241774 0.041735496 -0.08543704 -0.10232641
000350 6b 93 47 3c 8d 3c 77 3c 55 7e 07 bd 02 76 4d bd
       0.012181143 0.01509012 -0.033079464 -0.05016137
000360 28 42 35 3d b8 3a a6 bc cf 1b dd 3c 44 61 38 3d
       0.044252545 -0.020291671 0.0269908 0.045014635
000370 61 68 69 3d 57 e5 da bd 63 25 62 bd 05 cb 67 3d
       0.05698431 -0.10688274 -0.055211436 0.0565901
000380 ba a0 03 be 41 f0 d8 bc a8 0d 95 3c ac 4e 51 bd
       -0.12854281 -0.02648175 0.018194988 -0.051100418
000390 b6 6f b0 bc b3 28 91 bb de 07 2b 3d cf 61 44 3d
       -0.021537643 -0.0044299006 0.04175555 0.04794484
0003a0 db e6 68 bd 7c 6a 18 bd 69 5f ad bb 27 3e a5 bd
       -0.056860786 -0.037210926 -0.005290915 -0.08068495
0003b0 c9 f4 e3 bc 49 b0 aa 3c 34 69 58 3d 09 a9 77 bd
       -0.027826684 0.020836012 0.052834705 -0.06046394
0003c0 ce e4 1c bd 14 c7 9b 3d bc e1 84 3d 01 cc 73 3a
       -0.038304143 0.076063305 0.06488368 0.00093001133
0003d0 e1 40 52 3b eb 68 d2 3c b2 e1 40 bd 2d 20 23 bb
       0.0032082128 0.025684794 -0.04709024 -0.0024891004
0003e0 9f 62 80 3c 61 fa 77 bd f5 4e ec 3c f5 e5 d7 3b
       0.015672026 -0.060541514 0.028846243 0.0065886923
0003f0 5d 46 92 3d 8b 49 f4 bb f5 66 2f 3b bf 5c 5d 3d
       0.07142327 -0.007455056 0.0026764248 0.054043528

weight f4 [128, 256]
000000 e5 2e 78 bd f1 b8 3a 3d ab be 8b bd e8 9a cb ba
       -0.060591597 0.04558653 -0.068234764 -0.0015533837
000010 34 5e 69 3d 7c 26 9d bd 44 1c 55 3c b3 e2 9b bc
       0.056974605 -0.07673356 0.013007227 -0.019028997
000020 48 0b 6d 3d a5 3d 92 3c 5e 86 a6 bc 64 a3 8e bc
       0.057872087 0.01785166 -0.020327743 -0.017411895
000030 b3 32 f3 bc 82 19 1c 3d ae 35 66 bd 7c 9b 4b bd
       -0.029687261 0.038110264 -0.056203537 -0.04970883
000040 98 df b6 bc 9a 67 cc bc 46 a4 31 3d c3 06 22 bd
       -0.022323415 -0.024951745 0.043369554 -0.03955723
000050 39 90 a9 bd e5 b9 6d 3c 92 07 88 3d 89 12 8a 3c
       -0.082794614 0.014509653 0.06642069 0.016854541
000060 fc bb b3 bd 7e 02 b2 3d b0 53 04 ba 8d 16 9c 3d
       -0.087760895 0.086918816 -0.0005047871 0.07621489
000070 4d 12 b9 bd 35 f1 2f bb e9 06 2a 3b 9d 73 fe 3c
       -0.09036694 -0.0026846651 0.002594406 0.031060988
000080 55 af 23 bc de cc c1 bb d8 e8 eb bd 01 be b1 bc
       -0.009990533 -0.0059143146 -0.11519021 -0.021697046
000090 bc ab 9a 3d 38 c1 39 3d ad 36 1b 3b 5a 19 35 bd
       0.07552287 0.045350283 0.0023683712 -0.04421363
0000a0 46 82 49 3d f7 9e ec bc 90 af 80 3c 19 c6 29 bd
       0.049196504 -0.028884394 0.015708715 -0.041448686
0000b0 2b 97 ea 3c f5 c1 95 bd ba 6b d8 3c f9 aa 51 3c
       0.028636536 -0.07312385 0.026418556 0.012797111
0000c0 4d 2d f6 bd af 94 a0 bc 21 fc 29 bc e5 e4 79 bd
       -0.12020359 -0.019602148 -0.010375054 -0.061009306
0000d0 9a 90 3a 3d 9d 3e 85 bc 22 75 75 bc b5 f0 c6 bc
       0.04554806 -0.016265208 -0.01498154 -0.0242847
0000e0 e8 a7 f8 bc 52 3f 03 bd b2 83 c7 3d 11 41 3b bd
       -0.030353501 -0.03204281 0.09741916 -0.04571635
0000f0 f1 fd 21 3d c0 4d 05 bd 8c c1 40 bd 8d dc 9b bd
       0.039548818 -0.03254485 -0.04705958 -0.07610426
000100 d6 9a 7d bc 18 64 9c bd 74 6c 82 3b 86 c7 d7 bc
       -0.01547881 -0.07636279 0.003980214 -0.026340257
000110 07 73 88 3d 66 0e 72 bd 3b 90 cc bd 02 48 d2 3c
       0.06662565 -0.059095763 -0.09988447 0.025669102
000120 eb e4 db 3c b9 66 e5 ba 37 27 29 bd d3 29 fb 3b
       0.026842555 -0.0017501927 -0.041297164 0.007664898
000130 ca f0 da bc 1a 17 d1 bc 6c 13 35 3d 16 ac 1e bd
       -0.026726145 -0.025523711 0.044207975 -0.038738333
000140 5e 66 dc bd ec c7 c6 bb f2 d5 34 bd 44 cc 33 3b
       -0.107617125 -0.006066313 -0.044149347 0.0027434984
000150 b0 d4 8c 39 82 af 9d 3c 52 a3 be ba f8 03 91 bc
       0.00026861345 0.019248728 -0.0014544523 -0.017702088
000160 62 d5 af bd 84 f6 cd 3c b4 95 af 3c 50 e3 47 bd
       -0.085856214 0.025141962 0.021433689 -0.048800766
000170 95 71 b1 bc f3 01 a5 3d e7 07 22 3d 87 c2 73 bd
       -0.021660605 0.080570124 0.039558318 -0.059511688
000180 51 83 4b 3d 28 15 a6 bb 6b e2 a0 bd 07 b7 d9 bd
       0.04968578 -0.00506844 -0.07855686 -0.10630613
000190 4c 28 4a bc fb 56 20 3d 3b 62 c3 3c c6 43 b0 3b
       -0.012338709 0.03914545 0.02385055 0.005379173
0001a0 e8 bd 2f bb fc 81 77 3d c7 a6 15 bd 86 d3 42 3d
       -0.0026816074 0.060426697 -0.036536004 0.047565006
0001b0 d4 6f d3 bd bc f8 03 be 80 2c 75 3b 20 a5 b0 bb
       -0.10324064 -0.12887853 0.0037410557 -0.005390778
0001c0 9b 29 a5 3b 66 63 d3 3c af 01 9a bd 30 2f 7e 3d
       0.00504036 0.025804233 -0.07519852 0.06205672
0001d0 c8 75 a2 bb c5 ec 23 bd 24 29 c8 bd e0 f9 7e 3c
       -0.0049578883 -0.040020723 -0.09773472 0.0155625045
0001e0 e9 7c 35 3d 76 e3 cb bd ee 4a cc 3c 08 49 95 bd
       0.044308577 -0.09955494 0.024938073 -0.0728932
0001f0 4d 69 91 bd dc 6a 91 bd 7e 1b 69 bd d9 cb 05 3c
       -0.07100163 -0.0710046 -0.056910984 0.008166277
000200 cd 26 b7 bb d3 b2 c3 bd 3b cc c0 3c 9a 0a 39 3c
       -0.005589342 -0.095555924 0.023534885 0.0112940315
000210 b1 c1 30 3d f0 2c 20 bd 40 a4 95 3c 07 78 cd 3b
       0.04315347 -0.039105356 0.018266797 0.006270412
000220 79 10 89 bd ad 06 67 3c 3e 6f 80 3d bc 46 ae 3d
       -0.06692595 0.014100713 0.06271218 0.08509585
000230 5e 7a e9 bb c6 77 8c bc 9d dc 2d bd c0 72 82 bc
       -0.007125183 -0.017146956 -0.04244672 -0.015923858
000240 4d 60 c0 3d 6a 63 81 bb c7 d6 34 bd 32 b8 91 bc
       0.09393368 -0.0039486187 -0.04415014 -0.017788026
000250 7f 3c aa 3d 98 9e c5 bd 66 9a b2 bc 7c 6c 88 bc
       0.0831232 -0.0964939 -0.021802139 -0.016653292
000260 e4 ab cd bb 99 10 a2 3d ca 38 40 bc 3a 7b c2 3c
       -0.0062765945 0.07913322 -0.01173229 0.0237404
000270 ea 39 c1 bd ca dc 6b bc b7 92 b0 bd 4f e5 b9 bd
       -0.09434874 -0.014395902 -0.08621734 -0.0907694
000280 99 03 1c bd 9d a9 19 bd 2d 38 13 bd b7 f5 a0 3c
       -0.03808937 -0.03751527 -0.035942245 0.019648416
000290 1a 46 0e bc 31 de 90 3c 3e 80 12 bd 35 40 2f 3d
       -0.008683706 0.017684074 -0.035766833 0.042785842
0002a0 e5 4c 58 bd 6f 2b 1b 3b b9 58 91 bd 0b 7a ab bd
       -0.052807707 0.0023677011 -0.07097001 -0.08372887
0002b0 91 4d 33 bc c5 03 3e 3d 0b f5 18 bd 73 e0 c7 bb
       -0.010943786 0.046390314 -0.037343066 -0.0060997545
0002c0 98 43 42 bd 6e bb 46 3d 8f 15 34 3c dc 9a d5 bc
       -0.047427744 0.04851859 0.010991468 -0.02607482
0002d0 f2 b4 51 bd bc b1 ce bc 20 36 7b 3d 9f 45 5f 3d
       -0.051197954 -0.025231235 0.061330914 0.054509755
0002e0 6c 3b 73 bd aa d4 cd bd f3 fb 7f bd ec f7 45 3d
       -0.05938284 -0.10050328 -0.062496137 0.04833214
0002f0 45 a0 c8 bd 45 67 74 3c 26 14 59 bb 83 f6 8d 3d
       -0.09796194 0.0149171995 -0.0033123582 0.06931784
000300 68 64 a8 bd 57 ca 1e bc 09 88 3a 3d cb be 18 bd
       -0.08222276 -0.009691796 0.04553989 -0.03729133
000310 50 fd fa 3c 9f fc 2f bd 36 50 d6 bc ad 53 b7 bc
       0.030638367 -0.042965528 -0.026161294 -0.022378767
000320 69 30 9c bd ab 95 ba bd e3 e2 1b bd aa 2a 84 3c
       -0.07626421 -0.09110578 -0.038058173 0.016133625
000330 3f ae 16 bd ef ec 9b 3d a8 6f 7b bc 2b bf ca 3d
       -0.036787268 0.07613551 -0.015346445 0.09899744
000340 a7 72 8a bd e8 26 aa bd ec 58 20 bd 4f fc 17 3d
       -0.067601494 -0.08308202 -0.039147303 0.037105855
000350 ad e1 d2 bc f8 b8 cc bc 6b 0e 3b bc 2f a2 46 bd
       -0.025742376 -0.024990544 -0.011417012 -0.048494514
000360 2a 3b 1e 3d 46 f8 bb bd 56 e8 57 3d 48 fc fe bc
       0.038630642 -0.09178214 0.052711807 -0.031126156
000370 a5 93 60 3c 24 41 95 3d ee 7b 26 3c c0 93 b8 bb
       0.013707076 0.07287815 0.010161383 -0.0056328475
000380 64 e2 03 be 61 b7 08 3d 69 4d 75 bb 48 0e b6 bd
       -0.1287933 0.03337801 -0.0037430173 -0.08889443
000390 7a bb 90 3c f4 ec 19 3c 6b d3 42 3c d0 12 c9 bd
       0.01766752 0.009394873 0.011891226 -0.09818041
0003a0 df 39 83 3d d5 01 c2 bd 8c b5 11 bd 27 be 9d bd
       0.064075224 -0.09473006 -0.035573527 -0.07702284
0003b0 b5 74 26 bd 03 84 93 3d 98 35 3c bc 81 53 76 3d
       -0.040638644 0.072029136 -0.011487387 0.06013823
0003c0 74 1a 14 3c 11 ed 0e 3d 42 57 bf bd d2 2e a1 3d
       0.00903951 0.034894053 -0.09342815 0.078702584
0003d0 42 9f 69 3c 69 61 59 39 18 43 8c bb 60 11 65 3d
       0.014259161 0.00020731021 -0.004280459 0.055924773
0003e0 79 56 ea bd fc 7d f9 3c cb 59 57 3d db 44 1c 3c
       -0.114422746 0.030455582 0.052575868 0.009537901
0003f0 2c 72 71 ba e6 e4 e8 3c 66 f9 4e bc 42 bd c8 bc
       -0.00092104333 0.02842946 -0.012632703 -0.024504308

bias f4 [128]
000000 19 1d 1a 3e c4 b8 00 be f0 3c ae bd 14 68 db 3d
       0.15050162 -0.12570482 -0.08507717 0.10713211
000010 ea b3 07 3e 58 ea a2 bd 89 b9 98 3d 31 be 22 3e
       0.13252226 -0.07954854 0.07457263 0.15892865
000020 67 91 63 bd 68 03 2a 3d 61 85 84 3d 10 fd 29 3e
       -0.05555859 0.041507155 0.064707525 0.16600442
000030 f8 94 04 be fc f0 f9 3d a6 7e d5 3d e4 3d ca bd
       -0.12947452 0.12204167 0.10424547 -0.09875086
000040 30 9a 8b 3d c1 39 04 be 3a 50 cc 3d d8 bb 11 3e
       0.06816518 -0.12912656 0.099762395 0.14231813
000050 8e 2a d1 3d a9 35 b9 bd 7e 64 d9 bd 3f 3b 10 be
       0.10213195 -0.09043438 -0.106148705 -0.140851
000060 df dd 88 3d 73 a8 dc bb 8a ab 7d 3d a8 4e 1e bd
       0.066829436 -0.006733948 0.06193117 -0.03864923
000070 cd 3a 6b 3d 53 cf 0b 3e 0d 6a f1 bd f9 92 ae 3b
       0.057429124 0.13653307 -0.11787806 0.005327579
000080 cb 79 cb 3d d5 29 0e be a3 95 b5 bb 25 41 0d 3e
       0.099353395 -0.13883145 -0.0055415197 0.13794382
000090 88 03 d9 bd 09 b3 21 3e b6 6b 28 3e 9e 88 0f 3d
       -0.10596377 0.15790953 0.16447338 0.035042398
0000a0 29 64 48 bd 39 80 19 be eb 0b 93 bd e2 25 03 3e
       -0.048923645 -0.1499032 -0.071800075 0.1280742
0000b0 f6 e9 d5 3d 46 19 b4 3d e0 2d ce 3d 90 cb fe 3d
       0.10445015 0.08793883 0.10067344 0.1244117
0000c0 04 08 08 be b5 8e c6 bb 5b f8 d3 3d 09 1a 0c bd
       -0.13284308 -0.0060594925 0.103501044 -0.034204517
0000d0 86 9a ed bd 43 66 ea 3c c4 9b 92 bd 3e 61 ee 3d
       -0.11601739 0.028613215 -0.07158616 0.11639641
0000e0 63 18 a1 bd 6b cb 05 3e 7e 72 bf 3d ea 62 df 3d
       -0.078659795 0.13065879 0.093480095 0.10907538
0000f0 35 03 bf 3c 61 c5 1c be 7d 89 23 3c b4 85 13 3e
       0.023316959 -0.15309669 0.00998151 0.14406472
000100 7b e8 73 3d 03 cc 8f bd 98 19 57 bd 77 aa a3 bc
       0.059547883 -0.07021334 -0.052514642 -0.019978745
000110 37 f9 f2 3d 24 da dc bd 88 79 2a bd 33 34 b7 bd
       0.1186394 -0.107837945 -0.041619807 -0.08945503
000120 18 16 7f bd b2 4d 73 3d 6d af cf bd 83 c1 9f 3d
       -0.06227693 0.059400268 -0.10140882 0.07800581
000130 83 07 d7 3d e3 dd 02 3e 72 f4 05 3e 1b 41 cc bd
       0.104994796 0.12779956 0.1308153 -0.099733554
000140 e4 18 0c 3e 89 ff dd bd a1 a8 bb 3d c8 56 de 3d
       0.1368137 -0.10839755 0.09163023 0.10856396
000150 09 f7 f1 3d 96 1a 98 bd 28 ff 2e bd d8 a4 34 3e
       0.11814696 -0.07426946 -0.042723805 0.17641008
000160 ac 4e cc bc a7 a1 03 be 7d 73 21 bd c5 83 96 3c
       -0.024939857 -0.12854634 -0.03941678 0.01837338
000170 83 7a f4 3d bd 6b c2 3d 61 e9 05 3d 9d 78 c0 3d
       0.1193743 0.09493206 0.03269327 0.09398005
000180 cc 20 a3 bc 5b 1a de 3d 60 25 a2 3d 5d 63 fe 3d
       -0.0199131 0.10844871 0.07917285 0.12421296
000190 cd 7d 31 be ee 89 ea 3d 7c b6 aa bd 7b 5b ea 3d
       -0.17333145 0.11452089 -0.083355874 0.1144323
0001a0 cb 61 7d 3d 36 93 65 3c 72 0a ce bd eb 5b 59 bd
       0.06186084 0.014012149 -0.10060586 -0.053066175
0001b0 71 6b cc bc de 9e 7e bd b8 42 20 3e d4 a9 18 3c
       -0.024953576 -0.062163226 0.15650451 0.009317834
0001c0 ed 7c dc 3d 8a 7b 9e bd cf 5e ff bd 73 b4 03 be
       0.10766015 -0.07738407 -0.12469255 -0.12861805
0001d0 67 4c 6e bd 1f b0 1d 3e 1d c4 8c bd 7e 2a bd bd
       -0.05817833 0.15399216 -0.06873343 -0.0923662
0001e0 ac b8 05 3d 19 43 2e 3d 30 52 77 bd 99 6c 12 be
       0.03264682 0.042544458 -0.060381114 -0.14299239
0001f0 34 ba b7 bd 72 26 0b bd 98 e4 07 3e 23 bc 33 bd
       -0.08971062 -0.03397221 0.13270795 -0.043880593
