result/aug74_then_gan_40_model_21.pt (torch, 934338 bytes, 9 tensors)

weight f4 [128, 13]
0	0xbe814589	-0.25248364
1	0x3de96363	0.1139591
2	0x3e3e0bb7	0.18559156
3	0xbe809556	-0.25113934
4	0x3e83037b	0.25588593
5	0xbeb1814b	-0.34668955
6	0xbb828eb5	-0.003984297
7	0x3d1fe9a0	0.03904116
8	0xbda615ed	-0.08109651
9	0x3bdafe51	0.006683149
10	0xbeff0b1d	-0.49813166
11	0x3d931cf1	0.071832545
12	0xbebd7ec8	-0.3701079
13	0xbd407619	-0.046987627
14	0xbdff937f	-0.124793045
15	0x3e57d4a9	0.21077217
16	0x3c4af9c8	0.012388654
17	0x3e0f654e	0.14003488
18	0x3eac977d	0.33709326
19	0xbe9916c4	-0.2990018
20	0xbe8c581f	-0.2741098
21	0xbd0c6868	-0.034279257
22	0xbdfff8d0	-0.12498629
23	0xbe1a1891	-0.15048434
24	0xbb822084	-0.0039711613
25	0xbecfff21	-0.40624335
26	0x3eadd648	0.33952546
27	0xbcd55232	-0.02604017
28	0x3e82154c	0.25406873
29	0xbdd82956	-0.10554759
30	0xbe056871	-0.13028122
31	0xbf03d794	-0.5150082
32	0x3ea493db	0.32144055
33	0x3e8daa2f	0.27668902
34	0x3e322e8f	0.17400573
35	0xbdb31bbc	-0.08745524
36	0xbebfd50a	-0.37467223
37	0xbd97e5a1	-0.07416845
38	0x3de676d1	0.11253131
39	0xbd21a554	-0.03946431
40	0xbd927211	-0.07150663
41	0xbcd1e6da	-0.025622774
42	0xbe330dea	-0.17485777
43	0x3e62c675	0.22146018
44	0x3c9e1e13	0.01930145
45	0xbd731386	-0.05934479
46	0xbea61188	-0.3243525
47	0xbbb1eb1d	-0.005429639
48	0x3e343b5f	0.17600773
49	0xbd3c9a16	-0.046045385
50	0x3c333ce8	0.010939814
51	0xbeebb0e7	-0.46033403
52	0x3d0ae4d4	0.033909634
53	0xbb31c10b	-0.002712312
54	0xbd54b982	-0.051934727
55	0xbe89c76f	-0.26909968
56	0xbf33e279	-0.70267445
57	0x3d5b7864	0.05358161
58	0xbe1be035	-0.15222247
59	0xbe507bc7	-0.20359717
60	0xbdd3598c	-0.10319814
61	0x3d251102	0.040299423
62	0xbe602e9e	-0.21892783
63	0xbe287e8d	-0.16454525
64	0x3e2066bf	0.15664195
65	0x3dd6ba99	0.104848094
66	0xbe1812ba	-0.14850894
67	0xbe4191ea	-0.18903318
68	0xbe801d3c	-0.25022304
69	0xbe49894b	-0.1968128
70	0x3cb067df	0.021533905
71	0xbe235d36	-0.15953526
72	0x3d4d4496	0.050114237
73	0xbd64fbe3	-0.05590428
74	0xbe5e63bb	-0.21717732
75	0x3c0f9c12	0.008765237
76	0x3dd721e2	0.105045095
77	0x3ea7dce5	0.32785717
78	0xbd7b0dcb	-0.06129245
79	0xbd35a7ef	-0.044349607
80	0x3dd5de1e	0.10442756
81	0x3e907e44	0.28221333
82	0x3d849d4c	0.064753145
83	0xbeb42e81	-0.3519173
84	0xbdb67653	-0.08909287
85	0x3ea9f850	0.3319726
86	0xbdea230c	-0.11432466
87	0xbed58526	-0.41703147
88	0xbe0f03a4	-0.13966233
89	0xbc7bfd17	-0.015380166
90	0xbf043030	-0.5163603
91	0xbe9350de	-0.28772634
92	0x3d9f5411	0.07779706
93	0xbe99b98f	-0.30024382
94	0x3e639973	0.22226505
95	0xbe1badea	-0.15203062
96	0x3e957426	0.29190177
97	0xbe2cf716	-0.16891131
98	0xbd39a0c8	-0.04531935
99	0xbe85f919	-0.2616661
100	0xbe6d2254	-0.23157626
101	0x3e2a335c	0.16621155
102	0x3d281ac5	0.041041154
103	0xbd956bbb	-0.072959386
104	0xbcc99cfa	-0.024610985
105	0xbe7bf9b7	-0.24606977
106	0x3e715a7b	0.23569672
107	0xbe31e95b	-0.17374174
108	0x3d8156f8	0.06315416
109	0xbdb8425c	-0.08997032
110	0x3e6f7a24	0.23386437
111	0xbe16f923	-0.14743476
112	0xbe8aaa64	-0.27083123
113	0xbdea775a	-0.11448546
114	0x3e608d2c	0.21928853
115	0x3e0a51a3	0.13507704
116	0xbe3bd121	-0.18341495
117	0x3e606e33	0.21917038
118	0xbe9012d6	-0.2813937
119	0xbde9214a	-0.113833025
120	0x3d8093bf	0.0627818
121	0x3b7fb85c	0.00390198
122	0xbe8b7137	-0.27234814
123	0x3e8945ca	0.26811057
124	0x3e9f726d	0.31141987
125	0x3ebb10c0	0.36536217
126	0xbe1a7fa6	-0.15087757
127	0xbf193574	-0.5984719
128	0xbe2217d0	-0.15829396
129	0xbe90ad12	-0.28257042
130	0xbe2733d6	-0.16328368
131	0x3e553a5f	0.20823048
132	0x3df6253f	0.12018823
133	0xbd526cf0	-0.051373422
134	0x3e605261	0.21906425
135	0xbe8ed003	-0.27893075
136	0xbdc190c9	-0.09451444
137	0xbeaea49b	-0.3410996
138	0x3aba86c9	0.0014230843
139	0x3e5fddc9	0.21861948
140	0x3e938721	0.28814033
141	0x3e36696d	0.17813654
142	0xbebc1626	-0.36735648
143	0xbd05494c	-0.032540604
144	0xbdbc6c7d	-0.0920038
145	0x3e6debaf	0.23234437
146	0xbe94e6b8	-0.29082274
147	0x3e90fe72	0.28319126
148	0xbd8fcca9	-0.07021458
149	0xbe8840b7	-0.26611874
150	0xbeb2d379	-0.34926966
151	0x3dc889c8	0.09791905
152	0x3d8d731d	0.06906722
153	0xbe6744fa	-0.22584906
154	0x3b14e8f7	0.0022721866
155	0xbec33433	-0.38125762
156	0xbd68d255	-0.056841213
157	0xbc689bf3	-0.014197337
158	0x3e8e64e7	0.27811357
159	0x3ec06f5e	0.37584966
160	0xbe870f91	-0.26379064
161	0xbebdcb2d	-0.37069073
162	0x3c9d2d7b	0.019186726
163	0xbea8e8bb	-0.3299006
164	0xbee0110a	-0.43763
165	0xbe8bdd28	-0.27317166
166	0x3ea0f920	0.31440067
167	0x3daef326	0.08542471
168	0xbcfd07f1	-0.030887576
169	0x3e2910e3	0.16510348
170	0x3e937c62	0.28805834
171	0x3e0c610f	0.137089
172	0x3e0a3f23	0.13500647
173	0xbe1e8306	-0.15479669
174	0xbe3d6a5f	-0.18497609
175	0x3e6cec3b	0.2313699
176	0x3e566fcb	0.20941083
177	0x3e0e0724	0.13869911
178	0xbd41fe8c	-0.047361895
179	0x3e688759	0.22707881
180	0xbd105a1a	-0.035242178
181	0xbe4a6c11	-0.19767787
182	0xbea6aeab	-0.32555136
183	0x3e1ce215	0.15320618
184	0xbe184ca6	-0.14872989
185	0x3d9d75c0	0.07688475
186	0xbc2d349b	-0.010571624
187	0x3e70a448	0.23500168
188	0x3d3d7d66	0.046262167
189	0xbe73d5a9	-0.23811974
190	0xbd59cb04	-0.053172126
191	0x3e8887d5	0.26666132
192	0x3e15c501	0.14625932
193	0x3dc47967	0.09593468
194	0x3e55447f	0.2082691
195	0xbd2ce51a	-0.042210676
196	0x3ddf0d69	0.1089123
197	0x3e48001f	0.19531296
198	0xbd43b13c	-0.047776446
199	0xbe0519b7	-0.1299809
200	0x3eae882a	0.3408826
201	0xbe499dac	-0.19689053
202	0xbe609f07	-0.21935664
203	0xbdd5e3cf	-0.10443842
204	0x3ea0723b	0.3133715
205	0xbdd2936e	-0.10282026
206	0x3df9941b	0.12186452
207	0x3d986b4c	0.0744234
208	0x3e16cf8f	0.14727615
209	0x3d91c530	0.07117689
210	0xbe49337d	-0.19648547
211	0xbeeb447d	-0.4595069
212	0x3e44adc4	0.19206911
213	0xbda5f066	-0.08102493
214	0x3e743eec	0.23852128
215	0xbe1d425e	-0.15357348
216	0x3e42bbec	0.19016999
217	0xbeaa491b	-0.332589
218	0xbe9939da	-0.2992695
219	0x3be80e82	0.0070818076
220	0x3b650ecd	0.003495145
221	0x3e9d9dc9	0.30784443
222	0x3e4e0df3	0.20122509
223	0x3de89d1f	0.113580935
224	0xbe894eb4	-0.26817858
225	0x3e029eee	0.1275594
226	0x3eefd0b8	0.46838927
227	0xbe0c8863	-0.13723902
228	0xbdb3c4c2	-0.08777763
229	0xbc5cff05	-0.013488536
230	0x3ea19e42	0.31566054
231	0xbdb456ab	-0.08805593
232	0xbe210c20	-0.15727282
233	0x3cc01ca2	0.023451153
234	0xbe3beac4	-0.18351275
235	0xbea745b4	-0.32670367
236	0x3e264b4d	0.16239662
237	0x3e8b0814	0.271546
238	0xbdfa5854	-0.122238785
239	0x3e5bd544	0.21468073
240	0x3e6b07f8	0.22952259
241	0xbeb88128	-0.36036038
242	0xbeb8974b	-0.36052927
243	0x3dac2b7e	0.08406733
244	0xbde703fd	-0.112800576
245	0x3cb38b91	0.021917136
246	0xbed2acac	-0.41147363
247	0xbded04b2	-0.11573161
248	0x3e8a0771	0.26958802
249	0x3d573c50	0.052547753
250	0x3de04fc0	0.10952711
251	0xbed79d46	-0.42112178
252	0xbe6157be	-0.22006127
253	0xbe842f2d	-0.25817242
254	0x3eaaf7ee	0.3339228
255	0xbe99efe0	-0.30065823

bias f4 [128]
0	0xbe1c3732	-0.1525543
1	0x3eb12c35	0.3460404
2	0xbe936468	-0.2878754
3	0x3e55b7f0	0.20870948
4	0xbe46743e	-0.1938028
5	0x3e025f1b	0.12731592
6	0x3e2d1b3f	0.16904925
7	0xbd780227	-0.060548928
8	0xbe608282	-0.21924785
9	0xbea8fa55	-0.33003488
10	0xbe501730	-0.20321345
11	0x3e4680df	0.19385098
12	0x3deef9fc	0.116687745
13	0x3e5d5267	0.21613465
14	0x3e94fee6	0.29100722
15	0x3e6dc9c8	0.23221505
16	0xbe1c5dfd	-0.15270229
17	0xbe05cf15	-0.13067277
18	0xbd9bf6c5	-0.07615427
19	0x3e471dde	0.19444987
20	0x3d91af0b	0.07113465
21	0x3d9afa6c	0.075672954
22	0xbda831df	-0.08212637
23	0x3dbdff9c	0.09277269
24	0xbd38f3ae	-0.045154266
25	0x3e338397	0.17530666
26	0x3d982459	0.07428808
27	0xbdfc1eeb	-0.12310585
28	0xbde14972	-0.11000337
29	0x3d9088e9	0.070573635
30	0x3df3379e	0.118758425
31	0xbe1a177a	-0.15048018
32	0x3e8376e2	0.25676638
33	0x3db14c20	0.08657098
34	0x3d9128e8	0.070878804
35	0xbe391dda	-0.18077794
36	0xbe4afe16	-0.19823489
37	0xbe8a51d2	-0.2701555
38	0xbc0bdc0c	-0.00853635
39	0x3e80dd6e	0.25168937
40	0xbe03dbd1	-0.12876822
41	0x3e2710b6	0.16314968
42	0x3cedb763	0.02901811
43	0xbd8ba5f4	-0.068187624
44	0x3e14dcc3	0.14537339
45	0xbe605bfb	-0.21910088
46	0xbe3e57df	-0.18588208
47	0x3df9aa1c	0.12190649
48	0xbaad6b05	-0.0013230747
49	0x3e20ed98	0.15715635
50	0x3c7b3b6a	0.01533399
51	0xbcad1010	-0.021125823
52	0xbc6567a8	-0.014001764
53	0x3e930e52	0.28721863
54	0x3e95a428	0.29226804
55	0xbe74c2f9	-0.23902501
56	0x3d2b6fe1	0.041854743
57	0xbe52c7db	-0.20584051
58	0x3d84ebf6	0.064903185
59	0xbe714a3b	-0.23563473
60	0x3e5bad31	0.21452786
61	0x3e91984d	0.2843651
62	0xbd94ccf1	-0.07265652
63	0x3e5a3df1	0.21312691
64	0x3ea4cb14	0.32186186
65	0xbe474351	-0.19459273
66	0x3d7b9050	0.061416924
67	0xbbfc5cc6	-0.007701489
68	0xbcb559cf	-0.02213755
69	0xbe807dd8	-0.2509601
70	0xbe611f8c	-0.2198469
71	0x3e589430	0.21150279
72	0xbe9b81a2	-0.3037234
73	0xbe9cab8d	-0.30599633
74	0x3d6ce973	0.057839822
75	0xbe3e5b25	-0.18589456
76	0xbd32ec11	-0.04368216
77	0xbe202e38	-0.15642631
78	0xba6d22bf	-0.000904601
79	0xbcea11cc	-0.02857294
80	0x3e1dfba1	0.1542802
81	0xbeb3adb9	-0.35093477
82	0x3e4d9926	0.20077953
83	0xbdd61bd2	-0.10454525
84	0xbe8b4341	-0.27199748
85	0x3d673f96	0.056457125
86	0xbe30ae77	-0.17254053
87	0xbe09d053	-0.13458376
88	0x3e378695	0.17922433
89	0xbe2e383e	-0.17013642
90	0xbe19efe7	-0.15032922
91	0x3e34ae13	0.17644529
92	0xbd5d8356	-0.05408033
93	0x3d7b117d	0.061295975
94	0xbbe635b7	-0.0070254463
95	0xbda173d1	-0.07883418
96	0x3e2d9832	0.16952589
97	0x3cf922eb	0.030412158
98	0xbcfc375e	-0.03078812
99	0x3dadff50	0.084959626
100	0xbdfa39fe	-0.122180924
101	0x3d9d6cb1	0.07686747
102	0xbdc1f8d5	-0.09471289
103	0xbd462c7a	-0.04838226
104	0xbe823bde	-0.254363
105	0x3e99f8c3	0.30072603
106	0x3e6c4cd2	0.2307618
107	0xbd551336	-0.052020274
108	0x3e3b6ab7	0.18302427
109	0x3e92dc4a	0.28683692
110	0xbe498709	-0.19680418
111	0xbbeded11	-0.0072609265
112	0xbe845242	-0.25844008
113	0xbd668e33	-0.056287955
114	0xbea1c81d	-0.31597987
115	0x3e1dae03	0.15398411
116	0xbe5667ce	-0.20938036
117	0x3d1e350f	0.03862482
118	0xbe5c8efe	-0.21538922
119	0x3cf336c8	0.029689208
120	0xbe28f541	-0.16499807
121	0x3d924f55	0.07144038
122	0xbe3040dc	-0.17212242
123	0xbdb08c30	-0.08620489
124	0x3dc748e9	0.097307034
125	0x3d74a86f	0.059730943
126	0x3e8f896e	0.28034538
127	0xbe779550	-0.24178052

weight f4 [256, 128]
0	0xbc87af90	-0.016563207
1	0xbdd4a5b0	-0.10383165
2	0x3cc1f3b7	0.023675783
3	0x3c5c6a9b	0.013453151
4	0x3cacb066	0.021080207
5	0x3df25e32	0.118343726
6	0xbd4e6996	-0.050393663
7	0xbb2ab798	-0.0026049372
8	0xbd3bd147	-0.04585388
9	0x3b01adeb	0.00197875
10	0x3d5b82e0	0.05359161
11	0xbd60c650	-0.054876626
12	0x3cdc295e	0.026875194
13	0xbd08d22c	-0.03340356
14	0x3dab4d15	0.083643116
15	0x3dcdc4b6	0.10047285
16	0xbd574750	-0.052558243
17	0xbd3811c1	-0.044938806
18	0xbe09eb97	-0.13468777
19	0xbcc2fbb9	-0.023801671
20	0xbd2780b3	-0.04089422
21	0x3e44fdba	0.19237414
22	0x3d40f70d	0.047110606
23	0xbdab5d8f	-0.08367454
24	0x3c83aa01	0.016072275
25	0xbd13be30	-0.03607005
26	0xbbff3361	-0.0077881073
27	0x3d804f0e	0.062650785
28	0x3d515771	0.05110878
29	0xbcf86d02	-0.030325416
30	0x3d7aa187	0.0611892
31	0xbdb4ed8c	-0.08834371
32	0xbc415053	-0.011798936
33	0x3e5d0da2	0.21587232
34	0x3cbfa9fe	0.023396488
35	0x3d5af601	0.053457264
36	0xbd7d4751	-0.06183559
37	0xbd1b4e56	-0.037916504
38	0xbd7dece7	-0.061993506
39	0xba3c84cb	-0.00071914186
40	0xbd89e7ed	-0.067336895
41	0xbdb8aaaf	-0.0901693
42	0xbc441e07	-0.01197005
43	0x3d93ec7b	0.072228394
44	0x3c3c6826	0.01149944
45	0xbe5ca344	-0.21546656
46	0x3d690c85	0.056896705
47	0x3e5ac481	0.21364023
48	0xbd05e569	-0.032689486
49	0x3d937888	0.07200724
50	0xbd821bb4	-0.0635294
51	0xbe677fdc	-0.22607368
52	0xbd76e73f	-0.060279127
53	0xbd6744af	-0.056461986
54	0x3cb839bc	0.022488467
55	0x3ce922fa	0.028459061
56	0x3ca350fc	0.019936077
57	0x3b32eeda	0.002730301
58	0x3e23e6d5	0.16006024
59	0x3cef9ab7	0.029248578
60	0x3e0aa7f9	0.13540639
61	0x3da9b36a	0.08286174
62	0xbd68dbba	-0.056850173
63	0x3d82d454	0.063881546
64	0xbda94176	-0.08264439
65	0xbaac090f	-0.0013125258
66	0x3d394813	0.04523475
67	0xbdbc05fe	-0.091808304
68	0xbd4668bc	-0.048439726
69	0xbd1e5f2d	-0.038664985
70	0xbd981359	-0.07425565
71	0x3db04518	0.086069286
72	0xbc8e0940	-0.017338395
73	0xbde7e849	-0.11323602
74	0x3e3d4728	0.18484175
75	0xbda9103d	-0.0825505
76	0xbd96f65e	-0.073712096
77	0xbd26a78b	-0.040687125
78	0xbddf2647	-0.10895973
79	0x3d34df84	0.044158474
80	0xbd3c06f9	-0.045905087
81	0xbd5b2ef4	-0.053511575
82	0x3d834e13	0.06411376
83	0xbd5d5fb2	-0.05404634
84	0xbd01fef4	-0.031737283
85	0x3dee957f	0.11649608
86	0x3d8a2fde	0.06747411
87	0x3d80eb6d	0.06294904
88	0xbd567e36	-0.052366458
89	0xbdbc1a9b	-0.09184762
90	0xbe01cb48	-0.12675202
91	0x3da2e54c	0.07953891
92	0xbca86d99	-0.020560073
93	0xbdcdb8f5	-0.100450434
94	0xbbe5d8c0	-0.007014364
95	0xbd227d37	-0.039670195
96	0xbd8f6eb8	-0.0700354
97	0xbd7bf78f	-0.061515387
98	0xbdae249f	-0.08503079
99	0x3cb26e59	0.021781133
100	0x3bd82563	0.0065962537
101	0x3d95262d	0.07282672
102	0xbc9e5cd5	-0.019331375
103	0xbdaddfc3	-0.08489945
104	0xbdc9f3ef	-0.0986098
105	0xbd8118cd	-0.063035585
106	0x3d05a210	0.032625258
107	0x3d3aa6d9	0.045569275
108	0x3d8b8449	0.06812341
109	0xbb21b21b	-0.002467281
110	0x3d883735	0.06651155
111	0x3cc28cb5	0.023748735
112	0xbd723953	-0.0591367
113	0x3ca8bdd8	0.020598337
114	0xbd45cd68	-0.048291594
115	0xbd1dc257	-0.038515415
116	0x3b5aa812	0.0033364338
117	0x3e0ea181	0.13928796
118	0xbd883570	-0.066508174
119	0x3df3690c	0.118852705
120	0xbcbdd566	-0.023173045
121	0xbcc7f80a	-0.024410266
122	0x3d16a6bc	0.036780104
123	0x3c0b9d91	0.0085214535
124	0x3ea1fc67	0.3163788
125	0x3cf6addb	0.030112198
126	0xbd52f0d7	-0.051499214
127	0xbd9c93cc	-0.076453775
128	0xbc144eb1	-0.009051965
129	0xbe25d9a8	-0.1619631
130	0x3df3b893	0.11900439
131	0xbd0813fb	-0.03322218
132	0xbe05d470	-0.1306932
133	0xbdfe3ec8	-0.12414318
134	0xbd2f94f1	-0.04286665
135	0x3d2f9c3d	0.04287361
136	0xbd3f99dd	-0.046777595
137	0x3dccde44	0.10003331
138	0x3bd29025	0.006425875
139	0xbcdfc1bc	-0.02731406
140	0xbdf236d5	-0.11826865
141	0xbd33d9a2	-0.043908723
142	0xbd75df83	-0.06002761
143	0xbe6d43db	-0.23170416
144	0x3dbd0f30	0.092314124
145	0xbdda5b86	-0.10661988
146	0xbdcda501	-0.100412376
147	0xbc989df4	-0.018630005
148	0xbcf68f17	-0.030097527
149	0xbd4c766a	-0.049917616
150	0x3dc4c0f5	0.09607116
151	0xbcb5466c	-0.022128306
152	0x3db45f05	0.08807186
153	0xbda87ab3	-0.08226528
154	0x3d905484	0.0704737
155	0x3c9ae4a5	0.018907854
156	0xbd788c13	-0.06068046
157	0xbdac2212	-0.08404936
158	0x3d97ceb6	0.07412474
159	0xbcf36b77	-0.02971433
160	0xbd268674	-0.04065557
161	0x3df57d3e	0.11986779
162	0xbdf816cd	-0.12113724
163	0x3caf1163	0.021370595
164	0xbb86c631	-0.0041129817
165	0x3d527e66	0.051390074
166	0xbbb8cf34	-0.005639935
167	0xbd0b1bf3	-0.0339622
168	0x3adf35ce	0.0017029585
169	0xbb1c7044	-0.0023870626
170	0xbd76d15c	-0.060258254
171	0xbbced704	-0.006312253
172	0xbd690260	-0.05688703
173	0xbcaefbb8	-0.021360263
174	0xbc9f9ee2	-0.01948494
175	0x3d5bdae0	0.053675532
176	0x3de1823b	0.110111676
177	0xbd1b3bb3	-0.03789873
178	0xbe3f45a7	-0.18678914
179	0x3d472595	0.048619825
180	0xbb9c999c	-0.004779054
181	0xbd7a68ac	-0.06113498
182	0x3d4c3129	0.04985157
183	0xbdb6c17a	-0.089236215
184	0xbce605de	-0.02807897
185	0x3d8f086c	0.06984028
186	0x3b794dfd	0.003804087
187	0x3e04e76b	0.12978904
188	0xbd0a439c	-0.033755884
189	0xbbb13e5f	-0.0054090465
190	0xbd8e3e27	-0.06945448
191	0xbcca45e3	-0.024691528
192	0xbdbc23ed	-0.0918654
193	0x3b8cd552	0.0042978907
194	0xbd86c915	-0.06581322
195	0xbbcd14d3	-0.006258586
196	0xbbd2d160	-0.006433651
197	0x3c009207	0.007847316
198	0x3dccafc7	0.09994464
199	0xbdb37e70	-0.087643504
200	0x3e4243da	0.18971196
201	0x3df2f353	0.11862817
202	0x3ca2a34e	0.01985326
203	0x3c641e82	0.013923289
204	0xbc825ebe	-0.015914317
205	0x3dab74f9	0.0837192
206	0xbd36b181	-0.044602875
207	0x3da500e1	0.08056808
208	0xbc55995b	-0.013037051
209	0x3d86592a	0.065599754
210	0xbcbb4006	-0.022857677
211	0x3c946ffa	0.0181198
212	0x3c92f6d3	0.01793996
213	0xbd25f5be	-0.04051756
214	0xbd87cb96	-0.06630628
215	0xbcee2398	-0.029069707
216	0xbb586a89	-0.0033022484
217	0xbd7babec	-0.061443254
218	0x399ff1d4	0.0003050702
219	0xbd97a494	-0.07404438
220	0x3cfc0f19	0.030768918
221	0x3de50c37	0.111839704
222	0xbca40bae	-0.0200251
223	0xbd788c64	-0.060680762
224	0x3d20e1a5	0.03927769
225	0xbcd9a69e	-0.026568707
226	0xbd4dec5c	-0.050274238
227	0xbdf3de04	-0.119075805
228	0x3d09a208	0.03360179
229	0xbda5a10d	-0.080873586
230	0x3dc50e4f	0.0962187
231	0xbe1ffccf	-0.15623783
232	0x3c41049a	0.011780882
233	0xbe071820	-0.13192797
234	0xbd0666d4	-0.03281291
235	0xbd68f200	-0.056871414
236	0x3d243eb9	0.04009888
237	0x3d0ca610	0.034338057
238	0xbd54dc9e	-0.05196821
239	0xbdead0c6	-0.114656016
240	0x3d53383a	0.051567294
241	0x3da4ed27	0.08053046
242	0x3c920d5e	0.01782864
243	0xbc6d6ed7	-0.014491758
244	0xbbe94424	-0.0071187187
245	0xbc038502	-0.008027317
246	0xbda0154b	-0.07816561
247	0x3c629f32	0.0138319
248	0xbd5c4139	-0.05377314
249	0xbe10b0cc	-0.14129943
250	0x3b8191e6	0.00395416
251	0x3cc7db4f	0.024396567
252	0xbdb0280a	-0.08601387
253	0xbde2b203	-0.11069109
254	0xbdc40de8	-0.09572965
255	0xbd72034e	-0.059085183

bias f4 [256]
0	0x3d7d41f9	0.061830495
1	0xbca1a5f6	-0.019732457
2	0xbb5a9d87	-0.0033358054
3	0x3dabf347	0.08396011
4	0xbcae8bcd	-0.021306897
5	0xbdc2ad7c	-0.09505746
6	0x3c27d851	0.010244445
7	0xbdc8e5a5	-0.09809426
8	0xbd9978b1	-0.07493723
9	0xbd878224	-0.06616619
10	0x3d832499	0.06403465
11	0xbd4ee0d8	-0.050507396
12	0xbd9aa167	-0.07550316
13	0x3d3d89b4	0.046273902
14	0xbd8f2272	-0.06988992
15	0xbdde806b	-0.108643375
16	0xbd8d6a66	-0.069050595
17	0xbd76dc63	-0.06026877
18	0xbd1ae300	-0.03781414
19	0x3d0695f1	0.03285784
20	0xbd812afb	-0.06307026
21	0xbd5450e7	-0.051834967
22	0xbb267908	-0.002540173
23	0x3d1f25ee	0.038854532
24	0xbcebf38b	-0.028802654
25	0x3d038013	0.032104563
26	0x3d0ebbb7	0.034846988
27	0x3d45b13d	0.04826473
28	0xbd4f64d8	-0.05063328
29	0xbb68b762	-0.0035509695
30	0xbd11fab6	-0.035639487
31	0xbd917b21	-0.07103563
32	0xbc83a621	-0.016070427
33	0x3d485396	0.04890784
34	0xbd21a8b1	-0.039467517
35	0xbd844532	-0.064585105
36	0xbcd0199f	-0.025402842
37	0xbcdc9436	-0.026926141
38	0x3d1bc063	0.03802527
39	0x3b2a334c	0.0025970517
40	0x3cc0831c	0.023500018
41	0x3e0283fb	0.12745659
42	0x3d212e76	0.03935095
43	0x3cbf5a77	0.023358567
44	0x3dc244a7	0.09485751
45	0xbc4ec05c	-0.012619104
46	0x3d243c90	0.04009682
47	0xbd4bfa7b	-0.049799424
48	0x3d578d56	0.052625023
49	0x3ca9f410	0.02074626
50	0x3b5eaaa3	0.003397622
51	0x3d18f217	0.03734025
52	0x3c807719	0.01568179
53	0x3d9cc995	0.07655636
54	0xbd2c0218	-0.041994184
55	0x3d729927	0.05922809
56	0xbd31f41a	-0.043445684
57	0x3c5042b5	0.012711217
58	0xbdacd9e8	-0.0844
59	0xbcb71b02	-0.022351746
60	0x3cd17f00	0.025573254
61	0xbd846ad5	-0.06465689
62	0xbd4db9c9	-0.050226007
63	0x3d9b2104	0.075746566
64	0xbcf4eb4a	-0.02989735
65	0x3c827ea2	0.015929524
66	0xbd5cba17	-0.053888407
67	0xbd90da68	-0.07072908
68	0xbd67a2fc	-0.05655192
69	0xbdd1aeb6	-0.102384016
70	0x3e1ac231	0.1511314
71	0xbdaa90c9	-0.08328397
72	0xbd8760b0	-0.066102386
73	0xbd5b25e7	-0.053502943
74	0x3d7b1700	0.06130123
75	0x3d9644e7	0.07337361
76	0x3d2452b1	0.040117923
77	0x3ce7d623	0.02830035
78	0x3d60af70	0.05485481
79	0xbdb82e11	-0.089931615
80	0x3c19e137	0.009392074
81	0x3d273f55	0.040831883
82	0x3d8440b7	0.06457656
83	0x3cd80d46	0.026373517
84	0x3ca87126	0.020561766
85	0xbd6f75da	-0.058462
86	0xbdc6a0a6	-0.0969861
87	0xbcf606de	-0.030032571
88	0xbd0c4f73	-0.034255456
89	0x3d8ac45b	0.06775733
90	0xbd180da4	-0.037122384
91	0xbd1a24cf	-0.03763276
92	0x3d3c7248	0.046007425
93	0xbd9ed17f	-0.07754802
94	0x3dc4f08b	0.096161924
95	0x3c80a78c	0.015704893
96	0x3d693118	0.056931585
97	0xba3d2414	-0.0007215154
98	0xbd086709	-0.033301387
99	0xbca51ade	-0.020154413
100	0x3cb000d8	0.021484777
101	0xbc919d27	-0.017775131
102	0xbd9b6c7e	-0.075890526
103	0x3db652d2	0.089025155
104	0x3e00b430	0.12568736
105	0xbd487c14	-0.048946455
106	0xbcd7e1cd	-0.026352787
107	0xbc98f06f	-0.018669335
108	0x3d6742f7	0.056460347
109	0x3c4a5446	0.012349194
110	0xbd8e10e9	-0.06936819
111	0xbddc791e	-0.10765289
112	0xbde8c94b	-0.113665186
113	0xbd7d5ae3	-0.061854254
114	0x3d4e128a	0.05031065
115	0xbd992dc4	-0.07479432
116	0xbd0d59b1	-0.034509365
117	0xbd17b605	-0.03703882
118	0xbb893c8a	-0.004188125
119	0xbd0ad9b8	-0.03389904
120	0xbd0fd50c	-0.035115287
121	0x3ddff9da	0.10936327
122	0xbd77f1cd	-0.060533334
123	0x3ce19f81	0.027541878
124	0xbbd1c7ab	-0.006401976
125	0x3d342522	0.043980725
126	0x3d1073fe	0.03526687
127	0x3a32bb97	0.0006818114
128	0x3d7e3be1	0.062068824
129	0x3c80eac9	0.015736954
130	0xbc91c23e	-0.017792817
131	0xbe0cc214	-0.1374591
132	0xbd80798c	-0.06273183
133	0xbd50d77e	-0.05098676
134	0x3c361c2b	0.011115114
135	0xbd1a17dd	-0.037620414
136	0x3d8cfed2	0.068845406
137	0x3cb5dacb	0.022199055
138	0x3d07d8de	0.033165805
139	0xbd020d30	-0.031750858
140	0x3d74f57a	0.059804417
141	0x3bd2bb85	0.0064310455
142	0x3d1453f4	0.036212876
143	0x3bf9643c	0.007610826
144	0xbd51ac50	-0.05118972
145	0x3c2b9ebf	0.01047486
146	0x3d790c68	0.060802847
147	0xbcebf3cb	-0.028802773
148	0xbc2cafcb	-0.010539959
149	0xbc2f27d4	-0.010690648
150	0x3cce3652	0.025172386
151	0xbd008a83	-0.031382095
152	0x3dd11e3e	0.10210846
153	0x3d986fbf	0.07443189
154	0xbd0ea8ca	-0.03482894
155	0xbc788b52	-0.015169935
156	0xbd0acd37	-0.033887114
157	0x3d91dc9e	0.071221575
158	0xbdf67c00	-0.1203537
159	0x3dcc405a	0.099732116
160	0xbda8c743	-0.08241131
161	0x3c7eecdc	0.015559401
162	0x3cf06553	0.02934519
163	0xbc3c9897	-0.01151099
164	0xbd1772a6	-0.03697457
165	0xbbed64ce	-0.007244683
166	0xbd1fe941	-0.039040808
167	0xbd5982ca	-0.053103246
168	0xbbf966de	-0.0076111397
169	0x3dcf5fda	0.10125704
170	0xbd0d9533	-0.034566116
171	0xbd6a0063	-0.057129275
172	0xbdd149d8	-0.10219163
173	0xbc1e0f4d	-0.009647203
174	0x3d9cb4eb	0.07651695
175	0xbca361e0	-0.019944131
176	0xbda0ed2f	-0.07857739
177	0x3bedb222	0.007253901
178	0xbc1561d7	-0.009117565
179	0x3c25927b	0.010105724
180	0xbd5ca91e	-0.05387222
181	0x3c186a88	0.009302743
182	0xbbd6aa6f	-0.006551079
183	0x3d840b59	0.06447477
184	0xbc312cdb	-0.010813917
185	0x3ce39e40	0.02778542
186	0xbd8789e9	-0.06618101
187	0x3d400643	0.04688097
188	0xbd08e86f	-0.03342479
189	0xbbb4f944	-0.005522879
190	0x3da0be0d	0.07848749
191	0x3d4b7650	0.04967338
192	0xbdd43d8b	-0.10363301
193	0xbd45be38	-0.04827711
194	0x3daff53f	0.08591699
195	0xbdc40439	-0.09571118
196	0x3d38b038	0.04508993
197	0x3d661de9	0.05618087
198	0x3d70ab9c	0.05875741
199	0x3d8b4200	0.06799698
200	0x3d74ca64	0.059763327
201	0xbdcb75a3	-0.09934547
202	0x3d9ec966	0.077532575
203	0xbd3835fa	-0.04497335
204	0xbdb62145	-0.088930644
205	0xbde6807c	-0.11254975
206	0xbdab4cf1	-0.08364285
207	0xbdb9e071	-0.09076012
208	0xbc994d63	-0.018713659
209	0x3d51bcce	0.05120545
210	0xbdcd5075	-0.100251116
211	0xbda50c98	-0.08059043
212	0x3cd9f8ea	0.02660795
213	0x3de36320	0.11102891
214	0xbd1702de	-0.03686797
215	0xbdf411c9	-0.11917455
216	0x3d9cc9ec	0.07655701
217	0x3d78fdd4	0.060788944
218	0xbc89fbe3	-0.016843742
219	0xbcd42bb8	-0.025899753
220	0xbd8f4724	-0.06995991
221	0xbda09e64	-0.078427106
222	0xbd8f520c	-0.06998071
223	0xbda44547	-0.08021026
224	0x3daeeb8e	0.08541022
225	0xbd45d637	-0.048299994
226	0x3df4f1d8	0.119601905
227	0xbe01dce4	-0.1268192
228	0x3cf23ce4	0.02957005
229	0x3cac3710	0.02102235
230	0xbd6a5c45	-0.0572169
231	0x3da5d1e0	0.08096671
232	0xbd81dab2	-0.06340541
233	0x3df3c3ee	0.11902605
234	0x3d510b4e	0.05103617
235	0x3c66eafc	0.014094111
236	0xbccf1985	-0.025280723
237	0xbd0b7945	-0.0340512
238	0xbb6d69d2	-0.0036226404
239	0x3dad7f73	0.08471575
240	0x3d750584	0.059819713
241	0x3d902097	0.07037466
242	0x3d04effe	0.032455437
243	0xbd01f788	-0.031730205
244	0xbcb3ce40	-0.021948934
245	0xbc963908	-0.018337741
246	0xbdf542c6	-0.11975627
247	0x3ce9c583	0.028536564
248	0x3dacf362	0.08444859
249	0xbdd6ccef	-0.10488307
250	0xbdda29bc	-0.106524915
251	0xbd35875a	-0.044318534
252	0xbe2243bb	-0.1584615
253	0xbda47bac	-0.08031401
254	0xbda07c2e	-0.078361854
255	0x3d380f76	0.04493662

weight f4 [512, 256]
0	0x3cb415cc	0.02198305
1	0xbcb90944	-0.022587426
2	0xbc20ef75	-0.009822716
3	0x3cb33894	0.021877564
4	0xbd3b64be	-0.045750372
5	0xbd834bc7	-0.06410938
6	0xbd91b646	-0.07114844
7	0x3c8ef83e	0.017452355
8	0xbbe6dc27	-0.007045287
9	0xbc9140c3	-0.017731076
10	0xbccdf508	-0.025141254
11	0x3cf16d0b	0.029470941
12	0x3d396de6	0.045270823
13	0xbbbaeab4	-0.0057042483
14	0xbd1c28fe	-0.03812503
15	0x3d876535	0.066111006
16	0xbd8930ff	-0.066987984
17	0x3c996f7b	0.018729916
18	0xbc92627f	-0.017869232
19	0xbcee81db	-0.029114654
20	0x3d55ffb7	0.05224582
21	0xbcb0e7a2	-0.021594826
22	0xbce61f9b	-0.028091243
23	0x3ce92fb5	0.028465131
24	0xbd6e2c3e	-0.05814766
25	0x3ca0809b	0.019592574
26	0x3d49082d	0.049080063
27	0x3ce07a9d	0.027402217
28	0x3cf3ca69	0.029759603
29	0x3d0935a7	0.033498432
30	0x3d8456c9	0.064618655
31	0xbbdb959e	-0.0067011854
32	0x3d94cea2	0.072659746
33	0x3d43844d	0.047733594
34	0x3d9316cc	0.071820825
35	0x3c23c214	0.009995002
36	0x3c3a554b	0.0113728745
37	0x3c3b5696	0.011434218
38	0xbceef1ee	-0.029168095
39	0x3c341aba	0.0109927
40	0x3ccfd58f	0.025370387
41	0xbd01440e	-0.031559043
42	0xbd365f58	-0.04452452
43	0x3c15aa22	0.009134801
44	0x3d52d988	0.051476985
45	0x3c89dd03	0.01682902
46	0x3d538fa2	0.05165065
47	0xbd3eaa2d	-0.04654901
48	0xbd3b0e12	-0.045667715
49	0x3ca1bde2	0.019743863
50	0x3d29f895	0.041496832
51	0x3c0394e8	0.0080311075
52	0xbdac155a	-0.0840251
53	0xbbdfef24	-0.0068339277
54	0xbd1601c7	-0.03662279
55	0x3cacc032	0.02108774
56	0x3b9ab528	0.0047213025
57	0xbc4a88bb	-0.012361701
58	0x3d7a42e4	0.061098948
59	0x3d799f0e	0.060942702
60	0x3d422939	0.047402594
61	0x3daac797	0.0833885
62	0x3d3e832b	0.04651181
63	0xbc82f92f	-0.01598796
64	0xbc780900	-0.0151388645
65	0x3d5438a8	0.051811844
66	0x3c1ba443	0.009499612
67	0x3d86d664	0.065838605
68	0xbcb0e5e6	-0.021594
69	0xbc8593c1	-0.016305806
70	0xbc138c20	-0.009005576
71	0x3c18c5b1	0.009324477
72	0xbd274bc5	-0.040843744
73	0xbcc8a7ea	-0.02449413
74	0x3d25317d	0.0403304
75	0x3d60c2fd	0.054873455
76	0x3dae7222	0.08517863
77	0x3bff1e85	0.0077856206
78	0x3dc921f9	0.09820933
79	0xbd3520c5	-0.044220705
80	0xbcce847e	-0.025209662
81	0x3c831934	0.016003229
82	0xbd246262	-0.040132888
83	0x3ca3ea7a	0.020009268
84	0xbcf37731	-0.02971992
85	0xbd99e0b4	-0.07513562
86	0x3ca573d0	0.020196825
87	0x3d3bd796	0.045859896
88	0xbd85f78d	-0.06541357
89	0x3c3eee12	0.01165344
90	0x3d0e1416	0.034687124
91	0x3d4d9d84	0.050199047
92	0x3d50f865	0.051018137
93	0xbce82f99	-0.028343009
94	0x3ca46df7	0.020071967
95	0x3d721951	0.059106175
96	0xbc62b2dc	-0.013836589
97	0x3d8dd216	0.06924836
98	0x3d0158d5	0.031578857
99	0x3da95df8	0.08269876
100	0xbcc23fd7	-0.023712082
101	0x3c3e4e03	0.011615279
102	0xbc51e63d	-0.012811241
103	0xbc2bec97	-0.010493419
104	0x3d446b7c	0.047954068
105	0x3d1aac87	0.03776219
106	0xbca8dd38	-0.020613298
107	0xbb54c4a7	-0.0032465847
108	0xbcb22875	-0.021747807
109	0x3d8ddec1	0.069272526
110	0xbd855f3d	-0.06512306
111	0xbd3551cd	-0.044267464
112	0x3d9e9b8e	0.077445135
113	0x3ca11715	0.019664327
114	0x3bfd3f49	0.0077284914
115	0xbcac6fbb	-0.021049371
116	0xbb8151f8	-0.003946539
117	0x3d7b638c	0.061374232
118	0x3cebecde	0.02879947
119	0xbd42c817	-0.0475541
120	0xbcf67d32	-0.030088995
121	0x3d408633	0.047002982
122	0x3d308f48	0.043105394
123	0x3d3cab67	0.0460619
124	0x3d12a6d7	0.035803642
125	0x3bd8550a	0.0066019343
126	0x3d2d4705	0.042304058
127	0xbbe061ce	-0.0068475967
128	0x3d0c285d	0.03421818
129	0x3da59bc4	0.080863506
130	0xbc038ef5	-0.008029689
131	0xbccf51d9	-0.025307583
132	0xbbd32b51	-0.0064443727
133	0x3d6b22f8	0.057406396
134	0x3aa643fe	0.0012685058
135	0x3d915178	0.07095617
136	0x3cd0e8b3	0.025501585
137	0xbcb5213c	-0.022110574
138	0xbd1656d1	-0.03670389
139	0xbd3a6879	-0.04550979
140	0x3c8a15df	0.016856132
141	0xbb8825ef	-0.0041549127
142	0x3d1a5063	0.03767432
143	0xbbc10cfc	-0.0058914404
144	0x3bb41a3d	0.005496292
145	0x3d4feea3	0.05076469
146	0x3c3fffeb	0.01171873
147	0xbbd6315e	-0.0065366467
148	0x3b0e9f50	0.0021762438
149	0x3d226e09	0.03965572
150	0x3d2e912c	0.042618915
151	0x3d819421	0.063270815
152	0xbc25da5c	-0.010122862
153	0x3d7aacdb	0.061200004
154	0xbda1c731	-0.07899321
155	0xbcd38c01	-0.025823595
156	0xbd282e8c	-0.041060016
157	0xbd734a1f	-0.05939686
158	0x3c125155	0.008930524
159	0xbdbdb19f	-0.09262394
160	0xbc5b41b1	-0.013382361
161	0xbd0fbb4c	-0.03509073
162	0x3ca90efd	0.02063703
163	0xbd164a29	-0.03669182
164	0xbd4a711f	-0.049424287
165	0x3d1f4f23	0.03889383
166	0xbd4658e3	-0.048424613
167	0x3d751f8f	0.05984455
168	0xbd16cd91	-0.036817137
169	0x3c0cd502	0.008595707
170	0x3cda40d5	0.026642242
171	0x3d72a1fd	0.059236515
172	0xbd4566e9	-0.048193846
173	0xbc025623	-0.007955107
174	0x3d257379	0.040393326
175	0x3d9fd426	0.07804136
176	0x3bf74cab	0.0075469813
177	0xbda5365c	-0.08067009
178	0x3d1ba02b	0.037994545
179	0xbd55e59b	-0.052220922
180	0x3ca3520e	0.019936588
181	0xbd155f75	-0.036467988
182	0x3cdd73bc	0.027032726
183	0x3d0b2637	0.03397199
184	0x3d25f704	0.040518776
185	0x3c2e6c04	0.01064587
186	0xbce8b28c	-0.02840545
187	0x3d60bc90	0.054867327
188	0x3cc65334	0.024209596
189	0xbd572cf7	-0.052533116
190	0xbd6c9abe	-0.05776476
191	0x3d102e43	0.03520037
192	0xbc73b59f	-0.014874845
193	0xbd3d4f04	-0.046217933
194	0x3b82ab42	0.0039877007
195	0x3d382706	0.04495909
196	0x3d056fc8	0.032577306
197	0x3c781e93	0.015144008
198	0xbd957011	-0.072967656
199	0x3c83137c	0.016000502
200	0x3d251a1f	0.040308114
201	0x3ca8b17e	0.020592447
202	0x3d32448f	0.043522414
203	0x3d4c8330	0.049929798
204	0x3a63c167	0.0008688182
205	0x3cd2558f	0.025675563
206	0x3cc1791d	0.023617322
207	0xbd199ea8	-0.037504822
208	0x3d43735b	0.047717433
209	0x3b159f7e	0.002283066
210	0xbc291876	-0.010320773
211	0x3d068ff3	0.032852124
212	0x3d252b0b	0.040324252
213	0xbc9770a8	-0.018486336
214	0xbcbe0151	-0.023193987
215	0x3d03ea51	0.032205883
216	0x3cbc4318	0.022981212
217	0x3d39e0be	0.045380346
218	0x3c80fecc	0.015746497
219	0xbd392ff8	-0.045211762
220	0xbd2e34eb	-0.042530935
221	0x3c6959f1	0.014242635
222	0xbc2da9f9	-0.010599607
223	0x3cecd153	0.028908407
224	0xbd9d75df	-0.07688498
225	0x3cced80d	0.025249505
226	0xbcd9a7c8	-0.026569262
227	0xbba3ab13	-0.004994759
228	0x3d4c1d03	0.049832355
229	0xbd442751	-0.047889058
230	0xbd11ef86	-0.035628818
231	0x3b01cf52	0.001980741
232	0xbca73f18	-0.020415828
233	0x3b783946	0.0037875935
234	0x3d1f72c2	0.0389278
235	0x3d7cf3f7	0.0617561
236	0xbd13f928	-0.036126286
237	0xbd562690	-0.05228287
238	0x3c896a68	0.016774371
239	0xbd61e1b7	-0.0551469
240	0x3c78aedb	0.015178408
241	0xbcc8e65e	-0.02452391
242	0xbca37921	-0.01995522
243	0x3c906431	0.0176259
244	0xbcf38747	-0.029727591
245	0x3d5fdd31	0.054654304
246	0xbc2fdc2d	-0.010733646
247	0x3ca20ef6	0.019782525
248	0x3d820cd6	0.063501045
249	0xbd73b83d	-0.059501875
250	0xb9bf34fe	-0.0003646984
251	0xbc74f27a	-0.014950389
252	0xbb44bee8	-0.0030021016
253	0x3c9f05a4	0.01941187
254	0xbcc4258f	-0.02394369
255	0xbd4f3c1c	-0.050594434

bias f4 [512]
0	0x3cabda55	0.020978132
1	0xbc7c61a2	-0.015404137
2	0xbd53233a	-0.051547267
3	0x3d583f8f	0.05279499
4	0x3c8579e1	0.016293468
5	0x3cb6f737	0.022334678
6	0x3d94dc74	0.072686106
7	0x3dd1b5ef	0.10239779
8	0xbc6ae518	-0.014336847
9	0x3dd03e5e	0.101681456
10	0xbd94d07b	-0.07266327
11	0xbd045d97	-0.032315817
12	0x3d6984ea	0.057011522
13	0xbcec5609	-0.028849619
14	0xbd044d38	-0.032300204
15	0x3d3a8ca2	0.045544274
16	0xbd10a356	-0.03531202
17	0xbd064e29	-0.032789383
18	0xbbcf060c	-0.0063178595
19	0xbe29aaef	-0.16569112
20	0xbd883d0c	-0.06652269
21	0x3d7718a2	0.060326226
22	0xbdd740a0	-0.10510373
23	0x3c980357	0.01855628
24	0xbdb30b57	-0.08742397
25	0x3d2256d7	0.0396336
26	0xbdb5e949	-0.08882386
27	0xbc53c562	-0.012925478
28	0x3cfdcc15	0.030981103
29	0xbc57c274	-0.01316892
30	0x3d41e5a9	0.04733816
31	0x3d015317	0.03157338
32	0x3b3dfcaa	0.002898971
33	0x3d8f3e4b	0.06994303
34	0xbbc92ef8	-0.0061396323
35	0xbda935ed	-0.08262239
36	0x3cee514d	0.029091502
37	0xbccecb3b	-0.025243392
38	0xbd9ac14a	-0.07556398
39	0xb8d051f6	-9.933479e-05
40	0xbda5170d	-0.08061037
41	0xbe2fd960	-0.17172766
42	0x3b2b37b8	0.002612574
43	0x3c4cb495	0.012494226
44	0xbdbdd85c	-0.09269783
45	0x3d950687	0.072766356
46	0xbc96d9ce	-0.018414404
47	0xbc1edba7	-0.009695924
48	0xbd3587fb	-0.044319134
49	0xbd7567ff	-0.05991363
50	0xbe33df0a	-0.17565551
51	0xbd053013	-0.03251655
52	0xbb8f9c57	-0.004382651
53	0x3d212867	0.03934517
54	0xbda25ab6	-0.07927458
55	0xbcf95abc	-0.030438773
56	0xbcf92b4a	-0.03041615
57	0xbc95b830	-0.018276304
58	0xbd3494b9	-0.044087145
59	0xbd21f6fb	-0.03954218
60	0xbd3a047b	-0.04541443
61	0x3d715ea8	0.05892816
62	0xbdac5528	-0.0841468
63	0x3ce11e45	0.027480254
64	0x3ca85f7a	0.02055334
65	0xbd30fbd6	-0.04320892
66	0xbd660520	-0.05615723
67	0xbdd865b3	-0.105662726
68	0xbd368df0	-0.044568956
69	0xbde04224	-0.10950115
70	0x3ba87731	0.005141162
71	0x3cf035ea	0.029322583
72	0x3d36c017	0.044616785
73	0x3d396f14	0.045271948
74	0x3da530f1	0.080659755
75	0xbd9cc63a	-0.07654996
76	0x3d4a89d4	0.04944785
77	0x3c3b583e	0.011434613
78	0x3d82683e	0.06367539
79	0xbd0ab2a1	-0.03386176
80	0xbd1454ed	-0.036213804
81	0xbd817de4	-0.0632284
82	0x3c67d4f8	0.014149897
83	0x3d981cfd	0.07427404
84	0xbe1249bd	-0.14285941
85	0x3cd8ae4a	0.026450295
86	0x3d7cf993	0.06176145
87	0xbcd5f029	-0.026115494
88	0x3e092757	0.13393913
89	0xbd93c168	-0.07214624
90	0x3ba565b1	0.005047523
91	0x3c2ab238	0.010418467
92	0xbd2071f5	-0.039171178
93	0xbd68b20c	-0.056810424
94	0xbd34a258	-0.044100136
95	0xbc8dcdd0	-0.017310053
96	0x3c9a7db8	0.018858775
97	0x3d3d7633	0.0462553
98	0xbdb7fc11	-0.08983625
99	0x3d8f7bd0	0.07006037
100	0xbd2e0493	-0.04248483
101	0x3c97f790	0.018550664
102	0xbe01c590	-0.1267302
103	0x3da94ddd	0.08266804
104	0xbde5eaa4	-0.11226395
105	0x3d98092f	0.07423627
106	0xbdd5bb02	-0.104360595
107	0xbd57ebd8	-0.052715153
108	0xbd9f0c96	-0.077660725
109	0x3d6ab632	0.05730266
110	0xbd92fd33	-0.071772
111	0x3c9519e8	0.01820083
112	0xbdafa13e	-0.085756764
113	0xbe2b662c	-0.16738194
114	0xbcb745f6	-0.022372227
115	0xbd96e872	-0.07368554
116	0x3d723cca	0.059140004
117	0x3ccda860	0.025104702
118	0x3c485404	0.012227062
119	0x3dcd3d48	0.10021454
120	0xbcabe29f	-0.020982085
121	0xbd12f3a5	-0.03587689
122	0xbb9a2d19	-0.004705083
123	0xbb58caa4	-0.0033079768
124	0x3d813550	0.06308997
125	0x3ccb860b	0.02484419
126	0xbcae016b	-0.02124091
127	0xbd2749c8	-0.040841848
128	0xbd1b71db	-0.037950378
129	0x3c60b6d9	0.013715469
130	0xbc1fc045	-0.0097504305
131	0xbdcc4da2	-0.09975745
132	0xbda8b202	-0.08237077
133	0x3dab2a36	0.083576605
134	0xbd2fe235	-0.042940337
135	0x3d5e4d20	0.05427277
136	0x3d90e207	0.07074361
137	0xbdfa4213	-0.12219634
138	0xbda72fdf	-0.081634276
139	0x3d500b00	0.05079174
140	0xbd253672	-0.040335126
141	0xbe091eb6	-0.13390622
142	0x3c7a06be	0.0152603965
143	0x3c91efe5	0.017814586
144	0x3d34c8ef	0.044136938
145	0x3d8820c5	0.06646875
146	0xbc3f6373	-0.011681425
147	0xbca1ef55	-0.019767443
148	0xbdd005df	-0.1015737
149	0x3d3b81e0	0.045778155
150	0x3deb71f3	0.114963435
151	0xbd9e19a4	-0.07719734
152	0x3e21d24c	0.15802878
153	0x3d97d7a7	0.07414179
154	0xbd8ca756	-0.06867854
155	0xbe14d65e	-0.145349
156	0x3cdef103	0.027214533
157	0xbd384f04	-0.04499723
158	0x3cc0a317	0.023515267
159	0xbd2f3c23	-0.04278196
160	0xbd3da6bf	-0.0463016
161	0x3d861a59	0.06547994
162	0xbcde7705	-0.027156362
163	0xbcadb873	-0.021206116
164	0x3bfc1928	0.0076934285
165	0x3d8376c0	0.06419134
166	0xbd0b2332	-0.03396911
167	0xbd6e5a92	-0.058191843
168	0xbd7a1757	-0.061057415
169	0x3d2b1f4b	0.04177789
170	0x3bf9cef6	0.0076235486
171	0xbd9f465d	-0.077770926
172	0xbdd5a29e	-0.104314074
173	0xbdcc72eb	-0.09982856
174	0xbd64f480	-0.055897236
175	0xbdd36621	-0.10322214
176	0xbc431dd4	-0.011908967
177	0x3d5bc238	0.05365202
178	0xbc483215	-0.012218972
179	0x3cc672a0	0.02422458
180	0xbd6350ab	-0.055496853
181	0xbd2f5f95	-0.042815764
182	0x3cf21dd1	0.029555233
183	0xbda785a3	-0.08179786
184	0xbd75f99a	-0.06005249
185	0x3e144480	0.14479256
186	0x3bba59f0	0.005686991
187	0xbd07725f	-0.033068057
188	0x3d34e60e	0.04416471
189	0xbdf396de	-0.1189401
190	0x3d9ee9ca	0.077594355
191	0x3c4d8e5d	0.012546149
192	0xbc827f12	-0.015929732
193	0x3ca39db0	0.019972652
194	0xbc95ca23	-0.018284863
195	0x3d73cd6a	0.05952207
196	0x3da161b5	0.07879964
197	0x3c31a7a3	0.01084319
198	0xbdbe9a9c	-0.09306833
199	0xbdd6591f	-0.10466217
200	0x3d1e3eab	0.038633984
201	0xbd312886	-0.043251537
202	0xbd249e2c	-0.040189907
203	0x3ca5b33c	0.020227067
204	0xbdd7770f	-0.105207555
205	0xbc09d69d	-0.008412984
206	0xbdcbb20e	-0.099460706
207	0x3d8bb2fe	0.068212494
208	0xbd3c4d76	-0.04597231
209	0xbcefabe0	-0.029256761
210	0xbd82614c	-0.06366214
211	0x3c8ae8bf	0.016956685
212	0xbdcbd708	-0.09953123
213	0x3d117684	0.035513416
214	0xbc270139	-0.010193163
215	0x3d45bc97	0.048275556
216	0x3c9549aa	0.018223602
217	0x3d1af9c9	0.03783587
218	0x3cafae77	0.021445496
219	0x3dcc4da7	0.099757485
220	0x3c4ccdec	0.0125002675
221	0xbcf404ce	-0.029787447
222	0x3ce5086c	0.027958117
223	0xbe11b295	-0.1422828
224	0xbe06609c	-0.13122791
225	0x3cb01daf	0.02149853
226	0xbd1600f2	-0.036621995
227	0x3dab7584	0.08372024
228	0x3cd04195	0.025421897
229	0xbc991467	-0.018686486
230	0x3d05f236	0.032701693
231	0x3c122198	0.008919142
232	0xbd3a002c	-0.04541032
233	0xbc908004	-0.017639168
234	0xbd4c71dc	-0.049913272
235	0xbd18f344	-0.03734137
236	0xbce04594	-0.027376927
237	0xbd2f2c5c	-0.042766914
238	0xbd929124	-0.071565896
239	0xbce2d6ad	-0.027690256
240	0xbd052a18	-0.032510847
241	0x3dd24b34	0.1026825
242	0xbd136728	-0.03598705
243	0x3dd0e896	0.10200612
244	0xbd01564d	-0.031576443
245	0x3c624ea6	0.013812697
246	0xbd7d89e0	-0.061899066
247	0x3d8d5796	0.06901471
248	0xbccb3430	-0.024805158
249	0xbe047fdd	-0.12939401
250	0xbd9cd478	-0.07657713
251	0xbd330778	-0.043708295
252	0x3d0af542	0.033925302
253	0x3ddd62ff	0.10809898
254	0x3c019975	0.007910122
255	0x3cdb3b4f	0.026761679

weight f4 [128, 512]
0	0x3d19f66e	0.03758853
1	0x3d750f58	0.059829086
2	0x3d054b4f	0.032542523
3	0xbda16aeb	-0.07881721
4	0xbe03a4ea	-0.12855878
5	0x3b8f20af	0.00436791
6	0x3ce4e943	0.02794326
7	0xbcf64e55	-0.030066648
8	0xbd0b833d	-0.034060705
9	0x3d19251b	0.037388902
10	0xbd002be3	-0.031291854
11	0x3b1d4324	0.0023996318
12	0xbda28552	-0.07935585
13	0xbcf3b341	-0.02974856
14	0xbc4ca497	-0.012490413
15	0xbd170ea6	-0.036879204
16	0xbd65c271	-0.056093637
17	0xbd0d1930	-0.03444785
18	0xbca964ca	-0.020677943
19	0xbdb015b5	-0.0859789
20	0x3d127730	0.035758197
21	0xbcaa349f	-0.020777045
22	0xbc5919a7	-0.013250745
23	0xbc3aa1cd	-0.011391115
24	0xbd2dd4de	-0.042439334
25	0x3b3f8fd6	0.002923002
26	0x3cec3475	0.028833607
27	0xbd1cf2ff	-0.038317677
28	0x3cca012b	0.02465876
29	0x3cf1f001	0.029533388
30	0x3c033d5b	0.008010234
31	0xbccfe7de	-0.025379118
32	0xbd40aea1	-0.04704154
33	0xbbd3b45a	-0.0064607086
34	0x3ba2aa0e	0.0049641198
35	0xbc99145d	-0.018686468
36	0xbd51f135	-0.051255424
37	0xbc22266c	-0.009896856
38	0x3cc26cd4	0.023733534
39	0xbcf07754	-0.029353775
40	0xbd3c2564	-0.045934096
41	0x3c22689f	0.009912639
42	0xbc8dd6a4	-0.017314263
43	0xbdf1635c	-0.117865294
44	0x3c8453c2	0.01615322
45	0x3cec5e39	0.028853523
46	0xbcc3b87d	-0.023891682
47	0x3d23b7d1	0.039970223
48	0x3d117890	0.035515368
49	0x3d98a94d	0.074541666
50	0xbbbffe33	-0.0058591603
51	0x3ceffc99	0.029295253
52	0xbca4383c	-0.020046346
53	0x3ccca3e8	0.0249805
54	0x3bfe36d6	0.007758002
55	0xbd3ae298	-0.045626253
56	0x3ba92b20	0.0051626116
57	0x3ccf990f	0.025341539
58	0xbcb18d63	-0.021673864
59	0xbdc01950	-0.09379828
60	0x3b444a5e	0.0029951553
61	0x3a3ec3f6	0.0007277125
62	0xbcfc4cd7	-0.030798359
63	0x3d8f7225	0.07004193
64	0x3ca67fe0	0.020324647
65	0xbd4dfb35	-0.050288398
66	0xbc90f938	-0.017696962
67	0xbd5364e4	-0.05160989
68	0x3c1b7511	0.00948836
69	0xbd515190	-0.051103175
70	0x3bbc0247	0.005737576
71	0xba0a6db3	-0.00052806287
72	0x3d5518d4	0.05202563
73	0xbe06d3cf	-0.13166736
74	0xbdf9de7b	-0.12200638
75	0x3c948355	0.01812903
76	0xbcd02df4	-0.025412537
77	0xbd74c525	-0.059758324
78	0xbc95e040	-0.018295407
79	0xbcf1a2fd	-0.029496664
80	0xb9587e74	-0.00020646473
81	0xbd61cb78	-0.055125684
82	0xbd2fb546	-0.042897485
83	0xbd123bdc	-0.035701618
84	0xbd7723b0	-0.06033677
85	0x3c0d0fcb	0.008609722
86	0xbc9b44e7	-0.018953754
87	0x3b1633c8	0.0022919048
88	0xbc76afec	-0.0150565915
89	0xbbab0b42	-0.005219848
90	0xbd22657b	-0.03964756
91	0x3c400e3e	0.011722146
92	0x3d4fb016	0.050705038
93	0xbcce78b6	-0.025204044
94	0xbbfa9565	-0.0076472037
95	0xba8d3b4f	-0.0010775122
96	0xbd782b3c	-0.060588107
97	0x3b80b237	0.003927495
98	0x3d09b39d	0.03361856
99	0x3c64c951	0.013964013
100	0xbdc492ca	-0.0959831
101	0x3c35ea9d	0.011103299
102	0x3c586027	0.013206518
103	0x3d0b9913	0.03408153
104	0xbb9a7de6	-0.0047147153
105	0xbd4dfd80	-0.050290585
106	0xbd7b7ce6	-0.06139841
107	0xbd872fd6	-0.06600921
108	0x3cca05b4	0.024660923
109	0x3d86d64e	0.06583844
110	0xbd166667	-0.036718752
111	0xbc168475	-0.009186854
112	0xbc981cf0	-0.018568486
113	0x3bbbbc04	0.0057292003
114	0xbd3f4231	-0.046693984
115	0xbd08a8d8	-0.033364147
116	0x3d69c55e	0.05707299
117	0x3b814b8c	0.0039457735
118	0xbc5767c0	-0.0131472945
119	0x3ba0c3cf	0.0049061547
120	0x3c9811d9	0.018563198
121	0xbcfff95a	-0.03124683
122	0xbd7a7114	-0.061142996
123	0xbd8783f1	-0.06616963
124	0x3c2cb15b	0.010540332
125	0xbd2f4f9f	-0.042800542
126	0x3c83fe1e	0.016112383
127	0xbd187b73	-0.037227105
128	0xbdca7ed1	-0.098874696
129	0xbcefabf2	-0.029256795
130	0xbd87b9f6	-0.06627266
131	0xbd82c333	-0.063848875
132	0xbc3dcd19	-0.011584544
133	0x3c2578b9	0.010099583
134	0xbc515b03	-0.012778047
135	0x3d86dc6b	0.0658501
136	0xbd043aed	-0.03228276
137	0x3cd3882b	0.025821766
138	0xb90adb98	-0.0001324251
139	0xbcd95383	-0.02652908
140	0xbd6c8371	-0.05774254
141	0xbc9bb59c	-0.019007497
142	0x3c1d5c5a	0.009604538
143	0xbd1a7013	-0.03770454
144	0x3d1eff6f	0.03881782
145	0x3c393c66	0.011305904
146	0xbc9bf77b	-0.019038906
147	0xbcd4c372	-0.025972102
148	0xbd5ad764	-0.05342807
149	0xbd29d065	-0.041458506
150	0x3d3ca4dc	0.04605566
151	0xbd14f65d	-0.036367763
152	0x3c9f84b0	0.01947245
153	0x3ce3eb28	0.027822092
154	0xbd733733	-0.059378814
155	0xbd42b4e5	-0.047535796
156	0x3ca614d2	0.0202736
157	0xba38df10	-0.0007052282
158	0xbe2b85ff	-0.16750334
159	0x3d63a397	0.055575933
160	0xbde23838	-0.11045879
161	0x3cd7a201	0.026322367
162	0x3d101dc7	0.035184648
163	0xbd17233e	-0.036898844
164	0x3bb6aa19	0.0055744764
165	0xbc37ed2d	-0.011225981
166	0x3c245a55	0.010031302
167	0xbcaac093	-0.02084378
168	0x3d965f1e	0.07342361
169	0xbc9c03ca	-0.019044776
170	0xbcf97065	-0.030449102
171	0xbd823d53	-0.06359353
172	0xbd4f7b03	-0.050654422
173	0x3cc8dd3c	0.024519555
174	0x3c85ebfd	0.01634788
175	0xbca53be2	-0.020170156
176	0xbc58f56c	-0.013242107
177	0xbcef6eeb	-0.029227694
178	0x3c52392d	0.012831015
179	0xbdc60b56	-0.09670131
180	0xbc8f265e	-0.01747435
181	0xbd3e5c27	-0.046474602
182	0xbb64f54e	-0.0034936252
183	0x3c98cfe5	0.01865382
184	0xbd4da7f5	-0.050209004
185	0xbb9d6357	-0.004803102
186	0xbc23385b	-0.009962167
187	0x3cf97e43	0.030455714
188	0xbc504e03	-0.012713912
189	0xbc67bf0e	-0.014144672
190	0xbd123ac5	-0.03570058
191	0x3d30e495	0.043186743
192	0xbd5d05db	-0.053960662
193	0xbcbc6487	-0.022997154
194	0xbd8399eb	-0.06425842
195	0x3d39adeb	0.045331877
196	0x3c6d23ef	0.014473899
197	0x3ae9ed4c	0.0017847209
198	0x3a223b5d	0.00061886554
199	0xbc61b517	-0.013776085
200	0xbc406f91	-0.0117453495
201	0xbd5bc7da	-0.05365739
202	0xbd50960d	-0.05092435
203	0x3c741d62	0.0148995835
204	0x3c22b1b4	0.009930063
205	0x3d62fe4b	0.055418294
206	0xbb7a8984	-0.0038228938
207	0xbd23c5c8	-0.03998354
208	0x3aef743c	0.0018268893
209	0xbc14381e	-0.0090465825
210	0xbcbd2982	-0.023091082
211	0xbc1dc4ff	-0.009629487
212	0xbb7a96e7	-0.0038236917
213	0xbcd9760b	-0.026545545
214	0x3bd4b97a	0.006491837
215	0xbcba6caa	-0.022756893
216	0xbcf13a53	-0.029446756
217	0xbd583be9	-0.05279151
218	0xbd67809e	-0.056519143
219	0xbd1e4c4e	-0.03864699
220	0x3d0d2763	0.03446139
221	0x3b84e4f6	0.0040556146
222	0x3cd7db83	0.026349789
223	0xbd5e6984	-0.054299846
224	0x3c06cede	0.008228032
225	0x3c91e8ba	0.017811168
226	0xbb9ec8e1	-0.004845724
227	0xbc41313b	-0.011791523
228	0xbd24ab53	-0.04020245
229	0x3d0c099a	0.034188844
230	0xbce23cae	-0.027616825
231	0x3c8e4b06	0.017369758
232	0xbd6a679e	-0.057227723
233	0x3cf2f581	0.029658081
234	0x3b82ee10	0.0039956644
235	0x3ca490f6	0.020088654
236	0xbc557302	-0.013027908
237	0x38a9d42c	8.098068e-05
238	0xbb0073b7	-0.0019600221
239	0xbc119b13	-0.00888707
240	0xbccd0b49	-0.025029795
241	0xbdb37661	-0.08762813
242	0xbd7b9dca	-0.061429776
243	0x3c0fb2ef	0.008770688
244	0x3d8a0b08	0.06740385
245	0xbc47a596	-0.012185475
246	0xbd496fd1	-0.049178902
247	0x3b4ea6ef	0.0031532606
248	0xbd5bcd22	-0.053662427
249	0xbb724579	-0.0036967678
250	0xbd2d0b34	-0.042247012
251	0x3c92fb7f	0.017942188
252	0xbc6aebee	-0.014338477
253	0x3b1f061a	0.0024265111
254	0x3cc520c6	0.02406348
255	0x3d05d95a	0.032677986

bias f4 [128]
0	0xbd59ed15	-0.053204615
1	0x3c613482	0.013745429
2	0xbdd5f4c6	-0.104470775
3	0xbc8d127a	-0.017220724
4	0xbd205241	-0.039140943
5	0x3d43e57a	0.047826268
6	0x3cc738eb	0.024319133
7	0x3d5bda76	0.053675137
8	0xbd7eb30e	-0.06218248
9	0xbcb49fcd	-0.022048855
10	0xbcae9a0a	-0.021313686
11	0xbba88f23	-0.0051440164
12	0xbba629f9	-0.0050709215
13	0x3d7c0366	0.06152668
14	0x3d5a56f4	0.05330558
15	0xbba82483	-0.0051313057
16	0x3dac9194	0.08426204
17	0xbd5f690b	-0.054543536
18	0x3d67e4bb	0.05661462
19	0xbb2fd380	-0.0026828945
20	0xbcad727e	-0.021172758
21	0x3db65acf	0.08904039
22	0xbb202ca9	-0.0024440682
23	0x3d260823	0.040535104
24	0x3b240d2b	0.0025032263
25	0xbc32cdd8	-0.010913335
26	0xbe1bbb9d	-0.15208288
27	0xbd8286e8	-0.063733876
28	0xbd597668	-0.053091437
29	0xbcbf5f4f	-0.023360876
30	0x3cbe6b9a	0.023244668
31	0xbd4069ff	-0.046976086
32	0xbc4d4e3f	-0.012530862
33	0xbc7ae1a0	-0.015312582
34	0xbcd12437	-0.025529964
35	0xbd7f6f5c	-0.06236206
36	0x3d49b28b	0.049242537
37	0x3d9e7d78	0.07738775
38	0xbda30e05	-0.079616584
39	0x3a8219a9	0.000992586
40	0xbcbde6c5	-0.023181329
41	0x3cf8fa21	0.030392708
42	0xbd440d8e	-0.04786449
43	0xbdc4c280	-0.096074104
44	0xbbf34aa1	-0.007424668
45	0xbd9ee24a	-0.07758005
46	0xbd46e7ab	-0.04856078
47	0xbde801c9	-0.113284655
48	0x3d4f3db7	0.050595965
49	0x3d1221a3	0.03567661
50	0xbdc525eb	-0.09626373
51	0x3d0c9761	0.034324054
52	0x3cd9bb15	0.026578465
53	0xbda8e183	-0.08246138
54	0x3db35536	0.08756487
55	0x3c2f01b9	0.010681563
56	0xbba151c8	-0.004923079
57	0x3d7d4539	0.061833594
58	0xbdaad095	-0.08340565
59	0xbc24331b	-0.01002195
60	0xbd4c5eee	-0.04989522
61	0xbda1d8b1	-0.07902659
62	0xbdc4699f	-0.09590458
63	0xbd18ff7f	-0.037353035
64	0x3d56e7a0	0.05246699
65	0x3d423f32	0.04742355
66	0x3d4068f1	0.04697508
67	0x3d1a82be	0.03772234
68	0xbd5d402f	-0.05401629
69	0xbc8917fc	-0.01673507
70	0x3d00fc39	0.03149054
71	0x3cbda9c1	0.023152234
72	0xbcc1c11f	-0.023651658
73	0x3ce6a6bb	0.028155675
74	0xbd6feed0	-0.05857736
75	0xbd33df8e	-0.04391437
76	0xbbcf4ae7	-0.0063260677
77	0x3d75da02	0.06002236
78	0x3d99640e	0.07489787
79	0x3d887b6a	0.06664164
80	0x3d98ab2a	0.07454522
81	0x3c175334	0.009236146
82	0x3be914c1	0.0071130698
83	0x3d5e874e	0.054328255
84	0xbccaa832	-0.024738405
85	0xbd0c6f0e	-0.034285598
86	0xbc6b4312	-0.0143592525
87	0xbc85c342	-0.016328458
88	0xbb1247ae	-0.0022320556
89	0xbc91688d	-0.017750049
90	0x3ccccd01	0.025000097
91	0x3c8f12d2	0.017465029
92	0x3d37937f	0.044818398
93	0x3d5dc573	0.05414338
94	0xbd4befaa	-0.04978911
95	0x3da91651	0.0825621
96	0x3d0ecfae	0.034866028
97	0xbd2709cf	-0.04078084
98	0xbd217913	-0.039422106
99	0xbd12f664	-0.035879508
100	0xbcd4dd1b	-0.025984338
101	0xbd9c1087	-0.0762034
102	0xbce6b452	-0.028162155
103	0xbd67dbdd	-0.056606162
104	0xbd9954a7	-0.07486849
105	0xbcccce59	-0.025000738
106	0xbd87a797	-0.06623762
107	0x3d11a6c1	0.03555942
108	0xbbe61dd6	-0.0070225997
109	0x3c07b4df	0.008282869
110	0xbd028e92	-0.031874247
111	0xbd8ff5ad	-0.07029281
112	0x3da50b09	0.080587454
113	0x3c974933	0.018467521
114	0xbdadef10	-0.08492863
115	0xbd751929	-0.059838448
116	0xbcd4c04b	-0.025970599
117	0x3ceff425	0.029291222
118	0x3b5393da	0.0032284171
119	0xbc9a6e86	-0.01885153
120	0x3ce30a3e	0.027714845
121	0x3bfbfc75	0.0076900073
122	0xbd6b433a	-0.05743716
123	0x3c8642ce	0.016389277
124	0xbd0e5544	-0.034749284
125	0xbd5ee6ad	-0.05441921
126	0xbd3ec9e5	-0.04657926
127	0xbb28cf75	-0.002575842
