result/aug74_gan_40_model_14.pt (torch, 980414 bytes, 15 tensors)

weight f4 [128, 14]
0	0x3e540be8	0.20707667
1	0xbe6e4de9	-0.23271908
2	0x3daa64b1	0.083199866
3	0xbe3cf2cc	-0.18451995
4	0x3d80a3ae	0.062812194
5	0x3cbe3eee	0.023223367
6	0xbdef7100	-0.11691475
7	0x3e27048f	0.16310333
8	0xbea04092	-0.31299263
9	0x3e89e705	0.26934066
10	0x3e564f96	0.20928797
11	0xbe4cf04c	-0.20013541
12	0x3d1c5122	0.03816331
13	0x3cea0267	0.028565599
14	0xbe8a3d46	-0.26999873
15	0xbe0818fc	-0.13290781
16	0x3e04cf09	0.12969603
17	0x3e7b76a3	0.24556975
18	0x3e3b2993	0.18277578
19	0xbe825cdf	-0.2546148
20	0xbe2d55fb	-0.1692733
21	0x3e23beb9	0.15990724
22	0xbdef2c16	-0.116783306
23	0xbd1c9ba5	-0.03823437
24	0x3dfdebfb	0.12398525
25	0x3e60de2b	0.2195975
26	0xbd9fc875	-0.07801906
27	0x3dc9d93e	0.09855889
28	0xbeafbec3	-0.34325227
29	0xbe4832dc	-0.19550651
30	0x3d40441d	0.046939958
31	0x3ddee06b	0.10882648
32	0x3e6a417f	0.22876547
33	0xbe7ab99c	-0.24484867
34	0x3d6df086	0.05809071
35	0xbe10762c	-0.14107579
36	0xbee2f609	-0.44328335
37	0x3eb56f7c	0.35436618
38	0xbe33c8c4	-0.17557055
39	0x3dae9390	0.08524239
40	0x3dfd33b2	0.12363376
41	0xbe94a953	-0.29035434
42	0x3a6206c7	0.0008622226
43	0xbe5d68ab	-0.21621959
44	0xbc737963	-0.014860484
45	0xbe037e26	-0.1284109
46	0x3ea706cc	0.32622373
47	0xbe718839	-0.23587121
48	0xbdd401aa	-0.1035188
49	0xbe06c0a2	-0.13159421
50	0xbea6c99e	-0.32575697
51	0xbd2d0655	-0.042242367
52	0x3e704db6	0.23467144
53	0xbe8cd8ad	-0.2750906
54	0x3d8aa521	0.06769777
55	0x3ca2ce7f	0.019873856
56	0x3d7c9f2c	0.061675236
57	0x3e1049b2	0.14090613
58	0xbd1015a0	-0.035176873
59	0xbe0e7319	-0.13911094
60	0xbe343f6a	-0.17602316
61	0x3dd18ee5	0.10232333
62	0x3ea53bcc	0.32272184
63	0x3ea2078c	0.31646383
64	0xbe9a376a	-0.30120403
65	0xbcaaaa37	-0.020833118
66	0xbea03dd6	-0.31297177
67	0x3ea4da99	0.32198027
68	0xbdf922e5	-0.12164859
69	0x3e06328d	0.13105221
70	0xbd8d9fbf	-0.06915235
71	0x3e55a85e	0.20865008
72	0xbd46ea11	-0.048563067
73	0xbeafecc4	-0.34360325
74	0x3e9ad6ad	0.3024191
75	0xbe140bff	-0.14457701
76	0x3e984357	0.29738876
77	0x3c928df3	0.017889952
78	0xbd622b85	-0.055217285
79	0xbe21156b	-0.15730827
80	0xbe4df116	-0.20111498
81	0x3d81c829	0.06337006
82	0x3c0c6dd2	0.008571105
83	0xbde927d6	-0.11384551
84	0xbea03de7	-0.31297228
85	0xbe95d4cc	-0.29263914
86	0xbe296545	-0.16542538
87	0xbe85f3bf	-0.26162526
88	0x3e7944ea	0.24342695
89	0x3d05b244	0.03264071
90	0x3e08f0f6	0.1337317
91	0xbbf5ab21	-0.007497207
92	0xbea25a96	-0.31709737
93	0xbdd2b641	-0.102886684
94	0x3e33a013	0.17541532
95	0xbee2dfbc	-0.4431132
96	0x3e5b4b3a	0.21415415
97	0xbedba02e	-0.42895645
98	0x3eadb19f	0.33924577
99	0xbe336509	-0.1751901
100	0xbe322fd1	-0.17401053
101	0x3e1a1be6	0.15049705
102	0x3d71c7af	0.059028324
103	0x3db09cfd	0.08623693
104	0xbd1985de	-0.03748118
105	0x3e19e12b	0.15027301
106	0xbe5b127f	-0.21393774
107	0x3dc2d580	0.09513378
108	0xbda946c0	-0.082654476
109	0x3df06d6c	0.117396206
110	0x3c8e9c3b	0.01740848
111	0x3edcadce	0.43101352
112	0xbe9559c1	-0.2917004
113	0xbc71346b	-0.01472197
114	0x3e4a100c	0.19732684
115	0xbe2ebc7d	-0.1706409
116	0x3cf21512	0.029551063
117	0x3dd2263c	0.10261199
118	0x3e18878f	0.14895461
119	0xbd4c6763	-0.049903285
120	0xbd0ff93d	-0.0351498
121	0x3e05a40c	0.1305086
122	0xbd62588a	-0.05526022
123	0xbe1be710	-0.15224862
124	0x3a0aff4e	0.00053023256
125	0xbedfe258	-0.43727374
126	0x3e8df588	0.27726388
127	0xbc970ec7	-0.018439664
128	0x3e940bcd	0.28915253
129	0xbd9aef27	-0.07565146
130	0x3e29c703	0.16579823
131	0x3acd9eb1	0.0015687553
132	0x3e4b1a14	0.19834167
133	0xbe6668a0	-0.22500849
134	0xbcfdd41d	-0.030984933
135	0xbdd2dc49	-0.10295922
136	0x3e2f6337	0.17127691
137	0xbe02f9a5	-0.12790544
138	0x3e22a3b5	0.15882762
139	0x3ec51606	0.38493365
140	0x3e24cbf5	0.16093428
141	0xbcb71258	-0.022347614
142	0xbd0236ca	-0.031790532
143	0xbd90e120	-0.07074189
144	0xbe6e9df8	-0.23302448
145	0xbdd7e1f3	-0.10541143
146	0xbd7c3b59	-0.061580036
147	0x3ddd1eae	0.10796867
148	0xbe9602f1	-0.2929912
149	0xbcd8d975	-0.02647088
150	0x3e9f24ee	0.31082863
151	0xbe9263a7	-0.28591654
152	0x3befaf60	0.0073146075
153	0xbf052d56	-0.520223
154	0xbe9fbc39	-0.3119829
155	0x3e3c800d	0.18408222
156	0x3d17a23d	0.037019957
157	0x3ba5b740	0.0050572455
158	0xbd679a05	-0.05654337
159	0xbe9327a0	-0.2874117
160	0xbdf14d32	-0.11782302
161	0x3e8bfe56	0.2734248
162	0x3e6569db	0.22403662
163	0x3e1727d6	0.1476129
164	0x3dc4f612	0.09617247
165	0xbdd9d51d	-0.10636351
166	0xbd4aca67	-0.049509432
167	0xbe1f3728	-0.15548384
168	0xbcf8616c	-0.030319892
169	0x3e2c748c	0.16841334
170	0xbd18c494	-0.037296847
171	0xbd2033fd	-0.03911208
172	0xbd532df8	-0.05155751
173	0x3d2fd831	0.042930786
174	0x3e768ff5	0.24078353
175	0xbccffbc2	-0.025388602
176	0x3e3867ab	0.18008296
177	0x3eb378da	0.3505314
178	0xbd67f20e	-0.056627326
179	0x3e1a67b5	0.15078624
180	0xbe0c499e	-0.13699958
181	0x3f0613a9	0.5237375
182	0xbeef0424	-0.46682847
183	0x3e2618d6	0.16220412
184	0xbe0898ff	-0.13339613
185	0x3e198d50	0.14995313
186	0xbccc97ef	-0.024974791
187	0xbdc1e2be	-0.09467076
188	0xbe81946f	-0.25308558
189	0xbd5510a0	-0.052017808
190	0x3d9397d8	0.07206696
191	0x3e07bd0b	0.13255708
192	0xbe91c742	-0.28472334
193	0x3c0e803d	0.008697567
194	0x3e1e0829	0.154328
195	0xbeb92012	-0.3615728
196	0xbdbc0570	-0.091807246
197	0x3e344d22	0.17607549
198	0x3e072f56	0.13201651
199	0x3d834948	0.06410462
200	0x3cda55c0	0.026652217
201	0x3e5a0cee	0.21293995
202	0x3eb805e6	0.35942
203	0xbd806a11	-0.062702306
204	0xbc605820	-0.013692886
205	0xbd2cd13c	-0.04219173
206	0xbe3518ed	-0.1768529
207	0xbe45c494	-0.1931327
208	0x3dd0df14	0.10198799
209	0x3d422c65	0.04740562
210	0xbdda0663	-0.106457494
211	0xbe688db5	-0.22710307
212	0xbd4b89b3	-0.049691867
213	0xbe4dc96b	-0.20096366
214	0x3d88d679	0.066815324
215	0xbd6a7086	-0.057236217
216	0x3e747a2a	0.23874727
217	0xbdae85f6	-0.08521645
218	0x3e7e1310	0.2481196
219	0xbc066dcc	-0.008204889
220	0xbd10ab98	-0.035319895
221	0xbec0afd5	-0.3763415
222	0xbd9d2f14	-0.07674995
223	0xbe90d70c	-0.28289068
224	0x3e15a493	0.14613561
225	0x3cbbdfe3	0.022933906
226	0x3d20a665	0.039221186
227	0x3ea9be46	0.3315298
228	0x3e2fd54e	0.17171213
229	0xbe8672d1	-0.26259473
230	0x3e837769	0.2567704
231	0xbde64573	-0.11243715
232	0x3e2c0f15	0.16802628
233	0x3d431f7f	0.04763746
234	0xbdc55830	-0.09635961
235	0x3da2870b	0.07935914
236	0x3e400a54	0.1875394
237	0x3e5c6cce	0.2152588
238	0xbe872320	-0.26393986
239	0xbdb5dbc5	-0.08879808
240	0xbce57eef	-0.028014628
241	0x3c8d49ef	0.017247168
242	0xbe056285	-0.13025863
243	0x3c857a84	0.016293772
244	0xbed18111	-0.40918782
245	0xbe14bd10	-0.14525247
246	0xbdae62cf	-0.0851494
247	0x3e2c0743	0.16799645
248	0x3c11da37	0.008902124
249	0xbd00b89b	-0.031426053
250	0x3d97f8c4	0.07420495
251	0xbe844c5b	-0.25839505
252	0xbe0eb0a7	-0.13934575
253	0x3db8511f	0.089998476
254	0x3b6dc841	0.003628269
255	0x3d9d767a	0.07688613

bias f4 [128]
0	0xbe0cac75	-0.13737662
1	0xbd81e7f4	-0.0634307
2	0x3e7caaa6	0.24674472
3	0x3e08c3e1	0.13355972
4	0xbcf4b81d	-0.029872948
5	0xbe02f4ed	-0.12788744
6	0xbe80627b	-0.25075135
7	0x3d77c214	0.06048782
8	0x3d5ca15c	0.05386482
9	0x3dfcac21	0.123375185
10	0xbd8c1925	-0.068407334
11	0xbe6fcc59	-0.23417796
12	0x3daa72df	0.08322691
13	0x3e1bb217	0.15204655
14	0x3e441fab	0.19152705
15	0x3de9a73c	0.114088506
16	0x3e1bb1a8	0.15204489
17	0x3e10e79f	0.14150856
18	0x3d5c5dc3	0.053800356
19	0x3c800484	0.015627153
20	0xbe4e8f9a	-0.20171967
21	0x3e214f6d	0.15752955
22	0xbd9e4f4f	-0.07729971
23	0xbe7e540e	-0.24836752
24	0xbd667683	-0.056265365
25	0xbe4cd64a	-0.2000362
26	0xbe6f61d2	-0.23377159
27	0xbe0fff8a	-0.14062324
28	0xbe50e91c	-0.20401424
29	0x3e97bca2	0.29636103
30	0xbe237a25	-0.15964563
31	0x3e2f4bcd	0.1711876
32	0x3de0167f	0.10941791
33	0xbe62f286	-0.22162828
34	0x3e640fd8	0.22271669
35	0x3d541f7b	0.051787835
36	0xbda33cc9	-0.07970578
37	0xbdac6c55	-0.084191
38	0x3b78790b	0.0037913944
39	0x3caf84e2	0.021425668
40	0xbe19ae3a	-0.15007868
41	0xbc2b0167	-0.010437346
42	0x3e4e70c9	0.20160212
43	0x3d4bdd10	0.04977137
44	0xbc8ac777	-0.016940815
45	0xbe44afda	-0.19207707
46	0xbe28ecc8	-0.16496575
47	0x3e7be000	0.24597168
48	0x3e0aa6f2	0.13540247
49	0xbd945df7	-0.07244485
50	0xbe5310a6	-0.2061182
51	0x3d6c0596	0.057622515
52	0x3e0c5597	0.13704525
53	0x3e0e7c04	0.13914496
54	0x3c4e628d	0.0125967385
55	0x3e0fc457	0.14039741
56	0x3c8dee70	0.01732561
57	0xbc0cf3f2	-0.008603083
58	0xbe42f303	-0.19038014
59	0xbd839494	-0.064248234
60	0xbe3f51ea	-0.18683591
61	0xbe4da57f	-0.20082663
62	0x3e4ec0c0	0.20190716
63	0x3e881f41	0.26586345
64	0x3c8b2b7a	0.016988505
65	0x3dac40d6	0.08410804
66	0xbe6d7e0b	-0.23192613
67	0xbd4c6974	-0.049905255
68	0x3e2f427c	0.17115206
69	0x3d5fb441	0.054615263
70	0x3d2aebd2	0.041728802
71	0xbd23ae12	-0.03996093
72	0xbe0a6660	-0.13515615
73	0xbcc03507	-0.023462785
74	0xbe10d037	-0.14141928
75	0x3d539338	0.05165407
76	0x3dfb1da6	0.12261514
77	0xbcad4abd	-0.021153802
78	0xbe237ac3	-0.15964799
79	0x3e0efbca	0.13963237
80	0x3c4db7e1	0.012556047
81	0x3d6af611	0.057363573
82	0xbd3a8234	-0.045534328
83	0xbd97eaad	-0.07417808
84	0x3e9bab12	0.30403954
85	0xbe8fa997	-0.28059074
86	0x3e5b6120	0.21423769
87	0xbe810a3d	-0.25203124
88	0xbe4ac284	-0.19800764
89	0xbe8babe3	-0.27279577
90	0xbe54a0f4	-0.20764524
91	0xbd99b85a	-0.075058654
92	0xbe7e6fef	-0.24847387
93	0x3d68dd4a	0.056851663
94	0xbe7bfab2	-0.24607351
95	0xbdfa436e	-0.122198924
96	0x3cb89af8	0.022534832
97	0xbe8a6fc1	-0.27038386
98	0x3e3ef96b	0.18649833
99	0x3d69ee64	0.057112113
100	0xbdf41e28	-0.11919814
101	0x3ea0a15e	0.31373113
102	0xbe42fa60	-0.19040823
103	0x3cdff2ed	0.027337516
104	0xbe82049a	-0.25394136
105	0x3dd2a660	0.1028564
106	0xbe6d4feb	-0.23175018
107	0xbda76afb	-0.08174702
108	0x3d3a1529	0.045430336
109	0x3e3f7e14	0.18700439
110	0xbe2650f6	-0.16241822
111	0x3e72ac0d	0.23698445
112	0x3e67ea41	0.22647955
113	0xbb9d2cf5	-0.004796619
114	0xbdd6c6e1	-0.10487152
115	0x3d967e9c	0.073483676
116	0x3ca698f9	0.020336615
117	0xbe475742	-0.1946688
118	0x3e50cd3f	0.20390795
119	0xbe20dedd	-0.15710016
120	0x3e55ef04	0.20891958
121	0xbc6581c0	-0.014007986
122	0xbe690447	-0.22755538
123	0xbe9a9488	-0.30191445
124	0x3dd2c3a5	0.102912225
125	0xbde3a7f3	-0.11116018
126	0x3e85d8ca	0.2614196
127	0x3dac160c	0.084026426

weight f4 [512, 128]
0	0xbbeff232	-0.007322573
1	0xbd304481	-0.04303408
2	0xbd141c0e	-0.036159568
3	0x3e0bfb41	0.13670065
4	0x3defc003	0.11706545
5	0x3e13e0b1	0.14441182
6	0xbb445322	-0.0029956778
7	0x3c8395ab	0.016062578
8	0x3e3d07fb	0.18460076
9	0x3d3402d8	0.043948025
10	0xbe1d23c7	-0.15345679
11	0xbd2ed0f1	-0.04267973
12	0xbcadc301	-0.02121115
13	0x3cb44159	0.022003816
14	0xbcb29d10	-0.021803409
15	0x3e0178ad	0.1264369
16	0xbce0ec90	-0.027456552
17	0xbd4f43dd	-0.05060183
18	0xbd2b0722	-0.04175485
19	0xbdc96e24	-0.09835461
20	0xbc88862f	-0.016665546
21	0xbd449c33	-0.048000526
22	0x3c1d4cc7	0.009600825
23	0xbd54f946	-0.05199554
24	0xbd89d75f	-0.06730532
25	0x3c9f5e02	0.019454006
26	0x3ccada17	0.024762196
27	0x3c5ed29d	0.013600019
28	0xbc29f5ad	-0.010373515
29	0xbe0d8aca	-0.13822475
30	0xbd2d400c	-0.042297408
31	0xbd01c4d5	-0.031681854
32	0xbd785786	-0.060630344
33	0xbcf3b1e2	-0.029747907
34	0xbd4067f9	-0.046974156
35	0xbb3033cc	-0.0026886342
36	0xbcf9f9ac	-0.03051456
37	0x3d9ae17d	0.0756254
38	0xbdbcb0e3	-0.09213426
39	0xbdb96938	-0.09053272
40	0xbe050ddf	-0.12993573
41	0xbe1485a9	-0.14504112
42	0xbd6d01da	-0.057863094
43	0xbd25ca35	-0.040476043
44	0xbdf88622	-0.12134959
45	0xbd9c98ff	-0.07646369
46	0xbddc3a0e	-0.107532606
47	0xbb5165df	-0.003195159
48	0xbd87bbc5	-0.06627611
49	0x3c0926ed	0.008371097
50	0x3e2d1f64	0.16906506
51	0xbc0dd076	-0.008655658
52	0x3e66b300	0.2252922
53	0xbc8ee758	-0.017444298
54	0x3ea2aeb0	0.317739
55	0xbd6c726c	-0.05772631
56	0xbe28ce19	-0.1648487
57	0xbdfbc1dc	-0.12292835
58	0x3d9d4327	0.07678824
59	0xbc845ca6	-0.01615746
60	0xbdd024ce	-0.1016327
61	0x3e03ea9e	0.12882468
62	0xbe2ff687	-0.17183886
63	0xbcdd0279	-0.026978718
64	0xbd6bacdb	-0.057537895
65	0xbcd761bd	-0.026291722
66	0xbc21e3f2	-0.009881007
67	0x3e30483d	0.17215057
68	0xbe338a4a	-0.17533222
69	0x3d478879	0.048714135
70	0xbd8b9ae9	-0.06816656
71	0xbdb72bbf	-0.08943891
72	0xbdef81fa	-0.11694713
73	0x3d0d3ac6	0.03447988
74	0xbcd34277	-0.025788529
75	0x3c603d0b	0.013686429
76	0x3d4e3853	0.050346684
77	0xbc9de993	-0.019276416
78	0xbd05a85e	-0.03263127
79	0x3d134001	0.03594971
80	0xbd90e00f	-0.07073986
81	0x3cea5567	0.028605176
82	0xbe1af2b6	-0.1513165
83	0xbde7a0ce	-0.11309968
84	0xbca3a311	-0.019975217
85	0xbd7f349f	-0.062306043
86	0x3d8deabd	0.069295384
87	0x3ceb1a06	0.028698932
88	0xbd723203	-0.059129726
89	0x3b1c41ae	0.002384286
90	0xbd34d0eb	-0.044144552
91	0x3c54fb70	0.0129994005
92	0x3db37e34	0.08764306
93	0x3d9e287d	0.07722566
94	0x3bec5931	0.007212781
95	0xbd28c3ee	-0.041202478
96	0x3da6a64b	0.081371866
97	0x3ccffa59	0.02538793
98	0xbd32648f	-0.04355293
99	0xbd017554	-0.031606033
100	0xbd164090	-0.036682665
101	0x3c230035	0.00994878
102	0x3da49398	0.08035964
103	0x3dee745d	0.11643288
104	0x3d8fa545	0.070139445
105	0xbdf0f8ce	-0.11766206
106	0x3d7c58a4	0.06160797
107	0xbdc3fc24	-0.095695764
108	0xbcf0c549	-0.029390948
109	0xbdd03d01	-0.101678856
110	0x3d545906	0.051842712
111	0x3c695fec	0.014244061
112	0xbd8c27c7	-0.068435244
113	0xbdaa40ca	-0.08313139
114	0xbdc4667c	-0.0958986
115	0xbcda2105	-0.026627073
116	0xbd5bc3ae	-0.05365341
117	0x3cbb5c28	0.022871092
118	0xbded2582	-0.1157942
119	0x3b900bb5	0.004395927
120	0xbc84bd6e	-0.016203608
121	0x3de32626	0.110912606
122	0xbd873ced	-0.066034175
123	0x3e2292b1	0.15876271
124	0xbe26d74c	-0.16293067
125	0xbdf59348	-0.11990982
126	0xbd415fbc	-0.04721044
127	0x3d0b2b1d	0.033976663
128	0xbd313f98	-0.04327354
129	0x3d008197	0.031373587
130	0x3d5c678c	0.053809687
131	0xbceeae72	-0.029135916
132	0xbd9fc381	-0.07800961
133	0xbd8c4e23	-0.06850841
134	0x3e14f3bf	0.14546107
135	0x3c5967a2	0.013269337
136	0x3da069e1	0.07832695
137	0x3d7832c6	0.060595296
138	0x3dcb2941	0.09919978
139	0x3d6f8050	0.058471978
140	0xbdc3bccf	-0.09557497
141	0xbd38c6aa	-0.045111336
142	0x3dc41960	0.095751524
143	0x3d3a4499	0.045475576
144	0x3d71fe79	0.059080575
145	0x3d5bb2bc	0.05363725
146	0xbdf4940e	-0.11942302
147	0x3da1f6f2	0.07908429
148	0xbdeb1c4f	-0.11480009
149	0xbd07874d	-0.033088017
150	0xbdaad4a4	-0.08341339
151	0x3e021563	0.12703471
152	0xbd95f7b5	-0.07322637
153	0x3d5d84aa	0.054081596
154	0x3e0e4a3c	0.13895506
155	0x3e076706	0.13222894
156	0x3d554ca5	0.052075047
157	0xbdbde68a	-0.092724875
158	0xbd776670	-0.060400426
159	0x3d712be6	0.058879755
160	0xbcd5fac7	-0.026120557
161	0x3c8a492f	0.0168806
162	0xbddb455b	-0.10706588
163	0x3d9fc564	0.07801321
164	0xbd44588d	-0.04793601
165	0x3d1aeaab	0.037821453
166	0xbc8ac099	-0.01693754
167	0x3d9378cb	0.07200774
168	0xbd2fc06e	-0.042908125
169	0x3e15c54d	0.14626046
170	0x3a1be0b0	0.0005946262
171	0x3b893745	0.004187497
172	0x3d904aff	0.07045554
173	0x3dc4a29b	0.09601327
174	0x3e00899a	0.12552491
175	0xbdd8bb65	-0.10582618
176	0xbcbdb386	-0.023156893
177	0xb98fe0f8	-0.000274427
178	0x3e30cf67	0.17266618
179	0x3d72c582	0.05927039
180	0x3d75a31e	0.059970014
181	0xbc1970d3	-0.009365278
182	0xbcf9577a	-0.03043722
183	0xbd86bf6c	-0.065794796
184	0x3dd556c4	0.1041694
185	0xbd8d3b05	-0.06896023
186	0x3de81b0d	0.113332845
187	0xbcbe7da5	-0.023253271
188	0xbc14dc3b	-0.00908571
189	0xbcdac9c9	-0.026707547
190	0xbd9d70bf	-0.0768752
191	0x3bc13eee	0.0058973944
192	0xbb17bcb5	-0.002315325
193	0xbc7b51f3	-0.015339362
194	0x3df5936d	0.1199101
195	0xbe29d78a	-0.16586128
196	0x3b1c3fec	0.0023841811
197	0xbd8cad89	-0.06869037
198	0x3d99a470	0.07502067
199	0xbd619d61	-0.05508173
200	0x3d1c4069	0.038147364
201	0x3dfd8a36	0.12379877
202	0xbc8f3b0c	-0.01748421
203	0x3beae18b	0.007168
204	0xbd207209	-0.039171252
205	0xbcacccd7	-0.021093769
206	0x3ce0dc98	0.027448937
207	0xbc5df011	-0.013546006
208	0x3d371d46	0.04470565
209	0xbd232bbf	-0.03983664
210	0xbd686183	-0.05673362
211	0x3b82a94e	0.003987468
212	0x3df4a193	0.1194488
213	0x3cfa0396	0.030519288
214	0xbd305667	-0.04305115
215	0xbdb51961	-0.08842731
216	0x3e219aeb	0.15781753
217	0xbdf9bb43	-0.121939205
218	0x3da61fb9	0.08111519
219	0xbd72c127	-0.059266236
220	0x3d4d6417	0.05014428
221	0xbc2be7d8	-0.010492288
222	0xbd57b56a	-0.052663244
223	0xbd955278	-0.0729112
224	0xbb2e6e94	-0.0026616203
225	0xbbb1b735	-0.0054234513
226	0xbd503798	-0.05083427
227	0x3d161446	0.036640428
228	0xbceba78b	-0.028766414
229	0xbd0e78e9	-0.034783278
230	0x3d52905e	0.05140721
231	0x3cd96cc1	0.026541116
232	0x3d4e513d	0.050370444
233	0xbe2947f0	-0.16531348
234	0x3db51d48	0.088434756
235	0xbd00fdf5	-0.031492192
236	0xbda94256	-0.08264606
237	0x3d5e265d	0.054235805
238	0x3d9ca753	0.07649102
239	0xbbab0e07	-0.005220178
240	0x3cbf96f1	0.023387404
241	0xbde14691	-0.109997876
242	0xbd7cb726	-0.0616981
243	0xbd3587a9	-0.04431883
244	0x3e043c50	0.12913632
245	0x3b51caeb	0.0032011818
246	0xbc7fec83	-0.015620354
247	0xbd5f7fd0	-0.05456525
248	0x3d56f86b	0.052483004
249	0x3de54a63	0.11195829
250	0x3dacecf0	0.0844363
251	0x3da2ab55	0.07942835
252	0x3da69c38	0.08135265
253	0xbcb96dfa	-0.022635449
254	0x3d33e23f	0.043916937
255	0xbdbcb55d	-0.0921428

bias f4 [512]
0	0xbccab58c	-0.024744771
1	0x3d9ca5b6	0.07648794
2	0x3d9a6098	0.07537955
3	0x3dd40d51	0.103541024
4	0xbd9d9a44	-0.076954395
5	0x3be00cfb	0.006837485
6	0x3d23b358	0.039965957
7	0x3db6c006	0.08923344
8	0xbdec0f66	-0.115263745
9	0x3d477f75	0.048705537
10	0xbd893bfb	-0.067008935
11	0x3cff1ad9	0.031140732
12	0xbd00187f	-0.03127336
13	0xbd3095f2	-0.04311175
14	0xbd87dfb5	-0.066344656
15	0x3c0c9c7b	0.00858223
16	0xbdfc26b7	-0.12312072
17	0xbd6a1b45	-0.057154913
18	0x3cb10d57	0.021612806
19	0x3dcf7e2d	0.10131488
20	0x3d138a8e	0.036020808
21	0x3ce4ced7	0.02793066
22	0x3dc7532b	0.0973266
23	0x3d407448	0.046985894
24	0xbdc2a65e	-0.09504388
25	0x3bffabdb	0.007802469
26	0xbcc237c6	-0.023708235
27	0xbdb75287	-0.08951288
28	0x3c396db5	0.01131766
29	0xbd1d9635	-0.038473327
30	0xbd57d2c9	-0.052691255
31	0x3d926a12	0.071491376
32	0xbd8e89b7	-0.06959861
33	0xbd772562	-0.060338385
34	0x3b77def2	0.0037822095
35	0xbd590f6c	-0.052993223
36	0x3d8e0de3	0.069362424
37	0xbcfffe1a	-0.031249095
38	0xbd7b4123	-0.061341416
39	0xbd9a5eaa	-0.07537587
40	0xbd66a2f9	-0.056307767
41	0xbc12436f	-0.00892721
42	0x3cb1ebba	0.021718848
43	0xbd1bf8b5	-0.038078982
44	0x3bb5e778	0.005551275
45	0xbcb78495	-0.022402087
46	0xbcf7cd85	-0.030249367
47	0x3d988780	0.074477196
48	0x3d3418bc	0.0439689
49	0x3b9fd7ea	0.004878034
50	0xbd1bc9ae	-0.038034134
51	0xbdc4f609	-0.0961724
52	0x3b00f9c7	0.001968013
53	0xbded1639	-0.11576504
54	0xbda76a6d	-0.08174596
55	0xbd03bf00	-0.032164574
56	0x3ba9ca02	0.005181552
57	0x3bea799b	0.00715561
58	0xbd993081	-0.074799545
59	0xbd6e8dd2	-0.05824072
60	0xbd16659d	-0.036718
61	0xbd97986e	-0.074021205
62	0x3d05efca	0.032699384
63	0xbde4f769	-0.11180002
64	0x3c94b922	0.018154684
65	0x3d21be75	0.039488275
66	0x3dcbbdf3	0.09948339
67	0x3d7bd38c	0.061481044
68	0xbe031e21	-0.12804462
69	0xbcb1d0ac	-0.021705948
70	0xbd9b5627	-0.07584792
71	0xbcd9d161	-0.026589097
72	0xbd13492a	-0.035958447
73	0xbc7f8aee	-0.015597088
74	0x3d89efe3	0.06735208
75	0x3d0a4b2f	0.033763107
76	0xbcd48556	-0.025942486
77	0x3d51bfd5	0.051208336
78	0xbbf625b2	-0.007511818
79	0x3b4afc3a	0.0030973093
80	0x3d8356ec	0.064130634
81	0x3db44b47	0.088034205
82	0xbd21dc73	-0.039516877
83	0x3affac35	0.0019506278
84	0xbd876d39	-0.066126294
85	0x3baebc20	0.005332485
86	0x3d86f30a	0.06589325
87	0x3dad558e	0.08463584
88	0x3d9882fb	0.074468575
89	0xbcc2659f	-0.023730097
90	0x3d1aa039	0.037750456
91	0xbdbae9bd	-0.09126613
92	0xbd8cdc3f	-0.06877946
93	0x3dbc9d48	0.092096865
94	0x3d8c1b15	0.06841103
95	0x3da55d98	0.08074492
96	0x3c9a6b4b	0.01884999
97	0xbd60940a	-0.05482868
98	0x3abfc692	0.0014631322
99	0x3d3d5166	0.046220206
100	0xbd773da9	-0.060361538
101	0xbc9d17a7	-0.019176317
102	0xbd584757	-0.05280241
103	0xbe0b1bea	-0.13584867
104	0xbd0114a2	-0.031513818
105	0xbb25c6af	-0.0025295427
106	0xbbcd88f6	-0.0062724305
107	0xbd15f8ce	-0.03661423
108	0xbbe72c55	-0.0070548453
109	0x3d204c11	0.039135043
110	0xbdaafab0	-0.08348596
111	0xbdb7ffa1	-0.08984304
112	0xbdce7d28	-0.100824654
113	0xbd3dff9e	-0.046386354
114	0xbd6aa675	-0.057287652
115	0xbc133a02	-0.008985998
116	0x3daa9d19	0.08330745
117	0xbe1aae85	-0.15105636
118	0xbd01dd27	-0.031705048
119	0xbd59117c	-0.05299519
120	0xbc3c19fc	-0.0114808045
121	0x3d9a81e8	0.07544309
122	0xbd90a738	-0.070631444
123	0xbc94a1f7	-0.018143637
124	0x3bda4e6c	0.0066621806
125	0x3b374312	0.002796356
126	0x3d16a59e	0.03677904
127	0xbd6d486a	-0.057930388
128	0x3debc67d	0.11512468
129	0xbd86840b	-0.06568154
130	0xbd93fc61	-0.07225872
131	0xbd914c72	-0.07094659
132	0xbd7b7061	-0.06138647
133	0xbc9fd380	-0.01951003
134	0x3c917574	0.017756201
135	0xbcc198bc	-0.0236324
136	0xbdcb7af2	-0.09935559
137	0x3c89f88f	0.016842155
138	0x3d496a2e	0.049173526
139	0x3b95b2bf	0.0045684273
140	0x3d5698f2	0.052391954
141	0x3d4e1534	0.05031319
142	0x3d7d38ab	0.06182162
143	0x3d9d24cf	0.07673036
144	0x3c831ecd	0.016005898
145	0xbbd7d889	-0.0065870923
146	0xbe00b2fb	-0.12568276
147	0xbe2b74a6	-0.16743717
148	0x3d450be4	0.048107043
149	0x3d60fa11	0.054925982
150	0xbbcc507d	-0.006235181
151	0x3bcbc8bd	0.006218998
152	0x3dd4ed64	0.10396841
153	0x37cfadb0	2.4757202e-05
154	0x3c02647a	0.007958526
155	0x3c9bfb8a	0.019040842
156	0xbccda927	-0.025105072
157	0xbd644df6	-0.05573841
158	0xbccc50e0	-0.024940908
159	0xbd2c6cf3	-0.04209609
160	0x3d370a0a	0.04468731
161	0x3d246cd0	0.040142834
162	0xbdb20bc6	-0.08693652
163	0xbd31d70d	-0.04341798
164	0x3bb283ea	0.0054478543
165	0xbc115200	-0.008869648
166	0x3abeb48a	0.0014549654
167	0xbd1949c3	-0.03742386
168	0xbc7dc5d7	-0.015489063
169	0x3d7aacba	0.06119988
170	0xbdbf6177	-0.09344762
171	0x3db07953	0.08616891
172	0xbd3aff09	-0.045653377
173	0xbcb5f947	-0.022213591
174	0xb9592e5d	-0.00020712004
175	0xbd85ba20	-0.06529641
176	0xbda389af	-0.079852454
177	0xbd8e3b7b	-0.06944939
178	0x3c98204e	0.018570092
179	0x3d5b6cda	0.053570606
180	0xbc44d7e2	-0.012014361
181	0x3d6fe1af	0.058564838
182	0x3d86c4dd	0.065805174
183	0xbd484500	-0.04889393
184	0xbd6a9276	-0.057268582
185	0x3d63d1aa	0.055619873
186	0x3dccc817	0.099991016
187	0x3db13b13	0.08653846
188	0xbd87b8af	-0.066270225
189	0xbcfac4b7	-0.03061138
190	0xbdd36fbf	-0.10324048
191	0xbd97ea6f	-0.074177615
192	0xbd6b8f79	-0.057509873
193	0xbd898353	-0.06714501
194	0xbdb595d4	-0.08866468
195	0x3d7926ba	0.06082795
196	0xbdd3282d	-0.10310397
197	0xbc659f5a	-0.014015043
198	0x3bb592d6	0.005541186
199	0x3c912d00	0.017721653
200	0xbdf20b08	-0.1181851
201	0x3c981f99	0.018569754
202	0x3c9930e6	0.018700074
203	0x3d8e4f8f	0.06948768
204	0xbd3bf452	-0.0458873
205	0xbd8e8adf	-0.06960081
206	0xbc06c613	-0.0082259355
207	0xbd08dd57	-0.03341421
208	0x3c7c0eb4	0.015384365
209	0xbdc8752f	-0.09787976
210	0xbc497f67	-0.0122984415
211	0x3d8c7675	0.068585314
212	0x3ce29855	0.027660528
213	0xbd23e450	-0.040012658
214	0xbd266195	-0.040620405
215	0x3dbe6547	0.09296661
216	0xbd3dbf7a	-0.046325184
217	0xbd87146d	-0.06595693
218	0xbc5fb1e9	-0.013653257
219	0x3d0aa489	0.03384832
220	0x3c329d45	0.010901754
221	0x3cdcbf61	0.026946725
222	0x3da1dcfd	0.07903478
223	0xbd3dbf1b	-0.04632483
224	0xbda4304c	-0.080170244
225	0x3dc6553b	0.09684225
226	0xbd87f0a0	-0.066376925
227	0xbdabd5b3	-0.08390369
228	0x3d5f5679	0.054525826
229	0xbcceb92c	-0.025234781
230	0xbdaf6ab0	-0.08565271
231	0xbd50a408	-0.050937682
232	0xbcfbe9f1	-0.0307512
233	0x3c062dca	0.008189628
234	0x3cd37e36	0.025817018
235	0x3ddf1b30	0.108938575
236	0x3da07df4	0.07836524
237	0xbde12864	-0.10994032
238	0x3ca43f96	0.020049851
239	0x3cd4c847	0.025974406
240	0x3d45e3bd	0.04831289
241	0x3b7f9a05	0.0039001715
242	0xbce2c825	-0.027683327
243	0x3d296618	0.04135713
244	0x3d821cf9	0.06353182
245	0x3d61b15a	0.055100776
246	0xbd396a55	-0.04526742
247	0xbd0d9072	-0.034561582
248	0xbd08ea64	-0.033426657
249	0xbbe9f82f	-0.0071401815
250	0x3d47e4c6	0.04880216
251	0xbc2ad6a4	-0.010427151
252	0x3dcaa488	0.09894663
253	0xbd75447a	-0.059879757
254	0x3c1fc823	0.009752306
255	0xbdb79b6c	-0.08965191

weight f4 [256, 512]
0	0xbce38437	-0.027773006
1	0xbd5c79dd	-0.053827155
2	0xbd3a4aac	-0.04548137
3	0xbc3a2f72	-0.011363851
4	0x3cab451b	0.020906975
5	0x3cfb0529	0.030642109
6	0x3d0da101	0.034577373
7	0xbc1b07e8	-0.009462334
8	0xbce476bc	-0.027888648
9	0xbdadf55f	-0.084940664
10	0x3d3965ad	0.04526298
11	0xbd92c24e	-0.07165967
12	0xbc2aeb02	-0.010432007
13	0x3c9902a8	0.018678024
14	0x3cd84c8e	0.026403692
15	0xbc0baa0a	-0.008524427
16	0x3d328129	0.043580208
17	0x3c32f0f2	0.010921704
18	0xbd84da1c	-0.064869136
19	0xbe2283e2	-0.15870622
20	0xbd3a40d5	-0.045471985
21	0x3d33883c	0.043831095
22	0xbde83877	-0.11338895
23	0x3deb40d9	0.11486978
24	0xbd951f0c	-0.07281312
25	0x3c1dd783	0.0096339015
26	0xbce2cb25	-0.027684757
27	0x3d53e385	0.05173065
28	0xbd382351	-0.044955555
29	0xbc858c66	-0.016302299
30	0xbd291ae2	-0.041285403
31	0xbc0c521b	-0.008564497
32	0x3be42fad	0.006963691
33	0xbd1cc157	-0.03827032
34	0xbb9ed669	-0.004847337
35	0xbdee932e	-0.11649166
36	0xbe0efa92	-0.13962772
37	0x3ca43ab7	0.020047529
38	0xbd6683b2	-0.05627794
39	0xbb137b50	-0.002250392
40	0xbcc4cf4e	-0.024024632
41	0x3cfcbb9f	0.030851183
42	0xba22f499	-0.00062162575
43	0xbcbf6994	-0.023365773
44	0xbc64de5f	-0.013969033
45	0xbe1cdb2f	-0.15317987
46	0x3d718d85	0.058972854
47	0xbdc3aec4	-0.09554818
48	0xbcd1b466	-0.025598716
49	0xbd4cfbce	-0.050044827
50	0x3c912b4b	0.017720839
51	0xbd9676e6	-0.07346897
52	0x3d7bd418	0.061481565
53	0xbcf351c3	-0.029702073
54	0xbd50e8a8	-0.05100313
55	0xbd552635	-0.05203839
56	0x3d374ad9	0.044749115
57	0x3d359520	0.04433167
58	0x3d4dbf91	0.05023152
59	0xbd74d026	-0.05976882
60	0xbd08034c	-0.03320627
61	0xbd96fdbe	-0.07372616
62	0x3c8ff18e	0.017571237
63	0xbd9f6a88	-0.07783991
64	0x3bf36c36	0.0074286712
65	0xbd16cc93	-0.03681619
66	0xbce566a0	-0.028003037
67	0x3e11b7b9	0.14230241
68	0xbd81b9db	-0.06334277
69	0x3da42ffb	0.08016964
70	0x3d05b54a	0.032643594
71	0x3da5d685	0.08097557
72	0xba02a7fa	-0.0004984137
73	0x3d1e77a3	0.038688313
74	0xbc79312a	-0.0152094755
75	0xbb831939	-0.0040008095
76	0xbbe45c61	-0.0069690202
77	0xbc112716	-0.0088594165
78	0xbd26022d	-0.04052942
79	0x3d288880	0.0411458
80	0x3cff48a0	0.03116256
81	0xbc344631	-0.011003063
82	0x3d05326f	0.0325188
83	0xbc43dc40	-0.011954367
84	0xbcf3eef3	-0.029777026
85	0x3c653ad7	0.013991079
86	0xbccfd62d	-0.025370682
87	0xbdace77f	-0.08442592
88	0x3c08ec3c	0.008357104
89	0x3d2e351f	0.04253113
90	0x3d48a42a	0.048984684
91	0xbd012949	-0.031533513
92	0xbbc96400	-0.006145954
93	0x3d0d1e42	0.034452684
94	0x3c161340	0.009159863
95	0xbda654a6	-0.08121614
96	0x3c601cb5	0.013678719
97	0xbcb254e5	-0.021768996
98	0xbd86d326	-0.06583242
99	0x3d3d3b16	0.046198927
100	0xbd32fbca	-0.043697156
101	0x3a232d8e	0.0006224745
102	0xba3c9782	-0.0007194207
103	0xbdaf5362	-0.08560826
104	0x3b85fc29	0.0040888977
105	0x3d6298c2	0.055321462
106	0xbcba09eb	-0.022709807
107	0x3b042541	0.0020163807
108	0x3d1e28d7	0.038613167
109	0x3d8b3a33	0.0679821
110	0x3d38dee5	0.045134444
111	0xbd33f730	-0.04393691
112	0xbdd47716	-0.10374276
113	0x3c88e904	0.016712673
114	0xbdab28cc	-0.08357391
115	0xbce64a15	-0.028111497
116	0xbd86e5ca	-0.065867975
117	0xbb6f6845	-0.0036530655
118	0xbd52d9b2	-0.05147714
119	0xbd8dc4ee	-0.06922327
120	0x3d66c6ba	0.056341864
121	0xbb4da15f	-0.0031376702
122	0x3d659d3e	0.05605816
123	0xbba204d5	-0.0049444237
124	0x3c71d698	0.014760636
125	0x3d8b3446	0.0679708
126	0xbc407e81	-0.011748911
127	0xbc60f645	-0.01373059
128	0xbcf56e7e	-0.029959913
129	0x3ccf61cf	0.025315193
130	0xbd1e29b9	-0.03861401
131	0xbb92a56f	-0.0044752876
132	0xbc459619	-0.012059712
133	0xbd90b20c	-0.0706521
134	0xbc51ec77	-0.012812725
135	0xbc9f43a6	-0.019441437
136	0x3cad0e66	0.02112503
137	0xbdd4dd5a	-0.10393782
138	0xbb7d86f8	-0.0038685184
139	0x3d7cdbb7	0.061732974
140	0x3cddbb0a	0.027066726
141	0xbdfac776	-0.122450754
142	0x3d9e4651	0.077282555
143	0x3d2c99df	0.04213893
144	0x3d9f47e6	0.077773854
145	0xbd0c4315	-0.034243662
146	0xbcfd1cce	-0.030897524
147	0xbcb5534e	-0.02213445
148	0xbd04fb3a	-0.03246615
149	0xbd8ff061	-0.070282705
150	0x3d664830	0.056221187
151	0xbbfb7c2e	-0.0076747155
152	0x3dd18c66	0.10231857
153	0x3d4bd1a2	0.04976047
154	0x3ca8b263	0.020592874
155	0xbac92451	-0.0015345906
156	0xbca9db9e	-0.020734604
157	0xbd1a7956	-0.03771337
158	0xbddfc500	-0.10926247
159	0xbdb0045f	-0.08594584
160	0xbdd3a618	-0.10334414
161	0xbc4cbdea	-0.012496451
162	0x3d7f24dd	0.062291015
163	0xbd913c86	-0.07091622
164	0xbd98c640	-0.07459688
165	0x3d3b5961	0.045739535
166	0xbb6c53cf	-0.0036060696
167	0xbc11a3d0	-0.008889154
168	0xbcd3a189	-0.025833862
169	0xbd6422a2	-0.05569709
170	0x3cddd329	0.027078228
171	0xbcc2e3bc	-0.023790233
172	0xbd032ef0	-0.032027185
173	0xbda97d32	-0.08275832
174	0x3bc0b7cd	0.0058812858
175	0xbd9738eb	-0.07383903
176	0x3b22a6ba	0.0024818615
177	0x3d2d7e1d	0.0423566
178	0x3b791df4	0.0038012238
179	0x3d2a0e6b	0.041517656
180	0xbba9f880	-0.005187094
181	0xbd8db393	-0.06919017
182	0xbd8b874f	-0.068129174
183	0x3d85f389	0.06540591
184	0xbb358ad5	-0.0027701159
185	0xbbcc61b6	-0.006237234
186	0xbaa8aea6	-0.0012869432
187	0xbc619703	-0.013768914
188	0x3c83e0c7	0.016098393
189	0x3d7ab709	0.061209712
190	0x3caaf6c0	0.020869613
191	0xbc2c22ad	-0.010506314
192	0xbd2db34f	-0.04240733
193	0x3b64fd67	0.0034941079
194	0xbd9d45be	-0.07679318
195	0x3cf9b2aa	0.030480701
196	0xbd839303	-0.06424525
197	0xbb6430af	-0.0034819057
198	0xbd4d25e8	-0.05008498
199	0x3c04ccd5	0.008105476
200	0x3cb51ddb	0.022108963
201	0xbac759fa	-0.001520931
202	0xbdae1ffe	-0.08502196
203	0x3cbfe701	0.023425581
204	0xbc1d94b6	-0.009617975
205	0xb9ca28c0	-0.00038558803
206	0x3c004dff	0.007831096
207	0xbd63541e	-0.055500142
208	0x3c44ad6d	0.012004239
209	0x3bea5d5b	0.007152242
210	0x3ba1746d	0.004927209
211	0xbd90ddac	-0.070735306
212	0x3b194a48	0.0023390222
213	0x3c51a7e4	0.012796376
214	0xbd0a201c	-0.033722028
215	0x3b32b7ee	0.0027270275
216	0xbceb7a21	-0.028744759
217	0x3d10c108	0.03534034
218	0xbd8c1f04	-0.06841853
219	0xbd8fe0ce	-0.070253
220	0xbcc899c1	-0.024487378
221	0xbd7f7e46	-0.062376283
222	0x3c3a3bf8	0.011366837
223	0xbd099e38	-0.033598155
224	0xbca15fe8	-0.019699052
225	0xbc3f3035	-0.011669208
226	0xbd860079	-0.06543059
227	0xbd122825	-0.035682816
228	0x3cf86af6	0.03032444
229	0x3c305cfd	0.010764358
230	0xbcd4abeb	-0.025960883
231	0xbd137d32	-0.036008067
232	0x3d1105a2	0.035405762
233	0x3d6026e0	0.054724574
234	0x3a33f8f8	0.00068654073
235	0xbd9a5162	-0.07535054
236	0xbc637385	-0.0138825225
237	0xbdb752bd	-0.08951328
238	0x3be474be	0.0069719246
239	0xbbcf7c33	-0.0063319444
240	0xbc1c7441	-0.0095492015
241	0x3b5b9e56	0.0033511124
242	0x3a391217	0.00070598855
243	0xbdfe4f93	-0.12417521
244	0xbd08fb11	-0.03344256
245	0x3cd3fb92	0.025876794
246	0xbbeb2629	-0.00717618
247	0xbd221fd9	-0.039581154
248	0x3d5b0269	0.053469095
249	0xbd3da33d	-0.046298254
250	0x3cecf86c	0.02892705
251	0xbd85ffb3	-0.065429114
252	0xbca5910a	-0.020210762
253	0xbcac11bd	-0.021004552
254	0xbdd6a676	-0.10480969
255	0x3c9c885d	0.019107992

bias f4 [256]
0	0xbb925564	-0.0044657458
1	0xbc7cb273	-0.015423405
2	0xbd7a554b	-0.061116498
3	0xbd9dbb20	-0.07701707
4	0xbd0d7103	-0.034531604
5	0xbdcbeefb	-0.09957691
6	0x3d8a779b	0.06761094
7	0xbce2232d	-0.027604664
8	0x3d9e7a6d	0.077381946
9	0x3cbddd4b	0.02317681
10	0x3d13ea6e	0.03611224
11	0xbcd6d905	-0.02622653
12	0x3d984a7d	0.074360825
13	0xbc000b41	-0.007815183
14	0xbdc5531a	-0.09634991
15	0x3db45355	0.08804957
16	0xbd325a68	-0.04354325
17	0x3d82510f	0.06363117
18	0x3c84432f	0.016145317
19	0x3d426251	0.047457043
20	0xbd7b641b	-0.061374765
21	0xbc998fba	-0.018745292
22	0xbcc01e39	-0.023451911
23	0x3d2e6d65	0.042584796
24	0xbc15c0d3	-0.009140211
25	0x3da2b881	0.079453476
26	0x3da1bdc1	0.07897521
27	0xbd7cdb54	-0.061732605
28	0x3d2214a7	0.039570477
29	0x3c62f1d4	0.013851602
30	0x3d09790b	0.0335627
31	0xbdc5d82d	-0.09660373
32	0x3dc9f57e	0.09861277
33	0xbd2305b0	-0.039800346
34	0x3c571993	0.013128656
35	0xbcd797f5	-0.026317576
36	0x3ca823a8	0.020524815
37	0xbdb0b901	-0.08629037
38	0xbdac6450	-0.084175706
39	0x3e05df0c	0.13073367
40	0xbd8be8c9	-0.068315096
41	0x3d801c4e	0.06255399
42	0x3d1c0ecb	0.038100045
43	0x3d87e185	0.06634811
44	0x3d9d99eb	0.07695373
45	0xbd688073	-0.056763124
46	0xbd064ed4	-0.03279002
47	0xbd4b4512	-0.049626417
48	0xbab9432f	-0.0014134402
49	0x3db5dc0e	0.08879863
50	0x3d9dd2be	0.077062115
51	0x3c906ed3	0.01763097
52	0x3d1e2b37	0.03861543
53	0xbc9cd4ac	-0.019144379
54	0x3c6ab0b3	0.014324355
55	0xbde76b53	-0.11299767
56	0xbcaca0c7	-0.021072758
57	0xbd873952	-0.0660273
58	0x3bbc5354	0.005747238
59	0xbcdfff4f	-0.02734342
60	0x3d4c7860	0.049919486
61	0xbdd9fe74	-0.10644236
62	0x3c7c4ee9	0.015399673
63	0xbdbc652a	-0.09198983
64	0x3ce1cf2f	0.027564613
65	0xbd87a438	-0.06623119
66	0x3dded81a	0.10881062
67	0xbcae53c0	-0.02128017
68	0x3df40649	0.11915261
69	0xbcc18a04	-0.023625381
70	0x3e004c47	0.12529097
71	0x3dccec46	0.10006003
72	0xbd199355	-0.037494022
73	0x3cea5763	0.028606122
74	0xbc11d213	-0.008900183
75	0x3d805c22	0.06267573
76	0x3da835d2	0.082133904
77	0xbce99b1f	-0.02851635
78	0x3d5a6d72	0.05332703
79	0x3dcf5026	0.10122709
80	0x3cbff3b8	0.023431644
81	0x3d680554	0.056645706
82	0xbdf403e4	-0.119148046
83	0x3d909c7d	0.07061098
84	0xbcd5df06	-0.026107322
85	0x3d2c5d04	0.042080894
86	0xbd9b0c84	-0.075707465
87	0xbc4daf52	-0.012554007
88	0xbd9a0cad	-0.07521949
89	0x3dc6b1e4	0.09701899
90	0xbd9bfd95	-0.07616726
91	0xbcaba9b4	-0.020954944
92	0xbd83ff42	-0.06445171
93	0x3d23b584	0.03996803
94	0xbdbe3975	-0.09288303
95	0x3bd9a2c4	0.0066417176
96	0x3df5d47a	0.12003417
97	0x3cd2faf9	0.025754439
98	0x3c053c6c	0.0081320815
99	0x3cd16bb4	0.025564052
100	0x3dbebf4d	0.093138315
101	0xbc9705f2	-0.018435452
102	0xbb9e53f8	-0.004831787
103	0x3d9483d0	0.07251704
104	0x3d41ae8c	0.0472856
105	0xbcf2af5a	-0.02962463
106	0x3b8e7101	0.004346967
107	0x3bf0c035	0.0073471316
108	0x3d25f0e3	0.04051293
109	0x3d85cb00	0.0653286
110	0x3c8032c8	0.015649214
111	0xb9e70b38	-0.00044068112
112	0x3df6010e	0.1201192
113	0xbc8cad59	-0.017172502
114	0x3df515a3	0.119670175
115	0x3da02e1e	0.07821296
116	0xbb2b50e3	-0.0026140742
117	0xbc4c0cbd	-0.012454209
118	0x3d3a3790	0.045463145
119	0xbc333146	-0.010937041
120	0xbb9f1780	-0.0048550963
121	0x3d62a3b5	0.055331904
122	0x3dcb25b0	0.09919298
123	0x3caba645	0.020953307
124	0x3d8c4ad3	0.06850209
125	0xbd27b2a9	-0.040941868
126	0xbd2b52e7	-0.04182711
127	0x3d1d1242	0.03834749
128	0x3d1c14fe	0.038105957
129	0xbd8fe965	-0.07026938
130	0x3d592a63	0.05301894
131	0xbbf19cb1	-0.0073734154
132	0x3dd7c2f8	0.10535234
133	0x3be9553c	0.0071207564
134	0xbd478c65	-0.048717875
135	0x3d2fa77b	0.04288433
136	0x3d935c82	0.07195379
137	0x3d9fe7c3	0.07807877
138	0x3daf2bf1	0.08553303
139	0xba93da23	-0.001128022
140	0xbb86f1ce	-0.004118181
141	0xbce2bae1	-0.027677001
142	0x3d1ce526	0.03830447
143	0x3da91464	0.08255842
144	0x3ca466b5	0.020068506
145	0xbd251218	-0.04030046
146	0xbdc368fc	-0.095415086
147	0x3d53f051	0.051742855
148	0x3bd0c796	0.0063714487
149	0xbc227ae4	-0.009916995
150	0xbb8d8bda	-0.00431965
151	0x3c8616b8	0.016368255
152	0xbdc252e9	-0.0948847
153	0x3dbe54cb	0.09293517
154	0x3d1b1dcd	0.037870217
155	0x3d741d1c	0.059598073
156	0x3c89e56d	0.016833032
157	0x3d90a67a	0.07063003
158	0x3d1971ee	0.037462167
159	0x3c58f304	0.013241533
160	0xbc6620c2	-0.014045896
161	0x3d142cd2	0.036175556
162	0xbd396ebe	-0.045271628
163	0x3dae1196	0.08499448
164	0x3d25ed53	0.040509533
165	0x3c09feec	0.0084225945
166	0xbd394afa	-0.04523752
167	0x3d06b477	0.03288695
168	0x3d961604	0.07328418
169	0x3c179db7	0.009253911
170	0x3d7b65b6	0.061376296
171	0xbb5d8b50	-0.003380496
172	0x3bc24549	0.0059286696
173	0x3ddb3deb	0.10705169
174	0xbbe527d7	-0.0069932747
175	0x3d74a34f	0.059726056
176	0xbda0dfb5	-0.07855169
177	0x3cd99e14	0.026564635
178	0xbd896d6d	-0.067103244
179	0x3db34fae	0.08755432
180	0x3db0dd67	0.08635979
181	0x3cb95d07	0.022627367
182	0xbca6c4d5	-0.020357529
183	0xbc98603f	-0.018600581
184	0xbd0bcdc1	-0.03413177
185	0x3d5d6ee4	0.05406083
186	0x3dfcc5f1	0.12342442
187	0x3ccd656b	0.025072774
188	0x3db105ad	0.08643661
189	0xbd3317b4	-0.043723777
190	0x3cea2a2c	0.028584562
191	0xbdec74c3	-0.11545708
192	0x3d976ccc	0.07393798
193	0x3df38831	0.11891211
194	0xbd73a6c6	-0.05948522
195	0x3cecb7ee	0.028896298
196	0x3d54139c	0.051776513
197	0xbd154d5e	-0.036450736
198	0xbd762233	-0.06009121
199	0x3b991da3	0.0046727224
200	0x3d84c836	0.064835
201	0x3d84c42d	0.0648273
202	0x3d5f886d	0.054573465
203	0x3ca82747	0.020526541
204	0xbcb5dbee	-0.022199597
205	0xbd05842e	-0.03259676
206	0x3c510e57	0.012759767
207	0x3d5c25d2	0.053747006
208	0xbd4943fd	-0.049137104
209	0x3d39ed36	0.045392238
210	0xbda22f20	-0.07919145
211	0xbd119cd8	-0.03554997
212	0x3d6df6e8	0.058096796
213	0x3c46af19	0.0121267075
214	0xbcd63e38	-0.026152715
215	0xbd49ac1a	-0.049236394
216	0x3db52ad8	0.088460624
217	0xbd05c07d	-0.032654274
218	0xbca960c3	-0.020676022
219	0x3c8774c9	0.01653518
220	0x3c667070	0.014064893
221	0xbd64c516	-0.05585202
222	0xbd5a98a7	-0.053368237
223	0xbcd15958	-0.025555298
224	0xbdfbeec4	-0.123014
225	0xbc7b71c0	-0.015346944
226	0x3d6c8e3a	0.057752825
227	0x3dc39f79	0.09551901
228	0x3d22b7a9	0.039725933
229	0x3d7ca84d	0.06168394
230	0xbe0e380f	-0.13888572
231	0x3caa418d	0.02078321
232	0xbd043c4a	-0.03228406
233	0xbc06e7d4	-0.008233983
234	0x3d158dea	0.036512293
235	0x3d7cd289	0.06172422
236	0xbd6064d5	-0.05478366
237	0xbca28ef2	-0.019843552
238	0x3e024ded	0.12725039
239	0x3dd4808b	0.1037608
240	0xbd560723	-0.0522529
241	0xbb3b34a0	-0.0028565302
242	0xbd096336	-0.03354188
243	0x3dc6bbd9	0.09703798
244	0x3de28c58	0.11061925
245	0x3b990289	0.0046694917
246	0x3daae799	0.08344955
247	0x3d5c4d70	0.053784788
248	0xbb4ca698	-0.0031227227
249	0xbd054ee2	-0.03254593
250	0xbb0d9816	-0.0021605543
251	0x3d93edb5	0.072230734
252	0xbd6a62d8	-0.05722317
253	0xbdb11470	-0.08646476
254	0x3d81d815	0.063400425
255	0xbd42ef2b	-0.04759137

weight f4 [128, 256]
0	0xbc8f17af	-0.017467348
1	0xbbc80809	-0.0061044735
2	0xbd52c596	-0.051457964
3	0xbc510e34	-0.012759734
4	0xbcf2bc77	-0.029630883
5	0x3cc55f02	0.024093155
6	0xbc1abaf4	-0.009443987
7	0xbdbebb7d	-0.09313104
8	0x3d93f573	0.0722455
9	0x3cebb5f8	0.028773293
10	0xbcaaf5da	-0.020869184
11	0x3cd0db8d	0.025495315
12	0xbccd135a	-0.025033642
13	0xbd22336d	-0.039599825
14	0xbd92836d	-0.07153974
15	0x3d58f778	0.05297038
16	0xbd866cdb	-0.06563731
17	0x3cf67094	0.030082978
18	0x3d72e8dd	0.059304107
19	0xbb8bfc6d	-0.004272035
20	0xbb96a1e1	-0.004596934
21	0xbd30e665	-0.04318847
22	0xbcd3e768	-0.025867179
23	0x3d052bac	0.032512352
24	0x3b572876	0.0032830513
25	0x3d0d8ac0	0.03455615
26	0xbd10ba4b	-0.035333913
27	0xbd45be68	-0.04827729
28	0xbd1a7ac3	-0.03771473
29	0xbb3b488b	-0.0028577175
30	0xbd653cfa	-0.055966355
31	0xbd84934d	-0.06473408
32	0xbcc516fc	-0.024058811
33	0x3c1cd8a9	0.00957314
34	0xbc68609b	-0.014183189
35	0x3acc9e97	0.0015611228
36	0xbcc8df09	-0.024520414
37	0xbdf39f03	-0.118955635
38	0xbc7f2762	-0.015573354
39	0xbbc8e40a	-0.0061307
40	0x3d6eab39	0.05826876
41	0xbd0d9a42	-0.03457094
42	0x3d8b93cc	0.068152994
43	0xb9ed1a1a	-0.0004522361
44	0x3de3e19d	0.11127017
45	0x3a9b6f56	0.0011858742
46	0xbd7692aa	-0.060198463
47	0x3be1aac2	0.006886811
48	0x3bd74fdd	0.0065707997
49	0xbcc437a1	-0.023952307
50	0x3d3586e0	0.04431808
51	0x3c57eebd	0.013179478
52	0xbd5b8370	-0.053592145
53	0xbd96b769	-0.073592015
54	0xbd82f325	-0.063940324
55	0xbceeb085	-0.029136905
56	0x3d0d86ef	0.03455251
57	0xbd9c1ae2	-0.07622315
58	0xbcb47ddb	-0.022032669
59	0xbd08f19f	-0.033433553
60	0xbd3dcc11	-0.04633719
61	0xbdc5d6d9	-0.096601196
62	0xbbd20cd4	-0.0064102206
63	0xbce2024c	-0.027588986
64	0xbc6f7944	-0.014616314
65	0xbd82384b	-0.06358393
66	0xbac8ab6a	-0.0015309874
67	0xbce411bc	-0.027840488
68	0x3d3a9328	0.045550495
69	0xbc6172c8	-0.013760276
70	0xbc25b315	-0.010113497
71	0x3d1976d8	0.037466854
72	0xbd71a789	-0.058997665
73	0xbc198858	-0.009370886
74	0x3d02f06e	0.031967573
75	0xbaeeda86	-0.0018223084
76	0x3dd4bb04	0.10387233
77	0xbd89f896	-0.06736867
78	0x3d5128af	0.05106419
79	0x3c8c45e7	0.017123176
80	0xbcc4cef5	-0.024024466
81	0x3d4d2bbf	0.050090548
82	0xbd852a21	-0.06502176
83	0x3d9bdb2d	0.07610164
84	0xbce589f5	-0.028019885
85	0x3da2a07e	0.07940768
86	0xbe01e615	-0.12685426
87	0xbdb5cf47	-0.08877426
88	0xbd211aea	-0.039332308
89	0xbcf302c3	-0.029664403
90	0xbd212570	-0.039342344
91	0x3d163398	0.036670297
92	0xbd199114	-0.037491873
93	0xbd301c6d	-0.04299586
94	0xbdbb6356	-0.09149806
95	0x3bd7d561	0.006586716
96	0x3b0cc5cf	0.0021480208
97	0x3d12aab3	0.035807323
98	0x3d422ce8	0.047406107
99	0xbb8b3a81	-0.0042489176
100	0xbc1a4606	-0.009416109
101	0x3d7cddd8	0.061735004
102	0x3cf03487	0.029321922
103	0x3c7af027	0.015316046
104	0xbcbe4eeb	-0.02323099
105	0x3cb2679e	0.021777924
106	0xbd947c76	-0.072503015
107	0xbdf65c29	-0.12029297
108	0xbd169cf9	-0.036770795
109	0x3c04a67f	0.008096336
110	0xbd1e53f1	-0.03865427
111	0x3d261de6	0.040555857
112	0xbb0e5265	-0.0021716591
113	0xbbcc21d3	-0.006229618
114	0x3d714fd7	0.05891403
115	0x3c7fbd71	0.015609131
116	0xbdb03385	-0.086035766
117	0xbd2ae0d1	-0.041718308
118	0xbc24702c	-0.0100365095
119	0xbd0558d7	-0.032555427
120	0x3cbc8948	0.02301468
121	0x3d91e77a	0.07124229
122	0x3d2989fc	0.041391358
123	0xbcc7dd48	-0.024397507
124	0xbdc4b1bc	-0.09604213
125	0xbc0ad007	-0.008472449
126	0xbc081aa8	-0.008307137
127	0xbd121986	-0.035668872
128	0xbde8eef6	-0.11373703
129	0x3ccf3c7b	0.025297394
130	0xbcf76b73	-0.030202603
131	0xbd86cda3	-0.06582191
132	0x3d1d4d8b	0.03840403
133	0xbd5dd9bb	-0.054162722
134	0xbd7e733e	-0.062121622
135	0x3c8b493c	0.017002694
136	0xbd0fa971	-0.0350737
137	0xbdaed1d9	-0.08536119
138	0x3bc2a4f6	0.005940075
139	0x3d40a934	0.047036365
140	0xbd80af33	-0.062834166
141	0xbd7de698	-0.06198749
142	0xbc91ec4b	-0.017812869
143	0x3d1fac9e	0.03898298
144	0xbcd403e7	-0.025880767
145	0x3c8042fa	0.015656937
146	0xbbffd0f5	-0.007806892
147	0x3c8e5d58	0.017378494
148	0xbc21ea5a	-0.009882534
149	0xbd35f68d	-0.044424582
150	0x3ccb9537	0.024851425
151	0x3d7c75df	0.061635848
152	0x3d065e47	0.032804754
153	0xbdaaeeb6	-0.08346312
154	0xbcd2a950	-0.0257155
155	0xbca8e3a8	-0.020616367
156	0x3c73b695	0.014875074
157	0x3d9d6881	0.07685948
158	0x3c6f4bed	0.014605504
159	0xbd11698b	-0.035501044
160	0x3cf99390	0.030465871
161	0x3c1e6a4b	0.009668897
162	0xbd80abad	-0.062827446
163	0x3d8147df	0.063125364
164	0xbc24c25c	-0.0100561045
165	0x3d9f2c72	0.07772149
166	0xbd49f055	-0.049301464
167	0x3c9124a5	0.017717669
168	0x3d31179f	0.043235417
169	0xbd537872	-0.051628537
170	0x3d576b99	0.052592847
171	0xbd897269	-0.06711275
172	0x3bbb8b95	0.0057234266
173	0xbca3c133	-0.019989586
174	0x3d720c81	0.059093956
175	0x3d4cf79e	0.050040834
176	0xbdb1253a	-0.086496785
177	0xbca8e43f	-0.020616649
178	0xbd0f7812	-0.035026617
179	0xbcb15bfa	-0.021650303
180	0x3d113949	0.035455022
181	0x3bfa2a1d	0.007634415
182	0xbb9fd8c1	-0.004878134
183	0xbd2fb3a8	-0.042895943
184	0x3ce08c13	0.027410543
185	0x3d527bab	0.05138747
186	0xbdb7ad0a	-0.089685515
187	0xbdddc0bd	-0.108277775
188	0x3d992866	0.074784085
189	0xbaf62440	-0.0018779114
190	0xbcae6829	-0.021289902
191	0xbe09fde6	-0.13475761
192	0xbc6d3720	-0.014478475
193	0xbc97e682	-0.018542532
194	0xbd9007c6	-0.07032733
195	0x3d2fd8cb	0.04293136
196	0xbcb5144e	-0.022104409
197	0x3c053119	0.008129382
198	0xbc881705	-0.016612539
199	0x3ca6c86a	0.020359237
200	0x3d76215d	0.06009041
201	0x3d4be61b	0.049779993
202	0x3d9799ae	0.07402359
203	0xbd09f9cd	-0.033685494
204	0x3d46d34f	0.048541363
205	0x3d13d68c	0.03609328
206	0x3caccd64	0.021094032
207	0x3ce66b91	0.028127464
208	0x3d3d54ed	0.04622357
209	0x3ca74e5a	0.020423103
210	0xbd0c96ff	-0.03432369
211	0xbd3a4544	-0.045476213
212	0x3db0f253	0.0863997
213	0xbba66468	-0.0050778873
214	0xbc3c6215	-0.011497994
215	0x3b2b1f1c	0.0026111072
216	0xbd32b0c7	-0.04362562
217	0xbdc105d2	-0.09424938
218	0xbd606b78	-0.05478999
219	0xbc98b172	-0.0186393
220	0x3d4e7f20	0.050414205
221	0xbdaf89f0	-0.08571231
222	0xbd1eebbb	-0.03879903
223	0x3d183457	0.03715929
224	0xbd4c948f	-0.049946364
225	0xbd93a01d	-0.072082736
226	0xbd5c5464	-0.05379142
227	0x3c8f46b6	0.017489772
228	0x3d89ae61	0.06722713
229	0x3d81dc92	0.063408986
230	0xbd723d8e	-0.059140734
231	0xbd5fcb7c	-0.054637417
232	0xbd7cd3a9	-0.061725292
233	0xbdad9ec7	-0.0847755
234	0xbb8ad78e	-0.004237122
235	0xbd3a68d0	-0.045510113
236	0xbb478acb	-0.0030447717
237	0xbd4ceb50	-0.0500291
238	0x3d060c72	0.032726713
239	0x3c12631a	0.0089347605
240	0xbd407207	-0.046983745
241	0xbd07f3f2	-0.03319163
242	0xbde4aa8a	-0.1116534
243	0x3d26c31e	0.040713422
244	0x3d80d874	0.06291285
245	0xbd33eef8	-0.04392907
246	0x3c8dc02f	0.017303554
247	0x3cf05062	0.029335205
248	0xbc79107d	-0.015201685
249	0x3d71d3d0	0.05903989
250	0x3ce10872	0.027469847
251	0xbc0c67fb	-0.008569713
252	0xbdc98ae7	-0.09840947
253	0x3b2d2a60	0.0026422963
254	0x3d9acd9c	0.07558748
255	0xbd421075	-0.047378976

bias f4 [128]
0	0x3de18cc9	0.11013181
1	0x3da933ed	0.08261857
2	0x3b453087	0.003008874
3	0x3dc823db	0.09772464
4	0xbdd7b15a	-0.10531874
5	0xbd9a2856	-0.07527225
6	0xbda39f1c	-0.07989332
7	0xbddc776f	-0.10764968
8	0xbd7a374b	-0.061087888
9	0x3d9562f1	0.07294262
10	0x3d3a0b0c	0.04542069
11	0xbbda88aa	-0.0066691237
12	0xbd27da46	-0.040979646
13	0xbd7a36be	-0.061087362
14	0xbe38e375	-0.18055518
15	0x3e07545a	0.13215771
16	0x3d200916	0.039071165
17	0x3d312ba8	0.043254524
18	0x3daf45d5	0.08558241
19	0xbddef124	-0.10885838
20	0x3e1124db	0.14174215
21	0x3e12d3c5	0.14338596
22	0xbce7df4a	-0.028304715
23	0x3d9196da	0.07108851
24	0xbd91d86a	-0.07121356
25	0xbd71674b	-0.0589364
26	0x3d2bff66	0.041991614
27	0xbd2f941a	-0.04286585
28	0x3da28f10	0.07937443
29	0x3c46b330	0.012127683
30	0xbca57e1e	-0.020201739
31	0x3d823d4f	0.0635935
32	0xbdaa465d	-0.08314202
33	0xbd3daf94	-0.046310022
34	0x3dc835e7	0.09775906
35	0x3d71121f	0.058855172
36	0xbdc9d81a	-0.09855671
37	0x3db189c4	0.08668855
38	0xbd7d846f	-0.061893877
39	0x3d1d9616	0.03847321
40	0xbe242d87	-0.16032992
41	0xbe11fee2	-0.14257386
42	0x3e13b83d	0.1442575
43	0x3da85beb	0.08220657
44	0x3d333c40	0.04375863
45	0xbdfe2ba2	-0.12410666
46	0x3d2c5b5e	0.042079322
47	0x3daa2542	0.083078876
48	0xbd99a21a	-0.075016215
49	0x3dd971d5	0.10617415
50	0x3d8c0439	0.06836743
51	0xbe447a8b	-0.19187371
52	0x3ddf8a7b	0.10915085
53	0xbcf556a2	-0.029948536
54	0xbcbb3ae2	-0.022855226
55	0xbd126ca2	-0.03574813
56	0x3d49594a	0.04915742
57	0xbd522b2c	-0.051310703
58	0xbc2d7d9e	-0.0105890315
59	0x3e242291	0.16028811
60	0xbe4051cb	-0.18781202
61	0x3e1d8866	0.15384063
62	0x3c09a465	0.008401011
63	0x3d90600f	0.07049572
64	0x3dfbe341	0.122992046
65	0x3d687207	0.05674937
66	0x3c8b296b	0.016987523
67	0x3dd1c688	0.10242945
68	0xbdb761d5	-0.08954207
69	0x3c7890da	0.015171254
70	0x3e19c872	0.1501787
71	0x3d886524	0.06659916
72	0x3bc6847b	0.0060582734
73	0xbce336a1	-0.02773601
74	0x3e14439c	0.14478916
75	0x3e42f486	0.19038591
76	0xbc5271f2	-0.0128445495
77	0xbe32da73	-0.17466144
78	0x3cdef579	0.02721666
79	0xbbe2b894	-0.006918976
80	0xbe039b7c	-0.12852281
81	0xbe1b10a2	-0.15143064
82	0x3dd8569e	0.10563396
83	0x3dd897f6	0.10575859
84	0x3e1618e1	0.14657928
85	0xbe1477ad	-0.14498778
86	0x3cb0a08d	0.021560932
87	0xbc8dea95	-0.017323771
88	0xbdaa1fe9	-0.08306868
89	0xbd7252ba	-0.059160925
90	0x3d657d2c	0.056027576
91	0x3b479b63	0.0030457608
92	0x3d8ba7a8	0.06819087
93	0x3c1ae2dc	0.009453502
94	0x3de80e14	0.1133081
95	0x3dafe332	0.08588256
96	0xbdd9465f	-0.10609125
97	0x3d20cbe1	0.039256934
98	0xbdadd10e	-0.0848714
99	0xbde250b2	-0.11050548
100	0x3d8f966f	0.07011115
101	0xbe3961f8	-0.18103778
102	0xbd2a659e	-0.041600816
103	0x3df16503	0.117868446
104	0x3d84d212	0.0648538
105	0x3d824114	0.06360069
106	0x3d102fe4	0.035201922
107	0x3deabe40	0.114620686
108	0x3dbe88fd	0.09303472
109	0xbd4504f8	-0.04810044
110	0x3e34e284	0.17664534
111	0xbcbd91ac	-0.02314075
112	0xbd210aac	-0.039316818
113	0x3e1c4381	0.15260126
114	0x3e0d9cce	0.13829347
115	0xbe174f08	-0.14776242
116	0x3d72b12e	0.059251003
117	0xbde4ad6e	-0.111658916
118	0xbb9f6e50	-0.004865445
119	0x3d26ed88	0.04075387
120	0xbd9062cc	-0.07050094
121	0x3e01d3d3	0.12678461
122	0xbc7796ce	-0.015111638
123	0x3dbe6afb	0.09297749
124	0xbdcf0e11	-0.10110105
125	0xbd95e518	-0.07319087
126	0x3c701b09	0.014654883
127	0x3e0c5bd7	0.13706909
