result/aug74_gan_40_model_11.pt (torch, 980414 bytes, 15 tensors)

weight f4 [128, 14]
000000 8f 73 3b 3c dd 25 ce 3c b5 5b 5f be c5 16 c3 3d
       0.011441126 0.025164539 -0.21812327 0.09525827
000010 e5 f1 67 bd b6 d1 38 be 3c c9 d6 3c d3 ed ba 3e
       -0.056627173 -0.18048748 0.026219003 0.3650957
000020 c6 39 6e 3e 16 e0 c6 bd c9 b9 07 3c 35 d1 14 3d
       0.23264226 -0.0971071 0.008284041 0.036332328
000030 9c 7b 28 3e e1 b6 07 3e 68 8e a8 bb 9b 6d 7c 3e
       0.16453403 0.13253357 -0.0051439293 0.24651186
000040 5a e8 3e be cc 74 75 3e f4 ca 04 be 6e f9 40 3e
       -0.18643323 0.23970336 -0.12968045 0.1884515
000050 91 db 8f be 74 36 14 3e cd f8 19 3e b8 4d 3c be
       -0.28097203 0.14473897 0.15036316 -0.18389022
000060 71 c7 0f be bc 3f e6 3e 0a 03 07 bc 19 10 0c 3e
       -0.14040925 0.449705 -0.008240471 0.13678016
000070 3f f9 0a 3d 2d 5d 08 be ad dc 75 3e 42 7d 38 3e
       0.033929106 -0.13316794 0.24009962 0.18016532
000080 56 92 7c be 81 68 64 3e d0 33 85 be 14 b5 45 3d
       -0.24665198 0.2230549 -0.26016092 0.048268393
000090 1d a8 1c be ce b3 94 bd 3c 05 29 3e 9d 88 a8 3e
       -0.15298505 -0.072608575 0.16505903 0.32916728
0000a0 56 c9 c5 bc 8f 9c a1 3e e9 06 58 bc d6 77 92 be
       -0.024143856 0.31564757 -0.013185241 -0.28607053
0000b0 5c fb 0a be 50 58 fe bd d0 d3 ac bd 94 92 24 3e
       -0.13572448 -0.12419188 -0.084388375 0.1607154
0000c0 56 db 30 3b 55 f3 19 bd 31 d5 b6 3e 63 58 0a bd
       0.0026986203 -0.037585575 0.35709527 -0.0337757
0000d0 8f 71 3d bd 36 60 9a 3e e1 28 70 3b 7c 3e 05 3f
       -0.046250876 0.30151528 0.003664546 0.5204847
0000e0 d7 d6 ad 3e 9b e3 3f 3d 92 ba 98 3d 75 be 5f 3e
       0.33952972 0.04684792 0.074574605 0.21849997
0000f0 a8 4b dd bd 77 08 9f be 20 44 82 be 0f 2f cb 3d
       -0.10805446 -0.31061146 -0.254426 0.09921085
000100 ee 74 96 3d da 39 8e 3d 2c 35 9c bd 81 4b e3 3e
       0.07346521 0.06944628 -0.07627329 0.44393542
000110 a5 1d 50 be 7c d8 03 bd d5 69 21 be 50 c7 5e be
       -0.20323808 -0.032188877 -0.15763028 -0.21755719
000120 02 dd 27 3e d5 72 23 bd fe 45 79 3e 6a c3 1b 3d
       0.16392902 -0.039904434 0.24343106 0.03802816
000130 c0 b8 b0 bd a1 53 bf bd 45 d9 44 bd a3 e4 86 be
       -0.08628988 -0.09342123 -0.048058767 -0.2634631
000140 c4 2b ed 3c 03 e1 cd be 05 7d 11 be 8b ef 1e be
       0.028951533 -0.40210733 -0.14207847 -0.15521066
000150 e9 d4 0f 3e b2 f0 76 bd 3d c6 c3 bd e8 52 85 3d
       0.14046063 -0.06028814 -0.09559295 0.06509954
000160 8a 30 40 be dc 11 47 3e d6 96 ef be 82 b6 28 3e
       -0.18768516 0.19440407 -0.46794766 0.16475871
000170 4f f3 e7 bd 42 20 5f be d9 1f eb 3c df 8d 8f 3d
       -0.11325704 -0.21789649 0.02870171 0.07009482
000180 3c a6 e4 bd 2d f5 a2 bd 7c 15 8b bd b1 88 07 bd
       -0.11164519 -0.0795692 -0.06791207 -0.033089343
000190 b3 92 a2 3d 3c 28 b8 bd 2c e8 ab be 04 19 60 be
       0.07938137 -0.08992049 -0.3357557 -0.21884543
0001a0 5c 8c 2f 3e fc 7d d0 3d 7c 66 7e 3e 7f d8 c3 3d
       0.17143387 0.101802796 0.24843782 0.09562778
0001b0 04 e0 e0 3e f3 d7 e4 bc d8 17 20 be 90 49 4a 3d
       0.4392091 -0.027935004 -0.15634096 0.04938656
0001c0 99 54 2f 3e d5 1c 95 3e f0 df 96 3d 47 ed 32 3e
       0.17122115 0.2912356 0.073669314 0.17473327
0001d0 bf 2b e8 bc ee 11 84 be b4 ef 7e 3d 66 0a 36 be
       -0.028341172 -0.2579493 0.062240317 -0.17777404
0001e0 35 27 98 bc ea 42 7c 3e c0 a8 03 3e f0 d1 02 3f
       -0.018573383 0.246349 0.12857342 0.5110159
0001f0 4c 34 87 bd c5 77 8f 3e b1 7a 45 3e b7 b7 4f be
       -0.06601772 0.28021064 0.19285084 -0.20284925
000200 54 bc 85 be b7 3d 90 3e 48 ee da 3d 88 0c eb bb
       -0.26120245 0.28172085 0.1068998 -0.0071731247
000210 e6 72 b0 bd d6 20 0b 3e 36 e4 31 bd 2a 15 d2 3d
       -0.08615665 0.13586745 -0.04343053 0.10257943
000220 74 cb 85 bc a0 f9 ec 3d f9 bd 91 3d 1a 5d 39 3e
       -0.016332366 0.1157105 0.071163125 0.18101922
000230 75 78 bf 3e f5 0c 78 bd b0 b6 80 3d dd 3a d6 bd
       0.3739659 -0.06055923 0.06284845 -0.10460446
000240 86 e1 2a be 31 f8 4e 3d 16 2a da bd 20 14 8f be
       -0.16687593 0.050529663 -0.106525585 -0.27945042
000250 cf fc 41 3c c6 19 2e bd f7 c2 0f 3d 48 f5 3d 3d
       0.011840059 -0.04250505 0.035098042 0.046376497
000260 aa 0c 12 3e 6e 7b c4 3d 80 62 10 3e 29 80 b8 3d
       0.14262643 0.09593855 0.14100075 0.090088196
000270 22 27 4b 3e 8b 16 4d 3e 59 fb 59 be a9 ad f7 bc
       0.19839147 0.2002813 -0.21287288 -0.030234175
000280 d9 57 25 3e 00 33 ce bc 2b f5 fb bd 27 5f 0d 3d
       0.16146792 -0.025170803 -0.123026215 0.034514572
000290 06 68 72 3e f1 c5 3c bb 66 94 d5 bd f7 32 83 be
       0.23672494 -0.0028804506 -0.104286954 -0.2562482
0002a0 b3 59 55 be 4e e5 3a 3d 59 74 31 3e 82 81 f1 3d
       -0.20834999 0.04562884 0.1732954 0.1179228
0002b0 fe ee 3c be 8f 15 c2 3c 0a df 16 3e 6d 77 29 3e
       -0.18450543 0.02369192 0.1473352 0.16549464
0002c0 60 a9 a2 be 33 d9 33 3e e9 e1 d1 3c d1 f7 8c 3d
       -0.31769848 0.17563324 0.025620418 0.06883205
0002d0 b5 ba 5a 3e 7b 62 b0 be 68 02 bc 3d c9 55 03 bd
       0.21360286 -0.34450135 0.091801465 -0.032064233
0002e0 3b 57 4b 3e fa 27 a6 bd ae 7a 8f 3e ca c5 b1 bd
       0.19857495 -0.08113094 0.28023285 -0.086803034
0002f0 d3 35 e4 bd bd 7d 18 3d 55 24 2a be ee 8e 4e be
       -0.11143079 0.03722929 -0.16615422 -0.20171711
000300 4f 42 f2 3d 36 56 09 3f d8 97 27 be e7 f4 61 3e
       0.118290536 0.5364717 -0.16366518 0.22066079
000310 99 12 b7 be c2 80 ef 3d c8 86 e8 bd 97 f8 7d 3e
       -0.35756376 0.116944805 -0.113538325 0.24801861
000320 83 f0 19 3e f3 75 7d be b7 96 ae 3c 51 65 ab bd
       0.15033154 -0.24752025 0.0213121 -0.08368934
000330 20 94 8c 3d 95 d8 a1 be d1 f8 40 bd 28 3b ee 3d
       0.0686419 -0.3161055 -0.04711229 0.11632377
000340 6a b8 5e be 65 4a a0 3d 21 44 35 be da 41 77 3d
       -0.21750036 0.0782669 -0.1770177 0.060365535
000350 2a bb 1d 3d 43 2a 61 3e df 44 8b bd c8 83 2e be
       0.03850857 0.21988778 -0.068002455 -0.17042458
000360 99 88 84 3e aa 96 ec bd 69 e6 4d 3e be 76 6c be
       0.25885466 -0.115521744 0.20107426 -0.23092172
000370 2c cb 1d 3d 4a d9 82 be 0e 07 37 be 63 bd a5 be
       0.038523838 -0.25556403 -0.17873785 -0.32371053
000380 b1 be 00 3d b5 e9 9a 3e 9e 1e 0a 3e 56 91 cf be
       0.031431857 0.3025643 0.13488242 -0.4054057
000390 3b 1c 2d be c6 dc 8d 3e 96 61 7e bc c5 e5 9a be
       -0.169053 0.277075 -0.015526196 -0.30253425
0003a0 26 9c 9b 3c b1 65 93 be 85 5b 8a bd c6 0e 87 be
       0.018995356 -0.28788522 -0.06755737 -0.2637846
0003b0 ef a7 9f bd 94 00 aa bd 4b a3 75 be eb f7 28 3d
       -0.07795703 -0.083008915 -0.23988073 0.041252058
0003c0 a3 e3 89 3e e9 c9 9c be 8d 52 93 3e 50 43 1d be
       0.26931486 -0.30622795 0.2877392 -0.15357709
0003d0 2e 73 bd be 9c d2 08 3e 68 e9 cf be 44 40 e4 bd
       -0.37001938 0.13361591 -0.40607762 -0.1114507
0003e0 50 5b 8c 3e 90 af 00 be 7a 71 d4 3d 0e 5c ce bb
       0.27413416 -0.12566972 0.103732064 -0.006297595
0003f0 5f de d8 be a6 84 da bd e1 0b 06 be 0a dd 9e 3d
       -0.42357156 -0.10669832 -0.13090469 0.077570036

bias f4 [128]
000000 af cc 4b be 3a 30 58 3e 54 c3 85 3e a2 4c c5 bd
       -0.199023 0.21112147 0.26125586 -0.09633757
000010 2b bd 40 3e 60 72 42 be bd 2a 06 bd 57 f5 36 bd
       0.18822162 -0.18988943 -0.032755602 -0.044667568
000020 8a dd d6 3d a0 7e bb 3d 0e 67 10 be 12 05 52 3e
       0.10491474 0.09155011 -0.14101812 0.20509747
000030 b7 ff 3a bd d1 25 0b 3d 99 d3 65 be a3 ec 18 bd
       -0.045654025 0.03397161 -0.22444 -0.03733505
000040 ff ee e9 bd b9 f0 9e 3b 7c 62 3e be b6 23 f5 3d
       -0.11422538 0.0048504737 -0.18592256 0.11969702
000050 73 56 70 3e bc 7b 79 3e 2f ce 1e 3e 1a 1e e3 3d
       0.23470478 0.24363607 0.1550834 0.11089726
000060 46 f8 35 3e a5 d8 1f 3e 22 5b 47 be 76 3e 89 be
       0.1777049 0.15609987 -0.19468358 -0.26805466
000070 87 6a 92 bd c9 99 66 be ad 02 83 3d a6 0c 39 bd
       -0.07149225 -0.22519602 0.06396995 -0.045178078
000080 0a 5f 4b be a7 ba 01 be 3f 41 08 3e 98 28 0c 3e
       -0.19860473 -0.12668858 0.1330614 0.1368736
000090 8c a4 cc 3d 31 ad c2 3c b0 92 cc bd 6d 9b 36 3e
       0.09992322 0.023764225 -0.09988916 0.17832728
0000a0 db ce 95 3e 3d ae 19 3e 6a c5 3c be da a7 47 be
       0.2925938 0.15007873 -0.18434682 -0.19497624
0000b0 11 06 f4 bd 34 c5 8f bd 1c 95 2c be b0 a5 53 3e
       -0.119152196 -0.070200354 -0.16853756 0.20668674
0000c0 4b 20 21 3d 07 b3 8a 3c 11 bc 54 bb c8 7f bb 3d
       0.039337438 0.01693107 -0.003246073 0.09155232
0000d0 bf 46 b1 3d 17 4d c3 3d 57 45 86 3e f0 46 8b 3d
       0.08656072 0.09536188 0.26224777 0.0680064
0000e0 a9 4c 51 3d a3 59 88 be f4 37 02 3e 3c fc 1a 3e
       0.0510985 -0.26630887 0.12716657 0.15135282
0000f0 4c 77 cd bc 51 6e 33 be 30 08 e5 3c da 8b 62 3d
       -0.0250813 -0.17522551 0.027958006 0.055309154
000100 f7 00 1b be 80 7a 46 3e cd 39 32 3d c6 3b 10 3e
       -0.15137087 0.19382668 0.043512154 0.14085302
000110 93 46 d1 bd 04 21 96 3e 78 c5 55 3e 0d 76 9f bd
       -0.10218539 0.29322064 0.2087611 -0.07786188
000120 88 08 7c 3e b9 3c cd bd af e1 88 bd 30 2a 6d be
       0.2461263 -0.100213476 -0.06683671 -0.23160625
000130 ea 2d 05 3e da 21 c7 3d b2 03 61 3e 1c e3 d7 bc
       0.13005796 0.097232535 0.21974066 -0.026353411
000140 90 15 36 3e 41 f6 f9 bd bd 45 24 3e 2b 3f 90 3e
       0.17781663 -0.12205172 0.16042228 0.28173193
000150 7b 91 e6 bd fe e5 43 3e 62 31 ed bd d2 74 24 bd
       -0.11258217 0.19130704 -0.11581685 -0.04015047
000160 b3 67 00 3e 7f 49 79 3d e6 0e 33 3e e8 11 c7 bd
       0.12539558 0.060861107 0.17486152 -0.09720212
000170 32 1e ff bd ac e4 e4 3d 8d d2 66 be a9 b6 4e bc
       -0.12456931 0.11176428 -0.22541256 -0.012616792
000180 66 e4 d6 3c 46 38 53 3d d2 cb cc bd 67 f9 36 be
       0.026231956 0.05156734 -0.09999813 -0.17868577
000190 4f 5b 85 3e 43 39 d6 38 5a 40 9d 3d 9a 28 95 bd
       0.26046225 0.00010214981 0.0767829 -0.07283135
0001a0 45 b5 2e 3e 22 8b 07 3e 9b 92 9a 3d 5a 4e 8d bd
       0.17061336 0.13236669 0.07547494 -0.0689971
0001b0 e6 58 e4 3d b1 7e f5 bd df 78 ba bd e9 20 0f 3e
       0.111497685 -0.11987055 -0.091050856 0.13977398
0001c0 28 ed 0b 3e 98 ce 1d 3e c8 c4 4d bd 86 21 47 3e
       0.13664687 0.1541084 -0.050236493 0.19446382
0001d0 ce 8f df bd 42 76 1e be fb 0f 6a be 05 8b 7f 3e
       -0.109161004 -0.154748 -0.22857659 0.24955375
0001e0 24 2f cd bd 46 27 16 3e ff 08 91 be 38 f3 be 3d
       -0.10018757 0.14663419 -0.28327176 0.09323734
0001f0 73 b3 54 be 65 73 99 3e 91 ca 1a 3e 01 ab 47 be
       -0.2077158 0.29970852 0.15116335 -0.19498827

weight f4 [512, 128]
000000 03 de 37 3d 21 03 05 bd 0a 75 8f 3d b6 c7 e8 3d
       0.04488946 -0.032473687 0.07004745 0.11366217
000010 d4 a0 10 3d c8 19 bd bb 36 83 71 bd 19 2d 80 bd
       0.035309628 -0.0057708956 -0.058963023 -0.06258602
000020 8d ca b0 3d 79 4b 50 3c c0 ab 6e 3d da 42 02 3d
       0.086323835 0.012713307 0.058269262 0.031802036
000030 d8 49 66 bd fc a8 a5 3d 02 6b 2b bc fb 76 f5 bc
       -0.056222767 0.08088872 -0.010462524 -0.02996396
000040 4c 0b bd 3d 2c cd 0a bd 4f 67 07 be ab cc 8c 3b
       0.0923067 -0.033887073 -0.13223003 0.0042968593
000050 82 54 24 3d 98 16 26 be 74 84 5e 3c 7c d3 e7 bc
       0.040119655 -0.16219556 0.013581384 -0.028299086
000060 58 69 8c bd 09 15 e9 3c 3d 69 93 bc 21 3c a8 bd
       -0.0685603 0.028452413 -0.017994517 -0.08214594
000070 06 75 13 3d e9 4e c1 bd 28 04 a5 3c 7e cf d2 3a
       0.036000274 -0.09438879 0.020143583 0.0016083566
000080 3f 17 82 bc e8 30 ef 3c d5 b8 b3 3d 3e 54 9d 3b
       -0.015880225 0.029198125 0.08775488 0.004801302
000090 22 96 1d bd 50 11 7e 3d 34 ec 0c 3d b4 4a 8c bc
       -0.038473256 0.06202823 0.03440495 -0.017125465
0000a0 46 29 30 be 8e 14 c3 3c 11 1d 0b bc 58 ca 44 bc
       -0.17203245 0.023813512 -0.008490817 -0.012011133
0000b0 a8 39 ce ba 60 40 13 bd 0d 1a 9a bd 17 01 cd 3d
       -0.0015733736 -0.035950065 -0.075245 0.100099735
0000c0 68 fb 76 3d 33 42 75 3d 9f 6f 09 3e 21 85 71 bd
       0.060298353 0.059877586 0.13421486 -0.058964852
0000d0 4b 2d 72 3d 40 a3 8f 3d 3e bb d6 bd 00 c7 90 3d
       0.059125226 0.07013559 -0.10484932 0.07069206
0000e0 06 01 ee bc de 1b 1e 3d 39 79 86 bd 78 a4 8c bd
       -0.029053222 0.038600795 -0.0656609 -0.068673074
0000f0 ab af a8 bd ee 5b fc bd 4a 13 92 bd f4 91 2a 3e
       -0.08236631 -0.12322222 -0.07132585 0.16657239
000100 55 65 ce bc ff 8f a7 3d cc 62 38 3d 88 b5 70 3d
       -0.025194803 0.08181762 0.045016095 0.05876687
000110 a5 ae 4b bd 8f 8a 08 3e 18 fb 63 bd a6 48 99 bd
       -0.0497271 0.13334106 -0.055659384 -0.0748456
000120 99 02 42 3c 70 c8 d5 3d 20 6e 65 3d 40 3c 0f bd
       0.01184144 0.10438621 0.056013227 -0.03496957
000130 35 44 0c bd ac 72 43 bd c9 d8 8d bc 07 9b 82 3d
       -0.034244735 -0.04771678 -0.017315285 0.06377225
000140 32 b4 a9 3c 9e 56 ba 3d 2d 5f 6a bd de 26 b5 bd
       0.020715807 0.09098552 -0.057219673 -0.08845304
000150 a6 33 6d bd d2 93 ed 3c 27 3b 9a bd 13 89 de 3c
       -0.057910584 0.02900115 -0.07530814 0.027164971
000160 07 65 cc 3c a8 6d 97 bd 6f d2 ae bd 82 19 83 3d
       0.024950517 -0.07393962 -0.08536231 0.064013496
000170 81 b4 f1 bd 58 2f 78 bd ab 97 18 bc 37 0e be 3c
       -0.118020065 -0.060592026 -0.009313504 0.023200138
000180 4e 69 6a bd 11 22 4f bd fa 75 94 bc 6b 69 41 3d
       -0.057229333 -0.050569598 -0.018122662 0.047219675
000190 df 06 ab 3d b7 1a 85 3d 4e 86 12 bb 11 70 dc bd
       0.0835092 0.06499236 -0.0022357884 -0.107635625
0001a0 d3 91 41 3c ec 25 56 bd ff c9 dc bd 03 9a 2b bc
       0.011814552 -0.05228226 -0.10780715 -0.010473731
0001b0 c4 5a 10 3c 93 e6 ae bd a7 dd 7b bd 72 91 47 bd
       0.008810703 -0.08540072 -0.06149068 -0.04872269
0001c0 88 72 bb 3d b2 8c a3 bb 39 ec ad bd 3f 31 dc 3d
       0.091527045 -0.0049911374 -0.084923215 0.107515804
0001d0 8a 9e c6 3b 83 2a 39 bd 48 eb 93 bd 92 b2 c8 bd
       0.00606138 -0.045206558 -0.07222611 -0.097996846
0001e0 c0 18 ec bd ae 9a 88 3b fb 3f 46 3b d1 8f 51 bd
       -0.11528158 0.00416883 0.0030250538 -0.051162545
0001f0 fa 4e 5a 3c 9d 35 62 bb b2 8b 71 bd c8 a1 1c 3c
       0.013324494 -0.003451682 -0.058971114 0.009560056
000200 c7 30 45 bd 20 18 c1 bd c7 cf b1 bd cf 25 8c bd
       -0.04814222 -0.094284296 -0.086822085 -0.06843149
000210 67 95 9b 3d 2c f6 91 3d f7 d0 db 3d 65 ea 86 bd
       0.075968556 0.07127032 0.10733216 -0.06587676
000220 af 7a a7 bd 72 6a 80 bd 30 e0 58 bd ff ae 2c bc
       -0.08177697 -0.06270303 -0.052948177 -0.010539769
000230 44 f3 d1 3c f8 c8 87 bd 53 48 2f 3d 0b c2 6b 3c
       0.025628693 -0.066301286 0.042793583 0.014389525
000240 2b 90 da 3d c8 70 9d 3d fb 40 d6 3d ee 01 16 3c
       0.10672029 0.07687527 0.10461613 0.0091557335
000250 ff 90 b8 3d ad c6 ed 3d 42 5c 6f bd ec 80 4c 3e
       0.09012031 0.1161016 -0.058437593 0.19971055
000260 e1 cd e1 3d 12 c5 af bd cf 94 0a 3e 05 cb 44 bd
       0.110255964 -0.0858251 0.13533328 -0.048045177
000270 7b cf bd bb 7e b3 74 3e 48 3c 44 bb 80 79 7d 3d
       -0.005792556 0.23896596 -0.0029943157 0.06188345
000280 5b 98 a7 3c ea 35 79 3d 42 aa b7 3d e1 07 78 3d
       0.020458391 0.060842432 0.08968021 0.06055439
000290 a7 0b 55 bd 82 93 4e 3d dd 87 10 3c c5 3f b3 3d
       -0.052013066 0.050433643 0.008821455 0.087523974
0002a0 cd 95 ca 3d c0 76 d7 3b 01 71 ae 3c 1f bb 99 3d
       0.098918535 0.0065754354 0.021294119 0.07506394
0002b0 12 60 6d bd eb ba 96 3c 62 cb c7 bc 45 32 cd 3b
       -0.057952948 0.018399676 -0.024388973 0.006262096
0002c0 3c fa 8d 3c 16 51 e3 bc 21 b2 73 3d 05 a5 8f bd
       0.017331235 -0.027748626 0.05949605 -0.07013897
0002d0 ba 7d 15 bd d8 9f 1f bd e5 0d bb 3c 80 78 92 ba
       -0.036496855 -0.0389708 0.022833774 -0.0011174828
0002e0 f6 74 38 bd 17 2d be 3d b0 a1 b3 3b 0a 50 06 bc
       -0.045033418 0.09285944 0.005481921 -0.008197794
0002f0 b2 da c6 3d e3 b6 a4 bb ac 2a 84 bc aa 69 b6 bc
       0.097096816 -0.0050266846 -0.016133629 -0.022267181
000300 5f 65 af 3d c8 25 ff bd 65 68 6d 3d 13 63 1c 3d
       0.08564257 -0.12458378 0.057960887 0.038180422
000310 93 40 3c 3e 69 53 a5 bc 56 0e c3 3d c1 41 e5 3d
       0.18384008 -0.020181375 0.09524219 0.11194182
000320 28 67 03 3e d6 e3 ab bc 21 f4 a0 bd 23 29 73 3d
       0.1283232 -0.020982664 -0.07859064 0.059365403
000330 4e d7 cf 3d 14 6a 3a 3d 04 de d0 3d b6 27 b9 bc
       0.10148488 0.04551132 0.10198596 -0.022601943
000340 b5 e4 c5 3c fc 2c 32 3e 32 b9 83 bd 36 f6 63 ba
       0.024156908 0.17399973 -0.064318076 -0.0008696051
000350 a6 a7 72 3d 9c ae 1c bd 54 35 00 3c 61 4d c6 3c
       0.059241913 -0.038252458 0.007825214 0.024206819
000360 2b 7f 48 3d c0 c2 5a bd 93 29 aa 3d 8a e9 a9 3d
       0.0489494 -0.053408384 0.08308711 0.08296497
000370 0e c9 af 3d ec 9a e2 3d d4 df 15 3d 08 3f 2f 3c
       0.0858327 0.11064705 0.036590412 0.01069618
000380 af 96 56 3d 89 50 d4 3b eb 82 03 3d e6 bf c9 3d
       0.052389797 0.006479327 0.032107275 0.09851055
000390 dc 16 77 bd 51 5d 46 3d 91 d7 c4 b8 97 a2 cf 3c
       -0.060324535 0.048428837 -9.386161e-05 0.025346084
0003a0 d7 8b 15 3e 01 4a 60 3c fe 77 ec bd 28 e0 07 3e
       0.14604126 0.013689519 -0.11546324 0.13269103
0003b0 2e 86 7e bd 1f f0 9e 3d 59 7d 09 3d 38 ea e6 3d
       -0.062139682 0.07760643 0.033566806 0.112751424
0003c0 99 9f 09 bd 17 c7 4e 3c 40 61 c5 3d 16 4c 90 3d
       -0.03359947 0.012620709 0.096376896 0.07045762
0003d0 d9 48 8f 3d 1d a4 92 3d 29 bc cf 3d 66 27 18 3d
       0.069963165 0.071602084 0.101433106 0.03714695
0003e0 31 08 fa 3b b7 74 70 bd 69 e8 b2 3c 22 12 bf 3b
       0.007630371 -0.058705058 0.021839337 0.005831019
0003f0 ea 56 f4 3d de 41 6c 3d 17 6b 9b bd 69 6a a4 bd
       0.1193064 0.057680003 -0.07588785 -0.080281086

bias f4 [512]
000000 62 42 49 bd a4 e1 09 bd 95 1d 0a bd ac 86 92 bd
       -0.049135573 -0.033662453 -0.033719618 -0.07154593
000010 66 d7 24 bd c2 f7 6e bd 68 9c 74 bc e0 de 08 3c
       -0.040244482 -0.05834175 -0.014929868 0.008353919
000020 52 1d a5 bd d7 14 6e bd 7f 4a ea bd e5 13 77 3d
       -0.08062233 -0.058125343 -0.1143999 0.060321707
000030 1d a0 df bd cc 87 58 bd 58 40 14 3d 31 0f 42 bd
       -0.10919211 -0.05286388 0.036194175 -0.04737777
000040 0a ad 10 3d 13 96 8a 3d 5f 40 8e bc bc 86 12 bc
       0.035321273 0.06766906 -0.017364679 -0.008943256
000050 33 cb a8 3d c6 35 87 bd 93 8f 7b bd 00 ec 0e bd
       0.08241882 -0.06602053 -0.06141622 -0.034893036
000060 28 53 05 3d e0 a2 87 3d 0c 07 27 bd 96 43 33 bd
       0.032550007 0.06622863 -0.040778205 -0.043765627
000070 60 4f cc 3c e0 7f 1e bd a8 db e5 3c 18 d9 8b 3c
       0.024940193 -0.03869617 0.028058842 0.017071292
000080 4a 25 8a 3c 2d 9f 54 3d df ca b6 3c d8 5b c0 bd
       0.016863484 0.051909614 0.022313533 -0.09392518
000090 1b b9 35 ba 09 0a cc 3d 4f 0d 14 bd cc bd c9 3d
       -0.0006932185 0.099628516 -0.036145505 0.09850654
0000a0 c6 94 e4 bd c6 15 a9 bc 75 50 2b bc e6 11 ca bd
       -0.11161189 -0.020640265 -0.010456194 -0.09866695
0000b0 2e 66 0d bd e3 20 f0 3a 93 5a eb 3c ed 0c cc 3d
       -0.034521274 0.0018320348 0.028729713 0.09963403
0000c0 7d b1 79 3d 75 84 2d 3c f6 65 06 bd b2 d1 51 3d
       0.06096028 0.010590662 -0.03281208 0.05122537
0000d0 05 ec e3 3d 10 82 1d bc 7c 01 3c bc 63 4d 90 bd
       0.111290015 -0.009613529 -0.011474963 -0.0704601
0000e0 85 ac 6e 3d 54 d2 26 3b 45 cd 0a bd aa 6b 9a 3d
       0.058269996 0.0025454955 -0.033887167 0.075400665
0000f0 51 5b 82 bd 2f 9a 44 3d 56 5a 83 bd fe d1 7f bd
       -0.063650735 0.047998603 -0.064137146 -0.062456124
000100 d3 7b 81 3d 80 5b ae bd df 4e ef bd 21 56 89 bd
       0.06322446 -0.08513546 -0.11684965 -0.06705881
000110 13 f8 d1 bc 7d 6f 5a 3d d7 41 8b bd 32 ee 3f bd
       -0.025630986 0.05332898 -0.06799667 -0.04685802
000120 9b b4 d5 3c ea db 05 bd 28 af 25 3d e4 95 81 3d
       0.026087096 -0.03268043 0.040450245 0.063274175
000130 8f c7 3e 3d 1f 1e e8 3c 21 1d 47 3d fc 42 95 bd
       0.046577033 0.028334675 0.048611764 -0.07288167
000140 b9 e8 73 3d 9d 11 1a bd b6 c2 6b 3d 75 f5 c8 bc
       0.059548113 -0.037614454 0.057558738 -0.024531106
000150 bb 63 70 bd 54 db 42 bc ff 5d 72 bd d6 45 9b bd
       -0.05868886 -0.011893112 -0.059171673 -0.075816795
000160 72 06 9b bd 0f 3b 3c bd 2c 08 5b 3d 84 97 03 bd
       -0.07569589 -0.04595476 0.05347459 -0.03212692
000170 dd 97 2e bd d3 d8 4f bd 44 d7 d1 3c 79 1f cc bd
       -0.042625297 -0.05074389 0.025615342 -0.099669404
000180 a1 66 c0 bd d5 61 69 bd 63 0b 93 bc 63 6d 93 bd
       -0.09394575 -0.056978066 -0.017949766 -0.07198598
000190 69 74 0a bc 22 cc 89 bd 1b 2a b8 bd f1 d0 f7 bc
       -0.008450606 -0.06728388 -0.08992406 -0.030250998
0001a0 e2 e4 39 3d 46 3d a8 bd b0 83 71 3d 4e c5 0f bd
       0.045384295 -0.08214812 0.058963478 -0.035100274
0001b0 1f a7 b2 bd 18 15 bb 3d 21 a2 4e bd 9d af 5d 3c
       -0.08723282 0.09134883 -0.050447587 0.013530639
0001c0 b3 72 37 3d b9 c7 7c bd 3e 44 d5 bd 1a 3c 91 3d
       0.04478712 -0.061713908 -0.10413407 0.070915416
0001d0 b3 39 84 bd 75 78 98 3c 8c 29 98 bd 22 0b 00 3b
       -0.06456318 0.018612126 -0.074297994 0.0019537886
0001e0 82 6d 84 bd d6 02 9a bd 62 ae 62 3d de b4 92 3d
       -0.064661995 -0.07520072 0.055342086 0.07163404
0001f0 72 6d 25 3c 52 0b 04 bd 0e d4 ec bd 10 7e 2b bb
       0.010096895 -0.03223736 -0.11563884 -0.0026167668
000200 29 b9 f9 3c 55 2f c7 bc 61 4c bf 3d d5 94 83 bd
       0.030483799 -0.024314562 0.0934074 -0.06424872
000210 04 5a 04 bd b4 a2 d5 bc eb 0a 51 bd 77 d2 3c 3d
       -0.032312408 -0.02607856 -0.051035803 0.046099152
000220 2c 1b 22 bc 5e 4d a3 bd 50 5b 5e 3d cc b4 64 3d
       -0.009894174 -0.07973741 0.0542863 0.055836484
000230 ff bd a6 3c b3 88 0b 3c 18 07 7e 3d 3e a5 ab bd
       0.02035427 0.008516478 0.062018484 -0.08381127
000240 ea 3b 0b bd c5 82 7e bd 8c 09 6c 3c d4 cc 13 bd
       -0.033992685 -0.06213643 0.014406573 -0.03608401
000250 27 fd b7 bd 4e 5d b6 3b 72 4b b5 3d 32 1a 26 bd
       -0.08983832 0.005565322 0.08852281 -0.040552326
000260 0a 64 21 3d b9 28 75 3d d6 cf 1e 3c 52 e6 18 3d
       0.039402045 0.05985329 0.009693107 0.037329026
000270 13 40 3c 3d 4b 92 87 3d 1d dd cc bd 64 90 a8 3c
       0.045959543 0.066197 -0.100031115 0.020576663
000280 f6 2e 8d bc 50 6e a2 bd 50 c5 57 bd 6f 79 62 3c
       -0.017234307 -0.07931197 -0.052678406 0.013822897
000290 8b 3e 2b bb bd 9c 6d bd 75 78 06 bd 69 27 b0 3d
       -0.0026129808 -0.058010805 -0.03282972 0.08601267
0002a0 87 61 71 bc db 64 2d bd c5 af e3 3c 01 77 b1 bd
       -0.014732725 -0.04233251 0.027793774 -0.08665276
0002b0 40 0b 95 bd 5b 80 98 ba 5b a7 8f 3d 04 69 b4 bd
       -0.072775364 -0.0011634933 0.070143424 -0.08809093
0002c0 2c 96 d2 bd 82 9e 37 3c fb 0f 7b bd 12 ce 55 bb
       -0.10282549 0.011207225 -0.061294537 -0.0032624048
0002d0 51 92 53 3a 9f 4e 15 bd 55 47 8b bc e9 01 0b bc
       0.0008070814 -0.036451932 -0.017001787 -0.008484342
0002e0 67 c5 3a 3d 59 f4 54 3d 9b e2 8d 3d 29 57 b8 3b
       0.045598414 0.05199084 0.06927987 0.0056256247
0002f0 75 04 fe bd e2 34 b6 3d 47 ac 6b 3d 0b ca 75 bc
       -0.12403194 0.08896805 0.057537343 -0.015001784
000300 bb 91 79 3d 91 e3 ac 3d 3d 0e 9e 3c d9 23 d5 bb
       0.060929995 0.08441842 0.019293899 -0.0065045175
000310 2c b0 8b bd 86 55 a4 bd 8d dc 5e bd 24 5c 54 3d
       -0.068207115 -0.08024125 -0.054409552 0.051845685
000320 ef bc 8d bd 68 00 12 bc 2e 2e ef 3d 51 dc 99 3b
       -0.06920802 -0.00891123 0.1167873 0.004695453
000330 e7 dd 27 3c 71 8a 82 3c 50 46 5e 3d 1c 11 c5 bd
       0.010245777 0.015935155 0.054266274 -0.09622404
000340 8d 26 87 3d 20 a6 4f bd f3 06 a7 bc 0e be f2 3c
       0.0659915 -0.05069554 -0.020389056 0.02963164
000350 ba 43 69 3d e5 d7 12 3c 09 88 83 3d db 35 91 3d
       0.056949355 0.008962606 0.06422431 0.0709035
000360 db 76 9f bd e2 50 50 3c 7f de 2e 3d d9 3c 80 3d
       -0.07786342 0.012714596 0.042692658 0.06261606
000370 1a d7 af 3d 2a eb 81 bd 41 66 8b 3d fd 93 70 3c
       0.08585949 -0.06343682 0.06806613 0.014683721
000380 50 7f db 3c bd 11 4d 3d b0 96 7b bc 83 87 47 bd
       0.026794106 0.050065745 -0.015355751 -0.04871322
000390 d7 7e 65 3d 22 ee 34 bd 13 f7 2e bd ce 82 48 3d
       0.056029167 -0.044172414 -0.042716097 0.04895287
0003a0 33 0a 87 bd 01 15 4d bd 45 b1 d0 3c 68 9a 6b bd
       -0.06593742 -0.05006886 0.025475154 -0.0575203
0003b0 29 07 30 bd 47 8d a2 3d 4c 3f 47 3d 7e 7b 97 bd
       -0.04297558 0.07937103 0.04864435 -0.07396601
0003c0 ef 9c 41 3d e5 35 9c bc 13 fd 33 3d f2 2c 1d 3c
       0.047268804 -0.019068668 0.043942522 0.009593235
0003d0 a6 68 aa bc fd 2d a1 3d 27 87 42 bd e1 42 1b 3d
       -0.020801853 0.078701 -0.047492173 0.037905578
0003e0 f1 0c b7 bd 6c 96 c3 bd eb 1c 89 bd 24 ad 12 3c
       -0.08938015 -0.09550175 -0.06694969 0.008952413
0003f0 63 74 3d bd f7 44 ab 3a e5 53 cf bd 04 bb 6b bc
       -0.046253573 0.0013066818 -0.101234235 -0.01438785

weight f4 [256, 512]
000000 e3 92 6d bd f9 10 b6 3c 63 b7 92 bc 05 80 6e bd
       -0.05800141 0.02222489 -0.017909711 -0.058227558
000010 1e 83 70 3d 6b cb 91 3c 50 3a aa 3d 8e cb 6d bd
       0.058718793 0.017797193 0.083119035 -0.058055453
000020 85 15 a3 3c bf d6 1c 3b c5 f3 88 bd 12 1a 51 3d
       0.019907722 0.002393171 -0.0668712 0.051050253
000030 f3 83 d5 3c 84 54 10 3d 78 99 9e bb d3 ce 96 bc
       0.026063895 0.03523685 -0.0048400722 -0.018409168
000040 85 50 b5 bc 23 bf bc 3c 87 d9 0a 3d 5a 0d 80 bd
       -0.022133121 0.02304036 0.033898856 -0.062525466
000050 f3 fd fa 3c 0f 93 2c 3c 67 8e 87 bc bd 97 44 3d
       0.03063867 0.010533108 -0.016547395 0.04799627
000060 6a 9c 52 bd 3e ce 95 3c 5c 3a c0 bb 34 a0 d9 bc
       -0.0514187 0.01828682 -0.005866332 -0.026565649
000070 64 28 69 3d 01 17 72 bd a3 5d 86 3c 6c 67 20 bd
       0.056923285 -0.05910397 0.016402071 -0.03916113
000080 15 9c 10 bd 7e 4c f3 3b cb 55 e2 ba ca 65 84 3c
       -0.0353051 0.00742489 -0.0017268 0.016161818
000090 17 df be bb d6 5a a8 bd a4 95 13 3d 46 f8 ae 3c
       -0.005824934 -0.082204506 0.03603138 0.02135862
0000a0 21 54 05 bb 19 ee 18 bd 8b 1c 01 3d 92 8f 04 3d
       -0.0020344334 -0.037336443 0.03152136 0.03236348
0000b0 de 8c 92 3c a3 63 bf bd 35 97 31 3d 86 06 02 bc
       0.017889436 -0.09345176 0.043357093 -0.007936126
0000c0 df 6a 3e 3d 6b b1 77 bc 7b 9b f5 3c bc 79 69 3c
       0.04648864 -0.015117983 0.029981365 0.014250215
0000d0 de 33 94 3d ba 7d ca bc eb 21 a9 3d 63 7f 9a 3c
       0.072364554 -0.024718154 0.082584225 0.01885957
0000e0 30 d0 af bd b2 cc 5b bd ab 7c b7 3d f4 0c 63 3b
       -0.085846305 -0.05366201 0.089593254 0.0034645172
0000f0 14 6d c2 3b 5d 53 db 3c 2b c3 4c bd 58 69 82 3c
       0.0059334133 0.02677315 -0.049990814 0.015919372
000100 ec a0 d0 bb f7 01 1d 3e 6a 29 fc bc a5 39 af ba
       -0.0063668396 0.15332781 -0.030781467 -0.001336862
000110 8f bc 93 3d b8 78 0d bd 49 c4 a8 3d b7 36 0b 3d
       0.07213699 -0.034538954 0.082405634 0.033987727
000120 aa 3f 37 bd a1 6c 00 bd 07 f7 87 bc d6 8e 70 3d
       -0.04473845 -0.031353597 -0.016597284 0.05872997
000130 ec 2d 40 bc bf 8a 12 3c 46 3a e7 bd 02 3b 94 3d
       -0.011729699 0.008944212 -0.11290412 0.07237817
000140 f3 5b eb 3d db 73 81 3c 08 3e 0f bd 33 38 14 bc
       0.11492147 0.015802315 -0.034971267 -0.009046602
000150 34 f0 b2 3d 28 a5 87 3c df bc 5a bc 80 40 bf 3d
       0.08737221 0.016558245 -0.013350694 0.09338474
000160 62 79 87 bd 67 19 10 bd bb f5 88 3c 3e 55 17 bd
       -0.06614949 -0.035180476 0.016718736 -0.036946528
000170 8f 84 39 3d fe 7e a4 3c 2f b8 a5 3c 2e 65 d6 3c
       0.045292433 0.020080086 0.020229427 0.026171293
000180 09 5b f8 3c 8b 8f 45 bc 22 76 e9 3c 21 dc 5a bb
       0.030316846 -0.012058149 0.028498713 -0.0033395367
000190 36 c0 4c bd 85 e4 37 bc 8c dd 99 3c b1 ce a0 bc
       -0.049987994 -0.011223917 0.0187824 -0.019629808
0001a0 ef ad 77 bc 9c 97 ea bd 19 e5 d2 bb 7d b5 00 3d
       -0.015117153 -0.114546984 -0.006436002 0.03142308
0001b0 9a 4c 87 bd 3f 5f f2 bc 9c fd 07 ba 47 10 6f bb
       -0.066064075 -0.029586433 -0.0005187632 -0.0036478208
0001c0 3d 52 fd bc 7a 1a 96 bd 6a 1c 78 bd 62 90 14 3d
       -0.030923003 -0.07329269 -0.060573973 0.036270507
0001d0 23 b0 2c 3e 75 7d 1c 3c 6f a1 17 bd 9f d6 bb 3c
       0.16864066 0.009551396 -0.03701919 0.022929488
0001e0 92 60 bc bc 20 d7 40 3d ba 2f 0c 3d 92 68 c2 3d
       -0.022995267 0.04708016 0.034225203 0.094926015
0001f0 f3 a5 0a 3a c3 2e a0 3c 5c 23 81 3d ed fe df bb
       0.00052890106 0.019553548 0.063055724 -0.0068358094
000200 f5 26 83 3d 45 5a a4 bc c8 53 ea bc 65 87 94 3c
       0.06403915 -0.020062575 -0.028604403 0.018130967
000210 53 ea d3 bd 5d a7 27 3c e8 75 af 3d 4a 09 ee bc
       -0.10347428 0.010232774 0.08567411 -0.029057164
000220 0a a6 09 3e b1 06 2c 3e 07 0e 88 3d 7a 37 5b 3d
       0.13442245 0.16799428 0.066433005 0.053519703
000230 a1 64 02 bd 06 98 25 3d be 00 48 ba 04 31 16 3e
       -0.03183425 0.040428184 -0.0007629505 0.14667135
000240 74 5b f1 3c a1 e3 ee bb eb c8 dc bc 62 68 49 3d
       0.029462554 -0.007290319 -0.026951274 0.049171813
000250 90 d4 77 3d aa 99 4a 3c 56 9b 5b 3d dd 28 ff 3c
       0.06050545 0.012365738 0.053614937 0.031147415
000260 76 77 41 3d 3d c9 e0 3b 7b 3d 2d bd 04 bf 9e bd
       0.047233067 0.006859927 -0.04229496 -0.07751277
000270 70 06 10 3d 0a 44 7a 3d 96 73 8a bc 08 df 7c 3d
       0.03516239 0.061100043 -0.016900819 0.061736137
000280 ff 92 3a 3b cd 5c ce bc 5c d4 cd bb 3a d6 de 3d
       0.0028468964 -0.025190735 -0.0062814187 0.10880704
000290 ea 97 6d bd 64 ee 1e 3d 03 b8 81 bd 48 a2 c7 bd
       -0.058006205 0.038801566 -0.063339256 -0.097477496
0002a0 f9 f5 ea bb 6c d0 83 3e ae ea 6f 3d 94 2a 22 3e
       -0.0071704355 0.2574495 0.058573417 0.15836555
0002b0 0c 54 9d 3c 42 38 1d 3c 74 c6 90 bd df 4f 82 3d
       0.019205116 0.009595932 -0.07069102 0.063628905
0002c0 1e 3f 10 3e 46 4b 2f 3d 6e 4a e2 3d d7 1d 0c be
       0.14086577 0.042796396 0.110493526 -0.13683258
0002d0 c4 95 51 bc 4c 31 6e 3d ed ce 05 3d 6f 1d ef bb
       -0.012792055 0.058152482 0.032668043 -0.00729721
0002e0 2c 79 a0 bd 6e 00 53 3d c2 bd b2 bd cd 0a ce 3c
       -0.07835612 0.05151408 -0.087276 0.025151635
0002f0 93 c2 1c 3d 58 be 25 bc 1f 0c 4c bd 6a 66 2b 3e
       0.038271498 -0.010116182 -0.049816247 0.16738287
000300 d3 c3 a6 3c aa f9 c0 bb 9a 58 eb 3b a7 32 07 bd
       0.020357048 -0.0058891373 0.007182193 -0.03300729
000310 45 d3 a4 3a 54 c3 55 3d 04 6d cc bc be ff b4 3c
       0.001257517 0.052188233 -0.024954326 0.022094604
000320 1a b1 98 bc 95 1b 7e bd d1 0d 62 3b ec 0b 4c bc
       -0.018639136 -0.062038023 0.0034493099 -0.012454014
000330 1e 61 87 bd b5 9f 0c 3e cd 41 e4 3c 0e 9f b8 bd
       -0.066103205 0.13732798 0.027863408 -0.09014712
000340 9e f0 34 bd a1 1a ab 3d 58 68 c9 3c 5a e0 22 3d
       -0.044174783 0.083546884 0.024585888 0.03976474
000350 a7 7d 2b bc 6e 7f 31 3d bd 4f 1e bd f7 37 82 bd
       -0.01046697 0.043334417 -0.038650263 -0.06358331
000360 7d ad 80 3c be 77 aa bd 59 75 03 bd f7 62 7e bd
       0.015707726 -0.0832362 -0.032094333 -0.0621061
000370 44 88 c1 3b 05 69 c4 bc 16 c7 30 bc 75 35 00 bd
       0.0059061367 -0.023975858 -0.010789653 -0.03130098
000380 9c 7c ed 3c 3b 38 20 bd 3e 46 a2 3d 14 f9 f8 bc
       0.028990082 -0.039116126 0.07923554 -0.030392207
000390 cd d4 02 bd c8 7f ad bd 36 b2 37 bd 76 1f 09 be
       -0.031941224 -0.08471638 -0.04484769 -0.13390908
0003a0 5a 5c 7a bc 26 4f bb bc 83 7e b7 bb f8 99 6a b9
       -0.015280807 -0.02286489 -0.005599798 -0.00022373337
0003b0 56 56 c9 3b 3f 8b 0b 3d 80 bf 1d bd 9a 28 15 bd
       0.0061443252 0.034068342 -0.038512707 -0.036415674
0003c0 d6 fa cf 3c 08 28 12 3d 2a ae 25 3d fa 92 14 3b
       0.025388163 0.035682708 0.0404493 0.0022670613
0003d0 7c 51 ac 3d 87 38 26 bc 26 04 8c 3c fe 11 a4 bd
       0.084139794 -0.010145313 0.017091822 -0.08011244
0003e0 1e 6e ae bc 4b 59 d2 bc 34 4f ec 3c 0a 75 65 3c
       -0.021292742 -0.025677344 0.02884636 0.014004955
0003f0 10 26 6f 3c 16 88 1f 3e ae d3 15 bd f8 a4 e0 3c
       0.014596477 0.15579256 -0.036578827 0.027422413

bias f4 [256]
000000 8b 45 ae bd 0a ee 28 3d 26 b6 3b be 38 dd 44 3d
       -0.08509358 0.041242637 -0.18331203 0.048062533
000010 84 8b c2 3c 9a db dc 3c 55 4c 8f 3c 92 d2 89 3c
       0.023748167 0.026960183 0.017492453 0.01682404
000020 fe 83 79 3c e9 90 10 bd 62 6f 51 3d 90 19 82 bc
       0.015229223 -0.035294447 0.051131614 -0.01588133
000030 58 5c ac bd 18 71 72 3d 32 fd c4 ba 22 b3 81 3c
       -0.08416051 0.059189886 -0.0015029071 0.015832487
000040 26 83 89 3d 34 6f 11 3b 26 ee d7 bd 61 a2 b0 bd
       0.06714468 0.0022191526 -0.1054347 -0.08624721
000050 7e 55 68 3d 25 b3 45 bc 47 b7 78 3d b3 b0 e5 3d
       0.056722157 -0.012066637 0.060721662 0.11215343
000060 1a 6e 8a 3b ee 52 4a bd ef e8 53 3d 50 94 df bd
       0.004224551 -0.049395494 0.051735815 -0.1091696
000070 17 c9 8d 3d 8e be 28 bc 30 ee 04 bd 79 f0 51 bd
       0.069231205 -0.010299338 -0.032453716 -0.051254723
000080 7e 1b 17 bd 07 b8 bc bb 71 4b 8f 3c bd 2d 22 3d
       -0.036891453 -0.0057592425 0.017492028 0.0395944
000090 e4 9b a3 3c 3f 8f 71 bd 05 cf 0f bc 37 c5 2a bd
       0.019971795 -0.0589745 -0.008777385 -0.041691985
0000a0 e7 c2 d2 3a 7b dd 3a 3d 7e be 8a bc ce 58 3a 3c
       0.0016079814 0.045621376 -0.016936537 0.011373712
0000b0 6c 01 a3 3c fe c0 9e bd b2 e8 7a bc 15 64 a4 bd
       0.019898139 -0.07751654 -0.015314268 -0.08026902
0000c0 b6 c1 07 3d 1f ac b0 3c 18 b2 9f 3a 93 a6 53 3c
       0.03314372 0.021566449 0.0012183813 0.012918132
0000d0 2d 7a f4 3c 57 e8 be bc 39 a4 aa 3d 43 a7 f9 bc
       0.029843414 -0.023304148 0.08332104 -0.030475264
0000e0 4e 00 0c bd 5d 7a 0a be 25 01 08 3e 86 1a 86 bd
       -0.034179978 -0.1352324 0.13281687 -0.06548028
0000f0 ab 99 26 3d d7 60 35 3d 58 01 a8 bc 42 ec db bd
       0.040673893 0.044281807 -0.020508453 -0.10738422
000100 16 e2 8d bd 74 2e 0a bd ca 3a d3 3b ba ef c8 bd
       -0.06927888 -0.033735707 0.006446217 -0.09811349
000110 8f aa f6 bd ba fe 02 3e 51 67 0f bd 00 3d a9 3c
       -0.1204425 0.12792483 -0.03501064 0.02065897
000120 c7 a7 3a bd 1a 4b a8 3c d3 dc 83 bd d6 8d c7 bc
       -0.04557016 0.020543624 -0.06438603 -0.024359625
000130 b2 17 28 be 37 58 9e bd da a1 be 3d bb 74 b4 bd
       -0.16415289 -0.077316694 0.093082145 -0.08811327
000140 78 2e a7 bd 5a 8e 3f bd 93 7c 4c bc b8 a5 03 bd
       -0.0816316 -0.046766616 -0.012480873 -0.032140464
000150 5e 02 dd 3d ff 8f a2 bd 08 f8 c8 bd f5 a6 ab 3c
       0.10791467 -0.07937621 -0.09812933 0.020953635
000160 4d 4c 48 3d 4a 7a 33 3d a9 f0 9f bb 45 4d 7d bd
       0.04890089 0.043817796 -0.004880984 -0.061841268
000170 81 ec fa 3a cf 3d 3d bc e8 47 21 bd 44 6e 8e 3d
       0.001914397 -0.011550381 -0.039375216 0.06954625
000180 46 3d 00 3c 17 2b e3 3b 20 3f 11 3d 6a 50 c4 bd
       0.007827109 0.006932627 0.03546059 -0.0958565
000190 dd 39 7b 3b 0f a7 ed bd fe 57 04 3d 51 a9 83 bd
       0.003833405 -0.116041295 0.03231048 -0.06428779
0001a0 59 3f 49 3b b7 33 8f 3d ec e0 b2 3c 20 c7 b8 3b
       0.0030707924 0.06992286 0.021835767 0.005638972
0001b0 f2 e7 ed bc 34 c5 7f 3d 83 f5 7b 3d 60 69 2b bd
       -0.029041264 0.062443927 0.061513435 -0.04184854
0001c0 21 0f ea bc c5 26 c6 3a 97 08 9c 3d 53 04 99 3d
       -0.028571667 0.0015117755 0.07618826 0.07471528
0001d0 cd 1a 54 bd 73 33 44 bd b5 0e d6 bd da 65 8c 3d
       -0.05178337 -0.04790063 -0.10452024 0.06855364
0001e0 f6 48 a2 bd 1c b9 24 3d 04 74 a8 3c 60 77 da 3c
       -0.079240724 0.040215597 0.020563133 0.02666825
0001f0 df ce aa bb fb 5f 2c 3d 5f 94 6c 3d 40 31 19 3c
       -0.0052126492 0.04208372 0.057758685 0.009350121
000200 bd 50 54 be 7a d0 1d 3d 54 6c 91 3d 97 06 f9 bc
       -0.20733924 0.038528897 0.0710074 -0.03039865
000210 c9 df 84 bd b0 65 a4 3c 75 6f ec 3c db 4e 43 bb
       -0.06487996 0.02006802 0.02886174 -0.002980164
000220 30 3e 1f 3d 6a 8a 8a 3c 18 08 b0 bd 5e 50 3c be
       0.038877666 0.016911704 -0.08595294 -0.18390033
000230 a2 34 36 3d 3c af dd bb b3 c5 ae bd 36 3d 8a 3d
       0.04448379 -0.0067652743 -0.08533802 0.06749956
000240 83 53 6b 3d 53 fa cc bd 47 4a 5c 3d fc 3e 94 3c
       0.05745269 -0.10008683 0.053781774 0.01809644
000250 d1 18 81 bd 18 1e 92 3d 90 b5 83 bc 80 57 9f 3c
       -0.063035615 0.07134646 -0.016077787 0.019450903
000260 78 c6 4c 3c 69 3c 95 3d 01 bd 97 bd 21 b1 11 be
       0.0124984905 0.07286913 -0.074090965 -0.14227726
000270 d2 34 3c 3d 5f 5d 97 3c 7b 46 35 bd 6b 36 a7 3d
       0.04594881 0.01847714 -0.04425667 0.08164676
000280 46 76 d9 3c 49 ae 04 bc 5c 39 a6 3c fa 6b 24 bc
       0.026545655 -0.008098193 0.020291023 -0.010035509
000290 20 11 c6 3d c2 ee e8 3d c9 86 81 3a 93 06 3e bd
       0.09671235 0.113736644 0.0009882088 -0.04639299
0002a0 6e 0d 35 be de be 29 3c 7d d0 9b 3c 53 25 55 bd
       -0.17680904 0.010360448 0.019020313 -0.05203755
0002b0 c5 61 da 3d 93 f1 2f bd 50 16 4c 3d 30 28 41 bd
       0.10663179 -0.042954993 0.049825966 -0.047157466
0002c0 61 02 e4 bc 0a 21 a9 bd bd ec 61 bd f6 91 9a bd
       -0.027833166 -0.08258255 -0.05515741 -0.07547371
0002d0 1f 65 4b bd d7 b8 91 3c 25 96 b7 3d ef 7c 04 be
       -0.049656983 0.017788334 0.08964185 -0.12938283
0002e0 43 c6 25 3d db 3a 94 3c 49 e4 12 bd a4 b0 08 bd
       0.04047228 0.01809447 -0.03586224 -0.033371583
0002f0 d1 f4 bb 3c 9d 0e e9 bd 2c 27 13 3d 14 64 40 3d
       0.022943886 -0.113797404 0.03592603 0.046970442
000300 29 88 26 3d d0 f9 b1 bd 4d 31 67 3c 2c a4 eb 3c
       0.040657196 -0.08690226 0.014110875 0.028764807
000310 27 68 1a 3d 4b f3 e3 3b d6 ab fd bc 43 44 d7 bd
       0.037696984 0.006956493 -0.030965727 -0.10511067
000320 3f 27 08 bd 1e 12 e4 3b dc 89 d0 3c 26 1e 1d be
       -0.033240553 0.0069601675 0.025456361 -0.15343532
000330 2d 20 da 3d fa 7d 6a bd 25 ee 2e 3d ac 0e 84 3c
       0.10650668 -0.057249047 0.04270758 0.016120277
000340 7d ff dd bd 19 ad f9 3c ae c8 ab 3b 26 34 c8 39
       -0.10839746 0.030478047 0.0052424287 0.00038185826
000350 59 06 7a 3d a5 0a 4a bd 76 7a 86 3c 3d fd 65 3c
       0.06104121 -0.049326558 0.016415816 0.0140374275
000360 cf e8 93 bd 55 ba 54 bd d4 29 96 bd fc dd dd 3c
       -0.07222139 -0.051935513 -0.07332197 0.02708339
000370 62 d4 44 3c 9a 9d 29 3d 90 39 26 3d 6e 7b 09 bc
       0.012013527 0.041410066 0.04058224 -0.008391244
000380 34 0a c9 bc 6d 18 1e bd 05 40 a8 3d 54 62 1d bd
       -0.024540998 -0.038597513 0.08215336 -0.03842385
000390 ff aa 8c bc 95 54 eb 3c b8 3a 57 3d f0 91 a3 3d
       -0.017171381 0.028726855 0.052546233 0.0798682
0003a0 d2 dd a0 3c b7 23 69 bd 70 4e 47 3d dd 6f c4 bc
       0.019637022 -0.056918826 0.04865879 -0.023979122
0003b0 31 23 3a 3d db e8 44 3c 20 df f2 3c 48 fb 89 3d
       0.045443717 0.012018408 0.02964741 0.06737381
0003c0 4c a5 4a 3d 6b bc b1 bc c5 20 30 3d 09 a1 c7 bd
       0.049474046 -0.02169629 0.043 -0.09747512
0003d0 d8 4b 84 3d f3 26 9b 3d 32 c1 b2 3d 06 d8 6f bc
       0.064597785 0.07575788 0.08728255 -0.014638906
0003e0 b0 c3 58 3d fa cf 09 bd 01 d0 e6 bd bc 3f 00 3d
       0.052920997 -0.033645608 -0.11270142 0.03131078
0003f0 dd 32 a8 3d 24 2c 68 3d 7e 75 fb 39 84 70 54 3d
       0.082128264 0.05668272 0.0004796199 0.051865116

weight f4 [128, 256]
000000 a8 da ef 3d 4f 45 45 bd c2 96 0f bc 37 52 3d bc
       0.11711627 -0.0481618 -0.008763971 -0.011555246
000010 78 76 22 bd b4 5c 80 3d cd 4d ca bc d3 cc 6b bd
       -0.03966376 0.06267682 -0.024695301 -0.057568382
000020 0d 5f d6 bd 2c dc 50 bd 84 8a 2c 3d e1 c4 4f 3c
       -0.10467348 -0.050991222 0.042124286 0.012681217
000030 78 c0 af bd a0 a4 2d 3d c4 1e 3f ba d3 84 6a bd
       -0.085816324 0.042393327 -0.0007290656 -0.057255577
000040 ab c5 d6 3c d9 00 18 3d 88 2f 2e bd 65 b5 f6 bc
       0.026217302 0.037110183 -0.042525798 -0.030115793
000050 1d 7d ee 3c 52 50 b7 bc f1 87 2b 3d c1 c3 bc bd
       0.029112393 -0.022377167 0.04187769 -0.092170246
000060 9d 07 a8 3b d6 a2 c7 3d 2b d5 c7 3c e4 2b a5 bd
       0.0051278607 0.09747855 0.024393639 -0.08065012
000070 48 b6 db 3d ef 6c 9b bc e1 36 9a 3d 1d 45 77 bd
       0.10728127 -0.018972842 0.075299986 -0.060368646
000080 6b 94 5b bc 0a 13 53 3b e5 29 91 bd 23 7e c1 bc
       -0.013402085 0.0032207393 -0.07088069 -0.023619717
000090 1e 1a b8 bd 0b 96 e8 bc bd 80 12 3d 06 a9 e6 3d
       -0.089893565 -0.028391859 0.035767306 0.112627074
0000a0 a5 a1 3e bd 50 ac 5a 3d bd ed e1 3c 63 b2 89 3d
       -0.046540875 0.053386986 0.027579183 0.06723478
0000b0 9a a1 39 3d 0c 9b a9 3d c0 ed 03 3e 88 7e d7 3d
       0.04532013 0.08281526 0.12883663 0.10522181
0000c0 8a 8e 18 bd c7 45 9e 3d 5b 0e 2e 3c 4d e2 35 bc
       -0.03724531 0.07728153 0.01062354 -0.011101318
0000d0 5a a2 67 bd 9b b2 e9 3d a9 dc 82 bd a8 08 05 3d
       -0.056551315 0.114110194 -0.06389744 0.03247896
0000e0 31 3a e9 bc 2b cb 12 3c 05 45 09 bc f7 b3 82 3d
       -0.02847013 0.008959572 -0.008378272 0.06381982
0000f0 55 3c fe 3d f4 6b 37 be dd f3 a4 3c 8b 74 50 bd
       0.12413851 -0.17912275 0.020135814 -0.050892394
000100 24 5e 4c bd 48 11 fa bc 66 1a e3 3d 5b 54 f5 bd
       -0.049894467 -0.030525818 0.110890195 -0.1197898
000110 75 ef 51 bd 40 f3 79 3d 3b 4b c4 3d 2d 8a bc 3d
       -0.051253755 0.061022997 0.095846616 0.092060424
000120 a7 c8 07 be ff 3a 06 3e 6a fa a1 3d 2c 28 b3 bd
       -0.13260137 0.13108443 0.07909091 -0.087478966
000130 b3 45 9e ba d2 19 37 3d dd 46 c8 bd 05 a7 12 bd
       -0.0012075215 0.04470236 -0.09779141 -0.035803813
000140 7c 56 52 3d d6 0c 92 bd 28 e2 c3 bd bf 25 e0 3d
       0.05135201 -0.071313545 -0.0956462 0.109446995
000150 9c d2 a6 3d e2 d0 9d bd 0e 54 ab bc 88 7b 76 3c
       0.08145639 -0.07705857 -0.020914104 0.015044101
000160 95 95 63 ba 97 03 5f bd 69 db 95 3c 41 02 85 bc
       -0.0008681652 -0.054446783 0.0182931 -0.016236426
000170 e9 f3 6d 3d 72 2c d0 3d 45 6a 6c bd 77 c5 ab bd
       0.05809394 0.10164727 -0.057718534 -0.08387273
000180 47 8c 18 3c 3b aa 17 be 8b df b8 bc 67 f1 4f 3c
       0.0093107885 -0.14811032 -0.022567531 0.012691832
000190 1b 63 87 bd 29 83 cc bd f7 69 33 bb 47 4c cd bc
       -0.066107 -0.09985954 -0.0027376392 -0.025060786
0001a0 46 46 90 bc 94 30 37 be ec a6 b7 3d 02 61 04 bd
       -0.017611634 -0.17889625 0.08967385 -0.032319076
0001b0 ed 57 c0 bc 21 67 b9 bc e3 ac aa 3c 25 fb ac bd
       -0.023479426 -0.022632184 0.020834392 -0.084463395
0001c0 11 dd b1 bd 8a b8 fa 3c 0a 64 27 bd 71 65 dc ba
       -0.08684743 0.030605573 -0.04086689 -0.00168149
0001d0 86 50 87 bd 0e 0e 9d bd 43 93 47 bd 0e ad 99 bd
       -0.066071555 -0.07668696 -0.048724424 -0.07503711
0001e0 f9 a7 2c bc 93 c9 d3 bb da 32 ca bd 04 41 45 bc
       -0.010538095 -0.0064632385 -0.098729804 -0.012039427
0001f0 b6 8a cc bd a8 b5 07 bd c1 54 c7 bd b3 55 78 bb
       -0.099873945 -0.033132225 -0.097329624 -0.0037892878
000200 a0 28 c6 bc b4 90 9f bd b6 9f ef bd 2a 49 72 3d
       -0.024189293 -0.07791272 -0.11700384 0.059151806
000210 d5 29 85 bb cc ce 19 bd 12 ed 24 3d a0 aa be 3d
       -0.0040638247 -0.037550732 0.04026515 0.09309888
000220 99 3c d2 bd f2 8e 26 3c 15 6b 54 bc de 17 93 3c
       -0.10265464 0.010165917 -0.0129649835 0.017955717
000230 0c 26 a2 bd a6 1f 07 bd bd a5 af 3c 95 07 37 3d
       -0.07917413 -0.032989167 0.021441335 0.044684965
000240 53 fb 88 3d ce 46 d1 3a 9a 96 d2 bd 76 0f eb 3b
       0.06688561 0.0015966536 -0.10282631 0.007173474
000250 3e f2 ab bc 67 52 93 bb 7c b6 8d bd 64 c0 d0 3d
       -0.020989534 -0.004495907 -0.06919572 0.101929456
000260 4a 1b 3f bd a2 98 c3 bc ac 18 35 bc ad 64 96 3c
       -0.046656884 -0.023876492 -0.0110532455 0.018358553
000270 91 16 f8 bc 3c 93 fe bb ac 8c f9 bb 5d 2c 12 3e
       -0.030284198 -0.0077690165 -0.0076156463 0.14274736
000280 e3 6c f2 bd 59 40 21 bc cf ee 0c bd a9 99 9a bd
       -0.11837175 -0.009842002 -0.034407433 -0.075488396
000290 1a ed 0b bc 5e 73 c8 bd 8d a2 e4 3d ed e3 14 bd
       -0.008540416 -0.097876295 0.111638166 -0.03635018
0002a0 16 e4 1b 3d 02 1b 23 3c 99 5d 72 bd b1 a1 ab 3c
       0.038059317 0.00995517 -0.059171293 0.020951124
0002b0 d2 60 3d bd e1 3a e5 3d 5c 2e 93 3d cc 8c 7e bd
       -0.046234913 0.11192871 0.07186577 -0.062145993
0002c0 0e c0 1f 3e 39 ef 9a bc b3 82 53 bd f7 35 9a 3d
       0.15600607 -0.018912898 -0.051638316 0.07529824
0002d0 92 14 40 3d 51 f2 73 bd bd 92 25 be 0d 2d c9 bd
       0.046894617 -0.059557263 -0.16169257 -0.09823046
0002e0 07 76 48 bd 31 a8 97 3d 4e 93 d6 bd 01 c2 97 bd
       -0.048940685 0.07405127 -0.10477315 -0.0741005
0002f0 ce 9f a7 3c 5b 7d c2 bd ab 81 1a 3d 3e e0 a3 bd
       0.020461943 -0.09496566 0.037721317 -0.08001755
000300 9a e1 07 bd 04 c3 a8 3d 0b b3 5b bd f7 01 00 bc
       -0.033174135 0.08240321 -0.053637546 -0.007812968
000310 87 63 f8 bc fa 55 90 bd 94 34 89 bd d6 ea e7 3b
       -0.030320896 -0.07047649 -0.066994816 0.007077555
000320 58 2a 8c bc e4 d9 93 3d c3 5e 00 bc 0b f1 85 bd
       -0.017110035 0.07219294 -0.007835093 -0.06540116
000330 ac 34 fd bb 5d 3d b7 bd 71 c4 61 3d 1d 30 d6 bc
       -0.0077272262 -0.08947251 0.05511898 -0.02614599
000340 6f 5a ff bc 94 84 e3 bc 3c f9 6a 3d d7 11 79 bd
       -0.031171052 -0.02777318 0.057366595 -0.06080803
000350 da 8b 2c bc d8 ac b7 bd 2a 93 28 3d f6 b5 b8 3d
       -0.01053139 -0.08968514 0.04115597 0.09019081
000360 79 da 84 bd 4c 90 55 3d 78 26 13 bd 56 f2 c4 bc
       -0.06486983 0.052139565 -0.03592536 -0.024041336
000370 b7 79 f3 3c 0a dd 83 3c ab 05 1e 3e c4 45 d6 3c
       0.029721124 0.01609661 0.1543185 0.026156314
000380 20 80 b3 3c db 32 20 bd 60 d4 2d be 79 86 e9 bd
       0.02191168 -0.039111 -0.16975546 -0.11402602
000390 be 8f f6 3d 76 68 20 bb ee 25 01 3d 84 0d bd 3b
       0.120391354 -0.0024476326 0.031530313 0.0057694335
0003a0 11 e0 5f 3d bb e1 ea bc 82 12 d3 bd 64 c2 25 3a
       0.054657046 -0.02867209 -0.103062645 0.0006323217
0003b0 3a 95 82 bd f4 19 b3 3d 9d 46 f5 bd 25 c7 a6 bd
       -0.06376119 0.087451845 -0.11976359 -0.081434526
0003c0 40 17 62 3d f8 4c 2c 3e 74 e5 cc bd 2a 19 dd bd
       0.055197954 0.16826236 -0.10004702 -0.10795815
0003d0 c6 af 94 bd 46 c4 0a bd 63 15 5a be d6 79 bd bc
       -0.072600886 -0.033878587 -0.21297221 -0.023129385
0003e0 69 78 09 3d 6d 56 bc 3d 41 fc 54 bc af 9f 48 3c
       0.033562098 0.09196172 -0.012999595 0.012245103
0003f0 2d 71 c4 bd 55 fe 11 3d 0b b6 03 3d 36 e9 2b bd
       -0.09591899 0.03564294 0.03215603 -0.041970454

bias f4 [128]
000000 40 81 c2 bd 95 20 82 bd 54 50 8b bd 11 b9 80 ba
       -0.09497309 -0.06353871 -0.06802431 -0.0009820779
000010 4b 23 3e bd 45 37 3c 3d dd d3 30 be b7 6c 9f 3d
       -0.046420377 0.045951147 -0.1726832 0.077844076
000020 47 13 a5 3c 19 9d 1d be 97 50 b0 bd cb c5 21 be
       0.020150794 -0.15391959 -0.08609121 -0.15798108
000030 ad 67 c9 bd 90 4b 42 be db e8 3e bd dd 6c 54 3d
       -0.09834228 -0.18974137 -0.046608787 0.051861633
000040 d9 70 e9 bc c4 35 85 bd 24 fd d8 3d ab 9c 06 3e
       -0.028496193 -0.065043956 0.10595158 0.13145702
000050 2b f9 47 3d 43 f3 32 3d 35 50 7e bd 7e 82 0b bd
       0.04882161 0.043689024 -0.06208821 -0.034059994
000060 33 c0 b1 bd 0f c3 71 bd e2 1c ae 3d 32 56 e7 bd
       -0.08679237 -0.059023913 0.08501603 -0.11295737
000070 c4 d6 ca 3d 40 94 b2 3d 8d 18 d4 bd f3 a4 39 3e
       0.099042445 0.08719683 -0.10356245 0.1812933
000080 02 bc 09 be 4a d0 c1 3d 9b fe 54 3e c7 e7 ee bd
       -0.13450626 0.09463556 0.2080025 -0.11665302
000090 f1 f1 f2 bd ef 97 a0 3d 55 60 04 3d d7 1c ff bc
       -0.11862553 0.07841479 0.032318432 -0.031141682
0000a0 7f bb d1 3d 67 a8 9f 3d e8 48 d7 3b be 46 2c 3d
       0.1024084 0.07795792 0.0065699704 0.042059653
0000b0 a1 77 2a be 20 4a 80 bd aa ee 64 3d 8c a8 9f bd
       -0.16647197 -0.06264138 0.05589167 -0.0779582
0000c0 d8 a8 a5 3d af b1 2d be 02 8a fb 3d 95 a4 39 be
       0.08088845 -0.16962312 0.12282182 -0.1812919
0000d0 25 f1 17 3e 0f 8d 06 3e 64 ca e8 bd 05 aa a6 3d
       0.14838083 0.13139747 -0.11366728 0.081378974
0000e0 31 d7 5c bd e1 1f 31 3e 45 bf e7 bd 1b d7 d9 3d
       -0.05391616 0.17297317 -0.11315779 0.10636731
0000f0 05 e3 3d bd 49 af c6 bd c2 24 b3 3d f2 35 96 3d
       -0.04635908 -0.09701402 0.08747245 0.07334508
000100 75 3d e5 bc 9e 5c 33 3e 61 d4 ff bd e3 99 7c bc
       -0.027983407 0.175158 -0.1249168 -0.015417549
000110 cc 1e ff 3d a3 2e 94 be 84 0c d3 3d 0e e0 27 3d
       0.12457046 -0.2894183 0.103051215 0.04098516
000120 5c 66 be 3d 65 5e 02 3d a7 43 b0 bd 39 54 8a bb
       0.09296867 0.031828303 -0.08606654 -0.004221466
000130 ef 93 c6 bc 30 34 4b bd b6 c5 68 3d 5c 5d 2a 3e
       -0.024240462 -0.049610317 0.056829177 0.16637176
000140 63 29 07 be d5 e9 a6 bd d7 f9 7c 3d 4d 12 d7 bd
       -0.13199382 -0.08150069 0.061761703 -0.105015375
000150 ae 51 34 3d b0 c5 8c bd e4 78 02 3e ee 2c 83 3d
       0.04402321 -0.068736434 0.12741429 0.06405054
000160 1d cd 10 3d c6 62 00 be 2b a8 ee bc 86 fd b2 3c
       0.03535186 -0.12537679 -0.029132923 0.021849405
000170 b2 1e b8 bd b9 a3 93 bd ce 5c c5 3d 72 bf 72 3d
       -0.0899023 -0.07208962 0.09636842 0.059264608
000180 dc 20 0a 3e 3c 74 d2 3c 34 6e 05 be 65 e4 b0 3d
       0.13489097 0.02569019 -0.1303032 0.08637313
000190 93 a5 fe bd 3f b2 87 3c 4a 0b e8 3a 2b 77 0d 3e
       -0.124339245 0.016564487 0.001770356 0.1381499
0001a0 3b 7b 24 3d 6c d3 34 bd fc 66 1a 3e 2a 84 ae 3d
       0.040156584 -0.04414694 0.15078348 0.08521302
0001b0 ad 9f c0 bc 8d 90 b1 3c 4c c8 96 3c f1 a9 1f be
       -0.02351364 0.021675372 0.018406056 -0.15592171
0001c0 40 78 e8 3d 4e 08 07 be 97 05 df bd 4d f7 54 3e
       0.11351061 -0.13186762 -0.10889738 0.20797463
0001d0 de 8f 0f bd 12 57 f4 3d 02 b4 20 3e e4 da b4 3c
       -0.03504931 0.1193067 0.15693668 0.022077031
0001e0 41 2e ef 3d ac 27 24 be 2e 5b 04 be f2 5c e4 bd
       0.11678744 -0.16030759 -0.12925407 -0.111505404
0001f0 a5 5c d6 3c 5e 22 dd 3d a7 0b 2f be 05 c3 0f 3e
       0.026167223 0.10797571 -0.17094289 0.14039238
