result/aug74thenVAE40_15.pt (torch, 979822 bytes, 15 tensors)

weight f4 [128, 13]
-0.02089271 -0.17529824 0.039817065 0.20955501 0.012356108 -0.023183133 -0.12108083 -0.02662183
-0.1639498 -0.06396195 -0.08419583 0.32167944 0.19269872 -0.15609854 -0.18092756 0.23437583
0.05572183 -0.074773386 0.1396763 -0.1296099 0.23305903 -0.18045604 0.0649283 -0.26927894
-0.29340166 -0.27758065 -0.25702298 0.21478523 -0.05736261 0.17745283 0.04165498 -0.17365694
-0.24228664 0.16575556 0.029606545 -0.20512863 0.31193817 -0.041850436 -0.23456039 -0.018912435
-0.008114977 0.07779574 -0.3799769 0.06598522 0.16199799 -0.05878326 0.25828174 0.045084257
0.010642207 -0.12556122 -0.13467376 -0.05307321 0.19113472 -0.10750592 0.1393972 -0.19433528
0.20682311 -0.15071568 0.21700758 -0.12045549 0.12586826 -0.18970396 0.051035978 -0.10500593
-0.15944876 -0.10501516 0.034927383 0.16173618 0.2316171 -0.006506471 0.003822208 -0.28788242
0.24261302 0.00018056612 -0.04565212 -0.25424254 -0.06948917 -0.23211046 -0.15984485 -0.20851009
0.2012127 -0.22005554 -0.1263512 -0.007937435 -0.10139957 -0.27070558 -0.120470196 0.07144477
-0.02117156 0.40138936 -0.22350465 0.055874437 -0.2900646 -0.10155288 -0.028254047 -0.08114541
-0.027438788 0.05390917 -0.2350103 -0.06706846 -0.12632734 -0.46472207 -0.15805756 -0.01864374
-0.1000745 0.24177459 0.15654211 0.15485264 -0.12225059 -0.15673721 -0.12746423 -0.3627585
-0.26502582 0.2652784 -0.41367492 -0.122545615 -0.004684323 0.023218095 0.16659819 0.2132563
-0.18567352 -0.03540294 -0.21839957 0.14788546 -0.040535036 -0.08260116 0.10889379 0.21278267
-0.21511437 0.25183496 0.2595937 0.05373834 0.07797438 -0.10383028 -0.16845523 -0.08108853
0.23017009 -0.12736139 -0.08279242 -0.095495984 0.0052818824 -0.28837818 -0.030572683 -0.20562264
0.17283532 -0.005076949 -0.068409696 0.16914919 0.3097513 0.052487116 0.05493778 0.08263185
0.23774374 0.09199308 0.055774316 -0.26149058 -0.003890574 0.0449073 -0.027987674 -0.03387359
0.18493463 0.03291094 0.29348463 0.10744872 -0.1314974 -0.12210687 -0.21466035 0.042800818
-0.17412563 0.26617 -0.0931213 0.20987585 -0.19072752 -0.100999266 -0.14233306 0.2524195
0.041263137 0.17374219 -0.1329481 -0.3523348 -0.06214557 -0.33199996 -0.0062577426 0.28398845
0.12317705 -0.013702785 -0.059078038 0.21472758 0.26471314 -0.114971176 -0.106060825 -0.2219707
0.22128059 -0.17264698 0.26130623 -0.21541561 -0.19703688 0.18531337 0.21396942 -0.11124947
-0.16908403 -0.09579254 -0.0059582866 0.010262648 -0.051857624 0.11527076 0.01898346 -0.014251447
-0.052066028 -0.06570921 0.24485375 -0.2735231 0.0067555727 0.069652066 0.04861339 -0.19578831
0.0005451759 -0.076242104 0.06589573 -0.33693203 0.32875744 -0.15309429 0.098444834 0.082693525
0.2828821 -0.1579808 -0.17535567 0.03650395 0.08477084 0.24721883 -0.0051373225 0.42408344
-0.2402639 0.2673444 0.16725647 0.03701076 -0.16709976 -0.1022337 0.12268847 0.2600637
-0.08707801 0.10856761 0.051965177 0.22488631 -0.22195877 0.039715134 -0.4514055 -0.16232523
0.12491833 0.16943024 -0.016407436 -0.049619067 0.10581917 -0.08320469 0.20760976 0.2080418
00000000: 3027 abbc 6281 33be 3817 233d 9795 563e
00000010: 4671 4a3c 8eea bdbc 3af9 f7bd 0616 dabc
00000020: 75e2 27be 7cfe 82bd dd6e acbd 2bb3 a43e
00000030: d052 453e 4cd8 1fbe 1345 39be 3800 703e
00000040: 933c 643d ca22 99bd 4e07 0f3e 75b8 04be
00000050: 07a7 6e3e 78c9 38be 21f9 843d eede 89be
00000060: be38 96be 0d1f 8ebe 8498 83be a9f0 5b3e
00000070: 0ef5 6abd 32b6 353e 6a9e 2a3d 20d3 31be
00000080: fd19 78be d3bb 293e 6d89 f23c 3d0d 52be
00000090: 5cb6 9f3e 5d6b 2bbd 9930 70be 40ee 9abc
000000a0: aef4 04bc 5f53 9f3d 558c c2be 4223 873d
000000b0: cde2 253e b7c6 70bd 813d 843e 45aa 383d
000000c0: a75c 2e3c 1f93 00be ebe7 09be 4b63 59bd
000000d0: d2b8 433e 102c dcbd 24be 0e3e d4ff 46be
000000e0: 70c9 533e 3655 1abe 3c37 5e3e 5eb1 f6bd
000000f0: 9ce3 003e c141 42be 1a0b 513d 590d d7bd
00000100: 8946 23be 3012 d7bd 0410 0f3d 2b9e 253e
00000110: 082d 6d3e 3c34 d5bb 027e 7a3b 5365 93be
00000120: 8c6f 783e 5956 3d39 b8fd 3abd 142c 82be
00000130: 5750 8ebd 5dae 6dbe 5eae 23be ab83 55be
00000140: b40a 4e3e 3d56 61be 3562 01be 040c 02bc
00000150: 94aa cfbd ec99 8abe 14b9 f6bd a351 923d
00000160: fb6f adbc e882 cd3e 67de 64be 98dc 643d
00000170: 5983 94be f5fa cfbd 0875 e7bc 912f a6bd
00000180: 4fc7 e0bc ddcf 5c3d 8aa6 70be 305b 89bd
00000190: f45b 01be 0df0 edbe d7d9 21be c2ba 98bc
000001a0: dcf3 ccbd c293 773e 934c 203e b191 1e3e
000001b0: 845e fabd b87f 20be fc85 02be 7bbb b9be
000001c0: 77b1 87be 92d2 873e 33cd d3be 32f9 fabd
000001d0: f37e 99bb e033 be3c b798 2a3e dc5f 5a3e
000001e0: 3321 3ebe ac02 11bd 23a4 5fbe 496f 173e
000001f0: 1108 26bd cc2a a9bd b503 df3d b3e3 593e
00000200: f146 5cbe 83f0 803e 77e9 843e bc1c 5c3d
00000210: 08b1 9f3d f8a4 d4bd 877f 2cbe be11 a6bd
00000220: b5b1 6b3e 066b 02be 138f a9bd 6693 c3bd
00000230: a413 ad3b 4ea6 93be 9073 fabc be8e 52be
00000240: befb 303e 895c a6bb 621a 8cbd 7235 2d3e
00000250: b997 9e3e bbfc 563d 7006 613d e33a a93d
00000260: 1873 733e de66 bc3d 9c73 643d 18e2 85be
00000270: 00f9 7ebb b8f0 373d 6846 e5bc 09bf 0abd
00000280: 815f 3d3e 9fcd 063d 9e43 963e 130e dc3d
00000290: 41a7 06be 2b13 fabd eccf 5bbe e94f 2f3d
000002a0: fd4d 32be 6f47 883e 61b6 bebd b2e9 563e
000002b0: 134e 43be b4d8 cebd c2bf 11be 213d 813e
000002c0: 8903 293d 79e9 313e 8c23 08be 3a65 b4be
000002d0: 5a8c 7ebd e6fb a9be c00d cdbb ef66 913e
000002e0: 4044 fc3d a581 60bc d0fb 71bd 8ce1 5b3e
000002f0: 7b88 873e 0276 ebbd 6b36 d9bd 4a4c 63be
00000300: 6197 623e 5fca 30be eec9 853e e995 5cbe
00000310: 09c4 49be cac2 3d3e cd1a 5b3e c3d6 e3bd
00000320: 5d24 2dbe e12e c4bd bb3d c3bb aa24 283c
00000330: a968 54bd 1413 ec3d 3383 9b3c e77e 69bc
00000340: 3043 55bd 8d92 86bd f1ba 7a3e 380b 8cbe
00000350: da5d dd3b bea5 8e3d d61e 473d bb7c 48be
00000360: 23ea 0e3a d224 9cbd 57f4 863d 5b82 acbe
00000370: e552 a83e c0c4 1cbe 729d c93d 395b a93d
00000380: ecd5 903e b8c5 21be 7090 33be 2a85 153d
00000390: 569c ad3d ef26 7d3e fc56 a8bb 7721 d93e
000003a0: bd07 76be 5de1 883e 4845 2b3e 9898 173d
000003b0: 331c 2bbe e75f d1bd 1844 fb3d 1227 853e
000003c0: f555 b2bd b258 de3d 70d9 543d 9948 663e
000003d0: 2949 63be 56ac 223d 9f1e e7be 9638 26be
000003e0: 2ed5 ff3d 1f7f 2d3e e368 86bc 5d3d 4bbd
000003f0: b9b7 d83d 3867 aabd a797 543e e908 553e

bias f4 [128]
-0.08081123 0.18635856 0.023198528 0.06841193 0.2518378 0.06293853 -0.18022415 0.17616811
-0.24679871 0.16197987 0.13303278 -0.22614329 0.27618214 -0.09745872 -0.073073044 -0.19712384
0.19986226 0.105927795 -0.15441623 0.18214206 0.16836217 0.22773695 -0.269165 -0.13163023
-0.088490896 -0.10002431 0.06530226 0.026501952 -0.040465925 0.029947823 0.20117222 -0.17319015
0.25844765 0.23121718 -0.19272889 0.1932833 0.23064858 0.066341326 -0.040922128 0.0953449
-0.055200826 0.061089575 0.13925494 0.101664804 -0.023312606 -0.054409944 -0.020686543 0.06671207
0.20802708 0.1863778 0.003234698 -0.21729206 0.21122658 -0.21104454 0.19749828 0.16503097
-0.21798484 -0.1434981 -0.15392485 -0.1319353 -0.14019588 0.17156883 -0.034689777 0.17095271
-0.24157527 -0.18159725 -0.29504654 -0.00792934 0.12903823 -0.02053286 -0.05375886 0.079241954
0.18497497 0.08198348 0.1023551 0.10265728 0.032006204 -0.0028799295 -0.21791196 -0.032484777
0.049161993 -0.022478966 -0.08068221 0.2198352 0.13589728 0.18963285 0.04920525 -0.30672047
-0.036597487 -0.17544919 0.26583356 -0.26604256 0.08675528 0.24618982 0.23426542 0.23162235
-0.21473776 -0.17096393 -0.16140656 0.17770706 0.17099786 0.23296894 -0.024792003 0.14002556
0.15742518 0.021945441 -0.23359992 0.24502824 0.015008392 -0.27228555 -0.01551568 -0.17298655
0.07237737 0.02867712 -0.19435461 -0.07264256 -0.24823299 0.23821181 -0.20747952 0.20234977
0.10148638 0.22423065 -0.15370272 -0.2727878 -0.19091496 -0.15889508 0.07744464 -0.1285317
00000000: 5c80 a5bd c7d4 3e3e d70a be3c 8e1b 8c3d
00000010: e2f0 803e ebe5 803d ae8c 38be 6a65 343e
00000020: cdb8 7cbe 0dde 253e bf39 083e 1b92 67be
00000030: bf67 8d3e 7098 c7bd 52a7 95bd d5da 49be
00000040: b1a8 4c3e acf0 d83d 4a1f 1ebe 7383 3a3e
00000050: 2267 2c3e e033 693e ffcf 89be 13ca 06be
00000060: b73a b5bd 8cd9 ccbd 31bd 853d 9f1a d93c
00000070: 99bf 25bd 2355 f53c 1700 4e3e c258 31be
00000080: 4053 843e 32c4 6c3e b95a 45be 0fec 453e
00000090: 242f 6c3e f6dd 873d f69d 27bd 3044 c33d
000000a0: 431a 62bd 1039 7a3d d998 0e3e a335 d03d
000000b0: 14fa bebc f6dc 5ebd d376 a9bc 56a0 883d
000000c0: 0d05 553e d2d9 3e3e 3afd 533b cf81 5ebe
000000d0: c84b 583e 0f1c 58be fd3c 4a3e e1fd 283e
000000e0: 6b37 5fbe 2af1 12be 7a9e 1dbe 0c1a 07be
000000f0: 828f 0fbe bdaf 2f3e de16 0ebd 3a0e 2f3e
00000100: 825f 77be a1f4 39be 5710 97be 10ea 01bc
00000110: 9922 043e 8734 a8bc 4032 5cbd 9b49 a23d
00000120: 146a 3d3e f4e6 a73d 8d9f d13d fb3d d23d
00000130: f018 033d 33bd 3cbb 5024 5fbe c20e 05bd
00000140: 165e 493d cf25 b8bc b73c a5bd 7b1c 613e
00000150: a828 0b3e 1d2f 423e 728b 493d 770a 9dbe
00000160: 3fe7 15bd f4a8 33be 561b 883e bb36 88be
00000170: c1ac b13d 2f19 7c3e 46e3 6f3e 692e 6d3e
00000180: 37e4 5bbe 2b11 2fbe c347 25be d7f8 353e
00000190: 101a 2f3e 698f 6e3e 9918 cbbc dc62 0f3e
000001a0: 1134 213e edc6 b33c d134 6fbe afe8 7a3e
000001b0: c2e5 753c 0369 8bbe 7b35 7ebc 6323 31be
000001c0: 963a 943d 48ec ea3c e504 47be 9fc5 94bd
000001d0: ca30 7ebe cced 733e 8375 54be c734 4f3e
000001e0: 17d8 cf3d b89c 653e 3f64 1dbe d8aa 8bbe
000001f0: 367f 43be 64b5 22be 4c9b 9e3d d09d 03be

weight f4 [512, 128]
0.042821065 0.015824998 -0.060297143 -0.069683515 0.060280576 -0.118283436 -0.061935503 0.05177113
0.11630775 -0.044395115 0.05637382 -0.06087461 -0.068459935 0.04080865 0.04797424 0.00522589
0.06931573 -0.11661542 0.038176358 -0.020248676 -0.063833326 0.061302457 -0.02136554 0.019189116
0.07577634 0.022889152 -0.054522637 0.025258724 -0.007887052 0.07477458 -0.08963652 -0.03369882
-0.03155885 -0.07675167 0.00095849537 -0.058988992 0.06064813 -0.10339361 0.08394896 -0.10396079
-0.06052616 0.08119501 -0.012378872 0.031130703 0.083186395 -0.07082207 0.010603029 0.10328822
0.024599932 0.108234815 -0.019624071 0.09669523 0.0913124 -0.093471155 0.0050327447 -0.051720753
0.08258833 0.010154268 -0.02995265 0.07017 -0.06348336 -0.016635358 -0.076293126 0.11637667
-0.00763066 0.03719543 0.02097074 -0.042564508 0.0865403 -0.15947095 -0.13661903 -0.010634364
-0.0487327 -0.13405392 -0.0067822235 0.08800472 -0.04682953 -0.05153152 0.0018853983 -0.013093812
-0.08484045 -0.06904576 -0.09157314 -0.008382285 -0.02368993 0.06677202 -0.101652846 -0.10413157
-0.012822534 0.038406108 0.05877545 0.08827921 0.00039733824 -0.003186268 -0.15173683 -0.14521152
-0.079594724 -0.15180571 0.05805608 0.066010065 -0.07672343 0.02910129 -0.05364887 0.16660482
0.024125025 0.022723068 -0.026153276 0.0709609 -0.0040990994 -0.08982182 -0.091746755 0.120315894
-0.02302267 -0.16134296 -0.063248776 -0.11028373 0.0443164 0.13049488 -0.0746358 -0.044964515
0.07660137 0.07278899 0.03436234 0.0055359136 0.08494836 0.0007469561 -0.039376132 0.04464182
-0.1618952 0.105108686 0.020881157 -0.081362486 0.051751774 0.07022343 -0.070511475 -0.008698687
-0.015036153 0.06750282 0.039372236 0.033271108 0.021337006 0.1595226 0.066643395 0.057985425
-0.010996573 -0.01306728 -0.081852205 0.00072700717 -0.07566823 -0.026347445 -0.05613517 -0.008180955
-0.012564702 -0.10193762 0.04721075 -0.07094241 -0.010295037 0.08151475 0.18762194 0.03339235
-0.0016506349 0.0407439 0.012921482 -0.015396912 0.04973 0.020304462 -0.030136103 -0.032114837
0.11189996 0.043738406 -0.04613031 -0.053636227 0.03431686 -0.03910865 -0.12871824 0.099123284
-0.05358794 0.13409622 0.13969056 0.11483062 0.072486095 -0.03533959 -0.07665245 0.08940885
0.024687076 -0.085535884 -0.07071413 0.07897336 0.14700618 -0.040485393 -0.071373835 0.1692251
0.09533105 0.030065455 -0.10528838 0.13591994 0.037111327 0.035025585 -0.085201986 0.11023848
0.059930585 -0.031408537 0.07452732 -0.10245233 -0.026185472 0.09192226 -0.073546074 -0.10824872
-0.12987155 -0.17980012 -0.12911277 0.1155508 0.09691508 -0.2503689 0.07067772 -0.059265234
0.010508016 0.09388287 -0.025118886 0.05055778 -0.13658932 0.030905694 0.032965958 -0.08817775
0.10095386 0.121622436 0.040970903 0.117405586 -0.056234155 0.13774432 -0.0006905187 -0.098834835
0.07926026 0.05123118 0.021317193 -0.06302363 0.009990662 -0.025426261 -0.00915609 0.07799946
-0.09592095 0.04810293 0.04702687 -0.18452415 -0.06275488 -0.042275198 -0.09966538 0.057614766
0.016291596 0.03604009 0.057584763 -0.011605436 0.044021066 -0.06583491 -0.03387812 -0.061320763
00000000: 2465 2f3d 6da3 813c 23fa 76bd 3bb6 8ebd
00000010: c4e8 763d 963e f2bd 15b0 7dbd f70d 543d
00000020: c232 ee3d a7d7 35bd 3ce8 663d a857 79bd
00000030: b934 8cbd f926 273d a380 443d f13d ab3b
00000040: 68f5 8d3d 11d4 eebd d05e 1c3d 8de0 a5bc
00000050: 0cbb 82bd 4918 7b3d c906 afbc 7e32 9d3c
00000060: a030 9b3d 0882 bb3c 2153 5fbd 62eb ce3c
00000070: b238 01bc 6a23 993d 5a93 b7bd c607 0abd
00000080: da43 01bd fb2f 9dbd 8943 7b3a 719e 71bd
00000090: 2c6a 783d 07c0 d3bd 6fed ab3d 65e9 d4bd
000000a0: 47ea 77bd 9249 a63d c1d0 4abc d105 ff3c
000000b0: a15d aa3d 290b 91bd 54b8 2d3c c688 d33d
000000c0: cc85 c93c 37aa dd3d a9c2 a0bc 2608 c63d
000000d0: ff01 bb3d ce6d bfbd b9e9 a43b 24d9 53bd
000000e0: 1224 a93d 165e 263c 435f f5bc 4ab5 8f3d
000000f0: 9003 82bd e046 88bc 923f 9cbd e456 ee3d
00000100: 9e0a fabb 3c5a 183d d4ca ab3c 1f58 2ebd
00000110: 0a3c b13d 5a4c 23be dce5 0bbe c13b 2ebc
00000120: f19b 47bd 6e45 09be 6a3d debb d23b b43d
00000130: 52d0 3fbd b712 53bd 781f f73a 6e87 56bc
00000140: d4c0 adbd dd67 8dbd b38a bbbd da55 09bc
00000150: 6211 c2bc c5bf 883d 5e2f d0bd ef42 d5bd
00000160: 9b15 52bc b94f 1d3d 87be 703d bbcb b43d
00000170: d651 d039 b5d0 50bb e660 1bbe 54b2 14be
00000180: 8f02 a3bd f572 1bbe 36cc 6d3d 4930 873d
00000190: 2c21 9dbd d465 ee3c ebbe 5bbd 749a 2a3e
000001a0: d8a1 c53c ba25 ba3c 653f d6bc f353 913d
000001b0: bd51 86bb 81f4 b7bd b9e5 bbbd 2e68 f63d
000001c0: 0a9a bcbc 1737 25be 9388 81bd 70dc e1bd
000001d0: 1d85 353d 73a0 053e a8da 98bd b62c 38bd
000001e0: 2ee1 9c3d 6512 953d 86bf 0c3d 9c66 b53b
000001f0: 68f9 ad3d 60cf 433a de48 21bd 57da 363d
00000200: dbc7 25be 3943 d73d f60e ab3c 60a1 a6bd
00000210: abf9 533d 4dd1 8f3d 5268 90bd f084 0ebc
00000220: 325a 76bc eb3e 8a3d c844 213d 4947 083d
00000230: f2ca ae3c e459 233e 557c 883d 2082 6d3d
00000240: f82a 34bc 2518 56bc 21a2 a7bd a094 3e3a
00000250: f2f7 9abd 99d6 d7bc feed 65bd 6a09 06bc
00000260: 2edc 4dbc acc4 d0bd 0f60 413d 414a 91bd
00000270: 84ac 28bc 35f1 a63d f71f 403e 6bc6 083d
00000280: 1e5a d8ba 13e3 263d a0b4 533c 5443 7cbc
00000290: afb1 4b3d 8b55 a63c fddf f6bc d98a 03bd
000002a0: ce2b e53d 0b27 333d 23f3 3cbd a9b1 5bbd
000002b0: d68f 0c3d 6430 20bd b7ce 03be 2601 cb3d
000002c0: 077f 5bbd 8550 093e 0b0b 0f3e 512c eb3d
000002d0: 9773 943d 3fc0 10bd f6fb 9cbd fd1b b73d
000002e0: 8d3c ca3c 702d afbd 92d2 90bd c9bc a13d
000002f0: ca88 163e 03d4 25bd 722c 92bd 5849 2d3e
00000300: ed3c c33d d44b f63c 6fa1 d7bd 992e 0b3e
00000310: 0c02 183d fd76 0f3d 617e aebd b6c4 e13d
00000320: c679 753d 3da6 00bd c8a1 983d 87d2 d1bd
00000330: ea82 d6bc bd41 bc3d 539f 96bd 81b1 ddbd
00000340: 0cfd 04be 861d 38be 2336 04be e6a5 ec3d
00000350: 6a7b c63d 5a30 80be 7bbf 903d 1ac0 72bd
00000360: d029 2c3c aa45 c03d 1fc6 cdbc ad15 4f3d
00000370: 12de 0bbe f02d fd3c 5007 073d 8996 b4bd
00000380: e6c0 ce3d 2f15 f93d 1bd1 273d 5772 f03d
00000390: c955 66bd d90c 0d3e ed03 35ba eb69 cabd
000003a0: 3453 a23d c9d7 513d 65a1 ae3c 8812 81bd
000003b0: e0af 233c bc4a d0bc 6d03 16bc 2ebe 9f3d
000003c0: 3472 c4bd 9407 453d 3f9f 403d e6f3 3cbe
000003d0: a185 80bd c228 2dbd 5d1d ccbd 76fd 6b3d
000003e0: f475 853c c69e 133d 00de 6b3d ba24 3ebc
000003f0: 6f4f 343d 74d4 86bd c9c3 0abd 7b2b 7bbd

bias f4 [512]
-0.07449145 0.06163128 0.09761044 0.032866593 -0.013672705 -0.021585254 0.071051896 0.05992216
0.08144353 -0.07832143 -0.029610097 -0.049537405 -0.07258897 0.03884256 -0.08595871 -0.033202127
0.044602353 -0.05592208 -0.13620053 0.091772735 0.038767945 0.10013255 0.038076136 0.059683003
-0.02312845 -0.026492948 0.11802843 -0.08670561 -0.04715536 -0.049534738 -0.09455272 -0.0669109
-0.006488191 0.07184932 0.053017825 -0.05766253 0.046527494 0.04557496 0.013277633 -0.0025045539
-0.08190849 0.030771261 0.10274337 0.07756438 0.049084146 0.07657829 0.075493 -0.05131995
-0.05746374 -0.008852935 -0.09651338 0.023377538 0.0064457147 0.055382896 -0.05365979 0.0379468
0.078206815 -0.040560625 -0.019035112 -0.10163133 -0.086955644 0.1051457 0.08602106 0.02607585
0.064483896 -0.073850185 0.004604888 -0.068843536 -0.06764447 -0.041727193 -0.020519763 0.064456895
0.011509723 -0.0123290075 -0.044851843 0.030843018 -0.09194595 -0.046397544 -0.080069445 -0.035399213
0.03918211 -0.076759025 -0.06307173 0.003759923 -0.031412788 -0.06432501 -0.03841749 -0.015318134
-0.032785345 -0.052852944 -0.019804772 0.013365149 0.025019689 0.0297331 0.043199096 0.05556407
-0.005835726 -0.021094978 0.02903717 0.11570914 -0.070948385 -0.010384835 0.0015760916 0.060701262
0.09594751 -0.0019032055 0.109523706 -0.025582371 0.09630302 0.019297374 -0.05000589 0.0132596055
-0.106213376 -0.06505615 -0.11003651 -0.027907547 0.0487313 -0.03769932 0.049758628 -0.05237914
-0.022304824 -0.018238978 -0.06789199 0.066930994 0.0292786 0.020866621 0.07823288 -0.047630847
-0.0090149315 0.048555378 -0.10423998 0.017925695 0.04822173 0.023313211 0.017035637 -0.08111183
0.0065531638 -0.06452817 -0.040214874 0.05841504 -0.041615862 0.000889687 0.0040242444 -0.053774506
0.029056309 -0.015198514 -0.040261388 0.10080866 0.052807078 -0.06576737 0.07600659 0.020178378
-0.024710385 -0.060701266 -0.10646074 -0.0008328994 0.046775058 -0.04959938 0.048739843 -0.05262448
0.065066814 -0.07319165 0.060614612 -0.0407103 -0.066528134 -0.0854589 -0.051809456 0.07005856
-0.076101504 -0.028210657 0.023509555 0.00925238 0.10293195 0.015283209 -0.02574065 -0.09578939
0.013299118 0.024442509 0.011384424 -0.012100458 -0.033229534 -0.027219191 -0.014826916 -0.051104013
-0.02836324 -0.12672324 -0.05810399 0.026598463 -0.00897925 -0.044715136 0.021701412 -0.036484033
-0.04838637 -0.0069480254 -0.056332536 0.04265819 -0.027977081 -0.0065359543 0.086854786 0.031716947
-0.058862317 0.043025114 -0.005351239 0.0019684723 0.08016861 -0.059938107 -0.027053423 -0.05654401
-0.0850477 0.03460259 -0.07970053 -0.069709025 -0.060508735 -0.04623577 0.05888016 0.04860666
0.04833798 0.04940812 0.008753148 0.044545602 -0.0018784706 -0.06168478 -0.06351716 0.096403696
-0.08679096 -0.012854538 0.050442573 0.08184675 -0.060046855 0.00058870786 0.06385804 -0.056233484
-0.048611887 -0.07767731 -0.10162235 0.013077211 0.07756557 0.11133409 -0.011968608 0.072809495
0.07772333 -0.048300453 0.07603211 -0.054021828 -0.095925674 0.0069464394 -0.062930286 0.07955224
0.06372093 -0.008186363 0.12116695 -0.027671544 0.018389348 -0.01109356 -0.017262727 0.037280574
00000000: f98e 98bd 1571 7c3d fbe7 c73d 1f9f 063d
00000010: 7b03 60bc 8fd3 b0bc a883 913d f070 753d
00000020: decb a63d fc66 a0bd e090 f2bc bce7 4abd
00000030: 87a9 94bd 6019 1f3d 1f0b b0bd f4fe 07bd
00000040: f5b0 363d 8d0e 65bd 2778 0bbe 58f3 bb3d
00000050: 23cb 1e3d 4b12 cd3d b9f5 1b3d 2a76 743d
00000060: e077 bdbc bd07 d9bc e4b8 f13d b692 b1bd
00000070: fb25 41bd f0e4 4abd dba4 c1bd 9508 89bd
00000080: e49a d4bb bc25 933d 3829 593d 8c2f 6cbd
00000090: 9d93 3e3d cfac 3a3d 6e8a 593c 7123 24bb
000000a0: a3bf a7bd 0314 fc3c 1e6b d23d 13da 9e3d
000000b0: 750c 493d 14d5 9c3d 139c 9a3d de34 52bd
000000c0: 195f 6bbd e70b 11bc cfa8 c5bd 4082 bf3c
000000d0: 9336 d33b 2dd9 623d 5eca 5bbd 1b6e 1b3d
000000e0: e52a a03d e622 26bd 86ef 9bbc 1624 d0bd
000000f0: cd15 b2bd a156 d73d cf2b b03d 059d d53c
00000100: 2210 843d c43e 97bd 9ae4 963b d7fd 8cbd
00000110: 2f89 8abd 22ea 2abd 1019 a8bc fa01 843d
00000120: 4793 3c3c 9bff 49bc 91b6 37bd 7faa fc3c
00000130: 294e bcbd 5a0b 3ebd 73fb a3bd c4fe 10bd
00000140: 6c7d 203d d633 9dbd c02b 81bd 0a69 763b
00000150: b2aa 00bd d5bc 83bd a85b 1dbd e9f8 7abc
00000160: ed49 06bd 547c 58bd 9e3d a2bc 7ff9 5a3c
00000170: 17f6 cc3c d592 f33c 89f1 303d 2697 633d
00000180: 9e39 bfbb 60cf acbc 5cdf ed3c eaf8 ec3d
00000190: 634d 91bd 2825 2abc dc94 ce3a e3a1 783d
000001a0: 2180 c43d fb74 f9ba f74d e03d 1f92 d1bc
000001b0: 853a c53d 8715 9e3c fad2 4cbd d13e 593c
000001c0: 6686 d9bd 293c 85bd d25a e1bd 5e9e e4bc
000001d0: 799a 473d 9a6a 1abd b4cf 4b3d 828b 56bd
000001e0: 9bb8 b6bc e969 95bc f50a 8bbd 1e13 893d
000001f0: add9 ef3c 7af0 aa3c 8f38 a03d 9018 43bd
00000200: 5db3 13bc 01e2 463d c57b d5bd e8d8 923c
00000210: 2684 453d 59fb be3c 528e 8b3c f61d a6bd
00000220: ecbb d63b 5827 84bd 5ab8 24bd 9c44 6f3d
00000230: 6575 2abd e239 693a cfdd 833b a842 5cbd
00000240: 7f07 ee3c 3003 79bc 20e9 24bd c574 ce3d
00000250: 3c4c 583d 0bb1 86bd 58a9 9b3d 204d a53c
00000260: 6f6d cabc e4a1 78bd 1708 dabd ef56 5aba
00000270: 3497 3f3d b828 4bbd 6ea3 473d c48c 57bd
00000280: c041 853d 81e5 95bd 0747 783d d8bf 26bd
00000290: e73f 88bd 1305 afbd 2736 54bd dd7a 8f3d
000002a0: 1bdb 9bbd 091a e7bc 1c97 c03c 4b97 173c
000002b0: fccd d23d 6d66 7a3c 0ede d2bc 3a2d c4bd
000002c0: 8be4 593c a83b c83c bc85 3a3c 0041 46bc
000002d0: b11b 08bd c8fa debc 98ec 72bc 7152 51bd
000002e0: 075a e8bc bdc3 01be 73fe 6dbd 05e5 d93c
000002f0: b41d 13bc 3827 37bd 29c7 b13c 4870 15bd
00000300: c930 46bd 43ac e3bb f2bc 66bd 5bba 2e3d
00000310: 3130 e5bc 8f2b d6bb ece0 b13d a1e9 013d
00000320: 9d19 71bd 1a3b 303d 7259 afbb 7c01 013b
00000330: 712f a43d a981 75bd 249f ddbc b19a 67bd
00000340: 7d2d aebd 72bb 0d3d 083a a3bd 9bc3 8ebd
00000350: 02d8 77bd b861 3dbd 532c 713d c717 473d
00000360: 0cfe 453d 2b60 4a3d 5d69 0f3c 7375 363d
00000370: 0437 f6ba 2ea9 7cbd 4915 82bd 4d6f c53d
00000380: 75bf b1bd d79b 52bc df9c 4e3d 459f a73d
00000390: b1f3 75bd 8453 1a3a 01c8 823d 1555 66bd
000003a0: 421d 47bd 4815 9fbd 611f d0bd cc41 563c
000003b0: b3da 9e3d 2103 e43d fb17 44bc 251d 953d
000003c0: 692d 9f3d b2d6 45bd b9b6 9b3d fe45 5dbd
000003d0: ae74 c4bd f59e e33b 98e1 80bd 49ec a23d
000003e0: 1e80 823d 1820 06bc 6126 f83d 6faf e2bc
000003f0: 42a5 963c c3c1 35bc 906a 8dbc 84b3 183d

weight f4 [256, 512]
-0.020545183 0.14970767 0.050231356 0.030054225 0.057872318 -0.05470558 -0.020357823 0.009769073
0.028181588 -0.062049255 -0.082295544 -0.001882219 -0.10578012 -0.0909742 -0.062290005 0.006656334
-0.045200475 0.028430628 -0.061815318 0.040146295 -0.026613303 0.029537925 0.0029500613 -0.06628026
0.004187151 -0.06535192 -0.027275123 -0.10522626 0.036635265 0.16197793 -0.05628454 0.009969541
0.075108536 0.014746129 -0.033835173 0.15718399 0.04224096 0.0699389 0.07520217 0.16105542
0.17073041 -0.014951976 0.045145743 0.0801498 0.069449335 0.18580185 0.11640517 -0.040499844
0.113486715 0.07668832 -0.08151809 -0.1335618 0.032258227 0.0291465 0.25464305 0.14857478
-0.00094153336 0.111438744 0.000366955 0.015467703 -0.0017960831 0.031026248 0.0118043 0.00809353
0.03923287 0.011260538 0.029440949 -0.009608797 -0.0186225 -0.06977268 0.0012915536 -0.09738303
0.018681644 0.00935803 -0.05047165 -0.045208484 -0.11440755 -0.0021452466 0.008608401 0.0024082477
-0.040210024 0.031798664 -0.01704401 0.07767762 0.057098042 0.02799757 -0.11045027 -0.036167085
0.10357523 -0.047419146 -0.041469414 0.016106883 -0.029364297 0.006368473 -0.012978307 -0.0011207967
-0.039350156 0.018070627 0.16782017 0.0646009 -0.024465447 -0.025538282 -0.010626705 0.001371711
-0.028867057 0.18313609 0.16071701 -0.029741542 0.044629198 0.030005554 0.067262776 -0.06525754
-0.046168257 -0.08037655 -0.022976736 0.035302438 -0.043441318 0.06354422 0.0071364474 0.035273954
0.0032881615 0.025837861 -0.09859393 -0.008261286 0.03239758 0.0186853 0.0064176866 0.14350387
-0.031322397 0.03087391 -0.0731455 0.17506425 0.19397086 0.061983164 0.0067087915 0.035154104
-0.0074298237 -0.04367189 0.026703808 0.11493918 0.058221553 -0.005688059 0.14387977 -0.01934695
0.003306031 0.10233394 0.063993745 0.017472018 0.07348773 -0.095398955 0.0041106474 -0.03286235
-0.0041053183 -0.008372344 -0.09377193 0.07012061 0.0080112405 0.0929026 0.01927473 0.048534244
-0.080084935 0.2898835 -0.024815649 0.12062848 -0.051553316 -0.014964132 0.016165515 -0.047840822
0.02366677 -0.0092819845 0.07902729 0.16270763 -0.019928727 0.021334268 -0.10602664 -0.021918336
0.04295169 0.00023601676 0.089328006 0.083380036 -0.07361578 0.03480163 -0.014348223 0.020463381
0.13713725 -0.076829605 -0.020710716 0.020218965 0.0062352824 0.052277517 -0.016975956 0.0010202394
0.08569661 0.04516034 0.070734955 0.021499557 -0.07841174 0.059068378 0.1522686 0.07773838
-0.014016644 -0.006177034 -0.036747675 0.017922945 -0.010348163 -0.06961031 0.1688794 -0.06856409
-0.032799266 -0.015863178 -0.093207285 0.03048394 0.023673143 0.018748486 -0.023913492 -0.040872704
0.15407345 0.041696176 0.20150591 0.14292076 -0.0038458912 0.037617143 -0.04750111 0.038899913
-0.064237446 -0.0067345616 -0.04335292 0.08289451 0.006140516 -0.000556193 0.19038217 -0.04662058
-0.017136177 -0.062463034 -0.03023424 0.029923603 -0.053094175 0.117395654 0.040365078 0.04697917
0.10216645 -0.0058961613 0.19698213 -0.022660058 -0.041535266 0.0051973956 0.038042095 0.07720293
0.0035243677 -0.007413559 -0.002743887 -2.595887e-06 0.02101322 0.13957942 0.01364918 0.03618171
00000000: 5f4e a8bc f84c 193e 65bf 4d3d 4734 f63c
00000010: 860b 6d3d f512 60bd 73c5 a6bc 760e 203c
00000020: 13dd e63c 5c27 7ebd 918a a8bd cab4 f6ba
00000030: 3fa3 d8bd ae50 babd ce23 7fbd 601d da3b
00000040: 2224 39bd 59e7 e83c 0f32 7dbd 7170 243d
00000050: 2404 dabc 85f9 f13c d155 413b f2bd 87bd
00000060: 5e34 893b 3ad7 85bd 1470 dfbc de80 d7bd
00000070: dc0e 163d 8bdd 253e 9e8a 66bd 4957 233c
00000080: 81d2 993d bf99 713c c096 0abd d7f4 203e
00000090: db04 2d3d 203c 8f3d 9803 9a3d b6eb 243e
000000a0: f4d3 2e3e 22f9 74bc beea 383d 9425 a43d
000000b0: 743b 8e3d d742 3e3e d565 ee3d 2ae3 25bd
000000c0: b96b e83d c40e 9d3d f5f2 a6bd 6dc4 08be
000000d0: 3421 043d a4c4 ee3c 9360 823e fd23 183e
000000e0: 3cd1 76ba ff39 e43d de63 c039 406c 7d3c
000000f0: 8c6a ebba c22a fe3c d366 413c ba9a 043c
00000100: a5b2 203d 1f7e 383c 252e f13c 376e 1dbc
00000110: 378e 98bc fbe4 8ebd 5949 a93a c170 c7bd
00000120: 3f0a 993c 6c52 193c 5cbb 4ebd 882c 39bd
00000130: 814e eabd 4497 0cbb 400a 0d3c b1d3 1d3b
00000140: 44b3 24bd 513f 023d e19f 8bbc 7215 9f3d
00000150: a3df 693d 295b e53c c033 e2bd f023 14bd
00000160: 401f d43d 943a 42bd d5db 29bd 95f2 833c
00000170: 658d f0bc a0ae d03b f7a2 54bc b2e7 92ba
00000180: a12d 21bd da08 943c 0dd9 2b3e 7a4d 843d
00000190: c36b c8bc a935 d1bc a21b 2ebc fcca b33a
000001a0: 9b7a ecbc 0788 3b3e 0093 243e 89a4 f3bc
000001b0: 1bcd 363d 35ce f53c 11c1 893d bfa5 85bd
000001c0: ed1a 3dbd 769c a4bd b539 bcbc 4a99 103d
000001d0: 86ef 31bd 7923 823d dcd8 e93b 6c7b 103d
000001e0: 327e 573b eca9 d33c 9deb c9bd 585a 07bc
000001f0: 53b3 043d ea11 993c 754b d23b aef2 123e
00000200: ea4b 00bd 48eb fc3c 4fcd 95bd 0b44 333e
00000210: 4ca0 463e 0fe2 7d3d 6cd5 db3b c0fd 0f3d
00000220: e175 f3bb 4ce1 32bd f2c1 da3c 3c65 eb3d
00000230: b979 6e3d e662 babb 3855 133e 7f7d 9ebc
00000240: ffa9 583b 7594 d13d 270f 833d 7a21 8f3c
00000250: bc80 963d 8760 c3bd 9cb2 863b ac9a 06bd
00000260: e885 86bb 282c 09bc 7f0b c0bd 659b 8f3d
00000270: 9441 033c b843 be3d 0ae6 9d3c d8cb 463d
00000280: 9203 a4bd 9c6b 943e 304a cbbc 110c f73d
00000290: 9229 53bd 1e2c 75bc 8b6d 843c bdf4 43bd
000002a0: d0e0 c13c 7713 18bc 0fd9 a13d d49c 263e
000002b0: 9241 a3bc 34c5 ae3c 7f24 d9bd 158e b3bc
000002c0: 1cee 2f3d 447b 7739 9af1 b63d 27c3 aa3d
000002d0: dfc3 96bd 278c 0e3d cf14 6bbc d2a2 a73c
000002e0: b56d 0c3e d758 9dbd 85a9 a9bc 3ea2 a53c
000002f0: 5751 cc3b f320 563d 2911 8bbc 8eb9 853a
00000300: b481 af3d 0cfa 383d 7ddd 903d d71f b03c
00000310: 5696 a0bd aff1 713d 4dec 1b3e 4d35 9f3d
00000320: 11a6 65bc b868 cabb bb84 16bd 24d3 923c
00000330: 578b 29bc da8f 8ebd b9ee 2c3e 546b 8cbd
00000340: 8658 06bd 7ff3 81bc 76e3 bebd 75b9 f93c
00000350: 2eee c13c 6d96 993c 3ae6 c3bc 236a 27bd
00000360: 6ec5 1d3e 9cc9 2a3d 9157 4e3e d259 123e
00000370: 590b 7cbb 6f14 1a3d 8690 42bd 8455 1f3d
00000380: ec8e 83bd 99ad dcbb d592 31bd 99c4 a93d
00000390: 6236 c93b 7bcd 11ba 8bf3 423e 39f5 3ebd
000003a0: 2b61 8cbc 3dd9 7fbd ccad f7bc 5822 f53c
000003b0: 4779 59bd 226d f03d da55 253d 3b6d 403d
000003c0: a53c d13d 9634 c1bb afb5 493e 96a1 b9bc
000003d0: e220 2abd ea4e aa3b 07d2 1b3d 921c 9e3d
000003e0: 14f9 663b 71ed f2bb c9d2 33bb 0035 2eb6
000003f0: eb23 ac3c e8ed 0e3e cfa0 5f3c 4633 143d

bias f4 [256]
0.050234694 0.041030467 0.059060283 -0.027214224 0.0353505 0.020413304 -0.05235699 0.06915403
0.060403105 0.053548716 0.053642683 -0.102439456 0.053808067 -0.070237346 0.05141897 0.059228078
0.070644625 0.034897525 0.03643117 0.040514924 -0.14330739 -0.024928566 0.051766973 0.0032628712
0.07917219 0.03931283 -0.05889123 0.072643094 0.006129884 0.077024244 0.040380944 -0.008999862
0.051823884 0.0810871 0.008752947 0.04298123 -0.042200074 0.038330883 0.05451927 0.0024712572
0.07941173 0.016843349 0.03279207 -0.009039091 0.10590359 0.045745492 0.015446463 0.07035791
0.06561788 0.13548636 0.020861942 0.039899647 0.08247435 0.07535667 0.028115474 -0.0019104932
0.085385665 0.07056482 0.013582498 0.059008 0.014995445 0.020184666 0.09208505 0.0039292397
0.1187896 0.027838677 0.052782614 0.023214396 -0.11698239 -0.041851975 0.093755014 0.0031670684
-0.046528928 -0.06514876 0.020517724 0.0011613206 -0.009555166 0.04935105 0.05344996 0.058532525
0.07122503 0.060653653 0.061573356 -0.0758408 0.055856116 0.039149866 0.06019162 0.13169663
-0.011865514 0.0670665 -0.07793264 0.026254676 0.008781831 0.08773735 0.02418267 0.08841681
-0.094581895 0.04112018 0.012437188 0.04926895 0.06208034 0.030550769 -0.0813835 0.021107951
0.03586098 0.053342726 0.091013186 0.106235206 -0.030115869 0.01659692 0.006750046 0.064993136
0.014249028 -0.011614348 0.027784199 0.019086994 0.060019553 0.067753926 0.10358484 -0.013914208
-0.028106801 0.09607213 -0.07377191 0.013774743 0.030464252 -0.023901947 0.053559568 0.06888136
-0.058438428 0.015388799 0.030606149 0.01790366 0.05107686 0.0077045625 0.058247402 -0.05133354
0.06409796 0.060657416 0.09615515 -0.017782059 -0.06500822 -0.07528435 -0.12330379 -0.075236246
0.14056063 0.016923565 -0.06284212 -0.110570125 0.047157895 0.056463104 -0.0029468024 -0.08404478
0.015234087 0.012619405 -0.06299905 0.02954984 -0.074620545 0.0074197976 0.09460465 0.0040378436
0.056732178 0.09832644 -0.10639817 0.07378612 0.021595908 0.089905344 0.019420203 -0.095326684
0.059045292 0.046918858 -0.0077996575 0.11458082 0.021206623 0.026867164 0.08990061 0.089131564
0.05703116 0.082239926 -0.0017564798 -0.09239461 0.06058139 0.015700294 0.048875876 -0.09290307
-0.03320041 0.10595234 0.031305484 0.08405214 -0.008290208 -0.10541043 0.080167815 0.074798204
-0.006855686 -0.060581222 0.08290823 0.064168856 -0.012199525 0.04209641 -0.0037830265 -0.009264855
-0.004211961 0.09245381 0.12256238 -0.032760512 0.08910896 -0.017041452 0.04333875 0.08650906
0.015936151 0.07543914 0.013525009 -0.030559083 0.095084295 -0.14356406 -0.058692202 0.08350399
0.07207628 -0.03538281 -0.0441824 0.0029180099 0.02763831 0.038955476 -0.012768814 -0.030621417
0.12671654 0.024364116 0.072457075 0.06585468 0.0045008366 -0.01689803 -0.009903946 0.09700785
0.0719738 0.09156877 0.023505837 -0.0062472885 0.075804934 0.09658416 -0.07341384 0.013628653
0.09754546 0.064844266 -0.00562096 0.033863142 -0.014711967 0.04759861 0.054796364 -0.014426482
-0.01425266 0.060079347 0.09866344 0.12636039 0.03795213 0.048966292 -0.03095334 0.08583493
00000000: e5c2 4d3d 900f 283d 32e9 713d 5df0 debc
00000010: b0cb 103d cd39 a73c 4874 56bd a1a0 8d3d
00000020: 3f69 773d e655 5b3d 6eb8 5b3d c7cb d1bd
00000030: d965 5c3d 99d8 8fbd b39c 523d 2499 723d
00000040: 21ae 903d b5f0 0e3d da38 153d faf2 253d
00000050: 2cbf 12be fe36 ccbc 9b09 543d e5d5 553b
00000060: 0725 a23d 7d06 213d ee37 71bd e7c5 943d
00000070: 32dd c83b e3be 9d3d 7d66 253d 2874 13bc
00000080: 4845 543d fe10 a63d 8568 0f3c 160d 303d
00000090: fcd9 2cbd d800 1d3d 994f 5f3d d1f4 213b
000000a0: 9ea2 a23d 10fb 893c fa50 063d b218 14bc
000000b0: fbe3 d83d a05f 3b3d 2913 7d3c cf17 903d
000000c0: ab62 863d f0bc 0a3e aae6 aa3c d06d 233d
000000d0: 50e8 a83d 9954 9a3d 6c52 e63c 8469 faba
000000e0: aede ae3d 4a84 903d 2089 5e3c 5fb2 713d
000000f0: 74af 753c 505a a53c 1697 bc3d dac0 803b
00000100: f647 f33d f00d e43c 9532 583d 1e2c be3c
00000110: 7794 efbd fa6c 2bbd a102 c03d 978e 4f3b
00000120: 1e95 3ebd b76c 85bd c914 a83c 7437 983a
00000130: 458d 1cbc 5424 4a3d 58ee 5a3d cdbf 6f3d
00000140: 6ede 913d f76f 783d 5834 7c3d 6c52 9bbd
00000150: 62c9 643d 9c5b 203d 7d8b 763d 7bdb 063e
00000160: 9367 42bc 295a 893d 269b 9fbd 0c14 d73c
00000170: abe1 0f3c a4af b33d bc1a c63c df13 b53d
00000180: 27b4 c1bd a26d 283d 59c5 4b3c 3dce 493d
00000190: f447 7e3d 9b45 fa3c 64ac a6bd 95ea ac3c
000001a0: f7e2 123d e77d 5a3d 1f65 ba3d d891 d93d
000001b0: 8eb5 f6bc 44f6 873c 7d2f dd3b 1f1b 853d
000001c0: c174 693c 1b4a 3ebc b09b e33c 545c 9c3c
000001d0: 10d7 753d 92c2 8a3d 4a24 d43d 6bf8 63bc
000001e0: 3c40 e6bc 77c1 c43d ba15 97bd 76af 613c
000001f0: 2b90 f93c 04ce c3bc 4761 5b3d ac11 8d3d
00000200: 225d 6fbd 4d21 7c3c bfb9 fa3c b2aa 923c
00000210: f835 513d 8e76 fc3b d494 6e3d 1e43 52bd
00000220: cb45 833d e973 783d feec c43d aeab 91bc
00000230: 0823 85bd ae2e 9abd b386 fcbd 7615 9abd
00000240: 20ef 0f3e 4aa3 8a3c 5fb3 80bd 9772 e2bd
00000250: a328 413d db45 673d 241f 41bb ab1f acbd
00000260: 6498 793c 9fc1 4e3c a505 81bd 8212 f23c
00000270: a8d2 98bd c621 f33b 15c0 c13d e34f 843b
00000280: 0060 683d 5f5f c93d 49e7 d9bd 2d1d 973d
00000290: e7e9 b03c 4b20 b83d 1e17 9f3c a33a c3bd
000002a0: 7ad9 713d fd2d 403d 4594 ffbb 59a9 ea3d
000002b0: 83b9 ad3c 8718 dc3c d01d b83d 9c8a b63d
000002c0: 8199 693d 686d a83d af39 e6ba 6339 bdbd
000002d0: 3124 783d e79d 803c 1232 483d f743 bebd
000002e0: 27fd 07bd 8afd d83d 2e3a 003d 8723 ac3d
000002f0: a7d3 07bc 6ce1 d7bd 062f a43d cd2f 993d
00000300: aaa5 e0bb 0424 78bd cacb a93d f66a 833d
00000310: 84e0 47bc 496d 2c3d a7ec 77bb 9ecb 17bc
00000320: 7d04 8abb 6c58 bd3d fc01 fb3d e32f 06bd
00000330: c27e b63d 849a 8bbc f983 313d a92b b13d
00000340: 888c 823c d67f 9a3d 0098 5d3c 0b57 fabc
00000350: 8ebb c23d 7502 13be 3c67 70bd 2404 ab3d
00000360: bb9c 933d 91ed 10bd 9bf8 34bd 153c 3f3b
00000370: bd69 e23c c78f 1f3d 4a34 51bc c4d9 fabc
00000380: fbc1 013e 4197 c73c 6064 943d d2de 863d
00000390: c17b 933b bd6d 8abc 2944 22bc 0dac c63d
000003a0: 0067 933d 6888 bb3d 508f c03c 0eb6 ccbb
000003b0: 9e3f 9b3d ebcd c53d ff59 96bd b74a 5f3c
000003c0: eac5 c73d 12cd 843d 0830 b8bb 14b4 0a3d
000003d0: 760a 71bc c3f6 423d 2772 603d 0d5d 6cbc
000003e0: fd83 69bc c315 763d 0f10 ca3d 9e64 013e
000003f0: b173 1b3d e190 483d dc91 fdbc 39ca af3d

weight f4 [128, 256]
-0.019393684 0.00035631284 0.02682308 0.057192095 0.002773912 -0.044454902 -0.0935189 -0.017824572
-0.044970997 0.03605884 0.018671863 0.12533924 0.039508477 0.09661723 -0.03977405 -0.0709217
-0.017463692 -0.03248238 -0.0649202 0.03658171 0.16477361 -0.0859049 -0.042752564 0.061384194
-0.03840242 -0.044786215 -0.02210279 -0.017430454 0.12716135 0.03530317 0.042189382 -0.0435994
-0.042325154 0.0074668843 0.07523557 0.0025838665 0.16841567 -0.048520636 -0.049935203 -0.017568417
-0.008730573 -0.059978507 -0.06729379 -0.043333642 -0.032080237 -0.054357372 -0.0021839195 0.015921649
-0.04414468 -0.03267098 -0.07304138 0.05360469 0.006987933 -0.060947534 0.0044624517 -0.006945744
0.0042783297 -0.03085072 0.069743596 0.011179772 -0.04408219 -0.065240294 -0.05653769 0.045088343
-0.02950237 0.100947164 -0.010076403 -0.040424466 0.1408727 0.09003227 -0.060051106 0.055297833
0.0064457287 0.23498066 -0.018013846 -0.018690003 -0.00866649 -0.038845327 -0.068218924 -0.051293194
-0.007084654 0.029099535 -0.056063667 0.19380508 0.02440337 0.023398452 0.052235205 -0.038381327
0.059616555 -0.033545543 -0.09523042 0.01244631 0.049359266 0.023226377 -0.023997962 -0.029396914
0.020253781 -0.074887745 0.06654028 0.0034217117 -0.00025756785 0.033307157 -0.061296277 0.034239057
0.07614802 -0.0040715425 0.0062465235 -0.06297652 0.0056962976 0.041068483 0.022562755 -0.06478147
0.05792062 -0.09113627 0.07419485 -0.026044328 -0.02744816 -0.0078614745 -0.054559622 0.1061892
-0.0468368 0.007593773 0.2147335 0.08478403 -0.07554528 0.035280712 -0.05146891 -0.00443539
-0.1254766 0.00647789 -0.07499772 0.016430331 -0.028618913 0.025683742 0.03267597 0.020948738
-0.0027577872 -0.022182338 0.0010918694 0.005733034 0.25175598 0.09161264 -0.091706656 -0.14030865
-0.032780815 -0.0133858 0.072509184 0.25623405 -0.06675202 -0.028408132 -0.008907856 0.1299065
0.044287805 -0.06576568 0.18490411 0.016698146 0.18811072 0.01420995 0.020058272 -0.0150771355
0.025893519 0.012723107 0.074048 -0.04951543 -0.06427975 -0.041709617 0.016728666 0.105224214
0.0021206038 -0.04909232 0.10867462 -0.037374306 -0.013668578 0.06803781 0.012142009 -0.07320308
0.03709374 -0.041481312 0.086664826 0.14660701 0.010046953 0.011581083 0.007194795 0.12327219
0.21221289 0.013370535 -0.024164146 0.02084342 0.039848402 0.21615905 0.017603101 -0.049752094
-0.07654939 -0.027786199 -0.00010608114 -0.06081712 0.002239372 -0.027969858 -0.12169972 -0.014617608
0.04186299 0.05299891 -0.052318167 -0.009358964 -0.038483832 0.076965086 -0.057285316 0.021288108
-0.015890352 0.024979338 0.015341571 0.031918686 0.01737446 0.17998345 -0.064652674 0.002243013
0.024116162 0.17392746 0.0049451347 -0.12027071 -0.05083596 0.014478827 -0.018088914 0.0717038
-0.04988692 0.031569533 0.04881903 -0.03871068 0.0039957375 0.056079626 0.019231027 -0.059399795
0.018952364 -0.044007767 0.104214475 -0.052724745 -0.066579126 -0.013906008 0.14550358 -0.059380803
0.0021748825 -0.044277467 -0.054828294 0.004272839 -0.016654285 0.011584423 -0.020839727 -0.061664455
0.054839216 0.022478819 0.031018468 0.0048451023 0.031557366 -0.020856345 0.011647497 -0.021908011
00000000: 81df 9ebc 80cf ba39 13bc db3c 4242 6a3d
00000010: 85ca 353b 5816 36bd d686 bfbd d604 92bc
00000020: 8233 38bd 6fb2 133d bcf5 983c ee58 003e
00000030: a4d3 213d 41df c53d 1dea 22bd 653f 91bd
00000040: 0410 8fbc 3e0c 05bd e2f4 84bd b4d6 153d
00000050: 6aba 283e e9ee afbd 501d 2fbd fe6d 7b3d
00000060: db4b 1dbd c071 37bd e910 b5bc 50ca 8ebc
00000070: 9636 023e 0f9a 103d c6ce 2c3d 4995 32bd
00000080: 245d 2dbd c4ac f43b 1b15 9a3d 1656 293b
00000090: 2875 2c3e 93bd 46bd db88 4cbd a4eb 8fbc
000000a0: ad0a 0fbc 06ac 75bd 54d1 89bd 9e7e 31bd
000000b0: 9166 03bd d6a5 5ebd 1720 0fbb 1e6e 823c
000000c0: 0dd1 34bd 01d2 05bd b896 95bd 9790 5b3d
000000d0: 08fb e43b 1fa4 79bd c239 923b 2099 e3bb
000000e0: 3b31 8c3b a6ba fcbc bbd5 8e3d 5d2b 373c
000000f0: 878f 34bd b49c 85bd 1194 67bd 8eae 383d
00000100: f4ae f1bc 63bd ce3d 7f17 25bc 2094 25bd
00000110: ef40 103e d762 b83d 26f8 75bd fb7f 623d
00000120: b136 d33b c59e 703e c691 93bc c71b 99bc
00000130: e5fd 0dbc 471c 1fbd 5db6 8bbd d018 52bd
00000140: 6326 e8bb 2662 ee3c 04a3 65bd d774 463e
00000150: 94e9 c73c 1cae bf3c 95f4 553d bd35 1dbd
00000160: 7d30 743d 0d67 09bd 2b08 c3bd 9ceb 4b3c
00000170: f12c 4a3d 3e45 be3c 6097 c4bc ccd1 f0bc
00000180: 42eb a53c bf5e 99bd 4546 883d cc3e 603b
00000190: 2c0a 87b9 166d 083d ce11 7bbd 413e 0c3d
000001a0: 7ef3 9b3d 936a 85bb a3af cc3b d5f9 80bd
000001b0: 02a8 ba3b 6d37 283d 87d5 b83c 26ac 84bd
000001c0: 2c3e 6d3d a7a5 babd 78f3 973d ea5a d5bc
000001d0: f7da e0bc 6acd 00bc e979 5fbd b979 d93d
000001e0: f2d7 3fbd 2fd5 f83b 19e3 5b3e 40a3 ad3d
000001f0: 7cb7 9abd 8282 103d 10d1 52bd bf56 91bb
00000200: f07c 00be 7b44 d43b 6898 99bd e798 863c
00000210: 3672 eabc b666 d23c 3dd7 053d b09c ab3c
00000220: febb 34bb bcb7 b5bc 0f1d 8f3a 2ddc bb3b
00000230: 29e6 803e 689f bb3d b3d0 bbbd 12ad 0fbe
00000240: 2d45 06bd 1d50 5bbc b27f 943d 1c31 833e
00000250: 48b5 88bd 2cb8 e8bc 42f2 11bc 3606 053e
00000260: 2167 353d 28b0 86bd 8157 3d3e 8dca 883c
00000270: 19a0 403e dad0 683c 3f51 a43c 1706 77bc
00000280: a51e d43c 9474 503c 7aa6 973d b1d0 4abd
00000290: 1aa5 83bd b4d7 2abd 8e0a 893c cb7f d73d
000002a0: d4f9 0a3b 0715 49bd cd90 de3d cd15 19bd
000002b0: 2cf2 5fbc 6857 8b3d 47ef 463c 7feb 95bd
000002c0: 9bef 173d 4fe8 29bd 547d b13d 2620 163e
000002d0: fa9b 243c 95be 3d3c 51c2 eb3b 2176 fc3d
000002e0: 564e 593e 1710 5b3c e3f3 c5bc d2bf aa3c
000002f0: 1438 233d cc58 5d3e 6134 903c dac8 4bbd
00000300: edc5 9cbd e29f e3bc e177 deb8 5f1b 79bd
00000310: 6ec2 123b 0b21 e5bc b43d f9bd b17e 6fbc
00000320: 8778 2b3d 6315 593d 934b 56bd 5756 19bc
00000330: 39a1 1dbd df9f 9d3d 02a4 6abd 6664 ae3c
00000340: 7c2c 82bc 78a1 cc3c 365b 7b3c 2bbd 023d
00000350: e254 8e3c 954d 383e 9f68 84bd 83ff 123b
00000360: 428f c53c 0a1a 323e cc0a a23b 7d50 f6bd
00000370: 5e39 50bd 9a38 6d3c 342f 94bc 71d9 923d
00000380: 3a56 4cbd 0e4f 013d 77f6 473d 178f 1ebd
00000390: adee 823b c0b3 653d 638a 9d3c 334d 73bd
000003a0: fd41 9b3c 7d41 34bd 666e d53d e7f5 57bd
000003b0: a35a 88bd 06d6 63bc e4fe 143e 4939 73bd
000003c0: 7988 0e3b 4a5c 35bd a293 60bd 2c03 8c3b
000003d0: 916e 88bc 97cc 3d3c 13b8 aabc de93 7cbd
000003e0: 169f 603d 8025 b83c 711a fe3c aac3 9e3b
000003f0: 4c42 013d edda aabc 25d5 3e3c 6e78 b3bc

bias f4 [128]
-0.096811056 0.09433754 -0.084113136 0.16111174 -0.12255013 -0.039913762 -0.05128847 -0.04653615
-0.06501408 -0.17306453 0.14740616 -0.12859428 -0.13663813 -0.039737508 0.08007089 0.030348163
-0.059959866 0.075143985 0.17465752 -0.05479669 -0.058484092 -0.121028475 0.12595965 0.094081275
0.10132837 0.0680835 -0.085284784 -0.085585065 0.05284683 0.08386654 0.11078341 0.1503329
-0.13954756 -0.12337446 0.055300616 0.028450992 0.13580652 -0.040803526 0.11483581 0.1285207
0.042996466 -0.12246744 0.11455893 0.12017871 -0.031866457 0.10906895 0.08667965 0.15039596
0.21716793 -0.103319794 0.14151983 -0.2587446 -0.14339234 -0.02504917 -0.007284522 0.08859298
0.025762493 0.049739614 0.10401793 0.16363738 -0.032616105 0.031144748 -0.14159603 -0.032409895
-0.0905722 -0.13202107 0.0893839 0.09562926 -0.043591797 0.086971454 -0.044685032 0.0693638
-0.1088292 0.07529224 -0.13624616 -0.08225403 -0.12230822 0.17557001 -0.19524357 -0.1105037
0.08779257 0.030439554 -0.02323021 -0.042981934 -0.10941375 0.06539434 -0.13764742 -0.15084514
-0.051803447 0.03143073 -0.10226265 -0.054023873 -0.07669071 -0.11185328 0.0674616 -0.13298523
0.16032995 -0.09113102 0.0011224998 0.19454291 0.18203874 0.047854763 0.033768374 -0.060409863
-0.033935957 -0.084859066 0.06805746 -0.12998691 0.0013551874 0.091287695 0.11557178 0.074293576
-0.03732705 -0.13332708 -0.14236876 0.10220993 0.12710875 -0.17841169 -0.1388502 -0.08987248
0.1347595 0.08922058 0.088457465 0.13195361 0.092028685 -0.14989519 0.018106554 0.16076879
00000000: e044 c6bd 0a34 c13d 8243 acbd 7afa 243e
00000010: 90fb fabd 9d7c 23bd dc13 52bd b19c 3ebd
00000020: 1a26 85bd d437 31be a4f1 163e 38ae 03be
00000030: deea 0bbe ccc3 22bd 35fc a33d b69c f83c
00000040: 7a98 75bd 17e5 993d 6cd9 323e 7e72 60bd
00000050: 048d 6fbd c7dd f7bd 91fb 003e afad c03d
00000060: 4085 cf3d 5d6f 8b3d caa9 aebd 3947 afbd
00000070: eb75 583d 38c2 ab3d 6ae2 e23d def0 193e
00000080: 8ee5 0ebe c0ab fcbd e682 623d 0e12 e93c
00000090: dd10 0b3e 9921 27bd 0a2f eb3d ee9a 033e
000000a0: 101d 303d 36d0 fabd df9d ea3d 4120 f63d
000000b0: 6786 02bd 8b5f df3d 1a85 b13d 6601 1a3e
000000c0: 4561 5e3e 5499 d3bd 93ea 103e 2c7a 84be
000000d0: 71d5 12be eb33 cdbc 00b3 eebb 3c70 b53d
000000e0: dd0b d33c c4bb 4b3d 5a07 d53d 8f90 273e
000000f0: 7798 05bd 4523 ff3c 8dfe 10be 3dc0 04bd
00000100: eb7d b9bd 8830 07be e80e b73d 46d9 c33d
00000110: 508d 32bd 171e b23d a707 37bd 9c0e 8e3d
00000120: d8e1 debd d132 9a3d 1d84 0bbe cd74 a8bd
00000130: bb7c fabd a0c8 333e eeed 47be c44f e2bd
00000140: 97cc b33d 5f5c f93c 484d bebc d30d 30bd
00000150: 5114 e0bd 78ed 853d 72f3 0cbe 2677 1abe
00000160: da2f 54bd 82bd 003d 156f d1bd 2348 5dbd
00000170: 0510 9dbd 5513 e5bd 4f29 8a3d 482d 08be
00000180: 892d 243e e6a2 babd d820 933a 4236 473e
00000190: 5d68 3a3e 5b03 443d b550 0a3d 5570 77bd
000001a0: 6e00 0bbd 97ca adbd b661 8b3d 4a1b 05be
000001b0: 8ba0 b13a 0bf5 ba3d e6b0 ec3d 3b27 983d
000001c0: 40e4 18bd e586 08be 1ec9 11be 7153 d13d
000001d0: cc28 023e 8eb1 36be bf2e 0ebe 100f b8bd
000001e0: 65fe 093e 48b9 b63d 3029 b53d d91e 073e
000001f0: 8979 bc3d 207e 19be 3254 943c 93a0 243e
