result/aug74thenVAE40_14.pt (torch, 979822 bytes, 15 tensors)

weight f4 [128, 13]
0.19887039 -0.21025532 -0.06357643 0.08092708 -0.11138834 0.23230715 0.15988514 0.16346322
-0.18564112 0.21399572 -0.083246835 0.2202179 -0.014817032 -0.25035927 -0.0456707 -0.028944941
0.10207629 0.11194295 0.23939355 -0.32637763 -0.17650644 -0.23336016 -0.1447271 0.13766915
0.4167435 0.03484614 -0.015257627 0.28233513 0.1992137 -0.07029946 -0.031673826 0.45942593
-0.09734985 -0.24869303 0.13202547 -0.124353915 0.031228468 0.56532955 -0.15292071 0.16715086
-0.0016939394 -0.28517598 0.21880786 0.14493 0.18743552 0.069732875 -0.03454628 0.1852134
-0.26005757 -0.0026015765 0.123439364 -0.5651823 0.2553452 0.050414786 0.019681076 0.12512882
0.13154884 -0.22772697 0.2392323 0.0015260071 0.25756243 0.2209523 0.027695596 -0.31973895
-0.3281007 -0.059394702 -0.1970543 0.006650331 0.15681162 -0.104705416 -0.1094382 -0.005958879
0.009612971 0.09000299 -0.004540026 -0.28966326 -0.12115197 -0.14023918 0.24792102 -0.049946997
-0.13624652 0.17958516 0.2755728 0.13796087 -0.05957344 -0.0024747208 0.10844917 -0.10136319
0.40193573 0.3713656 0.28020358 -0.0009728968 -0.09638005 -0.23732251 -0.17095995 0.22609144
0.2496791 -0.32050776 -0.059835054 -0.098809674 -0.101603344 -0.39627275 0.024008933 -0.35177258
0.27592954 -0.07250726 0.041289125 -0.20438562 -0.20831636 0.11223729 0.3073735 -0.011198416
0.1402065 -0.029779386 0.08773262 0.07512061 -0.31051162 0.0065467358 -0.118003614 -0.21253432
0.11745098 -0.08839051 0.22051883 0.31165937 0.12457451 -0.24089539 0.34057313 -0.25436792
-0.02073498 -0.038361955 0.14856178 -0.03496725 0.12859802 -0.18401454 -0.122410916 -0.18809217
0.0140746245 0.11014548 0.039237835 0.3107228 -0.2557657 -0.324314 -0.21510087 -0.21393818
0.12530537 -0.1751666 -0.22015679 -0.022633646 0.27530354 0.22334096 -0.22821137 -0.039456513
-0.09388258 -0.30270612 -0.13877793 -0.18257952 -0.068399966 0.022632677 -0.08462189 -0.18424827
0.12025442 -0.08317015 -0.08211603 0.2082045 0.22130169 -0.02240245 0.085530184 -0.03950355
0.16830114 -0.0770171 0.28765577 0.042427413 0.071994305 0.07010631 0.22358663 0.038285658
-0.09331872 -0.2303411 0.2058274 -0.124087326 -0.051031183 0.15653229 0.26282474 -0.15637901
0.026254099 -0.07847555 0.24635269 0.17366283 -0.18507053 -0.10172744 0.2556698 0.20848896
0.33098942 -0.06379644 0.36516082 -0.18796034 0.30822244 0.20333931 -0.14509644 0.029922869
0.10597773 -0.07906104 0.14676385 -0.14177136 -0.10175886 0.22712581 -0.024139369 0.04510874
-0.122520775 0.15251516 0.0038942122 0.29571003 -0.08212816 0.18750572 -0.12800369 -0.12784682
-0.027155787 -0.16176423 0.4761851 0.3554424 0.07718521 -0.13866414 -0.11171374 0.10711887
-0.03130941 0.00097294676 0.18331131 0.00079862325 -0.29174122 0.1983517 0.27043808 -0.20233925
0.07870717 -0.40098497 0.2475467 0.09991168 0.19808036 0.0742435 0.09004144 0.051026735
-0.16135806 0.045269366 -0.26751444 0.17627932 -0.34601232 0.22875683 -0.06104699 0.16172206
-0.08363617 -0.50632185 -0.33981317 -0.46371433 -0.58131176 -0.119685285 -0.083614275 0.11028911
00000000: aea4 4b3e 2c4d 57be 5c34 82bd 19bd a53d
00000010: 921f e4bd ede1 6d3e eeb8 233e e762 273e
00000020: b518 3ebe b221 5b3e 517d aabd cd80 613e
00000030: 23c3 72bc 172f 80be 3311 3bbd f11d edbc
00000040: 600d d13d 5842 e53d 9523 753e f81a a7be
00000050: 1bbe 34be f7f5 6ebe 5733 14be 24f9 0c3e
00000060: 675f d53e d3ba 0e3d 20fb 79bc 3b8e 903e
00000070: adfe 4b3e 2af9 8fbd 6abc 01bd e039 eb3e
00000080: 5c5f c7bd 63a9 7ebe af31 073e 44ad febd
00000090: d8d2 ff3c 70b9 103f 3f97 1cbe 9829 2b3e
000000a0: 2d07 deba 9602 92be 2b0f 603e 8868 143e
000000b0: 19ef 3f3e 1cd0 8e3d 6680 0dbd 95a8 3d3e
000000c0: 4426 85be 367f 2abb c7cd fc3d caaf 10bf
000000d0: 9bbc 823e bc7f 4e3d 353a a13c c521 003e
000000e0: bdb4 063e 4231 69be 50f9 743e 4d04 c83a
000000f0: 39df 833e 5241 623e e0e1 e23c d3b4 a3be
00000100: d1fc a7be dc47 73bd 9ac8 49be 05eb d93b
00000110: 3a93 203e cb6f d6bd 2321 e0bd b342 c3bb
00000120: b97f 1d3c 7d53 b83d 80c4 94bb be4e 94be
00000130: 861e f8bd dc9a 0fbe 02df 7d3e 3995 4cbd
00000140: 3584 0bbe 2ce5 373e e117 8d3e 9d45 0d3e
00000150: 4803 74bd ed2e 22bb 991a de3d 8197 cfbd
00000160: 85ca cd3e a223 be3e d876 8f3e 000a 7fba
00000170: e762 c5bd ac04 73be 2010 2fbe 8484 673e
00000180: e1ab 7f3e 9819 a4be 9a15 75bd ba5c cabd
00000190: 6a15 d0bd 43e4 cabe 62ae c43c 891b b4be
000001a0: a346 8d3e b07e 94bd c91e 293d 774a 51be
000001b0: e250 55be aadc e53d 0f60 9d3e 9079 37bc
000001c0: 4b92 0f3e e6f3 f3bc 29ad b33d d6d8 993d
000001d0: 61fb 9ebe 0086 d63b e1ab f1bd 99a2 59be
000001e0: 248a f03d 1506 b5bd b0cf 613e d191 9f3e
000001f0: ec20 ff3d 48ad 76be 9a5f ae3e 833c 82be
00000200: 68dc a9bc 6d21 1dbd 9420 183e d239 0fbd
00000210: 33af 033e 4f6e 3cbe 93b2 fabd 3c9b 40be
00000220: 4199 663c f493 e13d dab7 203d 0f17 9f3e
00000230: b9f3 82be 7c0c a6be 6743 5cbe 9c12 5bbe
00000240: 0d50 003e e05e 33be c870 61be 326a b9bc
00000250: 96f4 8c3e 7eb3 643e 3eb0 69be 279d 21bd
00000260: 8345 c0bd 4cfc 9abe cd1b 0ebe 20f6 3abe
00000270: 4815 8cbd 2a68 b93c 3e4e adbd 94ab 3cbe
00000280: f347 f63d 1d55 aabd 732c a8bd 8f33 553e
00000290: e99c 623e 5885 b7bc 732a af3d 79ce 21bd
000002a0: 2257 2c3e 24bb 9dbd 9e47 933e 5ec8 2d3d
000002b0: c071 933d e693 8f3d e5f3 643e 6cd1 1c3d
000002c0: e31d bfbd 8ade 6bbe 6bc4 523e 7f21 febd
000002d0: 1306 51bd 004a 203e f790 863e d221 20be
000002e0: d612 d73c cab7 a0bd e143 7c3e abd4 313e
000002f0: 2183 3dbe 7a56 d0bd 27e7 823e 217e 553e
00000300: 7277 a93e b5a7 82bd 5cf6 ba3e ad78 40be
00000310: 55cf 9d3e 2e38 503e 2994 14be ce20 f53c
00000320: da0a d93d c1ea a1bd 4349 163e 832c 11be
00000330: f366 d0bd ab93 683e edbf c5bc f1c3 383d
00000340: 2cec fabd ef2c 1c3e 0a36 7f3b 4e67 973e
00000350: cf32 a8bd 8001 403e 6613 03be 47ea 02be
00000360: d075 debc 86a5 25be 89ce f33e 8cfc b53e
00000370: 4813 9e3d f9fd 0dbe 2cca e4bd 2361 db3d
00000380: 4c3e 00bd 5a0d 7f3a f6b5 3b3e b35a 513a
00000390: 1b5f 95be b51c 4b3e dc76 8a3e 0532 4fbe
000003a0: 3a31 a13d e74d cdbe e27c 7d3e 7f9e cc3d
000003b0: 94d5 4a3e fa0c 983d a667 b83d 6901 513d
000003c0: 0c3b 25be 5f6c 393d a7f7 88be 9182 343e
000003d0: 8728 b1be 3b3f 6a3e 690c 7abd 789a 253e
000003e0: 7149 abbd 4f9e 01bf fefb adbe f76b edbe
000003f0: d9d0 14bf 8f1d f5bd f63d abbd 42df e13d

bias f4 [128]
0.19550355 -0.07189853 -0.22876023 -0.059100006 -0.03609977 -0.03803513 -0.09940753 -0.14691338
0.19523978 -0.03181284 -0.17138083 0.059793722 0.12892719 -0.23122016 0.23090152 0.17952834
-0.199594 0.1736269 -0.23293525 0.01169465 0.121008195 -0.004487068 0.16643684 0.2705517
0.07687954 0.22837102 0.008599838 -0.057766244 -0.20024526 0.2028853 -0.10403807 -0.27282575
0.18103682 -0.09653943 0.26646978 0.15586881 0.06339285 -0.20324427 0.0136491535 0.044340514
-0.1220964 0.14085929 -0.1845475 0.17308362 0.23022765 0.011392526 0.08968485 -0.14745691
-0.01231721 -0.1116473 -0.28927198 0.0014270036 0.16872092 0.23901162 -0.18132952 0.15731575
-0.18871947 -0.066628516 -0.28157428 -0.08677065 -0.23965189 0.094429895 0.0954264 -0.07390118
-0.07200524 -0.13017316 -0.22369684 -0.21537052 -0.24053355 0.13433893 -0.06357312 0.10651564
-0.20456722 0.11703786 0.09387088 0.24684131 0.31031653 0.018218089 0.1544464 -0.09185995
0.22118047 0.16735922 -0.06955386 0.038661238 0.2746698 0.2420985 -0.18091369 -0.08538011
0.10298124 -0.04040413 0.13519838 0.15030085 0.026383206 -0.011261533 0.108341806 -0.0512739
0.14489754 -0.24594218 0.0880002 -0.04987199 0.09961099 0.29436764 0.045605842 -0.014041486
-0.06342338 0.06720049 -0.1275788 0.17672876 -0.12982403 0.11759353 0.1315781 0.20685524
-0.035741743 0.073225036 0.1241646 0.031720053 0.036768325 0.112645 0.08889901 0.009352213
-0.022858217 0.020035895 -0.13220295 0.123448506 0.0032498012 0.13982603 0.10637411 -0.07194636
00000000: 1532 483e 893f 93bd 1f40 6abe d912 72bd
00000010: 5add 13bd b9ca 1bbd 2d96 cbbd 7670 16be
00000020: f0ec 473e 2e4e 02bd 757e 2fbe 43ea 743d
00000030: 7d05 043e fac4 6cbe 7371 6c3e 47d6 373e
00000040: 5f62 4cbe 40cb 313e 9486 6ebe eb9a 3f3c
00000050: 25d3 f73d 4108 93bb 6b6e 2a3e c185 8a3e
00000060: 0573 9d3d 18da 693e 56e6 0c3c 4c9c 6cbd
00000070: 180d 4dbe 2ac1 4f3e e911 d5bd d1af 8bbe
00000080: b761 393e 77b6 c5bd ba6e 883e 139c 1f3e
00000090: 1cd4 813d 441f 50be b3a0 5f3c 669e 353d
000000a0: ad0d fabd 6b3d 103e 05fa 3cbe d53c 313e
000000b0: ccc0 6b3e b8a7 3a3c b1ac b73d f2fe 16be
000000c0: 20ce 49bc 57a7 e4bd 751b 94be 4c0a bb3a
000000d0: 2dc5 2c3e 76bf 743e 72ae 39be 6117 213e
000000e0: ad3f 41be 8874 88bd 812a 90be d0b4 b1bd
000000f0: 4e67 75be 7664 c13d eb6e c33d 8059 97bd
00000100: 7c77 93bd 1d4c 05be c910 65be 178a 5cbe
00000110: 6d4e 76be 2590 093e a032 82bd df24 da3d
00000120: 127a 51be 8cb1 ef3d 603f c03d f8c3 7c3e
00000130: cfe1 9e3e 1a3e 953c 3227 1e3e 1221 bcbd
00000140: 227d 623e 3760 2b3e 4172 8ebd 3f5b 1e3d
00000150: 85a1 8c3e abe8 773e 7041 39be c4db aebd
00000160: d4e7 d23d cd7e 25bd 7271 0a3e 77e8 193e
00000170: 9821 d83c 4b82 38bc 4fe2 dd3d 9504 52bd
00000180: 0560 143e 44d8 7bbe 7339 b43d 9246 4cbd
00000190: d900 cc3d 5bb7 963e 31cd 3a3d 430e 66bc
000001a0: 1ee4 81bd 69a0 893d 04a4 02be 62f8 343e
000001b0: 97f0 04be e0d4 f03d 69bc 063e dcd1 533e
000001c0: ef65 12bd 02f7 953d 034a fe3d e3ec 013d
000001d0: 629a 163d 6cb2 e63d af10 b63d 063a 193c
000001e0: 2841 bbbc 5122 a43c 3660 07be 92d2 fc3d
000001f0: 9efa 543b 8e2e 0f3e abda d93d 9d58 93bd

weight f4 [512, 128]
-0.013098808 0.030854119 0.11954808 0.14532453 -0.076870434 0.008273436 -0.008315562 0.13479799
0.08183306 0.012955898 0.07918188 0.04448488 0.016362494 -0.016978104 -0.09555507 0.05045355
-0.06278218 0.12408168 0.12393419 -0.050739527 0.032113 0.08479028 0.026675405 -0.022273744
-0.10536212 0.034945272 -0.15630282 0.019232174 0.0628635 0.08519151 -0.023068365 0.1315649
-0.0979685 -0.012502746 0.044693466 0.016802808 -0.15442488 0.09412881 -0.08036435 -0.03036956
0.0013360934 0.0161303 -0.045047533 -0.060229346 -0.0016089694 -0.013869424 0.062355157 -0.008929373
0.06472943 0.07030539 0.14654689 0.063268565 0.063100286 -0.09649689 0.0022305173 0.02431051
-0.051728945 0.006640688 0.13059106 0.077409565 -0.04966552 0.023065988 -0.06426542 -0.01210067
0.0077957716 -0.1289414 -0.13935284 -0.036886718 0.037319522 -0.10763092 -0.019930894 -0.119703844
0.005916153 -0.15394628 0.017169597 0.107390255 0.13677126 -0.03059503 -0.07434984 0.005298708
-0.007910693 -0.1443841 0.013636595 -0.018776072 -0.07211296 -0.044258136 0.083831795 -0.061146136
-0.047015436 0.029231653 -0.017267589 0.057691783 0.014259117 0.16322273 -0.049496826 0.04279718
0.09121906 0.1114044 0.12121282 0.087835014 0.084899984 0.0023656373 -0.03335132 -0.07194453
-0.15725964 -0.08906993 0.04415677 -0.03680835 -0.013477119 0.023449212 0.019329937 -0.048589166
0.09784607 -0.037705224 0.010881481 -0.010850779 0.059172913 -0.11579483 -0.10414549 0.025546364
0.022887338 0.046451688 -0.0106942635 0.024110029 -0.0668879 0.05641138 0.026011707 0.050282687
0.04954913 0.03425844 0.028417643 0.112331785 0.040063083 0.044058647 0.02655714 0.08307314
0.092853926 0.045583002 0.049779 0.07487618 -0.1458977 0.015124967 -0.08277884 0.05313477
-0.049596656 0.08124003 -0.00836818 -0.033658028 0.024576752 0.14185345 0.007931523 -0.0800574
-0.043990932 -0.017253911 -0.2259307 0.059307687 0.09607331 0.17443113 -0.029659603 0.07082198
-0.060741264 -0.098931 0.07403689 -0.14415407 -0.14768274 0.04380291 0.0016676127 -0.07671261
0.028584436 0.082450084 -0.11288791 -0.07039586 -0.053204104 0.045207605 0.059028924 0.06841617
-0.009307721 0.0017702917 0.043444026 0.039299894 -0.09067943 -0.07126271 0.072224684 0.0148856295
-0.0073417095 0.15858664 0.12520729 0.10065968 -0.07687571 0.12867191 0.07517071 -0.0773638
0.07933895 -0.058435854 0.01867693 0.05104025 0.076098 0.030406915 0.024011102 -0.053833373
0.04101537 -0.08926002 -0.10729026 0.049794313 0.06529516 0.072778665 -0.088267684 0.05888288
0.062677845 -0.030791756 -0.042822517 0.019838855 0.0066965166 -0.10235545 0.08438121 0.008743614
-0.011158848 -0.10552601 -0.03188303 -0.04303398 -0.06078384 0.18841358 0.023431139 0.014804797
0.058485854 -0.036214035 0.10686239 0.013954665 -0.02917129 -0.059841502 -0.055405755 -0.079501875
-0.10931655 -0.17276494 -0.021864465 -0.09455566 0.04615682 -0.02916135 0.038126152 -0.08457514
0.15458435 -0.16845417 -0.031066861 -0.06349763 0.03731604 -0.10338626 -0.030837003 0.00709679
0.20572454 0.021837682 -0.046397176 -0.0755272 -0.06981657 -0.06961074 0.06780989 -0.055146202
00000000: 629c 56bc c7c1 fc3c a0d5 f43d f4cf 143e
00000010: 3f6e 9dbd 4e8d 073c ff3d 08bc 7c08 0a3e
00000020: 1798 a73d fa44 543c 1c2a a23d c735 363d
00000030: a30a 863c aa15 8bbc 60b2 c3bd 62a8 4e3d
00000040: f293 80bd 891e fe3d 35d1 fd3d 40d4 4fbd
00000050: ec88 033d 87a6 ad3d 6186 da3c 6d77 b6bc
00000060: 18c8 d7bd c622 0f3d d90d 20be cb8c 9d3c
00000070: 94be 803d e378 ae3d def9 bcbc f3b8 063e
00000080: b5a3 c8bd 51d8 4cbc 7f10 373d 0ba6 893c
00000090: 8e21 1ebe 9bc6 c03d 1096 a4bd 95c9 f8bc
000000a0: db1f af3a b123 843c c383 38bd 0cb3 76bd
000000b0: 0ee4 d2ba 953c 63bc 1f68 7f3d 814c 12bc
000000c0: dd90 843d 46fc 8f3d 6310 163e f392 813d
000000d0: b93a 813d 29a0 c5bd df2d 123b d626 c73c
000000e0: bbe1 53bd 219a d93b aab9 053e e888 9e3d
000000f0: 136e 4bbd e2f4 bc3c 979d 83bd e341 46bc
00000100: ac73 ff3b 3709 04be 83b2 0ebe 8716 17bd
00000110: 5bdc 183d 9a6d dcbd 1d46 a3bc 4a27 f5bd
00000120: 4adc c13b 18a4 1dbe 41a7 8c3c 6cef db3d
00000130: c40d 0c3e 6ea2 fabc bb44 98bd c9a0 ad3b
00000140: da9b 01bc 6dd9 13be 066c 5f3c 47d0 99bc
00000150: f6af 93bd 0548 35bd 01b0 ab3d 5f74 7abd
00000160: 4293 40bd 3877 ef3c c274 8dbc 384e 6c3d
00000170: 129f 693c dc23 273e 2fbd 4abd 194c 2f3d
00000180: 0fd1 ba3d fd27 e43d 6d3e f83d d8e2 b33d
00000190: 0be0 ad3d cf08 1b3b 659b 08bd a757 93bd
000001a0: ac08 21be 4c6a b6bd bbdd 343d 5ac4 16bd
000001b0: 22cf 5cbc 9018 c03c d159 9e3c 6f05 47bd
000001c0: 8563 c83d cb70 1abd 3d48 323c 77c7 31bc
000001d0: 4c5f 723d d725 edbd 3b4a d5bd 9c46 d13c
000001e0: 3a7e bb3c 2044 3e3d fe36 2fbc 6582 c53c
000001f0: 86fc 88bd 9f0f 673d 8116 d53c 38f5 4d3d
00000200: 07f4 4a3d 9452 0c3d 1ecc e83c 350e e63d
00000210: 3019 243d d776 343d 5c8e d93c 4022 aa3d
00000220: 332a be3d 3eb5 3a3d 11e5 4b3d af58 993d
00000230: 3566 15be b6ce 773c f487 a9bd d8a3 593d
00000240: dd25 4bbd 2c61 a63d b11a 09bc 00dd 09bd
00000250: 2f55 c93c 0842 113e 38f3 013c 22f5 a3bd
00000260: d62f 34bd 1358 8dbc 615a 67be 9eec 723d
00000270: 15c2 c43d 139e 323e b2f8 f2bc 1d0b 913d
00000280: d5cb 78bd 569c cabd a7a0 973d 209d 13be
00000290: 253a 17be ae6a 333d cc93 da3a 801b 9dbd
000002a0: e829 ea3c 97db a83d c731 e7bd b42b 90bd
000002b0: 8cec 59bd 9c2b 393d 50c8 713d c71d 8c3d
000002c0: 697f 18bc 2209 e83a 5df2 313d edf8 203d
000002d0: 23b6 b9bd 2ff2 91bd 89ea 933d dbe2 733c
000002e0: b992 f0bb 8964 223e 5736 003e aa26 ce3d
000002f0: 0371 9dbd 92c2 033e 1af3 993d e970 9ebd
00000300: 767c a23d 6f5a 6fbd 5c00 993c 950f 513d
00000310: 45d9 9b3d ec17 f93c eeb2 c43c 6280 5cbd
00000320: bcff 273d f5cd b6bd ffba dbbd 1ff5 4b3d
00000330: 78b9 853d fb0c 953d b0c5 b4bd 2d2f 713d
00000340: 3e5d 803d fe3e fcbc aa66 2fbd 1885 a23c
00000350: 746e db3b bc9f d1bd 0ed0 ac3d 6041 0f3c
00000360: 9ad3 36bc 051e d8bd c897 02bd 6644 30bd
00000370: 7af8 78bd 7def 403e a9f2 bf3c d28f 723c
00000380: dd8e 6f3d 2b55 14bd abda da3d 1ba2 643c
00000390: a1f8 eebc 5d1c 75bd 25f1 62bd e1d1 a2bd
000003a0: 5be1 dfbd 4be9 30be 1b1d b3bc 66a6 c1bd
000003b0: ef0e 3d3d c9e3 eebc 2b2a 1c3d bb35 adbd
000003c0: 5c4b 1e3e 407f 2cbe ee7f febc 0c0b 82bd
000003d0: b4d8 183d 2dbc d3bd e29d fcbc 308c e83b
000003e0: 74a9 523e f0e4 b23c f70a 3ebd 01ae 9abd
000003f0: fdfb 8ebd 1390 8ebd e9df 8a3d fce0 61bd

bias f4 [512]
0.014497606 -0.07882975 -0.028746538 0.001851976 0.042429242 -0.07242797 -0.022082072 -0.022670593
-0.033780046 -0.079861075 -0.05643224 -0.06009936 0.060079135 -0.048169095 -0.044980153 0.10723311
0.036645956 -0.038002554 -0.009670237 -0.016940389 0.0036886376 0.061912745 -0.05286644 0.015233862
-0.13004768 -0.030761408 0.06932538 -0.11866008 -0.068765335 0.010066467 -0.0005920273 -0.04356694
-0.02105814 0.06479005 0.012011864 0.017838303 0.013745296 -0.014518786 0.012485101 0.003193008
-0.015536678 -0.020458585 -0.04223641 -0.043613236 0.06534802 0.07129102 0.043097652 0.050847106
0.049674917 0.004248858 0.08570456 -0.08137851 0.011123538 0.05160609 0.07311123 0.023490781
-0.025096921 0.026339293 0.032717466 0.02471722 0.05673076 0.0324453 0.03339122 -0.0129841985
0.034198053 -0.035565343 0.0019199892 -0.079674035 -0.08312725 0.04632397 -0.06662629 -0.008836118
-0.050156265 -0.06627322 -0.036971025 0.012244825 0.04194421 0.053427655 -0.011410128 0.04810271
-0.010020222 0.05265898 0.009579969 -0.014443645 0.008320609 -0.0047206557 0.00045902745 -0.03287428
-0.0021163123 0.016383193 -0.04082045 -0.051729072 -0.03267875 -0.06931068 -0.063114494 -0.052604966
0.0488878 -0.03714298 -0.03172501 -0.037689928 -0.09067566 0.05633355 0.06787165 0.024823014
-0.009694618 -0.07070726 -0.034382794 0.060174115 -0.052223727 -0.018351028 -0.0045803464 -0.018659865
0.0029257445 -0.07929577 0.058025025 0.039237477 0.084001675 0.007578995 0.04237019 -0.15630047
-0.09195261 0.009823879 0.060747493 -0.008010378 -0.096336715 0.042766944 0.074919336 0.057380423
0.017294949 0.06201176 -0.011996944 0.042297404 -0.023765367 -0.047853336 0.023640387 -0.030892193
0.066170424 -0.029754514 -0.068919785 0.07203287 0.105135106 0.04474353 -0.05395237 0.02360442
0.015334386 -0.028729761 -0.061599515 -0.019527813 0.044472504 0.08331936 -0.108082704 -0.05707017
-0.02573464 -0.061309624 -0.12339692 0.057699706 -0.08673025 -0.045929775 -0.051223047 -0.033097863
0.008115099 0.055839166 0.0022509557 -0.06270254 -0.017086083 0.041463025 0.012480489 0.014446539
-0.03846905 0.06856394 0.033549067 0.007244334 -0.025657183 -0.089902595 0.022917636 -0.11413789
0.0793194 0.074541494 -0.044852182 -0.019149244 0.03769851 0.037774973 0.090042286 0.089164756
0.009132689 -0.0393198 0.024116352 0.07451302 -0.07016483 0.06465055 0.10590166 0.060371157
0.059806507 0.07853707 -0.035284817 0.049871758 0.038634114 -0.12274551 -0.033630308 -0.03609128
0.025964096 -0.093993604 0.013938883 -0.053786423 0.032440294 0.012993659 -0.018397698 0.031769287
-0.031246925 0.053236067 0.033669867 0.07354981 0.028766686 -0.04271089 -0.07976775 -0.08770098
0.10390525 -0.046758227 -0.10178187 -0.037544653 0.06211021 0.083848566 -0.08267226 0.043248635
-0.005416786 -0.080789216 -0.052983098 -0.028724497 -0.0064365882 -0.04364575 -0.004541536 0.03203988
-0.07765958 -0.089113906 0.002657996 -0.041920938 0.0020156577 -0.040643234 0.060476404 -0.06465111
0.043189522 0.02241355 0.014116983 -0.007860276 -0.010752065 0.058201343 -0.004665975 0.021697773
0.029750174 0.040605135 -0.06345364 -0.009525614 -0.06801505 -0.031457808 -0.011732344 0.007842155
00000000: 5e87 6d3c 7e71 a1bd dc7d ebbc 01be f23a
00000010: 49ca 2d3d 1e55 94bd 76e5 b4bc aeb7 b9bc
00000020: f25c 0abd 348e a3bd 7e25 67bd bf2a 76bd
00000030: 8a15 763d f54c 45bd 1c3d 38bd 089d db3d
00000040: 121a 163d 91a8 1bbd ea6f 1ebc 92c6 8abc
00000050: 12bd 713b 3898 7d3d 7b8a 58bd 7397 793c
00000060: 382b 05be 59ff fbbc 77fa 8d3d 0e04 f3bd
00000070: d7d4 8cbd d3ed 243c 4832 1bba 3f73 32bd
00000080: 1f82 acbc a5b0 843d 69cd 443c a221 923c
00000090: f333 613c 34e0 6dbc 4f8e 4c3c c941 513b
000000a0: 8d8d 7ebc c398 a7bc 1600 2dbd cba3 32bd
000000b0: 2fd5 853d 0701 923d 2a87 303d 0e45 503d
000000c0: ed77 4b3d 013a 8b3b df85 af3d c7a9 a6bd
000000d0: 803f 363c e860 533d 57bb 953d bd6f c03c
000000e0: 0f98 cdbc 80c5 d73c c002 063d c47b ca3c
000000f0: 835e 683d 5de5 043d 3bc5 083d adbb 54bc
00000100: 4213 0c3d f7ac 11bd 26a8 fb3a 242c a3bd
00000110: 9f3e aabd 34be 3d3d 5d73 88bd 5dc5 10bc
00000120: a870 4dbd 41ba 87bd ee6e 17bd 859e 483c
00000130: b1cd 2b3d f5d6 5a3d 8cf1 3abc 5907 453d
00000140: db2b 24bc f1b0 573d 4df5 1c3c 0aa5 6cbc
00000150: 2a53 083c bbaf 9abb 9fa9 f039 2ea7 06bd
00000160: d4b1 0abb 0c36 863c 5833 27bd dde1 53bd
00000170: 27da 05bd c2f2 8dbd 2c42 81bd 4e78 57bd
00000180: 933e 483d 3d23 18bd 16f2 01bd c160 1abd
00000190: 29b4 b9bd 02be 663d 4b00 8b3d a259 cb3c
000001a0: 2dd6 1ebc f8ce 90bd f9d4 0cbd 2279 763d
000001b0: 8ce8 55bd e554 96bc bb16 96bb 93dc 98bc
000001c0: d9bd 3f3b d265 a2bd a6ab 6d3d 7ab7 203d
000001d0: 1209 ac3d 3859 f83b 5d8c 2d3d 3b0d 20be
000001e0: a651 bcbd 56f4 203c 5dd2 783d f63d 03bc
000001f0: 2f4c c5bd 642c 2f3d 4f6f 993d bc07 6b3d
00000200: 23ae 8d3c 0b00 7e3d d58e 44bc 0b40 2d3d
00000210: 96af c2bc dc01 44bd 7ca9 c13c a011 fdbc
00000220: 5c84 873d bdbf f3bc d125 8dbd f885 933d
00000230: 1351 d73d fe44 373d 29fd 5cbd 0e5e c13c
00000240: 143d 7b3c ad5a ebbc c64f 7cbd cbf8 9fbc
00000250: cd28 363d 57a3 aa3d 775a ddbd 69c2 69bd
00000260: 74d1 d2bc cd1f 7bbd 86b7 fcbd 8756 6c3d
00000270: a19f b1bd dc20 3cbd 42cf 51bd a091 07bd
00000280: 31f5 043c 9cb7 643d c584 133b 306a 80bd
00000290: 1df8 8bbc 22d5 293d f77a 4c3c 2db1 6c3c
000002a0: b991 1dbd 406b 8c3d bf6a 093d e161 ed3b
000002b0: 032f d2bc da1e b8bd c4bd bb3c 20c1 e9bd
000002c0: 3672 a23d 36a9 983d ecb6 37bd e0de 9cbc
000002d0: c169 1a3d eeb9 1a3d 1768 b83d 039c b63d
000002e0: 46a1 153c cc0d 21bd a88f c53c 489a 983d
000002f0: 94b2 8fbd 8267 843d f8e2 d83d bf47 773d
00000300: abf7 743d 0bd8 a03d d086 10bd 5446 4c3d
00000310: ce3e 1e3d ff61 fbbd efbf 09bd 73d4 13bd
00000320: a8b2 d43c b87f c0bd ea5f 643c 274f 5cbd
00000330: 1de0 043d 5be3 543c c5b6 96bc 8320 023d
00000340: 8df9 ffbc 100e 5a3d 6ae9 093d 48a1 963d
00000350: 1da8 eb3c 9df1 2ebd 465d a3bd 929c b3bd
00000360: 47cc d43d 8e85 3fbd 0373 d0bd 6cc8 19bd
00000370: 4767 7e3d ccb8 ab3d 1350 a9bd 7b25 313d
00000380: 4b7f b1bb d174 a5bd ce04 59bd a34f ebbc
00000390: 04ea d2bb e3c5 32bd 2ad1 94bb 403c 033d
000003a0: fc0b 9fbd 5a81 b6bd c631 2e3b 4ab5 2bbd
000003b0: 2019 043b 8579 26bd 1bb6 773d cd67 84bd
000003c0: 7fe7 303d 9f9c b73c eb4a 673c 63c8 00bc
000003d0: 6e29 30bc 8864 6e3d 09e5 98bb 87bf b13c
000003e0: a3b6 f33c 9251 263d fbf3 81bd 5211 1cbc
000003f0: 794b 8bbd e7d9 00bd 0439 40bc 627c 003c

weight f4 [256, 512]
0.08892115 0.28924227 0.012259375 -0.030799508 -0.081509285 0.043127343 0.004756357 -0.011711149
0.02478812 0.013913145 0.028557641 0.031332698 0.02227662 0.013441992 0.15356342 0.013187318
-0.044395477 0.08331326 0.045816943 0.056228515 -0.027421266 0.03773064 0.0065284795 0.02032282
0.0113742715 0.11320203 0.088209525 0.028611097 0.0796556 0.008590687 0.1500929 0.043914348
0.194539 0.01580072 -0.002615775 -0.0347745 0.14422227 0.21147054 0.08684819 0.1246837
0.013499008 0.08357543 0.07298526 0.047825113 0.023719966 -0.058227595 0.04003583 0.22072965
0.01204499 0.08596537 -0.010843712 -0.022264194 -0.030311003 0.09061778 0.20012279 0.049415857
0.031467073 -0.0035580033 0.0689297 -0.010781265 0.001887344 -0.02659433 -0.030700883 -0.0072998307
-0.013105347 0.10231692 -0.020552063 0.035455618 0.062406108 0.004492775 -0.033657636 0.07927506
0.06216952 0.27857423 0.12513313 -0.015461808 0.019942999 -0.028043207 -0.0035485867 0.05210487
0.01292915 0.006658235 0.04984535 -0.025889859 0.009479723 -0.012507144 0.06635239 0.0043891193
0.15159468 -0.0037058347 0.07069326 0.15717374 0.005964966 0.0394419 0.022752456 -0.02736187
0.09892174 0.06429232 0.048352312 0.03901272 0.25507155 0.0047129123 -0.005369875 0.023971323
-0.13531883 0.1273378 -0.036779232 -0.046630006 0.059169747 -0.063019484 0.02162232 -0.07475581
0.03426682 -0.024648165 -0.010487559 0.06798912 -0.017150413 0.15774466 0.021240061 0.0659752
-0.006285594 0.05130105 -0.008684014 -0.025403861 0.11540931 0.02991952 0.18745542 0.0012059904
-0.0006977965 0.10786055 -0.012011612 -0.014080049 -0.009556487 0.031726997 0.012696044 -0.04109331
-0.00848023 0.03361546 0.03281807 0.03622358 0.07234618 -0.03551846 -0.015843777 0.01632955
-0.01325419 0.04699479 0.08399712 -0.045387596 -0.036510877 0.0346295 0.09615257 -0.078719005
-0.011771582 -0.05268575 0.057777982 0.040959097 0.014030927 -0.051860336 0.031603243 0.011576327
0.09765046 -0.0016352301 0.01351149 -0.016768236 -0.07214603 -0.0585441 0.05274173 0.022953475
0.023665983 -0.048039008 0.0026319132 0.0042296746 -0.019747945 0.017059008 -0.05545545 0.05394552
0.016684743 0.044278916 0.04366877 0.11900137 0.045807768 0.06890918 0.014864088 -0.017286465
-0.002281209 -0.032033067 -0.036221698 0.16901577 0.29344308 0.0017085852 -0.021749247 -0.0052561895
0.0152534405 0.00577843 0.03709713 -0.041126177 0.045181748 0.10193465 0.029453777 0.06774134
-0.013288082 0.05238574 0.035244785 0.08185832 0.061904453 -0.011930793 0.16744822 0.015104037
-0.04295989 -0.04241759 -0.07408982 0.004352653 0.096074104 -0.016879842 0.010195894 0.2301119
-0.009872773 0.01502696 -0.008188619 0.017208558 -0.02180192 0.13316946 0.0735505 -0.01985653
0.017621538 0.060185157 -0.029818643 0.10074418 -0.024870021 -0.00079700426 -0.04989582 0.05539856
0.13490924 0.056601107 0.023770506 0.11074692 0.021213809 0.0037988657 0.028620299 0.068361595
-0.033659942 -0.017458456 -0.017411817 -0.0032328593 0.02922762 0.02333848 0.09305358 -0.0096327225
0.017853273 0.08401939 -0.01824733 0.015691547 -0.026307713 0.1184981 -0.030744605 -0.016980058
00000000: 4b1c b63d 9017 943e 8cdb 483c 404f fcbc
00000010: 57ee a6bd 4ca6 303d 37db 9b3b 1ee0 3fbc
00000020: 7510 cb3c f6f3 633c b7f1 e93c b756 003d
00000030: 757d b63c cd3b 5c3c bb3f 1d3e 9f0f 583c
00000040: 08d8 35bd 24a0 aa3d 8caa 3b3d df4f 663d
00000050: 90a2 e0bc 728b 1a3d dbec d53b 0b7c a63c
00000060: 275b 3a3c 77d6 e73d 32a7 b43d d261 ea3c
00000070: 7a22 a33d f4bf 0c3c f4b1 193e 88df 333d
00000080: 3b35 473e 8370 813c 6c6d 2bbb b56f 0ebd
00000090: 01af 133e bc8b 583e 77dd b13d 2b5a ff3d
000000a0: f12a 5d3c 9829 ab3d 4c79 953d 44e4 433d
000000b0: 6050 c23c 0f80 6ebd 9cfc 233d f406 623e
000000c0: 5a58 453c 9d0e b03d d3a9 31bc 6663 b6bc
000000d0: c84e f8bc d195 b93d fdec 4c3e 4868 4a3d
000000e0: 9ee3 003d 642d 69bb 042b 8d3d e7a3 30bc
000000f0: c260 f73a 5adc d9bc 6b80 fbbc 6b33 efbb
00000100: cfb7 56bc 898b d13d cd5c a8bc e939 113d
00000110: 8c9d 7f3d 2138 933b 97dc 09bd f65a a23d
00000120: 77a5 7e3d 48a1 8e3e e622 003e 8653 7dbc
00000130: 805f a33c deba e5bc 688f 68bb eb6b 553d
00000140: c9d4 533c 532d da3b a32a 4c3d f816 d4bc
00000150: d750 1b3c c4ea 4cbc c3e3 873d 9ad2 8f3b
00000160: a33b 1b3e 97dd 72bb a1c7 903d 27f2 203e
00000170: c375 c33b d48d 213d 5c63 ba3c 0026 e0bc
00000180: 7b97 ca3d b1ab 833d 130d 463d cdcb 1f3d
00000190: bd98 823e c66e 9a3b c7f5 afbb 825f c43c
000001a0: 0591 0abe d764 023e d2a5 16bd 1bff 3ebd
000001b0: fa5b 723d 5c10 81bd 4b21 b13c 9319 99bd
000001c0: 5d5b 0c3d f3ea c9bc 03d4 2bbc e13d 8b3d
000001d0: 067f 8cbc d187 213e a3ff ad3c 011e 873d
000001e0: 62f7 cdbb 0d21 523d 6547 0ebc c21b d0bc
000001f0: b75b ec3d c819 f53c 50f4 3f3e 5312 9e3a
00000200: 55ec 36ba fee5 dc3d 5acc 44bc 01b0 66bc
00000210: d092 1cbc 2bf4 013d 1103 503c 7551 28bd
00000220: aaf0 0abc 5db0 093d 3e6c 063d 2d5f 143d
00000230: 3c2a 943d ce7b 11bd cfca 81bc 8cc5 853c
00000240: 1a28 59bc 9c7d 403d af06 ac3d 58e8 39bd
00000250: 6e8c 15bd aad7 0d3d a3eb c43d 6e37 a1bd
00000260: 98dd 40bc 03cd 57bd 9ba8 6c3d bac4 273d
00000270: f9e1 653c 816b 54bd 6772 013d a2aa 3d3c
00000280: f7fc c73d 3855 d6ba 4c5f 5d3c 8a5d 89bc
00000290: 4cc1 93bd f0cb 6fbd b607 583d ed08 bc3c
000002a0: 2adf c13c 8dc4 44bd 2d7c 2c3b 1599 8a3b
000002b0: 71c6 a1bc 55bf 8b3c 4125 63bd faf5 5c3d
000002c0: 71ae 883c cf5d 353d 06de 323d feb6 f33d
000002d0: eda0 3b3d 4220 8d3d 8188 733c 589c 8dbc
000002e0: 5680 15bb 1b35 03bd 345d 14bd 7812 2d3e
000002f0: 2c3e 963e 9bf2 df3a 7a2b b2bc 1d3c acbb
00000300: 91e9 793c fc58 bd3b 29f3 173d ec73 28bd
00000310: 7f10 393d 1dc3 d03d 0c49 f13c f9bb 8a3d
00000320: 41b6 59bc 6e92 563d d65c 103d 56a5 a73d
00000330: 868f 7d3d 5f79 43bc 8c77 2b3e ec76 773c
00000340: b6f6 2fbd 11be 2dbd 67bc 97bd b3a0 8e3b
00000350: 80c2 c43d 9847 8abc ae0c 273c 74a2 6b3e
00000360: 69c1 21bc a333 763c 8f29 06bc f6f8 8c3c
00000370: f199 b2bc 935d 083e a5a1 963d 29aa a2bc
00000380: 0b5b 903c b684 763d 3a46 f4bc f752 ce3d
00000390: 37bc cbbc 0dee 50ba 8f5f 4cbd 9ae9 623d
000003a0: a625 0a3e 90d6 673d 5dba c23c 48cf e23d
000003b0: 95c8 ad3c 64f6 783b 1e75 ea3c 2a01 8c3d
000003c0: 02df 09bd 0905 8fbc 3aa3 8ebc 61de 53bb
000003d0: c36e ef3c 5730 bf3c e092 be3d 91d2 1dbc
000003e0: 0741 923c 5c12 ac3d 6d7b 95bc 8f8b 803c
000003f0: 4683 d7bc 22af f23d 1cdc fbbc c319 8bbc

bias f4 [256]
-0.07452439 0.059706096 0.056429397 0.0029102247 0.062262803 -0.066311926 -0.1027227 0.068782225
0.10844757 0.04544686 -0.0033655865 0.032321993 0.02251907 0.021086818 -0.046222456 -0.010782089
-0.04143153 0.09386251 -0.023961188 -0.04560829 0.06521574 -0.07411421 0.047550518 0.04496155
-0.17803499 -0.031835504 0.03718591 -0.07666932 0.08334277 0.03632041 -0.020910854 0.01929919
0.024207454 -0.045182284 0.09664597 0.037644707 0.00053067476 0.014912451 -0.018223274 0.042168107
0.019941311 0.00851698 -0.08713097 0.0018087545 0.08798507 0.068584256 0.010282479 -0.07477363
-0.033987068 -0.000447697 -0.044759322 0.069143824 -0.00942568 -0.0010742272 -0.02163321 0.018569008
-0.03858614 0.04699571 0.023969859 -0.087243624 0.06104844 0.05842552 0.033237908 0.0722063
0.024379421 -0.021038778 0.008854287 -0.026128286 -0.02270056 0.06251479 -0.014534674 0.0271334
-0.04630583 0.07985018 -0.033393882 0.0100401575 0.019075835 -0.13320997 -0.01986989 0.013533847
0.05802366 -0.04867702 0.05931156 -0.0049419673 -0.03419647 0.028316317 -0.07476623 0.0033917185
-0.010388817 0.022844855 0.046228494 0.005713973 0.030532157 0.0599143 -0.08271755 0.0072460147
-0.054934256 -0.04610588 -0.03037932 0.06406061 -0.035316467 -0.05407375 -0.035888392 0.050971404
0.07368073 0.047684636 0.011116464 0.046979852 0.013485783 -0.029114978 -0.044434432 0.08390957
-0.13958076 0.011883616 0.026780214 -0.044819497 -0.0010802939 0.03748645 -0.0309491 -0.088375814
-0.00982732 0.04678615 -0.06276254 -0.042303216 0.055826142 0.0014874246 0.04871111 0.037722778
0.04677632 -0.008467692 -0.028874362 -0.01093857 0.061489098 0.009611894 0.04992723 -0.0388474
0.039792225 0.029732497 0.03390493 -0.11298877 -0.017254248 -0.047570035 0.041543122 0.07382523
-0.022440216 0.018505542 0.012033915 0.100287735 0.01636738 0.082928166 0.046734076 0.028485484
0.00823364 0.02968782 0.031669077 -0.0068106772 -0.016637256 0.04723529 0.03460641 0.08340746
0.015605531 0.06573228 -0.12307836 -0.011751111 -0.0025893936 -0.015436885 0.067574486 0.053318184
0.013189337 0.066017196 0.07714164 0.0510204 -0.0021554362 -0.08673129 0.040293936 -0.020103317
0.013104074 0.004042812 0.028695073 0.031830985 0.04610605 0.011003411 0.02644804 0.13404292
0.00071214617 0.037085004 -0.011036933 0.03459585 -0.064885415 -0.00018334674 0.02077291 0.013709991
0.062094614 -0.012080828 0.11899812 0.086067505 -0.07611133 0.0038966632 -0.052590746 -0.060502425
-0.05658861 0.04744478 -0.0044804914 -0.08404552 0.06650861 -0.022182917 -0.015841456 0.015557154
0.012292772 -0.015012881 0.06289615 0.021623677 0.027358765 -0.12920693 0.012823692 0.05068705
0.021897173 0.0081135295 0.05915873 0.001895837 -0.010999381 -0.005695412 0.01206089 0.036333654
0.0073215044 0.045632347 0.06748533 0.029432872 0.040470075 0.06619771 0.06674505 -0.04120884
0.06726395 -0.008289417 -0.05832504 -0.06849657 -0.0084162755 0.048742935 0.054923825 -0.018557198
0.013463988 -0.038389023 0.051618375 0.0049467674 -0.028829496 -0.020926278 0.021785336 0.0018694967
0.083777055 0.03964343 -0.017193815 -0.06362879 0.036215585 0.034712687 0.058236714 -0.075805046
00000000: 3ea0 98bd 618e 743d 8322 673d 78b9 3e3b
00000010: 4807 7f3d 8cce 87bd 4760 d2bd b2dd 8c3d
00000020: c219 de3d 7d26 3a3d 2c91 5cbb 1164 043d
00000030: ea79 b83c 43be ac3c c253 3dbd 5ca7 30bc
00000040: 1cb4 29bd fd3a c03d 414a c4bc c2cf 3abd
00000050: d48f 853d 31c9 97bd 55c4 423d 9a29 383d
00000060: ce4e 36be f265 02bd 4150 183d ce04 9dbd
00000070: 9daf aa3d b6c4 143d 3d4d abbc 5619 9e3c
00000080: b64e c63c 0f11 39bd 53ee c53d 5631 1a3d
00000090: fb1c 0b3a 5a53 743c fa48 95bc 77b8 2c3d
000000a0: f65b a33c ce8a 0b3c b971 b2bd bb13 ed3a
000000b0: 8431 b43d e775 8c3d d877 283c eb22 99bd
000000c0: 0636 0bbd e0b8 eab9 8d55 37bd 479b 8d3d
000000d0: 2b6e 1abc 15cd 8cba 2138 b1bc 081e 983c
000000e0: 800c 1ebd 937e 403d 705c c43c c9ac b2bd
000000f0: ee0d 7a3d 994f 6f3d 7924 083d e6e0 933d
00000100: 5ab7 c73c 8459 acbc 9211 113c fd0a d6bc
00000110: 86f6 b9bc c107 803d d722 6ebc dd46 de3c
00000120: 2fab 3dbd 7e88 a33d 06c8 08bd 797f 243c
00000130: ed44 9c3c 3268 08be 2ec6 a2bc 12bd 5d3c
00000140: 38aa 6d3d 8e61 47bd aef0 723d 3af0 a1bb
00000150: 9911 0cbd 9ff7 e73c 0a1f 99bd 9847 5e3b
00000160: db35 2abc 2225 bb3c 175a 3d3d 483c bb3b
00000170: 931e fa3c b268 753d d267 a9bd fa6f ed3b
00000180: be02 61bd 85d9 3cbd 0dde f8bc 3632 833d
00000190: 00a8 10bd 707c 5dbd b5ff 12bd 64c7 503d
000001a0: ece5 963d f750 433d d421 363c f26d 403d
000001b0: 79f3 5c3c 8982 eebc e100 36bd c8d8 ab3d
000001c0: 42ee 0ebe 80b3 423c 2e62 db3c a694 37bd
000001d0: a698 8dba 648b 193d f888 fdbc 61fe b4bd
000001e0: c502 21bc d6a2 3f3d a689 80bd 2346 2dbd
000001f0: f4a9 643d b0f5 c23a 4d85 473d 3383 1a3d
00000200: 8798 3f3d 13bc 0abc ed89 ecbc b037 33bc
00000210: fedb 7b3d 357b 1d3c 7f80 4c3d 741e 1fbd
00000220: 2cfd 223d 9191 f33c e5df 0a3d a866 e7bd
00000230: c858 8dbc ccd8 42bd 1f29 2a3d af31 973d
00000240: 8bd4 b7bc ef98 973c e629 453c a863 cd3d
00000250: e214 863c 3ed6 a93d 3b6c 3f3d 645a e93c
00000260: 64e6 063c df33 f33c 6fb7 013d 1a2c dfbb
00000270: db4a 88bc cb79 413d 73bf 0d3d 88d1 aa3d
00000280: 57ae 7f3c a59e 863d 8210 fcbd bb87 40bc
00000290: d1b2 29bb fdea 7cbc 7e64 8a3d 2b64 5a3d
000002a0: 1718 583c 0634 873d 70fc 9d3d c4fa 503d
000002b0: 3842 0dbb 2da0 b1bd 410b 253d b6af a4bc
000002c0: 78b2 563c 9179 843b ee11 eb3c 3561 023d
000002d0: b3d9 3c3d a747 343c 8fa9 d83c 8c42 093e
000002e0: 52af 3a3a 72e6 173d 41d4 34bc 61b4 0d3d
000002f0: a5e2 84bd c440 40b9 f32b aa3c df9f 603c
00000300: ec56 7e3d aaee 45bc 49b5 f33d 2944 b03d
00000310: 42e0 9bbd 295f 7f3b 6569 57bd 64d1 77bd
00000320: 75c9 67bd 7555 423d 16d1 92bb 0f20 acbd
00000330: ab35 883d f3b8 b5bc f1c5 81bc 6fe3 7e3c
00000340: 9f67 493c 96f8 75bc b2cf 803d 2324 b13c
00000350: 7d1f e03c d24e 04be 761a 523c 399d 4f3d
00000360: b361 b33c 9cee 043c 6d50 723d bc7d f83a
00000370: bf36 34bc 94a0 babb 0a9b 453c 99d2 143d
00000380: 3be9 ef3b fce8 3a3d c035 8a3d 351d f13c
00000390: f3c3 253d aa92 873d a1b1 883d 9aca 28bd
000003a0: afc1 893d 56d0 07bc 3de6 6ebd ee47 8cbd
000003b0: 6be4 09bc aca6 473d cef7 603d 4405 98bc
000003c0: 0f98 5c3c cf3d 1dbd ca6d 533d 7e18 a23b
000003d0: d62b ecbc 966d abbc 2977 b23c e609 f53a
000003e0: 4e93 ab3d 2661 223d 0bda 8cbc d04f 82bd
000003f0: cb56 143d e42e 0e3d 9f89 6e3d ad3f 9bbd

weight f4 [128, 256]
-0.006318624 -0.043650817 0.035488043 0.015370696 0.091006495 -0.079638995 -0.06061134 0.060647655
0.029295567 0.07630315 -0.038364295 -0.0040186006 0.0074651097 -0.08682701 0.073752664 -0.033714563
-0.035761096 0.07053307 0.037670113 -0.042709082 0.076213524 -0.07657036 -0.036163393 -0.041544084
-0.16246861 0.00022913469 -0.07227137 -0.07983071 -0.015435093 0.018882532 0.104974724 0.050724123
-0.04969637 -0.076518595 -0.13509244 -0.013718834 -0.0671903 0.011778398 -0.24200152 0.04787641
0.02903021 -0.08153023 0.0027199727 -0.14924884 0.047324605 0.030096345 0.015239981 -0.04601151
-0.09125289 0.0069253016 -0.014999477 -0.021326955 -0.029327108 0.10279502 -0.061172303 0.08199548
-0.103628635 0.025966423 -0.09870305 -0.24882337 -0.022367416 0.057426818 -0.028844263 0.06813206
-0.047650695 -0.087912135 0.056681942 0.01985793 0.028379858 -0.010407175 0.0024741557 0.002266554
-0.031785134 -0.02705462 -0.092245184 0.00549406 -0.037967727 -0.005706021 0.021341883 -0.22239102
0.024257736 -0.011083923 -0.004206674 0.0037963705 -0.07626333 0.012537445 -0.19627361 -0.02044047
-0.031473853 -0.020123996 -0.10696432 -0.0137057025 -0.034483705 -0.049802806 0.011187397 0.030212859
0.01608015 -0.25651896 -0.08920043 0.0043662423 0.023460858 -0.051392373 -0.060012333 -0.033983424
-0.0136147635 0.06933002 -0.049630333 0.05988706 0.0035279514 -0.103249215 -0.00096814777 0.07907849
0.028819557 0.024638152 0.024470337 -0.0023355451 -0.00056601275 -0.054949515 0.06498046 -0.07686232
-0.13604152 0.009997826 -0.030551719 0.0041095475 -0.011340609 -0.022298481 -0.014494064 -0.028015668
0.030850668 -0.036693826 -0.05691977 -0.07085507 -0.2602 -0.050740205 0.07719362 0.011826246
-0.090514146 -0.09897461 -0.054348003 0.03378218 0.038429063 0.057258807 -0.020763976 0.05981386
-0.04954653 0.11290241 -0.049200296 -0.0068168864 -0.037408195 -0.032063257 -0.121923834 -0.21849036
0.06106216 0.058536157 -0.008000831 0.009038795 -0.036579236 -0.032185033 0.08195283 -0.10567499
0.021638542 0.047158472 0.034656756 -0.044325273 0.028660601 -0.09398836 0.031048646 -0.027096337
-0.1627728 0.037354104 -0.0017153635 -0.18727303 -0.09528232 0.032718226 0.02454812 -0.016894516
0.015079331 0.06259801 -0.107480824 0.026233707 0.037665818 0.035608556 0.0117167095 -0.071461946
-0.040599965 0.03898726 -0.05059662 0.011911891 0.036730547 -0.029351342 0.039133504 -0.016457198
-0.01471355 0.026366595 -0.032761335 -0.17794335 -0.020350702 0.0647855 -0.058601137 -0.08413978
-0.01974879 0.03627939 0.002765157 0.059227586 -0.020307226 -0.059854336 -0.25797784 0.04355433
0.049165986 0.019395076 -0.25129887 -0.09775729 -0.026779523 -0.008353729 0.06679344 0.04501329
-0.07852701 0.07055505 0.04218713 0.0013399391 0.042712048 -0.03304955 0.0077291573 0.05287808
0.021426603 0.029082933 0.0054103485 -0.04517589 -0.04342282 -0.030922573 -0.0065027755 0.0027426754
-0.09463634 0.06143087 -0.0884514 -0.060878363 -0.060367208 -0.007217663 0.03518589 -0.04971083
0.06813625 -0.042806137 -0.07137685 0.05573268 0.025029639 0.023321973 0.052641574 -0.034098014
-0.03637835 -0.055881254 -0.09852298 -0.010409289 -0.05248198 0.06583321 -0.01377063 -0.06844104
00000000: 760c cfbb 33cb 32bd e95b 113d 5fd5 7b3c
00000010: 9d61 ba3d c519 a3bd 9943 78bd ad69 783d
00000020: 42fd ef3c d344 9c3d e123 1dbd 77ae 83bb
00000030: e19d f43b 5cd2 b1bd a30b 973d 4818 0abd
00000040: 3a7a 12bd a473 903d fa4b 1a3d b8ef 2ebd
00000050: d615 9c3d ecd0 9cbd 1120 14bd 212a 2abd
00000060: 2c5e 26be e043 7039 0303 94bd 497e a3bd
00000070: 79e3 7cbc 8aaf 9a3c fdfc d63d 19c4 4f3d
00000080: 6c8e 4bbd c8b5 9cbd ac55 0abe f6c4 60bc
00000090: 119b 89bd 2ffa 403c 3fcf 77be 0e1a 443d
000000a0: c3d0 ed3c 52f9 a6bd 9241 323b b0d4 18be
000000b0: 72d7 413d 9c8c f63c 1db1 793c 9176 3cbd
000000c0: cce2 babd a4ed e23b 5ec0 75bc deb5 aebc
000000d0: 673f f0bc 3286 d23d cf8f 7abd 3fed a73d
000000e0: 403b d4bd 89b7 d43c d324 cabd 8ecb 7ebe
000000f0: df3b b7bc 6238 6b3d ce4a ecbc d288 8b3d
00000100: 602d 43bd 470b b4bd 532b 683d 19ad a23c
00000110: e07c e83c db82 2abc 7225 223b 778a 143b
00000120: 2131 02bd a7a1 ddbc 0beb bcbd 8407 b43b
00000130: 0c84 1bbd 93f9 babb 2cd5 ae3c 79ba 63be
00000140: 29b8 c63c 5899 35bc 24d8 89bb 87cc 783b
00000150: f32f 9cbd db69 4d3c f3fb 48be c672 a7bc
00000160: baea 00bd 14db a4bc 1c10 dbbd e28d 60bc
00000170: c93e 0dbd 07fe 4bbd 584b 373c f580 f73c
00000180: 85ba 833c 7456 83be b7ae b6bd b212 8f3b
00000190: fc30 c03c cf80 52bd 7ecf 75bd 3432 0bbd
000001a0: 7510 5fbc e6fc 8d3d 2d49 4bbd 224c 753d
000001b0: 3435 673b 5374 d3bd 4ccb 7dba e7f3 a13d
000001c0: fe16 ec3c f3d5 c93c 0476 c83c f20f 19bb
000001d0: 7960 14ba be12 61bd 7a14 853d fe69 9dbd
000001e0: 784e 0bbe eccd 233c 9947 fabc 62a9 863b
000001f0: f6cd 39bc 4eab b6bc 8378 6dbc 1d81 e5bc
00000200: 8aba fc3c 444c 16bd b424 69bd 771c 91bd
00000210: ef38 85be f6d4 4fbd b017 9e3d dfc2 413c
00000220: 7b5f b9bd 33b3 cabd 039c 5ebd 2f5f 0a3d
00000230: cb67 1d3d 3688 6a3d 3719 aabc 61ff 743d
00000240: 4df1 4abd 6139 e73d 4086 49bd 3060 dfbb
00000250: 5639 19bd c354 03bd 34b3 f9bd f0bb 5fbe
00000260: 511c 7a3d 9cc3 6f3d eb15 03bc 7417 143c
00000270: 1cd4 15bd 74d4 03bd e3d6 a73d 216c d8bd
00000280: 5043 b13c 3e29 413d 3ef4 0d3d 6b8e 35bd
00000290: a3c9 ea3c f87c c0bd bb59 fe3c 23f9 ddbc
000002a0: eaad 26be 9e00 193d 0cd6 e0ba 80c4 3fbe
000002b0: 6123 c3bd 8c03 063d 2419 c93c 5e66 8abc
000002c0: 4c0f 773c 6333 803d e81e dcbd 12e8 d63c
000002d0: 7947 1a3d 47da 113d 71f7 3f3c a45a 92bd
000002e0: 264c 26bd 1bb1 1f3d 673e 4fbd 182a 433c
000002f0: c572 163d 3a72 f0bc 744a 203d 3fd1 86bc
00000300: 1a11 71bc c2fe d73c c030 06bd c836 36be
00000310: 84b6 a6bc 43ae 843d bf07 70bd 7a51 acbd
00000320: 37c8 a1bc b399 143d a337 353b a098 723d
00000330: 575b a6bc d229 75bd ac15 84be 0666 323d
00000340: 4662 493d 6ce2 9e3c 3faa 80be f934 c8bd
00000350: bb60 dbbc 14de 08bc 00cb 883d db5f 383d
00000360: c5d2 a0bd 2b7f 903d 69cc 2c3d e5a0 af3a
00000370: d4f2 2e3d f75e 07bd df44 fd3b b096 583d
00000380: d886 af3c 553f ee3c 4b49 b13b 5b0a 39bd
00000390: 20dc 31bd 5651 fdbc 3c15 d5bb 75be 333b
000003a0: b3d0 c1bd f09e 7b3d 0226 b5bd 975b 79bd
000003b0: 9b43 77bd 2582 ecbb 141f 103d 959d 4bbd
000003c0: 058b 8b3d 7d55 2fbd 072e 92bd f347 643d
000003d0: f50a cd3c b90d bf3c b19e 573d 5caa 0bbd
000003e0: 7701 15bd bee3 64bd 6bc6 c9bd b98b 2abc
000003f0: 58f7 56bd 90d3 863d 359e 61bc d12a 8cbd

bias f4 [128]
0.06563951 -0.029888941 0.10181208 -0.14999539 -0.025135672 -0.010334677 -0.079872005 0.091701224
-0.058870748 0.055924274 0.06200477 -0.08634777 0.11985113 0.050604984 -0.0008433865 -0.12577626
0.10407307 0.0642325 -0.111610346 -0.042276014 -0.26694286 -0.07296808 0.09787145 0.013983841
-0.11330859 0.0598927 0.15686566 0.027670374 0.0021156138 0.1297135 0.0120759485 0.023103416
0.15880072 -0.06495773 0.026382692 -0.04767959 -0.02196017 -0.16241436 -0.11774946 -0.08538487
0.08264556 0.09467274 -0.0441463 -0.033004623 0.09388596 -0.050870195 0.07697226 0.1322934
0.15759316 0.14333208 -0.186018 -0.13858609 -0.031215347 0.06579703 0.09440292 0.09684954
0.03988075 0.0018078168 -0.14782393 0.091618784 -0.008298672 -0.041932117 0.027400594 -0.112807
0.048506107 -0.12739201 -0.14423758 -0.04693543 -0.19595444 0.13748457 -0.047472183 -0.06073781
-0.14344722 -0.11108828 -0.01840297 0.13661286 0.12263111 -0.03168153 0.1577022 0.041360963
0.08888946 -0.048690863 0.13267633 -0.034354303 -0.06777392 0.15583508 -0.10825547 0.056705132
0.069825694 -0.1391015 -0.021331858 0.10610896 0.06361694 -0.1095108 -0.03721975 0.11310727
-0.031582896 -0.011463642 -0.037616145 0.062406417 -0.052528467 -0.044362925 -0.021867666 -0.081976816
-0.0973339 0.08252226 -0.05832059 -0.000116928364 0.09750376 -0.0025383777 0.03617826 -0.013128244
-0.08414267 -0.071380556 0.111495726 0.066294715 -0.058427412 0.08199302 -0.002990751 -0.13196313
-0.21743502 -0.034485634 -0.04041735 -0.1621095 -0.12209415 -0.12994829 0.05687103 0.030265955
00000000: 026e 863d a7d9 f4bc da82 d03d 6498 19be
00000010: 53e9 cdbc c752 29bc ef93 a3bd dacd bb3d
00000020: 7422 71bd da10 653d b7f8 7d3d 1ad7 b0bd
00000030: 8274 f53d 2c47 4f3d b616 5dba 7ecb 00be
00000040: 4324 d53d 548c 833d f793 e4bd 9d29 2dbd
00000050: bcac 88be 4a70 95bd d470 c83d 7b1c 653c
00000060: 560e e8bd 0c52 753d 64a1 203e fbac e23c
00000070: 1ca6 0a3b 9ed3 043e 33da 453c 6043 bd3c
00000080: a89c 223e 8f08 85bd 8420 d83c ac4b 43bd
00000090: d0e5 b3bc f34f 26be a126 f1bd 43de aebd
000000a0: 1342 a93d c8e3 c13d c0d2 34bd db2f 07bd
000000b0: 4847 c03d 445d 50bd a2a3 9d3d ec77 073e
000000c0: 1a60 213e a5c5 123e 817b 3ebe 83e9 0dbe
000000d0: 54b7 ffbc 98c0 863d 5156 c13d 0d59 c63d
000000e0: ff59 233d 44f4 ec3a 285f 17be a1a2 bb3d
000000f0: 27f7 07bc 03c1 2bbd 3677 e03c 5b07 e7bd
00000100: 57ae 463d 0d73 02be 04b3 13be 5e3f 40bd
00000110: 48a8 48be c1c8 0c3e 3172 42bd 36c8 78bd
00000120: d4e3 12be 4182 e3bd d3c1 96bc 3ee4 0b3e
00000130: 0526 fb3d 7ec4 01bd af7c 213e 1d6a 293d
00000140: ad0b b63d 1270 47bd 4edc 073e 19b7 0cbd
00000150: 0ecd 8abd 3b93 1f3e 0bb5 ddbd a443 683d
00000160: c600 8f3d a070 0ebe 26c0 aebc a84f d93d
00000170: 9949 823d 3347 e0bd bd73 18bd c9a4 e73d
00000180: 115d 01bd 00d2 3bbc 6313 1abd df9d 7f3d
00000190: 1728 57bd e6b5 35bd d223 b3bc 76e3 a7bd
000001a0: ff56 c7bd 6e01 a93d 92e1 6ebd 7037 f5b8
000001b0: 0db0 c73d e95a 26bb a82f 143d d917 57bc
000001c0: fe52 acbd f82f 92bd df57 e43d 86c5 873d
000001d0: 9551 6fbd f5eb a73d 7a00 44bb 5821 07be
000001e0: 49a7 5ebe cf40 0dbd aa8c 25bd 0800 26be
000001f0: 7f0c fabd 2a11 05be 99f1 683d 4ff0 f73c
