result/aug_20_model_25.pt (torch, 934120 bytes, 9 tensors)

weight f4 [128, 13]
00000000: b09d 78be 6f59 81be 1609 b4be ded2 d63e
00000010: 7787 67be d77e ee3c 953d fbbd 6599 24be
00000020: 6257 9dbe ea11 20be df37 afbd db5b 0dbe
00000030: 6740 08bd e2a5 61be e87b 743e c6d1 9c3d
00000040: 68cb 3e3e 050f f6ba be81 183e 38a4 c3bd
00000050: 5aa6 1bbe 3254 29be 369f e3bc 45e8 e8bd
00000060: 8b1f a4bc c9f1 e2be cef7 65bd db47 3fbe
00000070: 9652 31be e464 0fbe 55a6 043e 69ed 913e
00000080: 647d fbbd dcf4 28be 51fd 863e 574b 81be
00000090: 259f 783e 121f 943d 1cef 8d3e fdb4 a63c
000000a0: 4694 143e 4e17 573d e1ad 96bd ba31 013e
000000b0: 2ae8 7abe d5aa a23b 290f 9fbe 8755 5dbe
000000c0: 9b98 933d 1933 823e d642 1d3e b10e 573e
000000d0: 3e5d ef3c 47da 8abe 0445 903e 8d79 fa3b
000000e0: d873 843e 9166 0e3c 608f 99bd 7be6 8bbd
000000f0: 9a6f 393e 31e9 663e 67f8 82be 4c2d b2bc
00000100: 1724 76be 7054 b53c 347e db3d 028d 0abd
00000110: 4c84 693e fc4e e83d 0090 adbe a54d 4a3d
00000120: dfa8 a2be 26d7 e6bd 4e04 ff3c ce81 c33e
00000130: 7f95 b23d b8d8 183d e628 6c3e a5c5 063e
00000140: fab1 86be 37e1 bd3e 91e5 7ebc e773 7cbd
00000150: 10ab 443d d809 b6bd 242d 003e 6d6d e03d
00000160: 2e45 a53e bc23 843c 8313 b2bd 6e12 313e
00000170: f71d 01bc 78c7 1d3e 3c80 2bbe 8d39 0ebe
00000180: d247 623e a501 943e d531 a73a 3bac 4d3e
00000190: 47d4 553e 0b9c d8be 6a23 1c3e 52bb 96be
000001a0: 4fc5 ba3e f3c8 263d 4284 983e fc00 c5bd
000001b0: c8c9 943d ba0b 77be 9c0e c4bc 1ee3 95be
000001c0: 837a 83bd 9aae 693c 6ef9 bbbe 7554 30be
000001d0: 887a 49bd a22d 9c3e b38b 443d 1cc3 4fbe
000001e0: b5e3 56bd a213 91be c0ae 693c 5f9d 993d
000001f0: 0561 843d a410 733d 02d6 9cbe 22ce efbd
00000200: 85b2 a3bb 85e5 e03e 2709 b93d 9a60 0c3e
00000210: 3122 8dbd b765 2d3e db34 08be 649e 813e
00000220: 8bf9 b93d 22d5 943e fa00 a4bc 4bb8 65be
00000230: 7aa1 8a3e 57fb 973d 8e59 2e3e d932 48be
00000240: 4da7 b13e 8a5d 2abb 6dcf abbc 2af9 21be
00000250: 5ed7 e43d 9b2c 37be 7b0f 63be 5d1c 973c
00000260: 6e1a 26be 2ae6 643e 5ac9 033e 2ae1 cc3c
00000270: 67b3 713e b161 903e e1e3 c63e 1d1e 203d
00000280: f1b9 82be 01fc 213d d042 a13e 20ef 3a3e
00000290: e79b 6dbe 5a3f 43bd d243 93be d99e b7bc
000002a0: 5e33 02be 7ec9 973c e49f 3cbe d925 543e
000002b0: 3baa 3bbd 31ad 81be ec9f 183e 7e79 56be
000002c0: 7877 92bc 0f7f de3d e42d 9f3d cafb e6be
000002d0: 9e64 413d 2139 aa3e e24e 10bc c39a 8f3e
000002e0: 30d1 493e 94ea 0a3e af17 46bd 8357 62be
000002f0: fb5a 283e 2cb6 1dbe 8fdb 233e 1d13 5a3d
00000300: f6d9 973e 1bf6 c83d d230 863d b77d 23bd
00000310: 7a46 7d3e 449c a63e 7260 9dbe 027d 733e
00000320: 9220 213e b392 c53d d641 403d d4ab 5d3e
00000330: de4a 773e f761 94be 62cd 3bbe 2e46 9ebd
00000340: 7d45 8bbe 267a 2bbe ed39 eabd 0d21 12be
00000350: 661d c2bc 0e76 b9bd e841 793e aaa3 12be
00000360: d83d 49be e8af a5bc 1950 84be 3602 093d
00000370: 9e8a 173d 8ac9 1ebe 13d6 a4be 145f 55be
00000380: c026 67be 661f 26be 3d5f 533d 9583 18be
00000390: c853 2e3e cbd5 a13e 3c13 c13e 1eb0 7ebe
000003a0: 5658 a9bd 8cb8 763e 12fc 0dbe 1d32 76bd
000003b0: 8873 b73e 9348 3fbe 8d76 803d 0b18 a13e
000003c0: 5660 cbbd 0af2 41be 9407 3c3d 17a6 b53e
000003d0: aea3 f8bd 4277 a8bd 5897 b23d 8501 d6bd
000003e0: c86d 30be d09c e43d 235b e03d 80ab 493e
000003f0: 703e 1d3e f9bb 01be 0d6f 8abe c2af 423c
-0.24278903 -0.25263545 -0.35163182 0.41957754 -0.2261027 0.029113216 -0.12267605 -0.1607414
-0.3073073 -0.15631834 -0.085555784 -0.13804571 -0.033264544 -0.22035936 0.23875391 0.076571986
0.18632281 -0.0018772787 0.14893243 -0.095528066 -0.15200177 -0.16536024 -0.027785879 -0.11372427
-0.020034572 -0.44325092 -0.056144528 -0.18679754 -0.1731666 -0.1400333 0.12954076 0.28501442
-0.12279776 -0.16499656 0.2636514 -0.25252792 0.24279459 0.07232489 0.27721488 0.020349974
0.14509687 0.05251246 -0.073573835 0.12616625 -0.24502626 0.0049642124 -0.31066254 -0.21614657
0.072068416 0.2542961 0.15357527 0.21001698 0.029219266 -0.27119657 0.28177655 0.0076438845
0.25869632 0.008691446 -0.0749805 -0.0683107 0.18108979 0.22549893 -0.2558014 -0.021750115
-0.24037205 0.02213499 0.10717431 -0.03382588 0.22804374 0.1134319 -0.33898926 0.049390454
-0.31769463 -0.11271505 0.031129982 0.3818497 0.0871992 0.037316054 0.23062477 0.13161333
-0.2630766 0.37085888 -0.015557663 -0.06163397 0.0480147 -0.08888596 0.1251722 0.10958371
0.32279342 0.01613032 -0.08695128 0.17292187 -0.007880679 0.15408123 -0.16748136 -0.13889141
0.2209771 0.28907505 0.001275594 0.20085232 0.20881759 -0.4230655 0.15247884 -0.2943979
0.3647866 0.040718984 0.29788405 -0.096193284 0.07265049 -0.24125567 -0.023932748 -0.2927484
-0.06419852 0.01426282 -0.36713737 -0.17219718 -0.04918912 0.30503565 0.04798479 -0.20289272
-0.052463252 -0.2833529 0.014262855 0.07500719 0.064638175 0.05934204 -0.30632025 -0.117092386
-0.0049956464 0.4392511 0.09034949 0.13708726 -0.06891287 0.16933332 -0.13301413 0.25316155
0.090808 0.29068857 -0.020019997 -0.22433583 0.27076322 0.07420986 0.1702635 -0.19550647
0.34697953 -0.0025995695 -0.020972932 -0.15817705 0.111738905 -0.1788811 -0.22173874 0.018446142
-0.1622102 0.22353426 0.12869778 0.02500971 0.23603593 0.28199533 0.38845733 0.03909122
-0.25532487 0.03954697 0.31496286 0.18255281 -0.23204003 -0.04766784 -0.2876268 -0.022414612
-0.12714908 0.018528696 -0.18420368 0.20717563 -0.04581664 -0.25327447 0.14904755 -0.20944783
-0.017879233 0.10864078 0.07772425 -0.45113975 0.047215097 0.3324671 -0.00880787 0.2804776
0.19708705 0.13566047 -0.04836243 -0.22103696 0.16440956 -0.15401524 0.16001724 0.053240884
0.29658478 0.09812566 0.065522805 -0.039914813 0.24733916 0.32541096 -0.30737644 0.23778155
0.15735081 0.09647121 0.046937786 0.21647578 0.24149653 -0.2898099 -0.18340066 -0.077282295
-0.27201453 -0.16745815 -0.1143683 -0.1427042 -0.023695659 -0.0905572 0.24341547 -0.14320245
-0.19652498 -0.02022548 -0.2584236 0.033449374 0.03699743 -0.15506569 -0.32194576 -0.2083705
-0.22573376 -0.16222915 0.0516045 -0.14893945 0.17024148 0.31608424 0.37709987 -0.24871871
-0.08268802 0.24093837 -0.13865688 -0.060106385 0.3583033 -0.18680029 0.06272612 0.31463656
-0.09930484 -0.18939987 0.045905665 0.3547828 -0.121405944 -0.082258716 0.08720273 -0.104495086
-0.17229378 0.11162722 0.10954883 0.19694328 0.1535585 -0.12669362 -0.2703785 0.011882724

bias f4 [128]
00000000: 5f18 20be 82b4 363d d119 5b3e 43cb 67bd
00000010: c02e e53d 71c7 223e 11c4 cb3d 0091 1cbe
00000020: a732 303e 3ceb 503e a790 9c3d af5f 143e
00000030: aeaf 773e c112 13be 86af 2ebe ddb9 ca3d
00000040: fe11 cebe b953 12bc d08a 6b3d 18a7 ab3c
00000050: 6a09 9dbd 7522 ab3c 1eb6 293e 74cc 213e
00000060: fd0e 5c3b 3c39 1e3d 2a1e 40be 38d6 5e3e
00000070: 3d6e 04bd ef55 8cbd ffe2 81be 9ae5 093d
00000080: 4a4f c1bd cd1c 793e a8d1 233e fe00 82be
00000090: 0838 043e fc88 5a3e ff36 aebe f625 103e
000000a0: aab6 7b3e 810d 753e 151b 72be 7c9d 40be
000000b0: a62a 983d 39d5 0abe 23b5 07be 7701 5d3e
000000c0: a1e1 5cbe 785d b0be 4893 88bd eb7d ec3d
000000d0: 920a a1bc c503 9a3e 3845 893e 02fd 263e
000000e0: 302e 62be 14c7 44bd d74c 4e3e 474b 33be
000000f0: fadf 603e f9be 44be 01dd 2fbd 2f4e 8e3d
00000100: f77f 94be 21b3 65be 5389 e5bd a7c0 1b3e
00000110: fd94 0fbe aa46 203e cfd1 a3be 24a0 8e3d
00000120: a705 c33c b982 8bbe ab35 933e bd3b a33e
00000130: 3ee9 823e e074 ff3d b15d 88bd 25ac 4fbe
00000140: 26f7 8e3e 29e3 8cbe cf35 58bd e4ed 643e
00000150: de0e 973e 4acf 65be 6222 2d3d eee6 72be
00000160: 2a39 573e 5c35 86bd f39a 51be 2188 bb3d
00000170: 4b59 61be 84f6 9bbd 04d0 6bbb 8a6e 783c
00000180: 64df 4a3d a66d b73c 39a0 9cbc c217 213e
00000190: 6107 7cbe 5675 083e 3120 933e 7225 71be
000001a0: c69b 4e3e d077 14bc 18c2 8bbc 16c1 09be
000001b0: a7e8 72bd b3cc 0b3e 2be7 2bbe 0246 763e
000001c0: 63ea 8dbe acdb 703e fe0d 7f3e ffb2 873d
000001d0: 84c1 6f3e 5808 1c3e 3ce2 b23d 3cce f33c
000001e0: bc4a 3d3e bc7c 0ebc 6e7f 6abe c61c 2c3e
000001f0: a068 80be adf5 03be 89c9 633e 8a73 aa3e
-0.15634297 0.04460574 0.21396567 -0.05659033 0.111905575 0.15896393 0.09949506 -0.15289688
0.17206822 0.20402235 0.07644778 0.14489625 0.2418811 -0.14362623 -0.17059144 0.09898732
-0.40248102 -0.008931094 0.05750543 0.0209537 -0.07667811 0.020890454 0.16573378 0.15800649
0.003357827 0.0386288 -0.18761507 0.21761405 -0.032331694 -0.06852328 -0.25368497 0.03366623
-0.09438951 0.24327393 0.15997946 -0.25391382 0.12911999 0.21341318 -0.34026334 0.14076981
0.245814 0.23930933 -0.23643143 -0.18810076 0.074300095 -0.135579 -0.13252692 0.2158259
-0.21570446 -0.3444631 -0.06668717 0.115474544 -0.01965836 0.30081 0.26810622 0.16307452
-0.22087932 -0.04804142 0.201465 -0.17509185 0.2196044 -0.19213475 -0.042935375 0.06948506
-0.2900388 -0.22431614 -0.11207833 0.1521021 -0.14021678 0.15651956 -0.3199601 0.06964138
0.023806406 -0.2724817 0.28751883 0.31881514 0.25568575 0.12473464 -0.06658495 -0.20280512
0.27922934 -0.2751706 -0.05278569 0.22356373 0.2950353 -0.22442356 0.042269118 -0.23720905
0.210179 -0.06553146 -0.20469265 0.09156824 -0.22006719 -0.076153785 -0.0035982141 0.015163073
0.04952945 0.022391152 -0.019119369 0.15731719 -0.2461219 0.1332601 0.28735498 -0.2354944
0.2017661 -0.009061769 -0.017060325 -0.13452563 -0.059303906 0.13652305 -0.16787402 0.24050143
-0.27717885 0.23521298 0.24907681 0.06625938 0.23413664 0.15237558 0.08734557 0.029761426
0.1848554 -0.008696731 -0.22900173 0.16807851 -0.25079823 -0.12886687 0.22244848 0.33291274

weight f4 [256, 128]
00000000: f16b 153b a75a 2e3d 4305 9e3b 0fae 46bd
00000010: bfde d2bd 0d56 913c e605 743d 961e 7c3d
00000020: f489 a0bd afce 123c 905b 6f3c a89f 893d
00000030: 3c1a d9bd 5267 633c 62e6 6ebb 0c65 aebd
00000040: 4148 243d 69a6 9c3d 80b5 cabc 9d7c 01be
00000050: 9749 393d 4fef bbbc c820 063d 0470 973d
00000060: 29c1 243d 66ac 33bd a8f7 1c3e 4078 3ebd
00000070: 491a 65ba 54ed bdbd 97f8 f53b d1a6 913d
00000080: a7ee 84bd 7577 a4bd 1d49 3e3d 5eed 863d
00000090: c0b4 963d 6628 363d 400e c7bc 4dd0 ce3c
000000a0: 16d7 9abd ad65 a2bd d621 84bd c893 813d
000000b0: 7443 523d 7cab 7e3d 5325 823c 1e43 063d
000000c0: 95bf 203c bc40 dd3d 6622 fd3c 2066 41bc
000000d0: 00dd 61bd d9fa 59bc f6b3 d6bd ef32 17bd
000000e0: 6b67 55bd 5c3b ddbd 054c cabd cbc9 443c
000000f0: 5db9 8e3c 18b4 65bc a346 b63c f925 43bd
00000100: d8dd 7d3d 2eec ea3b e3d4 4a3d c0f8 4ebd
00000110: 0ebe b63d 31d7 a03d eeeb 883d 8097 ee3d
00000120: 882f 7a3d a1b2 2c3d 2c8e d7bd 5c29 d23c
00000130: 680f 0cbd 1a2f a93d e618 93bc 1f67 533d
00000140: c5d0 ea3b e064 603d 5d0b 21bb 8138 003c
00000150: 1c09 d63c d88b e63d 38c0 ea3d 8fac d23d
00000160: 2347 5fbd 3cf5 2dbd 72a5 84bd 4901 f1bd
00000170: 1d54 e53d 7556 11bd caf0 99bd 60b4 733d
00000180: 1ea6 273d 1fa5 75bc 363c a43d 2d47 653d
00000190: 4d8f 243e 5efa 973c bf73 f2bc 602e e6bb
000001a0: 37e0 c5bd a249 1abe b6cf 023d 808d f83c
000001b0: 4e06 98bd 9a2a d4bd 5dbf b53a 5c27 243c
000001c0: 35e3 12bd 41d2 71bd 8831 d13d 1f1b 49bd
000001d0: 471b cebd 9067 1d3d e1e6 f7bc 8fa3 e73c
000001e0: 0af8 cebd fa2b 493d e904 0a3d b3e7 963d
000001f0: ae1d f23c d1da bf3c e92b 0bbc 33e1 17bd
00000200: cdb3 7f3d 4f59 18bc 1068 41bc 040d 6d3d
00000210: fd8b 89ba 5948 3f3d 9212 93bd 8ffc 88bd
00000220: 0695 273d ec21 bc3c f637 453c f5c0 45bb
00000230: 73cf 05bd 0102 4ebb 1bb9 afbd f352 2c3d
00000240: 2d11 c9bd 7d96 4dbd 3e20 06bd 33ea e2bd
00000250: b903 af3d 0d2a 9ebd 384e 32be d6f2 2d3c
00000260: 7670 42bd 5c9d c23c 2728 043d 44c5 abbd
00000270: ea8f 053c 83e2 223c 5861 bf3c 6b66 f03c
00000280: b081 ecbc 5e31 09bd 802b be3d c182 b7bd
00000290: 329e 93bd 0a09 18bc 2868 6cbd 30cc 06be
000002a0: c099 3a3d 7edb 81bd 1454 9f3d b790 67bd
000002b0: 0c01 53bd cd10 a43d b47a 4f3d 6e8f 4dbc
000002c0: 5021 923b 4113 2a3d 5833 5abc 03ed 633d
000002d0: 1564 ebbc 0a80 9ebd d6e3 353d 7365 13bd
000002e0: 6546 aebc b96a cc3d 62f1 4bbd fa79 5abd
000002f0: 41c7 3dbe 7eb1 0d3d 0be9 a13d 0778 193d
00000300: 203c 02bd fcb4 74bd 4f41 83bc 020d 84be
00000310: 8bd1 dfbb ee37 923d 9494 44bc 7180 5f3d
00000320: 48c1 57bd efbc 6abd 9ace 4f3c 9e08 18bd
00000330: cfd4 723d dbb9 d73c a900 963c 1969 c7bc
00000340: b9aa a53d 0e25 a8bc 417d 00bc 6445 67b9
00000350: 18ea 913d dbcd 3dbd a37f 18bc 5298 3cbc
00000360: 25b6 563d 4c77 9fbd 4110 b73d b01a 36bd
00000370: 64c0 44bb 3ed3 e7bc db07 ab3d 313b cebc
00000380: 4305 e7bc 56cd 283c 136f d13d f4d4 4a3d
00000390: 9bc9 43bd 31c5 34bd add2 d2bc 229a 15bc
000003a0: e3ad 0abe e75c 24bd 16c6 fcbc 3658 253c
000003b0: d6d9 9dbb 7707 2ebe f1b8 5e3d cf47 b93c
000003c0: 738e a83c 5f14 bdbc ffab a23d ef2d 4e3c
000003d0: 44f3 afbd c318 11bd 89ae 0fbd 14b1 21bd
000003e0: 6c0b 65bd 4096 043d 80fd 4c3d e633 753d
000003f0: d522 85bb f936 90bd 9126 d3bc 7c5d 1fbd
0.0022799934 0.04256692 0.0048224046 -0.04850584 -0.10296392 0.017741228 0.059575938 0.061552607
-0.078388125 0.00896041 0.014609233 0.06719905 -0.10600707 0.013879614 -0.0036453237 -0.08515367
0.04010797 0.07648928 -0.02474475 -0.12645192 0.045236196 -0.02294126 0.032746106 0.07394412
0.040223274 -0.043865584 0.15328848 -0.046501398 -0.00087395735 -0.09273782 0.007506441 0.07111896
-0.06490832 -0.08030597 0.046456445 0.06588243 0.07358694 0.04447212 -0.024298787 0.02524581
-0.07560556 -0.07929549 -0.06451766 0.06327015 0.05133386 0.06217526 0.015886938 0.03277885
0.009811302 0.10803363 0.030900192 -0.011804134 -0.055142403 -0.013304436 -0.104835436 -0.03691381
-0.05210058 -0.108023375 -0.09877781 0.012011002 0.017422372 -0.0140199885 0.02225048 -0.047643635
0.061979145 0.007169268 0.04951943 -0.050530195 0.08922969 0.078535445 0.06685625 0.1164999
0.061080486 0.04216254 -0.10525164 0.025654487 -0.03419438 0.08260937 -0.017956208 0.051612016
0.0071660005 0.054783702 -0.0024573423 0.007825972 0.02612739 0.11257142 0.11462444 0.10286819
-0.0545112 -0.0424702 -0.06476869 -0.11767823 0.11197684 -0.035482842 -0.0751663 0.05949819
0.040929906 -0.014992981 0.08019297 0.05597608 0.1607029 0.018552002 -0.029596208 -0.0070245713
-0.09661906 -0.15067151 0.03193637 0.03034091 -0.074230775 -0.10359688 0.0013866235 0.01001915
-0.035861213 -0.059038404 0.102145255 -0.04909813 -0.100637965 0.038428843 -0.030261459 0.028276233
-0.101059034 0.049114205 0.03369609 0.07368412 0.029555168 0.02341977 -0.008494356 -0.03708
0.06242733 -0.009298637 -0.011804596 0.05787374 -0.001049399 0.046699855 -0.071812764 -0.06688797
0.040913604 0.022965394 0.012037268 -0.0030174826 -0.032668542 -0.00314343 -0.08580228 0.042071294
-0.09817729 -0.050192345 -0.032745592 -0.11079826 0.08545632 -0.07722864 -0.1741265 0.010616979
-0.047470532 0.023756675 0.032264855 -0.08387235 0.008151988 0.0099417 0.023361847 0.029345712
-0.028870434 -0.033494346 0.09285641 -0.08960486 -0.07207908 -0.009279499 -0.05771652 -0.13163829
0.045556784 -0.06340693 0.077797085 -0.056534495 -0.05151467 0.08011017 0.05065413 -0.012546403
0.0044595376 0.04152227 -0.013317905 0.055645954 -0.028734246 -0.07739265 0.044406734 -0.03598542
-0.021273801 0.09981293 -0.049790747 -0.053338982 -0.1853304 0.034593098 0.079057775 0.037467983
-0.03179562 -0.059742913 -0.016022353 -0.25791174 -0.0068303994 0.07139574 -0.011998314 0.05456585
-0.05267456 -0.057309087 0.012683535 -0.037117593 0.05928498 0.02633374 0.018310862 -0.024342107
0.080892034 -0.020525482 -0.007842363 -0.00022055727 0.07124728 -0.046338897 -0.009307775 -0.011510925
0.0524198 -0.07786426 0.08938647 -0.044459045 -0.00300219 -0.02829897 0.08351108 -0.025174709
-0.028200751 0.010302862 0.10226264 0.049519494 -0.047799688 -0.04413337 -0.025735224 -0.009130986
-0.13542895 -0.04012766 -0.030856173 0.010091832 -0.004817228 -0.16995035 0.054375593 0.022617249
0.020575738 -0.023081003 0.07942962 0.012584194 -0.08591321 -0.035424005 -0.03507856 -0.039475515
-0.055919096 0.032369852 0.050046444 0.059863947 -0.00406299 -0.07041735 -0.025775226 -0.038907513

bias f4 [256]
00000000: b019 9e3c 50f8 833c 671c ccbc 9522 92bd
00000010: 1ad5 6dbd 7441 19bd 3d7f 22bd ea80 9fbd
00000020: 6f01 b33d cf82 023d 7b44 1cbb dbf5 83bd
00000030: 6438 933d b24a a7bd 3ffb 97bd 4923 ad3d
00000040: 8fd8 a83d 4dff 983d 4ea7 0dbc 84ff cebd
00000050: 6d23 853d 4d30 7b3d 117b c1bd bd3a 7b3d
00000060: 0c3d b5bd 2eb8 fb3c 0039 103d 05b2 e63d
00000070: 4ef7 223e 04ac 19bb fbda 4fbd 2359 b23c
00000080: d573 68bc 06eb 03bd a7ea 053b 9e5b 2e3d
00000090: 6d7e babd b805 b6bd ced4 6e3d 790a e2bb
000000a0: 25b1 54bc b273 09be c4cf 02bd ee60 943d
000000b0: a1ca e73c 3fde 063d 6ee1 68bd 04a4 c13d
000000c0: 5731 123c 897a abbd d095 163e 0b80 a5bd
000000d0: bba3 e2bc 5e81 a2bd cf7a cbbd feff 1b3d
000000e0: 9b55 a23d 5459 76bd eb39 31bc 9dc7 d33a
000000f0: c180 4f3c d5cd f83d be5b 90bc 5680 9f3d
00000100: 0ffc 64bd 1d09 b7bd cb38 1ebd 71be d2bb
00000110: 6e0a aabc a6f7 e538 58fc 8bbb 91e2 01bb
00000120: 5462 af3c b840 013d dde1 8ebd cb50 743d
00000130: 3ccc 653d 3e4e 3dbc 19d1 0dbe 4255 76bd
00000140: 33e4 64bc 18ec 47bd 1a13 02bd f844 ee3c
00000150: 081d 07be 9f7c dfbc d64a 103d 0231 0e3d
00000160: f81c 013c 0d33 8e3d 7906 83bc 8ce0 a8bd
00000170: 6f06 243d 6bd6 33bd db82 26be 5e73 d0bd
00000180: 9bfc edbd c21a dcbd ecf7 d03d e6fc 84bd
00000190: 826b c43b 6bba 243b bdab d93c 6731 8a3d
000001a0: a149 f2bb 0f67 66bc d429 99bc 1b9d d93c
000001b0: 77ff 95bd 9921 0a39 c868 3c3c faec a83d
000001c0: feaa 883b 865e b93d fca1 75bd c603 cd3d
000001d0: adbe eabc 55ca f0bc 5b59 8fbc 5c72 f6bd
000001e0: 38c9 8e3d 2176 6fbd 1570 443d 05df 19bd
000001f0: 1d9c f03d 0a56 893c 9b1b 1abe 30ca bc3c
00000200: 5453 8c3c 4580 453d 9378 1cbc 6799 e3ba
00000210: 5cdc 72bd 1819 7ebc c669 933d 5628 023d
00000220: ad7e 44bd 4fb2 b7bd 0c4c 2cbd c993 aa3c
00000230: 66e2 d03c 7365 143c e733 a1bd 52c6 1ebd
00000240: 33c8 d7bc 1f8a 523d 2bae 1ebc 5fee 3e3d
00000250: 30e9 9e3a 74c1 93bd 1189 09be 4d3a 2a3d
00000260: 3aff e23b 1ac8 97bb c0cd 9fbc c4b3 9d3d
00000270: 08b6 bdbb 9706 193e 2a63 463b 804f 533d
00000280: 5ef2 573d 4b97 9bbd f359 85bd d4ec 643d
00000290: b8fb b1bc 8c74 813d 5856 e33c 7d27 12be
000002a0: 55de eb3d 1bf8 ec3c 3e80 593c cbb9 523d
000002b0: 66d3 21bd db12 e7bb 527d 0c3d 7056 2ebd
000002c0: 6d3b ecbd e102 38bc 3d56 80bd 8ac6 173d
000002d0: f258 cdbd b5cb a3bc 7934 bf3b 7c1d d63d
000002e0: 61af a9bc 3048 1f3c 3682 28bd f724 8f3d
000002f0: 52cf 2d3b 4cc8 903d 43a8 0eb9 2446 7d3d
00000300: a71f 5dbc ed8c 2cbc c4b6 c73d 304d 56bc
00000310: 3a68 673d 2d1f 81bd abd3 6f3d c0bb 653b
00000320: 05fd a1bb f940 f13d eaf7 e5bd 3fa9 6b3c
00000330: 216d 98bd 9a51 a9bd 6357 c93c 6be3 b33d
00000340: 0d3b 593c 8507 22bd 6acd 6cbd 1db5 0d3d
00000350: 9bd2 723b 0445 4dbc 6f9a 033e f6f7 473d
00000360: c12c babd 7613 573d e796 933d 63c8 d43b
00000370: a5aa c6bd 76e7 8cbb 874b de3d d2da 37bb
00000380: 829c a3bd 36bf f03b 56d6 df3a 48b1 013c
00000390: 7173 42bc a50a 90bb e0bd e4bc f4b3 3d3d
000003a0: 94a4 b8bd 618d 05bd a67a fe3c c214 85bd
000003b0: 7682 4fbb e23e 67bd 29fc 363d dd57 563d
000003c0: 0d6c 78bc be37 b4bd fa95 8d3d 26f9 b23d
000003d0: 4352 a2bd 0173 1b3d 74ef bf3d e147 afbd
000003e0: 2701 aebd d687 05bd 7f8c 7e3d 2025 253d
000003f0: d885 083d 25ae dabc d045 2a3c 4f95 b1bd
0.019299358 0.016109616 -0.024915887 -0.07135502 -0.058064558 -0.037415937 -0.039672125 -0.0778826
0.08740508 0.03186303 -0.0023844528 -0.064433776 0.0718849 -0.08168544 -0.07420968 0.08453996
0.0824443 0.0747057 -0.008645846 -0.101073295 0.065008976 0.06132536 -0.09447301 0.061335314
-0.088495344 0.030727472 0.03521061 0.11264423 0.15914652 -0.0023448477 -0.050745945 0.02177102
-0.014187773 -0.032206558 0.0020434053 0.04256784 -0.09106145 -0.088878095 0.058308415 -0.006898221
-0.012981688 -0.1342304 -0.031936422 0.0724505 0.028294863 0.032926794 -0.05685561 0.094551116
0.008922896 -0.08372981 0.14705586 -0.08081063 -0.027665963 -0.07934831 -0.09935533 0.03808593
0.07926484 -0.060143784 -0.010817031 0.0016157512 0.012664975 0.12148634 -0.017621871 0.0778815
-0.055904444 -0.08937285 -0.03862838 -0.006431394 -0.020756926 0.00010965699 -0.004272025 -0.0019818882
0.021409191 0.03155586 -0.06976674 0.059647363 0.056102976 -0.011554299 -0.13849296 -0.060139902
-0.013970423 -0.04880914 -0.031756498 0.029085621 -0.13194668 -0.027281104 0.03522762 0.034714706
0.007880442 0.06943331 -0.015994297 -0.08245954 0.040045198 -0.043905657 -0.16260855 -0.101782545
-0.11620446 -0.10747291 0.10203537 -0.06493549 0.0059942612 0.0025135528 0.026571149 0.06747704
-0.007394031 -0.014062657 -0.018696703 0.026564172 -0.07324117 0.00013173222 0.011499591 0.08248325
0.0041707745 0.09051232 -0.059968933 0.10010485 -0.028655374 -0.029393354 -0.017498663 -0.12033531
0.06971973 -0.058462266 0.047958452 -0.037566204 0.11748526 0.01676466 -0.15049593 0.02304563
0.017129578 0.04821803 -0.0095502315 -0.0017364443 -0.059292182 -0.0155089125 0.07197909 0.03177675
-0.04797237 -0.089695565 -0.04206471 0.020822423 0.02549858 0.0090573905 -0.07871228 -0.03876335
-0.02634058 0.051401254 -0.00968508 0.046614047 0.0012123939 -0.07214633 -0.13431193 0.041559506
0.006927398 -0.0046320083 -0.019507289 0.07700303 -0.005789522 0.1494392 0.0030271509 0.05158949
0.052721374 -0.07597216 -0.06511297 0.05588992 -0.021726474 0.06321058 0.027751133 -0.14272876
0.11517016 0.0289269 0.013275204 0.051446717 -0.039508246 -0.0070518083 0.034299202 -0.042562902
-0.11534772 -0.011231155 -0.06266449 0.037054576 -0.100267306 -0.019994596 0.0058351126 0.104548424
-0.02071351 0.009721801 -0.041139804 0.06989472 0.0026521278 0.070694536 -0.00013604858 0.06183447
-0.013496316 -0.010531646 0.09751657 -0.013079926 0.056495883 -0.063047744 0.05855147 0.0035054535
-0.0049434924 0.11779971 -0.112289265 0.014383613 -0.0744269 -0.082675174 0.024577802 0.08783611
0.013258708 -0.039557952 -0.057813086 0.03459655 0.00370518 -0.012528662 0.1285188 0.04882046
-0.090905674 0.052508794 0.07206517 0.0064936145 -0.097005166 -0.004300053 0.108542494 -0.002805401
-0.07988836 0.007347013 0.0017077427 0.007915802 -0.011868344 -0.0043958 -0.02792257 0.046314195
-0.09015766 -0.032605533 0.031064343 -0.064981 -0.0031663454 -0.056456454 0.044674072 0.052329887
-0.01516248 -0.087996945 0.069133714 0.087389275 -0.079258464 0.037951473 0.09371844 -0.08558632
-0.084963135 -0.032600246 0.062145706 0.04031861 0.03333077 -0.026694367 0.010392621 -0.086710565

weight f4 [512, 256]
00000000: 5490 11bc d598 363d 256b 50bb 3e54 a63d
00000010: 3c1d 013d 6adb 91bc 4d67 00bd 3abc 003d
00000020: 5d69 12bd 3ae3 27bd a577 3fbc 9f56 093c
00000030: f4a9 993d 44c6 063d 1bab df3a f3a8 9bbc
00000040: 3c0f 7ebd ccd5 b7bc 05b8 0d3d c1e9 9d3d
00000050: 6271 e03c e46b 21bd e2b4 b9bc 1704 233d
00000060: bebd f1bc 1b3d aabc 54cb 00bc 1d84 48bd
00000070: 024e 81bc 5d63 0cbd fd89 c53c fdb4 e6bc
00000080: 459f e13c 3e45 61bd 266d 77bd cf0a 6ebd
00000090: 37e9 7c3d 316e 393d 76ae 2d3d 22c9 24bd
000000a0: 3518 53bd 3543 46bd 6a32 82bc f894 f4ba
000000b0: e791 04bc 4f67 81bd 3ec7 f4ba 8b9f 113d
000000c0: d2cd 78bc 879e 43bd dec1 33bd 7729 c13c
000000d0: f0eb 173d 578b 65bd ad2b 123d de61 ad3c
000000e0: f244 5abd 5379 0ebd 43b2 ee3c de7e 09bd
000000f0: a25e a73c 8186 b2bc d9f5 1bbd 4249 cf3c
00000100: 752e 703d e034 cebc 5d87 39bd 958a 1e3d
00000110: c223 823d 6ed6 303d 6a42 0bbd 88c2 5d3d
00000120: 276f 4b3d 49cf d9bc 0817 82b9 644f 183d
00000130: 2ad1 f73c 446b 47bc bcb9 953d 5a0e 1abd
00000140: 5f98 e3bc e1c7 cc3c 727a 50bc 4d34 37bd
00000150: 755b 143c 3b42 333d bcb3 193c fd24 b4bc
00000160: b678 c9bc a589 cd3c e929 9dbc 3887 57bd
00000170: 6e83 3c3d 2049 833d 5b75 56bb 7eb8 86bc
00000180: de18 5a3c 1d94 5ebd cf72 90bc 76a6 5dbd
00000190: df14 0c3d 126b 8fbc e482 13bd ace9 233d
000001a0: 9892 b43c aaea 43bd f42f 15bd 2db4 3abd
000001b0: 4147 63bd 5f7b 48bb 120b 4abd efc2 33bd
000001c0: 250f 1b3c d369 46bd ab8e d13c f559 49bd
000001d0: c62e 1b3d 27a9 183d 1b2b 43bd 900b 8dbc
000001e0: e96f b53c 850b cf3c 2522 e4bc 3ae5 4fbd
000001f0: 53cb e43c e62c c7bc 6078 243d 9847 d23b
00000200: 9090 6d3c 2849 94bb f168 8bbb de2c 46bc
00000210: 8df4 693d fa9c 7a3c 7533 62bd ac60 92bc
00000220: 814c e33c 7c61 85bc 117d 4d3d a208 04bd
00000230: 0861 473d bce6 7a3d 7fac 433c 46b3 cabc
00000240: 4e3e 433d 9245 ddbd 1da9 0bbd 9835 df3c
00000250: 88bb 75bd 51c4 e43c eb2c ccbc e397 553d
00000260: ac38 10bd 219c 75bc d67a 8dbd 071f 913d
00000270: 4683 23bb 0f6c 75bd 9400 153b 2ccb 39bc
00000280: ac3f 1ebd 9bf8 e03c c2c2 cdbc 991d 8d3a
00000290: 367a e8bc 03f7 dc3c daec 603c d3e2 bbbb
000002a0: 6422 1b3d 2e64 963c 416a 123d ca34 a73d
000002b0: 1e76 cebb 77db 1b3c 2388 b9bb b143 4e3b
000002c0: 72da 223d 2fcf 47bb f488 a73c c6e5 d23c
000002d0: fc0d 643d 5a09 ca3c 93ea ccbc f325 cb3c
000002e0: d0aa fbbc 5744 a3bc e583 1bbd 88a0 21bd
000002f0: 4923 123c 48be 72bd 5aa8 d33d 2db8 923b
00000300: e6cd 19bd 8eb4 2dbd 8944 d5bc c634 5d3c
00000310: 438f 08bd 0a22 9cbc 367e 83bd 210a 07bc
00000320: f140 54bc d79e 96bc 3029 9abd ccab 27bc
00000330: b822 71bb abb9 983d d775 753c c1ec ef3c
00000340: 7797 c0bd 6d11 28bc 6a16 103d 62e5 14bd
00000350: 25f4 2abc adc2 62bd b758 573c 682d a73c
00000360: 4d44 d7bc f007 43bb 9a86 debb bef6 223d
00000370: e731 9abb c446 bd3c 1304 78bc f980 06bd
00000380: 3951 1cbd db26 093d bfe3 e0bc 8aac 1cbd
00000390: fc23 8cbd f3a9 a5bc da52 dabc ce07 85bc
000003a0: 979a bfbc 0f79 f9bc 8434 293d f2df 2ebd
000003b0: b981 1dbd 6b64 13bc 6613 453c ce6c 4ebd
000003c0: 1580 cbbc 30fb 813d 1fda 01bd 6a06 2bbd
000003d0: bea5 a63c 3e91 2dbd 4b5c c4bb 1f90 6c3c
000003e0: eba3 6dbd 3d6a 473d 04ae d5bb 91d0 1d3d
000003f0: d5f0 84bd 0a44 c3bc b622 1f3d c252 2dbd
-0.008884508 0.044579346 -0.0031802144 0.08121537 0.03152202 -0.01780482 -0.031348515 0.031429507
-0.035745014 -0.040988185 -0.01168624 0.0083824685 0.07503119 0.032903925 0.0017064543 -0.01900146
-0.062026247 -0.022440813 0.034599323 0.07710601 0.027397815 -0.039409533 -0.02266926 0.039798822
-0.029509421 -0.02078109 -0.007860977 -0.048954118 -0.015784267 -0.034274448 0.02411365 -0.028162474
0.027541766 -0.054997675 -0.060406826 -0.058115777 0.06174585 0.045271102 0.042402707 -0.040230878
-0.051536757 -0.048403937 -0.01589318 -0.0018660119 -0.008091426 -0.06318533 -0.0018675101 0.035552543
-0.01518579 -0.047758605 -0.043886058 0.023579342 0.037090242 -0.056041088 0.035686184 0.02116483
-0.053288408 -0.034783673 0.029137736 -0.033568256 0.020430867 -0.021792652 -0.038076255 0.025303487
0.058638055 -0.025171697 -0.045295108 0.03870638 0.063544765 0.043173246 -0.033998884 0.054140598
0.04966655 -0.0265881 -0.00024812692 0.037185088 0.030251104 -0.01217157 0.07310817 -0.037611343
-0.027782617 0.024997653 -0.012724506 -0.044727612 0.009055008 0.043764334 0.009381231 -0.021990294
-0.024593692 0.025090048 -0.019185023 -0.05261919 0.04602378 0.06410432 -0.0032723758 -0.016445395
0.013311593 -0.05434047 -0.01763287 -0.054113828 0.03419959 -0.01750711 -0.0360135 0.04001777
0.022042558 -0.047831215 -0.036422685 -0.045581985 -0.055487875 -0.0030591113 -0.049326964 -0.043887075
0.00946406 -0.048440766 0.025580725 -0.049158055 0.037886404 0.03727069 -0.04764853 -0.017217427
0.02214809 0.025274048 -0.027848313 -0.050755717 0.027928984 -0.024313401 0.04015386 0.006417226
0.014499798 -0.0045253225 -0.0042544533 -0.012095658 0.057117987 0.015296215 -0.055224854 -0.017868362
0.02774644 -0.016281836 0.0501681 -0.032234795 0.04867652 0.0612552 0.011942982 -0.024743687
0.04766684 -0.10804285 -0.034096826 0.027247235 -0.059993297 0.027925642 -0.024923762 0.052146804
-0.035210297 -0.014990837 -0.06908195 0.07085996 -0.0024950071 -0.059917506 0.002273594 -0.011339944
-0.03863494 0.027462294 -0.025117282 0.0010766267 -0.028378587 0.026973253 0.013728345 -0.0057338267
0.037874594 0.018358316 0.035745863 0.081643656 -0.0063007018 0.009512774 -0.0056619807 0.0031473453
0.039759107 -0.0030488481 0.020451047 0.02574433 0.0556774 0.024662662 -0.025014197 0.024798369
-0.030721098 -0.019930048 -0.03796758 -0.039459735 0.008919545 -0.059263498 0.10334845 0.004477522
-0.037549876 -0.04240852 -0.026033657 0.013501352 -0.03333975 -0.0190592 -0.06420557 -0.008242161
-0.012954936 -0.018386288 -0.07527387 -0.010233831 -0.0036794376 0.07457288 0.0149817085 0.029287698
-0.094038896 -0.010258061 0.035177626 -0.03635157 -0.010434185 -0.05536144 0.01314371 0.020407394
-0.026277686 -0.002975937 -0.006790948 0.039786093 -0.004705656 0.023105033 -0.01513769 -0.03283784
-0.038163397 0.03348432 -0.027452348 -0.038250484 -0.06842801 -0.02022264 -0.026650835 -0.016239073
-0.023389144 -0.030453233 0.04130985 -0.04269404 -0.03845379 -0.0089961095 0.012028551 -0.050396733
-0.024841348 0.06346738 -0.031702157 -0.041754164 0.020342704 -0.042374842 -0.0059924475 0.014438658
-0.058017652 0.0486853 -0.0065209884 0.038528983 -0.064912476 -0.023836154 0.038851462 -0.042315252

bias f4 [512]
00000000: a505 f0bc b428 24bd a002 5bbc a8ec 8cbd
00000010: 930a 1fbc b96e e9bd b8f1 38be 10a4 18bd
00000020: 8431 2cbd 0344 5abd f05c 46bd b6b2 42bd
00000030: 0acc 1ebd 4c4b 91bd 09e6 623b 4033 bbbd
00000040: 20f4 1b3d a03d 0fbe 8b5e 81bd 42e8 b53b
00000050: 9193 b0bd 2abe 443d 9113 5abd 5709 c5bb
00000060: 9d31 35bd 233e 91bd 7f44 b03d 772a 033d
00000070: d0cb de3b 124c 9a3c 38d2 17be 3ed3 a4bc
00000080: 7812 00be fb61 a1bd 0d35 e8bd 7141 be3c
00000090: 2b68 34bd 8377 ff3c 3801 293c 462b 20bd
000000a0: 7cab 033d e5d1 623c 652c 373d 5c4c d9bc
000000b0: 34e4 17be 1cbd 93bd 5123 79bd b064 18be
000000c0: 9c16 d6bc 7091 1ebc d3b7 7abd 860a 82bd
000000d0: 7016 4ebb 0862 b93d 6d8d dc3c 24c7 1cba
000000e0: 8d94 fbbc 36f8 f23c 5b0f e1bd ecf4 e53b
000000f0: 3890 983d 3ee1 9bbd 3966 60bb f456 81bd
00000100: 3ace dcbd a2a6 1dbd 348a 823d 2a09 1f3c
00000110: 565d fbbc 005c 61bd 7be4 a93c 9658 5b3d
00000120: 6c62 06bc aeed 3abe 2de7 20bd 9638 5bbd
00000130: 28d8 d5bd 2052 ba3b 1765 a53d afbf 25be
00000140: d7ec 443d 1326 2fbd 4b1b ad3d b063 b3bc
00000150: 0d85 2fbd 1eaf 02be 6f68 e2bc 6e63 91bc
00000160: 1683 3b3c ac12 4ebd 18dd 01be d4bb 403b
00000170: 9ecb 08be 2a85 bf3c 61a5 253d 8018 05bd
00000180: da23 db3d e29a 2fbc 9e16 953c 9228 73bd
00000190: 9d4f bd3c b67c 56bc 7f75 c93a 39ef 203d
000001a0: d41d 13bd 00ff bdbc e8db edbc a58d 85bc
000001b0: c782 803d 6b8c b6bd be44 413c 89db 9ebd
000001c0: 1e6f 25bd 5fff 9cbd 100f 9b3c 5500 133d
000001d0: 4ff5 a0bc 2629 0dbd d356 88bc be58 3cbc
000001e0: c76e b93d e0d7 19bc d38c a5bd b466 4ebd
000001f0: 3c55 d1bd bcb8 ccbc d649 f3bc 862f e43d
00000200: 9721 8fbd 5727 993c 4f69 9cbd 9a0a f83c
00000210: c06d bdbb 2fd0 5ebd e20a 4d3d 6ee6 8a3d
00000220: a826 13ba 5312 91bd 61fa 51bc 0a8c 3e3d
00000230: 1b45 1dbc dcb8 c33b 9280 8cbd f32d 8c3d
00000240: 2097 f5bc ba77 d4bd 41e3 ac3d 06f5 9e3c
00000250: 788a bd3d 26dd 2d3d c8d1 8cbd 7f3b c6bc
00000260: 8fbb 82bc 734c 05be 3b32 093b e90d 50bc
00000270: fc67 903c c7fd 8bbd 3068 c43c 5098 48bd
00000280: 651e 4c3d 91c8 eebd 1408 8b3b 1a9b 6d3c
00000290: 8fd8 e43c 8635 3cbd a7bf d2bd b765 5fbd
000002a0: 3dc2 8abc 50fa 85bd 7fe3 933d cb68 b6bd
000002b0: 341d ec3c 8948 8dbc f89d 673d 433e 8f3d
000002c0: 1221 d43c 19c0 0f3c 227e 1b3b 4aed 6fbc
000002d0: 3625 82bc 501d 973c fbad d0bd 58de 22be
000002e0: 46c1 dfbd d1e4 5cbd 3a0f ed3c c6fd cc3d
000002f0: 7ce4 b9bc dcbc dd3c f436 e3bc b049 4b3d
00000300: b6a6 88bd 6977 b5bd 5d1a 44bd d98a 26bd
00000310: 0eda 7ebd 9586 08bd 00bc c3bd 5b53 a03d
00000320: 1cc8 4bbc 3182 5cbd 1fd1 94ba bbd7 b53d
00000330: a3f6 99bb a4bb fd3d aee9 a63d 657c 09bd
00000340: c0af 2ebd efb4 b13d ad38 0cbe 143c cebd
00000350: 7683 23be 8a40 ad3c 53b4 d1bc a4fb febb
00000360: 0a80 86bd fa2e 043d 45fd 49bc a9a2 acbc
00000370: c3ba ec3a d50a d0bd 82a0 debc c7ee 0f3d
00000380: fd96 073e 1ada ba3c d85c efbb 9386 e9bd
00000390: f039 973a 2ce7 60bd 0837 00be 5b3f b0bb
000003a0: e36c 42be e27f 7cbc b12c 9fbc 1a46 803d
000003b0: 5819 9c3c b53b 03bd 2293 31bd 7c7d 033d
000003c0: c834 5b3d 5302 943c 206b b1bd d056 943d
000003d0: 1ad3 b5bd 30a5 91bc d272 1fbd 91b7 363c
000003e0: ed92 7e3b a512 03be b6f9 8cbd 15f4 21be
000003f0: 8349 a53b 8a42 943d c2b2 83bd 025f de3c
-0.029299567 -0.04007788 -0.013367325 -0.06881076 -0.009707111 -0.11398072 -0.18060958 -0.037265837
-0.04203941 -0.053287517 -0.048428476 -0.047533713 -0.038768806 -0.0709444 0.0034621975 -0.091406345
0.038074613 -0.13988352 -0.06316861 0.005551369 -0.08621896 0.048032917 -0.053241316 -0.0060130763
-0.044236768 -0.0709193 0.086068146 0.03202292 0.0067991987 0.018835101 -0.14826286 -0.02012026
-0.12507045 -0.078800164 -0.11338244 0.023224564 -0.044044655 0.031184917 0.010315232 -0.03910377
0.032145962 0.013843988 0.044720072 -0.026525669 -0.14833146 -0.07213804 -0.060824696 -0.14882159
-0.026133828 -0.00967823 -0.061210465 -0.063496634 -0.003144648 0.09051901 0.026922906 -0.0005980602
-0.030710483 0.029659372 -0.10989257 0.0070177224 0.074493825 -0.07611321 -0.0034240617 -0.06315413
-0.10781522 -0.03848899 0.063740164 0.009706775 -0.030684154 -0.05501938 0.02073883 0.05355128
-0.008202177 -0.1825473 -0.039282966 -0.05352076 -0.10441619 0.0056860596 0.08075922 -0.16186403
0.04807743 -0.04276092 0.08452471 -0.02189812 -0.042851496 -0.12762114 -0.027637688 -0.017747607
0.011444828 -0.050310776 -0.12681997 0.002940883 -0.13358924 0.023378927 0.04044092 -0.03249407
0.107001975 -0.010718079 0.018199261 -0.059364863 0.023109252 -0.013091257 0.00153701 0.03929064
-0.03591712 -0.023192883 -0.029035524 -0.016302893 0.06274944 -0.08913501 0.011796175 -0.07756717
-0.040389173 -0.07665896 0.01892808 0.03588899 -0.019648222 -0.03446307 -0.016642964 -0.011495767
0.09054332 -0.0093898475 -0.08083501 -0.050390914 -0.10221335 -0.024990432 -0.029698294 0.11141877
-0.06988829 0.018695517 -0.076372735 0.030278493 -0.0057809055 -0.054397758 0.050059207 0.06782232
-0.0005613365 -0.07083573 -0.012816043 0.04652027 -0.009598996 0.0059729647 -0.0686046 0.068447016
-0.029979289 -0.103743985 0.08441783 0.019403946 0.092549264 0.04244723 -0.0687595 -0.024198292
-0.015958576 -0.13017444 0.002093448 -0.012698629 0.017627709 -0.068355136 0.023975462 -0.04897338
0.049833674 -0.11659349 0.0042429063 0.014502311 0.027935294 -0.04594948 -0.10290461 -0.054540362
-0.016938323 -0.06541884 0.07221126 -0.089067064 0.028822519 -0.017246502 0.056547135 0.06994297
0.025894675 0.008773827 0.0023726304 -0.014643976 -0.015886884 0.018446594 -0.10189434 -0.1590513
-0.10925536 -0.053929154 0.028937925 0.10009341 -0.022691958 0.027067594 -0.027736165 0.04963082
-0.066724226 -0.08860666 -0.047876704 -0.04065976 -0.062219672 -0.033331472 -0.095573425 0.07828399
-0.0124378465 -0.053835098 -0.0011353827 0.08879038 -0.004698591 0.12389305 0.081500396 -0.033565897
-0.042648077 0.086770885 -0.13693495 -0.10070053 -0.15968117 0.021148939 -0.02559868 -0.0077814627
-0.0656739 0.032271363 -0.012328451 -0.021073656 0.001806103 -0.10158316 -0.027176145 0.035139825
0.13241191 0.022809077 -0.007304769 -0.11402621 0.0011537652 -0.054907963 -0.12520993 -0.0053786463
-0.1898685 -0.015411349 -0.01943049 0.06263371 0.019055054 -0.032039363 -0.043353207 0.032102093
0.053517133 0.018067515 -0.086630106 0.07243121 -0.08878155 -0.017778963 -0.03892786 0.011152164
0.0038844899 -0.12800081 -0.06883566 -0.15815766 0.0050441637 0.07239254 -0.0643058 0.027144913

weight f4 [128, 512]
00000000: 8b15 f8bc 2f8c 893d f776 9fbc ed26 7c3b
00000010: 5904 023d 1fc1 80bb c973 173d 3a6f 92bb
00000020: 00ae 20bd fa60 19bc 2efb 5dbc 7426 81bc
00000030: 9236 cebc c9e0 8b3d 05a2 cebc 20b0 113d
00000040: 2952 69bd 69f1 e03c 9966 003d 4ed5 28bd
00000050: 5b5c 93bc a46b 73bc 4a7e 0f3d 9171 093d
00000060: 3999 7a3c 9da6 363d 1021 d8bc abb9 88bc
00000070: cd73 9cbd b4db b43c ea8c 863d 7cae 183d
00000080: 56ff 83bc 62ff fc3b be09 6ebd 9a6d 7aba
00000090: cce8 713c 0913 0fbd 2e15 31bd 4ee8 d93c
000000a0: f9ad c8bd 73e7 183a a735 0c3d 6165 47bc
000000b0: 237f f03b 1857 093c cc4f 27bb c76a 813d
000000c0: bdc4 d0bc c6fe 88bc 6e9e 38bd e5fd 603d
000000d0: 0ed2 063d 6dfd f1bd 6df7 a3bd a5c7 91bb
000000e0: b6a0 d4ba 139e 8c3c 02bc 513c a69f 8b3c
000000f0: ae09 07bd b3a6 55bd 6eed 153d 98e0 0cbc
00000100: e69c 693c ce47 4c3d d080 283c f19e 4c3c
00000110: 9680 b73c 189a af3c 402a 773c fa3c 19bc
00000120: 5b85 8b3d 737e c2bb eb01 98bc 2879 383d
00000130: a9e3 4d3d cdbb 43bd 7598 f1ba 4ff8 433d
00000140: 9afc dcbc c696 b5bd b3d3 8fbc 230f 89bc
00000150: edfc 34bd 8f27 f73c ac98 373d 9c8a 85bb
00000160: 801d 2a3d 2732 063c 3a1a d9bb 125d 0c3d
00000170: afa2 433d 5de3 a03b 9035 c33b 2c06 cdbc
00000180: 2bc7 a5bd d812 63bd 3cb7 28bb 9eec b3bd
00000190: 3a1f 10bd a14e a63c e0b0 083d 9551 e7bc
000001a0: 51a1 13bc fd97 c3bc a932 d93b ce7f c83b
000001b0: 851e fe3c 8af7 763c 5dfc 94bd 4c1a 013d
000001c0: d34b 6d3d 5b34 14bd 8557 853b 3fa2 66bd
000001d0: e884 af3b 427c 103d 99a5 88bc 61bd a33b
000001e0: 3fb3 2dbc 8833 bfbb bd3b 42bd 1f92 9f3d
000001f0: 47c7 6e3c 8e2b 26bd 1ce2 f5bd 7ff3 e6bc
00000200: 8776 0abc c8b4 d53c 1efa 563c 20e9 3d3c
00000210: 7221 6cbd beee 6d3d 5d7e 6dbd 0537 d8bd
00000220: afb1 da3c e89d 99bd 02d3 c3bc 71c3 d0bc
00000230: 88f8 d7bd ddef 973d ca90 97bd 4694 54bc
00000240: 5706 8ebb dc82 313b 2cff 143d e570 96ba
00000250: bfd9 20bd ac61 7b3b 95aa 40bc e367 103c
00000260: 384a b03d 7354 79bd 668e 103d 9ba6 12bd
00000270: 1666 443d 56bf 38bd 00a3 1b3d 9081 293d
00000280: 2798 523c 2d8a 213d dbb0 09bd 3329 0cbc
00000290: 2b33 563d 5096 f93c f6fc 0abc 48aa 9a3c
000002a0: ca5a 42bd c653 443d 9199 d4bc 64b4 413c
000002b0: 6311 3d3c d0a8 303c 903e 52bc 529d 493d
000002c0: ad14 2b3d d395 45bd 7762 7dbd 9d24 0fbd
000002d0: 05a1 a6bc 04e9 95bc f4d9 8dbc d45b 343d
000002e0: 09f1 69bc 8ee7 8bbd 6725 ac3c f4a9 9cbc
000002f0: 8b4b 64bd 7631 39bd 202e 2e3d 864d 033c
00000300: 6056 523d b2ad 54bc d722 67bd 31ae c63c
00000310: 6fda 59bd b4a7 833c 4f03 14bd 3039 72bd
00000320: 52c6 b5bc 4715 683d d921 c2bb 8d1e 2e3b
00000330: a4ab d6bb bb3a 99bc c80b 18bd dea9 c3bc
00000340: ed15 003d 92ab 083d d121 84bd 5dc4 9a3d
00000350: 9024 75bd 50c6 733c 7e81 3b3c 51c7 e6bc
00000360: 7b4f 023d f5b0 48bd 76c1 143d 906f b7bd
00000370: 3150 133d 6c42 803d 8b30 33bc 0285 f23c
00000380: bcca 03bd abb5 333d d698 8a3d 708d 633d
00000390: 83da 6a3c e33b 1fbc 1033 9d3d db00 f03c
000003a0: b94c 923d d472 e8bc d4ff c9bc b38d 12bd
000003b0: cdd0 263b eca8 81ba ee7e f73c 4c68 a43c
000003c0: d64c e43b 745e 94bd 2570 89bd aad4 fb3c
000003d0: 2a8c 823c a27c 85bb 465e 6fbd dce1 15bb
000003e0: cdb0 c0bc 8083 213d 806e 50bc ae65 183d
000003f0: 4085 bcbc 9a6d c33c b260 cd3c b173 59bb
-0.03028371 0.06716191 -0.019465907 0.003847535 0.031742427 -0.003929272 0.036975656 -0.0044688256
-0.03922844 -0.0093615 -0.013548655 -0.015765406 -0.025172506 0.06829984 -0.025223741 0.035568357
-0.05696312 0.027458863 0.031347845 -0.04121905 -0.017988374 -0.0148572065 0.035032548 0.03355557
0.01529532 0.04459249 -0.026382953 -0.016690096 -0.07639275 0.022077419 0.06569846 0.037275776
-0.016112965 0.0077208737 -0.05811476 -0.0009553075 0.014764976 -0.034930263 -0.04323309 0.02660003
-0.09798808 0.00058328285 0.034230854 -0.012170167 0.0073393746 0.008382581 -0.002552974 0.06319194
-0.025484437 -0.016723048 -0.045072965 0.054929633 0.032915168 -0.11815915 -0.08006177 -0.0044488483
-0.0016222212 0.01716522 0.012801172 0.0170439 -0.032968216 -0.05216093 0.036603384 -0.008598469
0.014258599 0.049873166 0.010284618 0.012489066 0.022400182 0.021435782 0.015085757 -0.009352917
0.06812545 -0.005935484 -0.018555602 0.04503742 0.05026594 -0.047786523 -0.0018432277 0.047844227
-0.026975919 -0.088666484 -0.017557 -0.01673085 -0.04418652 0.03017023 0.044823334 -0.0040753614
0.04153204 0.008190668 -0.006625441 0.034268446 0.04776257 0.0049099163 0.005957313 -0.025027357
-0.08094629 -0.055437893 -0.0025743982 -0.087853655 -0.03518603 0.020301165 0.033371806 -0.028237144
-0.009010629 -0.023876185 0.0066283536 0.006118751 0.031020412 0.015073666 -0.07274697 0.03151922
0.05793364 -0.036182743 0.004069271 -0.056307074 0.00535642 0.03527475 -0.016680526 0.004996941
-0.010601818 -0.0058350004 -0.047420252 0.07791542 0.014573879 -0.04056888 -0.120060176 -0.02819228
-0.008451111 0.02608718 0.013121156 0.011591226 -0.057649083 0.05808901 -0.057981838 -0.10557369
0.026696054 -0.07500821 -0.023904327 -0.025483819 -0.105454504 0.07418797 -0.07400663 -0.012974804
-0.004334252 0.0027086055 0.036376163 -0.0011477737 -0.03927016 0.0038357778 -0.01175942 0.008813831
0.08607906 -0.060871553 0.03529205 -0.03580342 0.04794892 -0.045104347 0.037997246 0.041383326
0.012853659 0.039438415 -0.03361593 -0.0085547445 0.05229489 0.030467182 -0.008483162 0.018880025
-0.047449864 0.047931455 -0.025952132 0.011822794 0.01153979 0.010782436 -0.012832299 0.049222298
0.041767765 -0.048238587 -0.06186148 -0.034947027 -0.020340452 -0.018299587 -0.017315842 0.044032887
-0.014278659 -0.06831275 0.021013929 -0.019124009 -0.055736106 -0.045213185 0.042524457 0.0080140885
0.051351905 -0.012980865 -0.05642971 0.024252983 -0.05318683 0.016071178 -0.036135968 -0.05913657
-0.022189293 0.056660917 -0.005924445 0.0026568503 -0.006551223 -0.018704763 -0.03712061 -0.02388471
0.03127091 0.033366747 -0.064517625 0.075569846 -0.05984932 0.014878824 0.011444448 -0.028171213
0.03181408 -0.048996884 0.03631731 -0.08956826 0.03596515 0.06262669 -0.0109368665 0.029604439
-0.032175764 0.043874424 0.067674324 0.055554807 0.014334324 -0.009718868 0.07675755 0.029297283
0.0714354 -0.028375067 -0.024658121 -0.035779666 0.0025454045 -0.0009892262 0.030211892 0.020069264
0.0069671674 -0.07244578 -0.06710843 0.030741055 0.015935976 -0.0040736953 -0.058439516 -0.0022870218
-0.023521805 0.03943205 -0.012721658 0.037206344 -0.023012757 0.023855973 0.025070522 -0.003318053

bias f4 [128]
00000000: fa58 7d3c 2b64 c3bb ccc5 a6bc a11f 97bd
00000010: 8ee7 1fbd dde9 41bd 85e2 903d ec00 bdbd
00000020: cf2e b5bc 0943 82bc 0f28 27bd 3520 293a
00000030: 26ad dfbc 0ac4 1fbd d0c9 a8bc cc29 513d
00000040: ee3d 0b3b 4696 c0bc a744 3c3d 5623 b6bb
00000050: 2e99 7cbd cc6d e3bc 256e cf3a 2f14 6bbb
00000060: 264a 233c e54f 47bb 29a0 7cbd ae7b 833c
00000070: 8f7f f03c 90ba 54bd 6500 8b3c 4981 fb3c
00000080: 23ac 1abd 2cb5 aabb 184c 4fbc f4fd 333d
00000090: f154 2ebd a84d 823c 8dfb 3abc 02e5 3fbd
000000a0: 2194 3dbc a7c1 26bd ca37 25bc 83e2 403d
000000b0: 5df6 6ebb b20a f7bc 77b9 f13c 1fdd 3abc
000000c0: aeb1 25bd bfad 4e3b 01a0 66ba bcfe a6bc
000000d0: 2d9d 603d ee53 a53b cdb3 0bbc 3cad c1bc
000000e0: 0f9b 303d d397 4b3d fbd3 373d cde3 b03a
000000f0: 4d38 a6bd 4eec 413c c345 6b3d e1cc 1a3d
00000100: 1492 4cbd d980 fc3c 6a21 3c3d a883 99bd
00000110: c28b a3bc ec3c 583d 57f0 193d 3fa2 45bc
00000120: b5d7 693d 0ba3 11bd 35bd 963c cc21 06bc
00000130: 21ed a43d 84c5 a73d 31da b5bd 0174 5cbc
00000140: 9c5f 74bd aef9 773d cc19 94bd 408b c8bc
00000150: 23f8 493d 54da 183d dfc9 813d 9911 473d
00000160: 4ab8 223c 7d7e 103d ceee 183c 41ae 23bd
00000170: bbd4 50bd b3bd 09bd d283 fe3c fce5 053e
00000180: 014e dc3b 6f8d f63c 5552 c5bd 3ac4 2c3c
00000190: b979 453d 58bd b3bc 20db 88bc 28a0 35bd
000001a0: 5579 d73c f951 26bd 555f 05bd 25ca 893b
000001b0: 6ca1 cf3d 0414 493d 913c 3f3d 9d85 adbc
000001c0: 49d1 5cbb 89e9 b3bc e8c2 2fbd f64f a03c
000001d0: cb5e 0d3d 3b52 a23c 1723 ce3c a07e 68bb
000001e0: 67d8 4f3d fe1b 0c39 8f99 533d 29c5 11bd
000001f0: a1a2 41bd 1c66 8b3d 3189 04bc ba89 acbd
0.015463108 -0.0059628687 -0.020357989 -0.073790796 -0.039039187 -0.04734217 0.07074455 -0.092286915
-0.022117047 -0.015901105 -0.040809687 0.00064516376 -0.027304243 -0.039005317 -0.020604044 0.05106525
0.002124663 -0.023509156 0.04596391 -0.0055584116 -0.06166952 -0.027762316 0.0015825672 -0.0035870185
0.009966409 -0.003041261 -0.061676178 0.016050186 0.0293577 -0.051935732 0.016967962 0.030701296
-0.03776182 -0.0052095857 -0.0126524195 0.04394336 -0.042561475 0.01590617 -0.011412513 -0.04684926
-0.011570961 -0.040712025 -0.010084102 0.04709102 -0.0036462762 -0.030156467 0.029507382 -0.011405258
-0.04045265 0.0031536666 -0.0008797646 -0.020385139 0.054837395 0.0050454056 -0.008526755 -0.023642175
0.043116625 0.049705338 0.044879895 0.0013495624 -0.08116207 0.011836125 0.057439577 0.037793044
-0.049944 0.030823158 0.045930304 -0.074958146 -0.019964103 0.052792475 0.03758272 -0.012062608
0.05709048 -0.03555588 0.018400768 -0.008186769 0.08053041 0.0819197 -0.08879507 -0.013455392
-0.059661493 0.060540847 -0.07231483 -0.024480462 0.049308907 0.03731759 0.06337332 0.048600767
0.009931633 0.03527688 0.009334279 -0.039961103 -0.050984126 -0.033628177 0.031068716 0.13076013
0.006723166 0.030096738 -0.09634844 0.010544831 0.048211787 -0.021940872 -0.01670605 -0.04434219
0.026302973 -0.04060552 -0.03256162 0.0042050057 0.10138211 0.049091354 0.04668862 -0.021181876
-0.003369408 -0.021961944 -0.042910486 0.019569378 0.03451423 0.019814601 0.025163217 -0.0035475865
0.050743487 0.00013361868 0.051660117 -0.035588417 -0.047274236 0.06806585 -0.00808935 -0.08424707

weight f4 [1, 128]
00000000: c3ee 223d 7985 2cb9 58f0 f439 0457 afbd
00000010: ac9d 233d e3f8 8fbd 826c 763d 92d9 bbbc
00000020: 9ce4 10b8 cf0c 50ba 92cf 7bbd 28f7 35bd
00000030: 5e78 0dbd de56 eb3a 1af3 cfb9 6070 c23b
00000040: a08d afb9 ed70 623d 2382 6b3c 97da 72bd
00000050: 1dd1 93bd d911 d2bc 94d0 053d 8ece 633a
00000060: 3549 8cb8 fc43 8cbc 5fc4 f4b8 784d ea3d
00000070: b613 4e3d e4b7 10bc fd3b 183a 4ba0 0d3d
00000080: 5850 27bd 33e2 903d ca3f 8ab9 ee34 0f3d
00000090: 18a2 11bd 026f f03c fb60 a1bd 1460 cdba
000000a0: 0fc7 a53d 6177 27bc ae65 2e3d f894 423d
000000b0: d181 103d 0d75 2c3d d0b4 9b3d c62d 44bc
000000c0: 3710 c5bc 78ae 70ba d1d5 10ba ebb3 c33c
000000d0: dc8c 5a3c b0c4 c5b9 339e fa3c 8c47 d339
000000e0: 367e 2f3d 8d21 9f3a 479a f83b a65a 55bd
000000f0: e4e9 b7bd 9905 9538 349b e03c 82c7 003d
00000100: 0eaa 43bc 3804 a23c 67b3 403b 7e36 90bd
00000110: 634c 16bd 8456 843d f123 02ba 58a8 bc39
00000120: 920f 3d3d 0d51 91bd 1e43 e43c 2e12 22bd
00000130: 5c47 883d b21e 043d 02ed debc bd20 81b9
00000140: fff2 03bd 8562 953b 0a8a 8abd 10c4 9fb9
00000150: f701 573d 19f5 9cba ee15 963b 5f88 723b
00000160: af73 c7b9 eddf 693d 60a4 943d 2cb8 c2bb
00000170: 83b9 24bc 71ac c6b9 2ab3 413d e18f 573d
00000180: 2d75 593d c1c0 6c3d 491d b7bd 6627 1f3a
00000190: 2162 ae3b dafa 37bd 5137 81bc e0b0 bcbb
000001a0: e453 003a 28ee 8639 9c00 ab39 d350 ef3a
000001b0: fe5d 403d 72ee 0f3d 1c4e 903c b775 aa3b
000001c0: 1b0e 043d 883c 92bc 2982 01bd a6e1 8d3d
000001d0: d1da c93a 8ec4 a03c d4ae c039 c520 5a3d
000001e0: 68de 723d dea5 a1bc b36b e63a 280c 0f3c
000001f0: b121 9d3d 62df e93c 0568 85bd 3c75 05bd
0.039778482 -0.0001645292 0.00046718377 -0.08561519 0.03994529 -0.07029893 0.060162075 -0.022930894
-3.4545184e-05 -0.0007936479 -0.06147725 -0.04442516 -0.03453862 0.0017954966 -0.00039663241 0.0059338063
-0.0003348412 0.055283476 0.014374289 -0.059290495 -0.072176196 -0.025643276 0.03266962 0.0008690142
-6.689356e-05 -0.017122261 -0.000116714036 0.11440557 0.050311767 -0.008832905 0.0005807279 0.034576695
-0.040848106 0.07074394 -0.00026368938 0.034962587 -0.035554975 0.029349808 -0.07879826 -0.0015668892
0.08094608 -0.010221333 0.042577438 0.04750535 0.035280053 0.042103816 0.076028466 -0.011973804
-0.024055583 -0.00091812713 -0.0005525025 0.023889503 0.013339248 -0.00037721312 0.030593013 0.00040298363
0.042844974 0.0012140736 0.0075867507 -0.052088402 -0.08980158 7.105916e-05 0.027417757 0.031440265
-0.0119424 0.019777402 0.0029403807 -0.070416436 -0.03669394 0.06461814 -0.0004964462 0.0003598358
0.046157427 -0.07095537 0.027864035 -0.03956812 0.06654236 0.032255836 -0.027212624 -0.0002462919
-0.03221416 0.0045588636 -0.0676461 -0.0003047292 0.05249211 -0.00119749 0.004580251 0.0037007553
-0.0003804243 0.057098318 0.072579145 -0.005942365 -0.010053995 -0.00037893982 0.047290005 0.052627448
0.053090263 0.057801012 -0.089411326 0.00060712395 0.0053217565 -0.044916965 -0.015773447 -0.00575839
0.0004895313 0.00025735912 0.00032616116 0.001825834 0.046964638 0.03513951 0.01761537 0.005202021
0.032240015 -0.01785113 -0.03161827 0.06927805 0.0015400295 0.019624975 0.0003675135 0.053253908
0.059294134 -0.019732412 0.0017579704 0.008730926 0.07672442 0.0285489 -0.06513981 -0.032582507
