result/aug_20_model_14.pt (torch, 979782 bytes, 15 tensors)

weight f4 [128, 13]
-0.30251402 -0.07185268 0.14820328 0.0418059 -0.05638035 0.18461666 -0.22384757 0.062183604
0.07586646 -0.18242496 -0.08130486 -0.030010825 0.30116233 0.060699828 -0.054006923 -0.124225825
-0.09926125 -0.024424152 0.14448014 -0.08539775 -0.16068754 0.1021439 0.22872241 -0.10652274
0.04100779 -0.19047965 0.3177752 -0.20225377 -0.24041606 0.35326037 0.00028404655 -0.033810575
-0.33918777 0.10265542 -0.2704141 -0.0018107584 0.20573375 -0.05275023 -0.06430353 0.19245462
-0.008857808 -0.21723303 0.18301696 0.18993586 0.1448593 0.054798592 0.108031884 -0.25123096
-0.295411 -0.25217772 -0.14293176 -0.32482508 0.16699573 0.00065367116 0.08257852 -0.2894516
0.1510878 0.15610187 0.13951834 0.24295905 0.3409392 0.12967326 -0.15568112 0.09634331
0.29467234 0.033523 0.12269922 -0.16795813 0.023661338 0.1946675 0.080576815 -0.14601213
-0.114411406 -0.0634541 0.11568606 -0.53970706 -0.05654408 -0.11996503 -0.037076347 -0.23746786
-0.1865983 0.1805548 -0.15098889 -0.113056175 -0.19082259 -0.1954584 0.16698413 0.15159501
0.33423325 0.007513015 0.037936453 -0.16138126 0.32297748 -0.088052414 0.23477373 0.061967086
0.0666365 0.19052485 0.23289083 -0.21394174 0.100356914 0.31620288 0.11508434 0.088669054
0.12577125 0.036817886 0.17559732 0.16486916 0.14883956 0.17095873 0.10686204 -0.06462436
-0.15267326 -0.22231516 0.12077812 -0.19955169 0.32282043 0.012737324 -0.29327974 0.0020107746
-0.19221592 0.13862659 0.21044108 -0.18181059 -0.15550913 -0.1734431 0.17547505 -0.04144477
-0.0041314405 0.33894202 0.19293803 -0.15395093 -0.097060926 -0.022480391 -0.036331415 -0.05027623
0.07775408 0.096538 0.14098269 0.088679634 -0.27851242 -0.12238552 -0.11821338 -0.24106428
-0.1572371 0.07455104 -0.14207937 -0.21415198 0.036881212 -0.009039273 -0.0916262 -0.1880797
0.28281942 -0.32727578 -0.11937233 0.121762596 -0.21522915 -0.3229821 0.18079352 -0.31035835
-0.09317655 0.031032009 -0.26494217 -0.33011514 -0.31979185 0.15913093 -0.06640281 -0.021384919
-0.16676801 0.1657565 0.023609038 -0.03667513 -0.006750827 -0.02170147 -0.018607097 -0.031097535
-0.194622 0.0729902 0.031799927 -0.3936525 0.010134606 -0.5422346 0.2625613 -0.012971155
-0.26158667 0.05408215 0.080283865 0.15929109 0.02319496 0.10273332 0.19289501 -0.13772233
-0.3921778 0.005618876 -0.115813956 -0.048750352 -0.07456893 0.18310605 0.31124383 -0.28912076
-0.07259596 0.0703535 -0.13869873 -0.016098062 -0.14182582 -0.2892249 0.051905755 -0.2840739
0.27442214 -0.27827084 -0.12742382 0.17755744 0.26756912 0.020745276 0.106446266 0.17390792
-0.057380855 0.06870792 -0.24877082 -0.06025766 0.20334964 -0.22242156 0.011843968 -0.13473266
0.22570911 0.053855576 -0.36386356 0.2136472 0.16216828 0.12208223 -0.057749666 -0.057840645
-0.22369161 0.30939713 -0.23237737 0.15555549 -0.15110643 -0.0045172167 -0.19025864 0.17514375
0.20928854 0.20138837 0.02259061 0.043548506 -0.42145368 0.053441387 -0.2920915 -0.02116158
0.040631052 -0.31109077 -0.08800528 -0.01862834 -0.13938248 0.07139881 0.038259003 -0.32053655
00000000: 1ee3 9abe 7f27 93bd 9ac2 173e aa3c 2b3d
00000010: 15ef 66bd 260c 3d3e 4c38 65be 3cb4 7e3d
00000020: e05f 9b3d 9ccd 3abe 2a83 a6bd 43d9 f5bc
00000030: f331 9a3e 62a0 783d 5d36 5dbd 1c6a febd
00000040: 7b49 cbbd 2915 c8bc 9af2 133e 04e5 aebd
00000050: 468b 24be d230 d13d 3536 6a3e 9828 dabd
00000060: c9f7 273d 190d 43be 6eb3 a23e 9d1b 4fbe
00000070: a12f 76be 8bde b43e 15ec 9439 f57c 0abd
00000080: 05aa adbe 013d d23d b873 8abe f856 edba
00000090: deab 523e a010 58bd 92b1 83bd d312 453e
000000a0: 5720 11bc 5672 5ebe cc68 3b3e 8c7e 423e
000000b0: ff55 143e 7d74 603d d23f dd3d 58a1 80be
000000c0: 1c40 97be 701d 81be b45c 12be 794f a6be
000000d0: ee00 2b3e 215b 2b3a ed1e a93d 0033 94be
000000e0: c3b6 1a3e 2bd9 1f3e e5dd 0e3e 42ca 783e
000000f0: 958f ae3e 11c9 043e df6a 1fbe a44f c53d
00000100: 4bdf 963e 6a4f 093d bb49 fb3d 37fd 2bbe
00000110: 6cd5 c13c eb56 473e 7505 a53d 3484 15be
00000120: 8750 eabd 39f4 81bd d0ec ec3d 3e2a 0abf
00000130: c49a 67bd 3ab0 f5bd 5edd 17bd c62a 73be
00000140: a013 3fbe 5ce3 383e d59c 1abe ff89 e7bd
00000150: ff66 43be 3f26 48be e3fd 2a3e b93b 1b3e
00000160: 9f20 ab3e bd2f f63b 4163 1b3d 2141 25be
00000170: 4e5d a53e d354 b4bd 8668 703e 33d1 7d3d
00000180: b878 883d f218 433e ef7a 6e3e 8b13 5bbe
00000190: ed87 cd3d 58e5 a13e 57b1 eb3d 1f98 b53d
000001a0: 2eca 003e 5ace 163d c9cf 333e 76d3 283e
000001b0: 6669 183e ce0f 2f3e 7cda da3d c759 84bd
000001c0: 6156 1cbe 96a6 63be 855a f73d 4757 4cbe
000001d0: b848 a53e 36b0 503c c328 96be 33c7 033b
000001e0: 40d4 44be 21f4 0d3e de7d 573e 8e2c 3abe
000001f0: c93d 1fbe 119b 31be bbaf 333e fec1 29bd
00000200: 0961 87bb cf89 ad3e 8c91 453e 50a5 1dbe
00000210: e1c7 c6bd cc28 b8bc 40d0 14bd 73ee 4dbd
00000220: 883d 9f3d b7b5 c53d c45d 103e ab9d b53d
00000230: 2e99 8ebe 42a5 fabd db19 f2bd 8ed9 76be
00000240: c302 21be 37ae 983d 417d 11be a84a 5bbe
00000250: c110 173d 7519 14bc 84a6 bbbd f797 40be
00000260: b5cd 903e b190 a7be 7b79 f4bd ab5e f93d
00000270: 0865 5cbe e95d a5be f021 393e 4ae7 9ebe
00000280: 59d3 bebd d736 fe3c 80a6 87be da04 a9be
00000290: c2bb a3be 38f3 223e 32fe 87bd 6d2f afbc
000002a0: 3cc5 2abe 12bc 293e be67 c13c a938 16bd
000002b0: 0b36 ddbb 48c7 b1bc e96d 98bc 42c0 febc
000002c0: fd4a 47be e37b 953d a440 023d d28c c9be
000002d0: 9e0b 263c e3cf 0abf 6f6e 863e f884 54bc
000002e0: b0ee 85be 3f85 5d3d de6b a43d 341d 233e
000002f0: 5b03 be3c d965 d23d 4586 453e 1507 0dbe
00000300: 87cb c8be 8c1e b83b de2f edbd 73ae 47bd
00000310: 98b7 98bd 2780 3b3e 5a5b 9f3e a307 94be
00000320: 31ad 94bd 7f15 903d 0a07 0ebe 15e0 83bc
00000330: ca3a 11be 4915 94be 219b 543d 2272 91be
00000340: 0f81 8c3e 8479 8ebe 647b 02be 9ed1 353e
00000350: d2fe 883e fff1 a93c 8000 da3d eb14 323e
00000360: 3008 6bbd bdb6 8c3d c7bd 7ebe bcd0 76bd
00000370: e33a 503e 7ac2 63be 340d 423c 5cf7 09be
00000380: 4a20 673e aa97 5c3d 534c babe 55c6 5a3e
00000390: 710f 263e 4006 fa3d ea8a 6cbd 50ea 6cbd
000003a0: 6a0f 65be 4d69 9e3e 55f4 6dbe f049 1f3e
000003b0: a5bb 1abe 2905 94bb 29d3 42be e258 333e
000003c0: bc4f 563e c138 4e3e f10f b93c eb5f 323d
000003d0: c7c8 d7be 5be5 5a3d 048d 95be 0d5b adbc
000003e0: bf6c 263d 4a47 9fbe 1d3c b4bd 769a 98bc
000003f0: 48ba 0ebe 8a39 923d 79b5 1c3d 5e1d a4be

bias f4 [128]
0.055393327 -0.054767452 -0.27933946 0.04466566 -0.21519412 -0.12978779 0.0031239637 -0.14058623
-0.0013047389 -0.276688 -0.11533078 0.03602269 -0.07748053 0.050798748 0.20540233 -0.21897113
0.14868791 0.12896161 0.0665909 0.024754114 0.061028287 0.15821388 -0.05394919 -0.12185888
-0.25070998 -0.15044649 -0.045713875 -0.15344128 0.10031558 0.0014180408 -0.09175876 -0.18616885
-0.0754144 -0.23989081 0.08447115 -0.074381 0.0016349494 0.20025416 0.1055123 0.09819168
0.26065198 0.08178987 0.11103348 0.0161548 0.15809155 0.25572273 0.08187068 0.11203915
-0.21140683 0.055801477 -0.09719232 -0.051316362 -0.036542293 -0.17746519 -0.10031456 -0.22373712
0.07000668 0.031216832 -0.17157933 0.14823444 -0.15262555 -0.025738418 0.2260239 -0.15091005
-0.08384376 -0.12221431 0.048715565 -0.013121722 -0.17834713 0.15230139 0.22116324 0.043895084
0.16364482 0.10037958 -0.24512157 0.036191218 0.19333178 -0.10631256 -0.026906796 0.19937365
0.014897259 -0.08495624 0.25538498 -0.02596651 -0.20284617 -0.24329646 0.11322657 -0.24671161
-0.08463732 0.08741176 0.06271919 0.001154337 0.08286946 0.099353634 0.17977418 0.14177276
-0.09351099 0.22725478 0.081344806 0.15764791 0.19173916 0.17787164 -0.19928364 -0.14974248
0.14871573 0.18797162 -0.1750073 0.26373354 0.2322933 -0.114448234 -0.29540688 -0.20769091
0.20225984 0.1264189 0.16275775 0.05258218 0.21453142 -0.25904393 -0.22216341 0.22543769
-0.14410503 -0.34918937 0.19672862 0.059026133 0.29362154 -0.15984452 0.12456082 0.094728194
00000000: 1de4 623d d653 60bd 9505 8fbe 57f3 363d
00000010: d95b 5cbe 17e7 04be 6abb 4c3b d6f5 0fbe
00000020: c603 abba 0daa 8dbe 8b32 ecbd 878c 133d
00000030: 1dae 9ebd 5912 503d fd54 523e f839 60be
00000040: a541 183e 830e 043e cf60 883d 24c9 ca3c
00000050: ccf8 793d d202 223e d3f9 5cbd 2691 f9bd
00000060: 0f5d 80be a50e 1abe 793e 3bbd b61f 1dbe
00000070: 4172 cd3d 8edd b93a 04ec bbbd 0ca3 3ebe
00000080: dd72 9abd f0a5 75be 36ff ac3d 1155 98bd
00000090: cc4b d63a 6d0f 4d3e d516 d83d b818 c93d
000000a0: 2d74 853e 7381 a73d 8565 e33d 1257 843c
000000b0: c0e2 213e 17ee 823e d1ab a73d c874 e53d
000000c0: 087b 58be 1790 643d c40c c7bd 1b31 52bd
000000d0: 5fad 15bd 6fb9 35be b871 cdbd 581b 65be
000000e0: aa5f 8f3d 71ba ff3c 7eb2 2fbe c5ca 173e
000000f0: df49 1cbe 60d9 d2bc cf72 673e 2a88 1abe
00000100: 47b6 abbd 7f4b fabd f989 473d 7efc 56bc
00000110: a1a0 36be e5f4 1b3e 9e78 623e 55cb 333d
00000120: 8292 273e cf93 cd3d 2601 7bbe 3e3d 143d
00000130: c4f8 453e 66ba d9bd a46b dcbc 9b28 4c3e
00000140: a213 743c 8afd adbd d2c1 823e b8b7 d4bc
00000150: e8b6 4fbe b522 79be 55e3 e73d f8a1 7cbe
00000160: 5556 adbd f004 b33d eb72 803d 1f4d 973a
00000170: 77b7 a93d eb79 cb3d b916 383e e12c 113e
00000180: b182 bfbd 7ab5 683e 1b98 a63d 746e 213e
00000190: 4557 443e fc23 363e 0311 4cbe 1856 19be
000001a0: f048 183e a27b 403e 1d35 33be 1508 873e
000001b0: 4bde 6d3e d663 eabd 923f 97be edac 54be
000001c0: 341d 4f3e f573 013e f8a9 263e 6960 573d
000001d0: 20ae 5b3e 68a1 84be ce7e 63be 23d9 663e
000001e0: 4590 13be f3c8 b2be 3a73 493e 63c5 713d
000001f0: 9055 963e 48ae 23be be19 ff3d db00 c23d

weight f4 [512, 128]
-0.13223079 0.07475012 0.07546293 0.036173582 -0.09486229 0.12278238 0.06968116 -0.053139843
-0.04644785 -0.048371818 0.06983162 -0.05119835 0.124550864 0.22894868 0.035253912 -0.04401276
0.048700973 -0.058023795 0.04249537 0.044365432 0.081441745 0.029945983 0.06867619 -0.0032325592
0.11408811 -0.05074363 -0.05580261 -0.0752081 -0.033807077 -0.07363893 -0.05845492 0.033348475
0.062399603 0.0030752276 0.009488543 0.027546693 -0.09732955 0.020664684 0.043302838 -0.07454087
-0.092208505 0.05126191 -0.052972753 -0.10348179 -0.025427828 -0.06570119 -0.09861281 -0.05325306
-0.044084303 -0.030914957 -0.08559095 -0.07537306 -0.07655824 -0.04597539 0.043528017 0.04248867
-0.032874282 0.08194235 0.038085144 -0.033926353 -0.029048242 0.053850163 -0.047142293 0.09087434
-0.0023734923 0.06880938 -0.02482926 -0.10890072 0.027243115 0.13222277 0.060119204 0.1441285
0.0064453245 -0.04105685 -0.047132827 8.483778e-05 -0.070943736 -0.10165609 0.030621074 0.010615581
-0.037930656 -0.05611258 -0.056841478 0.037624292 0.074353024 0.090636484 -0.07306813 0.088538006
-0.033441618 -0.15308908 0.18926364 0.18113595 -0.013134336 -0.022523535 -0.11329903 -0.045180287
0.030441934 0.123308875 0.06698412 0.05993269 -0.014840949 0.0073131346 -0.07398656 0.056461968
-0.046008363 0.035375684 -0.025438277 0.009517605 -0.03194182 -0.0166486 -0.028599514 -0.06457614
0.03320732 -0.03201962 0.050316043 -0.1242976 0.0507516 0.041925352 -0.07043905 -0.070094965
0.04382941 -0.027659148 0.013181678 -0.018650202 0.11780167 0.08718718 -0.098384775 -0.1615279
0.044475984 -0.07737048 0.027165765 -0.04984876 0.024295025 -0.026614662 -0.014426569 -0.06274741
0.08207742 -0.04047497 0.0104068 0.01768956 -0.11417402 0.047897536 0.047931936 -0.012346204
0.016396334 0.105006725 -0.045967814 -0.032511618 0.020833973 0.049576234 0.08603302 -0.05186588
0.036116667 -0.07506001 0.00315035 -0.040116757 0.04190222 -0.04371999 -0.0051973993 -0.054420765
-0.030396108 -0.05002827 -0.036133796 -0.03709946 0.107620835 0.10725073 -0.040360857 0.047887802
0.00079390925 -0.025872715 0.07046774 0.05414644 -0.0717012 -0.030965105 -0.049377117 -0.0043502063
0.08072949 0.023228962 -0.03600486 -0.05268173 0.07851634 -0.10346047 -0.023348594 -0.035135206
-0.042782914 -0.010213224 0.068834625 0.06334927 0.051589984 0.0027436551 0.053271126 0.00449485
-0.0970025 -0.029258514 -0.068057396 -0.061787 -0.074432306 0.0284161 0.06938009 -0.069601685
-0.12125337 0.056916796 0.080754735 -0.039824326 -0.09817887 -0.040032946 0.04359634 -0.051279705
-0.059405442 0.052912492 0.019115647 0.020573586 -0.09668671 -0.008093118 0.0637091 -0.1091887
0.001953806 0.040844508 -0.12332008 0.060861215 0.07642156 -0.06800478 0.01300907 0.06310386
-0.04328941 -0.04833856 0.011283267 0.1022504 -0.047614053 -0.1168494 0.015512905 0.059585404
-0.045111082 -0.04856292 -0.00038795202 -0.07147239 -0.0070015267 0.061576836 0.07936562 -0.007530319
0.028840244 -0.08040077 -0.0052968655 0.023584476 0.03468058 0.07745005 -0.0910297 0.046800934
0.055273306 -0.10529992 0.070063226 -0.048517097 -0.040403794 -0.060825646 -0.054158166 0.002364229
00000000: 8267 07be 9716 993d 4f8c 9a3d c02a 143d
00000010: 2947 c2bd 5475 fb3d ffb4 8e3d 2aa9 59bd
00000020: 1a40 3ebd 8721 46bd e103 8f3d 5cb5 51bd
00000030: 8614 ff3d 8671 6a3e 6866 103d b946 34bd
00000040: ac7a 473d 5caa 6dbd a00f 2e3d 87b8 353d
00000050: eeca a63d 4751 f53c 1aa6 8c3d 58d9 53bb
00000060: 07a7 e93d 8dd8 4fbd 4791 64bd b406 9abd
00000070: 4a79 0abd 02d0 96bd 6d6e 6fbd 6998 083d
00000080: ba96 7f3d c289 493b d575 1b3c 9aa9 e13c
00000090: b754 c7bd fc48 a93c 515e 313d e2a8 98bd
000000a0: d0d7 bcbd 02f8 513d f5f9 58bd 43ee d3bd
000000b0: 054e d0bc 588e 86bd 83f5 c9bd e11f 5abd
000000c0: be91 34bd 5d41 fdbc 4f4a afbd 315d 9abd
000000d0: 91ca 9cbd b150 3cbd 6f4a 323d 9a08 2e3d
000000e0: 2fa7 06bd 64d1 a73d 2bff 1b3d 5cf6 0abd
000000f0: 94f6 edbc fd91 5c3d 4718 41bd 531c ba3d
00000100: 988c 1bbb efeb 8c3d bb66 cbbc 5707 dfbd
00000110: f42c df3c 6865 073e 8e3f 763d 6c96 133e
00000120: 4d33 d33b 3a2b 28bd 5a0e 41bd f0ea b138
00000130: f34a 91bd 1131 d0bd 0cd9 fa3c f9ec 2d3c
00000140: 2d5d 1bbd 4ed6 65bd 9cd2 68bd ee1b 1a3d
00000150: 6646 983d 9f9f b93d bea4 95bd 6a53 b53d
00000160: 14fa 08bd 62c3 1cbe 54ce 413e b47b 393e
00000170: 6631 57bc 4783 b8bc 5209 e8bd f70e 39bd
00000180: 5d61 f93c 5d89 fc3d f82e 893d fb7b 753d
00000190: 7427 73bc 05a3 ef3b 4486 97bd aa44 673d
000001a0: 4473 3cbd 18e6 103d ef63 d0bc bbef 1b3c
000001b0: 6dd5 02bd a562 88bc 8749 eabc 7f40 84bd
000001c0: 6604 083d 0127 03bd 3218 4e3d bd8f febd
000001d0: e9e0 4f3d ebb9 2b3d 5942 90bd f38d 8fbd
000001e0: 7886 333d 7095 e2bc f7f7 573c 4fc8 98bc
000001f0: 0142 f13d 318f b23d f57d c9bd 9267 25be
00000200: 732c 363d 6a74 9ebd bd8a de3c 372e 4cbd
00000210: 5c06 c73c fe06 dabc 6b5d 6cbc b781 80bd
00000220: 3518 a83d 15c9 25bd 4881 2a3c b2e9 903c
00000230: 12d4 e9bd 3530 443d 4754 443d bc47 4abc
00000240: 9b51 863c c40d d73d bf48 3cbd e72a 05bd
00000250: 02ac aa3c 7310 4b3d 1432 b03d 5171 54bd
00000260: 12ef 133d 10b9 99bd 1a76 4e3b 7851 24bd
00000270: aaa1 2b3d bb13 33bd f24e aabb 4fe8 5ebd
00000280: 4201 f9bc 71ea 4cbd 0801 14bd 9af5 17bd
00000290: 5068 dc3d 45a6 db3d 6d51 25bd 0026 443d
000002a0: 591e 503a 04f3 d3bc 6451 903d a8c8 5d3d
000002b0: 14d8 92bd 88aa fdbc a93f 4abd 2d8c 8ebb
000002c0: 8155 a53d aa4a be3c d579 13bd ccc8 57bd
000002d0: 2dcd a03d 15e3 d3bd 8d45 bfbc efe9 0fbd
000002e0: 233d 2fbd 5e55 27bc 2bf9 8c3d 43bd 813d
000002f0: 0550 533d e5ce 333b d332 5a3d 8949 933b
00000300: 3fa9 c6bd 8daf efbc ad61 8bbd 5e14 7dbd
00000310: f76f 98bd e2c8 e83c 2617 8e3d 548b 8ebd
00000320: b053 f8bd 9621 693d bd62 a53d d51e 23bd
00000330: 0112 c9bd 96f9 23bd 1392 323d ab0a 52bd
00000340: 1f53 73bd c5ba 583d 6b98 9c3c f089 a83c
00000350: af03 c6bd ff98 04bc eb79 823d 539e dfbd
00000360: 6d0b 003b 924c 273d 3d8f fcbd 9c49 793d
00000370: e882 9c3d 1746 8bbd ff23 553c 993c 813d
00000380: 3d50 31bd a7fe 45bd 74dd 383c a868 d13d
00000390: f406 43bd bd4e efbd d729 7e3c d30f 743d
000003a0: 66c6 38bd eae9 46bd 0a66 cbb9 1e60 92bd
000003b0: 106d e5bb fe37 7c3d 718a a23d e5c0 f6bb
000003c0: 6042 ec3c 29a9 a4bd 5491 adbb 3b34 c13c
000003d0: 390d 0e3d 229e 9e3d c86d babd 56b2 3f3d
000003e0: 4366 623d 7ca7 d7bd 4f7d 8f3d ddb9 46bd
000003f0: 737e 25bd 5024 79bd f4d4 5dbd 2ef1 1a3b

bias f4 [512]
-0.027135955 0.0606576 -0.052115146 -0.034164075 -0.13243657 -0.057695683 -0.04693416 0.016819116
0.044801693 -0.09309005 -0.041972183 -0.004197291 0.036293462 0.08460783 -0.15124561 -0.05694307
0.035783567 0.10569353 -0.03907046 0.023591705 -0.01606849 0.03308208 0.019823818 -0.0057472824
0.016451359 -0.048100796 -0.04949035 0.024445767 -0.0039712675 -0.04963186 -0.033085983 0.09408063
-0.050367694 0.03903917 -0.061924923 -0.05550803 -0.049323004 -0.02626167 -0.009351066 0.046214346
-0.0095129805 -0.062262785 0.069517665 0.026429122 0.06999189 -0.05607695 -0.080048196 -0.10169432
-0.042815622 0.07191531 -0.049702268 0.017417649 -0.03810356 -0.08141798 0.024480984 0.023470001
-0.06555964 0.10930257 0.017914783 -0.06471061 0.06095692 -0.023586173 -0.011356249 0.032929722
0.063182436 -0.05415643 0.11016944 -0.07314991 0.07518367 -0.08624932 0.09144748 0.036816332
0.08206849 0.00482793 0.02905109 -0.050263826 0.037933398 -0.023613233 -0.007656661 -0.045988176
-0.031360704 -0.03531229 -0.026936261 -0.009176433 -0.07798201 -0.046566438 -0.031311568 0.062482957
0.017580463 0.054941755 -0.059223924 -0.091974735 0.008727853 -0.06961286 0.0067994418 -0.017635971
0.06496938 0.004653839 -0.037773132 -0.06702314 -0.024350055 0.051023833 0.024012199 0.021369744
0.073826626 0.08717105 -0.01507392 0.09250771 -0.008099085 -0.0514726 0.058321383 -0.030450717
0.04658303 8.208818e-05 0.0063623427 -0.07897399 -0.040008012 0.03934823 -0.04633063 -0.03835645
0.027400691 0.05572044 0.054151073 0.036201864 0.004063752 -0.17575747 -0.047285438 0.09314535
0.04634938 0.06569585 -0.005172832 -0.05483084 0.0072659836 -0.016411955 0.008362794 -0.06979053
0.011688372 -0.002641091 -0.028561084 -0.05634546 0.0010306935 -0.033164833 0.020730512 0.03595271
-0.040505834 0.037990548 -0.01737261 -0.038861953 0.11561168 -0.021162607 0.06444788 0.07783956
0.05911233 0.03596623 -0.06423787 -0.028549625 -0.04894512 -0.02202709 -0.029701987 0.118841
-0.116592474 0.033176363 0.019031534 0.028765209 0.005365698 0.02882259 -0.09390814 -0.036383834
-0.068471104 -0.044589117 -0.09714132 -0.024345512 0.059369065 0.023658851 0.055305973 0.032893237
0.0431621 -0.082741305 0.044373687 0.02575403 0.0033243976 -0.022476085 0.07089217 0.04461878
0.025675992 -0.039233048 -0.10645489 -0.057344265 0.050480943 0.04695315 0.07831438 0.08332462
-0.013492233 0.08415398 0.03838948 0.10707027 -0.07850081 -0.0023696441 0.02742583 0.09488119
0.10362637 0.11358636 0.016321084 -0.06031156 -0.0027799227 0.05541498 -0.09672235 0.0420193
0.020838993 0.06100689 -0.0034418667 -0.004942842 0.06362884 0.062345933 -0.06172191 0.0651745
-0.06117415 0.038633768 -0.004164504 0.065552086 -0.13839936 0.00015514973 -0.060730316 -0.02012773
0.026577229 0.021808343 -0.018179266 -0.03399166 -0.030186474 0.023966515 0.096358106 -0.0032779064
0.02741447 -0.08654947 0.13812053 0.08946329 -0.061542407 -0.024121273 -0.055914387 0.013664487
0.0037991614 -0.03927063 -0.01637198 -0.05737458 0.00365167 -0.004838546 -0.050297912 -0.04277746
-0.013159441 0.022827867 -0.03449439 0.081958175 0.039877452 -0.07064091 -0.054554112 0.042498108
00000000: 394c debc 1b74 783d b176 55bd a1ef 0bbd
00000010: 749d 07be 4f52 6cbd 093e 40bd 3ec8 893c
00000020: fb81 373d ffa5 bebd 06eb 2bbd 6e89 89bb
00000030: 74a8 143d df46 ad3d 21e0 1abe 233d 69bd
00000040: ca91 123d d975 d83d 5908 20bd 6443 c13c
00000050: 11a2 83bc 1381 073d 8f65 a23c b353 bcbb
00000060: 00c5 863c 5705 45bd 65b6 4abd 7d42 c83c
00000070: 6821 82bb c74a 4bbd 2b85 07bd 58ad c03d
00000080: 5b4e 4ebd 89e7 1f3d fda4 7dbd 635c 63bd
00000090: eb06 4abd b722 d7bc 3735 19bc 414b 3d3d
000000a0: 55dc 1bbc 4307 7fbd 475f 8e3d e381 d83c
000000b0: e857 8f3d f2b0 65bd 4ff0 a3bd 1d45 d0bd
000000c0: 6f5f 2fbd 5648 933d 9b94 4bbd 75af 8e3c
000000d0: 7b12 1cbd 78be a6bd 588c c83c 2944 c03c
000000e0: 2244 86bd 07da df3d 06c2 923c ff86 84bd
000000f0: f7ad 793d ca37 c1bc 900f 3abc 51e1 063d
00000100: cb65 813d 22d3 5dbd 84a0 e13d 9fcf 95bd
00000110: e5f9 993d 7ca3 b0bd d148 bb3d b9cc 163d
00000120: 8613 a83d 9d33 9e3b 8dfc ed3c 71e1 4dbd
00000130: 0d60 1b3d 8a70 c1bc bae4 fabb 195e 3cbd
00000140: 1574 00bd 9fa3 10bd 6fa9 dcbc c058 16bc
00000150: 08b5 9fbd 73bc 3ebd 8f40 00bd 21ee 7f3d
00000160: e704 903c 9b0a 613d c994 72bd 405d bcbd
00000170: 45ff 0e3c 3091 8ebd dacd de3b 5079 90bc
00000180: ab0e 853d 3b7f 983b 00b8 1abd 6e43 89bd
00000190: c479 c7bc 5efe 503d 3bb5 c43c 9a0f af3c
000001a0: 6a32 973d bc86 b23d 9af8 76bc af74 bd3d
000001b0: 06b2 04bc efd4 52bd 67e2 6e3d c873 f9bc
000001c0: d9cd 3e3d c226 ac38 337b d03b 1ebd a1bd
000001d0: 71df 23bd 9c2b 213d 30c5 3dbd a71b 1dbd
000001e0: 6a77 e03c 1e3b 643d 84cd 5d3d 6848 143d
000001f0: 3929 853b c4f9 33be 60ae 41bd fdc2 be3d
00000200: d9d8 3d3d 8c8b 863d dc80 a9bb 4e96 60bd
00000210: 7d17 ee3b 5d72 86bc 1a04 093c 56ee 8ebd
00000220: 9680 3f3c 2716 2dbb eff8 e9bc 7fca 66bd
00000230: 5618 873a d9d7 07bd 09d3 a93c 2643 133d
00000240: 72e9 25bd fa9b 1b3d 0151 8ebc b62d 1fbd
00000250: d1c5 ec3d 345d adbc 40fd 833d 596a 9f3d
00000260: c51f 723d 5351 133d 258f 83bd e7e0 e9bc
00000270: ae7a 48bd 2872 b4bc 9551 f3bc e962 f33d
00000280: 09c8 eebd f0e3 073d 05e8 9b3c 04a5 eb3c
00000290: bdd2 af3b 5a1d ec3c e952 c0bd 3707 15bd
000002a0: 943a 8cbd 14a3 36bd 07f2 c6bd 3d70 c7bc
000002b0: fa2c 733d 35d0 c13c 8488 623d 0fbb 063d
000002c0: beca 303d 4674 a9bd 2fc1 353d 1efa d23c
000002d0: 23de 593b c41f b8bc ea2f 913d 2fc2 363d
000002e0: 7556 d23c d5b2 20bd 0505 dabd d2e1 6abd
000002f0: 1bc5 4e3d f251 403d 4a63 a03d 19a6 aa3d
00000300: 870e 5dbc ec58 ac3d 4a3e 1d3d a847 db3d
00000310: 08c5 a0bd 084c 1bbb 22ac e03c 1251 c23d
00000320: 103a d43d f79f e83d cbb3 853c 4109 77bd
00000330: 5d2f 36bb d1fa 623d 5e16 c6bd 6e1c 2c3d
00000340: 89b6 aa3c 5ce2 793d f190 61bb 90f7 a1bb
00000350: d64f 823d 735e 7f3d 1dd0 7cbd 357a 853d
00000360: bf91 7abd 713e 1e3d 6476 88bb 2c40 863d
00000370: 90b8 0dbe b0af 2239 5ac0 78bd e9e2 a4bc
00000380: 7db8 d93c 69a7 b23c afec 94bc d73a 0bbd
00000390: a049 f7bc 6d55 c43c 6657 c53d 25d2 56bb
000003a0: 5094 e03c d940 b1bd 786f 0d3e 8838 b73d
000003b0: e413 7cbd fa99 c5bc 7c06 65bd 03e1 5f3c
000003c0: 5afb 783b 3dda 20bd 881e 86bc 9c01 6bbd
000003d0: db50 6f3b aa8c 9ebb 2f05 4ebd 6b37 2fbd
000003e0: b29a 57bc 8201 bb3c fd49 0dbd b0d9 a73d
000003f0: 8a56 233d 2eac 90bd 2274 5fbd 7f12 2e3d

weight f4 [256, 512]
0.011336517 0.009404588 -0.043735668 -0.020988965 0.07544118 0.049455605 0.052279055 -0.015476475
-0.06926065 -0.014284565 0.012570317 -0.018669754 -0.0046234448 0.01595142 0.006742101 0.009510628
0.020772317 0.11287472 0.0053538946 0.0018192952 0.04391842 -0.03286473 0.04117283 -0.02765334
0.02912212 0.0068612886 0.02879931 0.012640086 -0.042208433 -0.09463611 0.045008183 0.009364697
-0.049619876 0.032918505 0.038250826 -0.0010965707 -0.0014024727 -0.016225172 0.018599248 0.03984232
0.017303668 -0.04017253 0.037187494 -0.04079429 -0.022565795 0.033689037 -0.0056682364 0.016469486
-0.042484246 -0.055267975 -0.04102337 0.014861347 0.02025303 -0.025932621 -0.0034859814 -0.0058917124
-0.03208389 0.0014577279 -0.03394485 0.04115018 -0.030206667 0.0350797 -0.01651145 -0.0011681755
0.0019924867 -0.0055883587 0.013993376 0.003716174 -0.05607642 -0.0016305556 -0.049474854 -0.023497023
0.065349154 0.02533694 -0.011265615 -0.021668445 -0.014826012 -0.0053770225 0.057347327 0.002244038
-0.023915822 0.02703614 -0.046855252 0.019904329 -0.03449278 -0.037524972 -0.0061755143 -0.06250267
-0.0363693 0.063601464 0.014924995 0.022298511 -0.026181655 -0.00566458 -0.031075748 -0.026468044
-0.013896196 -0.034219608 -0.034050915 -0.029139617 0.0036573717 0.022999054 -0.024447227 -0.009961626
-0.043978658 0.037232175 0.0030343286 -0.04670732 -0.0049456717 -0.038635187 -0.06112475 0.035117466
0.044867367 -0.004637518 -0.0147233615 -0.030666066 -0.09169693 0.018635577 -0.04161916 0.009853613
-0.0054161935 -0.052583154 -0.019342875 0.032446574 -0.054197367 -0.007659949 -0.02094103 0.0019416136
-0.03623774 0.022513438 -0.047266006 0.0015916121 -0.032378472 0.036045883 0.028783645 -0.05689362
-0.00954561 0.020576265 -0.023946736 0.025269886 0.019003645 0.018403897 -0.0022557804 0.034906097
0.014192698 0.02345483 -0.044722013 -0.0044058943 0.01777436 -0.03361238 0.03959853 0.005631943
-0.052134447 0.03422352 -0.019360097 -0.039306648 -0.01953973 0.030597843 0.041555684 -0.030940048
-0.059149552 -0.054764505 -0.048385777 -0.027818237 -0.04431793 0.028677111 0.026733803 0.05104357
-0.014616619 -0.06747325 -0.026129631 0.012279317 -0.0110378675 0.03895625 -0.020950744 0.0070748674
-0.00014427555 -0.012845641 -0.048585176 0.025835501 0.026595442 -0.040084474 -0.003190178 -0.0140488455
-0.020525344 0.026717193 0.018743452 -0.05065708 -0.00089231896 8.563695e-05 -0.055578142 -0.009601789
0.08847032 0.016287653 0.015822237 -0.019237578 0.03312341 0.020681845 -0.055167828 0.018076759
0.05474495 -0.023401812 0.0012704595 -0.048254136 -0.029839415 -0.012828607 0.013344811 0.052388486
0.0054560187 0.023459017 0.01633729 -0.033050824 -0.009768129 0.02067025 -0.016951185 0.027874598
-0.022410551 -0.004531466 -0.062328488 -0.05136339 0.018499617 0.04762079 0.047554675 0.020465905
0.003412667 0.029601974 -0.03524602 0.06622544 -0.053531066 -0.052579276 0.03172209 0.019972177
-0.012259783 0.002249037 -0.00915274 0.04901791 0.03083745 0.020749433 0.008066958 0.040673345
-0.0955962 0.020561641 0.04010738 -0.06338194 0.0034513513 0.016087903 0.024193076 -0.0071126847
-0.015543372 -0.069644675 -0.0036272276 -0.008621243 0.035668764 0.03878164 -0.01791149 0.033257183
00000000: ccbc 393c b315 1a3c 2c24 33bd 0df1 abbc
00000010: e880 9a3d f691 4a3d 9022 563d 0a91 7dbc
00000020: 87d8 8dbd cf09 6abc bbf3 4d3c 50f1 98bc
00000030: 4480 97bb 8dac 823c d8ec dc3b 77d2 1b3c
00000040: b52a aa3c dc2a e73d b96f af3b 6b75 ee3a
00000050: cde3 333d 2b9d 06bd d7a4 283d 4289 e2bc
00000060: 8391 ee3c a9d4 e03b 88ec eb3c 5d18 4f3c
00000070: c0e2 2cbd 94d0 c1bd 805a 383d 636e 193c
00000080: 363e 4bbd 8ed5 063d e6ac 1c3d cfba 8fba
00000090: 2dd3 b7ba a7ea 84bc 735d 983c b331 233d
000000a0: 6cc0 8d3c f38b 24bd ea51 183d ea17 27bd
000000b0: e7db b8bc 84fd 093d 9dbc b9bb 04eb 863c
000000c0: f603 2ebd ac60 62bd 1f08 28bd 027d 733c
000000d0: afe9 a53c a670 d4bc 1075 64bb 440f c1bb
000000e0: 666a 03bd 3b11 bf3a c109 0bbd 178d 283d
000000f0: f973 f7bc bbaf 0f3d 0543 87bc 771d 99ba
00000100: 6194 023b 8d1e b7bb 7944 653c 0e8b 733b
00000110: 63b0 65bd 5eb8 d5ba 25a6 4abd d47c c0bc
00000120: c7d5 853d 6a8f cf3c 6a93 38bc 0682 b1bc
00000130: cde8 72bc bc31 b0bb 08e5 6a3d b610 133b
00000140: 1deb c3bc e57a dd3c 4beb 3fbd 670e a33c
00000150: 4d48 0dbd c9b3 19bd f85b cabb 6601 80bd
00000160: faf7 14bd 7c41 823d f787 743c 5eab b63c
00000170: e97a d6bc f19d b9bb 9192 febc 83d3 d8bc
00000180: dfac 63bc dc29 0cbd f978 0bbd 35b6 eebc
00000190: 84b0 6f3b 8368 bc3c 8d45 c8bc 1636 23bc
000001a0: f722 34bd c480 183d 96db 463b 2d50 3fbd
000001b0: 4d0f a2bb ee3f 1ebd f25d 7abd 55d7 0f3d
000001c0: d8c6 373d 52f6 97bb 413a 71bc 6737 fbbc
000001d0: 9acb bbbd a3a9 983c da78 2abd 0c71 213c
000001e0: 537a b1bb 6f61 57bd f374 9ebc b3e6 043d
000001f0: 0ffe 5dbd 4f00 fbbb 868c abbc be7d fe3a
00000200: 066e 14bd 1a6e b83c 009a 41bd a49d d03a
00000210: 4a9f 04bd d9a4 133d aecb eb3c 4909 69bd
00000220: 3165 1cbc 8e8f a83c f22b c4bc cb02 cf3c
00000230: 88ad 9b3c c5c3 963c b7d5 13bb b2f9 0e3d
00000240: 7d88 683c 5824 c03c 6e2e 37bd 525f 90bb
00000250: 899b 913c 23ad 09bd 1132 223d 298c b83b
00000260: ee8a 55bd f62d 0c3d 1199 9ebc 0200 21bd
00000270: c911 a0bc 54a8 fa3c 4b36 2a3d fc75 fdbc
00000280: cd46 72bd bf50 60bd 2a30 46bd 12e3 e3bc
00000290: b886 35bd 43ec ea3c d900 db3c 1013 513d
000002a0: 8b7a 6fbc 6a2f 8abd cf0d d6bc 302f 493c
000002b0: 2cd8 34bc 9790 1f3d e5a0 abbc 4ad4 e73b
000002c0: ac48 17b9 8676 52bc 4001 47bd f9a4 d33c
000002d0: afde d93c 9e2f 24bd 4e12 51bb 212d 66bc
000002e0: c424 a8bc 04de da3c de8b 993c cc7d 4fbd
000002f0: 83ea 69ba fd97 b338 e8a5 63bd d250 1dbc
00000300: ed2f b53d af6d 853c a39d 813c 2098 9dbc
00000310: 6aac 073d f96c a93c a9f7 61bd b615 943c
00000320: 3e3c 603d 28b5 bfbc 8c85 a63a 21a6 45bd
00000330: ca71 f4bc 142f 52bc 32a4 5a3c 4f95 563d
00000340: 67c8 b23b 202d c03c c8d5 853c 4d60 07bd
00000350: 810a 20bc a854 a93c 36dd 8abc 4559 e43c
00000360: 5596 b7bc b17c 94bb 284c 7fbd 6b62 52bd
00000370: 828c 973c 040e 433d b1c8 423d 1da8 a73c
00000380: 0da7 5f3b d77f f23c 215e 10bd 34a1 873d
00000390: 6443 5bbd 5e5d 57bd 06ef 013d b19c a33c
000003a0: 42dd 48bc 9464 133b 60f5 15bc 01c7 483d
000003b0: d29e fc3c b7fa a93c 462b 043c 1899 263d
000003c0: f1c7 c3bd e370 a83c a347 243d 64ce 81bd
000003d0: 1130 623b c7ca 833c 8f30 c63c 8611 e9bb
000003e0: a1a9 7ebc dea1 8ebd c8b6 6dbb 1d40 0dbc
000003f0: 6919 123d 7fd9 1e3d 1ebb 92bc af38 083d

bias f4 [256]
0.021261927 0.11156726 -0.100536026 -0.024307242 -0.09561445 0.03472146 -0.044531092 0.008974113
0.03248756 0.014847658 -0.05764837 -0.032906253 -0.041850787 0.042002525 0.010612717 -0.08146393
0.0015224002 -0.035977546 -0.07076372 -0.020308657 -0.015645657 0.038744748 -0.051399063 0.04885952
0.011309186 -0.028355476 0.022542851 -0.08281036 0.0520671 -0.04670257 -0.009056138 -0.013089323
0.07836694 0.022450333 0.099009186 0.02501216 0.016112026 0.0066561224 0.044497743 0.021149531
0.08082514 0.027267884 0.0053530876 -0.025521552 0.05978004 0.053998604 -0.019393537 0.100625284
-0.026679425 -0.014439015 -0.025049878 -0.029399777 -0.026491685 -0.068284385 0.017821793 0.038841058
0.08301399 0.036145005 0.056105368 -0.022072613 0.014427314 0.030000653 -0.111505285 -0.016845675
0.018339204 0.027170599 -0.004566709 0.0045847166 0.0070992494 0.028764488 0.06164292 0.020941203
-0.004453548 -0.034854103 0.09148392 -0.00088575337 0.01157536 0.0369027 0.024261795 -0.0033194553
-0.027738983 -0.09606047 0.023782467 -0.018135905 -0.050934795 -0.034817472 0.024141802 -0.0012403688
-0.12052547 -0.014526455 0.034428727 0.015879354 -0.0062612207 0.02574127 0.06498266 0.038289648
-0.037051294 0.014318668 -0.01858862 0.071807675 0.0075287214 0.043953653 0.007274643 0.0396015
-0.026090352 0.023502462 -0.055630017 0.032867696 0.029418325 -0.0052626673 -0.061324243 0.012224538
-0.019999526 -0.053543642 0.056561045 -0.01827486 -0.037643243 0.0041364385 0.014531143 0.01462298
0.0028378158 -0.033141814 0.08566745 -0.10786222 -0.025791971 -0.0077294675 0.0489363 -0.06779402
0.032069787 -0.03250942 0.029943522 0.02818985 0.07832721 0.008724517 -0.017949445 -0.12117392
0.038270514 -0.06682538 -0.07477198 -0.023388172 -0.052312605 0.061695118 -0.0037175226 0.05527666
-0.031837363 0.065385126 -0.007026549 0.0031950003 -0.013070563 -0.056000203 0.052026287 -0.016381064
0.089189716 -0.005572187 -0.011613846 -0.080290385 0.063788205 0.037404638 0.10293102 -0.017045163
0.023773473 -0.031039575 0.121035196 -0.056960918 0.118608415 0.03960975 -0.019117335 -0.040617548
0.022449369 0.044922605 0.0029038577 0.039467964 -0.002092726 0.025687633 -0.0026898813 0.0037375898
0.036999255 -0.021831775 -0.030879742 -0.116123416 0.009458516 -0.025514279 -0.0010388965 -0.073266104
0.061359096 -0.045641214 -0.024548717 -0.039534938 -0.0052516293 0.04839985 0.01972366 -0.0615257
0.041386604 0.027352652 0.04187828 0.061818983 0.010576026 0.018574996 -0.007207835 0.0068726023
-0.04873021 0.09542612 0.0157659 -0.0686633 0.027583608 0.023631163 0.049237177 0.08877434
0.027557638 0.07430223 0.013273637 -0.097896874 -0.017493164 0.00043840645 0.017394416 0.051700443
-0.064017236 -0.007114195 0.106194235 0.062231787 0.014619846 -0.021271734 0.08105835 0.046249986
-0.089008816 0.016521113 0.051460657 0.014557982 0.021815896 -0.1413058 0.040336836 -0.0034862421
-0.018184904 -0.009813379 0.0016790892 0.008432952 0.025814498 -0.022343779 0.06523314 -0.04502525
0.041964594 0.026810985 0.0021941962 -0.06920176 0.100558616 -0.026087705 0.020488476 -0.049430035
1.0127296e-05 -0.0076317256 0.14129327 0.025004145 -0.04041114 0.06267867 -0.022524627 0.09139775
00000000: 7e2d ae3c 607d e43d d5e5 cdbd fb1f c7bc
00000010: 82d1 c3bd 1738 0e3d 3c66 36bd 2808 133c
00000020: ad11 053d 9743 733c b220 6cbd b5c8 06bd
00000030: bb6b 2bbd d70a 2c3d f6e0 2d3c 90d6 a6bd
00000040: 468b c73a 315d 13bd 92ec 90bd 575e a6bc
00000050: 522b 80bc d0b2 1e3d d387 52bd ec20 483d
00000060: 2a4a 393c be49 e8bc c9ab b83c 7a98 a9bd
00000070: 5044 553d 324b 3fbd 3260 14bc 9a74 56bc
00000080: d97e a03d c3e9 b73c 54c5 ca3d 4de6 cc3c
00000090: 5efd 833c 9a1b da3b 4443 363d c841 ad3c
000000a0: a787 a53d e660 df3c f468 af3b 9312 d1bc
000000b0: eadb 743d a42d 5d3d 32df 9ebc a114 ce3d
000000c0: cf8e dabc 9e91 6cbc 6735 cdbc cdd7 f0bc
000000d0: 1705 d9bc afd8 8bbd 02ff 913c cd17 1f3d
000000e0: 3d03 aa3d c90c 143d bece 653d a0d1 b4bc
000000f0: 8a60 6c3c eec3 f53c e25c e4bd f1ff 89bc
00000100: 193c 963c e094 de3c 55a4 95bb 643b 963b
00000110: d2a0 e83b 81a3 eb3c 497d 7c3d e38c ab3c
00000120: 12ef 91bb 2dc3 0ebd ec5b bb3d e731 68ba
00000130: 94a6 3d3c 4927 173d acc0 c63c 388b 59bb
00000140: dd3c e3bc 5abb c4bd 73d3 c23c c091 94bc
00000150: 01a1 50bd c49c 0ebd 07c5 c53c df93 a2ba
00000160: 0fd6 f6bd 5e00 6ebc 2305 0d3d 6b15 823c
00000170: ed2a cdbb 5bdf d23c a115 853d 9bd5 1c3d
00000180: 19c3 17bd d998 6a3c 2947 98bc e70f 933d
00000190: 7eb3 f63b bf08 343d 2160 ee3b 2f35 223d
000001a0: 6fbb d5bc 3c88 c03c 4ddc 63bd 47a0 063d
000001b0: b3fe f03c 7472 acbb 212f 7bbd 6e49 483c
000001c0: 0cd6 a3bc 9450 5bbd 8eac 673d 29b5 95bc
000001d0: cd2f 1abd f68a 873b 0814 6e3c 3995 6f3c
000001e0: a6fa 393b b6bf 07bd 6b72 af3d dee6 dcbd
000001f0: af49 d3bc 7947 fdbb 6e71 483d 97d7 8abd
00000200: 9c5b 033d 9928 05bd 1e4c f53c 66ee e63c
00000210: 046a a03d 47f1 0e3c b70a 93bc 082a f8bd
00000220: 8bc1 1c3d bfdb 88bd 0d22 99bd 8d98 bfbc
00000230: be45 56bd 05b4 7c3d aea1 73bb c769 623d
00000240: e567 02bd a3e8 853d f73e e6bb 3663 513b
00000250: ea25 56bc 7860 65bd 8419 553d 9531 86bc
00000260: 19a9 b63d e496 b6bb 0048 3ebc 496f a4bd
00000270: 64a3 823d 9b35 193d 80cd d23d 4ca2 8bbc
00000280: 96c0 c23c b546 febc 4de1 f73d da4f 69bd
00000290: f8e8 f23d d53d 223d f59b 9cbc 965e 26bd
000002a0: bde7 b73c c400 383d a64e 3e3b 29a9 213d
000002b0: 1e26 09bb df6e d23c b848 30bb 5af2 743b
000002c0: 888c 173d 8dd8 b2bc 83f7 fcbc 1dd2 edbd
000002d0: e4f7 1a3c 5203 d1bc 952b 88ba 8a0c 96bd
000002e0: ad53 7b3d 48f2 3abd 641a c9bc 63ef 21bd
000002f0: dc15 acbb ec3e 463d 8393 a13c 5f02 7cbd
00000300: 0085 293d ab12 e03c 8f88 2b3d e735 7d3d
00000310: 1147 2d3c 972a 983c b42f ecbb 9133 e13b
00000320: 5499 47bd c56e c33d 7d27 813c 589f 8cbd
00000330: 05f7 e13c 2496 c13c ecac 493d 52cf b53d
00000340: 8ec0 e13c c42b 983d ab79 593c 287e c8bd
00000350: d34d 8fbc ebd9 e539 bc7e 8e3c d8c3 533d
00000360: 781b 83bd 311e e9bb 5d7c d93d c2e6 7e3d
00000370: 1488 6f3c 0f42 aebc ec01 a63d a070 3d3d
00000380: 414a b6bd 4957 873c 69c8 523d 9a84 6e3c
00000390: 40b7 b23c 78b2 10be 3d38 253d 7079 64bb
000003a0: 82f8 94bc 4bc8 20bc e214 dc3a 5d2a 0a3c
000003b0: ed78 d33c 4d0a b7bc f498 853d 666c 38bd
000003c0: 11e3 2b3d b6a2 db3c 81cc 0f3b a7b9 8dbd
000003d0: adf1 cd3d e2b5 d5bc 73d7 a73c 2677 4abd
000003e0: 68e8 2937 8e13 fabb 2faf 103e 7ed5 cc3c
000003f0: 2786 25bd ad5d 803d 9185 b8bc be2e bb3d

weight f4 [128, 256]
-0.07024734 -0.013200786 0.020160394 0.04045848 0.09678966 -0.12186929 0.09634649 -0.08832463
-0.152306 0.056078833 -0.02217509 -0.029841458 -0.031054858 -0.0728168 0.0074003376 0.1219913
-0.002873687 0.07903209 -0.07882578 0.042141728 0.015893297 -0.11311078 0.0028590504 0.026598394
0.011149318 0.0030980625 -0.004064537 -0.013163877 -0.070783265 -0.068040535 0.02797791 0.010222466
-0.04039201 -0.07057101 -0.05911046 -0.09761057 0.015135376 -0.11835846 -0.04478415 -0.0028653345
-0.087232076 -0.010347825 0.017613359 0.058668308 -0.0033329492 -0.09335335 0.018599786 -0.092583455
0.06446838 -0.056594793 -0.0071812863 0.07360608 -0.029558333 0.22444701 0.04779849 -0.023511218
-0.017691072 -0.0141325435 0.0030424122 -0.06106323 0.022441028 0.0018273173 0.06457437 0.030995604
-0.06443004 -0.05621351 -0.09491129 0.03866602 -0.013273923 -0.02892694 -0.02278792 0.0031102085
0.0034647868 0.015545208 -0.00049172586 0.040624667 -0.028921125 0.0077914326 0.037190318 0.14261678
-0.026207356 0.18740004 0.0037796218 0.030409949 0.026192056 -0.027132276 -0.049859077 0.06695608
0.07733051 -0.073395744 -0.03202768 -0.015099208 -0.031178523 -0.027545264 -0.053627416 -0.023408087
0.02563862 -0.044063546 0.00019076787 -0.11014455 -0.072454795 0.05446404 0.043484595 0.0028658013
-0.0147413695 -0.035190083 -0.040734526 -0.11063141 -0.0615206 -0.08042133 0.005822348 0.02114162
0.07537513 0.09378125 -0.0735246 -0.015097052 -0.017981628 -0.11002435 -0.06707775 -0.07432548
0.03139916 0.0418636 0.02036122 0.06258961 -0.028533002 -0.060050208 -0.06574971 0.10214354
-0.08350991 0.0018904158 -0.045979828 -0.08742128 -0.06722496 0.043982595 0.010578403 0.12930632
-0.022525674 -0.006889883 0.029883457 0.09871895 0.054532096 -0.06428388 0.0012191442 -0.045824785
0.095999435 -0.028010454 -0.08922327 -0.047891837 -0.045675047 0.10054214 -0.07761685 -0.011412775
-0.054557744 -0.01161846 -0.031827018 -0.004179551 0.00077633315 -0.05763498 -0.011957587 0.011973178
0.030618893 -0.029097317 -0.062428672 0.056930117 -0.1356959 -0.030558156 -0.021780264 -0.013077923
-0.008937866 -0.061634567 -0.030815857 -0.07606126 0.02357302 -0.047770076 0.09222145 0.0015622942
-0.008785735 0.18637384 0.044411965 0.04397129 0.052022807 -0.0057408316 0.049055267 0.06468639
-0.06737154 0.048485443 0.07466867 0.040346462 -0.10486996 0.0031286308 -0.00523995 -0.04128168
0.027362945 0.06240089 -0.031982407 -0.027242765 -0.114254825 0.034817293 -0.033834614 0.037508372
0.033953246 -0.08138905 0.019308766 0.033079304 0.0169347 -0.014968532 0.020964164 -0.04534539
0.0036260993 -0.027450826 -0.09756475 0.12366782 -0.059086084 0.07236002 -0.033229932 -0.074573345
0.1328757 0.07568758 -0.09381419 -0.07264129 0.015262231 0.0063392506 -0.10075225 0.02039973
0.12557773 0.02096474 -0.035667658 -0.04147541 0.033778943 0.117293864 -0.047816433 -0.091145195
0.0032592143 0.007120066 0.055629138 0.073200636 -0.04468104 0.103876255 -0.03711768 -0.09478805
-0.041316733 -0.04736473 -0.022593975 0.027593235 -0.07113796 0.06363042 -0.005861221 0.028261924
-0.011494417 -0.034759566 -0.035835117 -0.022390129 -0.15551168 -0.027348468 0.024221333 -0.09106224
00000000: d6dd 8fbd 1c48 58bc 6927 a53c cbb7 253d
00000010: a839 c63d 9b96 f9bd 4f51 c53d 8be3 b4bd
00000020: 1bf6 1bbe ebb2 653d 89a8 b5bc 1376 f4bc
00000030: c266 febc f920 95bd 887e f23b 93d6 f93d
00000040: 7854 3cbb 94db a13d 696f a1bd ce9c 2c3d
00000050: a932 823c a0a6 e7bd e85e 3b3b e0e4 d93c
00000060: a1ab 363c dd08 4b3b cf2f 85bb 4dad 57bc
00000070: d1f6 90bd d658 8bbd ee31 e53c 217c 273c
00000080: 1872 25bd 8987 90bd cf1d 72bd 0de8 c7bd
00000090: 5efa 773c ec65 f2bd 966f 37bd 56c8 3bbb
000000a0: bba6 b2bd ec89 29bc e449 903c 2e4e 703d
000000b0: 9c6d 5abb 0b30 bfbd 945e 983c 659c bdbd
000000c0: ff07 843d f1cf 67bd ff50 ebbb c9be 963d
000000d0: 5124 f2bc 70d5 653e 59c8 433d 999a c0bc
000000e0: deec 90bc 2f8c 67bc 3563 473b 701d 7abd
000000f0: 3fd6 b73c 9882 ef3a 913f 843d 7eea fd3c
00000100: e6f3 83bd 2340 66bd da60 c2bd 4360 1e3d
00000110: de7a 59bc 31f8 ecbc bbad babc a4d4 4b3b
00000120: 7a11 633b 54b1 7e3c 2ae7 00ba 0d66 263d
00000130: ffeb ecbc 464f ff3b e054 183d 220a 123e
00000140: cfb0 d6bc cce5 3f3e 88b3 773b 491e f93c
00000150: b990 d63c 8244 debc 0839 4cbd 4520 893d
00000160: 755f 9e3d 8250 96bd 752f 03bd ab62 77bc
00000170: 1a6a ffbc 9ba6 e1bc 6ca8 5bbd 51c2 bfbc
00000180: 1508 d23c fa7b 34bd dc08 4839 7793 e1bd
00000190: 2e63 94bd af15 5f3d e71c 323d 2bd0 3b3b
000001a0: c985 71bc 7a23 10bd 3fd9 26bd b892 e2bd
000001b0: 06fd 7bbd f0b3 a4bd 65c9 be3b 3131 ad3c
000001c0: 475e 9a3d 6210 c03d 1194 96bd a059 77bc
000001d0: 354e 93bc 7254 e1bd 0f60 89bd f537 98bd
000001e0: 689c 003d 2b79 2b3d 93cc a63c fb2e 803d
000001f0: 0bbe e9bc 35f7 75bd c9a7 86bd a230 d13d
00000200: 3e07 abbd d4c7 f73a 5855 3cbd ee09 b3bd
00000210: 3dad 89bd 1827 343d 0a51 2d3c e068 043e
00000220: c387 b8bc 87c4 e1bb 27ce f43c 292d ca3d
00000230: 0c5d 5f3d 44a7 83bd b1cb 9f3a c5b2 3bbd
00000240: 5a9b c43d 2e76 e5bc b1ba b6bd 3b2a 44bd
00000250: c215 3bbd 0ae9 cd3d 95f5 9ebd a6fc 3abc
00000260: f177 5fbd 5a5b 3ebc 0c5d 02bd 9df4 88bb
00000270: d682 4b3a a812 6cbd c1e9 43bc 262b 443c
00000280: 79d4 fa3c 7f5d eebc 35b5 7fbd 8e2f 693d
00000290: def3 0abe 1955 fabc 866c b2bc c944 56bc
000002a0: 2170 12bc 8774 7cbd 8971 fcbc 02c6 9bbd
000002b0: 351c c13c 8eaa 43bd 99de bc3d e5c5 cc3a
000002c0: 0bf2 0fbc c9d8 3e3e 52e9 353d 3d1b 343d
000002d0: de15 553d 961d bcbb 2dee 483d 4c7a 843d
000002e0: 17fa 89bd ac98 463d e3eb 983d 5542 253d
000002f0: 10c6 d6bd b709 4d3b e3b3 abbb fb16 29bd
00000300: 4128 e03c 1398 7f3d fcff 02bd 382c dfbc
00000310: 6ffe e9bd 949c 0e3d 2a96 0abd 61a2 193d
00000320: 8f12 0b3d 4daf a6bd 6b2d 9e3c 2a7e 073d
00000330: a4ba 8a3c 933e 75bc 0abd ab3c 16bc 39bd
00000340: daa3 6d3b 8ee0 e0bc 07d0 c7bd 8e45 fd3d
00000350: 4004 72bd 7d31 943d 1c1c 08bd e9b9 98bd
00000360: 9110 083e 1702 9b3d a721 c0bd f5c4 94bd
00000370: 700e 7a3c 7db9 cf3b 3257 cebd 561d a73c
00000380: 7397 003e 3fbe ab3c 4018 12bd 1fe2 29bd
00000390: ca5b 0a3d c437 f03d 2adb 43bd 55aa babd
000003a0: 8b98 553b 714f e93b 61db 633d 37ea 953d
000003b0: 7703 37bd 13bd d43d b508 18bd 3d20 c2bd
000003c0: bc3b 29bd 8501 42bd 0017 b9bc 350b e23c
000003d0: c7b0 91bd aa50 823d 7c0f c0bb 8d85 e73c
000003e0: 1453 3cbc 0c60 0ebd d8c7 12bd 816b b7bc
000003f0: 743e 1fbe e509 e0bc d16b c63c d77e babd

bias f4 [128]
-0.19937183 0.0928375 -0.079896554 0.057772648 0.10487919 0.059340905 0.121074624 -0.09388048
0.08454507 -0.043250922 0.030958705 -0.2239351 0.12316579 -0.10483475 0.11296335 0.061294805
-0.115266725 0.02983345 0.1118326 -0.1338371 -0.14593631 0.009883915 0.072099224 -0.002812833
-0.0072694374 0.14263998 0.1242385 0.026197778 -0.17203484 -0.27003843 -0.0059792236 -0.11077781
0.0104249725 -0.033558134 0.11199498 0.007578293 0.0663374 -0.13255486 0.01287349 0.12094413
-0.15819778 0.0638243 0.08779056 -0.045705844 -0.057672966 -0.074398 0.058529004 0.051703334
0.0937083 -0.24654046 0.017625535 -0.06382867 -0.1573562 -0.12675571 0.013143856 0.077936925
-0.124227464 0.07497612 -0.0016365963 0.077099405 0.004579932 0.06280852 0.0367967 -0.09142243
0.010726021 0.06447042 -0.098959796 -0.090697065 -0.08963438 -0.11711281 -0.12349991 -0.15523246
0.05936924 0.067718364 0.004612531 0.10584745 -0.1221691 -0.07764212 -0.123536155 -0.11027278
0.14891833 -0.053006824 -0.05299229 0.058767617 -0.07502886 0.13707514 -0.028598493 0.11996594
0.12317669 -0.10303335 0.10882126 -0.07486143 0.012510009 0.09854133 0.039558057 0.088102944
0.13109262 0.073643915 0.09020165 0.117899396 0.06681002 0.014475669 0.032186158 0.084558845
0.12253256 -0.032663897 0.10538053 -0.0330817 0.022411425 -0.068900086 -0.13761139 -0.15847808
-0.040662408 0.02275771 0.07980658 0.06409963 0.07448354 0.011450667 0.00014778221 0.029098269
0.104929894 -0.14001343 0.11021555 -0.019601729 -0.020387638 -0.1677594 0.041308038 -0.07001294
00000000: 2128 4cbe 9621 be3d cea0 a3bd 03a3 6c3d
00000010: e7ca d63d 730f 733d f9f5 f73d 6944 c0bd
00000020: f725 ad3d e127 31bd 1c9d fd3c 3e4f 65be
00000030: 593e fc3d 9ab3 d6bd 5459 e73d 4310 7b3d
00000040: f610 ecbd 4865 f43c 7d08 e53d 980c 09be
00000050: 5470 15be 25f0 213c c2a8 933d 8257 38bb
00000060: 7634 eebb 3710 123e c170 fe3d b99c d63c
00000070: e729 30be 7a42 8abe 5ded c3bb 7adf e2bd
00000080: 81cd 2a3c 4174 09bd a05d e53d 5453 f83b
00000090: e7db 873d 76bc 07be 55eb 523c 8eb1 f73d
000000a0: 99fe 21be 51b6 823d 8acb b33d 0d36 3bbd
000000b0: 7d3a 6cbd fb5d 98bd 1cbc 6f3d e0c6 533d
000000c0: 23ea bf3d 1a75 7cbe 6d63 903c 9bb8 82bd
000000d0: fc21 21be 40cc 01be 5459 573c 659d 9f3d
000000e0: f86a febd 148d 993d 0f83 d6ba 4be6 9d3d
000000f0: 4113 963b c1a1 803d 23b8 163d af3b bbbd
00000100: 31bc 2f3c 1109 843d 6fab cabd 62bf b9bd
00000110: 3b92 b7bd d7d8 efbd 85ed fcbd 42f5 1ebe
00000120: 292d 733d edaf 8a3d b724 973b 8cc6 d83d
00000130: cb33 fabd d502 9fbd 8600 fdbd b2d6 e1bd
00000140: 0c7e 183e af1d 59bd 720e 59bd 50b6 703d
00000150: bba8 99bd 6d5d 0c3e 6347 eabc b4b0 f53d
00000160: 0f44 fc3d 2603 d3bd aedd de3d f350 99bd
00000170: c8f6 4c3c 09d0 c93d a107 223d 516f b43d
00000180: 253d 063e 9fd2 963d a5bb b83d 3d75 f13d
00000190: b1d3 883d 5b2b 6d3c a2d5 033d 302d ad3d
000001a0: 5af2 fa3d 94ca 05bd bfd1 d73d ad80 07bd
000001b0: 2a98 b73c 7d1b 8dbd 00ea 0cbe 1448 22be
000001c0: a08d 26bd 616e ba3c a271 a33d ab46 833d
000001d0: d48a 983d 949b 3b3c fcf5 1a39 7e5f ee3c
000001e0: 7ce5 d63d ae5f 0fbe b1b8 e13d ce93 a0bc
000001f0: fa03 a7bc 1fc9 2bbe 9e32 293d f262 8fbd
