result/aug_20_model_22.pt (torch, 934120 bytes, 9 tensors)

weight f4 [128, 13]
0	0xbe4a646a	-0.19764867
1	0x3d173628	0.03691688
2	0xbe18f773	-0.14938144
3	0xbdc6ac60	-0.09700847
4	0x3e59421b	0.21216623
5	0xbe9b4742	-0.30327803
6	0xbd9021e0	-0.07037711
7	0xbe321e5a	-0.1739439
8	0x3e4b21cc	0.19837111
9	0x3e423378	0.18964946
10	0xbd9b6df3	-0.075893305
11	0x3db2581c	0.08708212
12	0xbf112e1f	-0.56711
13	0x3ea2a1e7	0.31764147
14	0x3e2f853c	0.17140669
15	0xbec30020	-0.38086033
16	0xbdc1ee21	-0.094692476
17	0xbe3465dd	-0.17616983
18	0xbca1579b	-0.019695094
19	0x3e570e29	0.21001495
20	0x3e6dbe68	0.23217165
21	0xbdca3a39	-0.09874386
22	0xbe12b109	-0.14325346
23	0xbe156705	-0.1459008
24	0x3cc216c4	0.023692496
25	0x3cfbcb28	0.03073652
26	0xbe1e1b42	-0.15440086
27	0x3d35708f	0.044296797
28	0x3e0a35b9	0.13497056
29	0x3d3aa3e7	0.045566466
30	0xbebf533e	-0.37368196
31	0x3e1cae8e	0.15300962
32	0x3d8a56dd	0.06754849
33	0x3de2ecd2	0.11080326
34	0xbe8b3216	-0.2718665
35	0x3e3702e9	0.17872204
36	0xbe801777	-0.25017902
37	0x3a68a54d	0.00088747294
38	0xbe604539	-0.21901406
39	0xbe6a7293	-0.22895269
40	0xbdde583b	-0.108566724
41	0x3eaad629	0.33366516
42	0x3d877535	0.06614152
43	0xbecb61f7	-0.3972318
44	0xbe994f7f	-0.29943463
45	0x3de4c406	0.11170201
46	0x3e5a08a8	0.21292365
47	0xbe204246	-0.15650281
48	0x3e46f040	0.19427586
49	0xbcaec9d0	-0.021336466
50	0xbdcb270f	-0.09919559
51	0x3c2f8271	0.010712252
52	0xbe2cf937	-0.16891943
53	0xbdf8db48	-0.121511996
54	0xbde5cd2c	-0.11220774
55	0x3e4d2a4e	0.20035669
56	0xbe68407f	-0.22680853
57	0x3d2fbe9c	0.04290639
58	0xbe51b843	-0.20480447
59	0xbe4adcbc	-0.19810766
60	0x3e84f172	0.25965458
61	0x3daccdae	0.08437668
62	0x3db626ae	0.08894096
63	0x3d9bce9e	0.076077685
64	0x3e42457c	0.18971819
65	0x3e0ee3fb	0.13954155
66	0xbe86cda1	-0.26328757
67	0xbe6ed697	-0.23324047
68	0xbe99e266	-0.3005554
69	0x3de1ebb5	0.11031286
70	0xbe2ffdf9	-0.17186727
71	0xbce50770	-0.027957648
72	0xbe66a810	-0.22525048
73	0xbde91919	-0.1138174
74	0x3e763025	0.24041803
75	0xbec5655a	-0.38553888
76	0x3e52aea0	0.20574427
77	0xbeab6d95	-0.33482042
78	0x3da328bd	0.079667546
79	0x3dc51c95	0.09624592
80	0x3e5f802e	0.2182624
81	0xbc8d7976	-0.017269831
82	0xbeea6478	-0.45779777
83	0x3e572251	0.21009184
84	0xbdfd417e	-0.12366007
85	0x3ea03955	0.3129374
86	0x3d795e6d	0.060881067
87	0x3e19a5eb	0.15004699
88	0xbeeba0e1	-0.46021178
89	0xbd4981b5	-0.049195964
90	0xbdb6e4ba	-0.08930345
91	0x3e136409	0.14393629
92	0xbe7be90f	-0.24600624
93	0xbd2561f8	-0.040376633
94	0xbdd7b771	-0.105330355
95	0xbebcaf65	-0.36852565
96	0x3e93ecef	0.28891703
97	0x3e9a65d6	0.3015582
98	0x3e0e3144	0.13885981
99	0xbca00989	-0.019535797
100	0x3ec55ff9	0.38549784
101	0xbedde431	-0.4333816
102	0xbde3ffb6	-0.11132757
103	0x3e549391	0.20759417
104	0x3ea624b8	0.3244989
105	0x3e54e20a	0.20789352
106	0x3e309dd5	0.17247708
107	0xbe1b9738	-0.15194404
108	0x3cce9715	0.025218526
109	0x3e473dff	0.19457243
110	0xbbd72f71	-0.0065669348
111	0x3e135d72	0.14391115
112	0xbcddd25f	-0.027077852
113	0xbe5ad4b1	-0.21370198
114	0x3ead33bb	0.3382853
115	0x3d51920c	0.05116467
116	0x3d8b1c22	0.06792475
117	0x3e893229	0.26796082
118	0x3e79edd1	0.24407126
119	0x3e3d4a18	0.18485296
120	0x3ea5e5ae	0.32401794
121	0xbe2e64da	-0.1703066
122	0x3ca66c4c	0.020315312
123	0x3c15af46	0.009136027
124	0xbe94b3db	-0.2904347
125	0xbe847187	-0.25867864
126	0xbdd56b59	-0.104208656
127	0x3ed1b489	0.4095805
128	0xbe237df0	-0.1596601
129	0xbc975db5	-0.0184773
130	0x3dd1b7a8	0.10240108
131	0x3e26ecb3	0.16301231
132	0xbe66bb33	-0.22532348
133	0x3e59f3c4	0.21284395
134	0x3e36376b	0.17794578
135	0xbe154fff	-0.14581297
136	0x3e2b49db	0.16727392
137	0x3d8f6e2a	0.07003434
138	0xbea357d1	-0.31902936
139	0xbe72d2d9	-0.23713244
140	0xbd09228c	-0.033480212
141	0x3e6f4c4c	0.23368949
142	0xbea9d91e	-0.3317346
143	0xbe266d9a	-0.16252747
144	0x3e88367a	0.26604062
145	0xbb83ddb4	-0.004024232
146	0xbcde16ef	-0.027110545
147	0x3b8057a4	0.0039166976
148	0x3de45480	0.111489296
149	0xbdcaf561	-0.099100836
150	0xbd0fa82d	-0.035072494
151	0xbe57662c	-0.21035069
152	0xbdb6d829	-0.08927948
153	0xbbd557ed	-0.0065107257
154	0x3dfe9799	0.12431259
155	0x3e4a086f	0.1972978
156	0xbcc9714c	-0.024590157
157	0x3dc16d11	0.09444631
158	0x3e8370fe	0.25672144
159	0x3e5a8fcb	0.21343915
160	0xbd37cfc7	-0.044875886
161	0xbe30dc16	-0.17271456
162	0x3d0a85a1	0.033818845
163	0x3e4c0178	0.19922435
164	0x3c0f32b4	0.008740116
165	0xbe1fc26a	-0.15601507
166	0x3c0f5bae	0.0087498855
167	0x3e043c45	0.12913616
168	0x3e1b0310	0.15137887
169	0xbe884940	-0.26618385
170	0xbe972129	-0.29517487
171	0xbd02593c	-0.03182338
172	0xbeb3fce9	-0.35153893
173	0xbe5a70db	-0.21332113
174	0xbe6568f9	-0.22403325
175	0xbe9773e1	-0.29580596
176	0x3e567644	0.20943552
177	0xbe93b449	-0.28848484
178	0xbceac3da	-0.028657842
179	0xbe94e846	-0.2908346
180	0xbde1cfee	-0.110259876
181	0x3bd61d68	0.006534267
182	0x3d8215a4	0.06351784
183	0x3e739702	0.23788074
184	0x3ebe6053	0.37182865
185	0x3e57e7a2	0.21084455
186	0xbe8f8320	-0.28029728
187	0x3eb93eb2	0.36180645
188	0x3dc57f36	0.09643404
189	0xbe3a5e15	-0.18199952
190	0xbe8af62b	-0.27140936
191	0xbeac9250	-0.33705378
192	0xbdcb470b	-0.0992566
193	0xbe55598a	-0.20834938
194	0xbe653b43	-0.22385888
195	0xbd3a6f23	-0.045516144
196	0x3e1127ee	0.14175388
197	0x3e4932fd	0.19648357
198	0xbe73c52a	-0.23805681
199	0x3ea3d66a	0.31999522
200	0x3d854daf	0.065089576
201	0xbdd0389e	-0.10167049
202	0x3e1a7437	0.15083395
203	0xbeb7840c	-0.3584293
204	0xbdf3909b	-0.11892816
205	0xbe051c45	-0.12999065
206	0xbc2367b7	-0.009973458
207	0xbeb24809	-0.34820583
208	0xbe9318f9	-0.2872999
209	0x3d70393e	0.05864834
210	0x3e66b1ba	0.22528735
211	0x3eb400f6	0.35156983
212	0x3dbf214b	0.09332522
213	0x3ddfdc90	0.10930741
214	0xbd44fdaf	-0.048093494
215	0x3e820177	0.25391743
216	0x3d7103d5	0.058841545
217	0x3dcb2ed0	0.09921038
218	0xbec2c086	-0.3803751
219	0xbce17b84	-0.027524717
220	0xbeeaff35	-0.45897833
221	0xbdeff283	-0.11716177
222	0xbc4f6ecb	-0.012660692
223	0x3e8b0976	0.27155656
224	0x3d7235e8	0.05913344
225	0x3d82f48a	0.063942984
226	0xbdfa7f49	-0.12231309
227	0x3e65ce1f	0.2244191
228	0xbe93f1a3	-0.28895292
229	0xbe5879d8	-0.2114023
230	0x3e869d62	0.2629195
231	0x3e153e09	0.14574446
232	0x3dc59c8b	0.09648999
233	0x3e0f07ea	0.13967863
234	0xbdec3dda	-0.11535235
235	0xbd89df9e	-0.06732105
236	0x3bdaa34f	0.0066723
237	0xbeaafb46	-0.3339483
238	0x3d9c56f7	0.07633775
239	0xbe56e34a	-0.20985141
240	0xbe75a386	-0.2398816
241	0xbec8c616	-0.39213628
242	0xbe51fa77	-0.20505701
243	0xbe6e7e4c	-0.23290366
244	0xbd1808b1	-0.037117664
245	0x3e77c4ff	0.24196242
246	0xbec7b3ce	-0.39004368
247	0x3e09b038	0.13446128
248	0x3ecae3e3	0.3962699
249	0x3c98da16	0.018658679
250	0xbd8c654a	-0.06855257
251	0xbd07ed12	-0.033185072
252	0xbd97d535	-0.07413713
253	0x3e6e00f0	0.23242545
254	0x3e78e1d4	0.24304897
255	0xbe36da9b	-0.17856829

bias f4 [128]
0	0xbe353766	-0.17696914
1	0xbc9bcb8f	-0.019017963
2	0x3e9fabef	0.31185862
3	0x3df0df1e	0.11761306
4	0xbcc51853	-0.02405945
5	0x3e7ab83d	0.24484344
6	0x3d18a480	0.037266254
7	0x3e1ef0c3	0.15521531
8	0xbea9ea95	-0.33186784
9	0x3e8655c8	0.2623732
10	0x3cc64dd1	0.024207028
11	0xbd81d317	-0.0633909
12	0x3e417766	0.18893203
13	0x3dcb3574	0.09922305
14	0x3ea9f1e0	0.33192348
15	0x3dd4723a	0.103733495
16	0x3e9f93bf	0.3116741
17	0x3d7d3e86	0.061827205
18	0x3d6018bb	0.054711085
19	0x3e2d1e5f	0.16906117
20	0xbea06e10	-0.3133397
21	0x3dc37edf	0.09545683
22	0x3d928d8e	0.07155906
23	0x3e52f825	0.20602472
24	0xbe3ac675	-0.18239768
25	0xbd13c8b3	-0.036080074
26	0xbcd9f501	-0.026606085
27	0x3e8eb1e6	0.278701
28	0x3debf32c	0.11520991
29	0xbe293a50	-0.1652615
30	0xbd750000	-0.059814453
31	0xbea0211b	-0.31275257
32	0xbe35d4f6	-0.1775702
33	0x3d42766e	0.047476225
34	0xbe418d80	-0.18901634
35	0xbce9ed47	-0.028555525
36	0xbe882318	-0.26589274
37	0xbe86ae8b	-0.2630504
38	0x3e6512e4	0.22370487
39	0xbc70c384	-0.014695052
40	0x3cd41769	0.02589007
41	0xbd643911	-0.055718485
42	0x3e3f3bd0	0.1867516
43	0x3e218808	0.15774548
44	0xbe6dc002	-0.23217776
45	0xbe8db2f9	-0.27675608
46	0x3d1f4e17	0.03889283
47	0x3e8a41da	0.27003366
48	0xbe50007f	-0.20312689
49	0xbe15dfb0	-0.14636111
50	0xbe4918aa	-0.19638315
51	0xbea45687	-0.32097265
52	0xbe0e259d	-0.13881536
53	0xbdeb071d	-0.11475966
54	0x3e03cba7	0.12870656
55	0x3df09d8b	0.11748799
56	0xbea0393d	-0.3129367
57	0x3e24fc68	0.1611191
58	0xbe8647e6	-0.2622673
59	0x3d837044	0.06417897
60	0x3a60efdf	0.00085806655
61	0x3d0dee37	0.034651008
62	0xbea751e6	-0.3267967
63	0x3d81212f	0.063051574
64	0xbe6bc948	-0.23026001
65	0x3e2a773d	0.16647048
66	0xbe868226	-0.2627117
67	0x3e74db2f	0.23911737
68	0x3da209e8	0.07912046
69	0xbe2fd6d6	-0.17171797
70	0xbe63392a	-0.22189775
71	0x3e044aff	0.12919234
72	0x3d31a5be	0.043370955
73	0x3e0047cb	0.12527387
74	0xbe8b1df4	-0.2717129
75	0x3e656be7	0.22404443
76	0x3e7b3577	0.24532114
77	0xbe97ad77	-0.2962453
78	0xbe96f7df	-0.29485986
79	0x3ea3f0f2	0.32019764
80	0xbddc0224	-0.10742596
81	0xbd1b49d5	-0.03791221
82	0x3b703667	0.003665352
83	0x3d0b261e	0.0339719
84	0xbdfc3acd	-0.12315903
85	0xbde8fab4	-0.11375943
86	0x3e45583b	0.19271939
87	0xbd45db0e	-0.04830461
88	0xbcaa88f7	-0.020817263
89	0x3db2d541	0.08732081
90	0xbda83d87	-0.082148604
91	0x3eae7c44	0.34079182
92	0xbe40156e	-0.18758175
93	0x3ea9ae73	0.33140907
94	0x3e047dcc	0.12938613
95	0xbd692321	-0.056918267
96	0xbd944fc6	-0.07241778
97	0xbe0afecc	-0.1357376
98	0xbe901c06	-0.2814638
99	0xbd1e4f6e	-0.03864997
100	0xbe1d7da7	-0.15379964
101	0x3e1b66d2	0.15175942
102	0xbea5794c	-0.32319105
103	0xbe9fde22	-0.3122416
104	0x3e85f8bc	0.26166332
105	0xbea93d95	-0.33054796
106	0x3d9e480e	0.07728587
107	0xbde51370	-0.11185348
108	0xbe3e708a	-0.18597618
109	0x3e9888b1	0.29791787
110	0xbeae103e	-0.33996767
111	0x3e5063d8	0.20350587
112	0xbe91b75e	-0.2846021
113	0xbe8d4bc8	-0.2759688
114	0xbe8a569e	-0.2701921
115	0xbe450f5d	-0.19244142
116	0xbe192af2	-0.14957789
117	0xbd08667c	-0.03330086
118	0xbd33db02	-0.043910034
119	0x3e90fe59	0.28319052
120	0x3ea61a98	0.32442164
121	0xbd0cf536	-0.03441354
122	0x3e81e88d	0.25372735
123	0x3e19b11e	0.15008971
124	0x3c87d29a	0.016579915
125	0x3d670b00	0.056406975
126	0x3d714692	0.05890519
127	0xbd47dc9a	-0.048794366

weight f4 [256, 128]
0	0x3ce11816	0.027477305
1	0xbd78aab3	-0.060709666
2	0x3c9f9a3c	0.019482724
3	0xbd883c6f	-0.06652152
4	0xbd997123	-0.07492282
5	0x3cbc4e3e	0.022986528
6	0xbc1bda2e	-0.009512467
7	0xbce6632d	-0.028123463
8	0xbd57376e	-0.052543096
9	0xbdaf4347	-0.08557754
10	0xbca36890	-0.01994732
11	0xbdb1ab37	-0.08675235
12	0x3d5ea08e	0.054352336
13	0xbd7aa5be	-0.06119322
14	0x3d91a5b1	0.07111681
15	0x3e54bba1	0.207747
16	0x3d68a53d	0.05679821
17	0xbd401685	-0.046896476
18	0x3d40fb9b	0.04711495
19	0x3d491dfc	0.04910086
20	0xbd28d9d2	-0.041223355
21	0x3d39ea11	0.04538924
22	0xbc6dd599	-0.014516258
23	0xbdba0b77	-0.09084218
24	0xbd9639a2	-0.07335211
25	0x3e035bf7	0.1282805
26	0x3db43073	0.087983035
27	0x3c3ad9bd	0.011404452
28	0x3d8e4ff7	0.06948846
29	0xbc72f2a0	-0.014828354
30	0x3d2a8e1d	0.041639436
31	0xbdaf001c	-0.08544943
32	0x3e650663	0.22365718
33	0x3d9c02cc	0.07617721
34	0x3dc27292	0.09494509
35	0xbb4a6219	-0.0030881225
36	0xbe51d456	-0.20491156
37	0x3d01d154	0.03169377
38	0x3cd9d515	0.026590863
39	0x3b2bc87f	0.0026212034
40	0xbd9371f5	-0.0719947
41	0xbcae5896	-0.021282475
42	0x3d43f247	0.047838476
43	0x3d94d08e	0.07266341
44	0xbcb7c0da	-0.022430826
45	0x3be3f5d0	0.0069567934
46	0xbd404099	-0.046936605
47	0x3d596cd4	0.053082302
48	0xbd52e733	-0.05149002
49	0x3d49277e	0.04910993
50	0x3d866765	0.0656269
51	0x3d20ecc3	0.039288294
52	0x3d8e3bb7	0.069449835
53	0xbe6011e2	-0.21881822
54	0xbc0b3baa	-0.008498112
55	0xbd24deec	-0.040251657
56	0x3d8b0793	0.06788554
57	0x3cee5af3	0.029096102
58	0xbd89335c	-0.06699249
59	0x3c2be585	0.010491733
60	0xbd910d32	-0.07082595
61	0xbcc489fb	-0.023991575
62	0x3b46a1a2	0.0030308743
63	0x3d3005da	0.04297433
64	0x3d6cc766	0.05780735
65	0x3df07dc2	0.117427364
66	0xbc849121	-0.016182484
67	0xbddccac3	-0.10780861
68	0xbda320c2	-0.079652324
69	0xbc4750bc	-0.012165245
70	0xbd9c9a78	-0.0764665
71	0xb99249b1	-0.00027902194
72	0xbca0553a	-0.01957189
73	0xbe02d426	-0.1277624
74	0x3d985833	0.07438698
75	0xbdff7f9b	-0.12475511
76	0xbe71d0b2	-0.23614767
77	0xbcb9fe94	-0.0227044
78	0xbba8c57d	-0.0051504956
79	0x3dac9b39	0.08428044
80	0xbdb7c31d	-0.08972762
81	0xbd3e4ad3	-0.046458077
82	0x3d4fa804	0.05069734
83	0xbd84933c	-0.06473395
84	0xbda5b3ee	-0.080909595
85	0x3d9188a9	0.07106144
86	0xbc32b2ad	-0.010906857
87	0xbce3a964	-0.027790733
88	0x3c95c27e	0.018281218
89	0x3d200931	0.039071266
90	0x3d211e56	0.03933557
91	0x3dd339d8	0.10313767
92	0x3d70eb5a	0.0588182
93	0xbd526969	-0.05137006
94	0xbd559f60	-0.052153945
95	0xbd1f09a6	-0.03882756
96	0xbdbf2010	-0.09332287
97	0xbcd9edc3	-0.026602631
98	0x3d6668f9	0.056252453
99	0xbbdacb6b	-0.0066770813
100	0x3d32ab4a	0.043620385
101	0x3d996a46	0.07490973
102	0xbcaf6e41	-0.021414878
103	0x3ba215f3	0.004946464
104	0x3dd4237a	0.10358329
105	0xbd3e1ba4	-0.04641308
106	0x3d787641	0.06065965
107	0xbccefdaa	-0.02526744
108	0xbcad7e8f	-0.021178512
109	0x3d4b9b84	0.049708858
110	0xbd293433	-0.041309547
111	0x3d45e551	0.048314396
112	0x3d288f1c	0.041152105
113	0x3dc013e2	0.09378792
114	0xbde58931	-0.11207808
115	0x3cbe2574	0.023211218
116	0xbd51248e	-0.051060252
117	0xbe29b2af	-0.16572069
118	0x3d9d1dd5	0.07671706
119	0xbb6bf013	-0.003600125
120	0x3c88903c	0.016670339
121	0x3c9d8ac9	0.019231217
122	0x3c9d3667	0.01919098
123	0x3d925660	0.07145381
124	0x3cefcd12	0.02927259
125	0xbcf68c88	-0.030096307
126	0xbd6598de	-0.05605399
127	0x3d2b14b7	0.041767802
128	0x3dcf2f90	0.10116494
129	0xbdac6464	-0.084175855
130	0x3cf03de1	0.029326381
131	0xbd4db5ae	-0.05022209
132	0xbdd93321	-0.10605455
133	0x3d1a547f	0.037678238
134	0x3d9079e7	0.07054501
135	0xbdc1cedf	-0.09463286
136	0xbdf0d5cb	-0.11759528
137	0x3d619e3f	0.055082556
138	0x3dbaf28b	0.09128293
139	0x3cc2db56	0.023786228
140	0x3c2c500e	0.010517133
141	0xbdc65d65	-0.09685782
142	0x3dc5b5b0	0.09653795
143	0xbba61fca	-0.0050697075
144	0x3e449a22	0.19199422
145	0x3cf5b3fb	0.029993048
146	0xbd2bbe88	-0.04192975
147	0xbc6f88b2	-0.014619993
148	0xbd35d9e1	-0.04439724
149	0xbcd36c22	-0.025808398
150	0x3ba4619f	0.00501652
151	0x3d84324f	0.06454908
152	0x3d83f9ee	0.06444155
153	0x3d9b765e	0.07590936
154	0xbca43939	-0.020046817
155	0x3d7bc3df	0.061466094
156	0x3d44beb9	0.04803345
157	0xbd7d4e81	-0.061842445
158	0xbdb2f176	-0.08737461
159	0xbd5fdac5	-0.054651994
160	0x3d9fdcae	0.07805763
161	0x3dfd2022	0.123596445
162	0x3c3940d1	0.011306957
163	0x3cd681e1	0.026184978
164	0xbe446727	-0.19179974
165	0xbc46a9fa	-0.0121254865
166	0x3c8de023	0.01731879
167	0x3d19531e	0.037432782
168	0xbe06f34c	-0.13178748
169	0xbe00aa5c	-0.12564987
170	0x3d45a6d0	0.048254788
171	0x3db86a6d	0.09004674
172	0xbd2ccce8	-0.0421876
173	0xbda35b6c	-0.07976422
174	0xbdccab04	-0.09993556
175	0x3c69982f	0.014257475
176	0xbc165185	-0.009174709
177	0xbd45bd40	-0.048276186
178	0x3c4dc464	0.01255903
179	0xbdda8d94	-0.10671535
180	0x3d29d588	0.041463405
181	0xbdfa518c	-0.12222585
182	0xbcc87808	-0.024471298
183	0xbd24d38f	-0.04024082
184	0x3ccd26ff	0.025043009
185	0x3dd4972c	0.10380396
186	0x3cbd5318	0.023110911
187	0x3ca44f8c	0.020057462
188	0x3da54196	0.0806915
189	0x3c83a202	0.016068462
190	0x3d5d55d3	0.054036926
191	0x3d7e997a	0.062158085
192	0xbdb52706	-0.08845334
193	0x3d68b181	0.056809906
194	0xbda6bf72	-0.08141984
195	0x3cdd04c8	0.026979819
196	0xbd17fb87	-0.03710511
197	0xbd4d8bde	-0.050182216
198	0xbd7c4c6d	-0.061596323
199	0x3d81aee4	0.06332186
200	0x3d96bcf0	0.07360256
201	0x3cfb3202	0.030663494
202	0x3d659fe8	0.0560607
203	0x3cb3b543	0.021937018
204	0xbd95bd8c	-0.07311544
205	0x3ce276ee	0.0276446
206	0xbcc80463	-0.024416154
207	0x3bf71feb	0.0075416467
208	0xbdf48f74	-0.11941424
209	0x3b8e09f5	0.004334683
210	0xbd8696bf	-0.06571721
211	0x3cf56dc1	0.029959561
212	0xbe21962c	-0.15779942
213	0xbc7b3f9e	-0.015334992
214	0x3ddfaf71	0.10922135
215	0x3da0deed	0.0785502
216	0xbe039921	-0.12851383
217	0xbda05ad4	-0.07829824
218	0xbd27410d	-0.04083352
219	0x3d4f6f27	0.050643113
220	0xbd871643	-0.06596043
221	0x3d690961	0.05689371
222	0x3e0eabe8	0.13932765
223	0x3d0ea994	0.03482969
224	0x3d21564c	0.03938894
225	0x3d59d710	0.053183615
226	0x3d34b335	0.044116218
227	0x3d1a4d70	0.037671506
228	0xbc25005e	-0.010070888
229	0x3d9ef328	0.07761222
230	0x3c995ea3	0.018721884
231	0xbce37c2f	-0.027769176
232	0x3dc2516b	0.094881855
233	0x3d2c5d6c	0.04208128
234	0x3d174242	0.036928423
235	0xbd57a6d6	-0.05264934
236	0xbe20eb63	-0.15714793
237	0x3d2953aa	0.041339554
238	0xbe05cbc1	-0.13066007
239	0xbe066835	-0.1312569
240	0xbcd26e2f	-0.025687305
241	0xbda01e55	-0.078182854
242	0x3d80f23b	0.06296202
243	0x3b39436d	0.0028268949
244	0xbd89235c	-0.066961974
245	0xbd4b0d79	-0.049573395
246	0xbd410c43	-0.047130834
247	0xbdc13626	-0.09434156
248	0x3e079b79	0.13242902
249	0xbd78947e	-0.06068849
250	0x3da6b987	0.08140855
251	0xbd8f5764	-0.0699909
252	0x3ba0d472	0.004908138
253	0x3d1bf2c3	0.038073312
254	0x3d339aa8	0.043848664
255	0xbdc839fc	-0.09776685

bias f4 [256]
0	0xbe019e27	-0.12657987
1	0x3c4cf5bf	0.012509762
2	0x3c69b982	0.01426542
3	0xbc19d26f	-0.00938855
4	0xbae3b0d0	-0.001737142
5	0x3e32e476	0.17469963
6	0x3d6bf9fb	0.057611447
7	0xbc7ac28f	-0.015305175
8	0x3d0b6cbd	0.034039248
9	0xbe2b139e	-0.16706702
10	0x3c91f275	0.017815808
11	0x3da18626	0.07886915
12	0x3d52418f	0.051332053
13	0x3d10d48d	0.035358954
14	0x3d925573	0.071452044
15	0x3e1b7ec2	0.15185073
16	0x3e11e399	0.14246978
17	0xbdbc435c	-0.09192535
18	0xbd87bc0d	-0.06627665
19	0xbb3cf131	-0.0028830285
20	0x3d7db96b	0.061944406
21	0xbc074f91	-0.008258716
22	0x3d5bf612	0.053701468
23	0xbd81fbea	-0.06346877
24	0xbdc6f4b5	-0.09714643
25	0xbd853da3	-0.06505897
26	0xbde8841c	-0.11353323
27	0x3d2b451f	0.041813966
28	0x3d62e900	0.055397987
29	0xbcf3ee44	-0.0297767
30	0x3cf7209e	0.03016692
31	0x3dc9c641	0.09852267
32	0xbce0cb05	-0.027440557
33	0x3e11aa71	0.14225174
34	0xbcfe1794	-0.031017102
35	0xbcf79335	-0.030221561
36	0x3d94246b	0.07233509
37	0xbda53ab2	-0.08067836
38	0x3dcf0622	0.101085916
39	0xbe03fbbb	-0.12888996
40	0xbd9559c1	-0.0729251
41	0x3c34e260	0.0110403
42	0x3b17a644	0.0023139874
43	0xbd8d1a3e	-0.06889771
44	0x3d7597de	0.059959285
45	0x3d52e24d	0.05148535
46	0x3c492e0f	0.012279048
47	0x3de2d23c	0.11075255
48	0xbdb3dfab	-0.08782896
49	0xbdd366b3	-0.10322323
50	0x3dc7d2e0	0.09757018
51	0xbcad63b6	-0.02116571
52	0x3e5dcace	0.21659395
53	0xbc0803a5	-0.00830165
54	0xbe3d9a8d	-0.18515988
55	0x3d142432	0.03616733
56	0xbdc355a4	-0.09537819
57	0xbd830734	-0.06397858
58	0x3d58c408	0.052921325
59	0x3cc49aa3	0.023999518
60	0xbd71fc46	-0.059078477
61	0xbcd765f1	-0.026293727
62	0xbd11a456	-0.035557114
63	0xbd59f7a3	-0.05321468
64	0x3c3731f0	0.01118134
65	0x3c4dd9d2	0.012564139
66	0xbd9cbf6a	-0.07653697
67	0x3d8db59b	0.06919404
68	0x3da6c7ee	0.08143602
69	0xbd522d68	-0.051312834
70	0xbd10bd74	-0.035336927
71	0x3cde33ad	0.02712425
72	0xbda4f033	-0.08053627
73	0x3df331c3	0.11874726
74	0x3dac8623	0.08424022
75	0xbce72978	-0.028218016
76	0xbc9a9793	-0.018871104
77	0x3cb5ae9a	0.022177983
78	0xbcb18f49	-0.021674769
79	0xbd8b611e	-0.06805633
80	0x3d30f75c	0.04320465
81	0xbd0f3e64	-0.03497161
82	0xbd7b5aa9	-0.061365757
83	0xbe3aac66	-0.18229827
84	0xbd7cd6d1	-0.061728302
85	0x3cbac92a	0.022801
86	0xbcb1ff4e	-0.021728184
87	0xbd7f1b37	-0.062281813
88	0xbdd1c396	-0.10242383
89	0x3daee476	0.08539669
90	0x3ba77ed3	0.005111554
91	0xbe10b9e2	-0.14133409
92	0x3da51a4b	0.080616556
93	0x3d9362cf	0.071965806
94	0xbe1ef8d4	-0.15524608
95	0x3d2c68ba	0.042092063
96	0xbdae67e3	-0.085159086
97	0x3aa7b496	0.0012794908
98	0x3d2f64a2	0.04282058
99	0xbc2f5617	-0.010701678
100	0xbd93c8b4	-0.072160155
101	0x3d9c03d6	0.07617919
102	0xbc8bb5d6	-0.01705448
103	0x3d777181	0.06041098
104	0x3d2ba160	0.041901946
105	0x3d412768	0.04715672
106	0xbd5cc932	-0.053902812
107	0x3d971b04	0.073782
108	0x3bbebb95	0.0058207014
109	0x3da0c4aa	0.07850011
110	0x3df7a2c9	0.12091596
111	0xbd17f431	-0.037098113
112	0xbd88c2b7	-0.06677764
113	0x3c29c21a	0.010361219
114	0xbcff75e5	-0.031184146
115	0xbc93b5f2	-0.018031094
116	0xbe018454	-0.12648135
117	0x3db79c00	0.089653015
118	0x3b95f9f1	0.0045769145
119	0x3d8a169e	0.06742595
120	0x3c5c36a6	0.013440764
121	0x3c1410bb	0.009037192
122	0x3d59d968	0.05318585
123	0xbd1adc7d	-0.03780793
124	0xbd2cb457	-0.042164173
125	0x3d3fdf6b	0.046843927
126	0x3da47363	0.08029821
127	0x3d9e1f3c	0.07720801
128	0xbd4e365f	-0.05034482
129	0xbdc6f964	-0.09715536
130	0x3c20cfac	0.009815138
131	0x3ba2770e	0.00495804
132	0x3cf93e04	0.03042508
133	0xbc9a2181	-0.018814804
134	0x3d860f06	0.06545834
135	0x3d15f6e5	0.03661241
136	0x3cdf71e5	0.027275989
137	0xbd17fc1e	-0.037105672
138	0x3cf2906d	0.029609883
139	0x3dad6942	0.08467342
140	0xbde877e2	-0.11350991
141	0x3d20dfa5	0.039275784
142	0x3b9b172b	0.0047329864
143	0x3d42b00a	0.047531165
144	0xbdde46f2	-0.108533755
145	0x3c0b55c0	0.008504331
146	0x3d94ca6a	0.0726517
147	0x3d2e9d05	0.042630214
148	0x3d560481	0.05225039
149	0xbcf0d144	-0.02939666
150	0xbd6ed4a8	-0.058308274
151	0x3db69f79	0.08917136
152	0xbd8a40c9	-0.06750638
153	0xbdbb310f	-0.091402166
154	0x3c5c9c69	0.013465025
155	0xbcd8d440	-0.026468396
156	0xbc857077	-0.016288979
157	0x3ce7a5c7	0.028277291
158	0x3cfbe7c3	0.030750161
159	0xbdf3074c	-0.11866626
160	0x3d812148	0.06305176
161	0xbcc64f52	-0.024207745
162	0x3e167b80	0.14695549
163	0x3c75b995	0.0149978595
164	0xbd8ae6d2	-0.06782307
165	0xbd8a4b4c	-0.06752643
166	0x3d66ee86	0.056379817
167	0xbc014a6d	-0.00789128
168	0xbd32159c	-0.04347764
169	0xbdcc71eb	-0.09982666
170	0x3cb22539	0.021746265
171	0xbdeabbfe	-0.11461638
172	0xbce5b6cc	-0.028041266
173	0x3cbcd81f	0.023052273
174	0xbd61252e	-0.054967098
175	0x3cfe5527	0.031046463
176	0x3d2d3265	0.042284388
177	0x3e170ddf	0.14751385
178	0x3d1de3b1	0.03854722
179	0xbd8bb23c	-0.06821105
180	0x3cd3285b	0.025776079
181	0x3d1c3253	0.03813393
182	0x3d0bf2ba	0.03416703
183	0xbcdfa862	-0.02730197
184	0x3e0b89d2	0.13626793
185	0x3d3a6ec7	0.0455158
186	0x3da540bf	0.0806899
187	0xbcf0b687	-0.02938391
188	0xbcdaae4a	-0.026694436
189	0xbcde7270	-0.027154177
190	0xbe011987	-0.12607394
191	0xbc471e17	-0.01215317
192	0xbd476db0	-0.04868859
193	0xbcfa90e7	-0.030586673
194	0x3d43f97d	0.047845352
195	0xbd25876a	-0.040412344
196	0x3a73cb2c	0.00092999893
197	0x3cabf8bf	0.020992635
198	0x3c933f82	0.017974619
199	0x39e2af4c	0.00043236685
200	0x3d6c4e4a	0.05769185
201	0xbdc784ae	-0.097421035
202	0x3d98f247	0.07468086
203	0xbd7b0de3	-0.06129254
204	0xbd371197	-0.04469451
205	0x3cc6bfbb	0.024261346
206	0xbe1e3ce4	-0.15452915
207	0x3d436e91	0.047712866
208	0x3d28498e	0.041085772
209	0xbd36ab0b	-0.044596713
210	0xbd6011f8	-0.054704636
211	0x3ca744a8	0.02041848
212	0xbd37ba05	-0.044855136
213	0xbcdc35aa	-0.026881058
214	0x3d979e24	0.0740321
215	0xbdb03cb0	-0.08605325
216	0x3dd465ec	0.103710026
217	0x3d8d9a0a	0.06914146
218	0x3d3c2275	0.0459313
219	0xbdbdb87d	-0.09263704
220	0xbd374e72	-0.044752546
221	0x3e1c37aa	0.15255609
222	0x3da2e974	0.07954684
223	0xbd5b2470	-0.053501546
224	0x3bcd582b	0.006266614
225	0x3af147f2	0.0018408282
226	0x3c187e77	0.009307495
227	0x3b6999a0	0.0035644546
228	0xbd92674e	-0.0714861
229	0xba549aa7	-0.0008110203
230	0xbdb1847e	-0.08667849
231	0x3de130ef	0.109956615
232	0xbd8f0137	-0.069826536
233	0xbda3900a	-0.07986458
234	0xbd7dd5d5	-0.061971504
235	0xbc511954	-0.012762386
236	0x3cd9fe5e	0.02661055
237	0x3cc52c45	0.02406896
238	0x3d456470	0.048191488
239	0xbb9e0cc5	-0.0048232996
240	0x3e179344	0.14802271
241	0xbde04837	-0.10951274
242	0x3d423b7c	0.04742001
243	0xbc62fbb6	-0.013853958
244	0xbcab1f1e	-0.020888861
245	0xbd17ee12	-0.037092276
246	0xbd1de19f	-0.038545247
247	0x3d41d8ed	0.047326017
248	0x3cd6423a	0.026154626
249	0xbe0b9fb4	-0.1363514
250	0x3e0bed77	0.13664804
251	0x3d554a64	0.052072898
252	0x3dcc4424	0.09973934
253	0x3d7aca36	0.061228
254	0x3d410012	0.047119208
255	0xbdc1df77	-0.09466451

weight f4 [512, 256]
0	0x3d1b7ee4	0.03796281
1	0xbd93ae4b	-0.07210978
2	0xbdda8abd	-0.106709935
3	0x3d2801f4	0.041017488
4	0xbdcc44a5	-0.099740304
5	0xbe17b65a	-0.14815655
6	0xbdb30496	-0.08741109
7	0x3cfdf012	0.030998264
8	0x3d54db21	0.05196679
9	0x3e02cdce	0.12773821
10	0xbd8e7516	-0.06955926
11	0xbcd413f8	-0.025888428
12	0xbc7883c6	-0.015168136
13	0x3d44a8c4	0.04801251
14	0x3c5a4bbe	0.013323722
15	0xbe633cea	-0.22191206
16	0xbd34a18c	-0.044099376
17	0x3e2e82a8	0.17042029
18	0x3cc5d785	0.02415062
19	0x3b18cc71	0.0023315216
20	0x3b9984b2	0.004685008
21	0xbe1c9c9a	-0.15294114
22	0xbd2bc372	-0.041934438
23	0xbd3fb1ad	-0.046800304
24	0x3c62ae76	0.01383554
25	0xbd885038	-0.066559255
26	0x3daa3624	0.08311108
27	0xbd47f5ba	-0.048818327
28	0xbd763143	-0.060105573
29	0xbcd75305	-0.026284704
30	0xbd30db4b	-0.043177884
31	0x3d0bac83	0.034100067
32	0xbd7a9bb2	-0.06118364
33	0xbdb9ea96	-0.09077947
34	0xbe0de34f	-0.13856243
35	0xbd18c3c6	-0.03729608
36	0xbd0064a3	-0.031345975
37	0x3db72cb7	0.089440756
38	0xbd4ba89c	-0.049721345
39	0x3d5c3cad	0.053768802
40	0x3b1cb4bd	0.002391144
41	0x3dc532ea	0.09628852
42	0x3d7d0707	0.06177428
43	0x3b68495f	0.0035444123
44	0xbca8cffd	-0.020606989
45	0x3d29f83c	0.0414965
46	0xbd094817	-0.033516016
47	0x3d6bb752	0.057547875
48	0xbc87215f	-0.016495405
49	0x3d9af428	0.075661
50	0xbdb01b1a	-0.08598919
51	0xbd063f8a	-0.03277544
52	0xbde9758f	-0.11399376
53	0xbcabb4a5	-0.020960161
54	0xbcb9d8ab	-0.022686323
55	0xbe00782f	-0.12545846
56	0x3cb80991	0.0224655
57	0x3b9aeb0d	0.0047277273
58	0x3dbce34d	0.09223042
59	0xbd99663c	-0.07490203
60	0x3d67dac3	0.05660511
61	0xbe2447b1	-0.16042973
62	0xbd2042bb	-0.03912614
63	0x3dcd9455	0.10038058
64	0xbd73ab6b	-0.05948965
65	0x3d443992	0.047906466
66	0x3c022225	0.007942711
67	0xbd4a1744	-0.049338594
68	0xbbc0b29e	-0.005880668
69	0xbc36f1af	-0.01116602
70	0x3cc0965e	0.0235092
71	0xbc2da475	-0.010598292
72	0xbd88ccb6	-0.066796705
73	0xbd7b3170	-0.061326444
74	0x3ce10e79	0.027472721
75	0xbd6d5a7e	-0.05794763
76	0x3c032912	0.008005397
77	0x3bf477f1	0.007460587
78	0xbe18b002	-0.14910892
79	0x3d1ab6a1	0.037771825
80	0xbbba9b93	-0.0056948154
81	0xbd0c5037	-0.034256186
82	0xbe08e417	-0.1336826
83	0x3d2aece0	0.041729808
84	0xbda786ed	-0.08180032
85	0x3b145487	0.002263339
86	0x3c375a5a	0.011190975
87	0xbc28db29	-0.010306158
88	0x3e105d3f	0.1409807
89	0xbe06f0bc	-0.1317777
90	0xbdcb3572	-0.09922303
91	0x3dcf3445	0.101173915
92	0xbcb0fbb0	-0.021604389
93	0x3cde16c4	0.027110465
94	0x3db561fc	0.0885658
95	0xbd30fd1f	-0.043210145
96	0xbc1727c8	-0.009225793
97	0x3c83f94f	0.01611009
98	0x3dbfe14c	0.09369144
99	0xbd82244d	-0.0635458
100	0xbce19a2d	-0.027539337
101	0x3cf8044f	0.030275492
102	0xbbbc96d2	-0.005755284
103	0xbd15a84e	-0.03653746
104	0x3db66204	0.08905414
105	0x3dab26a2	0.08356978
106	0x3dc47688	0.095929205
107	0xbccff2e5	-0.025384376
108	0x3cef05f3	0.029177641
109	0xbce20732	-0.027591322
110	0x3b81279a	0.0039414885
111	0x3bfe0485	0.0077520036
112	0xbda1ea57	-0.07906025
113	0x3d69344e	0.056934647
114	0x3da3bcb5	0.079949774
115	0x39e135fd	0.0004295557
116	0xbd24c6b0	-0.040228546
117	0xbd455b34	-0.04818268
118	0x3c3bbff2	0.011459338
119	0xbdd7f1a9	-0.1054414
120	0xbc473bd2	-0.012160258
121	0xbcc89d96	-0.024489205
122	0xbcaf551f	-0.021402894
123	0x3dbd393c	0.09239432
124	0xbc3cab40	-0.011515439
125	0xbdd15842	-0.10221912
126	0xbe035341	-0.12824728
127	0xbd80a689	-0.06281764
128	0xbdc64b1b	-0.09682294
129	0x3cc3a90d	0.02388432
130	0x3d3d1d8b	0.046170752
131	0xbd092475	-0.033482034
132	0x3cba29bc	0.022724979
133	0xbd015e35	-0.031583983
134	0x3d3e39f3	0.046441983
135	0xbd23f7c6	-0.040031217
136	0x3dc837f1	0.09776295
137	0x3d8c8b44	0.068625
138	0x3e1e140c	0.15437335
139	0xbc9e65e0	-0.019335687
140	0x3d6831e7	0.056688216
141	0xbdb1ed74	-0.08687869
142	0xbd518f77	-0.05116221
143	0xbd4ea841	-0.05045343
144	0x3d25369e	0.04033529
145	0x3d19ebb0	0.037578285
146	0x3d9f95b8	0.077922285
147	0xbd4179d4	-0.047235325
148	0x3d06ad5d	0.032880176
149	0xbd7c32da	-0.061571933
150	0x3c4b9d7a	0.012427682
151	0xbdea1eb2	-0.11431636
152	0x3a200f94	0.0006105837
153	0x3cd8368e	0.026393201
154	0xbd26d3e2	-0.04072941
155	0xbcfe46e7	-0.031039668
156	0x3ceb5629	0.028727608
157	0xbd017623	-0.031606805
158	0xbd0503e2	-0.032474406
159	0x3d134310	0.035952628
160	0xbd52a47d	-0.0514264
161	0xbda71502	-0.08158304
162	0xbdfe799c	-0.12425539
163	0xbd412479	-0.047153924
164	0x3dd5752c	0.104227394
165	0x3ca9806b	0.020691117
166	0xbd8da888	-0.069169104
167	0x3c91b91d	0.017788464
168	0xbd2e12c5	-0.04249837
169	0x3d2206d4	0.039557293
170	0x3cc04d10	0.023474246
171	0xbd38b78f	-0.04509693
172	0x3ca4c51e	0.020113524
173	0xbdbaad44	-0.09115079
174	0x3dabf7df	0.08396887
175	0x3c1fe08e	0.009758128
176	0xbd0e181e	-0.03469097
177	0xbcc99f2a	-0.024612028
178	0xbe2d8373	-0.16944675
179	0xbe03236d	-0.12806483
180	0xbc9f9fe4	-0.019485421
181	0xbe228a87	-0.15873156
182	0xbd863eae	-0.06554924
183	0x3dd54b92	0.104148045
184	0xbe0e2754	-0.1388219
185	0xbcb8a26f	-0.022538392
186	0xbd13daac	-0.036097214
187	0x3d07f3ed	0.03319161
188	0xbc492997	-0.012277982
189	0xbd55a7cf	-0.052161988
190	0x3da6769f	0.08128094
191	0xbc1391dc	-0.009006944
192	0x3dc2c5d5	0.0951039
193	0x3d1bf547	0.03807571
194	0x3d15b2c7	0.03654745
195	0x3d96e9a0	0.07368779
196	0xbcc27338	-0.023736581
197	0x3c46b30e	0.012127651
198	0xbd739ce4	-0.059475794
199	0x3d8a3cf6	0.067499086
200	0xbe588b8f	-0.21146987
201	0x3c88d5f0	0.016703576
202	0xbd7fa7d9	-0.06241593
203	0x3dad3951	0.08458198
204	0x3d4346ff	0.04767513
205	0x3d6eb84e	0.058281235
206	0x3e131af3	0.14365749
207	0x3d64f257	0.055895176
208	0xbe127656	-0.14302954
209	0x3d2cb37a	0.04216335
210	0x3c8707d9	0.016483234
211	0x3d191162	0.037370093
212	0xbe1f4320	-0.1555295
213	0xbc9d4a87	-0.019200576
214	0x3c5e4c43	0.013567987
215	0xbaa2a367	-0.0012408317
216	0xbcc8f29b	-0.024529746
217	0x3d39eae4	0.045390025
218	0x3a09e1ba	0.0005259771
219	0x3cdfb325	0.027307102
220	0x3cc5b3b1	0.024133535
221	0xbd8ffb93	-0.07030406
222	0x3d8520fd	0.06500433
223	0xbbd0f646	-0.0063770143
224	0x3dc8c6d4	0.098035485
225	0xbc6dc373	-0.014511931
226	0xbd2b1581	-0.041768555
227	0x3c25e682	0.010125758
228	0x3d21a8e3	0.039467704
229	0x3dbeef17	0.093229465
230	0x3cbf0b1b	0.023320725
231	0xbe08257e	-0.13295552
232	0xbc8b5b75	-0.017011384
233	0x3d9580d7	0.07299965
234	0xbb888539	-0.004166272
235	0xbcf394e9	-0.029734092
236	0xbd58c029	-0.052917633
237	0xbdb6a501	-0.08918191
238	0x3d0b3aac	0.0339915
239	0xbd6f60da	-0.058441974
240	0xbc89732a	-0.016778547
241	0x3de4d8c9	0.11174161
242	0xbd1cd943	-0.038293134
243	0x3d9f6f64	0.07784918
244	0xbc48559a	-0.01222744
245	0xbcde171a	-0.027110625
246	0x3de6819b	0.11255189
247	0xbc290f29	-0.010318556
248	0xbd5eb1f3	-0.054368924
249	0x3e0839ea	0.13303342
250	0xbc10f5d3	-0.008847672
251	0x3c86338b	0.016382
252	0xbb14f7c4	-0.0022730688
253	0xbdbc81ce	-0.09204446
254	0x3a462368	0.00075583765
255	0x3c1921a9	0.009346404

bias f4 [512]
0	0x3c239523	0.009984287
1	0xbbacb640	-0.0052707493
2	0xbcb8659f	-0.022509394
3	0xbd87615d	-0.066103674
4	0xbdf0be5f	-0.117550604
5	0xbd4264d9	-0.047459457
6	0x3d0865e4	0.033300295
7	0xbd26ebb3	-0.040752124
8	0xbda7252b	-0.08161386
9	0xbd9ad5cd	-0.075603105
10	0xbd987245	-0.0744367
11	0x3e1c0404	0.15235907
12	0xbc15ee6d	-0.009151083
13	0x3cae883a	0.021305192
14	0x3c8e6beb	0.017385444
15	0xbc9a541e	-0.018838938
16	0x3d5b867a	0.053595044
17	0xbe8820ff	-0.26587674
18	0xbd7d0099	-0.061768148
19	0x3b7a33b8	0.00381778
20	0xbc6b483a	-0.014360482
21	0x3cc95c47	0.024580134
22	0xbc021ad3	-0.007940966
23	0xbda3f096	-0.080048725
24	0xbcc18f88	-0.023628011
25	0x3d98699b	0.07442018
26	0xbcc218ed	-0.023693526
27	0xbdab947a	-0.08377929
28	0x3d6ffbae	0.05858963
29	0xbc2ce33a	-0.010552222
30	0x3d0911b9	0.033464167
31	0xbcd65b50	-0.026166588
32	0xbdf185f7	-0.1179313
33	0xbc95332f	-0.018212883
34	0x3dcf07c3	0.10108902
35	0xbdb9a241	-0.090641506
36	0xbd1df027	-0.038559105
37	0xbe0eacfb	-0.13933174
38	0xbdf76d98	-0.1208145
39	0x3df1eedc	0.11813137
40	0x3d003d91	0.031308714
41	0xbc1c413d	-0.009537038
42	0xbd0117c7	-0.031516816
43	0xbd73d0c2	-0.05952526
44	0xbce5ce64	-0.028052516
45	0xbcf0b217	-0.029381795
46	0xbe370b3a	-0.17875376
47	0x3d8aec62	0.06783368
48	0x3a88fd7f	0.0010451524
49	0x3d825c07	0.06365209
50	0xbe2151cf	-0.15753864
51	0xbd40a146	-0.047028802
52	0xbd869bdf	-0.06572699
53	0xbcbbed5a	-0.022940326
54	0x3d5ee04a	0.054413117
55	0xbda566ca	-0.08076246
56	0xbc2774be	-0.010220705
57	0xbd538e8c	-0.051649615
58	0x3c51d37e	0.012806771
59	0xbd7daa36	-0.061929904
60	0x3da8a0f7	0.082338266
61	0xbd55ce32	-0.052198596
62	0x3dd79ddf	0.105281584
63	0xbdef5fcb	-0.11688193
64	0xbca27e3c	-0.019835584
65	0xbd548753	-0.051886868
66	0x3d112d65	0.035443682
67	0xbcd70f31	-0.026252361
68	0xbd190332	-0.037356563
69	0xbdccb436	-0.0999531
70	0xbe0efe8d	-0.13964291
71	0x3d4b9a74	0.049707845
72	0x3c95d173	0.01828835
73	0xbdf2799f	-0.11839604
74	0x3b590aef	0.003311809
75	0x3dc32089	0.0952769
76	0xbdafafa3	-0.08578422
77	0xbd17926e	-0.03700488
78	0x3cd4365a	0.025904823
79	0xbd1c6dd6	-0.038190685
80	0xbdcbfb3f	-0.09960031
81	0xbcc390e8	-0.023872808
82	0xbdfe2ece	-0.12411271
83	0xbd60be6e	-0.054869108
84	0x3dcdb8a5	0.10044984
85	0x3e105a02	0.14096835
86	0xbd353fe3	-0.04425038
87	0xbe25eedf	-0.16204403
88	0x3e0b0819	0.13577308
89	0x3cb21744	0.02173961
90	0xbe198097	-0.1499046
91	0x3d2703a9	0.040774975
92	0x3c28f7c9	0.010312983
93	0xba6acd14	-0.00089569506
94	0x3d0ac444	0.03387858
95	0xbdb3a9f3	-0.087726496
96	0x3cf1bd3c	0.02950918
97	0x3d88f9a2	0.06688239
98	0xbd8a4193	-0.067507885
99	0xbc8e0021	-0.017334046
100	0x3dee6d32	0.11641921
101	0xbde8e8d7	-0.11372536
102	0xbcc41c78	-0.023939356
103	0x3df927cd	0.121657945
104	0xbd6792ca	-0.056536473
105	0xbdf5e95d	-0.12007401
106	0x3c156395	0.0091179805
107	0xbe0eb5da	-0.13936558
108	0x3e09c19e	0.13452765
109	0xbd8d3f04	-0.06896785
110	0x3cc2e680	0.023791552
111	0xbd2fa283	-0.042879593
112	0xbd666e8d	-0.056257773
113	0x3c827e9b	0.01592951
114	0xbddbc7b5	-0.107314505
115	0xbdce92cd	-0.10086594
116	0xbdde38f4	-0.10850707
117	0xbd3d539e	-0.04622232
118	0xbe041de8	-0.12902033
119	0xbd08671c	-0.033301458
120	0xbd3accad	-0.04560535
121	0xbce84efc	-0.028357975
122	0x3e0af093	0.13568334
123	0x3db815e2	0.08988549
124	0x3c7c0782	0.015382649
125	0x3d9b91be	0.075961575
126	0xbc8509af	-0.016239969
127	0x3ddcba4a	0.10777719
128	0xbdb95ea3	-0.09051254
129	0x3c2a8a51	0.010408954
130	0x3c2a94bb	0.010411437
131	0x3d851050	0.06497252
132	0xbbdffa22	-0.006835238
133	0xbe21faec	-0.15818375
134	0xbdebfaed	-0.1152247
135	0x3d1b4708	0.037909538
136	0x3da43628	0.08018142
137	0xbc7e2317	-0.015511296
138	0xbc2c9c6e	-0.010535343
139	0x3db169b9	0.08662743
140	0xbdd44b3b	-0.103659116
141	0xbdac0624	-0.08399609
142	0xbd83ac26	-0.06429319
143	0xbc597f32	-0.013274955
144	0xbca75c68	-0.020429805
145	0x3d2bf29e	0.041979425
146	0x3d316294	0.043306902
147	0xbcc19a78	-0.023633227
148	0xbc8b2b53	-0.016988432
149	0xbde220bb	-0.11041399
150	0x3c8eb9b6	0.017422538
151	0xbce3691c	-0.027760081
152	0x3db49cbb	0.088189565
153	0x3a488b3f	0.0007650144
154	0xbd821ea0	-0.063534975
155	0xbcbb7cf5	-0.022886733
156	0xbdf669d9	-0.120319076
157	0xbd2f2ff5	-0.042770345
158	0xbdb3db65	-0.087820806
159	0xbd5cf528	-0.053944737
160	0xbdecd249	-0.11563546
161	0xbd05c4c9	-0.032658372
162	0x3d0ccc88	0.034374744
163	0xbdba35b9	-0.09092278
164	0x3d00b0ea	0.03141872
165	0x3e24e396	0.16102442
166	0xbda64504	-0.081186324
167	0xbe03dfe3	-0.12878375
168	0xbda117ef	-0.07865893
169	0x3d8ceed5	0.06881491
170	0xbce40692	-0.027835164
171	0xbd2885a0	-0.04114306
172	0xbd5f549a	-0.05452404
173	0xbd8b06d8	-0.06788415
174	0x3d25b9a3	0.04046024
175	0xbdb6381f	-0.08897423
176	0x3b8c5656	0.004282753
177	0x3cc421aa	0.023941834
178	0x3d85c2d9	0.06531305
179	0xbd38104f	-0.044937428
180	0xbe4d495c	-0.20047516
181	0xbd652d49	-0.05595139
182	0xbc3e8de1	-0.011630506
183	0xbdcf0ba7	-0.101096444
184	0x3cbf2c55	0.023336569
185	0xbd1b6f16	-0.037947737
186	0xbd04881d	-0.03235637
187	0xbc74de63	-0.014945599
188	0xbd88197a	-0.06645484
189	0x3d3aab45	0.04557349
190	0xbdc9368b	-0.09824856
191	0xbe11e9fc	-0.14249414
192	0xbcf33b0d	-0.029691244
193	0xbd5cd025	-0.05390944
194	0xbcf08e04	-0.029364593
195	0xbdd8b008	-0.1058045
196	0xbded4e75	-0.1158723
197	0xbd45d6cb	-0.048300546
198	0xbcafdb75	-0.02146695
199	0x3d90f291	0.07077516
200	0xbcffd3bc	-0.031228893
201	0xbd7d0ab2	-0.061777778
202	0x3c8933ad	0.016748274
203	0x3e31264a	0.17299762
204	0x3c8c342a	0.017114718
205	0x3dc22c73	0.09481134
206	0xbd99a27b	-0.07501694
207	0xbd0e4e3f	-0.03474259
208	0x3d1c8af5	0.038218457
209	0x3e23f975	0.16013129
210	0xbe2ae34c	-0.1668827
211	0xbd1be8c2	-0.038063772
212	0xbc947899	-0.018123912
213	0x3d0e40eb	0.03472988
214	0x3d6a47f8	0.05719754
215	0x3c351390	0.011052027
216	0x3d4de212	0.050264426
217	0x3dc62776	0.09675495
218	0xbcd497aa	-0.025951225
219	0x3d005aa8	0.031336457
220	0x3b6d0b60	0.003617011
221	0xbc63af7c	-0.013896819
222	0x3dd1bec0	0.10241461
223	0xbdec60d6	-0.115419075
224	0xbd35954c	-0.044331834
225	0xbca04f8c	-0.01956918
226	0x3daa1d01	0.08306313
227	0xbc666fd8	-0.014064752
228	0xbd6c6a74	-0.05771871
229	0x3dbe0406	0.09278111
230	0x3d806fe9	0.06271345
231	0x3d363790	0.044486582
232	0x3cb3e2ec	0.02195879
233	0xbd9a554d	-0.07535801
234	0xbd0ae5cf	-0.03391057
235	0xbd50a3f1	-0.050937597
236	0x3be23c4b	0.00690416
237	0x3d341634	0.043966487
238	0xbd1d770a	-0.038443603
239	0xbd4b3908	-0.049614936
240	0x3c9a8a98	0.018864915
241	0xbdf4b81b	-0.11949178
242	0x3d816bd5	0.063193955
243	0xbb1851a3	-0.0023242019
244	0xbd4dbd76	-0.050229512
245	0xbd2a2138	-0.041535586
246	0x3c7ff8bc	0.015623268
247	0xbd9fd69b	-0.078046046
248	0xbda53634	-0.08066979
249	0xbce865ee	-0.028368916
250	0xbdc012f7	-0.09378617
251	0x3d78fb88	0.060786754
252	0x3c94ff3a	0.018188108
253	0xbd37fe9d	-0.044920553
254	0xbda70bef	-0.08156573
255	0x3d5c5d1c	0.053799734

weight f4 [128, 512]
0	0x3d1a3ca4	0.037655488
1	0x3c8b8ac2	0.017033938
2	0xbc3e115e	-0.01160082
3	0xbc3fbb98	-0.011702441
4	0xbb443f74	-0.0029945048
5	0x3cd670f0	0.0261769
6	0xbc8c62d2	-0.017136965
7	0xbcf25057	-0.029579325
8	0xbcf5a137	-0.0299841
9	0x3d34065c	0.043951377
10	0xbc3d58a4	-0.011556778
11	0xbcec04f7	-0.028810961
12	0xbc156a44	-0.009119574
13	0xbaea2076	-0.0017862457
14	0x3d29acfd	0.04142474
15	0x3d048522	0.032353528
16	0xbce238ab	-0.027614912
17	0x3d553dbd	0.05206083
18	0xbadd9500	-0.0016905367
19	0xbcead25a	-0.028664757
20	0x3ce82cfc	0.028341763
21	0x3b7d6a58	0.0038668122
22	0x3b3a99f8	0.002847312
23	0x3d106d9a	0.035260774
24	0xbbb6af01	-0.0055750613
25	0xbd3d2d1a	-0.04618559
26	0xbccb6e20	-0.024832785
27	0xbcde39f8	-0.027127251
28	0xbcb9dd2e	-0.022688475
29	0x3c1bd0ac	0.0095102005
30	0x3d0eb177	0.034837212
31	0x3cfd04ac	0.030886017
32	0xbba2cf07	-0.0049685272
33	0xb9697b90	-0.00022266642
34	0xbd72b693	-0.059256148
35	0x3d17739b	0.036975484
36	0xba776778	-0.00094377203
37	0x3cb7f70d	0.02245667
38	0xbd07e707	-0.03317931
39	0xbd645ec0	-0.055754423
40	0xbcb0bd33	-0.021574592
41	0xbc8ab272	-0.016930792
42	0x3d251173	0.040299844
43	0xbc902c0e	-0.017599132
44	0xbd90a51b	-0.07062741
45	0xbcb26476	-0.02177642
46	0xbc609319	-0.013706946
47	0xbca3a8c8	-0.019977942
48	0xbd0445f8	-0.03229329
49	0x3d189a4f	0.037256535
50	0x3d431665	0.04762878
51	0x3c519626	0.012792146
52	0xbc96bc6c	-0.018400393
53	0x3c990487	0.018678917
54	0x3c8dd992	0.01731566
55	0xbcc12743	-0.023578292
56	0xbcf68711	-0.030093702
57	0x3c849c74	0.016187884
58	0x3d091252	0.033464737
59	0xbc52bd4c	-0.012862515
60	0x3d35e6c7	0.04440954
61	0x3c12f324	0.008969102
62	0xbc82739e	-0.015924271
63	0x3c89e553	0.016832983
64	0x3aacedc7	0.0013193422
65	0x3bc6a497	0.006062101
66	0xbc60613f	-0.01369506
67	0xbc7329e3	-0.01484153
68	0xbd512c9d	-0.051067937
69	0x3c999e0c	0.01875212
70	0xbd2c0de4	-0.042005435
71	0xbcbc0f8e	-0.022956636
72	0xbd1148b1	-0.035469715
73	0x3d1baf5d	0.038009036
74	0x3d2bf3c3	0.041980516
75	0x3c99c3e0	0.018770158
76	0xbcf2d3e8	-0.02964206
77	0x3d23eb22	0.040019162
78	0x3c8db997	0.01730041
79	0x3cbb7d48	0.022886887
80	0xbcc5b0ef	-0.02413222
81	0xbb39de99	-0.0028361438
82	0x3cef78f4	0.02923248
83	0xbd18233f	-0.03714299
84	0xbcddcdf7	-0.02707575
85	0xbd2e478f	-0.042548712
86	0x3c528c0b	0.012850772
87	0xbc79135b	-0.015202369
88	0xbc23679a	-0.009973431
89	0xbc7a1997	-0.01526489
90	0x3d47a332	0.04873962
91	0x3bed61a6	0.0072443066
92	0x3c16a9e0	0.009195775
93	0x3d10af79	0.035323594
94	0x3c371d98	0.011176489
95	0x3d35244b	0.044224065
96	0xbd3d7f07	-0.04626372
97	0xbc5c87f0	-0.013460144
98	0x3c267b87	0.010161287
99	0xbc1bb8b2	-0.009504484
100	0x3c9127f9	0.017719256
101	0xbc9f57bc	-0.019451015
102	0x3c672987	0.014109022
103	0x3c20fed0	0.009826377
104	0x3c8e20a6	0.017349552
105	0x3cc3e838	0.023914441
106	0x3d0ca7c6	0.03433969
107	0xbbb424ca	-0.0054975497
108	0xbbe8ffd8	-0.007110577
109	0x3c7cec5c	0.015437212
110	0xbcc64153	-0.02420107
111	0x3bbe9e3f	0.0058172042
112	0xbd071058	-0.03297457
113	0x3c79d140	0.015247643
114	0x3c5deb44	0.013544861
115	0x3ce424e7	0.027849628
116	0x3d47c177	0.048768487
117	0xbc8f304a	-0.01747908
118	0x3cb95f96	0.022628587
119	0xbb87465a	-0.0041282596
120	0x3cecd805	0.0289116
121	0xbbd314e7	-0.0064417007
122	0xbcee4e3d	-0.029090041
123	0xbc870340	-0.016481042
124	0x3c59f361	0.013302655
125	0xb9aee3a5	-0.00033357475
126	0x3d1bb7e6	0.038017176
127	0xbc2b0a32	-0.0104394425
128	0xbbfbdd9e	-0.007686331
129	0xbd3a4650	-0.04547721
130	0x3d28d920	0.04122269
131	0xbd20cc3f	-0.039257284
132	0x3d082053	0.03323395
133	0xbcfa4556	-0.03055064
134	0xba8ab47c	-0.0010582353
135	0xbb6a5888	-0.0035758335
136	0xbd231a6d	-0.039820123
137	0x3bf1bc4e	0.007377184
138	0x3b7988ec	0.0038075997
139	0xbcb3aa8e	-0.021931913
140	0x3c3b34c2	0.011426153
141	0x3d5b2f79	0.05351207
142	0x3d15d00c	0.036575362
143	0xbd1d3fa3	-0.038390767
144	0x3be8eb66	0.00710814
145	0x3c5ead22	0.013591083
146	0xbd36b328	-0.04460445
147	0x3c3450e5	0.011005615
148	0x3d72a712	0.059241362
149	0xbc046cf7	-0.00808262
150	0xbafcab23	-0.0019277077
151	0xbc06d4dc	-0.008229461
152	0x3b06fc70	0.0020597242
153	0xbc27980a	-0.01022912
154	0xbcd3cdc4	-0.025854953
155	0xbc2dd0ed	-0.010608894
156	0x3d2d4e8c	0.042311236
157	0x3a7203a6	0.0009232111
158	0x3ce89f1a	0.028396178
159	0x3a26d513	0.0006364148
160	0x3c684ca0	0.014178425
161	0xbce100f6	-0.027466279
162	0xbcb0311b	-0.02150779
163	0x3bc673aa	0.0060562687
164	0xbd08a856	-0.033363663
165	0xbc5f51bd	-0.013630328
166	0xbc592f09	-0.013255843
167	0x3cb0471b	0.02151828
168	0x3cc37a49	0.023862021
169	0xbd36456a	-0.044499792
170	0x3d1b6b5d	0.037944186
171	0xbace9018	-0.0015759496
172	0xbd316599	-0.04330978
173	0x3c76847f	0.015046238
174	0x3ca34d1e	0.019934233
175	0xbc39f2ed	-0.011349422
176	0x3d1970c1	0.037461046
177	0xbc6507ec	-0.0139789395
178	0xbda6ac13	-0.08138289
179	0x3d38416d	0.04498427
180	0x3cc63a2a	0.024197657
181	0xbd038c5e	-0.032116286
182	0xbcbda989	-0.02315213
183	0x3b4f00cb	0.0031586166
184	0x3bab3798	0.005225133
185	0xbaf7d5a8	-0.0018908279
186	0xbd2207da	-0.03955827
187	0x3c8427d9	0.016132282
188	0x3cfa3382	0.030542139
189	0x3bca547d	0.0061746226
190	0x3c56c7f2	0.013109194
191	0xbcdc83ce	-0.026918318
192	0xbcf17d08	-0.029478565
193	0xbd630bb9	-0.0554311
194	0x3c97e22a	0.01854046
195	0x3d425e73	0.047453355
196	0x3d3a66d3	0.045508217
197	0x3c2ab415	0.010418911
198	0x3c1cbcc0	0.009566486
199	0x3801d3aa	3.0953124e-05
200	0x3be8cfac	0.0071048345
201	0x3c4291e3	0.011875602
202	0xbc999c64	-0.01875133
203	0xbb976554	-0.0046202336
204	0xbc586702	-0.013208153
205	0x3d132610	0.03592497
206	0xbcf2aa23	-0.029622143
207	0x3d17a6e1	0.037024383
208	0x3b596766	0.0033173203
209	0xba9aba29	-0.0011804748
210	0x3d659868	0.05605355
211	0xbba37d8e	-0.0049893325
212	0x3d3f2186	0.04666283
213	0xbb917615	-0.0044391253
214	0xbc3d110a	-0.011539707
215	0xbca300f1	-0.01989791
216	0x3caafb8b	0.020871898
217	0x3ca0a512	0.019609962
218	0x3d2945c7	0.04132631
219	0xbcebe5ab	-0.028796038
220	0xbd036cc6	-0.032086156
221	0x3bc23c48	0.0059275962
222	0x3c2a7de6	0.010405993
223	0x3b9f5318	0.0048622005
224	0xbd029940	-0.03188443
225	0x3cd0b821	0.025478425
226	0x3cb9c00a	0.02267458
227	0xbc9fe503	-0.019518381
228	0xbb8be9b1	-0.0042698015
229	0xbbc93919	-0.00614084
230	0xbc8df660	-0.017329395
231	0xbd2e76d5	-0.042593796
232	0xbd19c533	-0.03754158
233	0x3d260117	0.040528383
234	0x3d4414c0	0.04787135
235	0x3d1ca06c	0.038238928
236	0xba33d299	-0.00068596896
237	0xbc89887f	-0.01678872
238	0x3c796a63	0.0152231185
239	0x3cd90bec	0.026494943
240	0x3c1b47f3	0.009477603
241	0xbcebcc45	-0.028783927
242	0xbcc2e568	-0.02379103
243	0x3d108521	0.03528321
244	0x3b392393	0.0028249964
245	0xbccdb53b	-0.025110831
246	0x3d0014c1	0.031269792
247	0x3c684531	0.014176653
248	0xb9a6df81	-0.0003182851
249	0xbd167155	-0.036729176
250	0x3d836c34	0.064171225
251	0x3ccba085	0.024856815
252	0xbd354584	-0.04425575
253	0x3cfe5072	0.031044219
254	0xbc80eb89	-0.015737312
255	0x3ca9241e	0.020647105

bias f4 [128]
0	0xbbeaa495	-0.007160733
1	0xbdb44cd2	-0.08803715
2	0xbc03db6b	-0.008047919
3	0x3dab4d59	0.08364362
4	0xbca93e83	-0.02065969
5	0x3cd64939	0.026157962
6	0xbd15bcd2	-0.036557026
7	0x3c8985f5	0.016787509
8	0x3c301a08	0.010748394
9	0xbd13e2df	-0.036105033
10	0x3d1648ba	0.03669045
11	0xbd59b15b	-0.053147655
12	0xbb798cd2	-0.003807832
13	0x3ce26b77	0.027639134
14	0xbd82ca07	-0.0638619
15	0x3c623b79	0.013808125
16	0xbd257b1c	-0.04040061
17	0xbda9d83b	-0.08293196
18	0x3cbea03e	0.023269769
19	0x3dca88a1	0.09889341
20	0x3d416514	0.047215536
21	0xbc98c766	-0.018649768
22	0xbc34312c	-0.010998052
23	0x3d164396	0.03668555
24	0x3d6cc037	0.057800498
25	0x3d0c999e	0.03432619
26	0xbd615f62	-0.055022605
27	0xbbdcfb8f	-0.0067438553
28	0xbd80f983	-0.062975906
29	0xbd275c6c	-0.040859625
30	0x3bf868cb	0.0075808517
31	0x3d528ed2	0.051405735
32	0xbcbdadef	-0.023154227
33	0x3d0641ae	0.03277748
34	0x39f7de96	0.0004727735
35	0x3c39209f	0.011299281
36	0x3c12a871	0.008951292
37	0xbc7312f3	-0.014836061
38	0xbd8c2a5d	-0.06844018
39	0xbd79d86a	-0.060997404
40	0x3d9d2fa4	0.07675102
41	0x3ca120f6	0.019669037
42	0xbd56b76c	-0.05242102
43	0xbd95a04c	-0.07305965
44	0x3c790cbe	0.015200792
45	0xbda8cb51	-0.082419045
46	0xbb5e1c7e	-0.0033891494
47	0x3c70b689	0.014691957
48	0x3cccdbd8	0.025007173
49	0xbdf7e9bb	-0.121051274
50	0x3d3d1d7d	0.0461707
51	0xbce1212b	-0.027481636
52	0xbd87d8f6	-0.06633179
53	0xbd015901	-0.03157902
54	0xbdc7e335	-0.09760133
55	0xbde3cac5	-0.111226596
56	0x3ca0617a	0.01957773
57	0x3d415876	0.047203504
58	0x3d02c500	0.031926155
59	0xbd8b1c4a	-0.06792505
60	0xbd3a2386	-0.045444034
61	0xbca7a840	-0.02046597
62	0x3d745c4e	0.05965834
63	0xbdaeaa21	-0.08528543
64	0xbd16298c	-0.036660716
65	0xbd0ea54d	-0.03482561
66	0xbd62ef08	-0.05540374
67	0xbd7aec40	-0.06126046
68	0xbb96c80a	-0.0046014832
69	0xbdae1772	-0.085005656
70	0xbd73a620	-0.0594846
71	0xbc87c2db	-0.016572407
72	0xbd43301c	-0.047653303
73	0xbc126619	-0.008935475
74	0xbd810e69	-0.06301577
75	0xbbff3b7e	-0.0077890744
76	0xbd511f74	-0.051055387
77	0xbd20c9dd	-0.03925501
78	0xbde4d3ab	-0.11173185
79	0xbc433b56	-0.011916002
80	0xbdb344ea	-0.08753379
81	0x3b3533e5	0.002764934
82	0x3d2f25aa	0.04276053
83	0xbe17f9f0	-0.14841437
84	0x3915fa07	0.0001430289
85	0xbce95ceb	-0.02848669
86	0xbcd2aeff	-0.02571821
87	0xbdbcd0dd	-0.09219525
88	0xbddfd006	-0.10928349
89	0xbd88e15b	-0.06683608
90	0xbd95af42	-0.073088184
91	0xbcaf929d	-0.021432215
92	0xbdceab1a	-0.10091229
93	0x3cbc679a	0.02299862
94	0x3d0a83d2	0.03381712
95	0xbd88731b	-0.066625796
96	0xbd5751c6	-0.05256822
97	0xbb8a5f58	-0.0042227916
98	0x3d83aa3a	0.064289525
99	0x3bf9f279	0.007627782
100	0x3c7b6b19	0.015345358
101	0xbc27b27a	-0.010235423
102	0xbd0a7ed2	-0.03381235
103	0xbd765a56	-0.060144745
104	0x3d85eb16	0.0653898
105	0x3d645585	0.05574562
106	0xbd342241	-0.04397798
107	0x3d822cda	0.06356211
108	0x3d580603	0.05274011
109	0xbca1e7b9	-0.019763814
110	0x3cbcc7a5	0.023044417
111	0xbd4320e4	-0.04763879
112	0xbd311882	-0.043236263
113	0x3d34f970	0.044183195
114	0x3c08ecfd	0.008357284
115	0x3cb70d83	0.02234531
116	0xbdba8c99	-0.09108848
117	0xbdb6e7dd	-0.08930943
118	0xbd5fbf30	-0.05462569
119	0xbca8acfc	-0.020590298
120	0xbc97de5a	-0.018538643
121	0xbd85936b	-0.06522258
122	0x3d61f78a	0.055167712
123	0x3d8f5edb	0.07000514
124	0xbc9837d8	-0.018581316
125	0xbd927192	-0.07150568
126	0xbd93f5e9	-0.07224638
127	0xbd17541e	-0.036945455
