result/aug_20_model_23.pt (torch, 934120 bytes, 9 tensors)

weight f4 [128, 13]
0.0765138 0.128804 -0.053565975 0.42555228 0.1871267 -0.064286105 -0.08595712 -0.25847322
-0.063382976 0.15843534 0.139398 -0.13637975 -0.11342922 0.07926984 0.24527599 -0.0076950653
0.23482125 -0.018573405 0.18411157 0.17282781 0.17955849 -0.17706916 -0.17366426 -0.10140486
-0.11198109 0.21593054 -0.008518534 0.022522086 0.26458704 0.156526 0.28401077 0.36331242
-0.029489903 -0.12733923 -0.20748986 0.08426891 -0.14139186 -0.18475714 -0.23153809 0.094537385
0.39419082 -0.12537478 0.32896513 0.15799017 -0.039519683 -0.16542949 -0.23587036 -0.26672766
-0.3294835 0.13835399 0.03150397 -0.04790524 0.09822459 0.025077516 -0.3074926 0.35776854
0.17595316 0.18215346 0.20277078 -0.27876475 0.067629874 -0.2826985 -0.11942147 -0.05733011
-0.22995783 -0.03434631 -0.062010553 -0.14905256 0.24024493 -0.10166293 0.054798517 -0.01889712
-0.3005033 -0.08958931 -0.09987849 0.4280611 0.13018587 -0.19215515 0.3789945 -0.27615505
-0.20187584 0.29589754 0.13060723 0.17978865 -0.1006199 -0.117702916 -0.14157903 0.17687203
0.21722919 -0.035541706 -0.084598474 -0.035415206 -0.23818888 -0.22676504 0.13454615 0.07026259
0.10957198 0.08699577 0.2301164 -0.042187735 0.15474238 -0.29636002 -0.0022117216 -0.43175116
0.09001417 0.08858755 -0.17363867 0.19630297 0.26102614 -0.042356074 -0.2740561 0.0032665164
-0.24671236 0.08413804 0.23868242 0.081139825 -0.009947421 0.25372323 -0.20181644 0.08250854
-0.25812194 0.14894937 0.18090074 -0.094252475 -0.40144065 -0.44436273 -0.39902148 0.21085009
-0.19488074 -0.12834248 0.045652263 -0.26650694 0.18667573 -0.528867 -0.06955041 0.076950654
-0.3527686 -0.06139563 0.009691092 -0.42164108 0.04911126 -0.17037828 -0.063548975 -0.23940523
-0.30754906 0.0030361789 0.16707171 0.0030498016 0.110959426 0.1758261 -0.011162116 0.024335915
-0.2775188 0.1642398 0.13178651 0.17618893 -0.16745295 -0.19498767 -0.30656737 0.18320142
-0.1636978 -0.18984424 -0.2055901 -0.25581127 0.15844832 -0.2389924 0.3600574 -0.022611052
0.3009445 -0.107608855 -0.048110012 -0.2640952 0.17641282 -0.11507548 0.04390134 0.22380605
-0.15678737 -0.16475174 -0.15287392 0.09299033 0.029562375 0.0335441 0.16146584 0.29344064
0.04546406 0.3512798 0.3229464 0.2508141 0.09222492 -0.3076966 0.084000155 -0.14552692
0.11765541 -0.19860713 -0.11053983 -0.27304488 0.13719633 -0.03270562 0.16067676 0.2996807
-0.06553286 0.12028964 -0.036413804 -0.039749835 0.3612515 -0.26371285 0.18460272 -0.23203175
-0.18212023 -0.24077006 0.06453743 -0.16874002 0.14851195 0.21214765 -0.035398103 -0.14118232
-0.060891934 0.17743485 0.14151 0.048735783 0.10797182 -0.19028047 0.015089368 0.29274094
0.21026824 -0.036879122 -0.2579732 -0.088149056 -0.18032207 0.06046191 -0.3610893 0.09056492
0.16614218 -0.16840604 -0.22493048 -0.21127644 -0.21310131 -0.3570645 -0.20663449 -0.052267164
0.08379116 -0.07711091 -0.06875802 -0.28141567 -0.10615991 -0.053680692 0.26280165 0.024340771
0.121813476 -0.13926114 0.36442453 0.20930612 -0.23965646 -0.032676592 -0.097474866 0.01662129
00000000: 44b3 9c3d 32e5 033e ff67 5bbd fde1 d93e
00000010: 249e 3f3e 6fa8 83bd 490a b0bd 9a56 84be
00000020: efce 81bd e03c 223e 59be 0e3e 22a7 0bbe
00000030: 944d e8bd 3a58 a23d a129 7b3e e326 fcbb
00000040: fb74 703e 4127 98bc be87 3c3e c6f9 303e
00000050: 2ede 373e 9e51 35be 0bd5 31be 5aad cfbd
00000060: 5756 e5bd e51c 5d3e 5291 0bbc 3d80 b83c
00000070: f477 873e 5a48 203e dc69 913e 1604 ba3e
00000080: cf94 f1bc 3765 02be 3978 54be 2e95 ac3d
00000090: 07c9 10be fa30 3dbe 5218 6dbe d19c c13d
000000a0: 61d3 c93e 3f62 00be 1e6e a83e 2dc8 213e
000000b0: 64df 21bd 5966 29be 0088 71be 8790 88be
000000c0: 10b2 a8be abac 0d3e 4f0a 013d 4938 44bd
000000d0: f929 c93d 5d6f cd3c ac6f 9dbe 702d b73e
000000e0: 112d 343e 7086 3a3e 25a3 4f3e 41ba 8ebe
000000f0: 8881 8a3d dcbd 90be 3e93 f4bd fad2 6abd
00000100: 117a 6bbe b7ae 0cbd c7fe 7dbd 3ca1 18be
00000110: c402 763e a734 d0bd 6974 603d 22ce 9abc
00000120: 92db 99be 9a7a b7bd 188d ccbd d32a db3e
00000130: 724f 053e 52c4 44be 910b c23e 3264 8dbe
00000140: 8ab8 4ebe e27f 973e e7bd 053e 841a 383e
00000150: ce11 cebd 3a0e f1bd 18fa 10be f11d 353e
00000160: 5471 5e3e 2e94 11bd f741 adbd 890f 11bd
00000170: c9e7 73be 1835 68be 77c6 093e d5e5 8f3d
00000180: 4667 e03d d72a b23d a2a3 6b3e 0ccd 2cbd
00000190: c974 1e3e 80bc 97be 88f2 10bb 7d0e ddbe
000001a0: 5959 b83d 646d b53d 56ce 31be a503 493e
000001b0: 38a5 853e 907d 2dbd 1551 8cbe 0d13 563b
000001c0: 2aa2 7cbe 9150 ac3d 2a69 743e a32c a63d
000001d0: 82fa 22bc 03e8 813e f8a8 4ebe 3dfa a83d
000001e0: 8f28 84be 2f86 183e 0b3e 393e 7107 c1bd
000001f0: a189 cdbe 8383 e3be 8b4c ccbe 16e9 573e
00000200: d18e 47be 366c 03be defd 3a3d 9973 88be
00000210: ec27 3f3e d463 07bf 7270 8ebd 4e98 9d3d
00000220: 169e b4be fc79 7bbd 63c7 1e3c 57e1 d7be
00000230: e328 493d a577 2ebe f725 82bd a526 75be
00000240: 1277 9dbe a1fa 463b d914 2b3e 2edf 473b
00000250: b23e e33d c20b 343e 4fe1 36bc 1d5c c73c
00000260: f216 8ebe 7a2e 283e 0bf3 063e df6a 343e
00000270: c978 2bbe d9aa 47be 66f6 9cbe 2799 3b3e
00000280: 65a0 27be 8766 42be 3686 52be b2f9 82be
00000290: 4740 223e 6cba 74be 7259 b83e d03a b9bc
000002a0: 6615 9a3e 0862 dcbd 010f 45bd 7c37 87be
000002b0: 90a5 343e b1ac ebbd e4d1 333d 6a2d 653e
000002c0: de8c 20be aeb4 28be fb8a 1cbe b771 be3d
000002d0: cb2c f23c 8a65 093d 4d57 253e da3d 963e
000002e0: 8638 3a3d f2da b33e 3b59 a53e b56a 803e
000002f0: 6be0 bc3d 698a 9dbe 4608 ac3d 0205 15be
00000300: 52f5 f03d ab5f 4bbe b562 e2bd 8acc 8bbe
00000310: 327d 0c3e 54f6 05bd 7388 243e c06f 993e
00000320: 1836 86bd 6a5a f63d a426 15bd b9d0 22bd
00000330: f5f5 b83e 5f05 87be 7f08 3d3e bb99 6dbe
00000340: ba7d 3abe 6d8c 76be 332c 843d 2fca 2cbe
00000350: 8413 183e 3c3d 593e 9afd 10bd 1992 10be
00000360: d269 79bd 7bb1 353e ffe7 103e 2c9f 473d
00000370: 5420 dd3d e2d8 42be 6639 773c 24e2 953e
00000380: 8f50 573e 900e 17bd 1015 84be 7e87 b4bd
00000390: 59a6 38be e8a6 773d b2e0 b8be 1a7a b93d
000003a0: 2d21 2a3e a272 2cbe 2d54 66be da58 58be
000003b0: 3b37 5abe 28d1 b6be fe97 53be 1816 56bd
000003c0: b39a ab3d 53ec 9dbd 01d1 8cbd b715 90be
000003d0: 5e6a d9bd 49e0 5bbd f08d 863e 4c66 c73c
000003e0: 5879 f93d 799a 0ebe da95 ba3e 5854 563e
000003f0: 8168 75be e4d7 05bd e7a0 c7bd 5f29 883c

bias f4 [128]
0.010691356 0.1723843 -0.21622576 -0.11520495 -0.11815493 0.08701209 0.07715797 -0.11883989
-0.1478321 -0.14899527 0.22196367 0.06316347 -0.18917388 0.10841108 -0.07541292 0.26182055
-0.23616424 0.03679315 -0.13967086 0.017538711 0.035671778 -0.14612593 -0.25393584 -0.11472973
0.21642074 0.06087419 -0.37515223 0.15457705 0.3010091 0.24067922 -0.10231643 0.33251083
0.12709092 -0.24900809 0.13168497 0.119049706 0.18844311 -0.18914159 0.03433308 0.19328833
-0.31398386 0.08528191 0.2280941 -0.09731646 -0.11404791 0.3429665 0.22739519 -0.097956404
-0.26918277 0.20240057 0.28481534 -0.036140975 0.06500744 0.2339041 0.18999623 0.10038864
-0.09530845 0.17469041 0.056594048 0.12572737 0.009398399 0.16037986 0.25944483 -0.08031874
0.2236533 -0.07029288 -0.20453648 -0.27702215 0.009808964 0.15916255 0.12884378 0.04297406
0.14716342 0.22759834 0.07174799 0.03228297 0.14059436 0.28212184 0.006617335 0.29421195
-0.17383775 0.052171458 -0.123290405 0.10730555 0.09735021 0.25646693 -0.32651597 0.0829954
-0.086295314 0.15252084 -0.052769605 -0.302784 0.14634567 -0.063640445 -0.07367901 0.18758161
-0.17201543 0.06712448 -0.28916743 0.09101407 0.13355312 0.16473053 -0.2037485 -0.26050058
0.09118073 -0.28660673 0.34813917 0.03648946 0.03701842 0.12703747 -0.27146637 0.09849901
0.10223104 0.014194753 0.10561443 0.21667065 -0.15547453 -0.17523535 0.10216568 0.06430159
-0.1106583 0.07426757 -0.049239684 -0.13384505 0.12412973 0.009325348 -0.21809882 -0.17889725
00000000: cc2a 2f3c 8385 303e 496a 5dbe 93f0 ebbd
00000010: 36fb f1bd 6533 b23d ff04 9e3d 5462 f3bd
00000020: 4c61 17be 3792 18be 724a 633e d95b 813d
00000030: ccb6 41be a106 de3d 1772 9abd 580d 863e
00000040: 0ad5 71be 6ab4 163d e105 0fbe 58ad 8f3c
00000050: 921c 123d 09a2 15be e103 82be 6cf7 eabd
00000060: 669d 5d3e 3757 793d f413 c0be 7249 1e3e
00000070: dd1d 9a3e 9d74 763e 478b d1bd dc3e aa3e
00000080: 1f24 023e fafb 7ebe 6dd8 063e 55d0 f33d
00000090: 3bf7 403e 55ae 41be d8a0 0c3d 60ed 453e
000000a0: 7ec2 a0be 48a8 ae3d 8091 693e da4d c7bd
000000b0: f391 e9bd 4e99 af3e 49da 683e 5e9d c8bd
000000c0: 53d2 89be 1842 4f3e 51d3 913e 8f08 14bd
000000d0: 9f22 853d 8e84 6f3e 5f8e 423e 8f98 cd3d
000000e0: 1431 c3bd 0be2 323e 29cf 673d adbe 003e
000000f0: befb 193c 9e3a 243e f4d5 843e 277e a4bd
00000100: 5f05 653e b7f5 8fbd 0372 51be d9d5 8dbe
00000110: c7b5 203c 82fb 223e a0ef 033e 9105 303d
00000120: 02b2 163e 8a0f 693e 9cf0 923d 263b 043d
00000130: f8f7 0f3e 4672 903e 3bd6 d83b f3a2 963e
00000140: 8602 32be bdb1 553d ae7f fcbd 03c3 db3d
00000150: 8c5f c73d a24f 833e 1a2d a7be 7ef9 a93d
00000160: 99bb b0bd 6c2e 1c3e f124 58bd 8106 9bbe
00000170: a4db 153e ec55 82bd 05e5 96bd 6515 403e
00000180: d024 30be 8f78 893d c10d 94be 9665 ba3d
00000190: 26c2 083e 1faf 283e 72a3 50be 5560 85be
000001a0: f6bc ba3d 1ebe 92be 4c3f b23e f975 153d
000001b0: a0a0 173d 1c16 023e a4fd 8abe d9b9 c93d
000001c0: 825e d13d 1c91 683c 614c d83d e9de 5d3e
000001d0: b734 1fbe e570 33be 3d3c d13d 8db0 833d
000001e0: d2a0 e2bd 9919 983d 8daf 49bd ad0e 09be
000001f0: ba37 fe3d 58c9 183c 4c55 5fbe d730 37be

weight f4 [256, 128]
0.07772209 -0.078951985 0.04223604 0.07041335 -0.11079232 -0.046397902 0.014217848 -0.15150426
-0.03170564 0.0022143996 -0.056472376 -0.08338234 0.13436042 0.06750967 -0.05395668 -0.044719517
0.07275418 -0.015153268 -0.009448083 -0.026684493 0.025448615 0.07843174 -0.039447412 -0.05151779
0.024644626 0.08816364 0.03344465 -0.0009289911 -0.09089751 0.061451826 -0.0054218858 -0.035301145
0.022718415 -0.06611485 0.078353345 0.087953724 0.041822977 0.07447415 -0.013492275 0.015825069
-0.008650276 -0.007191015 -0.076503105 -0.048757054 -0.10107295 0.020386063 -0.029262282 -0.059309874
-0.04530971 -0.08326019 -0.029380077 -0.008970925 -0.12947014 -0.036751155 -0.1253283 0.067456506
-0.02784944 -0.049048904 0.12155482 -0.075999044 -0.03608416 -0.098728135 0.08606047 0.01423406
0.04576105 -0.0030229124 0.046879243 0.038643777 -0.09858253 -0.07920096 0.08830943 0.12723929
0.048411995 -0.08497064 0.041040346 -0.07734462 -0.10534425 -0.0023040313 -0.004112648 -0.090355285
-0.10671497 -0.029334098 -0.02767234 -0.009008306 0.018392395 -0.011863848 0.07004772 -0.006107914
-0.04069044 0.04324415 0.054075565 -0.077886455 0.062393833 -0.08836736 -0.011641865 0.013125077
0.019450499 0.040836908 -0.016535701 0.021325678 -0.01864789 -0.03882176 0.03961092 0.10166454
0.009495433 -0.02417373 -0.10943618 -0.014151343 -0.03198233 0.019993676 0.07767845 -0.066671975
-0.059892096 0.0078840675 0.026540225 -0.03416033 0.020088105 0.032208268 -0.13221072 -0.04305035
-0.06306611 0.071445726 0.01890873 0.03131876 0.06842549 -0.047470827 -0.101529755 0.091135114
0.04970471 -0.061060105 0.05778659 0.023351926 0.12029382 0.032098692 0.016945219 0.18094718
0.026617194 0.049049262 0.10191192 0.030401459 -0.09191067 -0.004015541 0.03376082 0.037476685
-0.06239048 0.09444064 0.04507541 0.0029641006 0.097742155 -0.10037757 -0.031518638 0.056967113
0.06321643 -0.025750065 0.08368733 0.02712506 0.11039528 0.0474874 0.06871166 0.050392814
-0.04598357 -0.038614422 0.08063684 -0.027852844 0.08830187 -0.07001237 -0.0069418973 0.009550396
0.03987389 0.014552081 -0.026216147 0.06840806 0.023505863 0.09996367 0.008455446 0.022602916
-0.020192329 0.024017802 0.030785827 0.0046027955 0.15521367 0.013540457 0.06617158 0.043042086
0.06406847 -0.07285758 -0.15094459 0.0024712353 -0.07902972 0.0080634225 0.062783174 -0.007292649
-0.06599873 0.077919886 -0.041362137 -0.026064036 0.055565085 0.021617549 -0.027663313 0.033919904
0.09849091 0.03887954 -0.03462844 0.116979316 0.076499894 0.095088005 0.026569387 -0.017203951
0.12569948 -0.05155061 0.106139265 0.052580442 0.029129988 -0.01640888 0.04449776 -0.006571478
0.020329567 -0.009562951 -0.056267273 0.065100804 0.036520578 0.06396531 0.019183274 -0.05210939
0.060495015 -0.11462942 -0.018039383 -0.056787208 -0.029414833 0.020918421 -0.033130575 0.0059398343
0.10745218 0.098883726 -0.015888657 0.008994207 -0.07211478 0.0022484795 -0.12995039 0.017090654
0.09009759 -0.07589555 0.018301396 -0.05241112 0.04386946 0.048696637 -0.0067819455 -0.08452216
-0.03063136 -0.021898624 0.05244074 0.02879432 -0.005071748 -0.04602865 0.021347294 0.029558048
00000000: c22c 9f3d 94b1 a1bd b3ff 2c3d e034 903d
00000010: 15e7 e2bd ba0b 3ebd faf1 683c ef23 1bbe
00000020: c6dd 01bd 761f 113b 944f 67bd 5cc4 aabd
00000030: c795 093e 8342 8a3d ae01 5dbd d02b 37bd
00000040: 2500 953d 6a45 78bc 22cc 1abc 7099 dabc
00000050: 9d79 d03c d2a0 a03d 9c93 21bd 5104 53bd
00000060: 87e3 c93c 238f b43d 42fd 083d 8a87 73ba
00000070: 7928 babd e9b4 7b3d 13aa b1bb ef97 10bd
00000080: f81b ba3c 3967 87bd b877 a03d 1521 b43d
00000090: 924e 2b3d e785 983d b40e 5dbc 93a3 813c
000000a0: e3b9 0dbc 9ba2 ebbb a9ad 9cbd 7ab5 47bd
000000b0: 56ff cebd ac00 a73c 74b7 efbc e9ee 72bd
000000c0: ad96 39bd 5284 aabd 7dae f0bc c9fa 12bc
000000d0: d293 04be 6188 16bd 1056 00be a326 8a3d
000000e0: 8224 e4bc 81e7 48bd bcf1 f83d 63a5 9bbd
000000f0: fccc 13bd fa31 cabd 7940 b03d fa35 693c
00000100: f06f 3b3d 0e1c 46bb 7304 403d f048 1e3d
00000110: a3e5 c9bd 1d34 a2bd 93db b43d 044b 023e
00000120: a84b 463d 1605 aebd ec19 283d db66 9ebd
00000130: babe d7bd 3bff 16bb 64c3 86bb 310c b9bd
00000140: 618d dabd 104e f0bc 1ab1 e2bc 9397 13bc
00000150: a6ab 963c 9660 42bc 2e75 8f3d e524 c8bb
00000160: 05ab 26bd c720 313d 577e 5d3d ef82 9fbd
00000170: ad90 7f3d f2f9 b4bd 85bd 3ebc 900a 573c
00000180: a756 9f3c 9a44 273d e175 87bc 30b3 ae3c
00000190: 76c3 98bc 9103 1fbd 0f3f 223d 8035 d03d
000001a0: bc92 1b3c fc07 c6bc 1320 e0bd 09db 67bc
000001b0: e7ff 02bd c7c9 a33c e115 9f3d 518b 88bd
000001c0: 6a51 75bd 2d2c 013c e36a d93c b4eb 0bbd
000001d0: cf8f a43c d1ec 033d 3f62 07be 9055 30bd
000001e0: ce28 81bd 2352 923d 7be6 9a3c 1a48 003d
000001f0: aa22 8c3d c570 42bd d5ee cfbd 0ca5 ba3d
00000200: 2a97 4b3d 291a 7abd a2b1 6c3d 8a4c bf3c
00000210: 9b5c f63d eb79 033d b3d0 8a3c 384a 393e
00000220: 4d0c da3c e1e7 483d 32b7 d03d 7b0c f93c
00000230: a93b bcbd cd94 83bb c948 0a3d 2781 193d
00000240: 298d 7fbd 186a c13d fea0 383d 5b41 423b
00000250: 0a2d c83d c192 cdbd b019 01bd 5956 693d
00000260: 9e77 813d cdf1 d2bc 4364 ab3d 6035 de3c
00000270: ec16 e23d 2682 423d b3b8 8c3d b268 4e3d
00000280: 4559 3cbd 282a 1ebd ed24 a53d a62b e4bc
00000290: 9cd7 b43d a562 8fbd db78 e3bb 4479 1c3c
000002a0: ce52 233d da6b 6e3c 3fc3 d6bc 8619 8c3d
000002b0: 5e8f c03c c1b9 cc3d b688 0a3c c029 b93c
000002c0: 626a a5bc fbc0 c43c 8f32 fc3c 0cd3 963b
000002d0: 55f0 1e3e cbd8 5d3c f784 873d e64c 303d
000002e0: 5436 833d 5b36 95bd 3891 1abe 73f4 213b
000002f0: 55da a1bd 721c 043c 7794 803d 2cf7 eebb
00000300: 582a 87bd 7694 9f3d 586b 29bd 3f84 d5bc
00000310: 3798 633d 4917 b13c 2c9e e2bc 99ef 0a3d
00000320: 9ab5 c93d 2740 1f3d 8dd6 0dbd da92 ef3d
00000330: faab 9c3d 80bd c23d 0ba8 d93c 4def 8cbc
00000340: 5db7 003e bc26 53bd 8b5f d93d 975e 573d
00000350: 03a2 ee3c ea6b 86bc 4843 363d 8e55 d7bb
00000360: 318a a63c ecad 1cbc 8378 66bd 9253 853d
00000370: 9a96 153d 3f00 833d 3e26 9d3c a870 55bd
00000380: 9fc9 773d d4c2 eabd 54c7 93bc b499 68bd
00000390: 60f7 f0bc 1c5d ab3c edb3 07bd f1a2 c23b
000003a0: e30f dc3d 8d83 ca3d ee28 82bc 705c 133c
000003b0: eab0 93bd 3a5b 133b b711 05be b301 8c3c
000003c0: 1685 b83d 206f 9bbd cfec 953c 0bad 56bd
000003d0: 76b0 333d 2076 473d 153b debb f419 adbd
000003e0: 9eee fabc be64 b3bc 1acc 563d 11e2 eb3c
000003f0: e830 a6bb 8a88 3cbd 85e0 ae3c b823 f23c

bias f4 [256]
-0.05961444 -0.040494274 0.005816079 -0.035684325 0.105230145 0.05752847 -0.0072872415 -0.07840518
0.07884627 -0.032773465 -0.013277632 0.03248516 0.036131117 -0.011682573 -0.035634406 0.025339367
-0.0023463268 0.0040922137 0.028608933 0.07764729 0.021933896 -0.1016605 0.030983724 -0.029789306
-0.053117253 0.12687351 0.020824697 -0.012798295 -0.06768511 0.043829843 -0.04583736 0.09118217
0.07162568 0.07606383 -0.0037784511 0.07943719 0.08780948 0.055843424 0.035066865 0.124556154
-0.07989984 -0.089140855 -0.022056913 0.033780724 0.0059266584 0.07401885 -0.048530463 0.001056296
0.022351539 0.08056048 -0.042159423 0.015543617 -0.025362188 0.041433364 -0.05297292 -0.06346705
-0.045072645 0.020104082 -0.053828195 0.023742532 0.051339302 8.688762e-05 0.04175205 -0.04984565
-0.00095700443 -0.050627384 -0.062713236 0.0098140435 0.037935846 -0.055861056 -0.045700863 -0.02899792
-0.0032128927 -0.110594586 0.084265396 0.03288698 -0.04230744 0.056620643 0.04147411 -0.039659888
0.018762363 -0.13486587 0.06376843 0.06393048 -0.019193409 0.024490714 0.02662297 -0.07108648
-0.030232674 -0.032935627 0.03668543 0.015587804 0.0279306 0.04894392 -0.059051555 0.07847558
-0.02748559 0.034388926 0.022437388 0.020170212 -0.045588605 0.052720383 0.12420582 -0.11842333
-0.05138388 -0.041196745 0.13009901 0.02312646 0.026789164 -0.09276463 0.040112946 -0.0077852393
-0.06328506 0.021170372 0.024391742 0.011569403 0.0025056766 -0.022482965 -0.07825439 -0.0061645717
0.00653538 0.030970624 -0.055476867 0.08123572 -0.032967072 0.08707971 0.11976383 0.006985997
-0.0129380105 -0.064212896 -0.02466222 0.08689402 0.05150007 0.11789316 0.06601306 -0.109566264
0.05301009 -0.04922967 -0.06279158 0.03317683 -0.041583553 0.029817209 0.025865292 0.01277725
0.07779524 0.035651807 0.030388258 0.028923716 -0.016637841 -0.022939919 0.040511806 0.091799475
0.006087647 -0.031470798 -0.06595571 0.034399007 -0.07099725 -0.025354937 -0.057705313 0.07205605
0.025530385 -0.017989526 0.00014565482 0.049749974 -0.10748334 -0.045755044 0.09482599 0.057374056
0.0049106 0.042469554 0.075576335 0.0053303954 0.09276507 0.0067656427 0.09468256 0.0043727276
0.03308525 0.14929272 0.020513287 -0.008548767 0.044626284 0.013318201 -0.022142801 0.031084105
-0.045551818 0.0447839 -0.105275445 -0.021386124 -0.028266784 -0.024505606 0.018295193 0.037259445
-0.06402241 0.011189873 0.05261236 -0.02230714 -0.006150331 -0.05104492 -0.042332266 0.06753333
0.050938223 -0.1054205 -0.026893334 0.025364017 0.00076554425 0.04708483 -0.111966334 -0.040496554
-0.09475955 0.034124058 0.017068202 0.099410675 0.03840998 -0.005989741 0.034381457 -0.07534968
0.12237507 0.09021401 0.14202406 0.013349667 0.0070115067 0.0056628077 0.07863962 0.005974416
0.0368298 0.02135703 -0.058776837 -0.1090545 0.06844849 -0.004071251 0.080446295 -0.1165037
0.031153208 -0.01922662 -0.008590696 0.07679703 -0.016799627 -0.09040742 0.040890448 0.16599865
-0.025813198 -0.04052588 -0.110399865 0.015551497 0.039483927 0.021670304 -0.0136383055 0.0827446
0.08612769 0.033952314 0.06096521 0.017551439 -0.111991316 -0.0032503633 0.07323625 -0.007866634
00000000: 452e 74bd 53dd 25bd cf94 be3b ba29 12bd
00000010: e782 d73d f9a2 6b3d d0c9 eebb e592 a0bd
00000020: 277a a13d 783d 06bd 6d8a 59bc 290f 053d
00000030: 39fe 133d 4368 3fbc 62f5 11bd 8194 cf3c
00000040: d5c4 19bb fa17 863b 485d ea3c 8b05 9f3d
00000050: b7ae b33c 6133 d0bd 94d1 fd3c b408 f4bc
00000060: 7a91 59bd 21eb 013e 8e98 aa3c f1af 51bc
00000070: 7e9e 8abd ec86 333d f5bf 3bbd b8bd ba3d
00000080: 7cb0 923d 5ac7 9b3d e49f 77bb f7af a23d
00000090: 75d5 b33d 13bc 643d 46a2 0f3d 4c17 ff3d
000000a0: 87a2 a3bd 7b8f b6bd b3b0 b4bc a85d 0a3d
000000b0: 6a34 c23b 3297 973d e1c7 46bd 6a73 8a3a
000000c0: 931a b73c e5fc a43d 5caf 2cbd a8aa 7e3c
000000d0: 5dc4 cfbc 08b6 293d 22fa 58bd 03fb 81bd
000000e0: 189e 38bd 51b1 a43c f47a 5cbd b37f c23c
000000f0: 2949 523d 7037 b638 3304 2b3d f42a 4cbd
00000100: 7bdf 7aba a95e 4fbd cc6f 80bd 15cb 203c
00000110: 9e62 1b3d 90ce 64bd d430 3bbd 0c8d edbc
00000120: 658f 52bb 6a7f e2bd 5693 ac3d 7fb4 063d
00000130: 914a 2dbd 0ceb 673d c2e0 293d 6872 22bd
00000140: 87b3 993c 471a 0abe 0699 823d fced 823d
00000150: 7f3b 9dbc c0a0 c83c 6a18 da3c ca95 91bd
00000160: 83aa f7bc 82e7 06bd 7643 163d fd63 7f3c
00000170: b7ce e43c 6b79 483d 0be0 71bd ceb7 a03d
00000180: 7629 e1bc 67db 0c3d 9dce b73c 003c a53c
00000190: 1ebb 3abd 54f1 573d 9f5f fe3d ee87 f2bd
000001a0: e777 52bd ebbd 28bd ad38 053e b473 bd3c
000001b0: f374 db3c 62fb bdbd 794d 243d 521b ffbb
000001c0: 999b 81bd 7d6d ad3c 31d1 c73c 988d 3d3c
000001d0: 4736 243b 322e b8bc d643 a0bd 2d00 cabb
000001e0: be26 d63b 1bb6 fd3c b63b 63bd ea5e a63d
000001f0: 7b08 07bd d956 b23d bd46 f53d caea e43b
00000200: f3f9 53bc 0d82 83bd 6d08 cabc 7ef5 b13d
00000210: bdf1 523d f871 f13d db31 873d 4764 e0bd
00000220: 1c21 593d 0da5 49bd df98 80bd 6de4 073d
00000230: 8453 2abd 3843 f43c 73e3 d33c ac57 513c
00000240: 1c53 9f3d a107 123d ccf0 f83c 6ef1 ec3c
00000250: 154c 88bc 7fec bbbc b5ef 253d 5d01 bc3d
00000260: e27a c73b 86e7 00bd ca13 87bd f9e5 0c3d
00000270: 0267 91bd 28b5 cfbc 685c 6cbd 1f92 933d
00000280: 1925 d13c c55e 93bc ebba 1839 a1c6 4b3d
00000290: 3a20 dcbd a469 3bbd 2134 c23d 0f01 6b3d
000002a0: 19e9 a03b 8ef4 2d3d c4c7 9a3d 99aa ae3b
000002b0: 9dfb bd3d 53b2 dd3b eee8 c13d 1949 8f3b
000002c0: 6684 073d 31e0 183e 7b0b a83c 2110 0cbc
000002d0: 0dca 363d 9534 5a3c d264 b5bc 18a4 fe3c
000002e0: 8b94 3abd 536f 373d a79a d7bd f431 afbc
000002f0: be8f e7bc fbbf c8bc cddf 953c 5c9d 183d
00000300: 2e1e 83bd bb55 373c 0f80 573d 77bd b6bc
00000310: b788 c9bb 7a14 51bd 9964 2dbd ea4e 8a3d
00000320: 99a4 503d b4e6 d7bd 694f dcbc 33c8 cf3c
00000330: ceae 483a 06dc 403d 9b4e e5bd b7df 25bd
00000340: 4c11 c2bd abc5 0b3d 9dd2 8b3c d397 cb3d
00000350: c853 1d3d 9745 c4bb 92d3 0c3d ef50 9abd
00000360: c89f fa3d 1fc2 b83d c16e 113e 90b8 5a3c
00000370: c8c0 e53b 138f b93b cf0d a13d 09c5 c33b
00000380: d8da 163d f0f4 ae3c fbbf 70bd f757 dfbd
00000390: b92e 8c3d 2168 85bb 07c1 a43d 7e99 eebd
000003a0: 0335 ff3c 2581 9dbc febf 0cbc c347 9d3d
000003b0: 5f9f 89bc 8727 b9bd be7c 273d 8dfb 293e
000003c0: 3376 d3bc 77fe 25bd 5319 e2bd b5cb 7e3c
000003d0: e6b9 213d ec85 b13c 3373 5fbc 0076 a93d
000003e0: b763 b03d 9511 0b3d a8b6 793d 09c8 8f3c
000003f0: b45b e5bd 0c04 55bb e3fc 953d 0ee3 00bc

weight f4 [512, 256]
0.036307774 -0.0011371784 0.14004959 -0.018736899 -0.060563225 -0.012411411 -0.009248681 0.011918021
-0.020467946 0.011340381 -0.01915992 -0.057764806 0.034854405 -0.09227589 -0.039436784 -0.028416844
0.09708174 0.030707393 0.096696384 -0.030980963 0.03501176 -0.01951765 -0.04958839 -0.041857366
-0.032650217 0.049277876 -0.023733957 0.011416264 -0.012628384 0.0072963387 -0.09603146 0.072894335
-0.0095537435 -0.06393589 0.017689863 -0.055551026 0.030729406 -0.049238946 0.0076773483 0.043833718
0.005017282 -0.018672977 -0.065308444 -0.0026941288 -0.019805908 -0.05101517 0.008151492 0.031470403
0.031542208 0.029165322 -0.045220166 -0.026995827 0.004252616 -0.009470955 -0.02696526 0.030542029
-0.032576114 0.21018972 -0.072972216 0.0056983638 0.037759792 -0.03846094 -0.022272993 -0.008369539
-0.011200403 0.008253764 0.009030626 -0.059458695 0.041741967 -0.03880091 -0.038929723 0.0032571414
-0.07389857 -0.06719395 0.020087574 -0.017102515 0.13432412 -0.083530605 -0.014189448 0.001402152
0.032349404 0.009047706 0.023629552 0.062085833 0.04469871 0.09267873 -0.09597752 -0.025698047
-0.08325597 0.022650031 0.014096537 0.0240809 0.045679174 0.11563086 -0.011785386 -0.030903451
0.038546614 0.04011899 -0.056711618 0.0051656784 0.072305344 -0.025273178 -0.021766922 -0.081962824
-0.023624152 0.005065438 0.00055910787 -0.08649187 0.055690326 -0.13412514 -0.016233591 -0.028191932
0.016409071 0.06398668 0.06170696 0.094909035 -0.05540919 -0.08468195 -0.09050185 0.040139522
-0.06397348 0.03225456 -0.077908866 0.04396675 -0.050208155 -0.02467438 0.07908395 -0.0377206
0.09636947 0.00791494 0.032291293 0.012534262 -0.0842488 0.063265435 0.032914866 0.07069564
0.074233755 0.0016445151 0.031486444 -0.032499988 -0.04209238 -0.064401545 0.058938216 -0.003268924
0.044034846 -0.013483555 0.03804175 -0.0631891 -0.028132457 0.0067723803 0.06921024 -0.04497672
-0.0015679371 0.026863443 -0.036272246 -0.042091828 0.009822878 0.10897581 -0.0670068 -0.07210716
0.013914103 -0.047454115 0.096870705 0.031627435 -0.03151867 -0.009675944 0.03398797 0.08906733
0.0016086539 -0.013382105 -0.031564876 0.033199754 0.054546997 -0.08908599 0.10043957 0.1004436
0.030138759 0.1156456 0.14156026 0.013098935 0.03971 -0.017438322 0.02704899 -0.054820795
0.03771789 0.0043457216 0.08328804 0.05496567 0.008424725 0.09840917 -0.03468205 0.02969498
-0.012819773 0.005785867 -0.09229306 -0.019151777 -0.011838709 -0.0033499608 0.014426951 -0.0005098721
0.039653417 -0.017848425 0.028378403 -0.0146761965 0.047414094 -0.017846383 -0.066787176 0.014840725
-0.010074464 0.0064294226 0.009925844 -0.103345186 0.013598819 -0.11913721 0.018825553 -0.005946455
-0.014011598 0.01102113 -0.00848035 0.08938675 -0.013063022 -0.0068178056 0.067548685 0.046229146
0.016217556 0.046535503 -0.021006621 -0.028111072 0.014772005 -0.00981247 0.042574197 -0.024742493
-0.007885579 -0.0552062 -0.0036688994 -0.021202622 0.023488635 -0.047422636 0.086715676 0.004808884
-0.07267784 -0.056864206 -0.035326473 -0.066531666 -0.102681056 0.0076325545 0.028435657 -0.02238332
-0.040459614 -0.10359493 0.055920504 0.034956936 -0.05165001 0.055204906 0.025471475 -0.048713647
00000000: 76b7 143d 600d 95ba 2969 0f3e 207e 99bc
00000010: 2511 78bd 3b59 4bbc c887 17bc ce43 433c
00000020: 65ac a7bc 01cd 393c 44f5 9cbc ca9a 6cbd
00000030: 7ec3 0e3d 24fb bcbd 7788 21bd 71ca e8bc
00000040: cbd2 c63d 128e fb3c c108 c63d cacb fdbc
00000050: 7e68 0f3d 7be3 9fbc 321d 4bbd a172 2bbd
00000060: 3cbc 05bd 99d7 493d b76d c2bc 480b 3b3c
00000070: 48e7 4ebc 2016 ef3b 24ac c4bd a049 953d
00000080: 4e87 1cbc d2f0 82bd 55ea 903c 7989 63bd
00000090: 3cbc fb3c c7ae 49bd 4492 fb3b fc8a 333d
000000a0: 0368 a43b 12f8 98bc 6fc0 85bd fb8f 30bb
000000b0: 0040 a2bc 48f5 50bd d68d 053c 1ce7 003d
000000c0: 6732 013d 1dec ee3c c838 39bd 5a26 ddbc
000000d0: 8759 8b3b 102c 1bbc 40e6 dcbc 4733 fa3c
000000e0: 886e 05bd f93b 573e 7572 95bd 57b9 ba3b
000000f0: 03aa 1a3d 3889 1dbd da75 b6bc 6420 09bc
00000100: e581 37bc cc3a 073c 31f5 133c f68a 73bd
00000110: a0f9 2a3d b4ed 1ebd c674 1fbd c475 553b
00000120: 2258 97bd fb9c 89bd b28e a43c 931a 8cbc
00000130: 438c 093e 1812 abbd dc7a 68bc 6ac8 b73a
00000140: cf80 043d d43c 143c c392 c13c b74d 7e3d
00000150: ff15 373d 59ce bd3d dd8f c4bd b684 d2bc
00000160: 1b82 aabd 8f8c b93c 29f5 663c 4f45 c53c
00000170: 161a 3b3d dfcf ec3d 7e17 41bc 3c29 fdbc
00000180: 0ee3 1d3d cf53 243d 714a 68bd da44 a93b
00000190: d314 943d b209 cfbc 8b50 b2bc 20dc a7bd
000001a0: 7087 c1bc f9fb a53b 1891 123a a622 b1bd
000001b0: 8a1b 643d 1a58 09be 4ffc 84bc c4f2 e6bc
000001c0: 516c 863c 730b 833d 70c0 7c3d ab5f c23d
000001d0: bff4 62bd bb6d adbd 0959 b9bd 5769 243d
000001e0: 8704 83bd 5c1d 043d af8e 9fbd 7b16 343d
000001f0: 11a7 4dbd ed21 cabc c4f6 a13d ea80 1abd
00000200: 5b5d c53d aaad 013c e043 043d 815c 4d3c
00000210: a38a acbd 4f91 813d bdd1 063d e0c8 903d
00000220: de07 983d c58c d73a eef7 003d b51e 05bd
00000230: 0f69 2cbd f5e4 83bd 3369 713d 723b 56bb
00000240: e25d 343d 21ea 5cbc abd1 1b3d 4969 81bd
00000250: 0a76 e6bc d8ea dd3b 19be 8d3d 8239 38bd
00000260: 3d83 cdba b910 dc3c 3592 14bd 7b68 2cbd
00000270: 23f0 203c b62e df3d dc3a 89bd ebac 93bd
00000280: faf7 633c 3f5f 42bd 2664 c63d c58b 013d
00000290: b919 01bd da87 1ebc f836 0b3d ef68 b63d
000002a0: 78d9 d23a 9e40 5bbc 2c4a 01bd 77fc 073d
000002b0: ac6c 5f3d b772 b6bd 43b3 cd3d 60b5 cd3d
000002c0: 8fe5 f63c 9ad7 ec3d 2cf5 103e ea9c 563c
000002d0: f4a6 223d d0da 8ebc d895 dd3c c58b 60bd
000002e0: 137e 1a3d 8e66 8e3b eb92 aa3d af23 613d
000002f0: dc07 0a3c bf8a c93d c40e 0ebd e342 f33c
00000300: 060a 52bc 5f97 bd3b 2504 bdbd 30e4 9cbc
00000310: 25f7 41bc 048b 5bbb 055f 6c3c f0a8 05ba
00000320: 9f6b 223d dc36 92bc d379 e83c 6e74 70bc
00000330: 4835 423d 9432 92bc b7c7 88bd 8326 733c
00000340: 5d0f 25bc e8ad d23b 02a0 223c a4a6 d3bd
00000350: 95cd 5e3c 36fe f3bd 0c38 9a3c 7bda c2bb
00000360: e790 65bc f891 343c 2af1 0abc 6610 b73d
00000370: 4906 56bc e667 dfbb f756 8a3d c65a 3d3d
00000380: aeda 843c 039c 3e3d 1416 acbc 3149 e6bc
00000390: 4806 723c 7bc4 20bc 4862 2e3d c5b0 cabc
000003a0: 8432 01bc e51f 62bd eb71 70bb 1fb1 adbc
000003b0: 3d6b c03c 3d3e 42bd fd97 b13d d893 9d3b
000003c0: 1fd8 94bd 71ea 68bd 7eb2 10bd c141 88bd
000003d0: 724a d2bd 821a fa3b e5f1 e83c 395d b7bc
000003e0: fbb8 25bd 9429 d4bd e60c 653d 012f 0f3d
000003f0: f68e 53bd 8a1e 623d 8ea9 d03c f687 47bd

bias f4 [512]
0.009113264 0.10862535 0.043963898 0.026781851 -0.06593934 -0.07436373 0.030009016 -0.06198747
-0.03161966 -0.051213946 -0.030096944 -0.11589759 -0.0024542697 -0.0589569 -0.050608322 -0.013874632
-0.09101193 0.029487323 0.0122883 -0.023057835 -0.05923755 -0.15095022 0.03273987 0.09000181
0.02260561 -0.024756039 0.023878606 0.04397085 -0.14287437 -0.00413838 -0.06761956 -0.004328011
0.07470245 0.009259876 0.017118767 -0.10514923 -0.069975436 0.03837313 -0.12389435 -0.036793407
0.0058525014 -0.09183637 0.045786057 -0.13463035 -0.09258119 -0.10189062 0.0067037814 -0.08925962
0.05258784 0.024980174 -0.029165488 -0.043886557 0.03361154 -0.02824362 -0.07773697 -0.08897118
0.051225733 -0.07804394 -0.084012315 -0.011837581 0.045382064 -0.013175342 -0.014221638 -0.110309705
0.047192585 -0.114085495 0.11509566 0.04464491 -0.08595933 -0.08344356 -0.087957524 -0.04631329
-0.058151606 -0.12652129 -0.049959265 0.06371109 0.038163304 0.11850435 -0.07396831 -0.011752671
0.02819168 -0.16679695 0.012841283 0.017072456 -0.12866649 -0.056560017 0.05103608 0.0036225608
0.10096327 -0.026561545 0.0035940472 0.04566517 -0.0123616345 -0.10962276 0.012039018 -0.08240074
-0.033540837 0.034732953 0.004104005 0.10635729 -0.040143635 -0.058926426 -0.03297134 -0.02790551
0.029096337 0.0322798 -0.017580718 0.050818447 -0.048472494 0.014731267 0.06655726 -0.14172816
-0.072697535 -0.07341737 0.055294376 -0.053467706 0.068764925 0.016584815 -0.09931417 -0.16915102
0.04497996 -0.0043105297 0.011912873 0.061665915 0.051019773 -0.092500575 -0.077977605 -0.08199955
-0.11297925 -0.07089589 0.06831617 0.035964947 0.061659764 -0.12198956 -0.051044755 -0.119467996
0.043245707 -0.014472371 -0.031745624 0.026885608 -0.03765687 -0.03956194 0.0060801045 -0.056768026
-0.005962913 -0.05134826 -0.04661012 0.004482259 0.006872627 0.10632381 -0.05219691 0.086085886
0.08526281 -0.12664406 -0.009547358 0.04776662 -0.09387418 -0.040119298 -0.0005476793 -0.05414291
-0.047438826 -0.077513315 -0.09839265 -0.04886112 0.045497105 0.10903639 -0.115323365 -0.05745456
-0.13961503 0.039384417 -0.012659538 -0.037598267 0.020629803 -0.020132575 -0.07190864 -0.0915996
-0.15893663 0.03853877 -0.09008391 -0.09259418 -0.051008515 -0.02091551 0.08774067 0.037954032
-0.11601948 0.013979446 -0.076858945 -0.049640767 -0.014117824 -0.10217897 0.041669693 0.015158851
-0.13664256 -0.026827931 -0.08513147 -0.052674588 -0.09290575 -0.06334719 0.06642335 -0.018186405
-0.014705296 -0.06897008 -0.023601225 -0.012345253 -0.1153438 -0.083910994 -0.07763378 0.0074010054
-0.026624328 0.10102445 -0.017068958 -0.041441705 -0.100026175 0.050026372 -0.017248208 -0.10648279
-0.0056806444 -0.06851387 0.02147143 0.033201706 0.022381835 0.046194024 -0.0049743433 0.022022579
0.104443595 -0.11819401 -0.10160243 0.063299544 -0.09718824 -0.044521734 -0.0022118234 -0.09019789
-0.035373777 -0.047644768 -0.14369132 -0.04519075 -0.051267087 -0.07293755 -0.039264034 -0.15239213
-0.10117289 -0.0866669 -0.07399522 -0.022032637 -0.18803877 0.10697343 -0.07461741 -0.10961814
-0.09576818 -0.03070917 -0.01967335 -0.016141297 -0.043524183 0.055317856 -0.01371617 -0.013237379
00000000: cd4f 153c f876 de3d 7d13 343d 9d65 db3c
00000010: 340b 87bd 034c 98bd 78d5 f53c 93e6 7dbd
00000020: 9e83 01bd b7c5 51bd de8d f6bc b75b edbd
00000030: d0d7 20bb ca7c 71bd ac4a 4fbd 6d52 63bc
00000040: 7664 babd 668f f13c de54 493c c9e3 bcbc
00000050: 13a3 72bd b292 1abe 3e1a 063d de52 b83d
00000060: 662f b93c 2dcd cabc 119d c33c c71a 343d
00000070: a94d 12be 3f9b 87bb 207c 8abd fdd1 8dbb
00000080: 99fd 983d bcb6 173c a83c 8c3c 7b58 d7bd
00000090: 484f 8fbd 252d 1d3d 52bc fdbd afb4 16bd
000000a0: 57c6 bf3b b514 bcbd 298a 3b3d 8adc 09be
000000b0: 359b bdbd 08ac d0bd 65ab db3b bfcd b6bd
000000c0: 5966 573d 39a3 cc3c 76ec eebc 64c2 33bd
000000d0: 41ac 093d 2a5f e7bc 8f34 9fbd 8636 b6bd
000000e0: 13d2 513d 80d5 9fbd a60e acbd 6af2 41bc
000000f0: 8be2 393d 64dd 57bc e001 69bc 0eea e1bd
00000100: 034d 413d a8a5 e9bd 46b7 eb3d 95dd 363d
00000110: 720b b0bd 75e4 aabd 1323 b4bd 01b3 3dbd
00000120: 6130 6ebd cc8e 01be 16a2 4cbd f67a 823d
00000130: 2051 1c3d 69b2 f23d b37c 97bd 468e 40bc
00000140: 3df2 e63c d2cc 2abe 3f64 523c 89db 8b3c
00000150: 26c1 03be 7aab 67bd 350b 513d 7c68 6d3b
00000160: d5c5 ce3d 9997 d9bc 1b8a 6b3b 670b 3b3d
00000170: 7488 4abc e681 e0bd 4d3f 453c b8c1 a8bd
00000180: 1e62 09bd 2444 0e3d e47a 863b dad1 d93d
00000190: a76d 24bd d65c 71bd f50c 07bd 199a e4bc
000001a0: 715b ee3c d337 043d 7005 90bc 0127 503d
000001b0: 188b 46bd 695b 713c 2c4f 883d 3021 11be
000001c0: 72e2 94bd d95b 96bd 5b7c 623d f400 5bbd
000001d0: a0d4 8c3d e1dc 873c 3a65 cbbd ed35 2dbe
000001e0: e83c 383d 583f 8dbb 362e 433c 6695 7c3d
000001f0: 1cfa 503d f170 bdbd b9b2 9fbd 61ef a7bd
00000200: aa61 e7bd dd31 91bd 59e9 8b3d fb4f 133d
00000210: f38e 7c3d aad5 f9bd 4e14 51bd a3ab f4bd
00000220: 6922 313d 861d 6dbc b307 02bd 353f dc3c
00000230: 173e 1abd b30b 22bd 9d3b c73b 9785 68bd
00000240: 8a64 c3bb 8e52 52bd 41ea 3ebd eadf 923b
00000250: c633 e13b 4cc0 d93d 6dcc 55bd cc4d b03d
00000260: 459e ae3d fbae 01be 866c 1cbc eea6 433d
00000270: 1b41 c0bd 2254 24bd 2392 0fba f5c4 5dbd
00000280: 374f 42bd 4dbf 9ebd 1682 c9bd 9922 48bd
00000290: 2c5b 3a3d 794e df3d a82e ecbd 7955 6bbd
000002a0: 3ef7 0ebe 8e51 213d f369 4fbc a400 1abd
000002b0: d5ff a83c 12ed a4bc d644 93bd 9298 bbbd
000002c0: 49c0 22be d4da 1d3d ea7d b8bd 04a2 bdbd
000002d0: 4eee 50bd 0157 abbc 61b1 b33d b075 1b3d
000002e0: 9f9b edbd 0c0a 653c 3968 9dbd 1e54 4bbd
000002f0: 724e 67bc 3543 d1bd d7ad 2a3d d45c 783c
00000300: 07ec 0bbe 40c6 dbbc 6859 aebd 4fc1 57bd
00000310: 5f45 bebd 2cbc 81bd f708 883d a8fb 94bc
00000320: 7bee 70bc 2f40 8dbd 5b57 c1bc be43 4abc
00000330: 5f39 ecbd 87d9 abbd 76fe 9ebd 2284 f23b
00000340: 431b dabc e8e5 ce3d 33d4 8bbc c7be 29bd
00000350: 86da ccbd 74e8 4c3d 1d4c 8dbc a613 dabd
00000360: b324 babb 0051 8cbd dae4 af3c 83fe 073d
00000370: 1c5a b73c f235 3d3d d1ff a2bb b268 b43c
00000380: 86e6 d53d b30f f2bd ef14 d0bd 31a3 813d
00000390: a10a c7bd 6c5c 36bd 3df4 10bb acb9 b8bd
000003a0: 18e4 10bd 2927 43bd d123 13be f019 39bd
000003b0: 70fd 51bd 4860 95bd 53d3 20bd af0c 1cbe
000003c0: bb33 cfbd 6a7e b1bd ce8a 97bd ca7d b4bc
000003d0: 3c8d 40be e314 db3d 03d1 98bd 7a7f e0bd
000003e0: 1c22 c4bd cc91 fbbc 012a a1bc c13a 84bc
000003f0: 6a46 32bd fa94 623d c9b9 60bc 97e1 58bc

weight f4 [128, 512]
-0.004402408 -0.059494037 0.0056798737 -0.048726767 -0.029232679 -0.016629126 0.0020344662 0.014413357
-0.03251402 -0.03267692 0.019571304 0.02498699 -0.038304884 0.016867338 -0.07344211 -0.037798867
-0.038094513 -0.013791008 0.018125562 -0.029213509 0.0077067968 0.004078724 -0.085851826 -0.014480769
0.08586934 0.0175148 -0.0025740126 -0.03713739 -0.043839853 0.0128067825 0.047398306 -0.057264134
0.009525182 0.014005772 0.02929105 0.013493439 0.028650716 -0.057214577 0.0134526435 0.0071356613
-0.014876147 -0.0040870137 0.008100143 -0.031557113 -0.0021699292 0.040831007 -0.027885767 -0.03632522
0.031025123 -0.021736827 -0.053553216 0.01376652 0.037341475 0.030282497 0.017864397 -0.025554147
0.010822631 -0.050029136 -0.01277412 0.020224107 0.0104892645 -0.019293671 -0.009597153 0.06032981
0.03931924 -0.012687163 0.016503321 0.058839362 0.024786841 -0.006681289 -0.0151914 -0.055667836
0.0061486405 0.01507335 -0.03244413 -0.008344202 0.03846919 -0.049917813 -0.022341404 -0.01414943
-0.019639809 -0.014830633 -0.036791764 -0.006013811 -0.011046727 0.018118827 -0.0061276313 0.012471841
0.010286169 -0.04846824 -0.017365059 0.01088647 -0.0023485778 0.019541373 0.009405659 0.006729194
-0.014635667 -0.0026690324 -0.07345875 -0.06791933 0.028090786 -0.022669718 0.03752086 -0.009473048
-0.013442125 0.028329277 -0.029108193 0.01892737 -0.029717602 0.0033780567 -0.016458927 0.0096569965
0.026766783 -0.036709376 -0.04253661 -0.045630723 0.013701215 0.029589167 0.016597655 0.028732428
-0.031974167 -0.012178767 -0.017538505 -0.0333033 -0.034808002 -0.020517962 -0.0062672747 -0.028479755
-0.0132166445 -0.027793279 0.060389973 -0.012171291 -0.004685896 0.010873346 0.031026099 -0.025066366
-0.037016053 -0.009478016 -0.041819632 0.06386396 -0.060927577 -0.025350966 0.013392862 -0.029312879
0.036541987 -0.011354738 -0.004700726 0.042461917 0.0011097507 0.044333953 -0.039285515 -0.016134337
-0.07853426 -0.0022469547 0.023190355 0.010777291 -0.0115088085 -0.01659962 0.052880906 -0.040525757
0.03234499 -0.023929592 0.024060372 0.01979287 -0.028743636 0.05247035 0.013507779 0.022704901
-0.038152322 0.031122936 -0.03963227 -0.064207055 -0.04947058 0.010346651 0.01792569 0.015750058
-0.008015758 0.02036861 0.020251486 -0.045080386 -0.031169204 -0.050342675 -0.034098707 0.06920556
-0.0005562664 -0.04152645 -0.003216642 -0.041354716 0.027718505 -0.049509924 -0.032197695 -0.018895542
0.009446983 0.0039351634 0.023992013 0.024306808 0.027177835 0.005825041 0.011430792 -0.034874804
-0.012966853 -0.028609855 -0.00054950156 0.04120563 -0.0010008056 -0.029440114 -0.026397333 -0.054288372
-0.019205587 -0.032317612 -0.08178599 -0.056970395 -0.0066708047 -0.035606768 0.042664178 0.03157657
0.004131121 0.021179842 0.0346925 -0.052433815 0.012575095 0.0012068057 0.0018917582 -0.0037987733
-0.09143057 0.03529959 9.185518e-06 0.035752445 0.020413255 -0.03890687 0.01064379 0.042114466
-0.014751407 -0.031973023 0.032599423 0.02186057 -0.004432857 -0.008443018 -0.04427518 -0.03164454
-0.048998464 0.02018145 -0.0002666833 -0.02537202 -0.028926447 0.0009570673 -0.062681384 -0.025505196
0.022704758 -0.013064383 -0.035551958 -0.00027888894 -0.036772527 0.037170447 -0.02679816 0.00034120074
00000000: 1342 90bb 05b0 73bd 3c1e ba3b b895 47bd
00000010: 5f79 efbc ce39 88bc ae54 053b 0026 6c3c
00000020: 6c2d 05bd 3cd8 05bd 0054 a03c 84b1 cc3c
00000030: 95e5 1cbd 5f2d 8a3c d168 96bd fcd2 1abd
00000040: fe08 1cbd aef3 61bc 0f7c 943c 2b51 efbc
00000050: 4c89 fc3b d1a6 853b 15d3 afbd bf40 6dbc
00000060: 44dc af3d 337b 8f3c c4b0 28bb 601d 18bd
00000070: 6b91 33bd 8ad3 513c ba24 423d cc8d 6abd
00000080: 820f 1c3c 7778 653c c9f3 ef3c 9613 5d3c
00000090: e8b4 ea3c d559 6abd 7a68 5c3c 44d2 e93b
000000a0: 15bb 73bc 5bec 85bb 76b6 043c 0842 01bd
000000b0: 5f35 0ebb 6a3e 273d b170 e4bc c1c9 14bd
000000c0: 6628 fe3c 6e11 b2bc 9e5a 5bbd f88c 613c
000000d0: 60f3 183d 0013 f83c 5b58 923c ee56 d1bc
000000e0: 6851 313c 5aeb 4cbd 8b4a 51bc 07ad a53c
000000f0: 2adb 2b3c c30d 9ebc 613d 1dbc 641c 773d
00000100: 360d 213d d2dd 4fbc f931 873c 8b01 713d
00000110: c60d cb3c b7ee dabb 5ae5 78bc f503 64bd
00000120: 897a c93b 36f6 763c 23e4 04bd 1fb6 08bc
00000130: df91 1d3d 9f76 4cbd 5205 b7bc 03d3 67bc
00000140: aae3 a0bc 2ffc 72bc f6b2 16bd 810f c5bb
00000150: 55fd 34bc ef6d 943c 4cca c8bb b156 4c3c
00000160: 5287 283c a286 46bd 2b41 8ebc 2a5d 323c
00000170: 99ea 19bb 3b15 a03c 311a 1a3c 9280 dc3b
00000180: 70ca 6fbc efea 2ebb 8b71 96bd 4a19 8bbd
00000190: a61e e63c d8b5 b9bc 79af 193d d834 1bbc
000001a0: 5c3c 5cbc cd12 e83c 4e74 eebc 920d 9b3c
000001b0: 5472 f3bc 6362 5d3b dfd4 86bc 6138 1e3c
000001c0: 0346 db3c 925c 16bd de3a 2ebd 48e7 3abd
000001d0: 107b 603c fb64 f23c cef7 873c 4560 eb3c
000001e0: 58f7 02bd 7389 47bc e9ac 8fbc 0b69 08bd
000001f0: d692 0ebd 4915 a8bc b65d cdbb 604e e9bc
00000200: a08a 58bc bbae e3bc 7a5b 773d 186a 47bc
00000210: 258c 99bb 1e26 323c 722a fe3c fb57 cdbc
00000220: 259e 17bd ae49 1bbc 104b 2bbd 1ccb 823d
00000230: 328f 79bd d4ac cfbc bc6d 5b3c 9021 f0bc
00000240: 0dad 153d 3909 3abc 8c08 9abb 8cec 2d3d
00000250: 0e75 913a 8597 353d d9e9 20bd 282c 84bc
00000260: 92d6 a0bd a541 13bb b3f9 bd3c 3c93 303c
00000270: 718f 3cbc edfb 87bc a699 583d 56fe 25bd
00000280: 2e7c 043d fe07 c4bc 421a c53c a824 a23c
00000290: c677 ebbc 26eb 563d bb4f 5d3c a1ff b93c
000002a0: 9c45 1cbd 87f5 fe3c 7255 22bd fd7e 83bd
000002b0: aaa1 4abd 0085 293c e6d8 923c 4406 813c
000002c0: 8754 03bc 12dc a63c 72e6 a53c 36a6 38bd
000002d0: 8f56 ffbc 1f34 4ebd 16ab 0bbd a5bb 8d3d
000002e0: 68d2 11ba a417 2abd 4cce 52bb 9063 29bd
000002f0: eb11 e33c ebca 4abd bbe1 03bd d3ca 9abc
00000300: 85c7 1a3c 8bf2 803b e68a c43c 121f c73c
00000310: 0da4 de3c fcdf be3b 3748 3b3c e2d8 0ebd
00000320: ec72 54bc 375f eabc 6d0c 10ba 3cc7 283d
00000330: 772d 83ba 652c f1bc 383f d8bc 7c5d 5ebd
00000340: 0955 9dbc 795f 04bd 6a7f a7bd ca59 69bd
00000350: c496 dabb 67d8 11bd a2c0 2e3d 6f56 013d
00000360: 5b5e 873b 5981 ad3c b919 0e3d d7c4 56bd
00000370: c507 4e3c ae2d 9e3a dff4 f73a d7f4 78bb
00000380: f33f bbbd 4e96 103d 801b 1a37 2871 123d
00000390: b339 a73c cf5c 1fbd 4a63 2e3c 3880 2c3d
000003a0: e3af 71bc 25f6 02bd f986 053d f014 b33c
000003b0: 8041 91bb 9654 0abc e459 35bd b59d 01bd
000003c0: 9db2 48bd 9153 a53c a0d1 8bb9 fcd8 cfbc
000003d0: 28f7 ecbc b3e3 7a3a 195f 80bd 46f0 d0bc
000003e0: 54ff b93c fe0b 56bc ee9e 11bd d737 92b9
000003f0: ca9e 16bd 0a40 183d d187 dbbc 30e3 b239

bias f4 [128]
0.0024024923 -0.070570335 -0.04698515 -0.056053113 -0.09691689 0.0023329544 -0.041846473 -0.04395479
-0.033826344 0.018175252 -0.07107274 -0.048158865 -0.034725316 -0.022801675 0.08152307 -0.014461994
-0.080626 -0.051603056 -0.02247306 -0.053237453 -0.025524316 0.054381937 -0.022858731 -0.023503007
0.024493424 -0.059217885 -0.03465455 -0.025652528 0.083935745 0.056924738 0.033640556 -0.013623192
0.056987595 -0.007609648 -0.06233587 -0.0534792 -0.0017520376 -0.098541416 -0.04694884 -0.0017177908
-0.0024162806 -0.04480033 -0.006498994 -0.035272937 0.06259886 -0.051357217 0.04903436 0.020854976
0.061515737 0.0002956157 -0.00828253 0.040752087 0.07755057 -0.026056927 -0.09153016 -0.01878032
0.04531335 0.002069013 -0.051200192 0.02787042 0.051949397 -0.047592137 0.020476032 -0.0054846127
-0.006656558 -0.01731786 -0.0056728376 0.013832133 -0.05455035 0.02115206 -0.028019892 -0.027023144
-0.030992657 -0.05597919 0.031938788 -0.03375233 -0.044251602 -0.023621857 -0.0661025 0.00019815935
-0.022124223 -0.05100687 -0.048973776 0.0018799 -0.012602788 0.04459341 0.002689319 -0.009279174
0.019943168 -0.010302171 0.051918387 -0.026837997 -0.018782401 -0.057749156 0.079219796 0.03352441
0.12921299 -0.0039514606 -0.05181911 -0.04982038 -0.08535268 -0.037486356 0.03897283 -0.034223713
0.037025306 -0.0009268285 0.081686 -0.027364714 -0.007806477 0.043178715 -0.012136178 0.036300443
0.031820502 0.052500132 0.03213121 -0.00053359196 -0.07384384 0.029811101 0.0032825277 -0.070332654
0.011190817 0.025328532 -0.046275266 0.06956023 -0.09495598 0.053786833 -0.08718836 -0.034808993
00000000: 2273 1d3b 2e87 90bd 8073 40bd f397 65bd
00000010: 5d7c c6bd 7be4 183b 3567 2bbd f009 34bd
00000020: 7e8d 0abd 44e4 943c 968e 91bd 3b42 45bd
00000030: 223c 0ebd 94ca babc 91f5 a63d 00f2 6cbc
00000040: 3f1f a5bd ba5d 53bd 6c19 b8bc 840f 5abd
00000050: 5f18 d1bc 98bf 5e3d 3c42 bbbc 6189 c0bc
00000060: 6fa6 c83c 748e 72bd eef1 0dbd 4025 d2bc
00000070: 81e6 ab3d ea29 693d aeca 093d cf33 5fbc
00000080: d36b 693d 5b5a f9bb e653 7fbd 010d 5bbd
00000090: a0a4 e5ba 15d0 c9bd 6d4d 40bd 7f27 e1ba
000000a0: 765a 1ebb 8d80 37bd 83f5 d4bb 5b7a 10bd
000000b0: d533 803d f25b 52bd 41d8 483d 0ed8 aa3c
000000c0: edf7 7b3d defc 9a39 73b3 07bc a9eb 263d
000000d0: d5d2 9e3d 5675 d5bc 2a74 bbbd 30d9 99bc
000000e0: 7e9a 393d 4798 073b 4bb7 51bd 8250 e43c
000000f0: e4c8 543d f9ef 42bd 5abd a73c 44b8 b3bb
00000100: 411f dabb 2fde 8dbc 36e3 b9bb 2ca0 623c
00000110: 3070 5fbd 1647 ad3c f989 e5bc a45f ddbc
00000120: 50e4 fdbc 6f4a 65bd 3fd2 023d e23f 0abd
00000130: 2b41 35bd a082 c1bc bf60 87bd ffc8 4f39
00000140: dc3d b5bc 94ec 50bd ba98 48bd fa66 f63a
00000150: ed7b 4ebc 94a7 363d 493f 303b ad07 18bc
00000160: db5f a33c 70ca 28bc 60a8 543d 5cdb dbbc
00000170: 8ddd 99bc 618a 6cbd fd3d a23d e450 093d
00000180: 6950 043e 417b 81bb 4640 54bd 7410 4cbd
00000190: 63cd aebd 4b8b 19bd f9a1 1f3d 2a2e 0cbd
000001a0: d9a7 173d 68f6 72ba fd4a a73d f72b e0bc
000001b0: 7acd ffbb 2adc 303d d2d6 46bc c6af 143d
000001c0: 3756 023d 610a 573d 049c 033d c0e0 0bba
000001d0: 703b 97bd 6936 f43c ad1f 573b 910a 90bd
000001e0: b059 373c c87d cf3c 228b 3dbd 9875 8e3d
000001f0: 4878 c2bd 954f 5c3d d08f b2bd e093 0ebd

weight f4 [1, 128]
-0.0013963797 -0.055008706 0.00012139537 -0.007786085 -0.045699 -0.00021753702 -0.009616166 -0.043713905
-0.028011031 -0.00027396096 -0.07261072 0.0002517774 5.9223243e-05 0.076988675 0.023111854 0.052006096
0.00026854486 -0.058069635 -0.005669116 -0.036629897 0.00020410771 0.076513946 0.09990951 -0.040228695
0.0013828323 -0.05861112 -0.06920351 -0.030222448 0.05247998 0.017109666 0.0011542273 0.014509886
0.02262325 -0.06670476 -0.0009020537 -0.038871825 0.07064646 -0.09327062 -0.03898489 -0.021000393
-0.071727715 -0.03000805 0.0470511 -0.02401711 0.007598019 -0.00070586347 0.05958375 -0.0005396203
0.052232806 -0.0010805223 0.021016065 0.0003918341 0.046962723 0.043557245 -0.050628442 -0.0005444937
0.08162498 0.00041005595 -0.0058106803 -0.00024903644 0.025647838 -0.00053702004 0.037007716 -0.0018234224
-0.0009778222 -0.0028107762 0.01465411 0.0039162664 -0.0017109069 0.025902383 -0.04314353 -0.04370172
-0.0010086069 -0.040364143 0.0010183844 -0.00036412454 -0.0017029449 0.0001651211 0.0008755389 0.05683422
-0.0004858504 -0.0474862 -0.033893034 0.04744561 -0.002875896 0.055568956 0.06166157 -0.00015781395
0.026431888 -0.0017154245 0.044035465 0.10151995 -0.016059065 -0.03670917 0.035014953 0.031727925
0.049785048 -0.015991632 -0.061801776 -0.054925315 -0.037214134 0.00020456548 0.04891704 -0.030049196
0.10487798 -0.053780552 0.007331152 -0.047109094 -0.006723647 0.04373442 0.07844188 0.029040506
0.06205577 0.0036300556 0.00013607708 0.09436688 -0.0030629796 0.051492605 -0.006418757 -0.001470815
0.026782617 0.069607995 -0.0510183 0.0486671 -0.09442662 0.0053001726 -0.0849159 -0.07257539
00000000: ba06 b7ba cf50 61bd a595 fe38 6a22 ffbb
00000010: e02e 3bbd a61a 64b9 208d 1dbc 5a0d 33bd
00000020: 6477 e5bc 6ba2 8fb9 eeb4 94bd fe00 8439
00000030: 7966 7838 3dac 9d3d 1255 bd3c 5804 553d
00000040: 7bcb 8c39 6dda 6dbd fec3 b9bb 3b09 16bd
00000050: bf05 5639 58b3 9c3d 5b9d cc3d d8c6 24bd
00000060: 2740 b53a 3712 70bd 92ba 8dbd 1195 f7bc
00000070: 3ff5 563d 9229 8c3c 7149 973a dfba 6d3c
00000080: 6554 b93c 819c 88bd cd77 6cba 1038 1fbd
00000090: 17af 903d ab04 bfbd 9fae 1fbd 0409 acbc
000000a0: fbe5 92bd 71d3 f5bc a7b8 403d 88bf c4bc
000000b0: cef8 f83b b209 39ba 170e 743d 4e75 0dba
000000c0: 11f2 553d 50a0 8dba e229 ac3c 156f cd39
000000d0: fc5b 403d 1569 323d c55f 4fbd 5bbc 0eba
000000e0: ff2a a73d c7fc d639 8567 bebb 1b91 82b9
000000f0: 6a1b d23c cec6 0cba 6795 173d e7ff eeba
00000100: 452a 80ba 0035 38bb cb17 703c 0654 803b
00000110: 8240 e0ba 3c31 d43c 45b7 30bd 9300 33bd
00000120: 3b33 84ba df54 25bd 4f7b 853a f8e7 beb9
00000130: 5935 dfba 5c24 2d39 6c84 653a 00cb 683d
00000140: bdb9 feb9 e480 42bd 6cd3 0abd 5456 423d
00000150: 8779 3cbb 469c 633d d890 7c3d dc7a 25b9
00000160: b087 d83c 18d8 e0ba 885e 343d b1e9 cf3d
00000170: 4d8e 83bc 5b5c 16bd d76b 0f3d 24f5 013d
00000180: 68eb 4b3d e200 83bc dc23 7dbd 5ef9 60bd
00000190: d96d 18bd a180 5639 3c5d 483d bb29 f6bc
000001a0: 44ca d63d ff48 5cbd 293a f03b 77f5 40bd
000001b0: 0a52 dcbb dd22 333d 23a6 a03d 5be6 ed3c
000001c0: 312e 7e3d 3ae6 6d3b eaaf 0e39 6c43 c13d
000001d0: 45bc 48bb e9e9 523d 7054 d2bb 5dc8 c0ba
000001e0: 3867 db3c a38e 8e3d 91f8 50bd 2757 473d
000001f0: be62 c1bd 12ad ad3b 63e8 adbd 68a2 94bd
