result/aug_20_model_13.pt (torch, 979782 bytes, 15 tensors)

weight f4 [128, 13]
00000000: 7c40 533e 0d50 7cbc ce70 11bd 4721 84be
00000010: 067a 823d 965d 9a3e a581 da3d bfab 493d
00000020: 7301 853d 7e30 8d3e 1df8 ddbe dc8f 1e3e
00000030: d9f1 983e d5e3 853e 88f9 62be f348 023e
00000040: ce9d 5f3e 977c 1cbc 6253 5cbe a4a3 3fbd
00000050: 59d7 87be 0c60 54be 77ac cf3d 6a39 c8bd
00000060: 8352 ac3c a53b c0be dc28 8abe 78e0 523e
00000070: fd5c 823d 59da 1d3e 2dc9 c83d bca9 d0bd
00000080: 8142 283d 8b0a ca3d 5b90 333e 9a66 6cbe
00000090: 52d9 16be 8a6f 2b3c f2fc dfbe 5710 143e
000000a0: 6618 d7bd e80a 553d e817 1fbe 8939 1cbd
000000b0: 3ac9 07be ba8e 2bbe e9e0 68be 4bed 6fbd
000000c0: 5a03 1ebe 4054 79bc 1226 7abd d793 123d
000000d0: 8c8a 91bd 1dba efbd f49f fabd 45c1 2bbe
000000e0: 1588 64bd 2ca4 6c3d b93b 5c3e 97cd 823e
000000f0: cbff 80be fdc1 153e b3d0 8c3e de98 4e3c
00000100: 3ab4 023f 7c0b 1dbe 3e58 0cbe f9fc c03d
00000110: 258f 5d3e 1766 653e 7f0c eb3c 7ed7 93be
00000120: fa21 38bd 2fdb b2bd 7815 f2bc 1f40 fc3c
00000130: 8af6 d53c 46e4 843d 5728 44be c6ef 3a3e
00000140: ecec ca3d 5778 b1be 8f0d 233e 5f73 483e
00000150: 7f02 42be 9d4a 1abe 89ed 783e 3ea2 ff3d
00000160: 7f19 653e bcda 0fbc cc3b 4e3d 0966 723d
00000170: a036 81be 5238 91ba 04e2 bd3d 2f4e 54be
00000180: d4eb ba3e 7927 42be 291e d63d d11d 00be
00000190: c55e 2d3e 64f4 adbd 901c 7abe 0705 62bd
000001a0: 1ce3 60bc b6be 213c 6471 8b3c 753e 44be
000001b0: b89a 2b3d 307c 3f3e 5f33 213e cb6c 493c
000001c0: 3e7a a3be 7eab 47be 6cdc 8bbe be88 37be
000001d0: 6427 333c 97eb c23d aca0 743e 49dc dcbd
000001e0: b19b 613e 9110 08be 88ff 013e 5947 113e
000001f0: 019f 23bd 7c27 d03e 999e 463e 2d1c b13e
00000200: 426f 913d d3af 2d3e 3f15 21bd dd17 02be
00000210: b636 683e c002 8fbe aa87 4bbe c52b 473e
00000220: f4da fcbc 6524 84be 3321 cdbd 3e41 d4bd
00000230: fc48 bebe 8fb5 21be 08a6 87be d25f 04be
00000240: f0a0 373e 20fe e3bc 0c33 3e3e 9f77 523d
00000250: 5e14 83be 1249 3b3d 62bf c53d 008c 9dbe
00000260: 4a4d 7f3e 4ffe a1be 5f52 063e 7715 b3be
00000270: c807 753e 46bb 123e 237e 1dbc a12a 833b
00000280: 9037 74be af2c d63d 550f 463e 4cb6 b5bd
00000290: eacf f3bd 46c1 883e e8f6 05be 1848 053c
000002a0: fbfa b0be 49d0 683e 377b 883d e43d 65be
000002b0: 492b 913e db6c 873e d5e0 8b3e 821d 40be
000002c0: 17e7 0dbe 7d84 47bc 2313 4c3e f13e 6e3e
000002d0: 8f18 adbc 8f88 9d3d 9718 43be f3c3 33be
000002e0: 0dd8 bcbc 2899 39bd 4ea7 95bd a6b4 26be
000002f0: 927d e23c cf86 5d3e d9e5 04be a0c3 30be
00000300: 1857 e0bd 4553 0bbe d5d5 c4bc a5a1 83be
00000310: 4cca 06be 8395 0e3e ec01 93be 12d6 773d
00000320: 2afe 0a3e 5491 f13d eeba 45be eecb ad3c
00000330: 54ca 7c3e 0081 99be 87c0 f03d 57f8 06be
00000340: 420d 5e3e 1de3 7cbe 4b66 523e a916 b63d
00000350: a2de b6bd 7a31 44be 2edd 54be 218b 49bd
00000360: a2e2 c4bc b9bd 613e 9d6f 11be 2070 81bd
00000370: 6e00 c5be ad34 56be 00e7 3d3e c193 63bd
00000380: a3fe 3cbd 9466 8cbe 57b7 8dbe e0e9 e63b
00000390: 4b67 63be 0738 6bbe 974e 2a3e 3f24 8e3e
000003a0: a649 7f3e a198 0ebe 1011 503e fbc0 3c3e
000003b0: 70f2 43be c2f7 773e 0903 5cbd 85d1 823e
000003c0: 21e9 e2bc 6558 153e 21bb 823d c9b3 453e
000003d0: 04ac 12be 4821 bbbd 73e9 ccbe 6d66 32bd
000003e0: ce57 47be 8e14 10be d641 b83d d330 74bd
000003f0: b5c7 ab3d 98d1 b1bc 68c4 543e b113 31bd
0.20630068 -0.015399945 -0.03550797 -0.2580664 0.063709304 0.30149525 0.10669259 0.049236055
0.06494417 0.2757606 -0.43353358 0.15484565 0.29872015 0.26150385 -0.22165501 0.1272314
0.21837541 -0.009551189 -0.21516183 -0.04678692 -0.26531485 -0.20739764 0.10140317 -0.09776576
0.021035438 -0.37545505 -0.26984298 0.2059344 0.06365392 0.15415324 0.09803996 -0.10188624
0.041079048 0.09865292 0.17535536 -0.23086014 -0.14731339 0.010463605 -0.4374767 0.14459358
-0.105027005 0.052012354 -0.15536463 -0.038140807 -0.13260356 -0.16753665 -0.22742046 -0.05857591
-0.15430966 -0.015217841 -0.061071463 0.035785522 -0.07106504 -0.1170542 -0.1223754 -0.16772945
-0.05579384 0.057773754 0.21507157 0.25547478 -0.25195155 0.14624782 0.27502975 0.012609689
0.51056254 -0.15336412 -0.13705537 0.09423251 0.21636637 0.22402225 0.028692482 -0.28875345
-0.044954278 -0.08733212 -0.029551253 0.030792294 0.026118536 0.06488852 -0.19156013 0.18255529
0.099084705 -0.34662125 0.15923141 0.1957526 -0.18946265 -0.15067525 0.24309362 0.12482117
0.22373007 -0.008780178 0.050349995 0.05917934 -0.25236988 -0.0011079407 0.09271625 -0.2073295
0.36508048 -0.1896037 0.10454971 -0.12511374 0.16930683 -0.084938794 -0.24424958 -0.055180576
-0.013726022 0.009872129 0.017021842 -0.1916445 0.0418956 0.18699718 0.15742253 0.012294005
-0.319292 -0.19499013 -0.27316606 -0.17923257 0.010934684 0.095175914 0.23889416 -0.107842036
0.22032048 -0.1328757 0.12695134 0.14187373 -0.03994656 0.40655124 0.19396438 0.3459181
0.07101299 0.16961603 -0.039326902 -0.12704416 0.2267712 -0.27931786 -0.1987597 0.1945029
-0.030866124 -0.25809017 -0.10016098 -0.103640065 -0.37165058 -0.15791915 -0.2649386 -0.12927178
0.17932487 -0.027831137 0.1857416 0.05138361 -0.25601476 0.045723982 0.09655644 -0.30770874
0.24931827 -0.31639335 0.1311736 -0.34977314 0.2392875 0.14329252 -0.009612593 0.0040028845
-0.2384932 0.104577415 0.19341786 -0.08872661 -0.11904891 0.26709956 -0.13082469 0.008134864
-0.34566483 0.22735704 0.06664126 -0.2238689 0.28353336 0.26450238 0.2731997 -0.18761256
-0.13857685 -0.012177584 0.19929175 0.23266198 -0.021129875 0.07692062 -0.19052349 -0.17555217
-0.02305224 -0.045312077 -0.073073015 -0.1627985 0.027647767 0.21633457 -0.12978305 -0.17262125
-0.10954112 -0.13605984 -0.024027744 -0.25709262 -0.13163108 0.13924222 -0.28712404 0.060506888
0.13573518 0.11795297 -0.1930959 0.021215405 0.24686557 -0.29981232 0.11755472 -0.13180672
0.21684745 -0.24696012 0.20546834 0.08891041 -0.089291826 -0.19159499 -0.20787498 -0.04920495
-0.024033848 0.2204503 -0.14202733 -0.06320214 -0.3847689 -0.20918532 0.18545151 -0.05556083
-0.046141278 -0.2742201 -0.2767894 0.007046923 -0.22207372 -0.22970591 0.16631542 0.2776203
0.24930438 -0.13925411 0.20319009 0.18432991 -0.19135451 0.24215606 -0.053713832 0.25550476
-0.027699055 0.14584501 0.06383348 0.19306864 -0.14323431 -0.09137207 -0.40021858 -0.043554712
-0.19467089 -0.14070341 0.08996932 -0.059616875 0.083877005 -0.021706387 0.20778048 -0.04323167

bias f4 [128]
00000000: 2dfd 2bbe ae5b 403e 8612 dabc b369 873e
00000010: 1d17 c9bd 5d5b b23c 6e58 a13d 8386 36be
00000020: cb82 553d 5441 22be d6af 113e 1508 e73b
00000030: ab67 913d 1da8 c93b b019 5d3d 3691 8bbd
00000040: b5b1 18be 2b67 e53d adba 823d 02da 933e
00000050: 78b2 bcbe 4e4c 5c3e 6483 903d b096 a43d
00000060: bbc5 9d3d 57dc 1c3e 75d9 7dbe 838c 7b3d
00000070: 6a75 78be c341 c73d 4e96 7d3e 7291 99be
00000080: 34ab db3d b96f 433c de51 e1bc 2cef 07be
00000090: ece0 813e a50e dcbd 73fe eebd c347 883e
000000a0: ca6c 203e 6fb9 393d d2f9 79be 15c6 883e
000000b0: 80e0 88be 3613 313e d37c 2e3e f747 4c3e
000000c0: 9057 7cbe 4b72 5fbe 9f55 05bd 3f65 a9bd
000000d0: dbeb 6c3d 9646 aa3d bc56 393e d6a0 24be
000000e0: 2b84 3d3e df06 9fbc f107 28be b914 08be
000000f0: 583e 51bc 66c0 433e b42d 443e a50b 37be
00000100: b8b7 893e 7fad 6b3e 450f 07be c858 38bd
00000110: 2b0b 85be 3137 813e 5760 3abe 52f6 4b3e
00000120: 0d1b 6fbe 4ce9 383d 38c3 8c3e a004 06be
00000130: 4b4a 973d 854e 6abd 149a 033d 9e62 2bbe
00000140: 6660 a1bd 41a3 283e 0bc9 07be 102a d33c
00000150: f040 8cbc 5731 77be 36f3 b6bd d579 4b3e
00000160: b411 55be 7493 323e 2988 7fbe e599 093c
00000170: e6ab 863e a78e 5d3d b3c6 e7bd 4a7c 6a3c
00000180: e077 39bc 1fa2 82bd 5ad4 80be ca3f 413d
00000190: 6b35 2a3e 54dc d23d 2143 7b3e 72de 8abe
000001a0: 083c cabd 70ca 3b3e 0ae8 283d 1933 633e
000001b0: a7c4 6bbe b38a 23be c1f3 cfbd bb8c 26bd
000001c0: f63b 85be 8d06 363e 33e8 5d3e 96e3 2fbe
000001d0: 8900 b63d 9951 efbd f35e 7abe ced9 08bd
000001e0: 13c2 24be 166c 393d 39de 28be c804 a03d
000001f0: 036c 1a3e 0237 30be c0a6 bb3d 4e87 913e
-0.16795798 0.18784973 -0.02662016 0.2644783 -0.09818862 0.021772081 0.07878195 -0.1782475
0.052126687 -0.15845233 0.14227232 0.007050524 0.07099851 0.006154074 0.053979576 -0.06814806
-0.1491154 0.11201318 0.06383262 0.28877264 -0.3685491 0.21513483 0.07056311 0.08036554
0.0770373 0.15318428 -0.24789985 0.0614133 -0.2426354 0.0972934 0.24764368 -0.29993778
0.10726014 0.011928492 -0.027504858 -0.1327483 0.25366914 -0.10744981 -0.11669626 0.2661725
0.156665 0.04534286 -0.24411705 0.26713625 -0.2673378 0.17292485 0.17039804 0.19949327
-0.24642777 -0.21820943 -0.032552358 -0.08271264 0.057842117 0.083142444 0.18099493 -0.16076979
0.1850745 -0.019412456 -0.1640928 -0.13289155 -0.012771212 0.19116363 0.1915806 -0.17875536
0.2689798 0.23015402 -0.13189419 -0.045006543 -0.25985083 0.2523742 -0.18200813 0.19918182
-0.23350163 0.045144364 0.2749269 -0.13087702 0.07387217 -0.05720379 0.032129362 -0.16736838
-0.07879715 0.16468526 -0.13260286 0.025776893 -0.017120808 -0.24139915 -0.089331076 0.19870694
-0.20807534 0.17439061 -0.24954285 0.008398508 0.26303023 0.054091122 -0.11317196 0.014311859
-0.011320084 -0.063785784 -0.2516201 0.047179975 0.1662194 0.102959305 0.24537326 -0.27122837
-0.09874731 0.18338943 0.041236915 0.22187461 -0.23024236 -0.15970878 -0.10153914 -0.040661555
-0.2602231 0.17775936 0.21670608 -0.17176661 0.08886821 -0.116854854 -0.24450283 -0.03341084
-0.16089658 0.045269094 -0.16491021 0.07813412 0.15080266 -0.17208484 0.091626644 0.28423542

weight f4 [512, 128]
00000000: 29d5 8a3d 2209 afbb e4e5 efbd c4c2 983d
00000010: 7330 db3d d814 4d3d 39f6 5b3d 7eb0 6d3c
00000020: 4eed 45bc 3eda 4c3d 9e70 413c 8819 c1bd
00000030: 55fa 59bd 7ce5 67bd f4cf aa3d a08e 53bd
00000040: 7842 18bd 5443 c7bd d582 c0bd 5caa 2fbc
00000050: 2962 20bd 0678 60bd 3de5 ae3c 38cf cebc
00000060: 7b68 beba 4db8 1dbd 17b4 9d3a 41d6 debc
00000070: 726d 1a3e d5e5 033c 89f7 193d 3e5e c9bd
00000080: 9e59 a8bd 456f a63d 7887 04bd c316 5abd
00000090: ac1a 96bd 0e33 903d 7baa 843d 9713 673d
000000a0: 1025 cbbd 3aff 893c 3885 9cbd 0231 af3c
000000b0: 90dd c3bd 07c5 4a3d 37b0 3abd 83d4 a9bd
000000c0: 19dc 9bbc dfc4 7cbc 6d1e 1a3b 65ee 82bd
000000d0: e69d 0fbd 84d1 1f3d 2333 c13d 7ed3 45bd
000000e0: 4bb3 223d 6256 a6bd be6a be3d 61dc 023b
000000f0: 59c0 c73c f243 363d e59e a13d 482c 45bd
00000100: cd7f 40bd c927 3e3e 2f1d 37bb 97d6 85bd
00000110: a9a2 07bc 6e10 de3b f254 123e b7c1 aa3d
00000120: 5ea2 06bd 7370 a8bd 3516 8c3c d676 4ebd
00000130: f4b4 963d d469 533d 1b54 e83c af83 37bd
00000140: 9ab4 c5bb d9b1 8b3d c2b0 9f3d 9e58 39bc
00000150: d4ac 683c b00e 22bb 7a8e 863d 7afb 6e3d
00000160: 5645 c5bb d0c0 f83d c800 eabd a3f9 033d
00000170: a83d d13d d2d4 d7bc db85 bebd 5278 64bc
00000180: 09ee cebd 5104 9f3d 1485 93bc 400e babc
00000190: cb7a 8c3d 7629 a7ba 1a1c 8ebc 2197 9e3d
000001a0: cf2c a2bd 3a8c fa3c e602 533d 5176 a9bd
000001b0: 89df 8b3d 55dd a33c fddb 41bd 9500 3abd
000001c0: 9c9f 86bd 7179 553d 0e2e 5f3d 39b2 de3c
000001d0: d732 133d cca9 86bd 6ec4 093d f68e aabd
000001e0: 8558 73bd af45 32bd 03b9 863d 498e 9c3d
000001f0: ab3f c6bd e190 20bd e9e3 96bd 55a4 553d
00000200: 3a76 10bd c432 21bd 2165 68bd 0d91 8c3d
00000210: baa2 b3bd 2e6a 233c 233a ea3c 0863 163e
00000220: 419b 96bd 3f50 74bd df62 a9ba 090a 91bd
00000230: 33ea 373d 16dc a23d c3ae 9ebd 968b 0abd
00000240: 81f1 3e3b e4b7 e63c ab98 bf3d dfc1 0e3d
00000250: 8018 f23d bd4a 6f3d 44c9 f8bd 37c3 e23c
00000260: dcb1 73bd 6e7b 143c 07d6 8abd eb31 4abe
00000270: 32c0 333b e1a6 bcbc fba1 ecbd e309 b93d
00000280: 38d0 88bc c5c8 83bd 2911 afbd d1fd 71bd
00000290: cff4 71bc c258 21bd 706a 02bd 0cd1 333d
000002a0: 41d4 0bbe 770e 2a3e 9a23 e93c 1394 fcbc
000002b0: f1cf c53d ef82 cfbd 9f6f c83d b047 4e3d
000002c0: 8109 33bc c851 7c3d fae7 693d 5846 1b3d
000002d0: d9fe e2bc 09e3 99bc 5d23 ca3c 1499 8ebd
000002e0: 7efd 5abd 5545 0abd 17ab c8bc e072 dabd
000002f0: 3d64 cfbc ed96 71bc 2a84 5bbd b1e0 b1bc
00000300: 98e8 31bc 364c 723d 8e06 033e a27d d63c
00000310: d581 b23d 4caa efbd 8752 22be 252a c7bc
00000320: 256d 813d a66c 7bbd 7edf 113d ab83 2bbd
00000330: c361 533d 74c1 9a3d a801 1dbd 9923 6dbd
00000340: aa11 e33d 27e6 b6bd 2b58 cb3b 20db 073d
00000350: 6913 96bd e009 893d 76a8 b7bd a249 d83d
00000360: 00a3 49bd e9e0 8fbd 75da 433e 224d 0b3e
00000370: 2cf2 1f3d 3fcd 3b3d 68e1 8e3d 4914 7dbd
00000380: 4f13 873d cfcf 9abd bf0c 5d3d 93b0 c3bd
00000390: 7be9 523d f5a7 d03c 5d26 bdbd a88c 313b
000003a0: 12f8 37be 6e11 c8bd cff9 db3d b212 233d
000003b0: e568 923d 63d7 b33c 011a 0a3d b31f f13c
000003c0: 22d3 8fbb 8ea2 0fbe 212f 9fbd bba7 403d
000003d0: 3bb0 a03d 57ef 293e bfa6 803c 481e 84bd
000003e0: 966d e83d 9220 8ebc ffda f73d 2dc2 28bc
000003f0: c78b 83bd 55dc d53c d0ce 01be 60ce 17bd
0.06778938 -0.005341665 -0.1171377 0.074590236 0.107026 0.050068706 0.053701613 0.014507411
-0.012080504 0.05001282 0.011806635 -0.09428698 -0.05321725 -0.056615338 0.08340445 -0.05164969
-0.037172765 -0.09729639 -0.09399954 -0.010721769 -0.039156113 -0.054801963 0.021349544 -0.025245294
-0.0014526987 -0.03850584 0.001203182 -0.027201774 0.15080813 0.008050402 0.037589584 -0.098324284
-0.08220218 0.08126692 -0.032355756 -0.053244364 -0.07329306 0.07040988 0.06477829 0.056415167
-0.099191785 0.016845334 -0.07642597 0.021385673 -0.09563744 0.049504306 -0.045578208 -0.082924865
-0.01902585 -0.015427797 0.002351667 -0.063931264 -0.035062693 0.03901817 0.09433582 -0.048297398
0.03972177 -0.08121945 0.09297703 0.0019967782 0.02438371 0.04449839 0.07891635 -0.048137933
-0.04699688 0.18569864 -0.0027940979 -0.065350704 -0.008278527 0.006776861 0.14290217 0.083377294
-0.03286969 -0.08224573 0.017100433 -0.0504063 0.07358733 0.051614597 0.028360417 -0.044803318
-0.0060334923 0.06821031 0.07797386 -0.011312632 0.014201362 -0.0024727993 0.06570144 0.058345295
-0.0060202284 0.12146151 -0.1142593 0.032220494 0.10216838 -0.026346598 -0.09302875 -0.013944702
-0.10103995 0.07764495 -0.018007793 -0.022711873 0.068593584 -0.0012753445 -0.017347384 0.07743669
-0.07918703 0.030584443 0.051516436 -0.0827452 0.06829745 0.020003 -0.047328938 -0.04541071
-0.06573412 0.05211777 0.05448728 0.027184593 0.035937157 -0.06575355 0.033634596 -0.08328049
-0.05941059 -0.043523487 0.06578257 0.07644326 -0.096801125 -0.039200667 -0.07367689 0.052158672
-0.035269 -0.039355054 -0.05673707 0.06863604 -0.08771272 0.009974046 0.028592175 0.14686215
-0.07353831 -0.05964684 -0.0012923143 -0.07081992 0.044901084 0.07952134 -0.07748177 -0.033824526
0.0029135647 0.028163858 0.09355291 0.03485286 0.11821079 0.058420885 -0.12147763 0.027680976
-0.05949579 0.009062631 -0.06779104 -0.19745605 0.002742779 -0.023028793 -0.11554333 0.09035089
-0.016700849 -0.06434778 -0.08548195 -0.05907995 -0.01476784 -0.039391287 -0.031839788 0.043900535
-0.13655187 0.1660708 0.028459359 -0.030832326 0.09658802 -0.101323955 0.09786915 0.050361335
-0.010927559 0.06160143 0.057105996 0.037908882 -0.027709411 -0.018785017 0.024675066 -0.06962791
-0.053464405 -0.033757526 -0.024495644 -0.10666442 -0.025316352 -0.014745456 -0.05359284 -0.021713587
-0.010858677 0.05915471 0.12795469 0.026182953 0.0871617 -0.117024034 -0.15851794 -0.024312088
0.06319646 -0.061382912 0.03561353 -0.041873615 0.051606905 0.075564295 -0.038331658 -0.057895277
0.110873535 -0.08930617 0.006205579 0.03316796 -0.07327921 0.06691337 -0.08967678 0.10560919
-0.049227715 -0.0702532 0.19126303 0.13603643 0.039049312 0.045850035 0.069765866 -0.061786924
0.0659548 -0.075591676 0.053967234 -0.09555163 0.051492196 0.025470713 -0.09235833 0.0027091894
-0.17965725 -0.097689494 0.107410066 0.03981275 0.07148913 0.02195329 0.033716206 0.02943406
-0.0043891827 -0.14026853 -0.07772661 0.04703496 0.07846113 0.16595207 0.01570451 -0.06451088
0.11349027 -0.017349515 0.12102317 -0.010300201 -0.06423145 0.026106039 -0.12676549 -0.03706205

bias f4 [512]
00000000: 47e8 0b3c 2aa6 fabb 65b6 703d edb3 a3bd
00000010: 6810 b7bc 4566 8c3a 4e8b 263d 381a 963d
00000020: 2a8f 923d 72af 8dbd a4cb f33c 747d 8fbd
00000030: 1f08 ab3c b656 bfbc 1774 9cbd f9f8 d43b
00000040: 5587 e43c 5d7f 943c f0bb a53c ab96 903d
00000050: a3a7 763c 6b40 9abd d732 7d3d ced7 af3c
00000060: 8354 86bb 4b33 38bd 0b36 92bd 0fe8 85bc
00000070: 9008 edbb 1fb2 813d 5fae b13c d90a 8d3d
00000080: 293b a3bd 83b6 8e3d c75f c8bd 3d98 603b
00000090: e909 63bc 30f8 a5bd 7701 0d3d c521 8a3c
000000a0: 3410 9ebd 341c 30bd df8b 983d 154d 4ebd
000000b0: c951 58bb 8c4e bbbd b589 593d ca7a db3c
000000c0: 79cf a8bd d19f 69bd d1a8 d3bb 8ee0 8e3d
000000d0: 8513 7bbc 656b 93bc b421 c13c f202 d63c
000000e0: 84e6 0f3b 7421 ce3d cd50 6e3d 007a 083d
000000f0: 3057 7c3c 9f55 f6bc 6f87 cbbd acef 80bd
00000100: 7e55 2a3c d936 513d d291 9a3d 0e48 f8bb
00000110: 5ad6 e23d fa41 c9bc a231 43bd a36b d63c
00000120: a3b8 d4bd ae83 3abd 3e00 b3bc 2533 45bd
00000130: 69e4 923c 3e22 5dbd 0447 61bd 341b 843d
00000140: f6e8 2c3d 0bfd b4bc a4dc 8f3d d1c3 773c
00000150: 5ae8 3f3d a257 69bd 812a eabd eeda dcbd
00000160: 299e 543d 216a f53d 49d2 e2bc a452 d93c
00000170: 5aa5 ba3d 4d7f 693c 1836 1b3d e934 a2bc
00000180: 49f7 8c3d 6b12 43bc f5dd 80bc be7e a7bd
00000190: 6214 a63d 3e3b a3bd 7039 833d bcbe a23d
000001a0: b439 2b3d 481e 85bd cfc5 f23c 1340 1fbd
000001b0: 6075 36bd f207 20bd 9125 133c 5312 9bbc
000001c0: 8aac 423d 9be7 1abe 1844 863d 4ded 603d
000001d0: 47ec 693d a0ae 5dbc 746f 91bd 0d04 47bb
000001e0: 1f60 cd3c 6351 053d 6d1f 6d3d 40b7 bebd
000001f0: 1c0a 213b 1eba 7bbd 2217 37bd 2ff0 77ba
00000200: 73ad 44bd 3575 30bd ad26 6f3d 1d89 643c
00000210: 821c 323d 78c3 f2ba 340e 883d d5da 03bd
00000220: 2c73 363d 404c 76bd 08ee 2ebd 8ad2 633d
00000230: 7d2e 8a3b a7a1 febc e9ac 37bb 5f98 7a3c
00000240: 1059 053d 477d 14bd dce6 0d3d d7c7 eebc
00000250: 2c2d 143d 254f d53d eb9b 853c 46a6 2d3c
00000260: d47e a23d 85b7 88bd ada5 8abd 8ae7 35bd
00000270: cce8 8e3d ef31 aabb f284 533d 9ecc 17bc
00000280: 69f4 84bd dc52 98bd e349 c6bd f916 42bd
00000290: fba1 70bd 1684 3fbc 3a98 75bd f173 3abc
000002a0: b3f4 1e3c 8323 373c 7f4b ed3c f970 5cbd
000002b0: 4e54 d139 0272 ae3c b154 b8bd 976d f43b
000002c0: a468 f2bd bace 4a3d 2521 413d de2c b1bd
000002d0: 0322 f33c ecaf 88bd 7b6b 413d c7da bdbc
000002e0: f97c 59bd ec37 afbc 27ea af3c 8d28 9ebb
000002f0: 3a69 c2bd 4acd 32bd 9b4d 823d 8b02 43bd
00000300: 0e8b b7bd e54a 05bd 6ac6 313d 81db 34bc
00000310: e4a2 493c a639 3b3d ce39 2bbd c18e d63c
00000320: 6387 8d3d 00b4 b5bd 0118 543d a49f adbd
00000330: 29f6 5fbd b440 86bd 6264 94bd b102 c63d
00000340: 9090 dd3d 2208 1b3d 5ceb a13d 47a0 acbd
00000350: c580 bebc a0f3 afbd 3f25 23bd cd50 2b3c
00000360: 49e1 303d 5c6c 1cbd c7af 1dbc 27e0 3b3d
00000370: 2526 e63d a68b 82bd 3552 053c 1260 18bc
00000380: cb85 493d 3d70 59bd 9041 d23a 5d29 cf3d
00000390: fba2 7f3b 4fff 9cbd 9985 99bc 16c0 323c
000003a0: 9ea9 c33b 0471 113d 660b 5e3d 65ee 79bd
000003b0: 0673 023d 1ff5 1bbc b5df 1bbc e13d 09bd
000003c0: de02 15bd d2f1 7cbd c2c2 c23d fe99 74bb
000003d0: 9967 6bbc c063 1a3d a96a df3c a3cc 8e3d
000003e0: 06fd cbbc 00a0 dcba 2acb 49bd d314 d43c
000003f0: b0ba 79bd 85b1 0c3d afdd 71bd 9122 003c
0.008539266 -0.007649203 0.058767695 -0.079933025 -0.02234669 0.0010711631 0.040660195 0.073292196
0.07156213 -0.06918229 0.02976019 -0.0700635 0.020877896 -0.023356777 -0.0763933 0.0064994064
0.027896563 0.018127138 0.020231217 0.07059988 0.015054616 -0.07531818 0.061816063 0.021465208
-0.00409943 -0.04497079 -0.07139214 -0.016346006 -0.0072336867 0.06332802 0.021689592 0.06886835
-0.07970268 0.06968405 -0.09783893 0.0034270429 -0.013857343 -0.08103979 0.034425225 0.016861806
-0.07717934 -0.042995647 0.07448553 -0.05036648 -0.0033007732 -0.09145841 0.053109843 0.026791949
-0.08242697 -0.05703718 -0.0064593335 0.06976424 -0.015324478 -0.017995546 0.023575641 0.026124451
0.0021957466 0.100649744 0.058182526 0.033319473 0.0154016465 -0.030070124 -0.09937941 -0.06295714
0.0103963595 0.051077697 0.07547344 -0.007576949 0.110760406 -0.024567593 -0.047654755 0.026174372
-0.10386779 -0.045535736 -0.021850701 -0.04814448 0.01793118 -0.053987734 -0.054999366 0.06450501
0.042214356 -0.022093317 0.07024506 0.01512237 0.046852447 -0.05696834 -0.11433888 -0.10783945
0.051908646 0.11983133 -0.027688162 0.026528664 0.091135696 0.014251542 0.037893385 -0.01980062
0.068831034 -0.011906247 -0.015730837 -0.08178471 0.081093565 -0.07970284 0.0640744 0.07946536
0.041803077 -0.06499916 0.029635338 -0.038879465 -0.04454553 -0.039070077 0.0089811245 -0.018929636
0.047527827 -0.15127413 0.065559566 0.054913808 0.057110097 -0.013530403 -0.07101336 -0.0030367405
0.025070248 0.03254832 0.057891298 -0.09312296 0.0024572676 -0.061456792 -0.044699796 -0.00094580924
-0.048016977 -0.043080527 0.058386493 0.013948706 0.04348422 -0.0018521389 0.06643334 -0.032191116
0.04454343 -0.06013131 -0.042707473 0.055620708 0.0042169676 -0.031082941 -0.0028026646 0.015295117
0.03255564 -0.036252286 0.034643993 -0.029148025 0.03617589 0.10415486 0.016309699 0.010598725
0.07934347 -0.066756286 -0.067698814 -0.044410266 0.06977996 -0.005193941 0.05164046 -0.009265093
-0.0649193 -0.07437679 -0.096820615 -0.04738519 -0.058748227 -0.011689207 -0.059959628 -0.011380182
0.0097018955 0.0111779 0.028966663 -0.053818677 0.00039926398 0.021294598 -0.090005286 0.007459353
-0.11836365 0.049513556 0.04715075 -0.08651136 0.029679304 -0.066741794 0.047221642 -0.02317561
-0.0530977 -0.02138897 0.021473957 -0.0048266114 -0.094927266 -0.04365281 0.06362458 -0.047609847
-0.089620695 -0.032542128 0.043402113 -0.011038662 0.012306903 0.045709275 -0.041803174 0.026191117
0.069105886 -0.08872223 0.051780704 -0.08477715 -0.054678116 -0.0655531 -0.07245709 0.09668482
0.10818589 0.037849553 0.07906219 -0.08429008 -0.023254761 -0.0859139 -0.039830443 0.010456276
0.0431836 -0.038189277 -0.009624428 0.045868065 0.11237744 -0.06374292 0.008137275 -0.009300249
0.04919986 -0.053085554 0.0016041268 0.10115311 0.0039007056 -0.07665884 -0.018740462 0.010910055
0.0059711477 0.03550817 0.05421009 -0.061018366 0.031847976 -0.009518891 -0.009513785 -0.033506278
-0.036379687 -0.061754055 0.09509803 -0.0037323232 -0.014367961 0.037692785 0.02727254 0.06972625
-0.024900924 -0.0016832352 -0.049266018 0.025888836 -0.060969055 0.034348983 -0.059049305 0.007820741

weight f4 [256, 512]
00000000: 351c 56bd 8759 97bc 7ddc 8cbc 1158 453e
00000010: 8dc1 0e3d 3024 423b e398 49be 6a52 473d
00000020: f25b 233d 3211 343c cec2 4ebb 8a96 28bd
00000030: bcf7 74bd 75cc 683b 92ec 47bb b2c2 a3bd
00000040: a4b5 b8bc b518 373d 15dd 55bd 98e4 913d
00000050: aa7a 733b d920 a3bd b10b 333c a43d 343d
00000060: 81e7 6f3c 144f fd3d 7f8a 813c 71e1 973c
00000070: 3b90 41bb de5d 08bd c05d fbbc 3c47 3e3c
00000080: 1c57 40bd c910 693d 3045 2e3d 676e b23c
00000090: 5401 1ebd 5641 853d 4e72 f03d 9d24 d43c
000000a0: 53d1 233d 3635 5e3d 761b 2abd ed4d 2e3e
000000b0: 7e37 c8bc 1844 adbc 9f95 03bc 15fc 9d3d
000000c0: fd7f a3bd ac77 b7bd 1f14 e03c a759 0fbe
000000d0: 7548 c9bc d5f9 813d d906 183d e7a0 3abd
000000e0: 1786 d43c b643 e9bc f85b 4e3d e2c0 22bd
000000f0: 34f6 243d 080e 66bd ab8c 40bc 137c 73bd
00000100: c6b2 85bc 8040 1cbd 8950 5a3d da54 153d
00000110: af3b f4bd 0159 5f3a 9e94 8dbb 44aa c53d
00000120: 6955 0bbd 865a 2fbd 96b4 dbbc 4703 59bc
00000130: 5200 ffbb e0a3 04be f91d bd3c d2f9 dc3c
00000140: 3bdb d7bc 84e2 83bc d5f1 81bb c726 65bd
00000150: 6e26 40bc c58d 533c f997 0fbd 3156 5d3d
00000160: 43bd 1d3c 01bf 21bd 41f9 a73b 524e e0bc
00000170: ec34 9bbd 44d2 d3bc 9013 843c 4ca1 7cbd
00000180: 0ed6 20bd 3d9d d13c eea3 cebd df20 74bb
00000190: 37c9 88bd e8f3 61bc db59 c33d 275d 2bbd
000001a0: 4cbc bf3c bf8b f53c 8ddf e3bb e035 343d
000001b0: 5c72 a43c 10fb 253d 8d85 923d bf27 923d
000001c0: 2a42 4d3c 202b 663d f117 0dbd e49e b5bd
000001d0: e72f 6d3d 0607 643d 1270 aabc c6b4 a93d
000001e0: 855d 99bd f905 84bc 488f fd3c 9ff6 323b
000001f0: cf48 913c 7784 36bd 2b7d d73c 0733 993c
00000200: 12b3 f73c 8aaf a13c ec44 24bb 6cef 16bc
00000210: e42e ad3c 90f3 92bb 3342 a2bd a498 193d
00000220: 9cd3 a33c 066f 9abd 7f8b 113d d12e eb3c
00000230: 417e 59bd 46d0 8fbd ea2b 95bd 7cb7 bbbc
00000240: 1514 213c add0 77bc b4e8 a63c 9458 63bc
00000250: 33bb 81bc c8b8 fbbc 65e0 c4bb 5a4e 4dbc
00000260: 0717 64bb 851f 24bc 85da 19bd 50d2 5bbd
00000270: 566d 28bd 8537 093d f96c 58bd a855 183c
00000280: ae14 5ebd adf7 a13d 3545 b6bd 5778 f3bc
00000290: ef39 093c 965f b83c 0ce5 093c 2c02 99bd
000002a0: 2936 40bb f721 8e3d ea0a 20bd 64f8 15bd
000002b0: 2f4e 0ebc 70e1 b13d 17af 903b 473d a9bc
000002c0: 726d ccbc 49d4 0cbd 7180 683d 5090 ccbb
000002d0: 2e61 1dba 459d 0c3d 106c b13d 1d31 b63c
000002e0: f532 b5bc 954f 5bbd f8ee 243d ba1f 183d
000002f0: 0271 4abd f098 373c 0f3d 91bd c25d aebc
00000300: b3df 94bc ec02 a53b c271 dfbc 5065 be3c
00000310: 0356 9cbc 2239 a13d 958a 8d3d 0a4d c03c
00000320: b24c 96bb e27f d3bc 0e1f 2f3d 0cdd 583d
00000330: 4217 d5bc a2b0 343d 3ea9 0c3d cb35 81bc
00000340: 8ab9 9abc ca3b 833c 8c9d b93c ee52 a63c
00000350: 46b3 683d a7de e63d a7e2 0d3d 5466 6ebd
00000360: f71c b13c ff17 47bd b07f 583b 4139 53bc
00000370: cbc2 babd 9e28 ed3c f925 3fbd 0727 81bd
00000380: f0ce 433d a776 d8bc 1a3a 13bd 2ba6 953d
00000390: 2594 993c 59de afbb 6dcd 563d 7ca8 87bd
000003a0: 554a d63c aa16 b43d 29c7 febc 217b 1ebc
000003b0: 0e06 36be 5cbd 3dbc ffaa cf3c 3ba8 413d
000003c0: b3b5 c7bc 0145 233c 8166 6abb 59ad 9d3c
000003d0: 833a 85bb 5db3 9fbc 4b8d a1bd 7e8a c93c
000003e0: 6223 d6bc bdd9 7f3d edd9 003e 394b d9bb
000003f0: 5d74 8ebc 690f f03b a95e 95bc 2673 b3bd
-0.052272994 -0.018475307 -0.01719498 0.19271876 0.034852553 0.002962362 -0.19687228 0.04866258
0.039882608 0.010990428 -0.0031549218 -0.04115919 -0.05980657 0.0035522257 -0.0030505997 -0.079961196
-0.02254755 0.044701297 -0.052212793 0.07123679 0.003715197 -0.079652496 0.01092808 0.044004098
0.014642597 0.123685986 0.01581311 0.018540116 -0.002953543 -0.033292644 -0.030684352 0.011613663
-0.046958074 0.056900773 0.04254645 0.02178116 -0.038575485 0.065066025 0.11740552 0.025896365
0.03999455 0.054249965 -0.041530095 0.17021914 -0.024440523 -0.021150634 -0.008031278 0.077140965
-0.07983396 -0.089583725 0.027353344 -0.13999043 -0.024570683 0.0634648 0.037115905 -0.045563605
0.025942845 -0.02847467 0.050380677 -0.03973473 0.04027386 -0.056165725 -0.011752288 -0.0594445
-0.016320597 -0.03814745 0.05329946 0.036457874 -0.11925446 0.00085200375 -0.004320695 0.09651616
-0.034017 -0.04281094 -0.026819509 -0.01324541 -0.0077820206 -0.12953138 0.023085581 0.026974592
-0.026349654 -0.016099222 -0.003965596 -0.055945184 -0.011727912 0.012912218 -0.03505704 0.054037277
0.009627643 -0.039488796 0.005126149 -0.027381096 -0.075784534 -0.025857098 0.01612261 -0.061677262
-0.03926664 0.025587672 -0.10089861 -0.0037251038 -0.06679004 -0.013791062 0.09538623 -0.041836884
0.023405217 0.029973863 -0.0069541396 0.04399669 0.020074062 0.040522635 0.07154379 0.07136487
0.012527982 0.05619347 -0.03444666 -0.088681966 0.05790701 0.05567076 -0.020805392 0.08286433
-0.074885406 -0.01611613 0.03095211 0.0027307642 0.017734913 -0.044559922 0.026304802 0.01870109
0.030236755 0.019737024 -0.0025065495 -0.009212356 0.021140523 -0.0044846013 -0.07922783 0.037499085
0.019998364 -0.07540707 0.035533424 0.028708847 -0.05309892 -0.07022147 -0.072837666 -0.02291464
0.009831448 -0.015125436 0.020374633 -0.013876099 -0.015836334 -0.030727759 -0.006008195 -0.0125308875
-0.0034803764 -0.0100172805 -0.037561912 -0.053667367 -0.041119896 0.033500213 -0.0528383 0.009297766
-0.05421894 0.079085685 -0.08899919 -0.029720468 0.008375629 0.022506516 0.008416425 -0.074711174
-0.0029329157 0.06940072 -0.03907291 -0.036613837 -0.008685633 0.08685577 0.0044154036 -0.020659102
-0.024954531 -0.03438214 0.056763116 -0.0062427893 -0.00060035556 0.03432967 0.086631894 0.022240216
-0.022119025 -0.053542692 0.04026696 0.03713963 -0.04942418 0.011205897 -0.07091724 -0.021284942
-0.018173074 0.0050357487 -0.027275924 0.023241669 -0.019083982 0.07872225 0.06911198 0.023474235
-0.0045867795 -0.025817815 0.042754225 0.05294518 -0.026012067 0.044113763 0.03434109 -0.01577272
-0.0188873 0.01601972 0.022658132 0.020303216 0.056811593 0.11272936 0.03463998 -0.058203056
0.021620257 -0.04860687 0.0033035092 -0.012892068 -0.09119185 0.028950032 -0.046667073 -0.06306272
0.047804773 -0.026423765 -0.03594408 0.07307085 0.018747399 -0.005367082 0.052442003 -0.06623933
0.026158491 0.08793385 -0.031100826 -0.009672911 -0.17775747 -0.011580791 0.025350092 0.047279578
-0.024378633 0.009965182 -0.0035766663 0.019247698 -0.004065813 -0.019494707 -0.078882776 0.024602171
-0.026139919 0.06246351 0.12583132 -0.0066312817 -0.01738947 0.007326056 -0.018233614 -0.08762197

bias f4 [256]
00000000: 0eaf 203d 8cb8 9bbc 137e c3ba 9d3f 82bc
00000010: a0a9 93bc bde9 5d3d cb8c 34bd d574 5c3d
00000020: c85c 803d 5050 c3bd 5153 d5bb 8748 e23c
00000030: 9562 e4bb 8fb7 99bd 8118 213d 7836 b73b
00000040: 4f76 0fbb ea31 74bd 5a9e d33c c31e ccbc
00000050: 554a bc3c 0b00 203d 6b05 c5ba dd7a 7a3d
00000060: 7a14 d43b d668 28bc 299e 7d3d 5730 53bc
00000070: f184 1dbc ee10 47bc 52ac b0bd 0c82 1dbd
00000080: 16b3 ff3b f277 21bd 492c ca3c cd1b 223c
00000090: c300 613c 9108 483b af2b 9d3d 4c11 e83c
000000a0: 5499 d23b fe1c e0bd 5fde 353c 4814 c3bc
000000b0: 3c83 bf3d 5f2d 8cbd 1ecc e03b d190 78bd
000000c0: 81cc 16bc 8e66 3bbd 00ac d43b 674b 93bc
000000d0: 265e d33c cfc1 993c 18f0 bc3c 2941 27bd
000000e0: 10f9 4cbd dd9b 25bd 87da cfbc 4d2e 473d
000000f0: cbae 4f3d 91e6 713d ce12 ef3b 8dae 9abc
00000100: 16ce be3c 7826 dabc 47b1 19bd 6205 943c
00000110: 076b b1bd 9dc8 aa3c c61c 8dbd 52f0 b4bc
00000120: e6ae 363c 6362 e63c d20a 8b39 e325 003c
00000130: 1e53 2d3c b495 b53c 79d9 ee3c 8795 e0bc
00000140: 07bd e43b ff8c 33bd a0b7 b8ba 5704 07bd
00000150: b1b1 2bbd ecca 0f3d b8b5 6ebd d6e7 9a3d
00000160: e1d4 933c f48c 26bb 1389 ae3c c012 82bd
00000170: 8ce9 98bb 032d 21bd 3350 86bc d69c 8ebd
00000180: ee6e 7a3d 1d38 22bd 0399 b9bc 0bae 063d
00000190: ea98 763d ed01 e13c e6d3 3cbd 61ca 4e3d
000001a0: 14dc 603c 5056 42bd 8f96 aa3b 0825 04bc
000001b0: 9ef7 71bc 4a6d b23c 0a33 9e3d 2c0c a0bd
000001c0: c4b5 61bd d380 723c df44 d1bb 448c 903c
000001d0: 7db1 073d b730 f23c 5c3f 833d 8242 3d3d
000001e0: 80f0 7f3c 465e 243d 6b20 513d 71ee 02bd
000001f0: b7e3 5b3d 6643 9cbc 8ba5 b4bd 9bd6 9fbc
00000200: 555d f0bc 5d2f fcbc 1aa3 38bd feb8 d83c
00000210: 8c5f 653c 5c6a 583d 7d14 023d 6c99 a8bd
00000220: f686 1fbd 8f9e a6bd 5788 093d ab35 8f3c
00000230: 54a5 6b3d 334b a73c bd1e 523d e722 973d
00000240: 80a8 87bc 585c 993d 0d21 b43c d363 2e3d
00000250: 59fa 9c3b c48b a33c 151c a63b ec20 5dbd
00000260: 1853 d8bc 05e8 6d3d 7e1b 92bd 577d 7ebc
00000270: 4eee a9bc 6096 07bd b14c 51bd 0b51 903d
00000280: 82cc 0c3d ba62 643b 1e17 9dbc 2a83 41bc
00000290: dbf1 3c3d cc3b 7fbc 4f0e 1b3d 6b74 5f3d
000002a0: 8fd2 edba 7a4c 553d facd 1bbd d029 a43b
000002b0: 238f 493c d8ac b1bb 085a d0bc b89f 303d
000002c0: d417 1d3d 8d2d 2a3c 694e 193c d7e9 423d
000002d0: 956d 0e3d 1b09 78ba c7dc b4bd cec2 583d
000002e0: 7a97 4a3c f240 2b3d 4ade edbc 779a 283d
000002f0: 12b8 0f3d bad6 ca3c 47d2 f03c f84b cfbc
00000300: f722 723c fc05 33bd d8b6 063b 291e 40bb
00000310: 8cd2 36bc 8fe7 b8bc 955a 8fbd 68a7 4d3d
00000320: f490 783d 7874 263b 7ef4 8cbc 0108 83bc
00000330: 26e5 2abd 46ec 1e3d 68ac c1bc f6a6 9f3c
00000340: c65b febc 9304 bd3c c04d 103d 1313 913b
00000350: fc99 a63c b260 dfbc 1cb2 f1bc cb89 ec3c
00000360: 8ee0 bdbc 1a18 4d3b 2619 6a3d 1f2d 233c
00000370: 583f 003d 4f14 aebd a314 1e3d 85d4 4b3d
00000380: 307f d3bc 9546 fe39 85fa 92bb 77fc ffbb
00000390: 21c8 923d 1d96 73bd acc4 713c 15e7 b0bd
000003a0: b365 153d 1014 28bc 79c6 093d 12b3 243c
000003b0: d59f 933d 0574 a83a 1674 253c b6fb 61bd
000003c0: f060 a03d a8ff 96bc 7b16 923c bcc0 893d
000003d0: 7d63 963d 1dee 483a 9226 ae3c 95a1 1dbd
000003e0: c96f 9b3b 8b0b 5c3c dc9c efbd 2045 fd3c
000003f0: b523 a03c f507 553c 549c 353d 4786 1abd
0.039229445 -0.019008897 -0.0014914892 -0.015899474 -0.01802522 0.05417799 -0.044079583 0.053822357
0.062676966 -0.09536803 -0.006510176 0.027622474 -0.0069697597 -0.07505714 0.03933001 0.00559121
-0.0021890586 -0.059617914 0.025832344 -0.024917012 0.022984663 0.03906254 -0.0015031522 0.061152328
0.0064721676 -0.010278901 0.06191841 -0.012889943 -0.009614215 -0.012150032 -0.086266175 -0.0384541
0.007803331 -0.03942103 0.02467932 0.009894324 0.013733092 0.0030522684 0.076743476 0.02832856
0.0064269695 -0.1094303 0.011100381 -0.023813382 0.09351203 -0.06844591 0.00686027 -0.060684983
-0.009204031 -0.0457521 0.0064902306 -0.01798029 0.02580173 0.018769173 0.023063704 -0.040833626
-0.050042212 -0.040431846 -0.025372757 0.04862814 0.050703805 0.059057776 0.007295943 -0.01888206
0.023291629 -0.026629671 -0.03752258 0.018068973 -0.08662992 0.020847613 -0.06890254 -0.02208725
0.0111500975 0.028123086 0.00026520208 0.007821533 0.010578899 0.02216611 0.029156433 -0.02741505
0.0069805416 -0.043835636 -0.001409281 -0.032963123 -0.041917507 0.03510563 -0.05827877 0.075637504
0.018045845 -0.0025413604 0.021305596 -0.063512325 -0.004666513 -0.039349567 -0.016395664 -0.06963508
0.061140947 -0.039604295 -0.02265597 0.032880824 0.060204424 0.027466739 -0.04610052 0.050485972
0.013724346 -0.047445595 0.0052059363 -0.00806547 -0.014768509 0.021780629 0.07724579 -0.078148216
-0.055104986 0.014801222 -0.006386384 0.017645009 0.03312825 0.029564245 0.06408569 0.046206005
0.0156213045 0.04012897 0.051056307 -0.031965677 0.053683963 -0.019075107 -0.08820637 -0.019511512
-0.02934138 -0.030784303 -0.04507742 0.026455399 0.013999831 0.052835807 0.03175782 -0.08232388
-0.03894707 -0.081357114 0.03357729 0.017481646 0.057530716 0.0204216 0.051298846 0.07379704
-0.01655984 0.07488316 0.021988416 0.04257567 0.004790586 0.019964106 0.0050692656 -0.053986475
-0.02640681 0.0580826 -0.0713415 -0.015532813 -0.020743515 -0.033102393 -0.05109853 0.07046708
0.03437472 0.0034848885 -0.019176062 -0.011811057 0.04612909 -0.0155782215 0.037855443 0.054554384
-0.0018144416 0.052074887 -0.03803823 0.0050098673 0.012302193 -0.005422216 -0.025433555 0.04312107
0.038352802 0.010386837 0.009357073 0.04758629 0.034772474 -0.0009461806 -0.088311724 0.052920155
0.012365216 0.041809984 -0.02903666 0.041162934 0.035087653 0.024760593 0.029397143 -0.02530478
0.014778844 -0.04370688 0.002055576 -0.0029314852 -0.011158597 -0.022571353 -0.06999699 0.05020848
0.060685113 0.002539901 -0.017206427 -0.015995027 -0.04172244 0.038799547 -0.02364178 0.019488793
-0.03104962 0.02307347 0.0352304 0.0044273227 0.020337097 -0.027267788 -0.029503874 0.028874299
-0.023178365 0.0031294883 0.05715289 0.009959488 0.03131041 -0.08499967 0.0385939 0.04976322
-0.025817484 0.00048499243 -0.0044854307 -0.0078120786 0.07167078 -0.05946933 0.014756363 -0.086378254
0.03647394 -0.0102586895 0.033636544 0.010052459 0.0720822 0.0012851959 0.010098478 -0.05517169
0.07830989 -0.018432453 0.017832985 0.06726214 0.07343195 0.0007664876 0.021258626 -0.038484175
0.0047435504 0.013430486 -0.116998404 0.03091675 0.019548276 0.013002385 0.04433854 -0.037725713

weight f4 [128, 256]
00000000: 2b96 bebb cf5f 81bd 2d28 29bd d746 29bb
00000010: c2f7 5b3c 14eb 9a3d 24f8 10bd 24e9 3b3c
00000020: 7508 1dbd bd39 f9bd ab58 97bd 59e6 d3bb
00000030: 3d76 4abd 96e2 e4bc 8e8a 75bc 7aff 513d
00000040: 6f06 89bd 7ffe 403d 67a5 c33d f5f3 c2bc
00000050: 2fa9 a93b 88c9 7ebd 3a76 96bc 093c b0bd
00000060: e6ca 473d c1fc 933d a664 c4bb 9d2e 033d
00000070: da41 9bbd d89c d13c dc4a 03bc 4ad2 bf3d
00000080: de87 08bd 2136 693c 165e 3abd 3a6d 87bd
00000090: 0ce8 e13b b175 a2bc 365c f23c 70a1 1abc
000000a0: d228 263d dc95 78bc 9d9b 923c 2f39 b4bd
000000b0: 5abc c9bc 0045 2dbd 61d9 713d 5279 0a3e
000000c0: 135a 9cbd a37b a73d 1ea9 6a3d dea4 ffbc
000000d0: 920b 51bd 6bf6 2a3d 05f5 293d 02be bdbd
000000e0: 7822 dfbd 7e6f 703d 0997 b3bd 32af 46bd
000000f0: 4104 30bd 17da 3e3b 98e5 843d 68a6 f33c
00000100: 903b 6dbd 866f 1fbd 4958 a9bd 9e81 babc
00000110: 2f36 b4bd 6979 893d 7879 54bc c5e2 00bd
00000120: af7b 55bd bfdd 473d 7c17 143d 5c66 943d
00000130: dc06 393c bc07 403d 99c9 23bc 6343 8a3c
00000140: f12d 1cbd 5fc2 ccbc 212d 593d 8966 afbd
00000150: c917 8dbc 4325 55bd 1d05 46bd 2025 a2bc
00000160: e3c8 c7bd 2fe6 c1bc 8be9 273c 9862 fdba
00000170: 35d1 05bd ee8d eebb a187 a83c 91be adbc
00000180: 3cc6 a7bd 2a9b 6a3c a524 013d 5759 0d3d
00000190: 01b0 36bd cd40 9b3b d02e ddbd 0048 05bd
000001a0: d8c0 bbbd 1711 a53a 7b5e 473d 2706 27bd
000001b0: 7cd9 27bd f8d1 fd3a 8a3f ff3c 19ef afbd
000001c0: 8d81 c4bc e90f 54bd fa64 95bd ae59 13bc
000001d0: c89d 443c ba08 56bb f983 833d a367 be3c
000001e0: afd2 15bc fbc0 c93c 119c abbc 9fe6 d4bd
000001f0: b9a5 603c 6f62 663d 8e46 33bb aa2a d03c
00000200: 2bca dbbd d38e d33b 18fe 893d 3464 e0bd
00000210: b9e0 2fbd 7070 353d cea8 71bd 133b 5cbd
00000220: d5d2 5dbd dc59 9dbd ad18 013b cb3b c83c
00000230: 44ef e7bc a9dd 0a3c 0716 383d 3ccf 8cbc
00000240: 445c 8cbc 25a2 4abb 68fd debd 5964 87bd
00000250: db25 fcbd c449 d73c d9d4 46bd 5b9c dc3c
00000260: da38 22bd fb60 8ebc 7985 8dbd c98b e9bc
00000270: 1aef 7c3d 8836 d83c b6ad 713c 6d03 2dbd
00000280: 821a dd3c 4cfb afbd 2b5b fb3c 202d bc3c
00000290: 267f 983d 18c9 1b3d 7bd6 033d e6bb 1e3d
000002a0: 827c 2dbd f466 75bc c7f1 133b 3970 903d
000002b0: e875 2f3d cfac d4bc d7a8 97bd d4de 18bd
000002c0: 6878 bc3c 15cb f3bd b5a8 efba c2f5 6ebd
000002d0: ebbd a93c b0d4 04bd eda9 6cbd 7a73 86bd
000002e0: 6463 24bc 9f89 b1bb 6a0e 9cbd fbc9 0cbd
000002f0: 4e20 f4bb 3b7f 41bd 0780 e73c 7927 3cbc
00000300: 7cd6 39bd 21e7 b8ba 31ac 0dbc 31d9 f5bc
00000310: 4874 a6bc 7f3a 96bd 85c0 33bd be16 fa3c
00000320: 066e 1f3d 15bb b53b 4077 78bd bf04 95bc
00000330: 3237 8b3c 75c9 673d a4c0 63bd 94e4 913d
00000340: 7148 0a3c 7d14 833c 4a5a 693d 4ef7 4dbc
00000350: 8384 10bc b628 9cba 2467 b1bb 3c19 51bc
00000360: 6d81 ebbc 3f97 64bd 633f 823d 91c2 e13c
00000370: f8e6 dc3b 11ae f3bd 64e0 84bd 19b9 063d
00000380: f73f 30bd e520 6c3c 69e1 98bd 4fb8 5f3d
00000390: eb8e 2dbd 8770 b2bd fa9d 44bd 87e6 323d
000003a0: baed 723d dc70 e6bd 0c02 d7bb 59f6 643d
000003b0: 6ec8 b2bc 1649 2abd c944 0d3d 270a e6bd
000003c0: 5143 42bd 1b3f 9d3d a73c c5bb 7909 2c3d
000003d0: 1e58 b3bc ac5e 2b3c b614 4dbd f23e df3d
000003e0: 9b9a ac39 24aa 29bd ec9a 52bd 3579 aebd
000003f0: 300a b8bd ce9e c63b d511 e1bc 8fa5 77bd
-0.0058162413 -0.06317102 -0.04129808 -0.0025829577 0.013425769 0.07564369 -0.035392895 0.011469159
-0.038338143 -0.12169216 -0.07389959 -0.0064666686 -0.049429167 -0.027940076 -0.014986647 0.051269032
-0.0669068 0.047117706 0.09553032 -0.023797968 0.005177639 -0.062203914 -0.018366922 -0.08605201
0.048777483 0.07225943 -0.0059934435 0.032026876 -0.075809196 0.025587484 -0.008013453 0.09366281
-0.033332698 0.014234097 -0.045499884 -0.0661263 0.006894117 -0.01983151 0.029584985 -0.009437904
0.040566273 -0.015172448 0.017896468 -0.087999694 -0.024625946 -0.04230213 0.0590452 0.13522843
-0.07634368 0.08177879 0.05729019 -0.031206544 -0.051036425 0.04173891 0.041493434 -0.09264757
-0.10895246 0.058700077 -0.08769042 -0.048506923 -0.042972807 0.002912169 0.06489104 0.029742435
-0.05791813 -0.038924716 -0.08268792 -0.022766884 -0.08799397 0.0671261 -0.0129684135 -0.031466264
-0.052119907 0.048795458 0.03615521 0.07246086 0.011293139 0.046882376 -0.009996795 0.016877836
-0.03812975 -0.024995027 0.053021554 -0.08564479 -0.017223256 -0.05203749 -0.04834472 -0.019793093
-0.09755113 -0.02366933 0.010248552 -0.0019331751 -0.03267022 -0.007280103 0.020572485 -0.021209033
-0.08192107 0.014319221 0.031529088 0.03450903 -0.044601444 0.0047379495 -0.107999444 -0.032539368
-0.091676414 0.0012593594 0.048674088 -0.04077735 -0.040978894 0.0019364944 0.031158227 -0.08590526
-0.023987556 -0.051772986 -0.072946504 -0.008993549 0.012000509 -0.003265901 0.06421656 0.023242777
-0.009144469 0.024628153 -0.020948442 -0.1039555 0.013711386 0.056246217 -0.0027355286 0.025410969
-0.1073192 0.006456235 0.06737918 -0.10956612 -0.04293892 0.044296682 -0.058998875 -0.053767275
-0.054156143 -0.07683155 0.0019698546 0.024442574 -0.028312333 0.008475699 0.044942882 -0.01718866
-0.01713384 -0.00309194 -0.10888177 -0.06610937 -0.12311908 0.026280291 -0.04854283 0.026930025
-0.039605 -0.017380228 -0.069102235 -0.028509038 0.061751463 0.02639319 0.014750889 -0.042239595
0.026990179 -0.08592853 0.03068312 0.022970736 0.07446127 0.038033575 0.032186966 0.038753413
-0.042355068 -0.014978159 0.002257453 0.07052655 0.042837054 -0.025961308 -0.074052505 -0.03732188
0.023006633 -0.11903969 -0.0018284532 -0.05833984 0.020720443 -0.032429397 -0.05777924 -0.06564994
-0.010033462 -0.005418017 -0.07619937 -0.03437231 -0.00745014 -0.047240477 0.02825929 -0.01148402
-0.045370564 -0.0014106968 -0.008647011 -0.030010791 -0.02031912 -0.07335376 -0.043884773 0.030528422
0.038923286 0.0055459836 -0.0606606 -0.01819074 0.016994093 0.05658861 -0.05560364 0.07123676
0.008440123 0.01600098 0.056970872 -0.012571169 -0.008820656 -0.0011913988 -0.0054139066 -0.012762364
-0.028748238 -0.055808302 0.06359746 0.027558597 0.006741401 -0.11898435 -0.064881116 0.032891367
-0.04302975 0.01441214 -0.074648686 0.05461913 -0.042372625 -0.08712869 -0.04800222 0.04367688
0.059308745 -0.11251995 -0.0065615233 0.055898998 -0.021824088 -0.041573606 0.034489427 -0.11232405
-0.04742748 0.07678052 -0.006019193 0.04200122 -0.021892603 0.010459583 -0.05006858 0.10900678
0.00032921587 -0.041422024 -0.051417276 -0.08519212 -0.08986318 0.0060614115 -0.027474323 -0.060460623

bias f4 [128]
00000000: 24b1 273e 57a9 5d3d 1a96 813d 01d9 9fbc
00000010: 972f ef3d 9acf 0f3e 2d00 783d cf17 8dbc
00000020: 568a 0c3e 292e f3bd e3a5 c33d 89fa 803d
00000030: f598 e4bd 2ab2 883d ed30 14bd 25d9 87bc
00000040: 0872 a63d b886 fb3c f3b5 323d faf9 993d
00000050: b2a7 b93d 90cf 8c3e 5070 083d 28ca 02be
00000060: b71e 9fbd 1669 433c b279 863d 5cc3 f1bc
00000070: b4d6 59bd 6609 993d c907 803d 4d0a 363d
00000080: fc86 133e daa3 9ebd e66c 973c e293 25bd
00000090: 0aca 3d3d e0c7 e33d 3142 0a3c f04a 5ebd
000000a0: d5e2 bf3d 5a23 91bd a3f5 703d a236 4b3c
000000b0: 35b1 033d 916d bb39 5b38 08bd 41ac 123e
000000c0: 19ed 03bc 2f43 0c3e 817c f13d b8e6 b93c
000000d0: c5d1 7c3d a6f2 c33c 5741 01bd 0e82 9c3d
000000e0: fe5d d8bd acdd 783c 48b6 d7bd 57c6 e23d
000000f0: bcb5 a0bd e42b bd3d 46a6 1e3d 5da2 ddbd
00000100: f5ec 123e a8de a9bd a90d bdbc c80e b93d
00000110: bb39 bf3d 9a1e a4bc d5cd 0abd 6a00 483d
00000120: 1839 b73a b853 713c 620c e23d 772b 1a3d
00000130: 7b81 c43b 7b26 113c fa23 723d 63c1 e2bd
00000140: eb66 223d 5044 5d3d f3f9 073c a0ac 1e3e
00000150: 37d0 73bd b353 153e 9df1 613c a61f 503d
00000160: 0edb 8c3d 1e6d 9fbc 2e24 ac3d 57c7 e4bd
00000170: 960e 9dbc 9f00 063e e42a 73bc 545a 54bd
00000180: de58 9cbc 3a2b 05be 15d9 013d 9800 d83b
00000190: b3de f63d b4ff fbbc a15c eebd 0ef2 f23d
000001a0: 4fc1 cb3c b585 4cbd 84f3 34bb 416b de3d
000001b0: 68f6 263d f60a 533d 6bb1 a63d e242 a9bd
000001c0: 5d42 46bd ef5e 8e3d 5040 2a3d 4a19 a3bd
000001d0: 132f b6bd 39ab ea3b af2a adbd 9166 96bd
000001e0: 4ef7 023e db1d 85bd feeb 8bbd 2df4 a63d
000001f0: 47fc 983d 4079 983d cddb 843a c218 d6bc
0.16376168 0.054116573 0.06327458 -0.019512655 0.11678999 0.14044037 0.060547043 -0.017223267
0.13724646 -0.11874039 0.09553125 0.06297786 -0.11161987 0.06674607 -0.03617947 -0.016583035
0.081272185 0.030703887 0.04363055 0.07518382 0.090651885 0.27502108 0.033310235 -0.12772429
-0.0776953 0.01192691 0.0656618 -0.0295121 -0.053183272 0.07472496 0.06251485 0.044443417
0.14406961 -0.07746096 0.018484544 -0.040424235 0.046335258 0.111221075 0.008438633 -0.054270685
0.09369437 -0.07086821 0.058828007 0.012403162 0.03215142 0.00035749053 -0.03325687 0.14323522
-0.008052134 0.13697504 0.11791325 0.022693023 0.06172349 0.023919415 -0.031556454 0.076419935
-0.105648026 0.015189569 -0.10532814 0.110729866 -0.07847163 0.09236887 0.03873279 -0.10821984
0.14348204 -0.082944214 -0.023077803 0.090360224 0.09337183 -0.020034123 -0.033887703 0.04882852
0.0013978807 0.014729433 0.11037518 0.037639108 0.0059968806 0.008859272 0.05911634 -0.11072042
0.03964893 0.054020226 0.008299339 0.15495539 -0.05952474 0.1458271 0.013790515 0.050811432
0.06877719 -0.01946121 0.08405338 -0.111708336 -0.019171994 0.13086174 -0.014841769 -0.051843956
-0.019085344 -0.13004771 0.031701166 0.0065918677 0.12054195 -0.030761577 -0.11638761 0.118625745
0.02487245 -0.0499322 -0.0027610967 0.10860301 0.040762335 0.051524125 0.081393085 -0.0826471
-0.048403133 0.06951701 0.04156524 -0.07963808 -0.088956974 0.0071615246 -0.08455407 -0.07343782
0.12789652 -0.06499835 -0.06832121 0.081520416 0.07469993 0.074450016 0.0010136307 -0.026134852
