result/aug_20_model_21.pt (torch, 934120 bytes, 9 tensors)

weight f4 [128, 13]
0	0xbe408e56	-0.18804297
1	0xbe90e48a	-0.2829936
2	0x3b50b76f	0.0031847616
3	0xbe3621e4	-0.17786366
4	0xbe43ba67	-0.19114076
5	0xbe450da8	-0.1924349
6	0xbe2fe0ce	-0.171756
7	0xbdd66767	-0.10468941
8	0x3de36b3e	0.11104439
9	0xbe37ed62	-0.17961648
10	0xbdd8a625	-0.105785646
11	0x3b33bb6b	0.0027424942
12	0x3eedc77c	0.46441257
13	0xbddde43b	-0.10834547
14	0x3ebcd306	0.36879748
15	0x3e531d11	0.20616557
16	0x3e9314b7	0.28726742
17	0x3d32fee3	0.04370011
18	0xbd43533a	-0.047686793
19	0xbb981c11	-0.0046420177
20	0x3d871f97	0.06597822
21	0x3e884ee2	0.26622683
22	0x3e319533	0.17342071
23	0xbe82a4c4	-0.2551633
24	0x3de13392	0.109961644
25	0x3d27718b	0.040879767
26	0x3e5b8308	0.21436703
27	0x3e48ea97	0.19620739
28	0xbe7dfb55	-0.24802907
29	0x3e796ac0	0.24357128
30	0x3ca59134	0.02021084
31	0xbe3fc240	-0.18726444
32	0xbe954470	-0.29153776
33	0x3e4ee518	0.2020458
34	0x3dffe1ee	0.124942645
35	0xbe93e648	-0.28886628
36	0x3e3d0fa0	0.18462992
37	0xbd591749	-0.053000722
38	0xbda74209	-0.08166892
39	0x3e28f46f	0.16499494
40	0x3df40b21	0.11916185
41	0x3dcf626a	0.10126193
42	0x3e6b32f2	0.22968653
43	0xbe90c125	-0.28272358
44	0xbd9fdf3f	-0.07806253
45	0x3d5af0c3	0.053452265
46	0xbe331d32	-0.17491606
47	0xbe91fb26	-0.28511924
48	0xbe5bfada	-0.21482411
49	0x3bb504f4	0.005524272
50	0x3e22c604	0.1589585
51	0x3e85ad72	0.2610889
52	0x3e1c1514	0.15242416
53	0x3e7dd089	0.24786581
54	0x3dece20c	0.115665525
55	0x3e3f3165	0.18671186
56	0xbc8f2279	-0.017472493
57	0x3cc6eed4	0.024283804
58	0xbcdb5f2b	-0.026778778
59	0xbd8c086f	-0.06837546
60	0x3e8714e9	0.2638314
61	0xbe81a4be	-0.25321
62	0xbdb30505	-0.08741192
63	0x3df9eff4	0.122039706
64	0x3e3437d6	0.17599425
65	0xbe04787f	-0.1293659
66	0x3e945787	0.28973028
67	0xbe97712f	-0.2957854
68	0xbdb3c0c0	-0.087769985
69	0x3d5f053c	0.05444835
70	0xbeb20536	-0.347696
71	0xbe025904	-0.1272927
72	0x3bfc468f	0.007698841
73	0xbc87d6fb	-0.016582003
74	0x3d027f1a	0.031859495
75	0x3c5c1f8c	0.013435256
76	0xbe31a5fb	-0.17348473
77	0x3df6f83a	0.12059064
78	0xbde127d4	-0.10993925
79	0x3e068a45	0.13138683
80	0x3eab1e10	0.33421373
81	0xbbbb2878	-0.0057116114
82	0xbe092b42	-0.13395408
83	0x3d408ede	0.04701125
84	0x3e5f158f	0.21785568
85	0x3e1ed887	0.15512286
86	0xbd52762c	-0.05138223
87	0x3dd78d6e	0.105250224
88	0xbe5062db	-0.2035021
89	0x3aae9157	0.0013318461
90	0xbe02143c	-0.12703031
91	0xbbfa74d3	-0.007643321
92	0xbe9533db	-0.29141125
93	0x3e694198	0.22778928
94	0xbe7325b6	-0.23744854
95	0xbe3d53a4	-0.18488938
96	0xbeb03a49	-0.34419468
97	0x3eab102f	0.33410785
98	0x3e296146	0.16541013
99	0x3eb18263	0.3466979
100	0xbc4c0ceb	-0.012454252
101	0xbdb0fe83	-0.08642294
102	0x3d3e7688	0.04649976
103	0x3d1c81da	0.038209774
104	0xbe3c081a	-0.18362466
105	0xbe9d0507	-0.30667898
106	0xbdd1d04d	-0.10244808
107	0xbea29882	-0.3175698
108	0x3dbf81e9	0.0935095
109	0x3efd7615	0.49504152
110	0xbe753e84	-0.23949629
111	0x3d62263c	0.055212244
112	0x3bd8bcce	0.006614304
113	0x3e473b70	0.19456267
114	0x3d3e584e	0.046470933
115	0xbe193ebb	-0.14965336
116	0x3d4e1210	0.050310194
117	0xbdaeaf9b	-0.08529588
118	0x3e00997c	0.1255855
119	0x3e709d53	0.23497514
120	0xbe4883ee	-0.19581577
121	0xbe59950f	-0.21248268
122	0x3d9dede2	0.07711388
123	0xbd3b6d12	-0.045758314
124	0x3e778858	0.24173105
125	0x3ea03688	0.31291604
126	0x3e2d4904	0.16922385
127	0xbdd8f07f	-0.10592746
128	0xbdef53bf	-0.11685895
129	0x3e658ca6	0.22416934
130	0x3d3faadf	0.046793815
131	0x3e95ff1a	0.2929619
132	0x3e8b9d18	0.2726829
133	0xbefb35b5	-0.49064413
134	0xbf1b7376	-0.60723054
135	0xbd6e16a8	-0.058127075
136	0xbe64f932	-0.22360685
137	0x3cdc6d6a	0.026907641
138	0xbe82017e	-0.25391763
139	0xbe76295f	-0.2403922
140	0xbeb62920	-0.3557825
141	0xb989b6b7	-0.0002626681
142	0xbcab4ff1	-0.020912142
143	0xbceb1e77	-0.02870105
144	0x3e09a25e	0.13440844
145	0xbe0cc911	-0.13748576
146	0xbded8b0d	-0.115987875
147	0x3e8397d5	0.25701776
148	0xbe62de52	-0.22155121
149	0x3d0f5c73	0.035000276
150	0xbd92e978	-0.07173437
151	0xbddc9611	-0.107708104
152	0x3d8e988f	0.06962692
153	0xbdef36e5	-0.11680392
154	0xbacd842c	-0.0015679649
155	0x3e181a2c	0.14853734
156	0xbe4700db	-0.1943392
157	0xbc729ad4	-0.014807422
158	0x3ec2aca8	0.3802235
159	0x3b8c12e6	0.004274714
160	0xbe1176f9	-0.1420554
161	0x3e0d0acb	0.13773648
162	0xbe9a51ab	-0.30140433
163	0xbba34f90	-0.00498385
164	0x3d96d189	0.073641844
165	0xbbb4ed58	-0.0055214576
166	0x3e79ea8b	0.24405877
167	0x3daf9d22	0.085748926
168	0x3d968b44	0.073507816
169	0x3d87c611	0.06629575
170	0x3ec7839a	0.38967592
171	0x3decc648	0.11561257
172	0x3d26ab83	0.04069091
173	0xbe7cf22e	-0.24701759
174	0xbe9eab61	-0.30990127
175	0x3e61e8c3	0.22061448
176	0xbbe0e312	-0.0068630064
177	0x3e26f2bd	0.16303535
178	0xbe47929e	-0.19489524
179	0x3d56afb8	0.052413672
180	0xbe0c106d	-0.13678141
181	0xbc02d7f9	-0.007986062
182	0x3e363c67	0.17796479
183	0xbda379dc	-0.07982227
184	0x3da299a6	0.07939462
185	0xbe0e2ace	-0.13883516
186	0xbdc7e4f2	-0.09760465
187	0x3d822b81	0.06355954
188	0x3e07646c	0.13221902
189	0xbe6d75d9	-0.23189487
190	0x3e458005	0.19287117
191	0xbe56561d	-0.20931287
192	0xbbb5fe48	-0.0055539943
193	0x3e2e5348	0.17023957
194	0x3e9a2f6d	0.30114308
195	0x3e37f85e	0.17965838
196	0xbdbd9156	-0.09256236
197	0xbe8779b4	-0.2646004
198	0xbe870614	-0.26371825
199	0xbe821dd0	-0.2541337
200	0x3e32186f	0.17392133
201	0x3cf97c16	0.030454677
202	0xbd8d1ca2	-0.06890227
203	0xbe422328	-0.18958724
204	0xbdd64045	-0.10461477
205	0x3daa246f	0.083077304
206	0x3c526fba	0.0128440205
207	0x3e980c0b	0.29696688
208	0xbd4dce49	-0.050245557
209	0x3ce3d911	0.027813466
210	0x3e806c36	0.25082558
211	0x3dfb34a1	0.122658975
212	0xbf0807b0	-0.5313673
213	0xbb8b9159	-0.00425927
214	0xbe395bd7	-0.1810144
215	0x3d800700	0.06251335
216	0x3e55515b	0.20831816
217	0xbd8c6902	-0.06855966
218	0xbedf7a67	-0.43648073
219	0xbdce96a6	-0.10087328
220	0xbd52d81b	-0.051475625
221	0xbdc488e0	-0.09596419
222	0xbe867357	-0.26259872
223	0xbe98490a	-0.29743224
224	0xbda8cc4c	-0.082420915
225	0xbe425d75	-0.18980964
226	0x3d04f775	0.032462556
227	0x3e56e56a	0.20985952
228	0x3eba643c	0.36404598
229	0xbdb8924e	-0.090122804
230	0x3ebd390e	0.36957592
231	0xbe1d1e5e	-0.15343615
232	0x3e3b604e	0.18298456
233	0xbd9f5e4f	-0.0778166
234	0x3e9e7bcc	0.30953825
235	0xbed4dc6c	-0.4157442
236	0xbc984e9a	-0.018592168
237	0xbb4cb9ab	-0.0031238596
238	0x3e3c1a82	0.18369487
239	0xbe76e06f	-0.24109052
240	0xbe868ec6	-0.26280802
241	0xbd4942d8	-0.049136013
242	0x3cd020d2	0.025406275
243	0x3e6a30b4	0.22870141
244	0xbd487dd5	-0.048948128
245	0x3e0f26ee	0.13979694
246	0xbe863ef2	-0.26219898
247	0xbe45854b	-0.19289128
248	0xbd5233df	-0.051319
249	0x3c2346a3	0.009965572
250	0x3ea6f1f0	0.3260646
251	0x3d0e213e	0.03469967
252	0x3e000ea5	0.12505586
253	0x3e9d948b	0.30777392
254	0x3e654577	0.2238978
255	0x3d312c68	0.04325524

bias f4 [128]
0	0x3e3a45f2	0.18190745
1	0x3c742a01	0.014902593
2	0x3d559aa0	0.052149415
3	0xbea6378c	-0.32464254
4	0xbd09bc9b	-0.033627134
5	0xbe5fe0b4	-0.21863061
6	0x3e280982	0.16409877
7	0x3e1c43d9	0.15260257
8	0xbe6d3133	-0.231633
9	0x3e9dc146	0.30811518
10	0x3e633969	0.22189869
11	0x3e57dc6c	0.21080178
12	0xbeac4ac4	-0.33650792
13	0x3d285aad	0.0411021
14	0xbe4076ad	-0.18795271
15	0xbdc9e48e	-0.098580465
16	0x3e3f18d4	0.18661815
17	0xbb95a1ff	-0.0045664306
18	0x3b5f9d80	0.0034120977
19	0x3e4f96a2	0.20272306
20	0xbe028bd0	-0.12748647
21	0xbd9e9117	-0.077425174
22	0xbe57f771	-0.21090485
23	0xbe74113c	-0.238347
24	0x3eb23317	0.34804603
25	0x3e38d277	0.18049036
26	0x3e001dc6	0.12511358
27	0xbd4c8bcc	-0.04993801
28	0xbe1f6c67	-0.15568696
29	0x3c14b7b7	0.009077004
30	0x3e09dc0b	0.13462846
31	0x3e5c0794	0.21487266
32	0xbe698828	-0.22805846
33	0xbdc4b60a	-0.09605034
34	0xbe90d4d5	-0.28287378
35	0xbe23c3dc	-0.15992683
36	0xbeaa3c8b	-0.33249316
37	0x3cac2eea	0.021018464
38	0x3ceb5c9c	0.028730683
39	0x3dd64218	0.10461825
40	0xbceffffe	-0.029296871
41	0x3de8e97f	0.11372661
42	0x3e0862a4	0.13318878
43	0xbe1861b3	-0.1488102
44	0x3d7853db	0.060626846
45	0x3e48bad1	0.19602515
46	0x3d49519a	0.049150087
47	0x3ced1e19	0.028945016
48	0x3eb7e329	0.35915497
49	0xbdb2e822	-0.08735682
50	0x3e290705	0.16506584
51	0x3e0198c9	0.12655939
52	0x3e59f49d	0.21284719
53	0xbe2fae10	-0.17156243
54	0x3cd3b2ac	0.025842033
55	0x3d7a7d63	0.061154734
56	0xbdbe8914	-0.09303489
57	0xbe2cb4d6	-0.16865858
58	0x3d9ca5f6	0.07648842
59	0x3dacc54c	0.08436069
60	0x3d884a12	0.06654753
61	0xbd596ce1	-0.05308235
62	0x3ea3947a	0.31949216
63	0xbe212818	-0.15737951
64	0xbe7cd64c	-0.24691123
65	0x3da622d5	0.081121124
66	0xbe75212e	-0.23938438
67	0x3e572677	0.21010767
68	0xbe042bdc	-0.12907356
69	0x3da0eb9e	0.078574404
70	0x3dba7a79	0.09105391
71	0x3d15cbdc	0.03657137
72	0xbca11a2c	-0.0196658
73	0xbe385148	-0.17999756
74	0x3e2cf81a	0.16891518
75	0x3c1676c5	0.00918359
76	0xbe8f95ce	-0.2804398
77	0xbe87bfe5	-0.2651359
78	0xbe26c70f	-0.16286872
79	0x3e614828	0.22000182
80	0xbe5d6a2a	-0.2162253
81	0xbe098951	-0.13431288
82	0xbd89af0a	-0.06722839
83	0x3d616f84	0.05503799
84	0x3dd6422c	0.1046184
85	0x3e08055e	0.13283297
86	0xbe120dee	-0.14263126
87	0x3e9138c1	0.28363612
88	0x3dda6fbd	0.10665844
89	0x3ea77ab0	0.3271079
90	0x3d026c9a	0.03184185
91	0xbd07cb48	-0.03315285
92	0x3e61be4b	0.22045247
93	0x3e6b46e2	0.22976258
94	0x3e046e9e	0.12932822
95	0x3e81e9dc	0.25373733
96	0x3e0dd541	0.13850881
97	0x3db65d0d	0.08904467
98	0x3e66750b	0.22505586
99	0x3d8d612e	0.06903301
100	0xbe1e9548	-0.15486634
101	0xbcc05294	-0.023476876
102	0x3e00c5e4	0.1257549
103	0x3e6599e8	0.22421992
104	0xbceebfc5	-0.029144177
105	0x3e451657	0.19246803
106	0xbe6e0262	-0.23243096
107	0xbe8963d7	-0.26833984
108	0x3d9a287d	0.07527254
109	0x3d472e0a	0.04862789
110	0xbdbcf161	-0.09225727
111	0xbdc11932	-0.09428634
112	0xbe6fe32f	-0.23426507
113	0xbe0425df	-0.12905072
114	0x3eb94118	0.36182475
115	0x3e1a5eaf	0.15075181
116	0xbeb23db6	-0.34812707
117	0xb91c6a12	-0.00014916834
118	0x3e11245e	0.14174029
119	0xbe1477a6	-0.14498767
120	0x3dea682a	0.11445649
121	0x3e0cd610	0.13753533
122	0x3e0f5d06	0.1400033
123	0xbd701ac2	-0.05861927
124	0x3dba7323	0.09103992
125	0xbe6eb7f2	-0.23312357
126	0xbd2b152d	-0.04176824
127	0xbe78ff8e	-0.24316236

weight f4 [256, 128]
0	0x3d7e06e0	0.062018275
1	0x3c8b7e2c	0.017027937
2	0x3c92a1cb	0.017899415
3	0x3cabb90c	0.02096226
4	0x3d78254b	0.06058244
5	0x3cfd17ca	0.030895133
6	0x3d9af74b	0.07566699
7	0xbd9e32af	-0.07724511
8	0x3d7a0cba	0.061047293
9	0x3d09fd75	0.03368898
10	0x3e83ea53	0.25764713
11	0xbd88c69c	-0.06678507
12	0xbdd0c990	-0.10194695
13	0xbc4a789a	-0.012357855
14	0x3c01dc03	0.00792599
15	0x3da04ed9	0.07827539
16	0xbd23e287	-0.040010955
17	0xbd35575f	-0.044272777
18	0xbddf6ba3	-0.10909202
19	0xbd999219	-0.07498569
20	0x3d4ee74b	0.050513547
21	0x3e047a38	0.12937248
22	0x3b89d885	0.0042067193
23	0xbcffbd0a	-0.03121807
24	0xbd650819	-0.055915926
25	0x3d7c9d95	0.06167372
26	0xbdd06303	-0.10175135
27	0x3d005e96	0.031340204
28	0xbd29112e	-0.04127615
29	0xbd4351a4	-0.04768528
30	0xbd2c1ea5	-0.042021412
31	0xbc403a23	-0.011732611
32	0xbcc71f5c	-0.024306946
33	0xbc9e8b2a	-0.019353468
34	0xbc09218a	-0.008369813
35	0xbdce3448	-0.100685656
36	0xbd0db7df	-0.03459918
37	0x3ced7622	0.028986994
38	0x3de71341	0.11282969
39	0x3d325749	0.043540273
40	0x3ccc76b4	0.024958946
41	0xbc4c7e46	-0.012481278
42	0xbcd11c43	-0.025526172
43	0xbd50acf8	-0.050946206
44	0xbcf6f808	-0.030147567
45	0x3d150a9d	0.036387075
46	0xbcf2c995	-0.029637137
47	0x3c256c57	0.010096631
48	0xbcc3aceb	-0.023886165
49	0xbb35194c	-0.0027633486
50	0x3da6effa	0.08151241
51	0xbd9d8198	-0.07690734
52	0xbd316880	-0.04331255
53	0xbd1bb6d0	-0.03801614
54	0xbdb56d7d	-0.08858774
55	0x3cbd0e0e	0.02307799
56	0x3e07d099	0.13263167
57	0xbd0208b8	-0.031746596
58	0xbd807fad	-0.06274352
59	0xbd1e6ea5	-0.038679738
60	0xbdc117e5	-0.09428386
61	0x3d8ea057	0.06964176
62	0x3dd7c515	0.10535637
63	0x3d447bde	0.04796969
64	0xbbf09418	-0.007341873
65	0xbd84b585	-0.064799346
66	0x3c5fa48e	0.013650073
67	0x3df51969	0.11967737
68	0xbd29d4f5	-0.041462857
69	0xbd5525ad	-0.052037884
70	0x3d9b4fd2	0.07583584
71	0x3c6a5032	0.014301347
72	0xbd945f4a	-0.072447374
73	0x3d867c19	0.065666385
74	0x3d4db7e7	0.05022421
75	0xbb06e6a3	-0.0020584248
76	0xbd53899b	-0.051644903
77	0x3d4f0900	0.050545692
78	0x3d1248f2	0.035714097
79	0x3d3a5d95	0.045499403
80	0x3d245109	0.040116344
81	0x3d9441c5	0.07239107
82	0xbd16edf4	-0.036848024
83	0x3ceb0cd9	0.02869265
84	0xbc9545ff	-0.018221853
85	0xbc80a2a8	-0.01570256
86	0xbd1f71ae	-0.038926773
87	0x3d2fc91f	0.042916413
88	0xbc7df783	-0.015500906
89	0x3e09783c	0.13424772
90	0xbd271a4a	-0.040796556
91	0xbd01c2ec	-0.031680033
92	0x3dfb9db2	0.12285937
93	0xbdb7778f	-0.08958351
94	0xbc5eab3b	-0.013590629
95	0x3d1682fa	0.036746003
96	0x3d535a34	0.051599696
97	0x3dce9dc7	0.100886874
98	0xbd62bd3a	-0.05535624
99	0x3dda3abc	0.10655734
100	0xbca0b577	-0.01961778
101	0xbd36633c	-0.04452823
102	0xbd8feb74	-0.07027331
103	0x3d533d66	0.051572226
104	0x3cff343c	0.031152837
105	0xbd83a1b3	-0.06427326
106	0xbd080231	-0.033205215
107	0x3d0085f2	0.03137774
108	0x3d561d30	0.05227393
109	0x3c4c650c	0.012475263
110	0xbca7a9db	-0.020466736
111	0xbd6c5be7	-0.057704832
112	0xbdc1f05d	-0.09469674
113	0xbdb2559a	-0.087077335
114	0x3d2574c5	0.040394563
115	0xbad12678	-0.0015956899
116	0xbdd88986	-0.105731055
117	0xbde86fe2	-0.11349465
118	0xbc46210d	-0.012092841
119	0xbbd0ff3d	-0.006378083
120	0xbdbe4040	-0.092895985
121	0x3c9b581c	0.018962912
122	0x3c09e948	0.008417435
123	0xbd035388	-0.032062083
124	0x3debd1ca	0.115146235
125	0x3cb0cf94	0.021583356
126	0x3d2186bf	0.039435145
127	0xbcff7f95	-0.031188766
128	0xbd0c4b07	-0.03425124
129	0x3d6b9bea	0.057521738
130	0x3e2b7364	0.16743237
131	0xbb187262	-0.0023261537
132	0xbcb061be	-0.021530982
133	0x3dc05246	0.093906924
134	0xbde772c0	-0.11301184
135	0x3d1546c7	0.03644445
136	0xbd99b898	-0.075059116
137	0xbddb9383	-0.10721495
138	0xbd6b4e9d	-0.05744802
139	0x3d335154	0.043778732
140	0xbcedbfd1	-0.02902213
141	0x3da254a5	0.07926301
142	0x3d3c0adb	0.04590879
143	0x3dea7e3a	0.11449857
144	0xbd906877	-0.07051175
145	0xbdb2c816	-0.087295696
146	0xbd1be05c	-0.038055763
147	0x3d8699fa	0.065723374
148	0xbd21e7f9	-0.039527867
149	0x3a3681fd	0.0006962119
150	0x3c4d4db7	0.012530736
151	0x3c4dda03	0.012564185
152	0xbdef6c37	-0.11690562
153	0xbddb8132	-0.107180014
154	0x3d060d51	0.032727543
155	0xbdc9cb31	-0.09853209
156	0xbd3c80cf	-0.04602128
157	0xbd4d8e0b	-0.05018429
158	0xbde5d0c4	-0.112214595
159	0xbd0f900b	-0.03504948
160	0x3bb2cb32	0.0054563517
161	0xbdf01490	-0.11722672
162	0x3cf24f0a	0.029578704
163	0x3d9226f6	0.071363375
164	0x3df60e25	0.120144166
165	0xbd96cc1e	-0.07363151
166	0x3be6b285	0.007040324
167	0xbc28e65b	-0.010308827
168	0x3cefb947	0.029263152
169	0x3db680bd	0.08911274
170	0x3d898b13	0.067159794
171	0x3d2aae28	0.041669995
172	0x3d2de4a4	0.042454377
173	0xbd4c422d	-0.049867798
174	0xbdd66e93	-0.10470309
175	0xbd058111	-0.03259379
176	0xbde1ec8a	-0.11031444
177	0xbb74a7e1	-0.003733151
178	0xbd40b21e	-0.047044866
179	0x3dc3d0ba	0.09561296
180	0xbd7d1c9e	-0.06179487
181	0xbdb33a8b	-0.087514006
182	0xbd594d05	-0.053051967
183	0xbd78230c	-0.0605803
184	0xbd6e4eb1	-0.058180515
185	0x3dbff6bc	0.09373233
186	0xbc6e0729	-0.014528074
187	0xbe435af0	-0.19077659
188	0x3c84abcc	0.0161952
189	0xbe2cbfd3	-0.1687005
190	0xbddacbf0	-0.10683429
191	0x3d845258	0.06461018
192	0x3d524a5f	0.051340457
193	0x3cb41e45	0.02198709
194	0x3d86a723	0.065748475
195	0x3b45db3c	0.0030190488
196	0xbd4b0c53	-0.0495723
197	0x3d5141df	0.05108821
198	0x3d806e60	0.06271052
199	0x3d5d285c	0.053993568
200	0x3d799eda	0.06094251
201	0x3d038a48	0.032114297
202	0xbcf0ec07	-0.029409422
203	0xbc86cfb2	-0.016456459
204	0x3db0cc3a	0.08632703
205	0x3db7f078	0.08981413
206	0xbd81fb18	-0.063467205
207	0x3c081b8b	0.008307348
208	0x3d98b469	0.074562855
209	0x3d69629f	0.056978818
210	0x3d9f130a	0.07767303
211	0xbd56beaa	-0.052427925
212	0xbd95c109	-0.07312209
213	0x3be4ecb4	0.006986225
214	0xbda5dc7d	-0.080986954
215	0xbd4107a2	-0.04712642
216	0x3a5c2b43	0.00083987805
217	0xbd9a12e5	-0.07523135
218	0xbdd12ff5	-0.10214225
219	0x3c16d875	0.009206881
220	0x3d0039e0	0.031305194
221	0x3d9450a1	0.07241941
222	0xbe226725	-0.15859659
223	0x3b97327d	0.004614173
224	0x3d6e5019	0.058181856
225	0x3d82f1c1	0.06393767
226	0x3d049d8a	0.032376803
227	0xbcdae281	-0.026719334
228	0xbce21e6a	-0.027602393
229	0x3da30dd3	0.07961621
230	0x3b33aafb	0.0027415145
231	0x3d92e96e	0.071734294
232	0x3cd4f6f2	0.025996659
233	0xbdf46e41	-0.11935092
234	0xbd23e92d	-0.040017296
235	0x3dde64f1	0.10859097
236	0xbd4b4b9f	-0.049632665
237	0x3d0c8b36	0.03431245
238	0xbd393b88	-0.04522279
239	0xbbe3fdfa	-0.0069577666
240	0x3e02a039	0.12756433
241	0x3cfa1294	0.030526437
242	0xba783cd9	-0.0009469516
243	0x3d39bdbb	0.045346957
244	0x3dba9752	0.09110893
245	0xba560a74	-0.000816501
246	0xbcc48dd7	-0.023993416
247	0x3c0eb466	0.0087100025
248	0xbcf23853	-0.029567873
249	0x3d0f0489	0.034916434
250	0xbcd61aef	-0.02613589
251	0xbd0981a6	-0.033570908
252	0x3c978bbd	0.01849925
253	0x3c75c85d	0.015001384
254	0xbb733514	-0.0037110494
255	0x3a343c1a	0.0006875411

bias f4 [256]
0	0x3cbb8a68	0.022893146
1	0xbc9bb9eb	-0.019009551
2	0xbd240cdb	-0.040051322
3	0xbd0c1665	-0.034201045
4	0xbd1ab598	-0.037770838
5	0x3c33d8cc	0.010976981
6	0xbd863f1b	-0.06555005
7	0xbdd96609	-0.10615165
8	0x3c281fd3	0.010261494
9	0xbd591843	-0.053001653
10	0x3cf3a197	0.029740138
11	0x3d5738cc	0.0525444
12	0x3d4952a4	0.049151078
13	0x3dc90146	0.09814696
14	0x3dad5bac	0.08464751
15	0x3c5e12aa	0.013554255
16	0x3da508a8	0.08058292
17	0x3ce7fd0c	0.028318904
18	0x3bee71a2	0.0072767297
19	0x3cc8b6d0	0.024501234
20	0x3d3eb69c	0.04656087
21	0xbdc8bc6f	-0.09801566
22	0x3dfac9b7	0.12245505
23	0x3d6be913	0.057595324
24	0xbd8caa8a	-0.06868465
25	0xbd6cd87d	-0.057823647
26	0x3e125960	0.14291906
27	0xbdd2940a	-0.102821425
28	0x3dcdc50e	0.10047351
29	0xbd4dea57	-0.050272312
30	0x3d25013a	0.040284373
31	0xbc86cc5a	-0.016454864
32	0xbd66f55e	-0.056386344
33	0xbcb8a7b5	-0.022540906
34	0x3bbd07c4	0.005768748
35	0xbd3d4a58	-0.046213478
36	0x3df2f8e3	0.118638776
37	0x3de6245c	0.11237404
38	0xbcd7df90	-0.02635172
39	0xbde53c1f	-0.11193108
40	0x3d3d285d	0.04618107
41	0x3d61b6f3	0.055106115
42	0xbdc5abf0	-0.09651935
43	0xbdbe8e36	-0.09304468
44	0xbd2bd98a	-0.04195551
45	0x3e22f28e	0.1591284
46	0x3d953755	0.07285944
47	0x3d00bac7	0.031428125
48	0x3d915964	0.07097128
49	0x3d31abe5	0.043376822
50	0x3c8eac5b	0.01741617
51	0x3d687e6c	0.05676119
52	0xbd14d5a2	-0.03633655
53	0x3dd62872	0.10456933
54	0x3d71f708	0.059073478
55	0x3d10dfb6	0.035369597
56	0x3d26f475	0.040760476
57	0x3e048b25	0.12943704
58	0xbcc3c97c	-0.023899786
59	0x3d2ae01d	0.041717637
60	0xbdea9e8e	-0.11456023
61	0xbd43b068	-0.047775656
62	0x3d30ef55	0.043196995
63	0x3d4a78bc	0.049431548
64	0x3cef6f3f	0.029227851
65	0x3cdf3af7	0.027249796
66	0xba649981	-0.00087203836
67	0xbd091ef8	-0.0334768
68	0x3d6518e9	0.05593196
69	0xbc9fa505	-0.019487867
70	0x3db1122e	0.086460456
71	0xb824c438	-3.928339e-05
72	0x3c0499cd	0.00809331
73	0xbd2f818a	-0.042848147
74	0xbdb1b2ef	-0.08676707
75	0xbd2546a9	-0.04035059
76	0x3c8ca7a1	0.017169775
77	0x3d05fe8f	0.03271347
78	0xbc46465a	-0.012101734
79	0x3e1cef01	0.15325548
80	0x3ccc031d	0.024903828
81	0xbd3bdcb9	-0.045864794
82	0xbd4be731	-0.04978103
83	0xbda4ed57	-0.080530815
84	0xbd24a478	-0.040195912
85	0x3afb11f8	0.0019155135
86	0xbd203440	-0.03911233
87	0xbb08ff2f	-0.0020904054
88	0xbc51fba9	-0.012816348
89	0x3bd56d5a	0.00651328
90	0x3d07ed9c	0.033185586
91	0x3b0bf992	0.0021358472
92	0xbd41fbbc	-0.047359213
93	0x3cfb9ea9	0.030715303
94	0xbd8c6a5e	-0.068562254
95	0xbd6267b7	-0.05527469
96	0x3d884e7b	0.06655594
97	0xbd1ff0d1	-0.03904802
98	0x3da0a56d	0.078440525
99	0x3bc111b4	0.005892003
100	0x3d2f556b	0.04280607
101	0xbdd7d588	-0.10538775
102	0x3cf5ad6f	0.029989926
103	0xbdb7293c	-0.08943412
104	0x3d2db4cb	0.042408746
105	0x3d901ba5	0.07036523
106	0xb9d0377e	-0.00039714196
107	0x3d7b5bfe	0.061367027
108	0x3c241563	0.010014865
109	0xbc9333d8	-0.017969057
110	0x3e0a84a3	0.1352716
111	0x3c3201d6	0.0108646955
112	0xbcb74ec6	-0.02237643
113	0xbcd12c0f	-0.025533704
114	0xbcffa04d	-0.031204367
115	0xbe0b5527	-0.13606702
116	0x3c8461ec	0.016159974
117	0xbc9ced1e	-0.019156035
118	0xbde25e6a	-0.11053164
119	0x3db0c9c6	0.08632235
120	0x3dabb5a2	0.08384253
121	0x3be58e81	0.007005513
122	0xbdc77e0c	-0.097408384
123	0xbd82c8f3	-0.06385984
124	0xbdd65cc1	-0.1046691
125	0xbd8642c7	-0.065557055
126	0x3cbb208c	0.022842668
127	0xb9fef0ce	-0.0004862607
128	0xbae59c15	-0.001751783
129	0xbc830567	-0.015993787
130	0x3dbcbaaf	0.092152946
131	0xbdd28c38	-0.10280651
132	0xbd68d359	-0.05684218
133	0x3e14da7e	0.14536473
134	0xbdea2f38	-0.114347875
135	0x3d9ca6f1	0.07649029
136	0xbd23b8bf	-0.03997111
137	0x3d0f820e	0.03503614
138	0xbd500101	-0.050782207
139	0xbd1e400a	-0.03863529
140	0xbda4a65e	-0.080395445
141	0xbc981ee5	-0.01856942
142	0x3d7e8e9c	0.06214772
143	0xbbed17a2	-0.0072354833
144	0x3ccb9b9d	0.024854476
145	0xbd7b23b3	-0.061313342
146	0x3d9f61ba	0.07782312
147	0xbda5d1ef	-0.08096682
148	0x3d29dc69	0.041469965
149	0xbdd1d2a7	-0.10245257
150	0x3d3eda9c	0.0465952
151	0x3ddeeb32	0.10884704
152	0xbc1f9576	-0.009740224
153	0xbd2a6269	-0.041597757
154	0x3d6a9523	0.057271134
155	0xbcff3f8a	-0.031158227
156	0xbc3559bb	-0.011068757
157	0xbd1ac6c7	-0.037787225
158	0xbd925017	-0.07144182
159	0xbceb0028	-0.028686598
160	0xbc9acda9	-0.018896895
161	0xbda5b9f6	-0.0809211
162	0x3df56083	0.11981299
163	0xbda46feb	-0.08029159
164	0x3dd8b21f	0.10580849
165	0xbb7772a9	-0.0037757552
166	0x3cf8e23c	0.030381314
167	0x3da9bf03	0.08288386
168	0xbbdbcce4	-0.0067077745
169	0x3ccb3556	0.024805706
170	0x3d51b510	0.051198065
171	0xbd0a500c	-0.033767745
172	0xbe252f7f	-0.161314
173	0xbc117992	-0.008879082
174	0xbd1acd44	-0.037793413
175	0x3d3191c1	0.043351892
176	0xbd04a4fc	-0.032383904
177	0xbc49b1cc	-0.0123104565
178	0x3cd996aa	0.0265611
179	0xbdbe2160	-0.092837095
180	0xbd8c4d41	-0.068506725
181	0xbda356a9	-0.079755135
182	0xbe0919af	-0.13388704
183	0x3d625347	0.0552552
184	0xbc236b94	-0.009974379
185	0xbc06c33a	-0.008225257
186	0x3d4d6a6f	0.05015033
187	0xbd958284	-0.073002845
188	0x3c763d67	0.015029288
189	0x3d4ac33e	0.049502604
190	0x3d1e34f9	0.038624737
191	0xbdb62a1f	-0.08894753
192	0x3dd0fb5b	0.10204192
193	0xbda669f6	-0.08125679
194	0xbdda351d	-0.10654662
195	0xbde60664	-0.11231688
196	0x3d9028be	0.07039021
197	0x3dba8ebb	0.09109255
198	0xbd80b582	-0.0628462
199	0x3d700e8d	0.058607627
200	0x3dc9f563	0.09861257
201	0x3d6e6629	0.058202896
202	0x3bddcf2b	0.006769081
203	0x3d460f4c	0.048354432
204	0x3d2ff483	0.042957794
205	0x3caeea83	0.021352058
206	0x3c581420	0.013188392
207	0xbd4cfbba	-0.050044753
208	0xbc60cd8d	-0.013720882
209	0x3cca38ee	0.02468535
210	0x3d5b9532	0.05360908
211	0x3d87cdb1	0.066310294
212	0xbd8b5ea5	-0.068051614
213	0x3e052d14	0.13005477
214	0x3d1f3917	0.038872804
215	0xbdbab8fb	-0.091173135
216	0xbe22994c	-0.1587879
217	0xbca3925b	-0.019967249
218	0x3d94a082	0.07257177
219	0xbdb77f0b	-0.089597784
220	0xbd83aac8	-0.06429058
221	0xbd1a251c	-0.037633047
222	0x3d855430	0.06510198
223	0xbd447cc5	-0.047970552
224	0xbd3d0afb	-0.04615305
225	0xbb9f9817	-0.0048704254
226	0xbcdef882	-0.027218107
227	0x3cd28d9c	0.02570229
228	0xbd59d72e	-0.053183727
229	0x3ce4f128	0.027947024
230	0xbe244bd1	-0.16044547
231	0xbd055536	-0.032551967
232	0x3da6e8be	0.08149861
233	0xbc4f760a	-0.01266242
234	0x3d480f4d	0.048842717
235	0x3d475396	0.048663698
236	0x3d2fc862	0.04291571
237	0xbe055bf3	-0.13023357
238	0x3c1512db	0.009098734
239	0x3d13b51b	0.036061388
240	0xbca7d535	-0.020487407
241	0x3ca93f61	0.020660104
242	0xbdb42b50	-0.08797324
243	0x3da64ec8	0.08120495
244	0xbd7dc6e4	-0.061957255
245	0xbbaf8fa9	-0.005357702
246	0xbd26e5a2	-0.04074634
247	0x3de2bde2	0.110713735
248	0xbd203147	-0.039109495
249	0xbcbdea76	-0.023183089
250	0xbbd543d9	-0.006508332
251	0x3d37a78f	0.04483753
252	0xbd3b8641	-0.04578233
253	0x3dcf6973	0.10127535
254	0xbc97e7ca	-0.018543143
255	0x3a5cdb70	0.0008425033

weight f4 [512, 256]
0	0x3c4096e0	0.011754721
1	0x3c2f3c3f	0.010695516
2	0xbccba493	-0.024858749
3	0x3bb4184f	0.005496062
4	0x3b37ad00	0.00280267
5	0x3d19652f	0.03745001
6	0xbd690b2f	-0.05689543
7	0x3e0291f7	0.12750994
8	0x3cbbb328	0.022912577
9	0x3d8570a7	0.06515627
10	0xbca23294	-0.019799508
11	0x3d38ccc3	0.04511715
12	0x3d123859	0.03569827
13	0xbd9b7d1d	-0.07592223
14	0xbd42fd27	-0.047604706
15	0xbd476fbe	-0.04869055
16	0xbdd28005	-0.10278324
17	0x3c5496de	0.012975423
18	0xbbf7c033	-0.0075607537
19	0x3d7cf223	0.061754357
20	0xbd3e7e7a	-0.046507336
21	0xbc692075	-0.01422893
22	0x3b2a2eff	0.0025967953
23	0x3d66164b	0.056173604
24	0xbd32ae8b	-0.04362349
25	0x3d22e436	0.03976842
26	0xbc5a9a67	-0.013342476
27	0x3d51515e	0.05110299
28	0xbd08e4c6	-0.0334213
29	0xbd3bfdc2	-0.0458963
30	0x3d791275	0.060808618
31	0x3d37dcb0	0.0448882
32	0x3c58088f	0.013185634
33	0xbb1c1896	-0.0023818365
34	0x3cbaa942	0.022785787
35	0x3db1ec8b	0.08687695
36	0xbd147fae	-0.036254577
37	0xbd8e5727	-0.06950217
38	0xbb36c7d3	-0.00278901
39	0x3d022a0c	0.03177838
40	0x3c1731e3	0.0092282025
41	0x3d0cb18e	0.034349017
42	0x3cd9606d	0.026535237
43	0xbd9830d1	-0.07431186
44	0x3c0f8dc7	0.00876183
45	0xbd2e9419	-0.042621706
46	0xbd137f94	-0.03601034
47	0x3a848b75	0.0010112362
48	0x3cd6f0a3	0.026237791
49	0xbd7211ab	-0.05909888
50	0x3cf2bb18	0.029630229
51	0x3b5a8a8d	0.0033346743
52	0x3cd6b25b	0.026208093
53	0xbbfb6bdd	-0.0076727704
54	0xbc8d7fbc	-0.017272823
55	0x3d4c7004	0.049911514
56	0x3aab3561	0.0013062173
57	0xbd810ebf	-0.06301641
58	0x3d240b70	0.04004997
59	0x3d429dca	0.04751376
60	0x3d819146	0.06326537
61	0x3c871454	0.016489185
62	0x3d0d9732	0.03456802
63	0xbd819947	-0.063280635
64	0x3ca4ba31	0.020108314
65	0xbd75bb7c	-0.059993252
66	0x3cfcf87f	0.03088021
67	0x3d589064	0.052872077
68	0x3d97048a	0.07373913
69	0xbd19e335	-0.037570197
70	0xbd6b192f	-0.057397064
71	0xbd60dd98	-0.05489883
72	0xbde8772c	-0.11350855
73	0xbd407b54	-0.046992615
74	0x3d535944	0.051598802
75	0xbad596fe	-0.001629561
76	0x3d829bb2	0.06377353
77	0x3d7cabfc	0.061687455
78	0x3a74c075	0.00093365397
79	0xbbf35535	-0.007425929
80	0x3d6ade2b	0.057340782
81	0x3d7950ba	0.060868002
82	0x3d7fed3f	0.062482115
83	0x3d1f9630	0.03896159
84	0x3b68a9a6	0.003550151
85	0xbbae6dc0	-0.005323142
86	0x3d228573	0.03967805
87	0x3cead9d1	0.028668316
88	0xbd5bc5df	-0.0536555
89	0xbc1a703a	-0.009426171
90	0x3cc6331f	0.024194298
91	0xbd8372f3	-0.06418409
92	0xbc9dfad4	-0.019284643
93	0xbd9dd807	-0.077072196
94	0x3ccddc19	0.025129365
95	0xbd0e73c1	-0.03477836
96	0xbd5b6b7d	-0.053569306
97	0x3cfa543f	0.03055775
98	0xbdca563f	-0.098797314
99	0x3d0cf947	0.034417417
100	0xbcb4c9f4	-0.022068955
101	0x3a62601a	0.0008635536
102	0x3cf6fc90	0.030149728
103	0x3d21cabe	0.03949999
104	0xbcbe764c	-0.023249768
105	0x3cea4784	0.028598554
106	0xbd8410d6	-0.06448524
107	0x3d61fbaf	0.055171665
108	0xbb3c22f8	-0.0028707366
109	0x3d8c1d6d	0.0684155
110	0x3cdc22d2	0.026872072
111	0xbcedddc9	-0.02903642
112	0xbd9e2e9d	-0.077237345
113	0x3da52032	0.080627814
114	0x3d51193f	0.051049467
115	0xbd0364e5	-0.032078642
116	0x3d584df1	0.052808706
117	0xbd6ffbc3	-0.058589708
118	0x3db693e6	0.08914928
119	0x3cda9369	0.026681619
120	0x3c8358a0	0.01603347
121	0x3cf22178	0.029556975
122	0x3c4a6b62	0.012354704
123	0x3d31ec6d	0.043438364
124	0x3c5ac842	0.013353409
125	0xbcd68c08	-0.026189819
126	0xbd24efe5	-0.040267844
127	0x3cfdd348	0.030984536
128	0xbd00ccb3	-0.031445216
129	0x3d3b7216	0.045763098
130	0xbd03e9e5	-0.03220548
131	0x3c8f5c74	0.01750014
132	0x3d66a1cf	0.056306656
133	0x3cfa20d7	0.030533237
134	0x3c57edfb	0.013179298
135	0xbd36e68d	-0.044653464
136	0x3c9372a6	0.017999005
137	0x3bc2a37d	0.0059398995
138	0xbbae37d2	-0.005316713
139	0xbc9f97b9	-0.019481527
140	0x3d9f6cd6	0.07784431
141	0x3ad72f94	0.0016417378
142	0xbd5d0062	-0.053955443
143	0xbcfcba6a	-0.030850608
144	0xbcde7145	-0.02715362
145	0x3d6d6f63	0.057967555
146	0x3c38cbc2	0.011279048
147	0xbb853463	-0.004065083
148	0xbd8aedfb	-0.067836724
149	0x3cfd2d5f	0.030905424
150	0x3d0b1ac1	0.03396106
151	0xbbe0f0d5	-0.006864647
152	0xbcf4238f	-0.029802112
153	0xbc90d316	-0.017678779
154	0xbd3581fc	-0.044313416
155	0x3c7bb351	0.015362577
156	0xbc255e50	-0.010093287
157	0x3d19a5d5	0.037511665
158	0x3d426b70	0.04746574
159	0x3b9d333c	0.0047973674
160	0xbccc0f72	-0.024909709
161	0xbc01ae20	-0.00791505
162	0xbde73750	-0.11289847
163	0x3d8cd0a1	0.0687573
164	0xbd1594c4	-0.036518827
165	0x3d67a5c0	0.056554556
166	0x3bcde010	0.006282814
167	0xbd8c05c4	-0.06837037
168	0x3c18b59e	0.009320645
169	0xbd19a435	-0.037510116
170	0x3c933faf	0.017974703
171	0x3c0a1765	0.008428429
172	0xbd162097	-0.036652174
173	0x3c4e8642	0.012605252
174	0x3d99ba90	0.07506287
175	0x3c370d09	0.011172541
176	0xbc020d7e	-0.007937787
177	0x3c89300e	0.016746547
178	0x3d037488	0.032093555
179	0x3d807600	0.06272507
180	0xbb7da6fb	-0.0038704264
181	0xbd07b532	-0.033131786
182	0xbbe4d800	-0.006983757
183	0xbd5b9e86	-0.053617977
184	0x3da7a472	0.08185662
185	0x3d699dc4	0.057035223
186	0x3cf83f22	0.030303542
187	0xbc57a9ea	-0.013163069
188	0x3d653e77	0.055967774
189	0x3c626519	0.013818049
190	0x3c18afc1	0.009319247
191	0x3dade01e	0.084900126
192	0xbcebaa54	-0.028767742
193	0xbc18e444	-0.0093317665
194	0xbb3eaa63	-0.0029093258
195	0xbc2bdb9d	-0.010489372
196	0x3d58c426	0.052921437
197	0x3d34ac54	0.044109657
198	0x3d1b3a1b	0.03789721
199	0xbce48033	-0.027893161
200	0xbc3a9040	-0.011386931
201	0x3d234ce7	0.03986826
202	0xbcb4c698	-0.022067353
203	0xbdb9248f	-0.09040176
204	0x3d90300b	0.070404135
205	0xbca8c927	-0.02060373
206	0xbc706dc0	-0.014674604
207	0x3ccbd263	0.024880594
208	0x3d950bcd	0.072776414
209	0x3d3e2fa0	0.046432137
210	0xbc303e2a	-0.010757009
211	0x3d22366a	0.039602675
212	0x3c0d6ed2	0.008632379
213	0x3d20772d	0.039176155
214	0xbd7defbc	-0.061996207
215	0x3d5ecbb9	0.054393504
216	0xbd1f088f	-0.03882652
217	0x38c97f90	9.608187e-05
218	0xbd8255c6	-0.06364016
219	0xbd2b7dc6	-0.041867994
220	0x3cd1dc7d	0.025617832
221	0x3db6278c	0.08894262
222	0xbd85a6f1	-0.06525982
223	0xbd2b9738	-0.04189226
224	0xbafb5da0	-0.0019177683
225	0x3cf55311	0.029946836
226	0x3d98d512	0.07462515
227	0x3d304654	0.04303582
228	0x3d108c42	0.03529001
229	0x3ca97bdf	0.02068895
230	0x3cdc4764	0.02688951
231	0xbd1c0671	-0.03809208
232	0xbd8761e8	-0.06610471
233	0xbd219573	-0.039449167
234	0xbd71d7aa	-0.059043564
235	0xbc2b785c	-0.010465708
236	0x3bb0c295	0.0053942897
237	0x3ccd4c51	0.025060805
238	0x3c94b27f	0.01815152
239	0xbd6abad8	-0.057307094
240	0x3c5e4d3f	0.013568222
241	0x3d0a6daf	0.03379601
242	0xbdc5c067	-0.096558385
243	0xbd0eea15	-0.034891207
244	0x3d31c203	0.043397915
245	0xbc53b71f	-0.012922077
246	0x3c1f7eab	0.00973479
247	0xbd4f3e74	-0.05059667
248	0x3dbbe7b7	0.091750555
249	0xbb9f70b7	-0.0048657316
250	0x3c1de994	0.009638209
251	0xbd0884d6	-0.033329807
252	0xbcb9c88d	-0.022678638
253	0xbcfe9d49	-0.031080859
254	0xba2f0c56	-0.00066775584
255	0xbce30864	-0.027713962

bias f4 [512]
0	0xbd3bf27d	-0.04588555
1	0x3cd98d3d	0.026556605
2	0xbc025e9c	-0.007957127
3	0xbdbec4cf	-0.09314882
4	0xbbd5b9ac	-0.006522378
5	0x3ca42ba4	0.02004034
6	0xbda3e653	-0.08002915
7	0x3d1941bb	0.0374162
8	0x3cb61be1	0.02223009
9	0xbd91e128	-0.07123023
10	0xbe502bbd	-0.20329185
11	0xbcb507d6	-0.022098463
12	0xbdc8859b	-0.09791108
13	0x3c8dda98	0.017316148
14	0xbd4f5c65	-0.050625224
15	0xbdb9c8ea	-0.090715244
16	0xbe355676	-0.17708763
17	0xbd88cb47	-0.06679397
18	0xbe3c7ee1	-0.18407775
19	0xbdc2d83a	-0.09513898
20	0xbd28aa0f	-0.041177806
21	0xbcfb7812	-0.030696902
22	0xbc0e8dff	-0.008700847
23	0xbdadf8c9	-0.08494718
24	0xbda3fabd	-0.08006809
25	0x3b269ddb	0.002542368
26	0xbe2f867a	-0.17141142
27	0xbced08c5	-0.028934846
28	0x3d024efb	0.031813603
29	0xbd067cae	-0.032833748
30	0xbd9c7589	-0.076396056
31	0xbe10cc91	-0.14140536
32	0xbdc1d045	-0.094635524
33	0xbbec29fc	-0.0072071534
34	0xbe48bf24	-0.19604164
35	0x3d63991f	0.05556595
36	0x3d82ebcf	0.06392633
37	0x3bd14efe	0.0063875904
38	0xbd973727	-0.07383566
39	0x3c527914	0.01284625
40	0xbca878bc	-0.020565383
41	0x3d6a6cd8	0.057232708
42	0xbca422dd	-0.020036155
43	0x3d718f3d	0.058974493
44	0x3c2e5e57	0.01064261
45	0x3cf907a0	0.030399144
46	0x3e05cf0d	0.13067265
47	0xbdd77584	-0.10520461
48	0x3d1401b2	0.03613443
49	0xbe0c769d	-0.13717122
50	0x3cd9d175	0.026589135
51	0xbdab4ab2	-0.083638564
52	0x3d431a15	0.047632296
53	0xbdee06ff	-0.11622428
54	0xbd5d58b2	-0.054039665
55	0xbc559c73	-0.013037789
56	0xbca62269	-0.02028008
57	0x3d27cd36	0.04096719
58	0xbc8ac279	-0.016938435
59	0xbda06f28	-0.07833701
60	0xbd6f7d0a	-0.058468856
61	0xbdf00447	-0.11719566
62	0xbdcf8282	-0.10132314
63	0x3aa3dc9e	0.0012501662
64	0x3dea32de	0.114354834
65	0xbe46e7ab	-0.19424312
66	0x3ca96ae2	0.020680849
67	0xbd22a82d	-0.039711166
68	0xbd1a8753	-0.03772671
69	0x3cab1cba	0.020887721
70	0x3dc4650a	0.09589584
71	0xbd7bdb06	-0.061488174
72	0xbd8bf2df	-0.06833433
73	0x3d9ea42e	0.077461585
74	0xbdc0f6ab	-0.09422048
75	0xbce61e83	-0.028090721
76	0x3d965a4e	0.07341443
77	0xbd1ee11e	-0.038788907
78	0xbe1ce88a	-0.15323082
79	0xbda6b09a	-0.08139153
80	0xbe1158cd	-0.14194031
81	0xbc102a42	-0.008799138
82	0xbdaf4d77	-0.08559697
83	0xbdd9ce97	-0.10635107
84	0xbda21e76	-0.07915966
85	0xbd9bfebb	-0.07616945
86	0xbc7cf87f	-0.015440105
87	0x3da4c564	0.08045462
88	0xbcf774b4	-0.030207016
89	0xbe11e3fb	-0.14247124
90	0xbdc1142c	-0.094276756
91	0xbc035bf5	-0.00801753
92	0xbdd44b9a	-0.10365982
93	0x3e034c48	0.12822068
94	0xbe4abd21	-0.1979871
95	0xbd794913	-0.060860705
96	0x3d4d9e28	0.050199658
97	0xbd60f5d8	-0.054921955
98	0x3cb9224c	0.022599362
99	0xbd415f17	-0.047209825
100	0xbd05e0a6	-0.032684945
101	0xbaf3773a	-0.0018574961
102	0x3e0ac7d6	0.13552794
103	0x3de762b6	0.112981245
104	0xbca19524	-0.019724436
105	0xbe0bff16	-0.13671526
106	0x3d917a49	0.07103402
107	0x3da83272	0.08212747
108	0xbc729e1f	-0.014808207
109	0xbdbd849c	-0.09253809
110	0xbca4ee24	-0.020133086
111	0xbdd90ab6	-0.10597746
112	0xbbf220c0	-0.007389158
113	0xbc4fedd6	-0.012690982
114	0xbbda73f8	-0.0066666566
115	0x3c528c76	0.012850871
116	0xbd604ffe	-0.054763786
117	0xbdb48ca8	-0.088158906
118	0x3d52d5b4	0.051473334
119	0x3d6a7dc9	0.057248864
120	0xbd71ce07	-0.059034374
121	0x3d27daef	0.040980276
122	0xbdf82c7e	-0.12117861
123	0x3d96c9a6	0.0736268
124	0xbe004986	-0.12528047
125	0x3be39120	0.0069447905
126	0xbd89d8c0	-0.06730795
127	0xbb94f459	-0.00454573
128	0x3d6050b9	0.054764483
129	0xbd9f72c8	-0.07785565
130	0xbddff289	-0.10934932
131	0xbc3fbc29	-0.011702576
132	0xbd6c3dd1	-0.05767614
133	0x3d015b5f	0.03158128
134	0x3cc0d4f1	0.023539038
135	0xbc8a95aa	-0.016917069
136	0xbda4f93a	-0.08055349
137	0xbdd30c62	-0.10305096
138	0x3aa290ca	0.001240277
139	0xbe14cfe4	-0.14532429
140	0x3d876926	0.06611852
141	0x3dab2fe3	0.08358743
142	0x3d845845	0.064621486
143	0xbde0ed9b	-0.1098282
144	0xbd032dbb	-0.032026034
145	0xbd479eb2	-0.048735328
146	0xbc8f91fc	-0.017525665
147	0xbad1dcac	-0.00160112
148	0xbe2a85e1	-0.16652633
149	0xbe2f0960	-0.1709342
150	0xbe04f1d7	-0.1298288
151	0x3d9b831e	0.07593368
152	0xbd83a765	-0.06428412
153	0xbca3a9d7	-0.019978447
154	0x3c4e4368	0.012589313
155	0xbbef6caa	-0.007306655
156	0xbd310dd3	-0.043226074
157	0xbc484354	-0.0122230835
158	0xbe0f36c0	-0.13985729
159	0xbca831f2	-0.020531628
160	0x3d31ecab	0.043438595
161	0xbc9d45d2	-0.019198332
162	0xbdcdd5ad	-0.10050521
163	0x3d28595e	0.041100852
164	0x3bb342cd	0.0054706098
165	0x3b1bc96a	0.0023771175
166	0x3c31bbfd	0.010848043
167	0xbdb81689	-0.08988673
168	0xbd51c9c3	-0.051217806
169	0x3e3c4ca7	0.18388616
170	0xbc0ed487	-0.008717663
171	0x3d498785	0.049201507
172	0xbdc75171	-0.097323306
173	0x3c37f930	0.0112288445
174	0x3bc6883a	0.00605872
175	0xbdd2a732	-0.10285796
176	0x3d3a7f21	0.045531396
177	0xbd0b08f2	-0.033944078
178	0xbdf4dd35	-0.119562544
179	0xbce66a71	-0.028126927
180	0xbe1db7c4	-0.15402132
181	0xbdbb524e	-0.09146558
182	0x3cd98a9b	0.02655535
183	0x3d82b0c9	0.06381375
184	0x3d311f41	0.043242697
185	0x3db31f1e	0.087461695
186	0xbe70cfe2	-0.23516801
187	0x3d5df037	0.054184165
188	0x3c80ff40	0.015746713
189	0x3cd1669c	0.025561623
190	0xbd5bbb3f	-0.05364537
191	0x3d972aad	0.07381187
192	0xbd8b9f1a	-0.068174556
193	0x3d0e87c1	0.034797434
194	0x3ca0d525	0.019632885
195	0x3d06a3f9	0.03287122
196	0x3d6ae7c3	0.05734993
197	0x3dba40d2	0.09094395
198	0xbd9deed2	-0.07711567
199	0xbe2aa83c	-0.16665739
200	0xbc814d27	-0.01578386
201	0xbdf584ef	-0.11988246
202	0x3c5d27d3	0.013498264
203	0x3d49768c	0.04918532
204	0xbe09b113	-0.13446455
205	0xbdc1ba91	-0.09459413
206	0xbb8ffe63	-0.004394339
207	0x3bfc30aa	0.007696231
208	0x3db30b3f	0.087423794
209	0xbd4047e7	-0.04694357
210	0xbce41b5d	-0.02784508
211	0xbd1b1504	-0.03786184
212	0xbdea6f3d	-0.11446998
213	0xbd95aa34	-0.07307854
214	0x3d201055	0.039078075
215	0xbcc2829d	-0.023743922
216	0xbdb109d2	-0.08644451
217	0xbbd239f0	-0.006415598
218	0xbdfcb90c	-0.123399824
219	0xbd592e25	-0.053022522
220	0x3db0d7fa	0.08634944
221	0xbd1e6eec	-0.038680002
222	0xbe0e56b9	-0.1390027
223	0xbd246fe9	-0.04014579
224	0xbdee9670	-0.116497874
225	0x3d753bb5	0.059871394
226	0x3dbcd0fa	0.092195466
227	0xbde49169	-0.11160547
228	0xbdd1d325	-0.10245351
229	0xbe0a0fd2	-0.13482597
230	0xbe123ec4	-0.14281756
231	0x3baf701d	0.005353941
232	0x3c7a8b5e	0.015292017
233	0x3cf3aefa	0.029746521
234	0x3d18b3b5	0.037280757
235	0xbd93f2f8	-0.07224077
236	0xbd8228e9	-0.06355459
237	0xbd80588b	-0.06266888
238	0x3d7f26f9	0.062293027
239	0xbbbfc278	-0.00585204
240	0x3df42d4d	0.11922703
241	0x3cdc6775	0.0269048
242	0x3be3f13e	0.0069562485
243	0x3c9af8f7	0.018917544
244	0x3cdab4ca	0.026697535
245	0xbddc4a5c	-0.107563704
246	0x3d3a1f59	0.04544005
247	0x3d55c1d0	0.052186787
248	0xbd7c8443	-0.061649572
249	0xbe1aa31e	-0.15101287
250	0xbdd94c21	-0.106102236
251	0xbd15502a	-0.036453404
252	0x3c67d714	0.0141504
253	0x3d1bdf01	0.03805447
254	0x3c5e8b1c	0.013582971
255	0x3d2a0a4c	0.041513726

weight f4 [128, 512]
0	0x3cf9ba89	0.030484455
1	0xbbe6ee59	-0.007047456
2	0x3d465043	0.048416387
3	0xbc94391a	-0.018093634
4	0xbd98e8f1	-0.07466305
5	0xbd182baa	-0.037151016
6	0x3d3e8437	0.04651281
7	0xbc70dcb8	-0.014701061
8	0x3cf709fa	0.030156124
9	0x3d291406	0.04127886
10	0x3d40897a	0.047006108
11	0x3b295524	0.0025838101
12	0x3d0a9639	0.03383467
13	0x3cf39f71	0.029739114
14	0x3d15fb04	0.03661634
15	0x3d5eaa09	0.054361377
16	0xbceab546	-0.028650891
17	0x3d218abf	0.03943896
18	0x3b29e461	0.0025923478
19	0x3cc66007	0.024215711
20	0xbd087c06	-0.033321403
21	0x3cdc6af1	0.026906462
22	0xbd35d6d0	-0.044394314
23	0x3d0d562e	0.034506015
24	0xbcbbc90f	-0.02292302
25	0xbd41cadb	-0.0473126
26	0x3d80a3ef	0.06281268
27	0xbcc3e31c	-0.023912005
28	0xbdd4b259	-0.103855796
29	0x3d3a3a42	0.045465715
30	0xbd660be9	-0.056163702
31	0x3d69719d	0.056993116
32	0x3b3939b8	0.0028263163
33	0xbcfab662	-0.030604545
34	0xbb471b32	-0.00303812
35	0xbbaeb08f	-0.005331106
36	0x3bb574ec	0.00553762
37	0xbd0a225c	-0.033724174
38	0xbba00175	-0.004882986
39	0x3c13438b	0.0089882715
40	0xbc983c67	-0.01858349
41	0x3c7aa128	0.015297212
42	0x3cae843c	0.021303289
43	0xbc61fecf	-0.013793661
44	0xbbeca214	-0.0072214697
45	0x3c3f392a	0.011671344
46	0xbd8d3493	-0.06894793
47	0xba672e06	-0.0008818809
48	0xbc189658	-0.0093131885
49	0xbc50ad9c	-0.012736704
50	0xbcb27366	-0.021783542
51	0xbc348577	-0.011018149
52	0xbd48ca08	-0.049020797
53	0x3bbd0dac	0.005769452
54	0x3d0a525f	0.03376996
55	0x3c1d4a73	0.00960027
56	0xbc811146	-0.015755307
57	0xbc3d8fc1	-0.011569918
58	0x3ce34065	0.027740667
59	0x3ccd58f3	0.025066828
60	0x3cbc9271	0.023019047
61	0x3d73df6d	0.059539247
62	0x3c0403c4	0.008057538
63	0xbc2dd28e	-0.010609282
64	0x3a24c3dd	0.00062852894
65	0x3cd35e40	0.025801778
66	0xbd12c79c	-0.035834894
67	0x3d3bab22	0.0458175
68	0x3d252e15	0.04032715
69	0x3a3864e1	0.0007034075
70	0x3cc73395	0.024316588
71	0xbc6f4baf	-0.014605447
72	0x3cad3b4b	0.021146437
73	0x3c5099cc	0.0127319805
74	0x3b98f947	0.004668388
75	0xbcc5a8bb	-0.024128309
76	0xbd2daa99	-0.042399023
77	0xbb986830	-0.004651092
78	0x3d7d653a	0.061864115
79	0x3c809808	0.015697494
80	0x3a3c8b59	0.0007192395
81	0x3d56856b	0.05237333
82	0xbab15b19	-0.0013531178
83	0xbcf1a55c	-0.029497795
84	0xbc54d2ef	-0.012989744
85	0x3bca09ba	0.0061657103
86	0xbc9d12bb	-0.01917397
87	0xbdbd1a7f	-0.09233569
88	0xbbb04893	-0.0053797453
89	0x3d963859	0.07334966
90	0x3d2276e0	0.03966415
91	0x3c2fd0a5	0.010730897
92	0x3c962bbb	0.0183314
93	0xbd985058	-0.07437199
94	0x3b844bbc	0.0040373486
95	0xbbb08bb2	-0.0053877467
96	0xbcc0532d	-0.023477161
97	0x3ced271e	0.028949317
98	0xbd4f2381	-0.05057097
99	0xbd847281	-0.064671524
100	0x3c83f92b	0.016110023
101	0xbca0c399	-0.019624518
102	0x3ccf59b8	0.025311336
103	0xbd8de515	-0.069284596
104	0xbcb198e9	-0.021679359
105	0x3c1d1fb6	0.00959008
106	0xbda347f7	-0.079727106
107	0xba253d38	-0.0006303373
108	0xbd48daa2	-0.04903663
109	0x3d04f7ce	0.032462887
110	0x3d46bec6	0.04852178
111	0x3d9a8179	0.07544226
112	0x3a8c3915	0.0010698164
113	0x3cdb67f8	0.026782975
114	0xbbba686e	-0.0056887185
115	0x3b256979	0.0025239869
116	0xbaddecc6	-0.0016931526
117	0x3d1a3ec2	0.037657507
118	0xbcd3c315	-0.025849858
119	0x3cdd0bf5	0.02698324
120	0xbd32de75	-0.043669183
121	0xbc752581	-0.014962555
122	0x3d175424	0.036945477
123	0xbe036d6e	-0.12834713
124	0x3d8981d3	0.06714215
125	0xbc65e8d8	-0.014032565
126	0xbd753f24	-0.05987467
127	0x3d072c90	0.033001482
128	0x3d825e7c	0.06365678
129	0x3c9c0587	0.019045604
130	0xbd8c520a	-0.06851585
131	0x3d3d06b5	0.046148974
132	0x3d0aaad5	0.033854324
133	0x3a0b5ed2	0.00053165585
134	0xbc269eb8	-0.010169677
135	0xbbc6f3f5	-0.0060715624
136	0x3cef1381	0.029184105
137	0xbcb36f0e	-0.021903541
138	0xbc5ef424	-0.013608012
139	0x3ce734ec	0.028223477
140	0x3d3da42f	0.046299156
141	0xbcc485f1	-0.02398965
142	0x3d544b3a	0.051829554
143	0x3d7a2733	0.06107254
144	0xbd1459c8	-0.036218435
145	0x3d4e4f70	0.050368726
146	0xbd1370e0	-0.035996318
147	0x3c679942	0.014135661
148	0x3bef6af2	0.00730645
149	0x3cce5a2e	0.025189485
150	0x3d75da89	0.060022864
151	0xbc523e41	-0.012832225
152	0x3a7d7303	0.0009668322
153	0xbd2b8ca8	-0.041882187
154	0xbd778038	-0.060425013
155	0xbd024716	-0.031806074
156	0xbd24057c	-0.040044293
157	0xb904f523	-0.00012679822
158	0x3d4a58d0	0.049401104
159	0x3c4960ec	0.012291174
160	0xbbb45cc4	-0.0055042226
161	0x3c1e4388	0.009659655
162	0xbc673d83	-0.014113787
163	0xbda0d366	-0.07852821
164	0x3caee9d2	0.021351729
165	0x3cf813c2	0.030282859
166	0xbcd400e4	-0.025879331
167	0xbc06b620	-0.008222133
168	0x3c02242d	0.007943195
169	0xbdaac4bf	-0.083383076
170	0x3d549c91	0.051907126
171	0xbd60ec0e	-0.05491262
172	0x3c72fc03	0.014830592
173	0x3d2a5183	0.041581642
174	0xbce1adbe	-0.027548667
175	0xbbf7d21d	-0.0075628893
176	0x3d17a372	0.037021108
177	0x3c82b7ca	0.015956778
178	0x3d0f7820	0.03502667
179	0xbc5f3e48	-0.013625689
180	0xbd1a2437	-0.037632193
181	0x3c841186	0.016121637
182	0xbd4fc96b	-0.050729197
183	0xbc289bd9	-0.010291063
184	0x3d0d139a	0.03444252
185	0xbc7ec422	-0.015549691
186	0x3d330f5d	0.043715823
187	0x3b44b507	0.0030015127
188	0x3c15c0b9	0.009140187
189	0x3c8eb22d	0.017418945
190	0xbb9b6e20	-0.0047433525
191	0x3cf007d1	0.029300602
192	0xbce2d768	-0.027690604
193	0xbcd063ca	-0.025438208
194	0x3c514b8b	0.0127743585
195	0x3cc51621	0.024058403
196	0xbd85ab37	-0.06526797
197	0xbd3543ba	-0.044254042
198	0x3c263244	0.01014382
199	0xbbb92ff1	-0.005651467
200	0xbd3634b0	-0.04448384
201	0x3d681a4a	0.056665696
202	0xba5f87bf	-0.00085270026
203	0xbd01cf52	-0.031691857
204	0x3b844c29	0.0040373993
205	0x3d89112b	0.06692728
206	0xbcf69afe	-0.030103203
207	0xbca3b5ce	-0.019984152
208	0xbd843b3e	-0.06456612
209	0xbcd7a729	-0.026324825
210	0x3ce4c68f	0.027926711
211	0xbb646628	-0.003485093
212	0xbc2ac709	-0.01042343
213	0xbca766de	-0.020434793
214	0xbd27585c	-0.04085575
215	0x3cbf9855	0.023388067
216	0x3bfb2573	0.0076643764
217	0xbbe1921e	-0.0068838736
218	0x3c4af282	0.01238692
219	0x3d9682dc	0.07349178
220	0xbcc56345	-0.024095187
221	0xbcb34956	-0.021885555
222	0x3d3e6dc0	0.046491385
223	0x3bf84956	0.0075771017
224	0x3d9693ca	0.07352407
225	0xbd5e4c9a	-0.05427227
226	0xbd3a7f5a	-0.04553161
227	0xbcdddd6f	-0.027083127
228	0x3cb8a701	0.022540571
229	0x3d623b66	0.055232428
230	0x3d13254a	0.035924233
231	0xbd158b66	-0.036509894
232	0xbc905d4b	-0.01762261
233	0x3cac9250	0.021065861
234	0x3cc86f5a	0.024467159
235	0x3cae8684	0.021304376
236	0x3cfcd3c4	0.030862696
237	0x3d1329fc	0.03592871
238	0xbbd5bc2a	-0.006522675
239	0x3c0e14e9	0.008671978
240	0xbd4fa5b4	-0.050695136
241	0x3c387bb7	0.011259965
242	0x3d64f405	0.055896778
243	0xbccd7fc6	-0.025085341
244	0x3c31a8fd	0.010843513
245	0x3d6337a6	0.055472992
246	0x3c84d8df	0.016216693
247	0xbd4c003c	-0.04980491
248	0x3d7ca4f6	0.061680757
249	0x3d101706	0.035178207
250	0x3ca1ea8d	0.019765163
251	0x3c21d5a3	0.009877595
252	0x3ab078fe	0.0013463793
253	0x3c3bf979	0.011473053
254	0xbd19d956	-0.037560783
255	0xba746406	-0.0009322766

bias f4 [128]
0	0xbd9834d3	-0.074319504
1	0xbd9e1a81	-0.07719899
2	0xbdc7fdcf	-0.09765207
3	0xbca382b3	-0.019959783
4	0xbbf136dc	-0.007361276
5	0xbd4498bd	-0.047997225
6	0x3d998a50	0.07497084
7	0x3d6ea908	0.05826667
8	0x3e035554	0.12825519
9	0xbdc34a4f	-0.095356576
10	0xbd90a4d9	-0.07062692
11	0x3e0ae1e3	0.13562731
12	0xbd479ad1	-0.04873163
13	0xbd72db41	-0.059291128
14	0xbdf36f4f	-0.11886465
15	0x3b0fb9ec	0.0021930886
16	0xbd28e3cb	-0.041232865
17	0x3d51fe24	0.051267758
18	0xbc9b8a1b	-0.018986752
19	0xbdee6f97	-0.11642378
20	0x3cf690b1	0.030098291
21	0xbd6510ff	-0.055924412
22	0xbd78ef35	-0.060775
23	0x3da19ed5	0.07891623
24	0xbd8f92bc	-0.07010409
25	0xbd52e452	-0.051487274
26	0xbdd2d9ce	-0.10295449
27	0x3d6f9c57	0.058498707
28	0x3d28be83	0.04119731
29	0x3a895e2e	0.0010480338
30	0xbbcba674	-0.006214911
31	0x3d1e823d	0.038698424
32	0x3b49fe63	0.0030821792
33	0xbd206527	-0.039158966
34	0xbcc003fc	-0.0234394
35	0xbd851810	-0.0649873
36	0xbce12358	-0.027482674
37	0xbd8e2d6d	-0.06942258
38	0x3d27a64f	0.04093009
39	0xbcd00237	-0.025391681
40	0xbdb41f81	-0.087950714
41	0xbd7e109d	-0.062027562
42	0x3d277858	0.040886253
43	0xbd86a5b3	-0.06574573
44	0x3cca96aa	0.024730045
45	0x3dcf0941	0.10109187
46	0x3d8a0a11	0.06740201
47	0xbd00c1bb	-0.031434756
48	0xbd82c70b	-0.06385621
49	0x3d946794	0.072463185
50	0xbc8930a6	-0.01674683
51	0xbb7b8de8	-0.0038384143
52	0x3d09693e	0.033547632
53	0x3d664a3d	0.056223143
54	0xbce4cf83	-0.02793098
55	0xbcd19f1f	-0.02558857
56	0x3d00ba2e	0.031427555
57	0xbcc44ee6	-0.023963403
58	0xbd1baf6c	-0.038009092
59	0xbd70d7e7	-0.05879965
60	0x3e29fcb5	0.16600306
61	0xbc9813d4	-0.018564142
62	0xbc9c3ed6	-0.019072931
63	0xbd43453b	-0.047673445
64	0x3d4afc33	0.049556922
65	0xbceca1c2	-0.028885726
66	0xbd7d07c5	-0.061774988
67	0x3d5fd741	0.05464864
68	0xbd17db6f	-0.037074503
69	0xbc595f23	-0.013267311
70	0xbd8af0fc	-0.06784245
71	0xb8218b47	-3.8515103e-05
72	0x3d67af5d	0.056563724
73	0x3d0b9144	0.034074083
74	0x3d94593b	0.07243582
75	0xbb256c24	-0.0025241459
76	0xbdc2d621	-0.09513498
77	0x3d62e134	0.05539055
78	0x3c629455	0.01382931
79	0x3d1fc644	0.03900744
80	0x3d53fe0a	0.051755942
81	0xbc9a5019	-0.018837022
82	0xbc1d5346	-0.0096023735
83	0xbcfdeca0	-0.03099662
84	0xbd8785ae	-0.06617294
85	0xbcf89044	-0.030342229
86	0xbc99e9c5	-0.018788228
87	0xbd8c6004	-0.06854251
88	0x3d4b0bfa	0.04957197
89	0xbcb8a5b0	-0.022539943
90	0x3cc66d43	0.024222022
91	0xbd98bcae	-0.07457863
92	0xbcc92d61	-0.024557771
93	0xbdc9cf70	-0.09854019
94	0xb93d9e32	-0.00018083377
95	0x3d3e9b5b	0.046534877
96	0x3c3caaff	0.011515378
97	0xbbf896b4	-0.0075863246
98	0x3de347ee	0.11097704
99	0x3cf15f22	0.029464308
100	0xbcbad33b	-0.0228058
101	0xbd01a51e	-0.03165161
102	0xbd354d3d	-0.044263113
103	0xbdd95b1a	-0.10613079
104	0x3d325927	0.043542054
105	0x3d5f4b7b	0.054515343
106	0xbc24016a	-0.010010103
107	0xbce1ee6d	-0.02757951
108	0xbd8ab408	-0.067726195
109	0xbd1d23da	-0.03836427
110	0xbd6275c2	-0.055288084
111	0x3d546952	0.051858254
112	0xbd829f74	-0.063780695
113	0x3ba7bb2e	0.005118749
114	0xbd8e21d0	-0.06940043
115	0xbd11e550	-0.03561908
116	0xbdcd206e	-0.10015951
117	0xbd1cccc7	-0.03828123
118	0xbcf0e59b	-0.02940636
119	0xbbe42b1d	-0.0069631473
120	0x3c088f78	0.008334987
121	0xbd56a379	-0.052401993
122	0xbc72546e	-0.014790637
123	0x3d204eb4	0.039137557
124	0xbdd6b2bb	-0.10483309
125	0xbca8ceed	-0.020606482
126	0x3d16499d	0.036691297
127	0x3da6ff43	0.08154156
