result/aug_20_model_24.pt (torch, 934120 bytes, 9 tensors)

weight f4 [128, 13]
0	0x3e7cb117	0.2467693
1	0xbe568170	-0.20947814
2	0x3e861614	0.2618872
3	0xbb8b10ec	-0.0042439606
4	0x3e992a7a	0.2991522
5	0x3e91fde0	0.28514004
6	0xbd696dfe	-0.056989662
7	0x3e0bac98	0.13640058
8	0x3e7dba7b	0.24778168
9	0xbdfd5d64	-0.123713285
10	0x39b1aaa4	0.00033887208
11	0xbe1fbd9d	-0.15599675
12	0xbe0f6f01	-0.14007188
13	0x3dbd2cfb	0.09237095
14	0x3e793350	0.2433598
15	0xbe23a7e2	-0.15982011
16	0x3ea32caa	0.31870013
17	0x3ea80d66	0.32822722
18	0xbe849dd6	-0.2590167
19	0xbd2bef39	-0.041976187
20	0x3e1035a7	0.14082967
21	0x3e474597	0.1946014
22	0x3ebe2dd6	0.37144345
23	0x3f145ece	0.5795716
24	0x3e2e5548	0.1702472
25	0xbdd37462	-0.10324933
26	0x3d6d26d6	0.057898365
27	0xbe42ba7a	-0.19016448
28	0xbe00591b	-0.12533991
29	0xbe3333d5	-0.17500241
30	0xbe9d3067	-0.3070099
31	0xbe8b9edf	-0.27269647
32	0x3e8a5f6b	0.27025923
33	0xbe70053f	-0.23439501
34	0x3e094e01	0.13408662
35	0x3e2bdcd3	0.16783457
36	0xbd37ff7d	-0.044921387
37	0x3d9ec852	0.07753052
38	0xbe8aa7e0	-0.27081203
39	0xbdc08b04	-0.09401515
40	0xbd145a8a	-0.036219157
41	0xbd5d5ec3	-0.05404545
42	0x3e39f91b	0.18161432
43	0x3e0b1d69	0.13585438
44	0x3e9d4749	0.3071845
45	0x3c0c6371	0.008568631
46	0xbd9417f0	-0.07231128
47	0xbe89b5e0	-0.26896572
48	0x3ebda2da	0.37038308
49	0x3e833302	0.25624853
50	0xbd250f47	-0.040297773
51	0xbdb09bc2	-0.086234584
52	0x3e144b5f	0.14481877
53	0x3ece4993	0.40290508
54	0x3d97aaba	0.074056104
55	0x3e881093	0.26575145
56	0x3e957f5e	0.29198736
57	0x3d8280b3	0.06372204
58	0xbdcf5e80	-0.10125446
59	0xbeb9cbcb	-0.36288294
60	0xbeb770e1	-0.35828307
61	0xbed55778	-0.41668296
62	0x3e9d7354	0.3075205
63	0xbe4a3c54	-0.19749576
64	0xbd3ee4d5	-0.04660495
65	0x3e7177ff	0.23580931
66	0x3e70ec52	0.23527649
67	0xbdc705e0	-0.097179174
68	0x3ddbb088	0.1072703
69	0xbe285fa2	-0.16442731
70	0xbda5d53d	-0.080973126
71	0x3e2a6aa6	0.16642246
72	0xbe4ef390	-0.20210099
73	0xbe3ff4c4	-0.18745714
74	0x3e97f67c	0.2968024
75	0x3e99e55e	0.30057806
76	0xbe13dc47	-0.14439498
77	0xbe169848	-0.14706528
78	0x3d8cec8a	0.06881054
79	0x3e4bd666	0.19906005
80	0xbdbf0cc9	-0.093286105
81	0x3da3e057	0.08001774
82	0xbdd43532	-0.10361709
83	0x3e4fd233	0.20295028
84	0x3cfc2824	0.03078086
85	0xbea3ce14	-0.31993163
86	0xbdaafb32	-0.08348693
87	0xbed6de28	-0.41966367
88	0x3e080574	0.1328333
89	0xbe3cc5b0	-0.18434787
90	0xbd68ac59	-0.05680499
91	0xbdea4b12	-0.114401
92	0x3e5b85c9	0.21437754
93	0x3e3a2015	0.18176301
94	0x3e491153	0.19635515
95	0xbe818f9d	-0.2530488
96	0xbd3c0e09	-0.045911822
97	0x3d9d65e8	0.07685453
98	0xbea849f3	-0.3286892
99	0x3e1607fe	0.14651486
100	0x3e3655bf	0.17806147
101	0xbeb6cf75	-0.35705152
102	0xbe71ac19	-0.23600806
103	0xbe8e8ba3	-0.2784091
104	0x3e41c9f1	0.18924691
105	0x3deadd6f	0.11468016
106	0xbe90bc2a	-0.28268558
107	0x3ea976cd	0.3309845
108	0xbe50f473	-0.2040575
109	0xbdec17de	-0.1152799
110	0xbda71738	-0.081587255
111	0xbde7d2a0	-0.113194704
112	0x3e049136	0.12946019
113	0xbdedbdc3	-0.1160846
114	0x3e52ae90	0.20574403
115	0xbe04f738	-0.12984931
116	0xbe1d07fb	-0.15335076
117	0xbe2e19e7	-0.17002068
118	0x3e8d42f7	0.27590153
119	0xbe3fdb96	-0.18736109
120	0xbe73c2bc	-0.23804754
121	0xbd8f6dec	-0.07003388
122	0xbe473721	-0.19454624
123	0x3d45b205	0.048265476
124	0x3e058528	0.13039076
125	0x3eba2aad	0.36360684
126	0xbd9af2d1	-0.07565845
127	0x3e933e0d	0.28758278
128	0xbd6b82a3	-0.05749763
129	0x3dc2a220	0.09503579
130	0x3e82e7b1	0.25567392
131	0xbea912d0	-0.33022165
132	0xbe8bd768	-0.2731278
133	0x3eb7d955	0.35908
134	0xbcced30a	-0.025247116
135	0x3d8baeb0	0.06820428
136	0xbe19ff26	-0.15038738
137	0xbd1ff37c	-0.039050564
138	0xbe664415	-0.22486909
139	0x3e661ac6	0.22471151
140	0xbe2d9f9e	-0.1695542
141	0xbe1d08b4	-0.15335351
142	0xbe2ca908	-0.16861355
143	0x3e8a5020	0.27014256
144	0xbeb6deba	-0.35716802
145	0xbe0d5137	-0.13800512
146	0x3ed02e78	0.40660453
147	0xbdb647a8	-0.08900386
148	0xbde28147	-0.11059814
149	0xbe2ad82d	-0.16684027
150	0xbe975ad5	-0.29561487
151	0xbdce024b	-0.10059031
152	0x3e943220	0.28944492
153	0x3e5a8118	0.21338308
154	0x3e0dd855	0.13852055
155	0xbe5d7625	-0.216271
156	0xbce22987	-0.027607692
157	0xbde40b62	-0.111349836
158	0xbc8972aa	-0.016778309
159	0xbdaf29ee	-0.08552919
160	0x3e346186	0.17615327
161	0xbca0a13d	-0.019608134
162	0xbe82d6e8	-0.25554585
163	0x3c81187d	0.015758747
164	0xbe6992e8	-0.22809947
165	0x3ed37e22	0.4130717
166	0x3d272e9d	0.04081594
167	0x3d44e55c	0.048070297
168	0x3de67035	0.112518705
169	0x3aafcf17	0.0013413158
170	0x3ce3cab2	0.027806614
171	0xbc8dc09c	-0.017303757
172	0x3d988486	0.07447152
173	0x3e898592	0.2685972
174	0x3c47019d	0.012146381
175	0x3d83bedb	0.06432887
176	0x3e39e5b7	0.18154036
177	0xbe31937d	-0.17341419
178	0xbea7a97c	-0.32746494
179	0xbde93525	-0.1138709
180	0xbd7a549d	-0.06111585
181	0xbdf3ee66	-0.11910705
182	0xbd2161fd	-0.03940009
183	0x3d1802cc	0.037112042
184	0x3e8cc35d	0.274928
185	0x3e789708	0.24276364
186	0x3dd1cdf6	0.10244362
187	0xbddf95fc	-0.10917279
188	0xbdb8cdc5	-0.090236224
189	0xbe88a7ed	-0.26690617
190	0xbe93274a	-0.28740913
191	0xbe349052	-0.17633179
192	0xbece5935	-0.40302435
193	0xbd3ad23c	-0.04561065
194	0x3d31b502	0.043385513
195	0x3a308381	0.0006733463
196	0x3ec832e6	0.39101332
197	0x3e8f24f5	0.27957883
198	0x3e82f744	0.25579274
199	0x3dde6b97	0.10860365
200	0xbeafede1	-0.34361175
201	0x3dd113f8	0.10208887
202	0x3e082aee	0.13297626
203	0x3dba2bf0	0.09090412
204	0xbe9ec257	-0.31007645
205	0x3eb91fd2	0.3615709
206	0xbe23843f	-0.15968417
207	0x3d1f0ae2	0.038828738
208	0x3d8ef30a	0.0697995
209	0xbd990558	-0.07471722
210	0x3e8e7824	0.27826035
211	0x3be38e3f	0.0069444473
212	0x3e8d8352	0.27639252
213	0xbd838b53	-0.06423058
214	0x3e511bf9	0.20420827
215	0xbce2e6ca	-0.02769794
216	0xbd659ae1	-0.056055907
217	0x3eae9033	0.3409439
218	0xbe43a00e	-0.19104025
219	0x3d2f5fde	0.042816035
220	0xbead1c48	-0.3381064
221	0xbd1d80b5	-0.038452823
222	0xbe8822f2	-0.2658916
223	0xbdec008d	-0.115235426
224	0x3ba24f52	0.0049533034
225	0xbe1bbc55	-0.15208562
226	0xbcc71db5	-0.024306158
227	0xbdced712	-0.10099615
228	0xbca7aafd	-0.020467276
229	0x3e0132c3	0.1261702
230	0x3e26198e	0.16220686
231	0xbe3ed195	-0.18634637
232	0x3dfadd28	0.122492135
233	0xbe8b303f	-0.27185246
234	0x3e47d21f	0.19513749
235	0x3e0c58a1	0.13705684
236	0x3d583de3	0.052793395
237	0xbe58879c	-0.21145481
238	0xbe792878	-0.24331844
239	0xbe2dc4f5	-0.16969664
240	0x3e80cbb1	0.25155404
241	0x3e2bfeed	0.16796465
242	0x3e646bd0	0.22306752
243	0x3e27f369	0.16401447
244	0x3e0a154b	0.13484685
245	0x3e391905	0.1807595
246	0x3df74de7	0.120754056
247	0x3e01ab59	0.1266302
248	0x3d4a636b	0.04941122
249	0x3e66944d	0.2251751
250	0x3e6df139	0.2323655
251	0x3b1719df	0.0023056192
252	0x3dfbc6e1	0.122937925
253	0x3e679746	0.226163
254	0x3e76b1a1	0.24091198
255	0xbe6fb924	-0.2341047

bias f4 [128]
0	0x3e9b2ca1	0.30307487
1	0x3da32278	0.07965559
2	0x3eb0723d	0.34462157
3	0x3ead8efe	0.33898157
4	0xbe1e1864	-0.15438992
5	0xbccf9965	-0.025341699
6	0xbe677cd4	-0.22606212
7	0xbe135914	-0.1438945
8	0xbd07e1a8	-0.033174187
9	0x3e1088ff	0.1411476
10	0x3e1271a2	0.1430116
11	0xbdcc5a64	-0.09978178
12	0x3eaab403	0.33340463
13	0xbe810f54	-0.25207007
14	0xbe30a645	-0.17250927
15	0x3d3ac936	0.045602046
16	0xbd49eb66	-0.04929676
17	0xbd02f48f	-0.03197151
18	0x3e156105	0.14587791
19	0xbe0f60b7	-0.14001738
20	0xbdc4ac6c	-0.09603199
21	0xbe8aed39	-0.27134112
22	0xbcf8a153	-0.030350363
23	0xbe578175	-0.21045478
24	0x3e64068e	0.22268125
25	0xbe0444f8	-0.12916934
26	0x3dedd5ac	0.1161302
27	0xbe3687be	-0.17825219
28	0xbe2c89a2	-0.16849378
29	0xbe24aecc	-0.16082305
30	0xbe2ac3ac	-0.16676205
31	0xbc854d87	-0.01627232
32	0x3e42c971	0.19022156
33	0xbe3e3917	-0.18576466
34	0x3dd632c4	0.104589015
35	0xbe217d4d	-0.15770455
36	0x3e13a80c	0.14419574
37	0xbc9c6985	-0.019093284
38	0x3c910316	0.017701667
39	0xbe621b0e	-0.22080633
40	0xbe81a5a7	-0.25321695
41	0xbdc72198	-0.097232044
42	0x3e125d6b	0.14293449
43	0xbeac5020	-0.3365488
44	0x3e8c298c	0.27375448
45	0x3e8a0bab	0.26962027
46	0x3e81cc35	0.2535111
47	0x3e0ef7ce	0.13961717
48	0x3e2fae38	0.17156303
49	0xbc7a4db1	-0.015277312
50	0xbe1aa012	-0.15100124
51	0x3ea59bf1	0.32345536
52	0x3dd27b68	0.10277444
53	0x3db1e49d	0.08686183
54	0x3dee229a	0.116276935
55	0x3e6f4963	0.23367839
56	0x3e8036ba	0.25041753
57	0x3db65bd8	0.089042366
58	0x3d8680a6	0.065675065
59	0xbdc2ea0c	-0.09517297
60	0x3e5e20b8	0.21692169
61	0x3eac037a	0.33596402
62	0xbe7811ec	-0.24225587
63	0xbe399b31	-0.18125607
64	0xbcd12ce7	-0.025534106
65	0xbe0d72ec	-0.1381337
66	0xbe381513	-0.17976789
67	0xbd629896	-0.0553213
68	0xbe1d768c	-0.15377253
69	0x3e5a7bb0	0.21336246
70	0xbd704b21	-0.0586654
71	0xbd48e30d	-0.049044657
72	0x3d0a7982	0.033807285
73	0xbe433f5d	-0.1906714
74	0xbcf1f903	-0.029537683
75	0xbe16f120	-0.1474042
76	0xbe8d6ad1	-0.27620557
77	0x3defec62	0.11715008
78	0x3d1bc18c	0.038026378
79	0xbdca18ef	-0.09868037
80	0x3db00ed6	0.0859658
81	0xbeec0e53	-0.4610468
82	0xbd3bab85	-0.04581787
83	0x3e38b28f	0.18036865
84	0x3de15ca8	0.11004001
85	0x3e3970b9	0.18109407
86	0x3e129e38	0.14318168
87	0x3e8bbf61	0.27294448
88	0xbe854f1d	-0.2603692
89	0x3cc0326f	0.023461549
90	0xbe376f6f	-0.17913602
91	0xbe4e7f2c	-0.201657
92	0x3e719cbd	0.23594947
93	0xbe5ea81b	-0.21743815
94	0x3dcc1bd9	0.09966249
95	0xbe4cde32	-0.20006636
96	0x3e884cfc	0.26621234
97	0x3e1facb4	0.15593225
98	0x3bb355de	0.0054728827
99	0xbb814f18	-0.0039461963
100	0xbdcf3cea	-0.1011904
101	0xbd6607ca	-0.056159772
102	0x3e9d12dc	0.3067845
103	0x3e3ada6b	0.18247382
104	0x3d5de75a	0.054175712
105	0xbd95fb7f	-0.0732336
106	0xbd198c13	-0.0374871
107	0x3e4f9d29	0.20274796
108	0x3d059406	0.03261187
109	0x3e3ede7e	0.18639562
110	0xbd27bb8b	-0.04095034
111	0xbe953040	-0.29138374
112	0x3e3a6021	0.18200733
113	0x3e085cbd	0.13316627
114	0xbe32a818	-0.17446935
115	0xbd0d1769	-0.034446154
116	0xbcc4d22d	-0.024026
117	0x3e7f0cfb	0.24907295
118	0x3e429e00	0.19005585
119	0xbe89250e	-0.26786083
120	0x3e0e1b65	0.13877638
121	0xbe83f47d	-0.25772467
122	0xbdbd39e0	-0.092395544
123	0x3e54d219	0.20783271
124	0x3e180a8a	0.1484777
125	0x3dd3e8e0	0.10347152
126	0xbdd80764	-0.10548285
127	0xbe391b49	-0.18076815

weight f4 [256, 128]
0	0xbe061c6a	-0.13096777
1	0xbd01fd2c	-0.031735584
2	0xbdbb2376	-0.09137623
3	0xbd68ce72	-0.056837507
4	0x3b6c1c88	0.0036027748
5	0x3db34a4a	0.08754404
6	0xbbdc91ae	-0.0067312336
7	0xbcb7645f	-0.022386728
8	0xbc161e29	-0.009162464
9	0x3c7e1291	0.015507356
10	0xbcd1d8ae	-0.025616016
11	0xbd4824ec	-0.048863336
12	0xbc6f7f04	-0.014617685
13	0x3cc3f882	0.023922209
14	0xbd06222d	-0.032747436
15	0xbd173852	-0.036918946
16	0xbd8d7087	-0.069062285
17	0x3b1d92b5	0.0024043743
18	0x3d026ee5	0.03184404
19	0x3d920720	0.07130265
20	0xbc2a3e39	-0.010390812
21	0x3da42227	0.080143265
22	0xbdaaed04	-0.083459884
23	0xbd2345ba	-0.03986142
24	0x3c843092	0.016136441
25	0xbcc51b39	-0.024060832
26	0x3dd26f8c	0.10275182
27	0xbcc1588f	-0.023601798
28	0xbca97444	-0.020685323
29	0xbd71ff57	-0.0590814
30	0xbd8da83e	-0.06916855
31	0xbd231a41	-0.03981996
32	0xbe1bbf3e	-0.15209672
33	0xbcb2e506	-0.021837723
34	0x3dc77f91	0.09741128
35	0xbd0f451a	-0.03497801
36	0xbcf40039	-0.029785262
37	0x3dd1daa1	0.10246778
38	0xbcd71987	-0.02625729
39	0x3e083e61	0.13305046
40	0x3cc71b37	0.02430497
41	0x3b26c902	0.00254494
42	0x3d6c7ec6	0.057738088
43	0xbd5cca61	-0.05390394
44	0x3d33952d	0.043843437
45	0xbdb6be59	-0.08923025
46	0x3d49725e	0.049181335
47	0xbd94a9b8	-0.07258934
48	0x3da4baa1	0.08043409
49	0xbd2c6c30	-0.042095363
50	0x3e08f08a	0.13373008
51	0x3d0f7cd6	0.035031162
52	0xbd2dfd49	-0.04247788
53	0x3d99ef51	0.07516349
54	0xbd37f953	-0.04491551
55	0xbdab7286	-0.08371453
56	0x3d719892	0.058983393
57	0xbc9f9378	-0.019479498
58	0x3dd81d80	0.10552502
59	0xbd9c075f	-0.076185934
60	0x3cdf724d	0.027276183
61	0x3bb6eaa9	0.005582173
62	0x3da07f5a	0.078367904
63	0x3d2712f9	0.040789578
64	0xbd776c92	-0.060406275
65	0xbd8a0315	-0.06738869
66	0xbce7a9d2	-0.028279219
67	0x3da18d0c	0.07888231
68	0x3db0a809	0.086258
69	0x3d11dcf2	0.0356111
70	0x3d0f3291	0.034960333
71	0x3d23932d	0.03993528
72	0xbc5a3ceb	-0.013320188
73	0x3d88dda4	0.066828996
74	0xbcd58733	-0.026065445
75	0xbd3ec60f	-0.046575602
76	0xbd0442d1	-0.032290284
77	0x3c1d6d0d	0.009608519
78	0xbd0dddf3	-0.034635495
79	0xbd1e508d	-0.038651038
80	0x3b6fa7b2	0.003656846
81	0x3cd3b793	0.025844371
82	0xbd4e0ee9	-0.05030719
83	0xbc07c59e	-0.008286862
84	0xbd7578a4	-0.059929505
85	0x3bb0d6a0	0.005396679
86	0x3ced739c	0.02898579
87	0xbbb6d231	-0.005579256
88	0xbc6513a1	-0.013981731
89	0x3d944180	0.07239056
90	0xbd38458d	-0.044988204
91	0xbc83f12f	-0.016106216
92	0x3b6b4a9c	0.0035902625
93	0x3d3a6734	0.04550858
94	0xbd981d94	-0.074275166
95	0x3d780551	0.060551945
96	0x3ce166bf	0.027514813
97	0x3d74ea6c	0.059793875
98	0xbd8c7f14	-0.06860176
99	0x3d81212e	0.06305157
100	0x3d1ae99a	0.037820436
101	0x3d81a5de	0.06330465
102	0x3c94448d	0.018099094
103	0x3c26bd8e	0.010177029
104	0x3d9de1ec	0.07709107
105	0x3c8779e3	0.016537612
106	0xbcd8acd9	-0.026449608
107	0xbd72855c	-0.059209213
108	0x3de5611c	0.11200163
109	0x3d721539	0.05910227
110	0xbdcd9687	-0.100384764
111	0xbd7bb565	-0.06145229
112	0xbcabdec2	-0.020980243
113	0xbdb59950	-0.08867133
114	0xbc4f95a2	-0.012669953
115	0xbcf3cc31	-0.029760452
116	0xbd85a231	-0.06525076
117	0x3da8064f	0.08204328
118	0xbc123682	-0.0089241285
119	0x3d97bb18	0.07408732
120	0xbdb622e1	-0.088933714
121	0x3dc3838e	0.095465764
122	0xbdae3ef2	-0.085080996
123	0x3d45edab	0.04832236
124	0xbdeced58	-0.11568707
125	0x3abdfe46	0.0014495335
126	0xbdb16272	-0.08661355
127	0xbc4345fd	-0.011918542
128	0xbde3d320	-0.11124253
129	0xbd8842e1	-0.06653381
130	0x3cb94f6c	0.02262088
131	0xbdb44fe2	-0.08804299
132	0xbdc5a1ae	-0.096499786
133	0xbb86bae6	-0.0041116355
134	0xbd5ecb8e	-0.054393344
135	0x3d0a9896	0.033836924
136	0xbd32aa18	-0.043619245
137	0x3bc57f7b	0.0060271597
138	0x3d04d301	0.03242779
139	0xbcd72ba8	-0.026265934
140	0xbd9c56da	-0.07633753
141	0x3baf6f9c	0.005353881
142	0xba6fed66	-0.00091525016
143	0x3d994051	0.074829705
144	0xbd8a785c	-0.06761238
145	0x3d58884b	0.052864354
146	0xbcf0529e	-0.02933627
147	0x3d9e41d8	0.077274024
148	0xbe120cdd	-0.1426272
149	0xbd869541	-0.06571437
150	0x3b8c4dbb	0.004281727
151	0xbcd54ac5	-0.02603663
152	0x3d43a273	0.047762346
153	0xbd359858	-0.04433474
154	0xbce40c52	-0.027837906
155	0xbd30e0d3	-0.04318316
156	0xbcfd4d47	-0.030920638
157	0x3d7478c8	0.0596855
158	0xbd584123	-0.052796494
159	0x3d7bf465	0.06151237
160	0xbe29578b	-0.16537301
161	0xbcaa7cfe	-0.020811554
162	0xbdde9bed	-0.10869584
163	0x3da3b341	0.07993174
164	0xbab5e2f6	-0.0013876844
165	0x3d02a124	0.031891957
166	0xbe1d4cb4	-0.15361291
167	0xbbc6af0d	-0.006063348
168	0xbdae2ad7	-0.08504265
169	0x3c34cc3b	0.01103502
170	0xbdad1dda	-0.08452959
171	0x3d9643ca	0.073371485
172	0xb9991ed5	-0.00029205406
173	0xbded56bd	-0.1158881
174	0x37f3ec4e	2.9077895e-05
175	0x3b39a573	0.0028327375
176	0x3bce7b02	0.006301285
177	0xbd1177ee	-0.035514764
178	0xbd7805c7	-0.060552385
179	0x3cece82b	0.0289193
180	0x3c2387ba	0.00998109
181	0xbd9fe77d	-0.07807825
182	0x3dcf3182	0.10116865
183	0xbd71555e	-0.058919303
184	0x3c0656eb	0.008199434
185	0xbc1af164	-0.009456966
186	0xbd9bcc40	-0.07607317
187	0xbd93aeb5	-0.07211057
188	0x3d267ec3	0.040648233
189	0xbdaba3cb	-0.083808504
190	0x3dfb6586	0.122752234
191	0xbd27ce11	-0.040968005
192	0x3cde6735	0.027148822
193	0xbd52a84f	-0.051430043
194	0x3d846389	0.06464297
195	0x3d603471	0.054737512
196	0xbd8a7373	-0.067603014
197	0x3d55e87d	0.05222367
198	0x3db039b2	0.086047545
199	0xbd87fd9b	-0.06640168
200	0x3c5833a7	0.013195909
201	0x3c7d6b02	0.015467407
202	0xbcf57127	-0.029961182
203	0xbd7fb9fe	-0.062433235
204	0xbd41dd61	-0.047330264
205	0xbcd3822d	-0.025818909
206	0x3d14fe5a	0.03637538
207	0xbdb1dfeb	-0.08685287
208	0x3dae0bf0	0.08498371
209	0x3d8155dd	0.06315205
210	0x3c5fa44c	0.013650011
211	0x3cda8b18	0.026677653
212	0x3cae026c	0.02124139
213	0x3dc8ec0f	0.098106496
214	0x3cb9aa8d	0.022664333
215	0xbda7810e	-0.08178912
216	0x3cd0d22d	0.025490845
217	0x3c7f548e	0.015584124
218	0xbdef8c65	-0.116967
219	0xbcd27646	-0.025691163
220	0xbcad741b	-0.021173527
221	0x3d950cdb	0.072778426
222	0x3e04fccd	0.12987061
223	0x3cc79784	0.02436424
224	0x3d84f3b7	0.064917974
225	0x3d804baf	0.062644355
226	0xbdcffe5a	-0.101559356
227	0x3d996457	0.074898414
228	0x3d550c8b	0.052013915
229	0x3cd9f6ad	0.026606882
230	0xbd37d223	-0.044878136
231	0xbd557596	-0.05211409
232	0xbd488922	-0.048958905
233	0x3e0f7c5d	0.14012285
234	0xbb62aa8a	-0.0034586512
235	0xbdd667cd	-0.10469017
236	0x3d40dedf	0.047087546
237	0xbd9f97ac	-0.07792601
238	0xbe0716d3	-0.131923
239	0x3d2456f3	0.040121984
240	0xbcaa6534	-0.02080021
241	0x3c37921d	0.01120427
242	0x3cd56767	0.026050283
243	0x3ddaa41d	0.106758334
244	0xbcef5087	-0.029213203
245	0x3e0d47d6	0.13796934
246	0xbd387357	-0.04503187
247	0xbd4cfad4	-0.050043896
248	0x3b39d1db	0.0028353843
249	0x3db58af8	0.08864397
250	0x3d08396f	0.033257898
251	0xbd005636	-0.031332217
252	0x3c615362	0.01375279
253	0x3d8ddab9	0.06926484
254	0xbd85d1d8	-0.06534165
255	0x3d41e53e	0.047337763

bias f4 [256]
0	0xbd703b78	-0.058650464
1	0x3da0c87e	0.07850741
2	0xbca3c564	-0.019991584
3	0x3df2bb03	0.11852076
4	0x3cceab92	0.025228295
5	0x3c832b8e	0.01601198
6	0x3c0bf3d6	0.008542022
7	0x3d37ff73	0.04492135
8	0x3bb74ed1	0.0055941124
9	0xbcc3cca5	-0.023901293
10	0xbd2aebc9	-0.04172877
11	0x3d6ce11d	0.057831872
12	0xbd7feae7	-0.06247988
13	0x3dbcc45e	0.092171416
14	0x3d1b7975	0.037957627
15	0xbd54e10e	-0.05197244
16	0x3d319cf2	0.043362565
17	0x3da4bdd9	0.08044023
18	0x3d930375	0.07178394
19	0xbc2f9e2f	-0.010718866
20	0xbdf63068	-0.120209515
21	0xbc9f481d	-0.019443566
22	0xb916fa12	-0.00014398273
23	0xbc9deda0	-0.019278347
24	0xbdc7cf58	-0.097563446
25	0x3d63c145	0.055604238
26	0x3c5a670c	0.013330232
27	0x3d0ead92	0.0348335
28	0x3d226ff6	0.039657556
29	0xbd9d89be	-0.07692288
30	0x3da6c917	0.081438236
31	0xbd42e0c0	-0.04757762
32	0x3d84b435	0.06479684
33	0x3d63d492	0.055622645
34	0x3cf9e11d	0.03050285
35	0xbc232bb5	-0.009959151
36	0x3d19f224	0.03758444
37	0xbdc24454	-0.09485689
38	0x3d1a453f	0.037663694
39	0x3d02a3cd	0.031894494
40	0x3d832258	0.06403035
41	0x3bad9746	0.005297574
42	0xbcac6091	-0.02104214
43	0x3d0c61fb	0.03427313
44	0x3d06d415	0.0329171
45	0xbd852be8	-0.06502515
46	0xbd9c3e20	-0.07629037
47	0xbd6e3cbf	-0.0581634
48	0xbe3412e3	-0.1758533
49	0xbda87583	-0.082255386
50	0x3df4de87	0.11956506
51	0x3c8aaeb9	0.016929017
52	0x3d05fa64	0.032709494
53	0x3d5e4a7b	0.05427025
54	0xbcb2e77f	-0.021838902
55	0xbc762f55	-0.015025933
56	0xbcc3f7b4	-0.023921825
57	0xbcb0d928	-0.021587923
58	0x3db1dc1e	0.08684562
59	0xbd246583	-0.04013587
60	0x3c962490	0.018327981
61	0x3dc3d19a	0.09561463
62	0xbdd417e6	-0.10356121
63	0x3cd37487	0.0258124
64	0x3c32399b	0.010877992
65	0x3ce46551	0.027880343
66	0x3b245f05	0.002508105
67	0x3bee0a6a	0.007264425
68	0xbd735abf	-0.059412714
69	0xbbdf395d	-0.006812258
70	0x3d4b7598	0.049672693
71	0xbc044983	-0.008074167
72	0x3d068e68	0.032850653
73	0xbda04158	-0.07824963
74	0x3dc8d9ee	0.09807192
75	0x3c65ec0e	0.014033331
76	0xbdb7e645	-0.08979467
77	0xbdb089df	-0.08620047
78	0xbcb3f197	-0.021965785
79	0x3d691adc	0.05691038
80	0xbd4e510a	-0.050370254
81	0x3ceec2dd	0.029145652
82	0x3bb5f943	0.005553396
83	0xbcbc91df	-0.023018776
84	0xbc809f98	-0.0157011
85	0xbddf3cf4	-0.10900298
86	0xbd35f471	-0.04442257
87	0x3e00bf6d	0.12573023
88	0x3d47c5d9	0.048772667
89	0xbd370a73	-0.0446877
90	0x3dd9ef3b	0.10641333
91	0x3da0e5d4	0.07856336
92	0xbe11e815	-0.14248689
93	0xbd3c46ba	-0.045965888
94	0x3e0e7cf7	0.13914858
95	0x3bdc7836	0.0067281974
96	0x3d445192	0.047929354
97	0x3d627484	0.0552869
98	0x3d97e509	0.07416732
99	0x3dec2fc5	0.11532549
100	0xbda0a774	-0.07844439
101	0xbcccf831	-0.02502069
102	0xbdf051ef	-0.117343776
103	0x3bacc095	0.005271981
104	0x3ce128bc	0.027485244
105	0xbdc7d447	-0.097572856
106	0xbca9ee8f	-0.020743636
107	0x3d0f3c33	0.03496952
108	0x3ca025b8	0.019549236
109	0xbbb16300	-0.005413413
110	0xbd916c1b	-0.071006976
111	0xbe173572	-0.14766482
112	0x3da6864b	0.08131083
113	0xbd6c7f16	-0.057738386
114	0xbdba1211	-0.09085477
115	0xbde1f6b2	-0.110333815
116	0x3df4b76f	0.1194905
117	0xbd437a4f	-0.047724064
118	0xbd03026a	-0.031984724
119	0xbcae0356	-0.021241825
120	0x3cd21090	0.025642663
121	0xbdaa8ef4	-0.083280474
122	0x3d44bd92	0.04803235
123	0x3d638b63	0.05555285
124	0x3d9fa91f	0.07795929
125	0xbc130db7	-0.008975438
126	0xbb6136d2	-0.003436495
127	0x3b255de4	0.0025232965
128	0xbe020f2d	-0.12701102
129	0x3d840e2f	0.06448018
130	0x3d193793	0.037406515
131	0x3c9b1a56	0.018933456
132	0x3d22d177	0.039750542
133	0x3d4ecd47	0.050488736
134	0x3cdaab0e	0.026692893
135	0x3ddd3c91	0.10802568
136	0x3dd81e06	0.105526015
137	0xbd46d360	-0.048541427
138	0x3e06ecaf	0.13176225
139	0x3c93e7cc	0.018054865
140	0xbc5105d9	-0.012757742
141	0x3c393b4c	0.011305641
142	0xba843b15	-0.0010088409
143	0xbd49b2de	-0.049242847
144	0xbdb6a3eb	-0.089179836
145	0x3b52830a	0.0032121562
146	0x3d69c13b	0.057069045
147	0x3dca1bc5	0.09868578
148	0xbce82c81	-0.028341534
149	0x3cd52fe8	0.02602382
150	0x3d5572f9	0.0521116
151	0xbd0ea0e1	-0.034821395
152	0x3ca174aa	0.01970895
153	0x3d20731a	0.03917227
154	0x3c397b94	0.011320967
155	0xbce0c830	-0.027439207
156	0x3c931aa0	0.017957032
157	0xbd19e556	-0.037572227
158	0x3dd6a18f	0.104800336
159	0x3d2ab72e	0.0416786
160	0x3dd0e11a	0.10199185
161	0x3b831135	0.003999854
162	0xbd46ee22	-0.048566945
163	0xbcdf538c	-0.027261518
164	0xbdfd4ded	-0.12368379
165	0x3cd8fccd	0.026487732
166	0x3de883ed	0.11353288
167	0xbca88ea5	-0.02057583
168	0x3dbb782b	0.091537796
169	0x3dd16056	0.10223453
170	0xbd999ab4	-0.075002104
171	0xbe2a1e24	-0.1661306
172	0xbc4fcbba	-0.01268285
173	0xbccc0b35	-0.024907688
174	0xbdc7c8ca	-0.09755094
175	0xbd75e64b	-0.060034078
176	0xbca99669	-0.020701604
177	0xbd066b88	-0.032817394
178	0x3dd1985d	0.10234139
179	0xbdb9d400	-0.09073639
180	0x3d4552a2	0.048174508
181	0xbd2d84ea	-0.042363085
182	0x3e16e60c	0.14736193
183	0x3b9b8022	0.004745499
184	0xbd224338	-0.039614886
185	0xbc4bf8ec	-0.012449484
186	0xbd5a7826	-0.05333724
187	0x3c34a51f	0.011025696
188	0x3c52c00a	0.0128631685
189	0x3cec301b	0.028831532
190	0xbdc76711	-0.09736455
191	0x3d8c72cf	0.068578355
192	0x3e09641c	0.13417095
193	0x3d485853	0.048912358
194	0x3b5e2839	0.0033898486
195	0xbdceff04	-0.10107234
196	0xbd67407e	-0.05645799
197	0xbdff3e00	-0.124629974
198	0x3ccbbeb4	0.024871208
199	0x3c712ca0	0.014720112
200	0x3da34085	0.079712905
201	0x3d829a0d	0.06377039
202	0xbc7558cf	-0.014974787
203	0xbd8f79c8	-0.0700565
204	0x3cca3021	0.024681153
205	0xbda3aba3	-0.079917215
206	0x3bac125f	0.0052512134
207	0x3d2b0d82	0.04176093
208	0x3d7dddf5	0.061979253
209	0x3d91307c	0.07089326
210	0x3e24ea2c	0.16104954
211	0x3d5b9c72	0.053615995
212	0xbd40ea07	-0.047098186
213	0xbd5ac717	-0.053412523
214	0x3c243316	0.010021945
215	0xbe1adf04	-0.15124136
216	0x3b5d7bd8	0.003379574
217	0x3ddf7ac8	0.109120905
218	0x3da5854d	0.08082066
219	0x3cfac871	0.030613156
220	0xbd4bdb3c	-0.049769625
221	0xbdc46ffd	-0.095916726
222	0xbbe65b1f	-0.0070299054
223	0x3dc79576	0.09745304
224	0xbcf50861	-0.029911222
225	0xbd532446	-0.051548265
226	0xbcf5e044	-0.030014165
227	0xbd63aeba	-0.055586554
228	0xbdedde84	-0.11614707
229	0xbccdc218	-0.025116965
230	0x3d16d30d	0.036822367
231	0x3cd51103	0.026009088
232	0xbb6c4ad2	-0.0036055339
233	0xbdd6f573	-0.104960345
234	0xbd1d4d23	-0.03840364
235	0x3da69088	0.08133036
236	0xbd76079e	-0.060065858
237	0xbd1ee69b	-0.03879414
238	0xbd6352f3	-0.05549903
239	0x3db5f53a	0.08884664
240	0x3ced8ef9	0.028998839
241	0xbdc18e07	-0.09450918
242	0x3d984fb2	0.07437076
243	0x3cc2074c	0.02368512
244	0xbd74423a	-0.05963347
245	0xbc2f37f0	-0.010694489
246	0xbd34d0f8	-0.0441446
247	0x3dab8028	0.08374053
248	0xbd593104	-0.05302526
249	0x3d8ddfbb	0.06927439
250	0x3e4058b6	0.1878384
251	0x3bb56f03	0.0055369153
252	0x3c26601d	0.010154751
253	0xbc3aaf72	-0.0113943685
254	0xbd0de4db	-0.03464208
255	0xbdc0dfdb	-0.09417697

weight f4 [512, 256]
0	0xbda780f5	-0.081788935
1	0xbd4b7e83	-0.049681198
2	0x3d9638af	0.0733503
3	0x3c89eda1	0.016836943
4	0x3ad9fa07	0.00166303
5	0x3cab02ae	0.020875301
6	0x3d5f72a7	0.0545527
7	0xbd2a7d7c	-0.041623577
8	0xbd57b95f	-0.052667018
9	0xbb1d5784	-0.0024008462
10	0xbbb5e29c	-0.0055506956
11	0x3b2b6a5e	0.002615593
12	0x3d013537	0.03154489
13	0xbd477aff	-0.048701283
14	0x3d1237eb	0.03569786
15	0xbd8b4959	-0.06801099
16	0xbd57aa7b	-0.052652817
17	0xbdbbc317	-0.0916807
18	0xbca71bcc	-0.020398997
19	0x3c9f6599	0.019457625
20	0xbd8260c7	-0.06366115
21	0x3d9913bc	0.07474467
22	0xbbf72a14	-0.007542858
23	0xbd2f967e	-0.04286813
24	0x3daf6595	0.08564297
25	0x3d3c4dad	0.045972515
26	0xbd50813c	-0.050904498
27	0xba138589	-0.0005627503
28	0xbd24de0e	-0.04025083
29	0x3d1168f6	0.03550049
30	0xbc77662e	-0.015100045
31	0xbd53015a	-0.05151496
32	0xbdd9cb4e	-0.106344804
33	0xbbe40602	-0.006958724
34	0x3d6f8e45	0.05848529
35	0xbc3ae13b	-0.011406238
36	0xbd5c6506	-0.05380728
37	0xbc3fc184	-0.011703853
38	0xbd235490	-0.039875567
39	0x3c80f4ea	0.015741784
40	0x3d055192	0.032548495
41	0xbc96f373	-0.018426633
42	0x3d1357d1	0.03597242
43	0xbc9bb2cb	-0.019006154
44	0xbd68b191	-0.056809966
45	0xbc9d4915	-0.019199887
46	0x3d6af8fc	0.057366356
47	0x3c4c61e4	0.012474511
48	0x3db5aa0f	0.08870327
49	0xbbb54df7	-0.005532976
50	0xbe0b84c5	-0.13624866
51	0xbc98ed08	-0.018667713
52	0x3d35a6d0	0.044348538
53	0xbb87952f	-0.004137657
54	0xbd5b0cfd	-0.053479183
55	0xbd8c4a18	-0.0685007
56	0x3d43f320	0.047839284
57	0xbd3a5688	-0.04549268
58	0x3b3dae80	0.0028943121
59	0x3dfa0ef1	0.12209881
60	0xbd548cb9	-0.051892016
61	0xbd57cdc9	-0.052686486
62	0xbc8845b8	-0.016634807
63	0xbda7cb3c	-0.08193061
64	0xbd91cdd1	-0.071193345
65	0xbd00aaa1	-0.031412724
66	0xbd944ee7	-0.07241612
67	0x3d7db0fd	0.061936367
68	0x3cc325e4	0.023821779
69	0x3c0bec00	0.0085401535
70	0xbd2bcee1	-0.041945342
71	0xbd73ed41	-0.059552435
72	0x3d97a962	0.07405354
73	0x3ce5e684	0.02806402
74	0xbc18ebd3	-0.009333569
75	0x3d548526	0.051884793
76	0xbc9603cf	-0.018312363
77	0x3d84b726	0.06480245
78	0x3d1ceba0	0.038310647
79	0x3c98f2e7	0.018670512
80	0x3d124a73	0.03571553
81	0xbd842911	-0.06453145
82	0xbcadefa4	-0.021232434
83	0xbd4156fd	-0.0472021
84	0x3d234b9a	0.03986702
85	0x3c28a855	0.01029404
86	0xbd355ce3	-0.044278037
87	0xbd50190a	-0.05080513
88	0xbdc6ec04	-0.09712985
89	0x3d2c93af	0.04213303
90	0xbcfedb68	-0.03111048
91	0xbd6815c0	-0.056661367
92	0x3de19a93	0.11015811
93	0xbaefcf0f	-0.0018295961
94	0xbda83210	-0.08212674
95	0x3d4b319e	0.049607866
96	0xbda3f663	-0.08005979
97	0xbc9715e6	-0.01844306
98	0xbd889c32	-0.06670417
99	0xbdab9c8c	-0.08379468
100	0xba90a43a	-0.0011035271
101	0xbd02cb54	-0.03193219
102	0x3d331b16	0.043727003
103	0x3d5365eb	0.05161087
104	0xbbe10349	-0.0068668467
105	0x3d94e811	0.07270826
106	0xbc94255d	-0.018084222
107	0x3ac2d2ab	0.0014863809
108	0xbd5b2275	-0.053499658
109	0xbd6de891	-0.05808312
110	0x3cd913ec	0.026498757
111	0x3c7a4072	0.015274154
112	0xbd211d20	-0.039334416
113	0xbccc987f	-0.02497506
114	0xbd0a9324	-0.03383173
115	0x3d4e53c0	0.05037284
116	0xbd9a096b	-0.075213276
117	0x3d31981d	0.043357957
118	0xbd516ba1	-0.051128034
119	0xbcbf8290	-0.023377687
120	0x3d818a6a	0.063252285
121	0xbd0f6d5d	-0.035016406
122	0xbd050243	-0.03247286
123	0xbd583c9c	-0.052792177
124	0xbc308262	-0.010773273
125	0x3cb56363	0.022142118
126	0x3c898c94	0.016790666
127	0xbd61e54a	-0.055150308
128	0x3c254805	0.010087972
129	0x3c5a7e8e	0.013335837
130	0xbcc26edc	-0.023734502
131	0xbd939f65	-0.072081365
132	0x3c741740	0.014898121
133	0xbcbb0132	-0.022827718
134	0xbc831fe1	-0.016006412
135	0xbdacda88	-0.08440119
136	0xbcf508d6	-0.02991144
137	0x3d1b4c66	0.037914656
138	0x3c363253	0.011120397
139	0xbb9887e5	-0.0046548718
140	0x3b12c0d3	0.0022392764
141	0x3b9c2677	0.0047653276
142	0x3d24b724	0.04021372
143	0xbd0c2c34	-0.034221843
144	0x3d9caa12	0.07649626
145	0x3c0e5d35	0.0086892145
146	0xbd6ebd3a	-0.05828593
147	0x3c03ffcf	0.008056595
148	0xbcc425c7	-0.023943795
149	0xbd293b46	-0.041316293
150	0xbca6d082	-0.020363096
151	0xbc0ad135	-0.00847273
152	0xbd6c05ff	-0.057622906
153	0xbda0261d	-0.078197695
154	0x3ced0144	0.028931268
155	0xbd0b82ba	-0.034060217
156	0x3b0a976c	0.0021147383
157	0xbd7c21b8	-0.061555594
158	0x3cdee4db	0.027208736
159	0x3ceef7ab	0.029170832
160	0xbaf9230c	-0.0019007637
161	0x3d855a3c	0.065113515
162	0x3c668f98	0.014072321
163	0xbd055361	-0.03255022
164	0x3e083b13	0.13303785
165	0xbd42a31d	-0.04751884
166	0xbc113460	-0.008862585
167	0x3d76112f	0.06007498
168	0x3d62f3ea	0.055408396
169	0x3a994468	0.001169336
170	0x3df99b3f	0.12187814
171	0x3cc585d9	0.024111675
172	0xbd4466e4	-0.047949687
173	0x3d4ccd97	0.050000753
174	0xbd421476	-0.047382794
175	0xbd77621c	-0.0603963
176	0x3cb26295	0.021775523
177	0xbdc46d02	-0.09591104
178	0x3cb33330	0.021874994
179	0xbc91dcb5	-0.017805437
180	0xbd38cc97	-0.045116987
181	0xbb77f280	-0.003783375
182	0x3ca35e87	0.019942535
183	0x3ce12e6b	0.027487954
184	0xbd1932e7	-0.03740206
185	0xbd851629	-0.06498367
186	0x3c7b84c4	0.015351478
187	0xbb9790f9	-0.0046254364
188	0xbd2a2b39	-0.041545127
189	0xbce0720d	-0.027398134
190	0xbd3a691d	-0.0455104
191	0xbd2d9d95	-0.04238661
192	0xbd522e08	-0.05131343
193	0xbd1dfb7a	-0.038569905
194	0xbdd4267e	-0.10358904
195	0x3d6c1502	0.057637222
196	0x3c8d6bcd	0.017263317
197	0x3c6ef5e9	0.014584997
198	0x3b9f7fbc	0.004867522
199	0xbca7babf	-0.02047479
200	0xbdc64158	-0.09680432
201	0x3d16eadc	0.036845073
202	0x3da498d7	0.080369644
203	0xbcb5e340	-0.022203088
204	0xbd628d60	-0.055310607
205	0x3c49a4b8	0.012307338
206	0x3d9c1a9f	0.07622265
207	0xbd11762c	-0.035513088
208	0xbd604274	-0.054750875
209	0xbd1be5e0	-0.038061023
210	0xbe1d0acb	-0.15336148
211	0xbd771751	-0.06032497
212	0xbadc69e2	-0.0016816224
213	0x3cb5aceb	0.02217718
214	0x3d655c2b	0.0559961
215	0x3c424690	0.011857644
216	0x3d8f0e3b	0.06985136
217	0x3d20d238	0.03926298
218	0xbd71dbe6	-0.059047602
219	0x3d2780d6	0.040894352
220	0x3df4fb3a	0.1196198
221	0xbd0b0deb	-0.03394882
222	0xbda671a5	-0.08127145
223	0xbe07351e	-0.13203856
224	0x3d2b07c8	0.041755468
225	0x3d3a45bf	0.04547667
226	0xbdad734f	-0.08469259
227	0xbc4a30fd	-0.012340781
228	0x3d2440b7	0.04010078
229	0xbd8f3231	-0.06991995
230	0xbd993fcd	-0.07482872
231	0x3a87a827	0.0010349796
232	0x3c6d4aac	0.014483135
233	0x3d1a7392	0.037707873
234	0x3c0e09a6	0.008669293
235	0x3cf64fc5	0.030067334
236	0xbcf11aff	-0.029431818
237	0x3c225925	0.009908949
238	0xbcfc1b95	-0.03077487
239	0xbdbf89d9	-0.09352464
240	0xbd9e7ed0	-0.07739031
241	0xbdd1444f	-0.10218107
242	0xbdb7e7b2	-0.08979739
243	0xbdaf84ca	-0.085702494
244	0x3d5a4bb2	0.053294845
245	0xbd11c6d3	-0.035590004
246	0x3c9dd3ae	0.019265976
247	0xbd42b5ad	-0.04753654
248	0x3d269695	0.04067095
249	0x3ca3d1ad	0.019997442
250	0xbc8d5e92	-0.017257009
251	0xbd715cda	-0.05892644
252	0x3d35d133	0.04438896
253	0xbd82ffa2	-0.06396414
254	0x3d664e95	0.056227285
255	0xbd1365f4	-0.035985902

bias f4 [512]
0	0xbd0bbd9d	-0.034116376
1	0x3da78ac4	0.08180764
2	0x3d3aa726	0.04556956
3	0x3dc808a8	0.09767276
4	0xbc0b6d81	-0.0085099945
5	0xbdce9f31	-0.10088957
6	0xbd431e6d	-0.04763644
7	0xbd123c10	-0.03570181
8	0xbd3f6528	-0.04672733
9	0xbe67846c	-0.22609109
10	0x3d83dcdb	0.06438609
11	0xbd266ca8	-0.040630966
12	0x3d942a51	0.07234634
13	0x3b2bd049	0.0026216677
14	0x3d1a5d62	0.037686713
15	0xbdac1ee1	-0.08404327
16	0xbdd7edee	-0.10543428
17	0xbd844f52	-0.06460442
18	0x3dce889b	0.10084649
19	0x3d32a943	0.04361845
20	0xbd803521	-0.062601335
21	0x3cac907b	0.021064987
22	0xbd4cc8b2	-0.049996085
23	0xbc897c1b	-0.01678281
24	0x3d8ec113	0.0697042
25	0xbd62327f	-0.055223938
26	0x3ca15b2c	0.019696794
27	0xbd9a8362	-0.075445905
28	0x3dca4dab	0.09878095
29	0xbab335dd	-0.0013672669
30	0x3ca81dfb	0.020522108
31	0xbd5837d9	-0.052787635
32	0xbcf162c5	-0.029466042
33	0xbcb16872	-0.021656249
34	0xbd88a9dc	-0.06673023
35	0xbbad7de6	-0.0052945493
36	0x3c9a48cb	0.018833539
37	0x3d2a1679	0.041525338
38	0xbd25b34a	-0.040454186
39	0xbcba00f2	-0.022705529
40	0xbd9042c0	-0.070439816
41	0x3d79b2ce	0.060961537
42	0xbdfae556	-0.122507736
43	0x3d093c28	0.033504635
44	0x3d31d3ec	0.043414995
45	0x3d7cd0a8	0.061722428
46	0x3cb0874d	0.021548891
47	0x3c8ade42	0.016951684
48	0xbb8f1f26	-0.004367727
49	0xbc520d47	-0.012820548
50	0xbdde3f72	-0.10851945
51	0x3d33e0a8	0.04391542
52	0xbd5de43d	-0.054172743
53	0x3be49551	0.0069758077
54	0xbdffe155	-0.124941505
55	0xbd769c90	-0.060207903
56	0xbe0358cb	-0.1282684
57	0x3d36fd9d	0.04467546
58	0x3d923325	0.07138661
59	0xbc53f08f	-0.012935772
60	0x3cd84e4a	0.026404519
61	0x3d86d897	0.0658428
62	0xbb88f96d	-0.0041801245
63	0x3b861afb	0.004092572
64	0x3dc173bb	0.09445902
65	0x3d5e48c4	0.054268613
66	0xbdb22dc7	-0.087001376
67	0x3d20380b	0.039115947
68	0x3db9cddc	0.09072468
69	0x3d91f796	0.071273014
70	0xbda4d21d	-0.080478884
71	0xbd4bfd29	-0.04980198
72	0xbc2df6df	-0.010617941
73	0xbd847f40	-0.064695835
74	0xbd9475e9	-0.07249052
75	0xbd24db62	-0.040248282
76	0x3ce0d401	0.027444841
77	0xbdb12e93	-0.086514615
78	0xbe255002	-0.16143802
79	0x3d6543f3	0.055973005
80	0xbd1c0433	-0.038089942
81	0xbd0ea11d	-0.03482162
82	0xbce49c29	-0.027906494
83	0xbd12bb6f	-0.03582328
84	0xbd8ff0cf	-0.070283525
85	0xbd5dee2b	-0.054182213
86	0xbdeee968	-0.116656125
87	0xbe25be04	-0.16185766
88	0xbd1f6872	-0.038917966
89	0xbd7310ed	-0.059342314
90	0xbc9d3ede	-0.019195016
91	0xbd96eb84	-0.0736914
92	0x3bfa02ae	0.007629714
93	0xbd403b5c	-0.04693161
94	0xbc822945	-0.01588882
95	0xbdb1cb11	-0.0868131
96	0x3ce4c74c	0.027927063
97	0xbdcc477c	-0.09974572
98	0x3d7ed4e7	0.06221476
99	0x3d9cda16	0.07658784
100	0xbe3f72ab	-0.18696086
101	0xbdfc6739	-0.12324376
102	0xbd218ad6	-0.039439045
103	0xbb5d998a	-0.003381344
104	0xbc0c5ac7	-0.008566565
105	0xbdb4c2a1	-0.08826185
106	0x3c952a3c	0.018208615
107	0xbe07d843	-0.13266091
108	0x3e050109	0.12988676
109	0x3deff2b6	0.11716215
110	0x3c0841cf	0.008316471
111	0x3c4c95d3	0.012486893
112	0x3d422494	0.047398165
113	0x3bb8534d	0.0056251646
114	0xbde98faa	-0.11404355
115	0x3e041489	0.12898459
116	0x3d91dd7c	0.07122323
117	0x3c658944	0.014009777
118	0xbbbe4783	-0.0058068647
119	0x3dd4e30f	0.103948705
120	0xbdfc0970	-0.123064876
121	0xbdbe26c5	-0.092847385
122	0x3ca68903	0.020329004
123	0xbd8a0d8d	-0.06740866
124	0xbcef0988	-0.02917935
125	0xbcb12d94	-0.021628179
126	0xbcd3806c	-0.025818072
127	0x3d309b9b	0.043117147
128	0x3d759109	0.05995277
129	0x3b81fb35	0.003966714
130	0xbd36851b	-0.044560533
131	0xbd7307f5	-0.05933376
132	0x3d663c89	0.056210075
133	0x3d8cd78f	0.06877052
134	0xbcbb8088	-0.022888437
135	0xbdf35b27	-0.1188262
136	0x3e0147a7	0.1262499
137	0x3ccc5014	0.024940528
138	0xbda69d48	-0.08135468
139	0xbd1721f8	-0.03689763
140	0x3d31fe5a	0.04345546
141	0xbc91b0bf	-0.017784474
142	0xbd8c334f	-0.06845724
143	0x3d2c3e2d	0.042051483
144	0xbd802270	-0.062565684
145	0xbd850146	-0.064943835
146	0x3d84b578	0.06479925
147	0xbd07d45e	-0.033161514
148	0xbcc0b007	-0.023521436
149	0xbd973066	-0.07382278
150	0xbd4bffb9	-0.049804423
151	0xbc2d6036	-0.0105820205
152	0x3c9268fd	0.017872328
153	0x3d2a96af	0.04164761
154	0x3dbca9df	0.09212088
155	0x3c7f9550	0.015599564
156	0xbbbf8959	-0.0058452305
157	0x3d021752	0.03176052
158	0xbe02315a	-0.12714139
159	0xbc931bed	-0.017957652
160	0x3dada9cc	0.08479652
161	0x3bddfcfd	0.0067745433
162	0x3c4d50e3	0.012531492
163	0xbdf8e6d2	-0.121534005
164	0xbdc95d0c	-0.098322004
165	0xbd872278	-0.06598371
166	0x3d20ce8b	0.039259475
167	0xbcda043e	-0.026613351
168	0xbd232b1b	-0.03983603
169	0x3d48791b	0.04894362
170	0xbda0283a	-0.078201726
171	0xbd2f9d8b	-0.042874854
172	0x3d7f3e8a	0.0623155
173	0xbda207dc	-0.07911655
174	0xbd9afc78	-0.07567686
175	0x3b6d39c5	0.0036197763
176	0xbadba27e	-0.00167568
177	0xbd980d32	-0.07424392
178	0xbc786421	-0.015160591
179	0xbd04a35b	-0.03238235
180	0x3c71f662	0.014768215
181	0xbd62da1f	-0.055383798
182	0xbdbc6da9	-0.092006035
183	0xbd7a91f6	-0.061174355
184	0x3d58cbc3	0.052928697
185	0xbdbbc2c4	-0.09168008
186	0x3d905c6c	0.07048878
187	0xbd4a7629	-0.049429093
188	0x3d8f7566	0.07004814
189	0x3a49602f	0.0007681874
190	0xbd9c692c	-0.076372474
191	0x3e0a84ce	0.13527223
192	0x3d3f5d5a	0.046719886
193	0x3c3221aa	0.010872284
194	0x3a9a2f8a	0.0011763435
195	0xbd023199	-0.03178558
196	0xbdc5a005	-0.09649662
197	0xbdbf15a8	-0.093303025
198	0x3d452ff0	0.04814142
199	0xbcc0eaa1	-0.02354938
200	0x3d5250a6	0.051346444
201	0xbe00827d	-0.12549777
202	0xbdeb0f0f	-0.114774816
203	0xbd8d9ba6	-0.06914453
204	0xbdb38370	-0.08765304
205	0xbcdbb583	-0.02681995
206	0x3bde4fd6	0.0067844195
207	0x3d0b0ea0	0.033949494
208	0x3d992934	0.07478562
209	0x3daaa519	0.08332271
210	0xbcf396f4	-0.029735066
211	0xbc247968	-0.010038711
212	0x3d36e2b5	0.0446498
213	0x3bb2a47c	0.005451737
214	0x3d40a276	0.047029935
215	0x3d824a91	0.06361879
216	0xbd0ff808	-0.03514865
217	0xbe12e48f	-0.14345
218	0x3da9089e	0.08253597
219	0xbe113b50	-0.14182782
220	0xbccd8bf7	-0.025091155
221	0xbd18eada	-0.037333347
222	0xbcb500cf	-0.022095112
223	0x3add6bb6	0.0016893062
224	0x3db6d9bb	0.089282475
225	0x3c6561ee	0.014000399
226	0x3cebbf02	0.028777603
227	0x3d58a42a	0.052890934
228	0x3d3cf0fe	0.046128266
229	0x3d804b30	0.06264341
230	0xbdf2844a	-0.118416384
231	0xbd7fb83e	-0.062431566
232	0x3d48dda8	0.049039513
233	0xbe023be0	-0.12718153
234	0x3c30d3ac	0.010792654
235	0x3d2137cc	0.039359853
236	0xbe1cbf9a	-0.15307465
237	0xbcb77363	-0.022393888
238	0x3c27e494	0.010247368
239	0x3b8e158d	0.004336065
240	0xbd60932f	-0.054827865
241	0xbc78c894	-0.01518454
242	0xbd67c8f9	-0.056588147
243	0xbe209f6a	-0.15685812
244	0x3d87a964	0.066241056
245	0x3d40a95b	0.04703651
246	0xbd36c107	-0.04461768
247	0xbdad5a38	-0.084644735
248	0xbd0b9ad5	-0.034083206
249	0xbd15a73f	-0.03653645
250	0xbdf21836	-0.11821024
251	0xbd06624f	-0.032808598
252	0x3d291f51	0.04128963
253	0xbd35b423	-0.044361245
254	0xbe1092e3	-0.14118533
255	0x3da79f53	0.081846856

weight f4 [128, 512]
0	0x3ca091db	0.0196008
1	0xbd19e0da	-0.03756795
2	0x3d52e515	0.051488
3	0x3d076d0e	0.033062987
4	0xbbddd8cd	-0.0067702294
5	0xbd44e531	-0.048070136
6	0xbdbfd937	-0.09367602
7	0xba742599	-0.0009313464
8	0x3d1433bc	0.03618215
9	0xbd75a60c	-0.059972808
10	0x3cd4eb47	0.025991095
11	0xbb03f29f	-0.0020133627
12	0x3cae6377	0.021287663
13	0xbd3eb456	-0.0465587
14	0x3ceda802	0.029010776
15	0xbd4457d9	-0.04793534
16	0x3c4045a6	0.0117353555
17	0x3a91706c	0.0011096126
18	0xbcbb04c9	-0.02282943
19	0x3b9954ce	0.004679299
20	0x3c22158c	0.0098928325
21	0xba6d6576	-0.00090559514
22	0xbdd131d6	-0.102145836
23	0xbdcc6631	-0.09980429
24	0x3d63a886	0.05558064
25	0x3d75ca97	0.060007658
26	0xbc8b1f70	-0.016982764
27	0x3cf03748	0.029323235
28	0xbc10d939	-0.008840852
29	0x3a87ad2d	0.0010351293
30	0xbc9c81bc	-0.01910483
31	0xbda61054	-0.08108583
32	0x3d01dc60	0.031704307
33	0xbd8578e9	-0.065172024
34	0xbc6ace50	-0.014331415
35	0x3d0ca404	0.034336105
36	0xbd388dfc	-0.04505728
37	0xbcbee971	-0.023304673
38	0x3b380c70	0.0028083585
39	0xbc12f7d6	-0.0089702215
40	0xbb10dae0	-0.0022103116
41	0x3baf79ba	0.005355087
42	0x3a42f8d3	0.00074375904
43	0xbcfdca31	-0.030980201
44	0x3cebbedb	0.02877753
45	0xbcc540ab	-0.024078688
46	0xbcb2e47e	-0.02183747
47	0xbcaff8e1	-0.02148098
48	0x3c80d881	0.015728237
49	0x3cbef675	0.02331088
50	0xbd1ad005	-0.03779604
51	0xbd03c237	-0.03216764
52	0x3a39a251	0.0007081377
53	0xbcdfaa23	-0.027302807
54	0xbb50b26d	-0.0031844631
55	0x3d37509d	0.044754613
56	0xbd2e6f22	-0.042586453
57	0x3d0574b3	0.032581996
58	0x3ca74517	0.020418687
59	0x3cfae0db	0.030624798
60	0x3baa2682	0.005192579
61	0xbd40696a	-0.04697553
62	0xbc2d345c	-0.0105715655
63	0xbd0e86aa	-0.034796394
64	0x3cc13a27	0.0235873
65	0xbc818067	-0.015808297
66	0xbc25a397	-0.010109804
67	0xbb7f0615	-0.0038913537
68	0xbc35b410	-0.0110902935
69	0x3c99540a	0.01871683
70	0xbcf47c9c	-0.029844575
71	0xbd11416e	-0.03546279
72	0xbd24ccef	-0.040234502
73	0x3c9cc78d	0.019138122
74	0xbd5932ad	-0.053026844
75	0xbd4aba45	-0.049494047
76	0x3d1c38be	0.03814005
77	0xbcd53a37	-0.026028736
78	0x3d4fef2b	0.050765198
79	0x3d077258	0.03306803
80	0xb9f376c2	-0.00046437053
81	0xbd073fd2	-0.03301985
82	0xbc14b88f	-0.009077205
83	0x3c506035	0.01271825
84	0x3b6fe205	0.0036603224
85	0xbcbcd152	-0.02304903
86	0xbdb19fd7	-0.08673065
87	0xbd8194b6	-0.063271925
88	0xbd1e6213	-0.03866775
89	0xbad16955	-0.0015976826
90	0xbcf9795e	-0.03045338
91	0x3afcfb40	0.0019300953
92	0xbcf1048d	-0.029421115
93	0xbd0ddfd6	-0.034637295
94	0x3c281a78	0.010260217
95	0xbc1d4431	-0.009598778
96	0x3d1a1e3c	0.03762649
97	0xbcdb04d6	-0.026735704
98	0xbcfde062	-0.030990783
99	0xbc610dbc	-0.013736185
100	0x3d3ec65f	0.0465759
101	0xbd6050ef	-0.054764684
102	0x3d349e67	0.044096377
103	0xbd038272	-0.032106824
104	0xbd72695d	-0.059182514
105	0xbd4d619e	-0.050141923
106	0xbcf3f66d	-0.02978059
107	0xbcc79f7d	-0.024368042
108	0x3c3fbb53	0.011702376
109	0xbd33951a	-0.043843366
110	0x3cc9ec7f	0.024648903
111	0xbca33106	-0.019920837
112	0xbc5d27f2	-0.013498293
113	0x3d2146ad	0.039374042
114	0xbb942d37	-0.0045219916
115	0x3c23f38e	0.010006798
116	0xba1c2f3f	-0.0005957968
117	0xbd0deacb	-0.034647744
118	0xbc858730	-0.016299814
119	0xbd1a9900	-0.03774357
120	0xbbf09539	-0.0073420075
121	0xbd37f1f9	-0.044908497
122	0x3ca46a52	0.020070229
123	0xbd0e8d54	-0.03480275
124	0x3d51720b	0.05113415
125	0x3d4c8aba	0.049936987
126	0x3c4cbd70	0.012496337
127	0x3c425380	0.011860728
128	0x3c7b38be	0.015333353
129	0x3cb87fe2	0.022521917
130	0x3d5e6c76	0.054302655
131	0xbd8ba6e9	-0.06818945
132	0x3c7223e3	0.014779064
133	0x3cfecada	0.031102587
134	0xbba04474	-0.0048909727
135	0x3c90846a	0.017641265
136	0x3d4251be	0.047441237
137	0x3ce1f3b2	0.027582023
138	0x3c6340f6	0.013870468
139	0x3d06d788	0.03292039
140	0x3c6d325d	0.01447734
141	0xbcaa745c	-0.020807438
142	0xbc904679	-0.017611729
143	0xbc8ec671	-0.017428609
144	0x3d23165b	0.03981624
145	0x3d16b874	0.036797002
146	0xbd0f4536	-0.034978114
147	0xbd25006e	-0.040283613
148	0x3d251f4a	0.040313043
149	0x3d134aa1	0.035959844
150	0xbd104cd9	-0.035229538
151	0x3cbb8025	0.022888253
152	0x3a478165	0.0007610529
153	0x3822714e	3.8729333e-05
154	0xbc9d8d21	-0.019232335
155	0xbc52ddeb	-0.012870292
156	0xbae56e1b	-0.0017504127
157	0x3ca0ce44	0.019629605
158	0xbb423194	-0.0029631602
159	0xbd62a49e	-0.055332772
160	0xbd292de5	-0.041303534
161	0x3d047b2c	0.03234403
162	0xbd1777e0	-0.036979556
163	0x3cd1f71a	0.025630523
164	0xbd74ea34	-0.059793666
165	0x3c56c673	0.013108837
166	0xbd0dffee	-0.0346679
167	0x3d651476	0.055927716
168	0xbc14cf67	-0.009082652
169	0xbd18239e	-0.037143342
170	0xbb5ceed2	-0.0033711684
171	0xbc3edc25	-0.011649166
172	0x3c67de73	0.014152157
173	0xbdbe9d9d	-0.09307406
174	0xbd1644d6	-0.03668674
175	0x3ccb327a	0.024804343
176	0xbc904a0b	-0.017613431
177	0x3bbc10ed	0.0057393224
178	0xbc424854	-0.011858065
179	0xbbb9a507	-0.0056654247
180	0x3d113c2f	0.035457786
181	0x3d5270e5	0.051377196
182	0xbd076882	-0.03305865
183	0xbd31cece	-0.043410115
184	0x3d045195	0.032304365
185	0xbd2b2b66	-0.041789435
186	0x3d51a669	0.05118409
187	0xbc7a84f8	-0.015290491
188	0xbcf5e690	-0.030017167
189	0xbd14bda1	-0.036313657
190	0x3d050f26	0.03248515
191	0x3cf729d1	0.030171307
192	0xbcddf475	-0.027094105
193	0xbd1caa68	-0.03824845
194	0xbd323884	-0.04351093
195	0xbcd96013	-0.02653507
196	0xbd4877a1	-0.048942212
197	0xbba87390	-0.0051407292
198	0x3d138809	0.036018405
199	0xbd5bc939	-0.053658698
200	0xbbcf85b5	-0.006333078
201	0xbd011847	-0.031517293
202	0x3cdbd60d	0.026835466
203	0xbc017fa4	-0.007903967
204	0x3b5d34c4	0.0033753375
205	0xbda4caab	-0.08046468
206	0xbc5c2dc0	-0.013438642
207	0x3c1996bd	0.009374318
208	0x3d19b8ba	0.037529685
209	0xbd9be026	-0.07611112
210	0x3d2ddc28	0.042446285
211	0xbd5f86a1	-0.05457175
212	0xbd565bb2	-0.05233354
213	0xbd422802	-0.047401436
214	0x3d3db945	0.046319265
215	0x3d028198	0.03186187
216	0xbd0cd03d	-0.03437828
217	0x3cc29d25	0.023756573
218	0x3d0ddbd7	0.034633484
219	0xbd5b107e	-0.053482525
220	0x3b876150	0.0041314736
221	0x3c551dab	0.013007562
222	0xbd3c4d49	-0.045972142
223	0xbc5f8d55	-0.013644536
224	0x3cb1967e	0.021678206
225	0xbc9d7f02	-0.019225601
226	0xbcb510a1	-0.022102656
227	0xbbf989fe	-0.007615327
228	0x3d1f4bfd	0.038890827
229	0xbcfaa0e3	-0.030594295
230	0x3c687432	0.014187859
231	0xbd0467a0	-0.032325387
232	0x3d13c7f7	0.036079373
233	0x3c787899	0.0151654715
234	0x3ab3d9d2	0.0013721532
235	0xbd6c487b	-0.05768631
236	0xbc6b810e	-0.014374031
237	0xbd218979	-0.039437745
238	0xbdd130fa	-0.1021442
239	0x3d0e05a2	0.03467334
240	0xbc820981	-0.015873672
241	0xbc6223e3	-0.013802501
242	0x3c89a3d3	0.01680175
243	0xbc5533d1	-0.013012842
244	0x3c8e783c	0.017391317
245	0x3d8dee1e	0.06930183
246	0xbd9d8660	-0.076916456
247	0x3bbac956	0.0057002706
248	0x3cbac08e	0.022796895
249	0xbd4a8d14	-0.04945095
250	0xbd475d94	-0.048673227
251	0xbbf18f75	-0.0073718377
252	0x3b9bd7c4	0.004755946
253	0x3d944093	0.07238879
254	0x3c0e6348	0.008690663
255	0xbc26d36e	-0.010182245

bias f4 [128]
0	0x3d393b43	0.045222532
1	0x3cc86adc	0.024465017
2	0xbd88fe85	-0.06689171
3	0xbd94dbac	-0.072684616
4	0xbdb95d88	-0.09051043
5	0x3c95cc8e	0.018286016
6	0x3cb1ab2c	0.021688066
7	0x3d7c90a3	0.061661374
8	0x3d8437d1	0.06455959
9	0x3d94fef1	0.07275189
10	0xbd1d9d65	-0.03848018
11	0x3d8d5f25	0.06902913
12	0xbdb46afc	-0.08809468
13	0xbcbfe0f5	-0.023422698
14	0xbd127b8e	-0.035762362
15	0x3d590d0f	0.05299097
16	0x3d349ca4	0.044094697
17	0xbc7710d9	-0.0150797
18	0xbc3336f2	-0.010938393
19	0xbd9f7874	-0.077866465
20	0xbce0695d	-0.027393991
21	0x3c0de13f	0.00865966
22	0x3cf011c9	0.029305356
23	0xbd4a6102	-0.04940892
24	0x3ad75d3e	0.0016430987
25	0xbdac3898	-0.08409232
26	0xbd900ddd	-0.07033894
27	0xbabd309d	-0.0014434044
28	0xbcb57971	-0.022152634
29	0x3dcaceac	0.09902701
30	0x3c30a012	0.010780351
31	0xbd596dce	-0.053083234
32	0x3c8900e0	0.01672405
33	0x3d9a4259	0.07532186
34	0xbd1d3739	-0.038382743
35	0xbc08e1ff	-0.008354663
36	0x3beee365	0.007290291
37	0x3c68d6f5	0.014211406
38	0x3ba5ab98	0.005055856
39	0xbcaa8e57	-0.020819826
40	0xbd5a65c4	-0.053319708
41	0xbd0ad5d3	-0.033895325
42	0xbc8687dc	-0.016422205
43	0x3d710aa0	0.058848023
44	0xbda0052d	-0.07813487
45	0x3cb2a24b	0.021805903
46	0xbd349b1e	-0.044093244
47	0x3d889704	0.06669429
48	0x3d23488c	0.039864108
49	0x3d0bad32	0.03410072
50	0xbc2c4de7	-0.01051662
51	0xbcb6eda3	-0.02233011
52	0x3d88b6be	0.0667548
53	0xbc721fe7	-0.014778114
54	0xbdb27b3b	-0.087149106
55	0xbc75ec09	-0.015009888
56	0xbc60669f	-0.013696342
57	0x3d4fb1a6	0.050706528
58	0xbd27a0e0	-0.040924907
59	0x3db058f3	0.08610716
60	0xbc97e633	-0.018542385
61	0x3d04222c	0.03225915
62	0x3d66d029	0.05635086
63	0x3d6c0b9e	0.057628267
64	0x3d943ebc	0.07238528
65	0xbd245e33	-0.040128898
66	0x3d957de4	0.07299402
67	0xbdd8bce9	-0.10582907
68	0xbdd03da5	-0.10168008
69	0xbbdb31d2	-0.0066892887
70	0x3cc4b4e8	0.024012044
71	0xbd2c3cf7	-0.042050328
72	0xbca356c6	-0.019938838
73	0xbd8fdd67	-0.07024651
74	0x3d6d0445	0.0578654
75	0x3d263eb5	0.040587146
76	0x3d66b434	0.0563242
77	0xbccd8861	-0.025089445
78	0xbd24d404	-0.040241256
79	0x3db6a932	0.0891899
80	0x3d82720f	0.06369411
81	0x3b17aa17	0.0023142153
82	0xbd70ac9c	-0.058758363
83	0xbb308000	-0.0026931763
84	0xbd3a8924	-0.045540944
85	0x3d6ecfee	0.058303766
86	0xbc9080ec	-0.0176396
87	0xbd294071	-0.04132122
88	0xbd7064c2	-0.05868984
89	0xbc41de06	-0.01183272
90	0x3dcd9fdd	0.10040257
91	0x3d77bdb5	0.060483653
92	0xbdd28b9e	-0.10280536
93	0x3c4fecaa	0.012690702
94	0xbd3decf0	-0.04636854
95	0x3d6e0287	0.05810788
96	0x3da641af	0.08117997
97	0x3d0624df	0.032750007
98	0xbc533e4a	-0.012893269
99	0xbd27066f	-0.04077762
100	0x3d5c516c	0.053788587
101	0xbd1ad477	-0.03780028
102	0xbc000261	-0.007813067
103	0xbd9d40e1	-0.0767839
104	0xbda9d80d	-0.082931615
105	0xbb3c7542	-0.0028756415
106	0xbd9ad792	-0.07560648
107	0xbc9301ff	-0.017945288
108	0xbc6f8502	-0.014619114
109	0x3d26f612	0.040762015
110	0xbdc4b400	-0.09604645
111	0xbd51fce2	-0.05126656
112	0xbd931fae	-0.07183777
113	0xbd95f929	-0.07322914
114	0x3c3f5fc9	0.011680552
115	0xbd344109	-0.044007335
116	0xbdd59555	-0.104288734
117	0xbbc00624	-0.005860107
118	0xbc8df1e5	-0.017327258
119	0xbcba6a1c	-0.022755675
120	0xbda6df99	-0.081481166
121	0xbd1b3b8f	-0.037898596
122	0xbdaec0a5	-0.08532838
123	0xbc542900	-0.012949228
124	0x3c9f4474	0.01944182
125	0x3d811a2a	0.063038185
126	0x3d03cba2	0.03217662
127	0xbdb41f18	-0.08794993
