result/gan_40_model_23.pt (torch, 934120 bytes, 9 tensors)

weight f4 [128, 13]
0.049648084 -0.3532363 -0.03004433 0.15809698 -0.19040117 -0.099048436 -0.124082275 -0.09667913
-0.13154325 0.122280724 -0.4263797 -0.019663965 0.2422813 0.06825364 0.3659972 0.25966752
-0.14565828 -0.2708807 -0.070290856 0.22566493 0.0949468 -0.30065417 0.29355457 0.09886835
0.18783444 -0.2817428 0.03863029 0.3504402 0.17334102 0.22201452 -0.18266375 -0.066408984
0.30935174 0.2329738 -0.19986868 -0.2390419 0.06040019 0.19448544 0.1500165 0.20432818
-0.3897636 -0.07537003 -0.41947612 0.1917635 -0.2784818 -0.27901387 0.15197313 -0.16822298
-0.32943112 -0.43765455 -0.14769438 -0.25518963 0.17046341 0.34338948 -0.4306249 0.070235595
-0.013605884 -0.034882534 -0.28424972 -0.1147704 -0.08031544 -0.001184906 0.15403794 -0.060463335
0.017071353 0.035466436 0.44193012 -0.33244666 0.04330865 0.027546264 0.18588185 -0.2500673
-0.18954614 -0.09293785 -0.1421298 -0.15769081 0.1405303 -0.060633432 -0.039691936 0.13573211
-0.019412532 0.3666797 0.14895946 0.10133019 0.04295256 0.065132275 0.2692919 0.24829648
-0.10882862 0.119963415 0.06072771 0.30851576 0.3837609 -0.25544983 0.047347516 0.018111613
-0.20649761 0.13250835 -0.19514832 0.13461432 -0.2799097 0.07664613 0.1733779 -0.013627755
0.19640687 0.1869726 -0.3853523 -0.20639256 0.024944335 -0.07461035 -0.07980098 0.069010064
-0.07199021 -0.08831024 0.03727952 -0.0021827181 0.29839063 0.23100688 -0.0955462 0.027305203
-0.20204158 -0.014048977 0.104250275 0.1834512 -0.28360492 -0.16171136 0.18585268 -0.2251985
0.20232493 -0.3173941 -0.21756653 -0.01823741 -0.23935892 0.08297996 0.1877294 -0.12526561
-0.05869346 0.0701072 0.22207019 0.1358415 0.029447785 0.22560695 -0.3723745 -0.10330366
-0.041217893 0.19952422 0.08080569 -0.30217072 -0.19273083 -0.08340588 -0.05887056 -0.040019695
-0.2203712 0.101757735 0.06325951 -0.31206664 -0.1339646 -0.26549223 -0.25936383 0.29202396
-0.10225908 0.19160078 0.23269261 0.10387496 -0.015034064 0.23491327 0.04051656 0.06586282
0.08300166 -0.14628837 0.20937692 -0.18399769 0.44311342 -0.03217381 -0.17171752 0.23885787
0.097622305 -0.0900053 -0.15234683 0.3723261 0.23205315 -0.27905437 -0.0835475 0.31558186
0.09695728 -0.05336406 0.02919237 -0.28449228 0.0104176095 -0.083486155 -0.20240164 -0.11971204
0.091786586 0.16238533 -0.009678288 -0.092753224 -0.18454531 0.4595903 -0.38743252 0.014232305
-0.20188601 -0.08192347 -0.17483695 0.08468994 0.2454871 -0.27446535 0.01114631 -0.09465634
-0.23655987 -0.25878343 0.033358272 -0.12530015 -0.059601557 -0.23234172 -0.25706396 -0.1493821
0.014776678 -0.1797579 0.0060220235 0.03690274 0.38718542 -0.02411949 -0.20475768 -0.075483575
0.04282662 0.07974295 0.06563985 -0.28357828 0.09923235 0.09816891 -0.17116086 0.05999792
0.046586283 0.21790707 0.13575564 -0.3437129 0.25933427 -0.2728466 0.0477185 0.051037665
0.18248038 -0.1106729 -0.04023058 0.1870198 -0.41577664 0.010019907 -0.040836774 -0.25056762
0.21220458 0.030777218 0.20708555 -0.10826465 -0.10302309 0.06349022 0.028199604 -0.18677582
00000000: ca5b 4b3d 63db b4be 871f f6bc 2de4 213e
00000010: 86f8 42be e8d9 cabd d91e febd b5ff c5bd
00000020: 46b3 06be 516e fa3d 714e dabe 5316 a1bc
00000030: 9718 783e 90c8 8b3d fc63 bb3e 24f3 843e
00000040: 7227 15be e0b0 8abe a7f4 8fbd b514 673e
00000050: 7873 c23d 58ef 99be c94c 963e 7d7b ca3d
00000060: ac57 403e 9840 90be cc3a 1e3d e66c b33e
00000070: 4f80 313e c657 633e 350c 3bbe 6f01 88bd
00000080: 5a63 9e3e af90 6e3e 60aa 4cbe 66c7 74be
00000090: 3166 773d 3127 473e ed9d 193e 683b 513e
000000a0: 188f c7be 9a5b 9abd 93c5 d6be a75d 443e
000000b0: 2b95 8ebe e8da 8ebe d89e 1b3e a542 2cbe
000000c0: 32ab a8be 4214 e0be 323d 17be 37a8 82be
000000d0: f68d 2e3e bfd0 af3e de7a dcbe aed7 8f3d
000000e0: 37eb 5ebc fde0 0ebd 2e89 91be be0c ebbd
000000f0: 6c7c a4bd d94e 9bba 1fbc 1d3e 67a8 77bd
00000100: 39d9 8b3c 4145 113d aa44 e23e 7336 aabe
00000110: 6964 313d b4a8 e13c d057 3e3e d208 80be
00000120: 6218 42be 3356 bebd 798a 11be b379 21be
00000130: 2de7 0f3e c35a 78bd 0394 22bd 5cfd 0a3e
00000140: 0807 9fbc 71bd bb3e d488 183e 3486 cf3d
00000150: 06ef 2f3d 1264 853d a1e0 893e 6f41 7e3e
00000160: 8ae1 debd 61af f53d 9fbd 783d c7f5 9d3e
00000170: 4f7c c43e 52ca 82be 78ef 413d ce5e 943c
00000180: 1c74 53be 45b0 073e f6d4 47be 56d8 093e
00000190: 5350 8fbe a5f8 9c3d fa89 313e f346 5fbc
000001a0: e21e 493e bf75 3f3e e64c c5be 9258 53be
000001b0: 1058 cc3c 50cd 98bd b26e a3bd 2655 8d3d
000001c0: 9a6f 93bd 00dc b4bd 69b2 183d ef0b 0fbb
000001d0: a8c6 983e 118d 6c3e baad c3bd 29af df3c
000001e0: fde3 4ebe ae2d 66bc 2b81 d53d a2da 3b3e
000001f0: aa34 91be aa97 25be 2a50 3e3e 709a 66be
00000200: 442e 4f3e 7b81 a2be c3c9 5ebe 9f66 95bc
00000210: 811a 75be 66f1 a93d 233c 403e a145 00be
00000220: 8e68 70bd 5d94 8f3d 5e66 633e 091a 0b3e
00000230: 7b3c f13c 8205 673e dfa7 bebe df90 d3bd
00000240: 18d4 28bd 1450 4c3e 747d a53d 1fb6 9abe
00000250: 3b5b 45be b4d0 aabd 4222 71bd b1eb 23bd
00000260: fda8 61be 5c66 d03d 348e 813d 33c7 9fbe
00000270: 042e 09be 99ee 87be 56cb 84be 2a84 953e
00000280: 356d d1bd ff32 443e f946 6e3e 65bc d43d
00000290: 6f51 76bc 1b8d 703e b1f4 253d 16e3 863d
000002a0: c6fc a93d 9ecc 15be e766 563e e469 3cbe
000002b0: c3df e23e afc8 03bd b8d6 2fbe 2897 743e
000002c0: 34ee c73d b354 b8bd cf00 1cbe 87a1 be3e
000002d0: 579f 6d3e 37e0 8ebe f41a abbd f293 a13e
000002e0: 8a91 c63d 4694 5abd d624 ef3c f9a8 91be
000002f0: 9fae 2a3c cafa aabd 6042 4fbe 962b f5bd
00000300: 9bfa bb3d 5748 263e af91 1ebc 67f5 bdbd
00000310: 72f9 3cbe 6b4f eb3e 8e5d c6be 9d2e 693c
00000320: 35bb 4ebe 7ec7 a7bd 7508 33be eb71 ad3d
00000330: f860 7b3e b986 8cbe 039f 363c 2fdb c1bd
00000340: c03c 72be 437f 84be afa2 083d af4e 00be
00000350: c320 74bd fdea 6dbe e39d 83be 9ff7 18be
00000360: e119 723c 7412 38be 6554 c53b 5427 173d
00000370: 2b3d c63e 3d96 c5bc ffab 51be 2297 9abd
00000380: f76a 2f3d 4650 a33d 306e 863d 2c31 91be
00000390: 553a cb3d c80c c93d cb44 2fbe 61c0 753d
000003a0: 42d1 3e3d 0823 5f3e 8703 0b3e 23fb afbe
000003b0: 76c7 843e 8db2 8bbe 7974 433d df0c 513d
000003c0: 23dc 3a3e 79a8 e2bd d2c8 24bd 1e82 3f3e
000003d0: ade0 d4be 892a 243c 7644 27bd 664a 80be
000003e0: 284c 593e 8120 fc3c 3c0e 543e dbb9 ddbd
000003f0: c5fd d2bd 2907 823d db02 e73c 2942 3fbe

bias f4 [128]
0.10291242 0.25819522 0.043882504 0.20849434 -0.07213494 -0.10835482 -0.32315156 -0.17173463
-0.113552384 0.065305725 0.08109921 0.008288093 0.22906408 0.13236444 0.2301464 0.30729774
-0.0056500845 -0.015105029 0.32692364 -0.12581052 0.17015433 -0.1890682 -0.1627887 0.085421994
0.20344877 -0.15984118 -0.17081457 -0.18527691 0.09744045 -0.10919682 -0.0070894244 -0.0823985
-0.20451899 -0.14115442 0.16184628 -0.04800288 0.24500562 0.0019992797 -0.20834419 -0.09417313
0.084057815 0.20230818 0.3621957 -0.29486638 0.058874797 0.2322052 0.26471967 0.27661273
0.009352975 0.29355824 -0.325677 -0.044692047 -0.16467255 0.12340443 0.056501932 0.12960246
0.0049831504 -0.05111139 -0.25921333 -0.08255575 -0.15359607 0.051060855 0.016694572 0.13327599
-0.09870148 0.0011177601 -0.26377422 0.17454441 -0.1373039 0.17197965 0.13595845 0.07732368
-0.03969423 0.21539581 0.0064519523 0.061150998 0.13960895 0.1241958 -0.14168663 0.11207923
-0.002229171 -0.051451735 0.25580353 -0.010955905 -0.09004718 -0.026571268 0.10780855 -0.100102164
0.140598 0.28283387 -0.1031697 0.13483605 -0.2581986 -0.022375865 0.04229616 0.36657602
0.20792235 -0.051057674 0.09641626 -0.0681222 -0.08274938 0.12819788 -0.14033772 0.15215997
-0.24884535 -0.30846503 0.14502682 -0.22838794 -0.20256588 -0.1982399 0.25552857 -0.20381299
-0.2867832 -0.16493219 -0.2815373 -0.06984004 -0.13970456 -0.090026595 0.28373203 0.15274017
-0.015589169 -0.091211624 0.2875501 0.019868717 -0.019582586 0.072590336 0.10101 0.25579655
00000000: bfc3 d23d 2a32 843e 24be 333d 8a7f 553e
00000010: 7cbb 93bd 22e9 ddbd 1f74 a5be 34db 2fbe
00000020: 278e e8bd 02bf 853d 5817 a63d c8ca 073c
00000030: c68f 6a3e 8b8a 073e 7fab 6b3e 2156 9d3e
00000040: 5824 b9bb 157b 77bc 8962 a73e 79d4 00be
00000050: f03c 2e3e 189b 41be 15b2 26be baf1 ae3d
00000060: e054 503e 68ad 23be 04ea 2ebe 3bb9 3dbe
00000070: dc8e c73d 95a2 dfbd 674e e8bb 8bc0 a8bd
00000080: 6d6d 51be c98a 10be 08bb 253e ab9e 44bd
00000090: c1e2 7a3e 5906 033b 2e58 55be d8dd c0bd
000000a0: 8126 ac3d e029 4f3e b771 b93e baf8 96be
000000b0: b326 713d 33c7 6d3e 5689 873e 2fa0 8d3e
000000c0: 383d 193c 444d 963e 23bf a6be 020f 37bd
000000d0: ec9f 28be 76bb fc3d 926e 673d 82b6 043e
000000e0: b249 a33b 2d5a 51bd 9cb7 84be fd12 a9bd
000000f0: 4a48 1dbe 3025 513d 0ec3 883c 8079 083e
00000100: 0024 cabd ce81 923a 6a0d 87be c5bb 323e
00000110: 6599 0cbe 6f1b 303e b138 0b3e e15b 9e3d
00000120: 6b96 22bd b890 5c3e e66a d33b 7879 7a3d
00000130: a6f5 0e3e 5e5a fe3d 4d16 11be cc89 e53d
00000140: 4917 12bb 0ebf 52bd aef8 823e 6580 33bc
00000150: a86a b8bd fdab d9bc bbca dc3d 5d02 cdbd
00000160: ecf8 0f3e 9acf 903e a34a d3bd 7612 0a3e
00000170: 9b32 84be 974d b7bc bd3e 2d3d daaf bb3e
00000180: 99e9 543e da21 51bd e375 c53d a783 8bbd
00000190: 8278 a9bd 4e46 033e b1b4 0fbe d3cf 1b3e
000001a0: 51d1 7ebe 21ef 9dbe e981 143e 87de 69be
000001b0: 6e6d 4fbe 66ff 4abe a4d4 823e 5ab4 50be
000001c0: 3fd5 92be fce3 28be a825 90be 4b08 8fbd
000001d0: b60e 0fbe dd5f b8bd 5345 913e eb67 1c3e
000001e0: b769 7fbc 29cd babd c439 933e b8c3 a23c
000001f0: a96b a0bc 3eaa 943d 55de ce3d c4f7 823e

weight f4 [256, 128]
0.025965206 -0.046304714 -0.012920659 0.0464097 0.16498339 0.07715593 0.045849122 0.060934648
0.06548704 0.013412429 0.0054930234 -0.0577763 0.009383538 0.095344216 -0.022921208 -0.12393248
0.02620445 -0.07447782 -0.18188603 0.046430267 -0.06679243 0.042126887 -0.01855035 -0.10944075
-0.034510553 0.0070834984 0.06808427 -0.030007461 -0.027867034 0.08942693 0.06654447 -0.053679954
0.050507557 0.011058453 -0.05153551 -0.11714924 -0.016341066 0.061801836 0.048262708 -0.09235467
-0.08869354 0.01901725 -0.10869176 -0.040741332 -0.10120505 -0.09202627 -0.015144656 0.015226796
-0.04466156 0.02771043 0.03205479 -0.10528965 -0.074595876 0.052762296 0.15786098 -0.046524633
-0.046452824 0.0033383486 0.04876512 -0.020490518 -0.07467218 0.007401946 0.064587876 -0.04322995
-0.08074888 -0.04619325 0.00015144491 -0.050697044 -0.022041097 0.026772305 0.0077857133 0.030199854
0.03558168 0.026911404 -0.049914937 0.05455488 0.011832409 -0.13106163 0.052018706 -0.056162313
0.014303726 0.00046353252 -0.085564286 -0.062962845 -0.022954667 -0.006427786 -0.07891666 -0.07752742
0.018987063 -0.102187425 0.08844047 -0.031237587 -0.09246562 0.038855482 0.0038806992 -0.014346002
0.039237782 -0.03454067 -0.0842355 0.08711073 -0.026888931 0.04904549 -0.01972656 -0.004156692
-0.023780007 0.1239797 -0.074769884 0.085786335 0.1299214 0.0103292065 -0.052403215 0.09409237
0.26518583 -0.014589045 -0.2278745 0.018968698 0.05923655 -0.083855756 0.054548588 -0.07981166
-0.04955981 -0.025939481 -0.11563372 0.029064195 -0.031089766 0.13568383 0.06709421 0.028434211
-0.008193139 -0.049939144 -0.091973975 0.008327834 -0.05977965 0.025285825 -0.033615347 0.02412361
-0.0031386982 0.053578593 -0.08130028 0.05414968 0.043541428 -0.04748582 0.0022018787 -0.02050651
-0.03340284 0.008069532 -0.058074743 0.042387843 -0.045310605 -0.033170905 0.036454044 0.02793236
0.06601523 -0.023349613 -0.025844127 0.05237448 -0.032771755 -0.062245354 -0.056291047 0.10975063
-0.055551466 0.02460252 -0.011490462 0.010642939 0.0263071 0.032176 -0.12318045 0.060047306
-0.052342996 0.11182241 -0.03252405 -0.033052668 0.05906396 0.021480266 0.19617958 0.12990193
-0.020287395 0.054096483 0.03811599 0.06431063 -0.0875023 -0.03025017 0.027492186 0.053243376
0.029051684 0.069397524 0.024411894 -0.0084688915 0.047625653 -0.023346478 -0.06872675 -0.043974843
-0.037374303 0.022905186 -0.003842239 -0.021884482 0.013497344 -0.09495507 -0.050964195 -0.003492799
0.13517918 0.030486776 -0.013264083 -0.061654225 0.020571286 -0.0796576 0.019459013 -0.08557649
-0.014510246 0.0982954 0.041128647 -0.07500913 0.07114173 0.07993431 -0.0037578389 -0.027124384
0.05727279 0.11907785 -0.08143049 -0.0028938162 -0.06529986 -0.046291683 -0.016946224 -0.045530822
0.15499473 -0.06989377 0.034053758 0.0029038466 0.019065497 -0.10649226 0.008534178 0.011197727
0.023361644 -0.038457338 -0.044341214 -0.08546771 0.056306224 0.01133282 0.062849 -0.04546946
0.06304306 0.008940918 -0.023122774 0.046213683 -0.10637704 -0.026662737 -0.06281391 -0.01093179
0.024855623 0.015503891 -0.049338583 -0.08232662 -0.056972172 -0.06535874 -0.001953488 0.09431767
00000000: fcb4 d43c 03aa 3dbd 2cb1 53bc 1918 3e3d
00000010: 68f1 283e ee03 9e3d 4acc 3b3d 9c96 793d
00000020: 121e 863d cebf 5b3c d2fe b33b d7a6 6cbd
00000030: 69bd 193c d443 c33d 42c5 bbbc 50d0 fdbd
00000040: b7aa d63c d487 98bd 5540 3abe aa2d 3e3d
00000050: 78ca 88bd 3e8d 2c3d e7f6 97bc 7922 e0bd
00000060: f05a 0dbd b11c e83b c46f 8b3d 35d2 f5bc
00000070: 6849 e4bc 7725 b73d 7848 883d 83df 5bbd
00000080: 03e1 4e3d 832e 353c e616 53bd f1eb efbd
00000090: b3dd 85bc ec23 7d3d 1eaf 453d 7224 bdbd
000000a0: f5a4 b5bd 10ca 9b3c c999 debd 62e0 26bd
000000b0: 9844 cfbd 4578 bcbd 4b21 78bc d079 793c
000000c0: 0aef 36bd fc00 e33c e24b 033d 1aa2 d7bd
000000d0: b9c5 98bd 471d 583d 4fa6 213e 9d90 3ebd
000000e0: 5145 3ebd 32c8 5a3b efbd 473d bbdb a7bc
000000f0: baed 98bd 068c f23b a646 843d e311 31bd
00000100: ab5f a5bd 2235 3dbd 2fcd 1e39 b4a7 4fbd
00000110: 888f b4bc 9851 db3c 4c1f ff3b af65 f73c
00000120: 18be 113d 4e75 dc3c 9b73 4cbd f074 5f3d
00000130: b8dc 413c 0535 06be 9111 553d 740a 66bd
00000140: 2d5a 6a3c 4806 f339 543c afbd aaf2 80bd
00000150: 6d0b bcbc 2da0 d2bb 0f9f a1bd b2c6 9ebd
00000160: c28a 9b3c a447 d1bd 4720 b53d f8e5 ffbc
00000170: 9d5e bdbd ed26 1f3d 5453 7e3b 7e0b 6bbc
00000180: ccb7 203d 857a 0dbd a983 acbd 1c67 b23d
00000190: 2d46 dcbc ece3 483d 9899 a1bc dc34 88bb
000001a0: 4ace c2bc 12e9 fd3d f420 99bd bfb0 af3d
000001b0: 1e0a 053e d53b 293c c1a4 56bd 80b3 c03d
000001c0: 70c6 873e e406 6fbc ef57 69be 3e64 9b3c
000001d0: 06a2 723d 91bc abbd 576e 5f3d 4c74 a3bd
000001e0: 3aff 4abd 097f d4bc 5fd1 ecbd 0918 ee3c
000001f0: f7af febc b4f0 0a3e b068 893d ddee e83c
00000200: 843c 06bc fd8c 4cbd da5c bcbd 7871 083c
00000210: 82db 74bd 3824 cf3c 3fb0 09bd e19e c53c
00000220: 9eb2 4dbb 3a75 5b3d c380 a6bd 0ecc 5d3d
00000230: 7f58 323d 7e80 42bd 654d 103b 45fd a7bc
00000240: 6bd1 08bd 1236 043c c8df 6dbd e09e 2d3d
00000250: 9d97 39bd 37de 07bd d650 153d 68d2 e43c
00000260: fe32 873d b047 bfbc 10b7 d3bc 9f86 563d
00000270: ad3b 06bd fcf4 7ebd 7191 66bd f0c4 e03d
00000280: ef89 63bd 398b c93c 7e42 3cbc b95f 2e3c
00000290: fd81 d73c fbca 033d 0846 fcbd 2af4 753d
000002a0: 9c65 56bd 2603 e53d f037 05bd 3c62 07bd
000002b0: 0ded 713d 62f7 af3c 4de3 483e 0305 053e
000002c0: c031 a6bc 4694 5d3d 831f 1c3d 4bb5 833d
000002d0: 6834 b3bd 34cf f7bc 4b37 e13c ba15 5a3d
000002e0: ccfd ed3c 4a20 8e3d 74fb c73c 1bc1 0abc
000002f0: 1e13 433d 1d41 bfbc 9cc0 8cbd f71e 34bd
00000300: cc15 19bd a8a3 bb3c 13ce 7bbb 1647 b3bc
00000310: f723 5d3c ce77 c2bd d5bf 50bd 71e7 64bb
00000320: 696c 0a3e 67bf f93c 9951 59bc 2489 7cbd
00000330: 1d85 a83c 8623 a3bd 8268 9f3c ba42 afbd
00000340: 62bc 6dbc 194f c93d 8376 283d 639e 99bd
00000350: c1b2 913d 99b4 a33d 1346 76bb f533 debc
00000360: e096 6a3d 16df f33d 07c5 a6bd 2ea6 3dbb
00000370: efbb 85bd 599c 3dbd cfd2 8abc 877e 3abd
00000380: f0b6 1e3e 7724 8fbd f47b 0b3d 764e 3e3b
00000390: 3f2f 9c3c 9d18 dabd f0d2 0b3c ac76 373c
000003a0: eb60 bf3c 7185 1dbd 229f 35bd b209 afbd
000003b0: 5ba1 663d 4bad 393c fab6 803d 2f3e 3abd
000003c0: b81c 813d ee7c 123c f96b bdbc 8f4a 3d3d
000003d0: 35dc d9bd d06b dabc 94a4 80bd 401b 33bc
000003e0: 059e cb3c 0804 7e3c 4117 4abd dc9a a8bd
000003f0: a75b 69bd ceda 85bd 1706 00bb 9f29 c13d

bias f4 [256]
0.027248897 0.04467278 -0.023811005 0.033689942 0.008286069 -0.06721713 0.019500207 0.033972837
-0.014214549 0.0047073653 0.008974562 -0.053133518 -0.040378038 0.1740193 0.11359337 0.047475494
0.029129803 -0.0056836754 0.0057051363 0.016611714 -0.024658214 0.03401179 0.034585025 -0.09695067
0.10618992 -0.012120527 -0.12102202 -0.059916377 -0.0393172 -0.032039296 -0.039047346 0.031347286
0.08922386 0.003018853 0.06262084 0.142345 0.037735183 0.14087199 0.0835655 0.011664977
0.017288862 0.031049162 0.061610825 -0.010841009 -0.11207703 0.031017631 0.014340024 -0.02215234
-0.101805694 0.0033628829 0.064488806 -0.052845925 -0.099056035 0.0050167474 0.01363313 -0.07232639
-0.055415455 -0.020503689 -0.16419668 0.04759425 -0.015134225 -0.051131308 -0.06209702 -0.104892634
0.07868685 0.01097928 0.008528911 0.042926025 0.029293133 0.10455566 0.026607404 -0.07357479
0.027981315 -0.039543122 -0.04964347 0.029537117 -0.01802298 0.0052166716 0.0057172943 -0.092971094
0.07396406 -0.0062506404 -0.07517971 0.05264434 -0.0067464 -0.04682472 -0.02274892 0.07620998
0.052491874 -0.06396956 0.015816106 0.03938099 -0.094008155 -0.1360496 0.06501066 -0.06786334
0.08354996 0.08445204 0.05324377 -0.04071833 -0.04758181 0.061260846 -0.010133956 0.16217746
-0.041395664 0.014137857 -0.08867043 0.087077305 -0.03199653 0.0770536 0.039735824 -0.07355634
-0.025648437 0.027756292 0.04598075 -0.10700958 -0.109503865 -0.015403767 0.14621454 0.06319227
-0.075790286 0.051853824 -0.0062617115 0.016781818 -0.023290081 0.049766045 -0.0005365167 -0.0030976853
0.038095675 -0.08648948 0.015310982 0.16152659 -0.1154883 -0.002824422 -0.013406047 0.106697954
0.06758375 0.029651484 0.017554728 -0.02996854 -0.12496205 0.13013805 -0.03231699 -0.08416611
0.03446733 -0.11625145 0.07113407 -0.07231564 -0.05417917 -0.037653122 -0.0100697605 0.05738212
0.04154736 -0.06478887 0.11569653 -0.0026046662 -0.0069912644 0.0049427426 -0.019254634 -0.040059883
0.050115824 0.048764277 0.013624721 -0.016926866 0.046333943 0.07606118 -0.027129179 0.024518292
-0.032863583 0.08679916 0.03933984 0.005827644 -0.08665174 -0.11115018 -0.03958688 0.008799427
-0.12265096 0.071336746 0.02539812 0.053933226 0.031736866 -0.012795381 -0.0479371 0.031011721
0.027007323 0.027540354 0.076634824 -0.041708 -0.020205883 0.07009987 -0.07865548 0.11451954
-0.07776458 0.01915116 -0.048772894 -0.096102394 -0.06316507 0.021888986 0.017703129 -0.022182846
-0.04322884 0.009100513 -0.13591214 -0.028942076 -0.06240534 0.010671983 0.14066266 0.15987618
0.03104571 0.06556933 -0.005718933 0.034718126 -0.03929376 0.037037555 0.035798173 0.020724878
-0.044430647 -0.017211853 0.06809707 -0.03713946 0.0046099517 -0.041650295 0.021705763 0.056156863
-0.02336192 -0.013761894 -0.048988152 0.038087577 -0.053638488 0.016651502 0.02802067 0.12349738
-0.09705832 0.091225736 0.031061256 -0.011890705 -0.08592927 -0.036851108 0.07431106 0.09273718
0.029153371 0.0843702 -0.0812576 0.04880775 0.10553319 0.006518591 -0.12698105 0.074144594
-0.0068924855 -0.018291695 -0.07673979 0.12957062 0.087314226 -0.09190029 0.021030022 -0.065875195
00000000: 1439 df3c cefa 363d 4c0f c3bc 77fe 093d
00000010: 4bc2 073c 22a9 89bd e6be 9f3c 1a27 0b3d
00000020: 24e4 68bc 3e40 9a3b 0b0a 133c 88a2 59bd
00000030: 7163 25bd 1e32 323e a4a3 e83d aa75 423d
00000040: a0a1 ee3c 203e babb 27f2 ba3b 4a15 883c
00000050: 0600 cabc f24f 0b3d 07a9 0d3d 138e c6bd
00000060: 1a7a d93d 2d95 46bc 65da f7bd e06a 75bd
00000070: 130b 21bd a33b 03bd 1cf0 1fbd 0366 003d
00000080: 00bb b63d f3d7 453b 5b3f 803d e3c2 113e
00000090: 3590 1a3d bf40 103e 6424 ab3d 761e 3f3c
000000a0: 5fa1 8d3c d05a fe3c a25b 7c3d 7d9e 31bc
000000b0: a488 e5bd b018 fe3c 6cf2 6a3c d378 b5bc
000000c0: 817f d0bd d063 5c3b b512 843d f874 58bd
000000d0: e4dd cabd 8763 a43b 7e5d 5f3c dc1f 94bd
000000e0: 51fb 62bd 5af7 a7bc 2d23 28be 30f2 423d
000000f0: 8af5 77bc 106f 51bd 7259 7ebd f3d1 d6bd
00000100: 9226 a13d 70e2 333c d8bc 0b3c 33d3 2f3d
00000110: 27f8 ef3c 4721 d63d c5f7 d93c 61ae 96bd
00000120: 1239 e53c f8f7 21bd f456 4bbd d3f7 f13c
00000130: eea4 93bc 9df0 aa3b 2458 bb3b a167 bebd
00000140: 787a 973d 2cd2 ccbb d2f7 99bd 97a1 573d
00000150: e810 ddbb 47cb 3fbd f15b babc fa13 9c3d
00000160: b801 573d 7902 83bd c790 813c f64d 213d
00000170: 5987 c0bd 9650 0bbe 4f24 853d effb 8abd
00000180: 3e1c ab3d 31f5 ac3d 2416 5a3d 43c8 26bd
00000190: 25e5 42bd a7ec 7a3d e408 26bc d911 263e
000001a0: 808e 29bd 78a2 673c d898 b5bd 9655 b23d
000001b0: cb0e 03bd 47ce 9d3d 08c2 223d b5a4 96bd
000001c0: ac1c d2bc 2a61 e33c 5056 3c3d d727 dbbd
000001d0: 9043 e0bd 1560 7cbc 44b9 153e f36a 813d
000001e0: f037 9bbd ad64 543d 0b2f cdbb 067a 893c
000001f0: d7ca bebc 7bd7 4b3d 07a5 0cba 8902 4bbb
00000200: 360a 1c3d 6621 b1bd eada 7a3c 3a67 253e
00000210: 2185 ecbd f019 39bb 09a5 5bbc 7584 da3d
00000220: 5969 8a3d abe7 f23c efce 8f3c 9580 f5bc
00000230: 1aec ffbd e942 053e d25e 04bd 485f acbd
00000240: 9d2d 0d3d 3d15 eebd bdae 913d 391a 94bd
00000250: faea 5dbd 293a 1abd a3fb 24bc 8409 6b3d
00000260: 912d 2a3d 07b0 84bd 4df2 ec3d 0cb3 2abb
00000270: fa16 e5bb bbf6 a13b e5bb 9dbc d515 24bd
00000280: 4046 4d3d 0dbd 473d 393a 5f3c 36aa 8abc
00000290: a9c8 3d3d f7c5 9b3d 033e debc 96da c83c
000002a0: f79b 06bd c2c3 b13d d022 213d d2f5 be3b
000002b0: 7876 b1bd b5a2 e3bd da25 22bd 792b 103c
000002c0: 6d30 fbbd 0019 923d b80f d03c 16e9 5c3d
000002d0: 84fe 013d b8a3 51bc b159 44bd 4b0c fe3c
000002e0: 763e dd3c 4f9c e13c b8f2 9c3d 02d6 2abd
000002f0: cf86 a5bc 8590 8f3d 2016 a1bd 3889 ea3d
00000300: 0943 9fbd e5e2 9c3c 16c6 47bd 55d1 c4bd
00000310: b05c 81bd 8850 b33c 2706 913c cdb8 b5bc
00000320: b910 31bd 511a 153c 8d2c 0bbe ef17 edbc
00000330: be9c 7fbd 8ad9 2e3c df09 103e 95b6 233e
00000340: 9353 fe3c 3649 863d e365 bbbb 9834 0e3d
00000350: 7ef2 20bd b1b4 173d 1ba1 123d 38c7 a93c
00000360: e9fc 35bd dfff 8cbc 7a76 8b3d 8c1f 18bd
00000370: 140f 973b 8099 2abd 49d0 b13c bd04 663d
00000380: 7f61 bfbc 9179 61bc cda7 48bd b801 1c3d
00000390: 08b4 5bbd bb68 883c 9b8b e53c 32ec fc3d
000003a0: 83c6 c6bd 8fd4 ba3d 2d74 fe3c 3bd1 42bc
000003b0: affb afbd 30f1 16bd 6630 983d feec bd3d
000003c0: 0dd3 ee3c 49ca ac3d 626a a6bd a3ea 473d
000003d0: c921 d83d e899 d53b 5207 02be 1fd9 973d
000003e0: 5cda e1bb 77d8 95bc c029 9dbd 29ae 043e
000003f0: cdd1 b23d 3836 bcbd 2747 ac3c 93e9 86bd

weight f4 [512, 256]
-0.010897871 0.002182193 0.03151977 -0.010100561 -0.037624992 0.046831243 0.060903084 -0.057466526
-0.042307153 0.006276222 -0.016560068 0.049232606 -0.012746726 -0.07555524 -0.06397127 0.058470238
-0.003739991 0.03204254 0.025396803 0.027027063 0.007986312 -0.021427622 -0.030441416 0.0042109787
-0.023734532 -0.022476967 0.070122264 0.028647736 -0.029807162 0.007671846 -0.05618604 -0.03085403
-0.10529101 0.013730366 0.026289282 -0.039930366 -0.018342163 -0.0136358645 -0.035931133 0.038541738
-0.040054582 -0.11463208 -0.0126724215 0.036871273 0.05451673 -0.036979977 0.011080071 -0.0004628477
-0.05093056 0.040267352 0.013474908 -0.015891448 0.010980995 -0.02250173 -0.062820174 0.017498614
0.013189431 0.07124571 0.04163637 0.022570027 0.09001867 0.06508821 0.09614743 0.07036822
0.028595805 0.083134666 0.026589818 -0.03678621 -0.045875125 0.0020970774 -0.04982412 0.035569947
-0.007473041 0.027763257 0.05067343 0.012258614 -0.002838396 0.02290442 -0.057036348 -0.0016880077
-0.020035654 0.04715712 0.039680175 0.025998969 0.046877537 -0.008590203 -0.03750174 -0.032857977
-0.019181326 -0.027015667 0.068954214 -0.038197022 -0.035536814 -0.0054820334 0.053200375 -0.053299353
0.015632771 -0.0712281 0.008705631 0.015972227 0.046730917 -0.03945161 -0.013794405 -0.053300485
-0.04130673 -0.06886516 0.030240092 -0.035963245 -0.0054970104 0.03308659 0.045937784 -0.03678274
-0.009530711 0.012313435 -0.01385487 0.021888575 -0.006629674 -0.02703231 -0.021166088 -0.006786582
-0.0075565 -0.06615374 0.030890604 0.024556966 0.014457713 -0.017275393 -0.034392096 -0.0024281873
0.05606038 0.00754571 0.07507054 -0.040732212 -0.015526883 0.04085902 0.0036999756 0.027085923
-0.07137226 0.05973959 -0.074372 0.02026846 0.087547 -0.062363565 0.004608819 0.006091769
-0.053992588 -0.0011997679 -0.040024187 -0.047389317 -0.09077291 -0.04485856 -0.07281389 -0.06997069
0.0062194653 0.0050641075 0.0018510781 0.017047394 -0.034225762 0.010049594 -0.0057940953 -0.007887815
-0.06240735 -0.005268268 0.017450789 -0.013326832 -0.037630323 -0.0038812724 -0.03120105 0.028388225
-0.06353839 -0.010797383 -0.027431665 0.07556551 0.0070014386 -0.0111401025 0.013115773 -0.033668566
-0.056750227 0.042565238 -0.039808355 -0.051270183 -0.027050998 0.020492982 -0.001295917 -0.04105563
0.012213109 0.031400483 -0.0005115283 0.037672628 0.008807388 -0.037355576 0.03915558 -0.066788346
0.06592563 0.060674284 0.033518832 0.016210468 -0.04089314 0.002666693 0.042780705 -0.04770238
-0.01620183 0.04647456 0.01751482 0.025141412 -0.034918394 -0.06675308 -0.0050872825 -0.09028866
0.010465943 0.032215204 0.020032542 -0.046596315 0.0077061867 0.031808853 0.06081165 -0.046166476
-0.036745213 0.044224203 -0.09272983 0.05682497 -0.0063040615 0.039018292 -0.007108801 -0.056585908
0.008366647 -0.06246734 -0.0009891561 0.01634704 0.01172163 0.07361188 -0.004770379 -0.019086609
-0.019557705 0.007320221 0.017423205 0.05699318 0.03101513 -0.0076395897 -0.067663945 -0.007457679
-0.027172536 -0.018561061 -0.062347583 -0.015290831 0.02811402 -0.060650326 0.0098533 -0.0035657722
0.02238579 0.0549264 -0.015940018 -0.013837521 -0.044337753 0.015246253 0.054979045 -0.08245124
00000000: fc8c 32bc 2003 0f3b e01a 013d d37c 25bc
00000010: aa1c 1abd 1ed2 3f3d 8375 793d 0562 6bbd
00000020: 444a 2dbd c4a8 cd3b fba8 87bc 21a8 493d
00000030: a5d7 50bc b5bc 9abd 5f03 83bd 7d7e 6f3d
00000040: a31a 75bb 0a3f 033d f50c d03c dc67 dd3c
00000050: 05d9 023c fb88 afbc 4760 f9bc 40fc 893b
00000060: ec6e c2bc 9e21 b8bc 439c 8f3d a8ae ea3c
00000070: 262e f4bc 1c64 fb3b 5523 66bd 97c1 fcbc
00000080: d0a2 d7bd 54f5 603c 9f5c d73c 068e 23bd
00000090: 4e42 96bc f668 5fbc 862c 13bd f1dd 1d3d
000000a0: 4610 24bd 39c4 eabd fd9f 4fbc 5506 173d
000000b0: ef4c 5f3d 5178 17bd 3089 353c 5eaa f2b9
000000c0: 909c 50bd 61ef 243d dcc5 5c3c c82e 82bc
000000d0: a2e9 333c 8c55 b8bc dda7 80bd 4159 8f3c
000000e0: 7c18 583c 45e9 913d e68a 2a3d c7e4 b83c
000000f0: b55b b83d f84c 853d f2e8 c43d 371d 903d
00000100: c041 ea3c 8242 aa3d e4d2 d93c 23ad 16bd
00000110: 8ee7 3bbd 1f6f 093b 6014 4cbd cbb1 113d
00000120: 69e0 f4bb c56f e33c f18e 4f3d 5bd8 483c
00000130: 6204 3abb 0da2 bb3c f29e 69bd 2440 ddba
00000140: d021 a4bc d327 413d ae87 223d cafb d43c
00000150: a902 403d ecbd 0cbc 6d9b 19bd 1696 06bd
00000160: 2822 9dbc f64f ddbc de37 8d3d 7b74 1cbd
00000170: 0d8f 11bd a1a2 b3bb a3e8 593d 6c50 5abd
00000180: 4c10 803c 0ae0 91bd 10a2 0e3c 30d8 823c
00000190: eb68 3f3d 0398 21bd ee01 62bc 9c51 5abd
000001a0: 3f31 29bd 2d09 8dbd 12ba f73c 324e 13bd
000001b0: 4420 b4bb ce85 073d 4229 3c3d 80a9 16bd
000001c0: b326 1cbc 4abe 493c 89ff 62bc ab4f b33c
000001d0: bd3d d9bb dd72 ddbc 8164 adbc fa61 debb
000001e0: 849c f7bb 9d7b 87bd 4b0e fd3c b12b c93c
000001f0: 0be0 6c3c 2085 8dbc bade 0cbd 3922 1fbb
00000200: 929f 653d 0142 f73b 95be 993d d2d6 26bd
00000210: 7864 7ebc ca5b 273d 4a7b 723b 4ce3 dd3c
00000220: 9f2b 92bd 80b1 743d 5950 98bd 0b0a a63c
00000230: d74b b33d f070 7fbd 9305 973b 769d c73b
00000240: 5527 5dbd 8841 9dba 67f0 23bd 4d1b 42bd
00000250: 26e7 b9bd 9cbd 37bd 731f 95bd cb4c 8fbd
00000260: a8cc cb3b d0f0 a53b e09f f23a faa6 8b3c
00000270: 5030 0cbd 0da7 243c 65dc bdbb e53b 01bc
00000280: d99e 7fbd 6fa1 acbb f5f4 8e3c c958 5abc
00000290: 4122 1abd f25c 7ebb 5899 ffbc 6c8e e83c
000002a0: 6a20 82bd 82e7 30bc 5fb8 e0bc 17c2 9a3d
000002b0: 536c e53b fa84 36bc 8ae3 563c 0de8 09bd
000002c0: ed72 68bd e358 2e3d 160e 23bd af00 52bd
000002d0: 0e9a ddbc e6e0 a73c c2db a9ba f329 28bd
000002e0: 7e19 483c cb9d 003d 1518 06ba 9d4e 1a3d
000002f0: dd4c 103c 2902 19bd 9a61 203d 54c8 88bd
00000300: 0404 873d 9985 783d 0b4b 093d d1cb 843c
00000310: 917f 27bd afc3 2e3b d23a 2f3d 9263 43bd
00000320: b3b9 84bc 1c5c 3e3d 3d7b 8f3c 5df5 cd3c
00000330: 9706 0fbd d7b5 88bd 38b3 a6bb 43e9 b8bd
00000340: 5979 2b3c 17f4 033d 491b a43c c7db 3ebd
00000350: 2e84 fc3b 004a 023d a315 793d 0f19 3dbd
00000360: 2682 16bd 7024 353d 23e9 bdbd 4dc1 683d
00000370: 4d92 cebb a5d1 1f3d f2f0 e8bb a0c6 67bd
00000380: 4314 093c c1dd 7fbd 92a6 81ba 3aea 853c
00000390: 140c 403c d3c1 963d d750 9cbb 855b 9cbc
000003a0: 7b37 a0bc 77de ef3b 1cbb 8e3c ae71 693d
000003b0: 7113 fe3c 8655 fabb 6593 8abd 8c5f f4bb
000003c0: f098 debc 5e0d 98bc 2e60 7fbd 6586 7abc
000003d0: 604f e63c 7a6c 78bd bc6f 213c bbaf 69bb
000003e0: 6762 b73c 81fa 603d a494 82bc c5b6 62bc
000003f0: 819b 35bd 6ccb 793c b531 613d 32dc a8bd

bias f4 [512]
-0.0007949416 -0.084420644 -0.096085064 0.042216264 -0.04776518 -0.08381899 -0.11448896 -0.09218921
-0.0884123 -0.15713543 0.044915795 -0.16330338 0.0015985876 0.056554172 -0.08468923 -0.006830885
-0.0067544943 -0.008679682 -0.032275807 -0.10600443 0.03716141 -0.08992751 -0.03111985 -0.06326473
-0.031044068 0.028538685 0.07591454 -0.030070128 -0.024989154 0.031275105 -0.07458867 -0.08323285
-0.023178738 0.029110577 0.0037417226 0.023869922 0.0014294862 -0.04476172 -0.083755486 -0.14388639
-0.025497949 -0.03793664 -0.011760101 0.04130633 -0.020992108 -0.0399594 -0.04381388 -0.040040124
-0.021273863 -0.0042508575 -0.024531325 -0.028465034 0.0045925826 -0.07527745 0.12170121 0.09580291
0.031493455 0.08040467 -0.113647856 -0.1659358 -0.001896256 -0.0018773485 0.06993912 0.059306905
0.031094586 -0.0071649617 0.008636031 -0.12095964 -0.015777498 -0.034500565 -0.060568508 0.06311628
-0.04376496 -0.101811096 0.04976765 -0.020643426 -0.034755725 -0.15462719 -0.01267213 -0.013723147
0.044338666 0.030543296 -0.07401193 -0.010960845 0.07730803 -0.026774507 -0.009385095 -0.0063394834
-0.08842682 0.055567116 0.03707892 0.15102261 0.035661843 0.027231999 0.059434224 -0.0024600048
0.08700097 0.08746747 -0.060669005 -0.08031798 0.07110545 -0.04524541 0.009959271 0.09893553
0.092634365 0.049918693 -0.0743722 -0.08511441 -0.053093184 -0.12818244 -0.042041164 -0.05352166
-0.12896775 -0.033286363 -0.036500655 -0.022143226 -0.011526424 0.02347757 -0.07257585 -0.015551146
-0.0050896974 0.03822257 -0.05168839 -0.0057192915 -0.019385487 -0.029379342 -0.13560633 -0.11766635
-0.059798166 -0.16027218 0.054847587 0.031806942 0.047017314 -0.040434595 -0.03797667 0.053299338
-0.15476587 -0.006716124 -0.05617037 0.06504447 0.022144748 0.07900225 -0.025945019 -0.14569522
0.071984015 -0.041977532 -0.008485499 0.07328742 -0.019171458 0.049603913 0.004112112 -0.12888612
0.046840753 0.03068115 -0.07977338 -0.112028986 0.031852324 -0.029852482 -0.08739367 -0.1910968
0.07537013 0.034923024 -0.0039441646 -0.08301414 -0.12769291 -0.10207702 -0.15079847 0.09594676
-0.012893433 -0.08567483 -0.08009982 -0.046026718 -0.10964276 -0.12162405 0.014408703 0.093348145
-0.012233663 -0.056322064 0.12814839 0.008434227 -0.055515274 0.060861923 -0.100489706 0.039045136
-0.007104783 0.01422305 -0.13365756 0.02194058 -0.060172644 -0.124558225 -0.093289174 -0.07547018
0.058934364 0.022401068 -0.067070864 -0.12580481 0.047113422 -0.09203099 -0.08050031 -0.03213225
0.041926604 -0.025086517 0.051617943 0.0014993042 -0.03203493 0.007099966 -0.08590723 -0.050080497
-0.15044528 -0.06783671 -0.03436555 -0.0021870811 0.0064947065 0.023386762 0.082955636 0.1156665
-0.0804913 -0.08730323 -0.014204985 -0.09911592 0.007391703 0.033174407 -0.0883066 0.055762235
-0.010022499 0.05134377 -0.08646498 -0.10338059 0.0762591 0.09529142 0.029970715 0.049210478
-0.003764371 0.03661568 0.110810556 -0.049312577 0.07787072 0.011038847 0.013065981 0.0056261737
-0.11110317 -0.049349703 -0.049988165 0.13473156 -0.1099487 0.005521381 -0.14692898 -0.01004957
-0.065728925 -0.024315592 -0.012039358 -0.028392421 0.053456955 -0.07799604 -0.10292899 0.034901418
00000000: a163 50ba bbe4 acbd 3fc8 c4bd f6ea 2c3d
00000010: 6ca5 43bd 4aa9 abbd 3079 eabd b2cd bcbd
00000020: 8211 b5bd 1ce8 20be a0f9 373d 0039 27be
00000030: b387 d13a 59a5 673d 8c71 adbd 9ed5 dfbb
00000040: ce54 ddbb 3a35 0ebc a333 04bd da18 d9bd
00000050: 9036 183d ea2b b8bd 0eef febc f090 81bd
00000060: 2150 febc f6c9 e93c 1579 9b3d a155 f6bc
00000070: 0eb6 ccbc 531a 003d f2c1 98bd fc75 aabd
00000080: 56e1 bdbc 4e79 ee3c b037 753b db8a c33c
00000090: 995d bb3a 1158 37bd ff87 abbd f456 13be
000000a0: 13e1 d0bc 7363 1bbd 70ad 40bc d430 293d
000000b0: a4f7 abbc 78ac 23bd 2f76 33bd 1d01 24bd
000000c0: 8646 aebc c74a 8bbb ebf5 c8bc 812f e9bc
000000d0: 607d 963b 102b 9abd 7c3e f93d 5134 c43d
000000e0: 48ff 003d 34ab a43d 35c0 e8bd 13eb 29be
000000f0: cb8b f8ba 5d11 f6ba 3e3c 8f3d cceb 723d
00000100: 13ba fe3c 0ec8 eabb 247e 0d3c b0b9 f7bd
00000110: d03f 81bc 7750 0dbd af16 78bd 1c43 813d
00000120: e342 33bd 5682 d0bd 2ad9 4b3d 671c a9bc
00000130: 055c 0ebd 9756 1ebe c49e 4fbc 0dd7 60bc
00000140: 769c 353d ef35 fa3c 9193 97bd 1e95 33bc
00000150: ac53 9e3d 3656 dbbc f1c3 19bc 71bb cfbb
00000160: 1f19 b5bd 589a 633d 11e0 173d aca5 1a3e
00000170: 2712 123d a415 df3c 4d71 733d 0838 21bb
00000180: 912d b23d 2522 b33d 1080 78bd c17d a4bd
00000190: bc9f 913d 4053 39bd 362c 233c b69e ca3d
000001a0: 16b7 bd3d 8b77 4c3d 7450 98bd 7750 aebd
000001b0: 3d78 59bd 4242 03be 5b33 2cbd 8739 5bbd
000001c0: 1f10 04be 4857 08bd b681 15bd b665 b5bc
000001d0: 54d9 3cbc 0854 c03c a6a2 94bd 3cca 7ebc
000001e0: 7ac7 a6bb 458f 1c3d 35b7 53bd e568 bbbb
000001f0: 50ce 9ebc f2ac f0bc 63dc 0abe 0efb f0bd
00000200: ecee 74bd 641e 24be dda7 603d ff47 023d
00000210: 3a95 403d bf9e 25bd 6d8d 1bbd 6850 5a3d
00000220: f27a 1ebe ee12 dcbb e712 66bd 0936 853d
00000230: e768 b53c efcb a13d a68a d4bc 2131 15be
00000240: 5b6c 933d a2f0 2bbd c306 0bbc b717 963d
00000250: 760d 9dbc 792d 4b3d e5be 863b b9fa 03be
00000260: 17dc 3f3d 0957 fb3c 3a60 a3bd 746f e5bd
00000270: 9577 023d 318d f4bc 74fb b2bd e1ae 43be
00000280: a85b 9a3d 720b 0f3d 0d3e 81bb 5103 aabd
00000290: eec1 02be c20d d1bd ea6a 1abe bc7f c43d
000002a0: fa3e 53bc 4976 afbd 600b a4bd 8386 3cbd
000002b0: 628c e0bd 0816 f9bd 7b12 6c3c 502d bf3d
000002c0: b46f 48bc f7b1 66bd 5539 033e b62f 0a3c
000002d0: fc63 63bd 5a4a 793d 8ccd cdbd cbed 1f3d
000002e0: 3dcf e8bb cc07 693c 87dd 08be bbbc b33c
000002f0: 9777 76bd 6218 ffbd 650e bfbd 1c90 9abd
00000300: 2965 713d 7282 b73c 735c 89bd fad2 00be
00000310: 01fa 403d be7a bcbd 59dd a4bd 1b9d 03bd
00000320: 3bbb 2b3d 3d82 cdbc 566d 533d 4d84 c43a
00000330: 0f37 03bd d5a6 e83b 21f0 afbd 3521 4dbd
00000340: 540e 1abe f9ed 8abd e4c2 0cbd 2255 0fbb
00000350: 8cd1 d43b 9895 bf3c a5e4 a93d 8fe2 ec3d
00000360: 9fd8 a4bd 09cc b2bd 07bc 68bc 4afd cabd
00000370: 1936 f23b e3e1 073d 17da b4bd f166 643d
00000380: 6835 24bc d84d 523d 8d14 b1bd 34b9 d3bd
00000390: bb2d 9c3d 2628 c33d 2585 f53c ed90 493d
000003a0: aab3 76bb 53fa 153d a5f0 e23d fcfb 49bd
000003b0: af7a 9f3d 48dc 343c b212 563c c45b b83b
000003c0: 0f8a e3bd ea22 4abd 64c0 4cbd 12f7 093e
000003d0: c92c e1bd b3ec b43b 8d74 16be f4a6 24bc
000003e0: e39c 86bd 7e31 c7bc ba40 45bc 3997 e8bc
000003f0: aef5 5a3d 63bc 9fbd 6fcc d2bd caf4 0e3d

weight f4 [128, 512]
-0.011799099 0.029172271 -0.032643 -0.042699706 0.016889898 0.023565406 0.042277135 0.05365937
0.03982295 0.023522124 0.01119729 -0.025701841 -0.008682211 0.055101838 0.030301346 0.07318199
-0.05870952 -0.0073594735 -0.020432772 0.03708149 0.0080209505 -0.011957672 -0.05743174 0.017133035
0.014432213 -0.0062445123 0.05864639 -0.08217643 0.0039975485 -0.0964356 -0.020440975 -0.033993833
0.06471058 -0.0031692653 0.013710334 -0.018354587 -0.01685096 0.029710477 0.033208076 0.077984914
0.020646332 0.028581781 -0.03085089 -0.07712114 -0.03135821 0.004515084 -0.027765475 0.040365655
-0.050717592 -0.07109601 -0.046391387 -0.035045628 0.023979353 -0.027469998 0.011172174 -0.006590273
0.052307412 0.0026545115 0.01625105 0.010119401 -0.027710868 0.01589609 0.027294472 0.056463443
-0.043704767 0.037100572 -0.0028475595 -0.032476343 0.051734537 -0.018832901 -0.021315902 0.026112724
0.0014257827 0.0861017 -0.029473875 0.019735865 -0.028750563 -0.041900303 0.028930549 0.0042002755
0.008814579 0.047942854 -0.013714631 0.017946556 -0.035252888 -0.01019272 0.008121109 -0.017355572
0.06114084 0.0052331053 0.0143311145 -0.017926626 -0.041836888 0.025538078 0.0011466715 0.034487255
-0.012720439 0.0010919011 -0.046721555 0.032876164 0.04819431 -0.0008894725 0.028963134 -0.0018015276
-0.0145425545 0.033376373 0.026998986 -0.032777216 -0.04380274 0.04444795 -0.012751956 -0.038440205
0.03862309 -0.010817095 0.011211094 -0.02708784 -0.01603693 0.00067118136 0.039144468 0.0034345535
-0.0019901302 -0.07915392 0.024085037 0.013235486 -0.017995682 0.078681834 0.0069411746 -0.007390417
-0.04394632 0.020081947 0.038359735 -0.021611916 0.044402607 -0.018974252 -0.07069634 -0.022704842
0.020437049 0.01533357 0.021204956 -0.015137673 -0.0011821061 -0.023520472 0.04550621 -0.041326683
-0.0014244894 -0.06570948 -0.03990994 0.0055858474 0.0013652111 -0.04228725 0.0018489142 0.03937159
-0.034011632 0.04691579 0.023526793 0.053358693 -0.02388529 0.05013861 0.042678755 -0.023323711
-0.034976862 0.005156703 0.015988592 0.04103263 -0.006247316 0.059921328 0.0068487935 0.030519176
-0.022403495 -0.019502029 0.053388067 0.030027434 0.042387307 0.051570874 0.009577244 -0.07245179
0.025682231 0.00631146 0.0031010627 0.01121057 -0.01783694 0.0484706 0.027215952 -0.0060287
0.030099163 0.015602847 -0.01171907 -0.069634184 0.0133610815 0.023545252 0.0369109 -0.019268991
-0.013014724 0.042004436 0.0029363744 0.060892075 0.007878612 -0.058139697 -0.033393346 -0.020150458
-0.0136354845 -0.08317372 -0.0087122535 0.057236362 0.010349401 0.04084768 0.054536957 -0.06700063
0.029517692 -0.051088683 0.006997492 -0.00048452566 -0.014531897 0.068462044 -0.048132952 -0.00879128
0.043168914 0.05358767 -0.0063650645 0.021160685 0.026372291 0.021775814 -0.030358408 -0.023505542
-0.03396153 -0.0023484735 0.02973127 -0.009567529 -0.0023069435 -0.039512344 0.0038462044 -0.005295222
-0.02450661 -0.038247615 0.0075481217 -0.050831873 -0.03875246 -0.026624614 0.035347525 -0.0066443416
-0.037750367 -0.069977276 0.018387081 -0.0064163026 0.01800737 0.003758626 -0.0033545264 -0.024432326
-0.0061906143 0.011109811 -0.016328972 0.018214982 0.035512857 -0.034013975 -0.02384143 0.0045301234
00000000: 0251 41bc b0fa ee3c abb4 05bd e3e5 2ebd
00000010: af5c 8a3c 3d0c c13c ca2a 2d3d edc9 5b3d
00000020: 641d 233d 78b1 c03c d774 373c ab8c d2bc
00000030: d53f 0ebc 77b2 613d 873a f83c 70e0 953d
00000040: 6579 70bd bd27 f1bb a162 a7bc c3e2 173d
00000050: 4e6a 033c 1dea 43bc 8b3d 6bbd 945a 8c3c
00000060: 1775 6c3c c49e ccbb 3237 703d 1e4c a8bd
00000070: defd 823b 0780 c5bd d573 a7bc 1e3d 0bbd
00000080: fb86 843d 73b3 4fbb 4fa1 603c 5c5c 96bc
00000090: 060b 8abc 6363 f33c 3105 083d 8eb6 9f3d
000000a0: 7f22 a93c 5724 ea3c 01bb fcbc b0f1 9dbd
000000b0: 7771 00bd 45f3 933b 6c74 e3bc 7556 253d
000000c0: 40bd 4fbd c99a 91bd e504 3ebd 018c 0fbd
000000d0: 5970 c43c c308 e1bc 7e0b 373c 38f3 d7bb
000000e0: 4c40 563d 50f7 2d3b ec20 853c d8cb 253c
000000f0: e701 e3bc 8438 823c a898 df3c 3646 673d
00000100: c503 33bd c5f6 173d 1f9e 3abb ea05 05bd
00000110: 98e7 533d 7547 9abc b09e aebc 5aea d53c
00000120: 54e1 ba3a 1756 b03d 3273 f1bc 1cad a13c
00000130: 4d86 ebbc a79f 2bbd c2ff ec3c 77a2 893b
00000140: 066b 103c ba5f 443d 55b3 60bc a804 933c
00000150: 5565 10bd 5eff 26bc 660e 053c 462d 8ebc
00000160: d16e 7a3d 787a ab3b 0dcd 6a3c dcda 92bc
00000170: 285d 2bbd 3b35 d13c e94b 963a 8242 0d3d
00000180: 6369 50bc 1f1e 8f3a 1a5f 3fbd 28a9 063d
00000190: 6667 453d 7d2b 69ba 1844 ed3c 3c21 ecba
000001a0: e543 6ebc aab5 083d fa2c dd3c 6741 06bd
000001b0: 806a 33bd 0e0f 363d 94ed 50bc 7a73 1dbd
000001c0: 3f33 1e3d 2f3a 31bc bdae 373c 51e7 ddbc
000001d0: e15f 83bc 38f2 2f3a f355 203d 3f16 613b
000001e0: d86c 02bb 731b a2bd fc4d c53c a7d9 583c
000001f0: ae6b 93bc f123 a13d cb72 e33b 502b f2bb
00000200: 0e01 34bd e582 a43c 191f 1d3d 790b b1bc
00000210: 82df 353d e46f 9bbc 3ec9 90bd 81ff b9bc
00000220: 996b a73c a739 7b3c 04b6 ad3c 0104 78bc
00000230: e6f0 9aba 01ae c0bc b864 3a3d 2b46 29bd
00000240: efb5 baba b192 86bd 9b78 23bd 7c09 b73b
00000250: e2f0 b23a 6535 2dbd 4457 f23a 1b44 213d
00000260: c84f 0bbd c52a 403d 43bb c03c a58e 5a3d
00000270: 15ab c3bc 255e 4d3d ebcf 2e3d 5e11 bfbc
00000280: e643 0fbd 8ff9 a83b 82fa 823c d511 283d
00000290: 49b6 ccbb 1170 753d d86b e03b 5a03 fa3c
000002a0: 8987 b7bc b8c2 9fbc 72ad 5a3d 18fc f53c
000002b0: 509e 2d3d fb3b 533d dfe9 1c3c 9b61 94bd
000002c0: 8b63 d23c 5dd0 ce3b 333b 4b3b 8aac 373c
000002d0: c61e 92bc 1c89 463d fdf3 de3c 678c c5bb
000002e0: 8592 f63c 15a3 7f3c 5801 40bc 5e9c 8ebd
000002f0: 70e8 5a3c f9e1 c03c e22f 173d 01da 9dbc
00000300: b53b 55bc d80c 2c3d 3070 403b f869 793d
00000310: 4b15 013c e423 6ebd 76c7 08bd 9312 a5bc
00000320: 5e67 5fbc fc56 aabd d7bd 0ebc ad70 6a3d
00000330: 8990 293c e64f 273d 2562 5f3d a037 89bd
00000340: 16cf f13c 5e42 51bd 384b e53b ef07 feb9
00000350: 3217 6ebc d435 8c3d 0f27 45bd 4d09 10bc
00000360: e3d1 303d bf7e 5b3d 0892 d0bb 2c59 ad3c
00000370: b40a d83c 3163 b23c 32b2 f8bc b28e c0bc
00000380: 3f1b 0bbd d9e8 19bb fe8e f33c 20c1 1cbc
00000390: 1730 17bb b2d7 21bd 9a10 7c3b 8b83 adbb
000003a0: 16c2 c8bc 88a9 1cbd 3c56 f73b 1535 50bd
000003b0: e6ba 1ebd dd1b dabc 91c8 103d c7b8 d9bb
000003c0: 21a0 1abd 3f50 8fbd 81a0 963c d93f d2bb
000003d0: 3184 933c 4853 763b 9dd7 5bbb 4d26 c8bc
000003e0: a3da cabb ed05 363c 56c4 85bc 9637 953c
000003f0: ee75 113d 3d52 0bbd 1a4f c3bc 6e71 943b

bias f4 [128]
-0.045448273 -0.029488865 -0.042077832 0.0415803 -0.027090143 -0.0014910252 -0.053865302 -0.012396199
0.053826783 0.000365235 -0.024738966 0.068497986 0.042941988 0.016462598 -0.0097429985 -0.0013844825
-0.009336405 -0.08133362 0.014526974 -0.0072650113 -0.040664487 -0.0060025067 -0.016175995 -0.08714321
-0.08639709 -0.0010359674 -0.027196536 0.02093714 0.001015495 -0.002824504 0.03798829 0.048982844
-0.00666903 -0.004415062 0.056673735 -0.028753018 -0.027905216 -0.008213718 -0.09587059 0.0128563605
-0.03077459 0.02574644 -0.0015031432 -0.008935437 0.03472029 -0.034892544 -0.050011 -0.046227522
-0.035182163 0.007428978 -0.04449503 -0.091875754 0.005087424 -0.065328866 0.07664019 -0.047004685
0.08933274 -0.0072365357 -0.010280518 -0.0746039 0.013727126 0.018372687 -0.056286678 -0.01585608
-0.017454946 0.0608885 0.028827373 -0.05013583 0.11088313 0.06014802 0.0015281704 0.05124171
-0.023532862 -0.06132744 -0.08929951 -0.06825961 -0.042289052 -0.059721053 -0.03548849 0.0044535785
0.051101953 3.2716984e-05 -0.058415156 0.04882169 -0.033823803 0.05032109 0.05306657 -0.0494451
0.05191502 0.021463227 0.018736243 -0.05329392 -0.030582244 -0.047097113 -0.07028929 0.04398616
-0.09033722 -0.028174274 -0.040861495 0.016677747 -0.045658477 -0.003972798 -0.008982939 -0.0166695
-0.09404558 -0.07034717 -0.08264956 0.072914116 -0.071605556 -0.026034955 -0.007282491 0.04879712
-0.038027894 -0.008221186 0.035644144 0.10111574 -0.03743704 -0.031316552 -0.012736939 0.049949553
0.047449686 0.08369575 -0.029269198 -0.013462292 0.057952728 0.059791196 -0.066975646 -0.025544811
00000000: f827 3abd a292 f1bc ce59 2cbd 1b50 2a3d
00000010: 26ec ddbc 816e c3ba dda1 5cbd 6d19 4bbc
00000020: 7979 5c3d 037d bf39 5fa9 cabc ac48 8c3d
00000030: f0e3 2f3d 92dc 863c 19a1 1fbc 8677 b5ba
00000040: b9f7 18bc 3e92 a6bd 8c02 6e3c 550f eebb
00000050: ce8f 26bd adb0 c4bb 8583 84bc 2478 b2bd
00000060: f5f0 b0bd 4cc9 87ba 45cb debc 5d84 ab3c
00000070: 5c1a 853a 501b 39bb 9c99 1b3d 3ca2 483d
00000080: e187 dabb 39ac 90bb b822 683d 738b ebbc
00000090: 7b99 e4bc d592 06bc cd57 c4bd 7ca3 523c
000000a0: fe1a fcbc 33ea d23c 1e05 c5ba f065 12bc
000000b0: dd36 0e3d 7ceb 0ebd 56d8 4cbd 1259 3dbd
000000c0: 2c1b 10bd c96e f33b 6c40 36bd 5b29 bcbd
000000d0: 68b4 a63b 24cb 85bd 88f5 9c3d fc87 40bd
000000e0: 15f4 b63d 7620 edbb 9e6f 28bc eec9 98bd
000000f0: bde7 603c 5182 963c dc8c 66bd 9ce4 81bc
00000100: adfd 8ebc 3866 793d 6227 ec3c 3a5b 4dbd
00000110: b216 e33d c55d 763d e44c c83a d4e2 513d
00000120: fdc7 c0bc 7b32 7bbd a9e2 b6bd b2cb 8bbd
00000130: 4937 2dbd 109e 74bd 615c 11bd 53ef 913b
00000140: 4850 513d 9839 0938 bb44 6fbd 41f9 473d
00000150: d48a 0abd 7d1d 4e3d 555c 593d f286 4abd
00000160: d8a4 543d a6d3 af3c c07c 993c ba4a 5abd
00000170: 9d87 fabc e7e8 40bd d5f3 8fbd d52a 343d
00000180: b802 b9bd bccd e6bc 625e 27bd c59f 883c
00000190: 6204 3bbd 3f2e 82bb 2d2d 13bc 7a8e 88bc
000001a0: f89a c0bd 2d12 90bd 2c44 a9bd ff53 953d
000001b0: efa5 92bd 4247 d5bc f6a1 eebb 7ddf 473d
000001c0: 23c3 1bbd 27b2 06bc 98ff 113d c515 cf3d
000001d0: 9557 19bd c945 00bd 98ae 50bc e797 4c3d
000001e0: 9a5a 423d ad68 ab3d f5c5 efbc f290 5cbc
000001f0: d75f 6d3d 9de7 743d 872a 89bd 5a43 d1bc

weight f4 [1, 128]
0.00676004 -0.00023589378 -0.03987472 0.05851531 0.029326167 -0.007276117 -0.012638373 0.08232189
0.07048827 0.017595354 0.00013721384 0.07475616 0.030561704 -0.046642106 0.06568593 0.04412198
0.07338432 -0.04186582 0.01251384 0.08612797 -0.041187715 -0.00042709336 0.00077208475 -0.08486148
-0.024677904 0.04129378 -0.00021481734 0.02368358 -0.02418561 0.029134136 0.00097040343 0.0044092
0.048461694 -0.00070503476 0.018459138 -0.024032736 0.0014088507 -0.083991885 -0.04119812 0.024906803
-4.24425e-05 0.0031678285 -0.00068695156 0.0010742045 0.00037359018 0.07597583 -0.048825994 -0.072549045
-0.008944097 0.004208811 -0.026025202 -0.039607245 -0.00022478845 -0.009527613 0.073053546 -0.08321731
0.074333236 -0.07214814 0.07272376 -0.107756265 0.037245136 0.062156748 -0.108194925 0.0014042907
0.041833688 0.09519083 0.07536246 -0.020569835 0.06327211 0.00072511146 -0.08653292 0.0016353569
0.048313573 -0.0004998663 -0.06505474 -0.011545839 0.0011402245 -0.01433644 -0.006805222 -0.0013320332
0.0004578832 1.4560312e-05 -0.08575819 0.024036601 0.0011468467 0.0051574 0.038830552 -0.007036137
-0.00027786352 -0.002297021 0.077413976 -0.00089818507 -0.02133774 -0.027706265 -0.046717018 5.9281592e-05
-0.042167637 -0.059737418 0.089913584 0.00023604071 -0.09407895 -0.0009079542 -0.028662313 0.09397292
-0.015202132 -0.02238847 -0.0152839385 0.029757075 -0.018362511 -0.014307492 -0.0017291484 -0.0011094607
-0.07404747 -0.05191058 0.068888396 0.037614148 -0.007974575 0.028071314 -0.09756313 0.06255292
0.03303625 0.034455813 0.00071444554 -2.367478e-05 0.07485674 0.00018386274 -0.0600904 0.045875814
00000000: 5383 dd3b 415a 77b9 ad53 23bd c0ad 6f3d
00000010: 6e3d f03c 7e6c eebb 2e11 4fbc 6198 a83d
00000020: 275c 903d 2224 903c 0fe1 0f39 c219 993d
00000030: 8a5c fa3c cb0b 3fbd 5886 863d 40b9 343d
00000040: 854a 963d 7e7b 2bbd d906 4d3c dc63 b03d
00000050: 73b4 28bd 80eb dfb9 bb65 4a3a dbcb adbd
00000060: 5129 cabc ab23 293d 9740 61b9 1104 c23c
00000070: e620 c6bc b6aa ee3c ac62 7e3a 0d7b 903b
00000080: c57f 463d 15d2 38ba 9e37 973c 4de0 c4bc
00000090: 2fa9 b83a f003 acbd 5cbf 28bd 5a09 cc3c
000000a0: 4a04 32b8 589b 4f3b 8a14 34ba 52cc 8c3a
000000b0: 6dde c339 3799 9b3d c4fd 47bd 9894 94bd
000000c0: 438a 12bc 11ea 893b ce32 d5bc 353b 22bd
000000d0: 31b5 6bb9 b519 1cbc 199d 953d d66d aabd
000000e0: 063c 983d 67c2 93bd 32f0 943d 51af dcbd
000000f0: 5b8e 183d 1398 7e3d 4d95 ddbd 2d10 b83a
00000100: cd59 2b3d 69f3 c23d a257 9a3d 1282 a8bc
00000110: cf94 813d 6815 3e3a 2c38 b1bd 7959 d63a
00000120: 74e4 453d 7609 03ba 6b3b 85bd c22a 3dbc
00000130: 9673 953a 63e3 6abc 57fe debb 9e97 aeba
00000140: 0b10 f039 1048 7437 fda1 afbd 68e8 c43c
00000150: ca51 963a 68ff a83b c90c 1f3d 658f e6bb
00000160: 36ae 91b9 9e89 16bb 388b 9e3d 2e74 6bba
00000170: 7ccc aebc 40f8 e2bc 585a 3fbd 20a5 7838
00000180: f9b7 2cbd 39af 74bd 9d24 b83d b281 7739
00000190: 77ac c0bd c603 6eba 3acd eabc e074 c03d
000001a0: 5d12 79bc 0668 b7bc 7c69 7abc 1cc5 f33c
000001b0: fa6c 96bc f969 6abc 98a4 e2ba 536b 91ba
000001c0: 33a6 97bd 30a0 54bd 5c15 8d3d 4b11 1a3d
000001d0: cba7 02bc d0f5 e53c 2ecf c7bd bf1b 803d
000001e0: 0551 073d 8a21 0d3d a149 3b3a 3499 c6b7
000001f0: 7e4e 993d 47cb 4039 5a21 76bd 47e8 3b3d
