result/gan_40_model_22.pt (torch, 934120 bytes, 9 tensors)

weight f4 [128, 13]
00000000: 4826 183e 71eb 9a3e ae26 06be 5913 cb3e
00000010: 4dfb 58be a1b2 d3bd ee98 313e 645d 8b3e
00000020: a7d7 fd3d a071 42be bb18 d73d 3802 df3d
00000030: 72ce 923b 8065 973d 3121 b33d 4138 8f3d
00000040: f5f4 343e 7058 523e 0469 ae3c 3780 753d
00000050: 93e2 7fbd acd2 003d 1a7d 883e 111a 103e
00000060: 6ace 5fbe 5821 91bc e2dd 9dbe 6570 0abe
00000070: 9c7e 1c3e ca3c 4b3e daab 633e 2cd3 c93d
00000080: 0fcb 10be 43ea 40be a200 cbbe 77b5 e03d
00000090: c96b db3c d24d b8bd 9204 043d 8812 433e
000000a0: e264 37bd 2d37 c7be 52f7 95bb 5b14 57be
000000b0: 2831 12be ad51 d23d f773 933e 2a55 b03e
000000c0: f773 7f3e f96b 70bd 80f0 e93d 57ca 003e
000000d0: dda1 63be 0115 753e ebf2 97be 0652 e33d
000000e0: f398 10be 0659 623e c92f d73d 0e9a ec3d
000000f0: bba0 04bc d100 04be 61bf 633e 4dc2 d7bd
00000100: 61bb ecbd 6cbb 3bbd 0df8 ffbd 2fbd 823e
00000110: 8f7f 9c3e 9bdd debc db55 74bd 237c 92be
00000120: 2cd7 9cbe f867 8eba a62f 54be eab2 5dbd
00000130: c9fe b6ba 3349 f8bd b571 acbd 717c 7b3e
00000140: 8158 6f3e 910f 3bbe dba7 a2be abb9 14be
00000150: 3e85 6e3d 07b0 213e 6d9c f5bd fd53 c9bc
00000160: ae7b 22be f3e0 30bd dad7 ccbd 467a 153d
00000170: 5a95 803e 6eed 82be b9c1 4e3e f2ab 1b3e
00000180: e4cf 6d3e 1503 0ebe ee4a 88be 5427 1f3d
00000190: b510 2ebe 0326 f33e 9ab7 343e 84c2 1dbe
000001a0: 9200 ad3e 171f 23bd 3216 6f3c 831a abbe
000001b0: afb5 c9bd dcfe 5dbe 6d2e 80be 36da c7bd
000001c0: c324 4bbe a297 ffbd 34b6 b4bd 5876 35bd
000001d0: 71a1 44be 0e83 933c 889c 663e 3096 a0be
000001e0: 6aa5 88be 7c97 99bd 5d73 143e 5f67 18bd
000001f0: 3703 903e 323d 56be c183 843e 7e82 253c
00000200: 2378 a9bb f7fd 803d 4f46 613e 7f18 d43c
00000210: 3001 863e 856d 9c3e fcc4 963e f1d4 523d
00000220: 7856 e0bd 3833 7e3e 0205 033e 7946 a6bc
00000230: e6dd 583e 7b18 4cbd 320a 413e 6799 2e3e
00000240: c9fe 87be be2a 133d 7f10 d0be ed55 3cbd
00000250: ede0 64be fc2d a4bd 0e63 17be ac21 78be
00000260: fbb8 75be cf97 febe dbe6 d43d e960 dabd
00000270: 2781 673e 594a ebb9 65a8 913e 192a 9d3d
00000280: bb1f 4d3d 5ae3 fb3d 9053 563e 7c5b 94be
00000290: 2d95 053e 4cbe 27be a8e8 da3e cc1b 173d
000002a0: 299f 973e ee8e 8f3e ce16 e3bd b519 103e
000002b0: 9142 c63c 51e4 aabc 072b 7ebe b6a7 3c3e
000002c0: ed92 f83c a98d 133e 7bcf 8c3e b05e 44be
000002d0: 9aca 373e 81d3 46be 2e73 2abe 4589 d03b
000002e0: d410 113e fb80 a9be 65eb d3be d5da 14be
000002f0: 9943 493d 83cc 603e f66e 66bd 3f26 9d3e
00000300: acad a2be 3d0b 343e 88fe b0bb 7340 3ebe
00000310: fb9b 343e e675 243e 36bf 1f3e 5cd9 debd
00000320: 74ac 82be e2cb 023e 8687 6a3d a613 45be
00000330: 95c2 e7bd 404c 453d b81d e5bc a716 673e
00000340: e510 12be 11c2 9a3e afee 65be 034e 213e
00000350: f1ff 6f3d 97f8 733d 2477 2abb 41b9 77be
00000360: a6a3 d83d dacd 93be 18b4 c73e 79fb 823d
00000370: f41d 723d 1dd6 9c3d 2679 90be 608b b43d
00000380: 1739 e8be a1cf 6fbd ced2 c33c 1b9f 58be
00000390: ed53 1abe 4f79 843e c65b 58be b743 0fbe
000003a0: 4b5c 553d 2355 59be 98ae 49be 5b61 883e
000003b0: baf3 a5be 123a f0bd 1990 2ebe c870 7bbe
000003c0: f54b 313e 3057 093e 3fb8 e83d 3226 e23d
000003d0: bb71 5ebe 67c1 603e 528d d9be 8657 003e
000003e0: 815c 0d3e e73a c23d a0c3 903e 99d9 833d
000003f0: 79e8 0fbd 6759 6cbe f0a9 29be 51ea da3c
0.14858353 0.30257753 -0.13100693 0.396632 -0.21189614 -0.10336805 0.17343494 0.2721969
0.12394648 -0.18988657 0.10502764 0.10889095 0.0044801766 0.073924065 0.08746565 0.069931515
0.17671569 0.20541549 0.02129031 0.05993673 -0.062471937 0.031450912 0.26657945 0.14072444
-0.21856084 -0.017716095 -0.30833346 -0.13519438 0.15282673 0.19847408 0.22233525 0.09854731
-0.1413996 -0.18839364 -0.3964892 0.10972112 0.026784794 -0.08999218 0.03223092 0.19050038
-0.044773944 -0.38909283 -0.004576602 -0.21003859 -0.14276564 0.10269485 0.28799412 0.34439975
0.24946581 -0.05869672 0.11422825 0.12577187 -0.22229715 0.23933794 -0.2967752 0.11099629
-0.14120845 0.22104272 0.10507161 0.11552821 -0.008094962 -0.12890936 0.22240974 -0.10535107
-0.11559177 -0.045833036 -0.12498484 0.2553496 0.3056607 -0.02720528 -0.05965219 -0.28610334
-0.30632913 -0.0010864725 -0.20721301 -0.054125704 -0.001396143 -0.12123337 -0.084201254 0.2455919
0.23373605 -0.18267657 -0.3176869 -0.14523952 0.05823254 0.15789805 -0.119927265 -0.024576182
-0.15867493 -0.04318328 -0.10002108 0.036493562 0.25113946 -0.2557177 0.20191087 0.1520231
0.23223835 -0.13868363 -0.26619667 0.038855866 -0.1699856 0.47489938 0.17648163 -0.15406233
0.33789498 -0.03982457 0.014592694 -0.33418664 -0.098491065 -0.21679252 -0.2503542 -0.09758417
-0.19838242 -0.124800935 -0.08823815 -0.044302315 -0.1920221 0.018006828 0.2252065 -0.31364584
-0.266887 -0.074995965 0.14497133 -0.037207957 0.28127453 -0.20921782 0.2588177 0.010101913
-0.005171792 0.0629844 0.21999477 0.025890587 0.2617278 0.30552307 0.29447162 0.051472608
-0.109539926 0.24824226 0.12794879 -0.020297276 0.21178398 -0.049828034 0.18851545 0.17050706
-0.26561573 0.035929434 -0.40637586 -0.045980383 -0.22351427 -0.08016583 -0.1478388 -0.24231595
-0.23996346 -0.49725196 0.10395595 -0.106630154 0.22607861 -0.00044878086 0.28448787 0.07674045
0.05007909 0.12299223 0.20930314 -0.28976047 0.13045187 -0.16381186 0.42755628 0.036891744
0.29613617 0.28038734 -0.11088334 0.14072306 0.024201663 -0.020860823 -0.24821101 0.18423352
0.030343497 0.14409508 0.27502045 -0.19176745 0.1794838 -0.1941662 -0.166455 0.00636402
0.14166576 -0.33106217 -0.4139053 -0.14536603 0.04913673 0.21953015 -0.056258164 0.30693242
-0.31773126 0.17582412 -0.0054014362 -0.18579273 0.17637627 0.160606 0.15600285 -0.10881302
-0.25522196 0.12773088 0.05725815 -0.19245777 -0.113164105 0.04816842 -0.027968273 0.22567235
-0.14264257 0.30226186 -0.22454332 0.15752415 0.058593694 0.059563246 -0.0026010955 -0.24191763
0.105780885 -0.2886799 0.39004588 0.06395621 0.059110597 0.07658026 -0.2821743 0.08815646
-0.45356056 -0.05854762 0.02390423 -0.21154444 -0.15071078 0.258738 -0.21128759 -0.13990675
0.05208997 -0.21223883 -0.19695508 0.26636776 -0.3241251 -0.11729826 -0.17047156 -0.24554741
0.17314132 0.13412166 0.11363267 0.110424414 -0.21723072 0.21948777 -0.4249063 0.12533388
0.13804819 0.09483891 0.2827425 0.06437988 -0.035133813 -0.2308098 -0.16568732 0.026723059

bias f4 [128]
00000000: 58a7 1fbe f0f1 813e aa22 3c3e cd35 b7bd
00000010: 108a 233e 5c78 6e3e d5d6 89be 2d22 863d
00000020: 5cfb a9bc 334d bd3c a15a 53be 8eba b9bb
00000030: f111 95be 3b9f 0bbd f750 4abd f9db 60be
00000040: b3f8 a0be 4149 5a3e 22cc 603d baad 923e
00000050: fa80 643e 81fd ef3b 0365 903e d7d0 263e
00000060: 9728 5ebe 3ede 4dbe 4b1a a6bc 90da 51be
00000070: cb5d 80bc 6a85 953e fdb2 81be f4df bdbd
00000080: 57c0 71be 99f0 7bbe dc3a 32bc f119 9abe
00000090: 7cf3 073e f6a6 ab3e 0fd6 903e 2374 513e
000000a0: 0a20 383e d2ff 17bb 389f 6bbb f050 06be
000000b0: d49c 463e 3e10 833e 0159 9bbe fe00 aebd
000000c0: c813 46be a1e2 053e 6f0f adbc fbbc 22be
000000d0: 5732 19bd cb50 a53e 1be4 25bd 2b5c a9be
000000e0: c66e 9cbe 7887 2fbe cffa d03e ad07 3e3e
000000f0: a4a3 2dbc 4a61 d2bc ef82 90bd 8136 463e
00000100: a7fa 523e ac61 533e f1ab f63c ce1a c4bc
00000110: 9cb4 7cbe ce87 47be 76bf 8d3e 9d11 60be
00000120: 019b 69bd e9e6 0abe 9c08 3abe 050f 0c3e
00000130: 6ebd 71be eac5 9cbd b0dc 5c3d e82e 8dbc
00000140: 1fe0 05be 6fa7 bbbd a09a 40be ad01 bdbd
00000150: 79e4 38be 41e6 77bd 19eb 0abe 8ad1 873e
00000160: bd70 143e 4423 333e 11e3 1fbe 9267 8cbd
00000170: bdf1 a3bd 88fe 72be 9c10 ea3d 873b dc3b
00000180: 225c babd 1a4a 87be 6854 57be f345 313d
00000190: 51fe 6ebc 2d0d 2fbe c46e 62be a8df 13be
000001a0: 33b3 373e 7598 bdbd 8050 07bd 4c7c 8dbe
000001b0: a4a3 ec3c 55f5 093e 62f9 9fbe 24da cdbd
000001c0: 1be8 80be d084 1c3e 4d55 653e 510d 683d
000001d0: 9567 4ebe cbfd 86be bfb1 043e de0c 4f3d
000001e0: 6fac 8ebd 3b45 08be c77a 363e 7870 94be
000001f0: fb40 94bc 67fc 433e 4c47 1cbe d8ac ef3c
-0.1559118 0.25379896 0.18372598 -0.089458086 0.15970635 0.23288101 -0.26921716 0.06549487
-0.02074974 0.0231081 -0.20640041 -0.005667991 -0.2911525 -0.0340874 -0.04939362 -0.21958913
-0.31439742 0.21317007 0.054882176 0.28648168 0.22314826 0.007323921 0.28202066 0.16290604
-0.21695171 -0.2010431 -0.02027621 -0.20493531 -0.015669724 0.2920335 -0.2533187 -0.09271231
-0.23608528 -0.246035 -0.010878291 -0.30097917 0.13276476 0.3352582 0.28288314 0.20454459
0.17980972 -0.0023193252 -0.0035953056 -0.13116813 0.19395763 0.2559833 -0.30341342 -0.08496283
-0.19343483 0.13074733 -0.021125523 -0.15892403 -0.037401523 0.32288203 -0.04050074 -0.3307813
-0.30553263 -0.17141521 0.40816352 0.18557616 -0.010598097 -0.025681157 -0.070562236 0.19356729
0.20603429 0.20642728 0.030111285 -0.023938563 -0.24678272 -0.19485399 0.27685136 -0.21881719
-0.05703259 -0.13564648 -0.18167347 0.13677604 -0.23607418 -0.076549366 0.0539214 -0.01723428
-0.13073777 -0.09162795 -0.18808985 -0.09228835 -0.18055905 -0.06052232 -0.13566245 0.26527053
0.14496131 0.17493922 -0.15613963 -0.06855692 -0.08005092 -0.23729908 0.11428949 0.0067209634
-0.09099604 -0.26423723 -0.21028292 0.0432796 -0.014587001 -0.1709487 -0.22112566 -0.14440787
0.17939453 -0.092575945 -0.033035755 -0.27633893 0.028886624 0.13472493 -0.3124495 -0.10051373
-0.25177082 0.15285039 0.22395821 0.056653325 -0.20156701 -0.26365504 0.1295843 0.05054938
-0.06966483 -0.1330766 0.17820273 -0.28992057 -0.018097391 0.19139253 -0.15261573 0.029257223

weight f4 [256, 128]
00000000: 1ab5 0e3d 2ee4 ee3c fdfe 43bd 8c27 d13c
00000010: 5aae 00bd 9b9f c2bc 8824 ad3d 8216 3d3d
00000020: d3a9 60bd 537b 483d 3011 86bd 6375 2ebd
00000030: 5894 1c3c 6b64 a43d 6572 5abd a9d0 b93c
00000040: f439 e4bd ee9b 7d3d 6be7 1ebd 9b2f bf3c
00000050: dfc3 a23d e670 48bd e32e 923d 5a27 c4bc
00000060: 478d 73bc 3583 7b3d 429c 80bd 5c44 423d
00000070: c475 013d 6c1c edbc 17c2 533c 9c43 293d
00000080: 9ce7 6a3d 4487 23bd 9f21 2abc 4b44 d1bd
00000090: f9c4 febc ded0 7dbd 4d46 f73d 7a93 593d
000000a0: 4146 abbc e6b0 963d aef4 00bd 46d3 3abd
000000b0: f4c1 04bd 64eb 293c f1ad 81bd 136b bc3c
000000c0: c964 473c aa26 8a3d b78d 1bbd 23cc 4abc
000000d0: 7967 16bd 06b7 d03d 1a65 a33d 28b6 2c3c
000000e0: eaf0 933d 2af8 64bd 73c8 1d3e 2e1b 94bc
000000f0: f3de eb3b 6e45 0b3c ebca 98bd edd3 e83d
00000100: 52ed d93d 8ccb 2b3d 34da 0b3c 846e e93d
00000110: c77e 323d 9089 ed3d b387 1fbd 07ad 5f3d
00000120: 2ff8 d73c 5cdc 533c 789f 8ebd 30a2 82bc
00000130: c5e5 903c 33aa 0dbe e21d 89bc 3815 dc3c
00000140: 1e21 233c 4b25 a2bd 93aa 8e3d da32 783d
00000150: 6101 eebd 879c 7bbb c090 fe3d b005 23bd
00000160: 0394 153e 7012 91bc 373f d93d f4a0 c13d
00000170: 25aa 53bd d27a abbc 19a3 77bd 17e4 323d
00000180: 91ea d23c 3d26 383b caf3 f3bd d3da 2f3d
00000190: 791b 663c 6869 46bd c2fe 723c 44a4 12bd
000001a0: 2c59 993b 999b 003d df9b d13d 8f80 dcbd
000001b0: 86cd 9cbc 1200 5c3d 4f9e cbbd 561a eabd
000001c0: 32dc 6f3c 0044 343e 8b99 2f3d 5490 34bd
000001d0: e203 7dbd c9bf 9cbd c9ee 9fbd cea8 263d
000001e0: 40f9 983d 9d70 823d ec8b 4f3d 0864 9cbd
000001f0: 6230 bd3a 798a a93d 0bd6 0d3c 525a 4bbc
00000200: 5a4a 9ebd 5d4a 3bbd 1cbb 233d 64bb 453d
00000210: 253c bebd cc8a 933c 168a 863d 3223 13be
00000220: 7131 babd 69e6 10bd 24ab 913c 6735 64bd
00000230: 5a84 2e3d f39c 063d 1631 d1bb 909a 15bc
00000240: 124e 1abe 7768 9a3d 5fba 883d 86d8 e4bd
00000250: 14dc 033e 9547 1fbd 1ec3 a1bd 8783 183d
00000260: 5742 08bc 53da cdbc 7bf7 82bd d9c3 a8bd
00000270: 39bc a7bd 2e0e 733d 8e65 9a3d 55ed d9bd
00000280: f5ce 813b c4e7 b4bd f1ca 08bd 2433 3d3d
00000290: 87b9 efbd e9e9 443d 1c2d 863d 1971 17bd
000002a0: cf74 46bd 5c71 ac3d 3fef 4c3d 6329 bf3d
000002b0: b7c7 1bbd 7294 543d 72a8 933c 7a83 9f3d
000002c0: 2490 ed3c 86e3 f3bc 53f7 8abd 8a08 b6bd
000002d0: fb92 b13c bc7b 4a3d b854 7abd f2db 653d
000002e0: dab2 1a3c 5480 083d 3abb a23d 5de3 793d
000002f0: fa7e a0bd bda2 c43d d71a 633d 0316 e33d
00000300: b600 d63d d179 4ebc 74bb c33d ca6e 6e3d
00000310: 9947 aebc 22ad b83d 7cd8 163d a881 efbd
00000320: 0cb5 b2bd d301 a03d d594 b4bd 133f 87bc
00000330: 5eb7 e6bd f5b6 a5bb 61c8 29bc 75e3 c63c
00000340: a8b1 703d 750d 08bc e04c 823d 0a12 1dbd
00000350: 6005 b4bd 41dc 9e3d 9755 a93c 277b 3b3d
00000360: ec29 123e 6db0 8cbc d107 183e 123f 10bc
00000370: 0ab2 743d d5b1 033d ce74 adba e26d 71bd
00000380: 2a79 59bc 3763 b5bc f56f 73bc 0155 b3bd
00000390: bf3a a5bd bcc3 27bb bb95 513b 9093 3b3d
000003a0: 5fb0 87bd bc38 99bb b34d 953d 380c c0bd
000003b0: 58a8 60bd 39d6 26bd b74b c13c 2329 48bd
000003c0: 267b 72bd 56a0 fa3d cfd6 943a 568c 84bd
000003d0: 8b28 b7bd e308 883c 5b6d bcbc edf2 12ba
000003e0: 6fe3 9b3d b732 373d 3f09 04bd b41c 183c
000003f0: 6d6a af3d 6b98 023c aeba a6bd c74f a63c
0.03484068 0.029161539 -0.047850598 0.025531553 -0.031416275 -0.023757746 0.084542334 0.046164043
-0.054849457 0.048945736 -0.06546247 -0.042592417 0.009556852 0.08026966 -0.05333175 0.022682505
-0.11143866 0.061916284 -0.038794916 0.02333813 0.07947516 -0.048935793 0.07137849 -0.023944546
-0.014865226 0.061404426 -0.06279804 0.047428474 0.03160645 -0.028944217 0.012924693 0.041324243
0.057349786 -0.03992392 -0.010383992 -0.10218104 -0.031099783 -0.06196677 0.12073956 0.05311916
-0.020907523 0.073579594 -0.031483345 -0.045611642 -0.03241153 0.010371063 -0.06332005 0.023000276
0.012170025 0.06745656 -0.037976947 -0.012377772 -0.036719773 0.10191159 0.07978268 0.010541476
0.07223685 -0.05590073 0.15408497 -0.018079367 0.0071982085 0.00850044 -0.074605785 0.11368547
0.106409684 0.041942164 0.00853591 0.11398032 0.043577936 0.115985036 -0.038947772 0.05460837
0.02636346 0.012930956 -0.0696401 -0.015946478 0.017687688 -0.13834457 -0.016737882 0.026865587
0.009956626 -0.07917269 0.06966128 0.06059537 -0.11621357 -0.0038392858 0.124299526 -0.039800346
0.14607243 -0.017708987 0.106077604 0.094545275 -0.051675934 -0.020932589 -0.060458276 0.043674555
0.025746616 0.0028098964 -0.119117334 0.042933296 0.014044636 -0.048440367 0.014831247 -0.035801187
0.0046798196 0.03139839 0.10234808 -0.10766708 -0.01914097 0.053711005 -0.09942304 -0.114308044
0.014639901 0.17604065 0.04287104 -0.044082955 -0.06177128 -0.076537676 -0.078092165 0.04068833
0.07469416 0.063691355 0.05067055 -0.07636267 0.0014433975 0.08278365 0.008656989 -0.012411671
-0.07729025 -0.045725215 0.039973363 0.048274413 -0.092888154 0.01801052 0.065693066 -0.14368895
-0.090914614 -0.035375986 0.017781802 -0.05571499 0.04260669 0.032864522 -0.0063840253 -0.009131089
-0.15068844 0.07539456 0.066761725 -0.11174111 0.12876922 -0.038886625 -0.07898544 0.03723481
-0.008316598 -0.02512852 -0.063948594 -0.0824048 -0.081901975 0.059339695 0.07538901 -0.106409706
0.003961439 -0.08833268 -0.033396665 0.04619135 -0.117053084 0.048074637 0.06551573 -0.036973093
-0.04845124 0.08420059 0.05003285 0.09334066 -0.03803226 0.05189938 0.018024657 0.07788749
0.028999396 -0.029771578 -0.067854546 -0.088883474 0.021676531 0.04943441 -0.06111595 0.05611796
0.009442056 0.03332551 0.07945867 0.061007846 -0.07836719 0.09601352 0.05544552 0.11088183
0.10449354 -0.0126022855 0.09557238 0.058211125 -0.021274375 0.090173975 0.03682755 -0.11694652
-0.08725938 0.07812848 -0.0881745 -0.016509568 -0.11265443 -0.0050572106 -0.010362715 0.024278382
0.058763176 -0.00830399 0.06362319 -0.03834728 -0.08790088 0.07756854 0.020670695 0.045771744
0.14273804 -0.01717397 0.14846732 -0.0088041 0.059740104 0.032152016 -0.0013233663 -0.058942683
-0.013273517 -0.022142036 -0.014858236 -0.087564476 -0.080678456 -0.0025598845 0.0031980115 0.045795023
-0.06625437 -0.0046759527 0.072902106 -0.093773305 -0.054848045 -0.040731642 0.023595674 -0.048867356
-0.059199475 0.12237613 0.0011355522 -0.064720795 -0.0894328 0.0166058 -0.023001364 -0.0005605657
0.07611739 0.0447261 -0.03223538 0.009284187 0.08565221 0.00797091 -0.08141075 0.020301713

bias f4 [256]
00000000: ef0e 18bd c95d e93c b695 963c 67fd 163d
00000010: 3498 a5bd 736b 913d d612 2fbd 47d7 9e3c
00000020: 3e44 68bd 2925 ce3c a607 0f3d b416 5fbc
00000030: 8b7a 20bd b963 9ebc cef5 103d e0bb c73d
00000040: 2d1b db3b 8e13 853d efe2 d73b 70a4 f0bc
00000050: f975 473d 78b7 43bc df63 2a3d 08ab cdbb
00000060: 7722 02bd 4a61 333d 7ffc c5bd f76b a03c
00000070: a0d1 f53c 8827 333d 783c 2fbd 6824 2abd
00000080: fa4f f63d 2c4f 803d ef7f fbbd 6efa d43c
00000090: b70e 953d 7375 d33d 8e27 babd 3160 1d3d
000000a0: 5aea 02bd a8a8 84bd ea9e d7bd 8d86 8dbc
000000b0: 11f0 9f3c 939e 0abd de13 c83b d4cc 213d
000000c0: 8f0a 043c 1851 9d3d b5b3 003d 0d9c ed3c
000000d0: 9502 403b 399b 8ebd ea62 3e3b 105d a83d
000000e0: 65c3 8fbd cbf1 7f3d c031 50bd 8fb5 90bd
000000f0: 1a54 14bd 0018 233d 9265 8c3c f41b 0abd
00000100: bfb3 9dbd 6022 af3d 7f55 83bd f144 b4ba
00000110: 8e0e dabd fc81 fc3d 6fc1 70bd 9042 bd3b
00000120: eec2 303c fadb e43a 60f9 9fbc a5c8 0d3d
00000130: acd1 cebc a3c4 04bd 0e8c 8ebd 104c 1abd
00000140: 6575 21bd 3401 14bd 0e38 0abe f71c 50bd
00000150: cde6 523c 6b2a 8dbd a80c ac3c eb1d 953d
00000160: 281a 7c3d f6ff 973d 415e a23c f744 31ba
00000170: 73e8 a3bd ca87 08bd 6f3f db3c cdf3 903c
00000180: bd77 8a3d 9397 94bb 6060 dabc 80da acbd
00000190: b72c 013d 769e 8abd a2fc bcbd 6bae 52bc
000001a0: 035e 9ebc 7303 703c 9a81 0abe aaac 99bc
000001b0: a1c3 3d3c 0df7 a63c 0b48 28bc 5e2d adbd
000001c0: 431a cab9 98d8 b8bd fb0b 8b3c d056 323d
000001d0: 7819 9f39 48df 723d 9ccc e8bc 9ac2 ccbd
000001e0: 4d00 7e3c ec79 4cbc bcec f2bc 72b4 3abd
000001f0: 0b49 cb3c 849b 8b3b b5a5 9d3d fef4 5cbc
00000200: e693 263d e335 d33d 3892 ef3d 1d98 a4bd
00000210: a6ca 8e3d fa9c 97bc 6ad4 9e3b 97da 2bbc
00000220: 684d 4abd 1d5c 14bd b432 163e d3c9 b23d
00000230: 793c 21bd d2b9 9bbc 252a c8bd 5137 e73c
00000240: b96a c2bd 69f7 5fbc 3955 bebd bc20 173d
00000250: 839f cabd d64d dbbd 6635 b93d 0a11 debd
00000260: af38 1abc 04ca 4ebd 284c 84bc 255a 78bd
00000270: 4236 ad3d 7920 0c3e ab7c 263d 9d06 bf3b
00000280: 1dfa 85bd ba13 00be fe38 443b 5bf6 81bb
00000290: 7eb5 c6bc 17ee 7f3c 4780 ec3d 8677 5dbd
000002a0: 8ee3 1dbe d87c bdbc b2c8 683d 8007 46bd
000002b0: 8078 4e3c ab8e dabd bc5a 39bc 55eb 093d
000002c0: d0a6 90bd 2207 65bd 8f10 ae3c 8ff3 ab3d
000002d0: f209 babd 5af6 05bc 770f 82bd 0d6f 9bbd
000002e0: b8d4 8d3d 3c49 f63c 1987 c7b9 8397 843c
000002f0: 0484 bdbd a4bf e53d 0ccd 653d c32c 793d
00000300: c0d7 3bbd 97a2 a4bb a5e3 113d 6999 1f3d
00000310: eff8 ab3b fe16 15be 447d 73bd ed94 363a
00000320: 4438 8b3b 5d04 713d ff44 06be ecf0 30bb
00000330: 4d57 0cbc 1148 d0bd 23a2 8dbc e260 55bd
00000340: c37b c53a bcd3 d9bb 228e ae3b 716e 133d
00000350: efb2 22bd c87b ecbc bd14 58bd cd63 603d
00000360: 1b7f af3a b939 143d 46b9 7a3c 15b1 903c
00000370: 9dc2 273b 7401 df3d 7ddc db3d c083 373d
00000380: 131a 383d e078 993b 4fdd 14be e244 41bd
00000390: 5d7d cd3d 6ce0 d8bb 88e7 f33b 6d05 ebbd
000003a0: 95de 89bc 7b3c 14bd 6c5f 863b 584b 96bc
000003b0: e6b5 fabd 3673 d33d aebe 12be 3578 f3bc
000003c0: 12c7 85bc 645a bf3b dce9 3b3b ad7d f83d
000003d0: 36ec 9d3d cbb1 14bb ad43 013d 7d20 21bd
000003e0: ed89 fe3c dc4c aa3d d044 09bd 7ff7 423d
000003f0: 4a26 993b 88c8 8c3d d861 83bd c6cf 53bd
-0.037123617 0.028487103 0.018381935 0.036862757 -0.08085671 0.071005724 -0.042742573 0.019389762
-0.056705706 0.025164204 0.034919403 -0.013616253 -0.039179366 -0.01933466 0.035390668 0.09752631
0.006686589 0.064978704 0.006588332 -0.029375285 0.048696492 -0.011945598 0.04159915 -0.006276492
-0.03177115 0.043793954 -0.096673004 0.019582732 0.030007184 0.04373887 -0.042782277 -0.041538626
0.12026973 0.06265101 -0.12280261 0.02599832 0.07278197 0.10325136 -0.09089576 0.038421813
-0.031961776 -0.06477481 -0.10528357 -0.017276073 0.019523652 -0.033842634 0.006105884 0.03950198
0.008059158 0.07681483 0.031421382 0.029005075 0.0029298414 -0.069632 0.0029050657 0.08220875
-0.070196904 0.06248645 -0.050828695 -0.070658796 -0.036213018 0.03981781 0.017138276 -0.033718064
-0.077002995 0.085514784 -0.064127915 -0.0013753456 -0.10647307 0.1232948 -0.058778223 0.005775757
0.010788662 0.0017460578 -0.019528091 0.034615178 -0.025246464 -0.03241409 -0.06960307 -0.037670195
-0.039418597 -0.03613396 -0.13497946 -0.050808873 0.01287241 -0.06892856 0.021002129 0.07281097
0.061548382 0.074218675 0.019820334 -0.0006762291 -0.080033205 -0.033332624 0.026763646 0.017694378
0.067611195 -0.0045346706 -0.026657283 -0.08440113 0.031536784 -0.06768505 -0.092278734 -0.012858967
-0.019331938 0.01464926 -0.13526002 -0.01875909 0.011582286 0.020381475 -0.010271083 -0.08455919
-0.0003854801 -0.09025687 0.016973486 0.043539822 0.0003034582 0.05929497 -0.028417878 -0.09998055
0.015503001 -0.01248024 -0.0296539 -0.045582242 0.024815103 0.0042604823 0.07697622 -0.013486145
0.04066839 0.103130125 0.11697811 -0.08036826 0.06972246 -0.01850747 0.004847099 -0.010489128
-0.049390227 -0.03622066 0.14667779 0.08729901 -0.03936431 -0.019009504 -0.097736634 0.02822462
-0.09493012 -0.013669827 -0.09293599 0.036896452 -0.09893706 -0.107082054 0.09043388 -0.10843094
-0.0094129285 -0.050485626 -0.016149595 -0.060632844 0.084576145 0.13684262 0.040646236 0.005829646
-0.06541846 -0.12507525 0.0029941197 -0.0039661354 -0.024256464 0.01562073 0.115479045 -0.054069065
-0.15418836 -0.02313082 0.056832023 -0.048346996 0.012601972 -0.10671743 -0.011313137 0.033671696
-0.07063067 -0.055915006 0.02124813 0.083960645 -0.09083928 -0.008176411 -0.06350606 -0.07589541
0.069253385 0.030064218 -0.00038056893 0.016185528 -0.092536956 0.11218193 0.05610375 0.060833704
-0.045860052 -0.005024265 0.03561749 0.038964663 0.005248181 -0.14559552 -0.059445634 0.00069649407
0.0042486507 0.05884205 -0.13112257 -0.002699907 -0.008565736 -0.101699956 -0.017289227 -0.052094348
0.0015066791 -0.006647555 0.005327002 0.035993997 -0.039721426 -0.028867617 -0.052754153 0.054782677
0.0013389321 0.03618786 0.015302962 0.017662564 0.0025598176 0.10888949 0.10735414 0.04480338
0.04494674 0.004683599 -0.14537548 -0.047184832 0.10033677 -0.00661855 0.007443372 -0.11475644
-0.016829768 -0.03619049 0.0041007306 -0.018346474 -0.122417256 0.10324709 -0.14330551 -0.029720405
-0.016330276 0.005839633 0.0028673327 0.12133346 0.07711069 -0.002268898 0.03155868 -0.039337624
0.031071628 0.08315441 -0.03351289 0.047599312 0.004673754 0.06874186 -0.064151466 -0.05171182

weight f4 [512, 256]
00000000: e500 5dbb d5e8 823d 1004 69bc cebe 9e39
00000010: 52e7 133c 93a6 01bd 681d 6abd 15ac f2bc
00000020: e4b3 21bd 457d 863d 7498 a3bd 6262 9dbd
00000030: 5603 003c 9056 f4bc 1d72 cd3c 5f7a 3abd
00000040: 25de 12bd ffee 303d 98cf fbbc 640b de3d
00000050: 907a fd3b 3b9a 86bc 5950 943a 3a8b 1cbc
00000060: b9cc 7fbc ba3c 8fbc e7a9 513d 35d1 a9bd
00000070: 8abc edbb bcad 3cbd 3fdd 493c 918f ac3b
00000080: 3325 973d 91b6 fcbc 94ee 84bd 3ed6 23bd
00000090: 2c94 2f3d 0090 f7bd 8483 54bd e80f d3bc
000000a0: 3277 acbd c74c 123d 1fb0 5d3c 1349 063d
000000b0: 93d5 cbbc b263 3bbd e27a fcbc 7e5f 18be
000000c0: 732a 43bd d4db 72bd eadb 72bd bc0c cc3c
000000d0: 981e 603c 83b4 6fbd f7d1 ffbc f610 193d
000000e0: b786 483d a8bd 443d 6e97 003d 9885 13bd
000000f0: 2ebb 87bc c8f2 85bd 2d9c d6bd 5aec b33c
00000100: ef5c 36bd 289c c73d 82e7 63bd ff19 1d3b
00000110: 5794 83bc d6ea ffbc b677 5e3d 00c7 703d
00000120: 6ae7 28bd 7db3 1fbd 93b0 20bd c7e3 b23b
00000130: 5e0b aabd 4d84 753d 47c6 613c b2df 33bd
00000140: 835f 683c a05e b73c b80c 80bd a85e e83b
00000150: 93ad 9d3c c23e 9dbb c91b 2d3d c714 223c
00000160: c0d7 8bbd f0b5 ee37 616d 253d 0bbc e43c
00000170: e8c3 99bd e8d1 9f3d 7af2 103d e5ec 66bd
00000180: ead8 d9bb 266d 073e b90f a13c d851 8ebd
00000190: 4509 493c 40e0 61bc 7f92 ccbd 2477 84bc
000001a0: 1604 923c bc25 5dbd c1b8 0abd f5d3 9a3d
000001b0: d061 7abd ab3b c0bc c54c 1ebd 6a47 193b
000001c0: 2f30 903b 3adf 6dbc 6681 84bd 6277 20bd
000001d0: 017f f6bc a9e1 f9bc 619c 523d 43cb e53c
000001e0: 43a5 b23c 2a03 b4bd cdc4 8c3d 5ed8 913c
000001f0: 2098 cabc d938 52bd c570 813c ec66 1c3c
00000200: d753 783d 3d13 74bd 79aa 113d 7b14 013e
00000210: 16f0 3bbd 6c2d c33b fa26 7f3d edda 1cbd
00000220: 7e9b 393c cc18 d43c f43a 763d da31 ebbc
00000230: d2a7 8d3d 4704 273b 3f6e 6abd 3d2a 4ebd
00000240: 8414 94bd a5ee e1bd c34a 243d 815e 763d
00000250: d254 b6bc d10e 13bd f4fb e1bb 2102 b9bc
00000260: 1b34 8abd cedd a7bc 7d64 5d3c 0904 643d
00000270: 35ea 62bd fbe6 b23d d1b3 3f3d 724d 89bd
00000280: 207d a2bd 1efc adbb 4087 0b3c 7a64 ec3c
00000290: e973 bf3c 4411 98bc c6e7 61bc d860 873c
000002a0: dfe0 dc3c 0437 993c a043 e03c 8db7 31bd
000002b0: d1f2 ac3d 6ea9 883d 6ecb 0abd 3355 9cbb
000002c0: 92f0 10bc cc30 cabd 9d25 9bba 69eb 89bc
000002d0: dd31 023d e824 9dbc dabe b03c 5406 fcbb
000002e0: 1cda adbc 6e81 87bd 6076 03bd df9c a8bb
000002f0: 7c06 2d3d e7be 24bd 78e2 b4bd af26 733d
00000300: fe26 ae3d af76 1ebb b0d7 443d 34f4 c13c
00000310: 856a c8bd 0441 d8bc d755 103e 4321 6bbd
00000320: 620a 3bbd d1cb a33d cbe5 fcbc 7210 243d
00000330: eda4 c1bc 1af9 603c 52cb 7a3c 1475 24bb
00000340: 695e f73c 5132 383d a959 6cbd 3201 a43d
00000350: 7052 683c e890 8cbd ddd0 1d3d 0c22 913c
00000360: ee23 263c ccea c93d 44f1 4b3c 796a 90bc
00000370: 70cb 8e3d 2bf6 893d fcec 2fbc 174a d23c
00000380: 4ab8 75bb afd4 b23c eafb bfbc 3f0a 7cbd
00000390: 1d4d 0dbd bd6c f8bb df32 d23c c8f1 6cbd
000003a0: eabf 3f3d 0f46 07bd 73ec 613d d98a 5e3d
000003b0: b124 483d 0c39 e5bc ff5c 5dbc fd97 0c3d
000003c0: 0409 d63c 7161 4dba 220e 99bd 5c9e 6d3d
000003d0: ad31 fa3c d7a2 7cbd 5de8 2ebd 1bbd 30bc
000003e0: b70f 6d3c 78b1 0fbd 236e 573d 2693 0c3e
000003f0: 1bdf 87bd 7c88 6abd 184a 8ebd e838 893c
-0.0033722457 0.063920654 -0.01422216 0.0003027827 0.009027319 -0.031653 -0.05715695 -0.02962307
-0.039478198 0.06566862 -0.079880625 -0.07684781 0.007813295 -0.029826432 0.025078828 -0.04552686
-0.035856385 0.043196674 -0.030738637 0.10842016 0.007735558 -0.016430965 0.0011315449 -0.009554679
-0.0156127745 -0.017485011 0.051187422 -0.08291856 -0.0072551416 -0.046064124 0.012320816 0.005266138
0.07380142 -0.030848773 -0.06490818 -0.03999924 0.042865917 -0.12088013 -0.051883236 -0.02576442
-0.08421172 0.03571775 0.01353076 0.032784533 -0.024882114 -0.045749374 -0.030820314 -0.14880177
-0.047647905 -0.059291676 -0.059291758 0.024908416 0.013679169 -0.05852176 -0.031228049 0.03736969
0.0489566 0.048032433 0.031394415 -0.036016077 -0.016568746 -0.065404475 -0.10479007 0.021963287
-0.044522222 0.09746581 -0.055640705 0.0023971794 -0.016061945 -0.031239908 0.054313384 0.05878353
-0.04123632 -0.038989533 -0.039230894 0.005459282 -0.08302949 0.059940625 0.013780183 -0.043914504
0.014182928 0.022383988 -0.06252426 0.007091362 0.019247806 -0.004798741 0.042262826 0.009892649
-0.068282604 2.8456532e-05 0.040387515 0.027921697 -0.07508069 0.07803708 0.035387494 -0.056378264
-0.0066481726 0.1322523 0.019660817 -0.06949204 0.012270276 -0.0137863755 -0.099888794 -0.016170092
0.017824214 -0.053991064 -0.0338676 0.07559959 -0.061128438 -0.023465952 -0.038647432 0.0023388513
0.004400275 -0.014518553 -0.06469993 -0.039176352 -0.030089857 -0.030503111 0.051418666 0.028051024
0.021807319 -0.08789666 0.06873474 0.017803367 -0.024730742 -0.051323745 0.015800843 0.009546023
0.06062683 -0.05958866 0.035562966 0.12605469 -0.04588326 0.0059563424 0.06229303 -0.03829472
0.011328576 0.02589073 0.060114816 -0.028710295 0.06916775 0.0025484727 -0.057234045 -0.05033325
-0.072304755 -0.11031846 0.04011036 0.06014872 -0.022257242 -0.035902802 -0.00689649 -0.022584023
-0.067482196 -0.020491507 0.013512728 0.05566791 -0.05539914 0.08735462 0.046802346 -0.06704225
-0.07934022 -0.0053095957 0.008516133 0.028856505 0.0233707 -0.01856292 -0.013788169 0.01652567
0.026962696 0.018702991 0.027375996 -0.04338794 0.08444751 0.06672941 -0.033885412 -0.0047708987
-0.008846419 -0.098725885 -0.0011836771 -0.016835885 0.031785835 -0.019182637 0.02157538 -0.007691184
-0.021222167 -0.06616484 -0.032095313 -0.0051456536 0.042242512 -0.04022112 -0.08832258 0.059363063
0.08503531 -0.0024179628 0.048057258 0.023676015 -0.09785942 -0.02639819 0.14095245 -0.057404768
-0.0456642 0.07997859 -0.030871293 0.040054746 -0.023638213 0.013731265 0.015307264 -0.0025094198
0.030196385 0.04496986 -0.057702694 0.080080405 0.014179811 -0.06863576 0.038529266 0.01771643
0.010140402 0.09859237 0.012447659 -0.017628895 0.069723964 0.06736406 -0.010737654 0.025670094
-0.0037493878 0.021829931 -0.023435552 -0.06153321 -0.03449737 -0.007581322 0.025659023 -0.057847768
0.046813883 -0.033025797 0.055157136 0.054331634 0.048863117 -0.027981304 -0.0135109415 0.034324635
0.026127346 -0.00078346493 -0.07473399 0.05801235 0.030541265 -0.061678734 -0.042702068 -0.010787274
0.014469079 -0.035081357 0.05259527 0.13728008 -0.06634351 -0.057259068 -0.06947726 0.016750768

bias f4 [512]
00000000: afa8 c3bb 9f05 6ebd 362d 6bbc 38e0 25bd
00000010: 0117 07bc 385d 31bd 8ad7 be3d 9987 2c3e
00000020: 486c bdbd 19f0 c63d 625b 683b 8960 a13c
00000030: 6541 373d cadd 8bbd 24c2 08bd 0dd4 d3bd
00000040: 26da 9cbc 5119 e1bc 9c8a 94bd 5e89 b1bd
00000050: 4e04 393d 9744 593d 1bb2 253c e714 b0bc
00000060: 5273 e8bb 3624 90bd a77b 79bb 2e35 1ebd
00000070: 2979 573d f4d7 1dbe 324d d8ba 513b 473d
00000080: 5362 86bd f1b4 93bc c600 acbd d41c b4bc
00000090: b4ef 25bc 3965 503d aed9 3cbe 1ae0 453b
000000a0: e299 33bd 4053 71bd 5b88 663d 5af2 aa3c
000000b0: 708f ab39 7df1 d23d 75fe 9e3b 931d c53d
000000c0: cc96 41bd e071 27bd 82bf b23d b59d f9bd
000000d0: 63e3 6d3c 3441 05bd e353 d73d 4cf8 1ebd
000000e0: cbc5 213d c7ed 87bd 6c1c 063d 1a6c 2fbd
000000f0: fe63 183d 7713 43bd 4952 8ebd 1a70 dbbd
00000100: 258b ae3d 3363 29bd 088f 5dbd 3e20 f83c
00000110: 671b 173d 904c 6fbd 428b c13d 23f4 0cbd
00000120: 376d cfbd 2edb 2cbc bbe5 253d e48f 973c
00000130: 0344 913d bc10 423d 3902 a53d cc77 e7bb
00000140: 890c 0cbd ff4d 2ebd b441 f43b 4a39 c3bd
00000150: ece3 1f3d 3996 c2bd e830 de39 4841 9f3b
00000160: 992e 88bd 2952 a43c 92a3 b1bd 96a6 7fbd
00000170: c08a a5bd f31b eb3b 466d 123d 0dd4 353b
00000180: dd0d c2bd adc8 75bc 7074 fb3b 8337 afbd
00000190: fd3e 6f3d fcdc a03c 5814 553c 653b 0e3d
000001a0: 4f2f 71bd 8c01 0c3d 634f 02be 65c5 ccbc
000001b0: c88c ee3d 7cd4 883d d4a0 ecbc 02e8 94bd
000001c0: 799a f23c c5df deb9 117b 45bd b308 d5bb
000001d0: 6803 89bd 0a5b b2bd 3330 afbd 7ca9 cdbd
000001e0: b053 50bd aa32 973d 1a62 88bd 82d2 c3bc
000001f0: 4bdd 44bd 8850 a33c f724 ebbb a782 dc3d
00000200: e89f 923d 0b7d 6abd eebd 1d3d 5d5f c5bc
00000210: e0fb 57bd f805 883d 53f0 3fbe 3463 413d
00000220: 6b8b a4bc b5b4 c53c 8b3d 9dbd dccc 343c
00000230: 8fa3 a9bd e2a5 743d 1f0b 0cbe cb1e 22bd
00000240: a237 f2bd 4aa4 8c3c 82bf 03bc 4257 933d
00000250: 6a66 2ebc fef6 383d e3f2 acbd 1e99 74bd
00000260: 6ec0 373c 015d 93bc 88bd 723d 71ff 25bd
00000270: e660 a9bd 4402 4cbd 3edc 873d 87bd 81bd
00000280: 22a1 c03d abff 8e3d 0419 433d 3f37 5abd
00000290: 8e26 8b3d 0c09 e2bd 71d9 b0ba dd72 8ebd
000002a0: 3d4d ccbd 0bcd 4ebe 50a7 bd3d c693 c73c
000002b0: 4adc 0cbc 2976 2a3d 1d1d 16bc 46cc 6bbd
000002c0: b8d2 85bd 8d35 8bbd 31b0 073d b3e8 d7bd
000002d0: 57bd 283d 2be1 26bd 29c5 863d 5417 713d
000002e0: b8ca dabd 6bc8 603c c1c5 28bd 3e9d 4c3c
000002f0: 6a35 babd 20bb f2bc 9b58 82bd 2107 54bd
00000300: cbda 7bbd 4dab 72bd 42d5 0c3d 369e f4bd
00000310: 8e55 2f3c 45e1 07bd 16c2 1d3b cd41 02bc
00000320: bd3b ab3d e675 83bd 1c1b e8bc 7f79 933d
00000330: c7b7 bfbb c534 19bd 9be0 1abd 7ee1 7dbd
00000340: cac0 c2bd 7a6c 3c3c d893 28bd 134c cf3c
00000350: 3de0 47bd 9bfa 55bc bb65 d2bd f367 22be
00000360: 89bd 0fbd 7e40 063d 948e c03d 3e39 77bd
00000370: 9836 bdbb b477 21bd cf50 0b3d ea7d e33d
00000380: 73ff ee3d aac0 dbbd 390f 173d b2f7 6abd
00000390: fc2a cebd e6de 12bd 2272 173c 1a75 6e3b
000003a0: f833 43bd c87a 543d 0b88 aebc bb77 6d3d
000003b0: f307 27bc e9fd 92bd 386d 8ebd 91c0 02be
000003c0: 0377 90bc 6596 7c3d 2c99 c8bc 08d3 bfbd
000003d0: 4fe9 8bbc a220 1abe a77a 37bc 0623 f13c
000003e0: 2464 f13d ec4c 89bd 34f2 76bd 6db5 dd3d
000003f0: 10e9 1e3d 175e 1c3d c35d 89bd b455 c63b
-0.0059710364 -0.05811083 -0.014354041 -0.040497035 -0.008245231 -0.04330179 0.093184546 0.16848601
-0.09249169 0.09713764 0.003545486 0.019699352 0.0447401 -0.06829412 -0.033388272 -0.1034318
-0.01914699 -0.027477892 -0.07253 -0.08668779 0.04517012 0.053043928 0.010113264 -0.021494342
-0.0070938254 -0.07038157 -0.0038068087 -0.038624935 0.05260578 -0.15414411 -0.0016502498 0.048640553
-0.065617226 -0.018030616 -0.08398585 -0.021986403 -0.01012795 0.050877783 -0.18442413 0.003019339
-0.043847926 -0.058917284 0.056282382 0.020867515 0.0003272253 0.102999665 0.004852111 0.096247815
-0.04726295 -0.040880084 0.087279335 -0.12188283 0.014519545 -0.032532886 0.10514047 -0.038811013
0.03949527 -0.06637149 0.03274195 -0.042827703 0.037204735 -0.047625985 -0.069492884 -0.10714741
0.085226335 -0.04135437 -0.054091483 0.030288812 0.036891367 -0.058422625 0.094503894 -0.034412514
-0.10128253 -0.010550303 0.04050229 0.01850123 0.0709305 0.04737924 0.080570646 -0.0070638414
-0.034191642 -0.04255485 0.0074541215 -0.095324114 0.039035723 -0.09501309 0.00042379578 0.004860077
-0.06649513 0.020058708 -0.08673777 -0.062414728 -0.08083105 0.0071749627 0.035748743 0.00277448
-0.094753005 -0.015001458 0.0076737925 -0.0855551 0.05840968 0.019636624 0.013005339 0.03472461
-0.058883008 0.034181163 -0.12725596 -0.024996469 0.11647946 0.06681153 -0.028885283 -0.072708145
0.029614674 -0.0004250986 -0.04821307 -0.006501281 -0.06690103 -0.087087706 -0.08554115 -0.10042092
-0.05086106 0.0738271 -0.066593364 -0.023904089 -0.048062604 0.019935861 -0.0071760374 0.107671075
0.07159406 -0.057248157 0.03851121 -0.024093324 -0.05273044 0.066417634 -0.1874402 0.047213748
-0.02008601 0.02413402 -0.07677754 0.01103517 -0.082831495 0.05972851 -0.13676117 -0.039580148
-0.11827017 0.017168183 -0.0080412645 0.071943775 -0.010644535 0.045157425 -0.084447645 -0.059716336
0.011215312 -0.017988684 0.059262782 -0.04052681 -0.08270435 -0.04980685 0.06633805 -0.063349776
0.09405734 0.069823585 0.04763128 -0.053275343 0.06794463 -0.11036882 -0.0013492537 -0.06955502
-0.099756695 -0.20195405 0.09260428 0.024362456 -0.008597443 0.041616593 -0.009162215 -0.057567857
-0.06534332 -0.067973234 0.033127014 -0.10542431 0.041196194 -0.04074208 0.06580574 0.058860138
-0.10683197 0.013719658 -0.041204218 0.012488661 -0.09092219 -0.029630244 -0.063645564 -0.05176461
-0.061487954 -0.059245396 0.034383066 -0.11944239 0.01070155 -0.03317382 0.0024071983 -0.007950258
0.083610035 -0.06418972 -0.02833324 0.07200908 -0.0058507654 -0.03740384 -0.037811857 -0.061982624
-0.09509428 0.011500472 -0.04115662 0.02530483 -0.048797835 -0.013060237 -0.1027331 -0.15859966
-0.035092864 0.03277635 0.094021946 -0.060357325 -0.0057743303 -0.0394208 0.034012612 0.111080006
0.11669817 -0.10730107 0.03687975 -0.057365127 -0.10066792 -0.035857104 0.00924352 0.0036385716
-0.047656983 0.051874906 -0.021305105 0.057975512 -0.010194766 -0.07177336 -0.069544256 -0.12768771
-0.017634874 0.061666865 -0.0244871 -0.09366423 -0.017079024 -0.15051511 -0.011198676 0.029435646
0.117866784 -0.06704125 -0.060289577 0.1082562 0.038796484 0.03817567 -0.06707337 0.006052697

weight f4 [128, 512]
00000000: 2cf2 6dbd 5297 1dbc c6ca c23d 0933 2abb
00000010: 16d7 963c bcb4 b4bb 9ae4 b13c ded8 373c
00000020: 9a64 c7bc 5f46 b3bc c768 54bc 3ffc 9c3c
00000030: 5ab7 f5bc eeba 2d3c 8d6b 863d a2d3 90bd
00000040: b5a7 6e3c 4fab 68bc c51f ab3c 2882 0cbd
00000050: 76cb 493a 68bd 18bd 1a45 38bd 91b4 51bc
00000060: 8892 d1bb ac77 fe3c 619b fa3c b9aa 3e3d
00000070: 64cc a2bc 79e7 9b3c 7595 84bc 30b9 653c
00000080: ac13 a0bd e58e 77bb cc22 cb3b 0d17 9b3b
00000090: ea90 e43c 7c0c d63b cd70 dcbb b5c8 803d
000000a0: ba0b 023d a3c4 913c 4c53 db3b d142 75bd
000000b0: 165e e53b 855e 17bc a8cd 28bc 4a95 20bb
000000c0: 6283 06bd 194d 633d 77fd 06bd b6c1 bdbc
000000d0: 4ebb 7639 d414 8e3c 9b3b 0cbd 2fb0 b3bc
000000e0: 7301 1abd 7c0c 7b3d befd a43c 9989 d13c
000000f0: 4aa7 7bbd 704d 043c 64a6 3cbc 1ac0 f6bb
00000100: 702c 16bd b2c3 f1bb 5291 01bd 8bb9 84bc
00000110: 392f ccbc 0802 15bd 324a 5bbd 16c3 8e3c
00000120: 41ee 9cbc 4448 8fbd 0494 9c3d cacf 5c3d
00000130: 5b91 ec3c fea9 54bb b938 dfbc 52bd caba
00000140: 6131 d9bc 0997 4dbc d51f be3c e26c 403d
00000150: 20be 56bd 4118 e33c 4822 a23c b6f4 513c
00000160: 896c d3bb ad7b 873c b8f1 6cbc aab8 91bc
00000170: 1627 df3c 0446 213d afc8 3cbd fcc3 24bc
00000180: c5e2 35bc 5a1a 3fbd 0e1e d93c af74 593d
00000190: 1270 1a3c a060 bfbc c309 773d 89c1 35bd
000001a0: 8754 4e3c 186f 7abc 371f 12ba da05 6c3d
000001b0: 0e76 d3bc 8cf2 37bd a9aa 463c ef60 963c
000001c0: ef62 bc3b f42f 313d c453 013c d144 02bc
000001d0: 7f82 e73c c25b 27bc db3c 953c b692 fc3d
000001e0: 43bc 5d3d dfcb d63b 0f06 0abd f26f 40bd
000001f0: 2b5a 613d 10c1 ddbc 4d68 523c 9eba c13b
00000200: 80b4 dabd d515 423d 1ba3 d13c 1c34 0dbd
00000210: 8997 bd3b a01a 27bc fe5e 4d3d 3b0f 08bc
00000220: 511f 483b 7c3c 16bd 8e5c 623b 6652 35bc
00000230: 3198 bd3c 4281 623b d800 cb3d dcef 13bd
00000240: ae54 6a3b 06f3 16ba 7f1c adbc 2c8a b6bd
00000250: 8234 863d 5cc7 a73b d68c 1ebd f41f 583a
00000260: 27a5 323c b68e a53a 74db 173b 7d92 243d
00000270: 38f1 473c 1297 bd3c 4aee 183b 4d7d 193b
00000280: c857 dabd dc2c d0bc a5b4 153b b53a a23c
00000290: 81da f13a 17cb 0c3d fb72 86bd c6ec 80bc
000002a0: 40fa 4a3d d4dc 503d 5f06 85bd 2f34 29bd
000002b0: 32f9 28b7 b3d5 253d 50cd a63c 423b 87bb
000002c0: f01d cbbc a1cf 843d 8852 d53c 3d2e 2c3d
000002d0: 5b8f 2dbd 184d c83c c6c2 d43c f569 83ba
000002e0: 5297 163d 9746 0b3c 5934 e4bb 85a8 cb3c
000002f0: 3ee4 87bd 54d6 1dbd 5348 323d 7532 aa3c
00000300: f360 77bb 5841 353d 6169 05bd 70ae b5bc
00000310: 40a7 b3bb ffe0 b5bc e562 663c 0fcb 1e3d
00000320: 7a49 9a3c 0078 553d 3ddb 28bd 13d3 5f3c
00000330: e40f c7bb 8844 3ebd 3620 3e3d 079b 45bc
00000340: 85e5 3a3c 0c4e 8abd c9b9 0a3d d5d1 2bbb
00000350: 326a 57bc 6a72 56bb 4213 943d a721 5f39
00000360: 52b8 253c 8686 133d f965 29bd 9d30 ee3c
00000370: 8fc4 aabd 4e80 a43c 33b2 63bd 70ee 50bd
00000380: f2fa 7fbd 2d84 8d3d 03e5 813b 953a 4b3b
00000390: f803 573d 1aba 363b 9cff a33c 9317 25bd
000003a0: aa71 c8bc 2ca2 4f3d 31b1 263c 2308 3dbd
000003b0: 6842 9bbc aecd 5f3d de4a ae3c 007d 7bbc
000003c0: 2a1e c93c ad26 063d 041b 7bbc a104 2b3d
000003d0: 64d1 f3bc 8ac0 3abd b0a9 4e3c 8649 3f3d
000003e0: a045 64bd 5789 703d 8c98 183d a8b0 81bd
000003f0: d701 2abd 5261 4abc af99 13bd 5be7 0f3d
-0.05809228 -0.009618597 0.09511332 -0.002597036 0.018413108 -0.0055147093 0.021715451 0.011221139
-0.024339963 -0.021884141 -0.012964434 0.019163249 -0.029994655 0.01060365 0.065634824 -0.07071616
0.014566352 -0.014200999 0.020889172 -0.034303814 0.00076978595 -0.037290007 -0.044987775 -0.012799398
-0.0063956417 0.031062923 0.030591669 0.046549533 -0.019872852 0.019031273 -0.016184548 0.014021203
-0.07816252 -0.003777438 0.0061992165 0.0047329725 0.027901132 0.00653225 -0.006727314 0.06288282
0.031749465 0.017793959 0.0066932794 -0.059878174 0.0069997413 -0.009238844 -0.0103029385 -0.0024503046
-0.03284014 0.055493448 -0.032956567 -0.023163658 0.00023530165 0.017343916 -0.03423653 -0.021934597
-0.03759904 0.061291203 0.020140525 0.025578307 -0.061438836 0.008075103 -0.01151428 -0.0075302245
-0.036663473 -0.007378065 -0.03163273 -0.016201755 -0.024924861 -0.03637889 -0.053537555 0.017427009
-0.019156577 -0.069962054 0.07645419 0.0539091 0.028877905 -0.0032449956 -0.027248727 -0.0015467799
-0.026512804 -0.012548217 0.023208538 0.04697884 -0.05242741 0.027721526 0.019791737 0.012814691
-0.0064521474 0.016538465 -0.014461927 -0.01778825 0.027240317 0.039373413 -0.046089824 -0.010056492
-0.011101429 -0.04665599 0.026503589 0.053089794 0.009426134 -0.023361504 0.060312044 -0.044374023
0.012593395 -0.015285276 -0.00055741094 0.057622768 -0.025813129 -0.044909045 0.0121256495 0.018356768
0.0057490985 0.043258622 0.007893506 -0.007950977 0.028260468 -0.010214748 0.018217495 0.123326704
0.05413462 0.006555065 -0.033697184 -0.04698176 0.05501763 -0.027069598 0.01284225 0.005912139
-0.10678959 0.047384102 0.02559047 -0.034473523 0.0057858867 -0.010199219 0.05013942 -0.0083044125
0.0030536244 -0.036678776 0.003454003 -0.011067009 0.02314386 0.0034561907 0.0991227 -0.03611742
0.003575604 -0.0005758259 -0.021131752 -0.08913073 0.06552984 0.005120201 -0.03870853 0.00082445075
0.010903633 0.0012631032 0.0023171576 0.040178765 0.012203507 0.023143325 0.002333539 0.0023420632
-0.10661274 -0.025412016 0.0022843268 0.019803384 0.001845196 0.03437337 -0.065648995 -0.015737902
0.049555063 0.050991848 -0.06495356 -0.04130953 -1.0071601e-05 0.040487003 0.020361573 -0.004126937
-0.024794549 0.064849146 0.02604033 0.042036284 -0.042373043 0.024450824 0.025971781 -0.0010026084
0.036765404 0.008500717 -0.006964248 0.02486063 -0.066353306 -0.038534477 0.043526005 0.020776013
-0.0037746995 0.04425177 -0.0325712 -0.022177905 -0.0054825842 -0.022202013 0.014061664 0.03876787
0.018833864 0.052116394 -0.041224707 0.013661164 -0.0060748924 -0.046452075 0.046417437 -0.012060887
0.011407261 -0.067531675 0.033868585 -0.00262176 -0.0131478775 -0.0032722005 0.07230236 0.00021279474
0.010114746 0.036016963 -0.041357014 0.029075915 -0.08338272 0.020080712 -0.055589866 -0.05100864
-0.06249518 0.06909976 0.003964068 0.003101026 0.05249402 0.0027881921 0.020019345 -0.040305685
-0.024468262 0.05069177 0.010174082 -0.046150338 -0.018952563 0.05463951 0.021275934 -0.015349627
0.024550516 0.032751728 -0.015326265 0.04175246 -0.029762931 -0.045593776 0.012613699 0.046700977
-0.055730462 0.058724727 0.037254855 -0.06332523 -0.04150566 -0.0123523045 -0.036035236 0.035132747

bias f4 [128]
00000000: c5f2 c5bd 8a82 c7bd 46bb a13c 809d 53bd
00000010: af6a c33b a4b3 b03d 6372 143d 36bb babc
00000020: 2621 cb3c f9ad a2bd 213c c73c 9e24 2fbd
00000030: c384 633c 9e6d 9fbd f73e e73c cfc7 0f3c
00000040: a230 323d c658 063d f339 293b da0e f4bb
00000050: f148 75bc 3198 ad3d 0f2b df3b 837e 85bd
00000060: 422a 34bc f796 abbc 7577 c13c 4cee 5cbc
00000070: ee51 d1bd e318 03bd a6b1 293d 1737 67bd
00000080: 936a 5fbc e01c 963d 513c fe3c 9dd3 a6bd
00000090: fdac c7bc 137f b7bd a53f 4e3d 6766 bdbc
000000a0: 9549 a3bd 73d7 a5bc 9842 80bd eb8a a6bd
000000b0: 6f3e 8abd cd02 ff3c 159d 3ebd e407 1b3d
000000c0: 7a7e 87bd 53c5 01bd a7ef 7fbd ac88 df3c
000000d0: 00d7 bbbd 18c9 413c 8f8d c5bb 76dc 5cbd
000000e0: 031a b63c 89ef be3b da0b 2cbd 04e8 98bc
000000f0: 703b c6bc 0438 e5bc 8857 5e3d 0f34 e3bc
00000100: b348 693d 173d 0ebd 4cf5 313d f97d 0a3d
00000110: 7830 143c 65bf b73b 0727 bebc e800 663c
00000120: 2b80 d0bd 19ef 5d3d 6132 1fbd 2352 97bd
00000130: fe00 bebd d517 8a3d 5721 89bd e968 233d
00000140: dee4 213c 4ebf 923a 551c 9abd 1181 9e3d
00000150: 293f 4f3d d0c5 8ebc 238d 66bc 7e46 ab3c
00000160: 242c c0bd 7edc 5ebd 3594 91bc 13f1 5dbd
00000170: ec85 57bd 1790 e1bc 81fc 1cbd a149 21bd
00000180: 01f5 dabd aa20 8cbc 5b48 9dbd 8293 5a3d
00000190: 01c6 9b3d 84a4 a5bd 162e 29bd 90c4 863d
000001a0: 2561 0c3d 8bb5 5bbd 82e6 a1bb b117 2c3c
000001b0: b8a0 1dbd 61cc 5e3d e76f 51bd 94ed febc
000001c0: 1452 2a3b 87b9 52bd e89b e0bd ad1f 61bc
000001d0: 6d25 23bd f0d5 863d 00a2 1f3d 9722 d33c
000001e0: d160 d9bc 195b 90bd 3852 1b3d 0242 c1bd
000001f0: ad59 e23a 39ff 2bbd e387 a7bc 182d bc3c
-0.09665445 -0.09741695 0.01974262 -0.051663876 0.0059636454 0.08628014 0.0362419 -0.022794347
0.02479608 -0.07943339 0.024320664 -0.04275953 0.013886633 -0.0778458 0.028228266 0.008775665
0.04350341 0.032799505 0.0025821894 -0.0074480595 -0.014971004 0.08476294 0.006810553 -0.06518271
-0.010996403 -0.02094601 0.023616532 -0.013484549 -0.10220705 -0.032006156 0.041429184 -0.056449022
-0.013636249 0.07329726 0.03103462 -0.08145831 -0.02437448 -0.08959784 0.050353665 -0.023120118
-0.07973019 -0.020244336 -0.06262702 -0.08131965 -0.067501895 0.031129265 -0.046536524 0.037849322
-0.0661592 -0.031682324 -0.06248441 0.02728685 -0.09171867 0.01182773 -0.006028838 -0.053921185
0.0222292 0.0058268947 -0.04200349 -0.018665321 -0.024198264 -0.027980812 0.054282695 -0.027734784
0.056954097 -0.03472623 0.043446824 0.033811543 0.009044759 0.005607533 -0.023211969 0.014038302
-0.10180696 0.0541831 -0.038866404 -0.07388713 -0.09277533 0.06742827 -0.06695812 0.039894972
0.009881226 0.0011195929 -0.07524935 0.07739461 0.050597344 -0.017428309 -0.014071736 0.020907637
-0.09383419 -0.054409496 -0.017770866 -0.054184984 -0.052617952 -0.027534528 -0.038326744 -0.03937686
-0.10691262 -0.01710542 -0.07679816 0.05336333 0.076061256 -0.080880195 -0.041303717 0.0658046
0.03427233 -0.05363993 -0.0049408088 0.010503695 -0.03848335 0.05439413 -0.05113211 -0.031119145
0.0025988864 -0.051446464 -0.10967237 -0.013740462 -0.039830614 0.06583774 0.038972855 0.02577333
-0.026535423 -0.070486255 0.037920207 -0.09436418 0.0017269157 -0.041991446 -0.020450538 0.022970721

weight f4 [1, 128]
00000000: b4d4 4cbd 48a5 dfbc 0c54 893d fe0b 35bd
00000010: 0480 253d 605c 713c 1fd4 3838 6f0a f0bc
00000020: d5f6 9c3d 1f6c 8ebc d1ca 723a 151a f8bc
00000030: 073e 923a 3678 3cbd f8e6 673c 12ec bc3d
00000040: d298 9c3d 6e0a 2e3d a35b 803d 1d9d 173a
00000050: 8c07 1ebb ae6c 133d 9fa7 993c 3407 9bbd
00000060: 15f8 853d d4fe 6abc 43d0 033d d3b7 903d
00000070: b0f1 5abd 02b0 f5bc ba24 113d 3d10 4cbc
00000080: 708f acba f2f7 6f3d 62c0 4c3d 6a5f b2bd
00000090: 424e 523d 7409 adbd 8f61 213d de9f b83d
000000a0: be7f b3bc d927 95bb ca8f 83bd 7f8d 80bc
000000b0: f4b9 55bd b297 d93c 89bb 2ebd 48b7 863d
000000c0: cb74 00bd 8ed3 95bd 8a19 20bd 944e f83a
000000d0: 7705 ddbb 7b77 c13d 7e66 2bbd f404 e9bc
000000e0: 88cc 673d f32f 523d 3d41 96bd 7de7 7bbd
000000f0: 80b3 ac38 1e72 3a38 b8c5 d639 d7a0 0abb
00000100: 28cf 403c f109 b6bd 8d6b 8f3d 66ec a63d
00000110: 4479 113a d616 493d c8de d1bd d84a 943d
00000120: a142 e9bc f80e 863d 88a7 ce3d 1477 8abd
00000130: d523 9abd c17a af3b d973 5bbd 008d b136
00000140: 23e0 9e3c c97f 263a 3170 6bbd 9beb 663d
00000150: e8cf dd3c 2849 8abd 3e79 c2ba 2781 bd3d
00000160: 1a0d 06bc 5faf a5bd aa8d 9bbd ac72 b2bb
00000170: 37d2 31bd bfcc 12bd ec7e 9abc 82aa 5fbd
00000180: d348 f5bc 0e64 0d3d 5971 84bd dea3 113c
00000190: 6b41 873d 286e 52bd 4058 4bbc bb41 8a3d
000001a0: 2482 fe3c 9c3b 57bd 0022 a23c 626b 003d
000001b0: 6a3d 833c e314 b83c 2d83 acbd df7a c1ba
000001c0: 93a8 d33c 6de9 a6bc 8c7b 5ebd c747 1dbd
000001d0: 1566 be3d 7e23 5d3d 518c 113a 8c64 883c
000001e0: 0b81 81ba ec9b aebc d478 823d a218 bebb
000001f0: 9a2e 94bc 67f6 6d3d 1263 0e39 cacc 853a
-0.050007537 -0.027300492 0.06705484 -0.04420089 0.04040529 0.014731497 4.406657e-05 -0.02930185
0.07664267 -0.01738554 0.00092617894 -0.030285874 0.0011157402 -0.04601308 0.014154188 0.09224714
0.07646336 0.042490415 0.06267478 0.00057836046 -0.0024113385 0.035992317 0.018756686 -0.07569733
0.065414585 -0.014342982 0.032181036 0.07066312 -0.053453147 -0.029991154 0.035435416 -0.012455043
-0.0013165306 0.05858607 0.049988158 -0.08709605 0.051344164 -0.08449069 0.03939968 0.09014867
-0.021911498 -0.0045518694 -0.0642391 -0.01569247 -0.05217929 0.026561592 -0.042659316 0.06577927
-0.031361382 -0.073157415 -0.039086856 0.0018944317 -0.006745036 0.09446617 -0.04184579 -0.028444745
0.05659154 0.05131526 -0.07336662 -0.06150006 8.2350336e-05 4.4452136e-05 0.00040964573 -0.0021152997
0.01176814 -0.08888615 0.070029356 0.08150558 0.0005549381 0.049094044 -0.1024757 0.07240838
-0.028474154 0.06545824 0.10090548 -0.067609936 -0.07526366 0.0053552096 -0.053577278 5.2914256e-06
0.019393986 0.0006351439 -0.05748004 0.056377035 0.027076676 -0.06752235 -0.0014837158 0.092531495
-0.008181835 -0.0809009 -0.0759538 -0.005445799 -0.043413367 -0.035839792 -0.01885935 -0.05460597
-0.029941952 0.034519248 -0.06466932 0.008889167 0.06604274 -0.051374584 -0.012411177 0.06750818
0.031067915 -0.052547082 0.019791603 0.03135241 0.016020495 0.022470897 -0.08423457 -0.001476135
0.025837218 -0.020374978 -0.054317042 -0.03839853 0.09296814 0.053988926 0.000555222 0.016649507
-0.0009880377 -0.021314584 0.063707024 -0.0058012763 -0.018088628 0.058096316 0.00013579082 0.0010208127
