result/gan_40_model_11.pt (torch, 979782 bytes, 15 tensors)

weight f4 [128, 13]
-0.28784162 -0.09912692 0.15133993 0.2760075 0.25970206 0.293499 -0.028462978 0.09542474
0.15272616 0.19723615 -0.12737952 -0.20258631 -0.006154697 -0.22392467 -0.2351704 -0.1823081
0.22868057 0.08784267 0.13424459 -0.07201738 0.07506379 -0.042154573 -0.04049103 -0.009259787
0.14904074 -0.29056275 -0.07347403 -0.38429627 -0.011817324 -0.14160153 -0.11057629 -0.23415816
-0.22038823 0.12867667 -0.25695673 0.36493385 0.040364645 0.08417428 0.24985161 -0.29002377
0.34483224 0.088013835 -0.14148399 -0.15002778 -0.18150328 0.010593252 -0.13994108 -0.026533721
0.022434847 -0.2582729 -0.005911161 -0.034790713 0.25466606 0.21610513 -0.17624311 0.05966814
-0.24930806 -0.12764326 0.041510575 -0.12570068 0.42319706 -0.028350288 0.41107348 -0.047004044
-0.23399425 0.18783481 -0.23505886 0.17537516 -0.276437 -0.3463615 -0.27282196 0.12432509
-0.071994126 0.12780292 0.09779358 0.095460854 0.17483461 0.19378799 -0.35527715 -0.2629649
0.32649136 0.27553627 0.20255755 -0.15140659 0.2459305 -0.05483325 -0.16117965 -0.22176595
-0.34515738 -0.16771413 -0.36479464 0.096797094 -0.09612849 0.15144598 -0.021716371 0.19373772
-0.087636895 -0.11815104 0.10074618 -0.35383773 -0.21613853 -0.21382456 0.005266348 -0.30422106
-0.054093078 0.08284834 -0.3666228 -0.05440225 -0.021089815 -0.17216648 0.046195123 0.0031445867
-0.00094462966 -0.11128444 0.16104512 0.10219065 0.14167635 0.43367365 -0.018750371 0.17659464
0.2433105 0.23823424 -0.32252708 0.050302852 -0.11986171 -0.16691324 -0.29974833 0.13028252
-0.18258105 0.1454349 0.33382466 0.14008582 -0.2798198 -0.1720108 0.040953 -0.24774659
-0.16889109 0.270881 0.16665304 0.15326203 0.10439199 -0.13040203 -0.02599699 0.10921165
-0.21794233 0.023400884 -0.098682694 -0.22815962 -0.12999989 0.11068048 0.21712604 0.1429198
0.2183119 -0.62053245 0.16604859 -0.21564458 0.20689823 -0.08144352 0.1978069 -0.037909236
0.12630148 -0.30615208 0.29343688 -0.030589834 -0.07435368 -0.26746094 -0.42381158 0.11131409
0.011876135 0.17905152 -0.017038148 -0.2678496 0.04872653 0.15258032 0.2731772 0.039504874
-0.14217103 0.0772665 0.06023257 0.304436 -0.13368462 0.28651372 -0.3768305 -0.19097832
-0.034340747 0.2078408 -0.07335976 -0.19085784 0.2605207 0.27879855 0.26785347 0.09364733
-0.2944908 0.13743326 -0.21823312 0.23894627 0.25253215 0.20081685 0.28560528 -0.16369477
-0.23778331 -0.15823157 -0.0022565213 -0.15335801 -0.16711669 0.3229094 -0.02432504 0.18067841
-0.05941111 0.02848656 -0.0120949345 -0.17618206 0.01150062 -0.025092078 -0.124067776 0.08499115
0.094247065 0.2723075 -0.19495192 0.22548005 -0.2830093 -0.012934241 0.30126977 0.022812571
-0.20636728 -0.16340727 -0.16182216 -0.096263364 0.18908942 0.06423807 0.1926389 -0.018033097
0.10763596 -0.3345148 -0.11093418 0.13318338 0.074294634 -0.017396294 -0.1926212 -0.2699608
0.3744966 0.28645727 0.27806464 0.10893211 -0.2954363 -0.13489641 0.11298436 -0.30626214
-0.17167382 0.11481156 0.06851755 0.24411683 0.09407217 -0.15895544 0.063720025 -0.24764284
00000000: fa5f 93be 0e03 cbbd dbf8 1a3e db50 8d3e
00000010: abf7 843e 8045 963e 312b e9bc 0c6e c33d
00000020: 3f64 1c3e 46f8 493e c76f 02be c972 4fbe
00000030: 57ad c9bb 824c 65be 82d0 70be f9ae 3abe
00000040: 3d2b 6a3e dce6 b33d 6a77 093e d97d 93bd
00000050: 0bbb 993d 46aa 2cbd ecd9 25bd 5db6 17bc
00000060: 239e 183e a4c4 94be 8d79 96bd 7bc2 c4be
00000070: 739d 41bc feff 10be d275 e2bd 28c7 6fbe
00000080: 74ad 61be d1c3 033e d58f 83be 9cd8 ba3e
00000090: 6655 253d 9163 ac3d 1ad9 7f3e ff7d 94be
000000a0: da8d b03e 9940 b43d 2ee1 10be e2a0 19be
000000b0: ffdb 39be 528f 2d3c b74c 0fbe 3f5d d9bc
000000c0: 49c9 b73c 583c 84be 6ab2 c1bb b580 0ebd
000000d0: 9763 823e aa4a 5d3e 1379 34be 9466 743d
000000e0: 9d4a 7fbe eab4 02be fe06 2a3d aeb7 00be
000000f0: 49ad d83e dd3e e8bc 3978 d23e 5087 40bd
00000100: 309c 6fbe c557 403e 45b3 70be 8c95 333e
00000110: 2789 8dbe 4b56 b1be 52af 8bbe 279e fe3d
00000120: a871 93bd c5de 023e 0048 c83d fb80 c33d
00000130: d807 333e 5c70 463e e3e6 b5be 56a3 86be
00000140: e029 a73e 1713 8d3e 3f6b 4f3e 540a 1bbe
00000150: 34d5 7b3e d498 60bd 470c 25be 9d16 63be
00000160: 78b8 b0be 41bd 2bbe 5dc6 babe 8e3d c63d
00000170: 04df c4bd a814 1b3e 88e6 b1bc 2e63 463e
00000180: f97a b3bd 2cf9 f1bd 0354 ce3d 382a b5be
00000190: 6b53 5dbe d3f4 5abe 5491 ac3b ddc2 9bbe
000001a0: b490 5dbd 64ac a93d fcb5 bbbe e5d4 5ebd
000001b0: 8cc4 acbc 694c 30be 1937 3d3d 6915 4e3b
000001c0: 06a1 77ba 19e9 e3bd 03e9 243e 5549 d13d
000001d0: 9b13 113e 790a de3e 619a 99bc 3ad5 343e
000001e0: 6326 793e adf3 733e 4522 a5be 5d0a 4e3d
000001f0: 0e7a f5bd 4eeb 2abe 9d78 99be c868 053e
00000200: 87f6 3abe e3ec 143e 11eb aa3e a872 0f3e
00000210: 8a44 8fbe 9923 30be 55be 273d 48b1 7dbe
00000220: c9f1 2cbe eab0 8a3e 18a7 2a3e b9f0 1c3e
00000230: 78cb d53d 1c88 05be a4f7 d4bc 5caa df3d
00000240: 462c 5fbe 36b3 bf3c 271a cabd ada2 69be
00000250: b11e 05be 73ac e23d 4a56 5e3e 9159 123e
00000260: 288d 5f3e 37db 1ebf a408 2a3e efd1 5cbe
00000270: 21dd 533e dccb a6bd e48d 4a3e b746 1bbd
00000280: 2d55 013e f7bf 9cbe 5c3d 963e 8897 fabc
00000290: be46 98bd a4f0 88be d5fd d8be a4f8 e33d
000002a0: 1f94 423c 4859 373e 9693 8bbc 9523 89be
000002b0: 7895 473d 043e 1c3e e2dd 8b3e ddcf 213d
000002c0: 4895 11be e63d 9e3d 6db6 763d 09df 9b3e
000002d0: 9fe4 08be edb1 923e edef c0be d28f 43be
000002e0: e2a8 0cbd 38d4 543e a43d 96bd 3d70 43be
000002f0: f862 853e afbe 8e3e 1724 893e 2cca bf3d
00000300: 80c7 96be 4ebb 0c3e 8178 5fbe 55ae 743e
00000310: e54b 813e efa2 4d3e db3a 923e 9a9f 27be
00000320: 787d 73be 7507 22be 25e2 13bb e209 1dbe
00000330: a320 2bbe 6254 a53e 4e45 c7bc c303 393e
00000340: 1059 73bd a55c e93c d529 46bc 1269 34be
00000350: 196d 3c3c e78d cdbc 3f17 febd d70f ae3d
00000360: 9b04 c13d e36b 8b3e 7aa1 47be 3ee4 663e
00000370: 98e6 90be 24ea 53bc 0840 9a3e 6ee1 ba3c
00000380: f251 53be 3c54 27be b5b4 25be ba25 c5bd
00000390: a8a0 413e 408f 833d 2243 453e 25ba 93bc
000003a0: 3e70 dc3d 8645 abbe 7631 e3bd 3961 083e
000003b0: c927 983d ac82 8ebc 7e3e 45be 4d38 8abe
000003c0: 05be bf3e 87aa 923e 7d5e 8e3e cc17 df3d
000003d0: 6d43 97be 4922 0abe 5864 e73d 64ce 9cbe
000003e0: 43cb 2fbe 5322 eb3d ee52 8c3d c3f9 793e
000003f0: e9a8 c03d 37c5 22be a57f 823d 1696 7dbe

bias f4 [128]
-0.15361728 -0.16688819 -0.20317207 0.39277253 -0.24254465 -0.08229352 -0.045863725 0.044368297
0.075140536 -0.18894662 0.20735547 -0.1543137 -0.23195496 -0.3502018 -0.11145941 0.23595731
0.007871403 -0.0094245635 -0.07794991 -0.20783992 -0.16752103 0.19702986 -0.16016239 -0.084832296
-0.082245894 -0.049322642 -0.15441835 -0.06880223 0.2718218 0.10777396 -0.024864888 0.033355244
-0.28395694 0.13001089 -0.20628567 0.2803486 0.12470012 -0.0118213855 0.047802676 -0.13635068
-0.28324193 0.030476104 0.24990863 0.1634814 -0.24036472 -0.19204338 -0.32825997 0.2441159
0.2306214 -0.031317104 0.10032229 -0.15130307 -0.079940304 -0.109460294 -0.13503838 0.30136675
0.22330663 -0.18106502 0.08924445 -0.17043352 0.015606056 0.14697178 0.16671935 0.17605606
0.1629215 0.2819572 0.10919411 0.2507073 0.14658321 0.072430484 -0.19376092 -0.19623628
-0.031107973 -0.0012991335 0.15644328 -0.0954204 -0.20041665 -0.23463774 -0.088586755 -0.09248598
-0.15062404 0.20983465 0.16425668 -0.19606146 0.20151776 0.31772208 0.17504883 0.010432928
-0.29256755 0.054147653 -0.19436947 -0.15695882 0.18504338 0.106594466 0.08884075 -0.21867116
-0.017643012 0.0018638127 0.26408514 0.23623157 0.005341252 0.029029489 0.16979718 -0.20085211
0.18023951 0.066080794 0.18727921 0.13929592 -0.28970006 0.0351793 0.08865457 -0.23978932
-0.08305732 -0.14060569 -0.0051501817 0.02475103 0.24716285 0.10272492 0.09608413 -0.086418964
-0.085693195 -0.10394331 -0.2687155 -0.02610579 0.041383073 0.048696633 -0.25834435 -0.051882077
00000000: d94d 1dbe bde4 2abe 570c 50be 7b19 c93e
00000010: a05d 78be 8189 a8bd 9adb 3bbd 88bb 353d
00000020: 48e3 993d 397b 41be fe54 543e 6904 1ebe
00000030: 9a85 6dbe a64d b3be d544 e4bd cb9e 713e
00000040: 0ff7 003c 7c69 1abc 34a4 9fbd fdd3 54be
00000050: a28a 2bbe 32c2 493e 9c01 24be 8ebc adbd
00000060: 8970 a8bd 8a06 4abd d81f 1ebe 2fe8 8cbd
00000070: 3a2c 8b3e 98b8 dc3d 73b1 cbbc 829f 083d
00000080: ce62 91be 9321 053e 8d3c 53be da89 8f3e
00000090: c762 ff3d 7cae 41bc bdcc 433d 839f 0bbe
000000a0: 1605 91be 06a9 f93c 0ce8 7f3e ab67 273e
000000b0: 2b22 76be 05a7 44be b111 a8be 85f9 793e
000000c0: 0428 6c3e 5d46 00bd c675 cd3d 31ef 1abe
000000d0: beb7 a3bd b82c e0bd 8047 0abe be4c 9a3e
000000e0: 7eaa 643e 1c69 39be cbc5 b63d 2086 2ebe
000000f0: 8bb0 7f3c c57f 163e 7ab8 2a3e 0a48 343e
00000100: e5d4 263e b25c 903e 29a1 df3d b55c 803e
00000110: e919 163e 6f56 943d 4369 46be 2af2 48be
00000120: 26d6 febc b047 aaba ab32 203e c56b c3bd
00000130: 063a 4dbe e044 70be f96c b5bd 4a69 bdbd
00000140: 303d 1abe e5de 563e e732 283e 56c4 48be
00000150: ac5a 4e3e 78ac a23e 0040 333e dfee 2a3c
00000160: 6acb 95be eec9 5d3d ca08 47be d0b9 20be
00000170: 037c 3d3e 334e da3d 24f2 b53d 55eb 5fbe
00000180: 1488 90bc 2d4b f43a 2b36 873e b0e6 713e
00000190: ab05 af3b 40cf ed3c 50df 2d3e 2dac 4dbe
000001a0: b590 383e 5e55 873d 1fc6 3f3e 97a3 0e3e
000001b0: 9153 94be 2b18 103d 8790 b53d 558b 75be
000001c0: f519 aabd f0fa 0fbe dbc2 a8bb acc2 ca3c
000001d0: 4218 7d3e 7161 d23d c2c7 c43d 6dfc b0bd
000001e0: ea7f afbd 3be0 d4bd 1495 89be cfdb d5bc
000001f0: 4c81 293d 1f76 473d b645 84be 4d82 54bd

weight f4 [512, 128]
-0.007064854 -0.01809769 0.04220291 0.07647724 -0.07311031 0.0014086916 0.09960982 0.048587136
0.0125271855 0.0025997707 -0.019482663 0.0016104041 -0.058431834 -0.057352263 0.004115368 -0.0045569655
-0.009058703 0.08937705 0.104674146 0.001625394 0.043276094 -0.09875467 -0.09376393 -0.009610382
-0.03107951 -0.02260025 -0.036238298 0.06927403 0.10575049 -0.079285435 0.09859586 0.04403371
0.04103509 0.02829983 -0.02805421 -0.013198977 -0.14334996 0.044476088 0.13049449 -0.053715367
-0.05291113 0.07317113 0.01250031 -0.029991629 -0.013770798 0.10333394 0.021131363 0.14306344
0.09796223 0.10888704 -0.05404274 -0.086318254 0.023383042 -0.031732425 -0.07517919 -0.103670046
0.087654196 0.017855654 0.09097573 -0.06316981 -0.02820969 0.0996008 -0.14618948 -0.026243458
0.06895558 0.13131812 0.13418669 0.06867185 0.09857649 -0.011897799 0.026249366 0.028659163
0.035929132 -0.080174014 0.0028742524 0.100478984 -0.015641771 -0.02382509 0.14328241 -0.04053515
-0.23953696 -0.023042688 0.0059778816 -0.12517379 0.025436675 0.0055440473 -0.0350449 0.054043185
0.082871586 -0.027563607 -0.06296348 0.013753957 -0.03224227 0.012148351 -0.12692413 0.08327394
-0.0109175695 -0.014838752 0.008372019 0.15644448 -0.033548083 0.11200587 0.088366926 0.13115397
0.024405735 0.07722459 0.1283743 0.00013949742 -0.06936994 0.027840417 0.247679 -0.035748504
-0.017280612 0.028185023 -0.04012743 0.011798262 -0.04709683 -0.028576767 -0.016863177 0.030270688
0.070876226 0.073567376 -0.078691594 0.07010956 -0.01837748 -0.057849817 0.017141933 -0.017500585
0.07217256 0.081206515 -0.034609467 -0.022015125 -0.14159915 -0.03544086 -0.027818678 -0.06964693
-0.0783544 -0.07814329 -0.014861738 -0.06165493 -0.14218226 -0.045079883 -0.021295622 -0.0480509
-0.008043981 0.00847651 -0.0637971 -0.04643629 0.05512459 -0.10056655 0.03268304 -0.06046514
-0.14053011 0.057887804 0.009682546 -0.008372601 0.07982487 -0.0048707607 0.103171 0.09833074
-0.0048253248 -0.057819113 0.023260074 0.06753331 -0.04772514 0.023867851 -0.09917296 -0.047405228
-0.09799205 0.037555896 -0.046395615 0.055549547 -0.060400248 -0.024902394 -0.014687177 0.1587208
0.06659333 -0.090805 -0.03193774 0.036330108 -0.058423594 -0.0053735543 0.10512841 -0.086219326
0.07393135 0.035844866 -0.07326836 0.027865974 -0.06520595 0.022863973 -0.10479692 0.04885829
0.05974897 0.04112037 -0.056893557 0.012095258 -0.00017989066 -0.10044374 -0.095058 0.08184275
-0.010388242 -0.08465458 0.028416028 0.059086133 -0.068800844 -0.03294909 0.04223398 0.061259337
-0.14905958 0.033461917 -0.06205697 0.012071243 -0.01737717 0.009381527 0.012414091 0.035758253
-0.07860726 0.08178314 -0.120913304 -0.09545057 -0.048150573 0.0030850852 -0.09163061 -0.06289848
0.047342528 -0.0037658876 0.0028836336 0.0987131 -0.021423036 -0.005042078 0.0016053414 -0.10564019
-0.03005257 0.04747237 0.12390626 -0.050532915 -0.0023006003 0.047218617 0.22867376 -0.06468551
0.08080554 -0.106269926 0.061627556 0.022966491 0.009047296 0.057922997 -0.034058202 0.07270434
0.020305885 0.058960557 0.0101502985 0.009326117 0.028695855 -0.07386427 0.010152151 0.08369092
00000000: 4a80 e7bb 9b41 94bc f5dc 2c3d 19a0 9c3d
00000010: dcba 95bd d9a3 b83a 3c00 cc3d 4e03 473d
00000020: d33e 4d3c ea60 2a3b 1b9a 9fbc 3214 d33a
00000030: 3856 6fbd 35ea 6abd 35da 863b 9952 95bb
00000040: f46a 14bc 510b b73d 665f d63d 2c0b d53a
00000050: 4642 313d e33f cabd 4e07 c0bd dd74 1dbc
00000060: 759a febc 2924 b9bc 9c6e 14bd 8bdf 8d3d
00000070: b793 d83d 6760 a2bd a0ec c93d b15c 343d
00000080: 6914 283d 0cd5 e73c f1d1 e5bc 8640 58bc
00000090: 55ca 12be 8f2c 363d 59a0 053e a504 5cbd
000000a0: 57b9 58bd bfda 953d 1ace 4c3c 01b1 f5bc
000000b0: ea9e 61bc bfa0 d33d ae1b ad3c 397f 123e
000000c0: 6ca0 c83d 2b00 df3d ec5b 5dbd a0c7 b0bd
000000d0: cb8d bf3c dcf9 01bd 8cf7 99bd f650 d4bd
000000e0: 0b84 b33d 0546 923c 7c51 ba3d 2c5f 81bd
000000f0: 0218 e7bc 81fb cb3d b2b2 15be 85fc d6bc
00000100: 9538 8d3d 4278 063e 3c68 093e d4a3 8c3d
00000110: 79e2 c93d fcee 42bc e908 d73c 9fc6 ea3c
00000120: 6d2a 133d 4632 a4bd f45d 3c3b edc7 cd3d
00000130: 2c23 80bc d62c c3bc a0b8 123e 2f08 26bd
00000140: 2d49 75be 05c4 bcbc 1be2 c33b 8f2d 00be
00000150: 9360 d03c d7aa b53b 3e8b 0fbd 635c 5d3d
00000160: 94b8 a93d 13cd e1bc fff2 80bd 4758 613c
00000170: 7810 04bd e109 473c 66f8 01be 878b aa3d
00000180: 9bdf 32bc 3d1e 73bc cb2a 093c fb32 203e
00000190: b769 09bd 5563 e53d b8f9 b43d 3a4d 063e
000001a0: 89ee c73c ed27 9e3d 8d74 033e 0e46 1239
000001b0: d411 8ebd 9611 e43c 909f 7d3e 066d 12bd
000001c0: 1290 8dbc 47e4 e63c a95c 24bd 7f4d 413c
000001d0: 9be8 40bd d319 eabc a524 8abc 3cfa f73c
000001e0: 8e27 913d 7eaa 963d 0f29 a1bd 9a95 8f3d
000001f0: 5e8c 96bc eef3 6cbd 3d6d 8c3c 635d 8fbc
00000200: 35cf 933d 9a4f a63d a8c2 0dbd 1059 b4bc
00000210: 5eff 10be 6f2a 11bd ffe3 e3bc 0da3 8ebd
00000220: 4678 a0bd 9709 a0bd a67e 73bc e189 7cbd
00000230: 3a98 11be afa5 38bd 2874 aebc 05d1 44bd
00000240: e7ca 03bc 0fe1 0a3c 0ea8 82bd fb33 3ebd
00000250: 52ca 613d d6f5 cdbd a7de 053d 4baa 77bd
00000260: 20e7 0fbe c31b 6d3d 8ba3 1e3c 3c2d 09bc
00000270: 397b a33d e79a 9fbb 514b d33d a161 c93d
00000280: c21d 9ebb bcd3 6cbd e98b be3c e74e 8a3d
00000290: 707b 43bd 8386 c33c 311b cbbd fc2b 42bd
000002a0: 0eb0 c8bd 36d4 193d 5409 3ebd ec87 633d
000002b0: 4066 77bd 1b00 ccbc 7ca2 70bc b587 223e
000002c0: 1562 883d f9f7 b9bd 26d1 02bd e1ce 143d
000002d0: 944d 6fbd a414 b0bb 904d d73d c293 b0bd
000002e0: 5269 973d 11d2 123d b90d 96bd 2f47 e43c
000002f0: b28a 85bd 3a4d bb3c c59f d6bd a11f 483d
00000300: 56bb 743d d56d 283d 3809 69bd 302b 463c
00000310: 08a1 3cb9 73b5 cdbd c5ad c2bd 2c9d a73d
00000320: 7233 2abc 615f adbd bbc8 e83c 4d04 723d
00000330: 75e7 8cbd a0f5 06bd 8afd 2c3d 12eb 7a3d
00000340: 13a3 18be 5d0f 093d 732f 7ebd 76c6 453c
00000350: 915a 8ebc fab4 193c 7964 4b3c 3f77 123d
00000360: d8fc a0bd eb7d a73d 65a1 f7bd 977b c3bd
00000370: 8939 45bd 242f 4a3b d4a8 bbbd ebd0 80bd
00000380: 3dea 413d 1ccd 76bb 58fb 3c3b 182a ca3d
00000390: 5d7f afbc 0438 a5bb 526a d23a e259 d8bd
000003a0: cf30 f6bc 6372 423d 91c2 fd3d 9afb 4ebd
000003b0: abc5 16bb 4f68 413d 7429 6a3e d679 84bd
000003c0: 607d a53d 0ca4 d9bd 2d6d 7c3d 3924 bc3c
000003d0: 1c3b 143c aa40 6d3d 9d80 0bbd 03e6 943d
000003e0: 8758 a63c a080 713d 704d 263c 92cc 183c
000003f0: 9213 eb3c 2646 97bd 3555 263c 2566 ab3d

bias f4 [512]
0.022418864 0.018167712 0.03518161 -0.039348386 0.061894313 -0.0145603195 0.065440804 -0.034634408
0.059807993 -0.022007432 -0.03079365 -0.04166894 -0.039770033 -0.06226297 -0.01387261 0.023966275
-0.002213933 -0.033534043 0.07482136 0.07370572 0.026646437 -0.0030694578 0.07256734 0.07268129
-0.08774412 0.0062175547 -0.013173138 -0.12753092 -0.10213249 0.028235132 0.000525486 -0.100594535
-0.09065638 0.07706114 -0.026369607 -0.04755516 0.03978949 0.019977044 0.043376375 -0.07374666
-0.039004028 0.06258321 0.0783909 -0.042452853 0.0024935524 -0.1010694 -0.026518106 0.04750138
-0.00011184434 0.020398082 -0.06737724 0.100619026 -0.06166232 -0.030556148 -0.0505719 0.018422144
-0.05804782 0.053711217 0.0066242376 0.09439451 0.061154094 -0.08500718 -0.0008879753 -0.0077731055
0.0217302 0.0008061944 -0.1253492 0.0080634635 -0.07306122 -0.037596896 -0.037221204 -0.11077643
-0.0020172098 0.032664284 -0.010409286 0.0313916 0.100639835 -0.027489763 0.007732649 -0.036974613
0.049971662 0.09916126 -0.035436388 0.055375528 0.083805196 -0.006239358 0.00080776314 -0.034814738
-0.10037713 -0.005867702 0.113785475 0.049416687 -0.026928311 -0.047504075 -0.052314077 -0.12211389
-0.017240634 -0.12399017 -0.013568224 -0.03061174 -0.027170192 0.06178692 -0.07932448 0.04396764
0.005260636 -0.05034921 -0.036547437 -0.0338141 -0.12748179 -0.021462679 0.029985834 0.019418355
-0.024197886 -0.050385863 -0.11974447 0.0030617593 -0.047248524 0.008633987 0.013964733 0.029618688
0.027743673 -0.101931185 -0.027425926 -0.06660879 0.050439604 -0.016247457 0.04461858 -0.011308924
-0.06305711 0.04870675 -0.022173533 0.08973798 0.17108676 0.111853726 -0.15179524 0.018182352
0.027015831 -0.043900076 -0.16951373 0.061767142 -0.08014231 -0.018463796 -0.05899665 0.028625285
0.031079713 0.14061409 -0.15669894 0.03915246 -0.14392608 0.08659382 -0.06549007 0.049298894
0.037551068 0.0783298 0.024797423 -0.02679923 0.058381192 0.06265095 -0.046599627 -0.01675952
-0.110737726 0.016146917 -0.042401385 -0.10604321 0.08177995 0.03543501 -0.10260755 0.00796622
-0.056988616 0.086051464 0.0058384845 -0.044056326 0.022888275 -0.04982492 0.023023255 -0.06798907
-0.029149087 -0.006679073 -0.010763348 0.049736522 -0.008488506 -0.12700528 0.026520057 0.049478237
-0.013691947 0.032593366 -0.008415619 0.05596934 0.0015943231 -0.09114246 0.01784063 -0.062282767
-0.02057758 0.06031232 0.11621977 0.020128056 -0.039270077 0.063342206 -0.0014664684 -0.06106081
9.911898e-05 -0.026408019 0.046781376 -0.03461141 -0.088593006 0.013134769 -0.0070964447 0.08070805
-0.019040652 -0.06858477 -0.070109755 0.081594646 -0.0007503877 -0.034051325 -0.14063595 -0.006639992
-0.03905104 0.066856936 -0.016907236 -0.009476401 0.0713241 0.03723983 0.04702287 -0.026151964
0.069346115 0.002963655 0.078720585 -0.041203734 0.089751445 -0.019992996 -0.06709961 0.047709618
-0.07115303 0.0063849925 -0.08511211 -0.019085329 0.054634925 -0.011402527 -0.10947888 -0.05566956
-0.04755096 -0.007909896 0.025626516 0.0142843 0.016625045 -0.005549621 -0.10697892 0.0063882573
-0.044005703 -0.035857495 0.02641324 0.032499027 0.039258722 0.0359808 0.023802506 0.029684756
00000000: c4a7 b73c 74d4 943c 981a 103d c62b 21bd
00000010: e484 7d3d 688e 6ebc d405 863d cfdc 0dbd
00000020: 3af9 743d ee48 b4bc f742 fcbc 0dad 2abd
00000030: e7e5 22bd 7507 7fbd f249 63bc ec54 c43c
00000040: a217 11bb fe5a 09bd f13b 993d 06f3 963d
00000050: a149 da3c f528 49bb 309e 943d eed9 943d
00000060: 30b3 b3bd a1bc cb3b 25d4 57bc 7797 02be
00000070: d72a d1bd 5d4d e73c c5c0 093a 8204 cebd
00000080: 0daa b9bd 3bd2 9d3d 1305 d8bc 33c9 42bd
00000090: 4efa 223d e6a6 a33c 6dab 313d 7d08 97bd
000000a0: b0c2 1fbd a02b 803d 688b a03d 0be3 2dbd
000000b0: de6a 233b 79fd cebd 803c d9bc cf90 423d
000000c0: f98d eab8 e119 a73c 14fd 89bd 5911 ce3d
000000d0: a191 7cbd e350 fabc 7b24 4fbd 09ea 963c
000000e0: 8dc3 6dbd 4b00 5c3d 2210 d93b e951 c13d
000000f0: b77c 7a3d 3f18 aebd 03c7 68ba 89b5 febb
00000100: 8803 b23c ca56 533a 8a5b 00be 9e1c 043c
00000110: 1fa1 95bd 34ff 19bd 4375 18bd c1de e2bd
00000120: 2a33 04bb fcca 053d b68b 2abc 7a94 003d
00000130: 421c ce3d 3632 e1bc 2962 fd3b b172 17bd
00000140: 16af 4c3d 0f15 cb3d bf25 11bd 73d1 623d
00000150: 0fa2 ab3d 8773 ccbb 11c0 533a e699 0ebd
00000160: 8692 cdbd da45 c0bb 5c08 e93d 2769 4a3d
00000170: c398 dcbc a293 42bd 4947 56bd d916 fabd
00000180: 3b3c 8dbc 8fee fdbd 424d 5ebc 79c5 fabc
00000190: 0694 debc 4814 7d3d df74 a2bd 6917 343d
000001a0: 6a61 ac3b f93a 4ebd c4b2 15bd a780 0abd
000001b0: 968a 02be 80d2 afbc daa4 f53c 3e13 9f3c
000001c0: a53a c6bc 6861 4ebd 973c f5bd cca7 483b
000001d0: ab87 41bd 9175 0d3c 56cc 643c e4a2 f23c
000001e0: b346 e33c 4cc1 d0bd 56ac e0bc 306a 88bd
000001f0: c299 4e3d 6319 85bc f9c1 363d 1149 39bc
00000200: 1624 81bd bb80 473d 45a5 b5bc 8cc8 b73d
00000210: 5e31 2f3e 9113 e53d 3670 1bbe 28f3 943c
00000220: 4e50 dd3c 91d0 33bd 0295 2dbe 8bff 7c3d
00000230: a721 a4bd 6341 97bc 79a6 71bd 937f ea3c
00000240: e29a fe3c 24fd 0f3e b075 20be 545e 203d
00000250: 5c61 13be 1a58 b13d a81f 86bd a3ed 493d
00000260: 26cf 193d 606b a03d f723 cb3c 0f8a dbbc
00000270: 1e21 6f3d 244f 803d 40df 3ebd 434b 89bc
00000280: 76ca e2bd 8a46 843c 13ad 2dbd 2f2d d9bd
00000290: 3f7c a73d 4d24 113d e823 d2bd c084 023c
000002a0: e56c 69bd c03b b03d c250 bf3b 6874 34bd
000002b0: 3180 bb3c 3715 4cbd 449b bc3c db3d 8bbd
000002c0: 11ca eebc 20dc dabb c158 30bc 86b8 4b3d
000002d0: 6013 0bbc ac0d 02be 9740 d93c b1a9 4a3d
000002e0: 3054 60bc 9f80 053d aae1 09bc 1b40 653d
000002f0: 9bf8 d03a e6a8 babd 8326 923c 371c 7fbd
00000300: 5092 a8bc 0d0a 773d a104 ee3d 98e3 a43c
00000310: a9d9 20bd 8fb9 813d 8436 c0ba e61a 7abd
00000320: 19de cf38 a155 d8bc d49d 3f3d b2c4 0dbd
00000330: 4070 b5bd 3733 573c 4b89 e8bb 434a a53d
00000340: 24fb 9bbc 2c76 8cbd b495 8fbd 181b a73d
00000350: abb5 44ba 6779 0bbd df02 10be 4a94 d9bb
00000360: fcf3 1fbd 4aec 883d 0b81 8abc e842 1bbc
00000370: 5f12 923d cb88 183d 0e9b 403d a53c d6bc
00000380: 5605 8e3d e139 423b 4238 a13d 3fc5 28bd
00000390: 9bcf b73d 5ac8 a3bc 856b 89bd 296b 433d
000003a0: aeb8 91bd 3339 d13b 424f aebd d658 9cbc
000003b0: dfc8 5f3d aad1 3abc 7736 e0bd c405 64bd
000003c0: ccc4 42bd 8298 01bc b3ee d13c b208 6a3c
000003d0: 3f31 883c 98d9 b5bb c417 dbbd 9654 d13b
000003e0: 533f 34bd 4fdf 12bd 9460 d83c b31d 053d
000003f0: c1cd 203d 9a60 133d 79fd c23c 722d f33c

weight f4 [256, 512]
0.053579196 3.6837082e-05 -0.019541685 0.00081978046 -0.013778851 -0.13286456 0.04486627 0.003004061
-0.009708663 0.001535812 -0.035933673 0.048900772 0.010189996 -0.029946363 -0.04915914 0.068297446
0.013619102 -0.03524984 0.017578676 -0.015491763 -0.08435616 0.0013047348 0.030057698 0.069896966
-0.016775707 -0.10708628 -0.01719567 -0.045733456 -0.009278447 0.06535595 0.031803112 0.0427035
0.04728829 -0.06686495 -0.0131401755 0.009164295 -0.035146013 -0.061660606 -0.055093154 0.005182349
-0.025107032 0.009571809 0.008174433 -0.052783336 0.0031144044 0.07563094 0.028960843 0.008105969
0.09140094 0.034249257 -0.088671595 0.015431541 0.01646074 -0.025810676 -0.010280229 -0.08498657
-0.07735847 -0.04155906 0.0477545 0.0115478225 -0.009067934 -0.013247391 -0.021068562 0.11063626
-0.18398032 0.046108812 -0.035194095 -0.06622272 -0.02802588 0.03440882 -0.04551464 0.021778306
-0.09153703 0.042539015 -0.004829919 0.0897381 0.06860301 -0.015957652 0.031668745 -0.040818263
-0.023924353 -0.020787966 0.0678235 -0.008748644 0.042422302 -0.05144594 0.03185133 -0.005156374
-0.074661225 -0.051210828 0.026814468 0.014922003 -0.086932376 -0.062871575 -0.023529826 -0.05232101
0.012969377 -0.061577786 -0.06416333 -0.015505701 0.06306446 0.025002185 -0.031208782 0.023832787
0.09640755 -0.08662603 -0.077882126 -0.024924258 -0.008438981 0.13129692 0.032033186 -0.062406156
-0.022282733 0.008291602 -0.065720476 0.016020415 0.047354374 -0.06641276 0.12242333 -0.081770055
-0.03650263 0.026126556 -0.03973311 0.052883238 0.009611095 -0.015227278 -0.0148746595 0.04641401
0.0554508 -0.06958784 -0.15795618 -0.028536825 0.122091465 0.05906675 -0.04208305 0.04577103
-0.038748108 0.04520951 -0.1538481 0.0132977795 0.053447243 -0.028302282 -0.09725585 -0.022614274
0.017712468 -0.074014075 -0.06526742 -0.052575413 -0.09009103 0.013130888 -0.032611866 -0.0071294857
0.036438696 -0.033332895 -0.024173439 0.017831478 -0.004379451 -0.076874286 0.043886278 -0.051802456
-0.0016349708 0.023768907 -0.05917184 -0.022197463 -0.01234452 -0.106721535 -0.009612618 0.03963986
-0.034372725 0.018748851 -0.14149106 0.06941569 0.10414478 -0.061975196 -0.021027585 -0.008690834
-0.008775362 -0.038997173 -0.01359957 -0.022135526 -0.18919203 -0.09230602 -0.005948398 -0.014399428
0.07678228 0.040471476 -0.014613329 -0.03237981 -0.0022081083 -0.019896427 0.017898723 0.03052702
0.042547677 0.037645992 0.030298382 0.012460197 -0.0440689 -0.0010939796 -0.04389904 -0.043330938
-0.010119478 0.039152153 0.022852547 0.012319383 0.07932558 0.055371266 0.030584656 -0.032644186
-0.03899745 0.020849977 -0.07137865 0.011703277 -0.0550987 -0.015255421 -0.041628323 -0.061319496
0.0027444058 -0.02402168 0.011568324 -0.07504006 -0.03905507 0.009233954 0.04241843 -0.0439634
0.009774978 -0.022927018 0.060567033 -0.10400128 -0.006656679 0.067019336 -0.06903039 0.13780254
0.011030866 -0.0011223992 -0.026937677 0.10274088 0.09120646 0.038894564 -0.020436967 0.012115098
0.014474611 0.00045573732 -0.03666549 0.036869265 -0.01173283 -0.08185132 0.03732923 0.08975987
0.012068621 0.07852579 -0.01815731 -0.072573505 0.0059061563 -0.14113742 0.042369686 -0.06752642
00000000: dc75 5b3d 8481 1a38 e215 a0bc 89e6 563a
00000010: b1c0 61bc a60d 08be b2c5 373d c8df 443b
00000020: 1611 1fbc 4d4d c93a 302f 13bd 2d4c 483d
00000030: f1f3 263c 1352 f5bc 185b 49bd 88df 8b3d
00000040: a722 5f3c 2362 10bd 2801 903c 2ad1 7dbc
00000050: ecc2 acbd a303 ab3a 903b f63c 2426 8f3d
00000060: 356d 89bc 0d50 dbbd efdd 8cbc 0153 3bbd
00000070: a104 18bc 57d9 853d fb43 023d dde9 2e3d
00000080: 5eb1 413d 7ef0 88bd e449 57bc d725 163c
00000090: 44f5 0fbd d58f 7cbd 5ca9 61bd b2d0 a93b
000000a0: 43ad cdbc 14d3 1c3c 0fee 053c 5733 58bd
000000b0: 091b 4c3b 65e4 9a3d 4a3f ed3c e6ce 043c
000000c0: 6b30 bb3d f348 0c3d 7499 b5bd 93d4 7c3c
000000d0: acd8 863c e970 d3bc 686e 28bc 700d aebd
000000e0: 1e6e 9ebd d539 2abd 399a 433d 1433 3d3c
000000f0: ac91 14bc 960b 59bc fa97 acbc 4395 e23d
00000100: 5665 3cbe 98dc 3c3d af27 10bd c79f 87bd
00000110: 8896 e5bc 43f0 0c3d 8f6d 3abd 6b68 b23c
00000120: c477 bbbd 643d 2e3d 4c44 9ebb 9cc8 b73d
00000130: bc7f 8c3d 9fb9 82bc 16b7 013d 0d31 27bd
00000140: 01fd c3bc 864b aabc 0ce7 8a3d 7956 0fbc
00000150: 02c3 2d3d fab8 52bd 8a76 023d cdf6 a8bb
00000160: fce7 98bd 72c2 51bd 04aa db3c 6b7b 743c
00000170: 9a09 b2bd d0c2 80bd 9fc1 c0bc 8e4e 56bd
00000180: 837d 543c fd38 7cbd 1068 83bd a00b 7ebc
00000190: f127 813d 62d1 cc3c 8fa9 ffbc fa3c c33c
000001a0: 5271 c53d fd68 b1bd aa80 9fbd f52d ccbc
000001b0: a743 0abc b372 063e 3b35 033d 999d 7fbd
000001c0: 478a b6bc 80d9 073c 7598 86bd 3f3d 833c
000001d0: a9f6 413d 6a03 88bd 15b9 fa3d 0f77 a7bd
000001e0: c883 15bd 5c07 d63c 30bf 22bd 189c 583d
000001f0: db77 1d3c d57b 79bc d8b4 73bc 9e1c 3e3d
00000200: 6120 633d 1284 8ebd 44bf 21be 0fc6 e9bc
00000210: 170b fa3d faef 713d 475f 2cbd 677a 3b3d
00000220: 56b6 1ebd 9b2d 393d 5b8a 1dbe eede 593c
00000230: 7feb 5a3d 30da e7bc 132e c7bd 9241 b9bc
00000240: bd19 913c b194 97bd edaa 85bd 5159 57bd
00000250: a581 b8bd f022 573c 0594 05bd 769e e9bb
00000260: be40 153d 1388 08bd 6007 c6bc 5213 923c
00000270: 7f81 8fbb 4470 9dbd 19c2 333d d02e 54bd
00000280: 844c d6ba 03b7 c23c 2c5e 72bd 74d7 b5bc
00000290: ab40 4abc d290 dabd 3e7e 1dbc 685d 223d
000002a0: 6aca 0cbd 3197 993c 08e3 10be d029 8e3d
000002b0: dc49 d53d b4d9 7dbd 0b42 acbc 0064 0ebc
000002c0: 89c6 0fbc 80bb 1fbd bbd0 5ebc 9055 b5bc
000002d0: 8ebb 41be f00a bdbd c7ea c2bb 94eb 6bbc
000002e0: 0740 9d3d 6bc5 253d bf6c 6fbc b1a0 04bd
000002f0: e9b5 10bb d5fd a2bc 58a0 923c cd13 fa3c
00000300: 7946 2e3d af32 1a3d 5034 f83c db25 4c3c
00000310: 9781 34bd dd63 8fba 7bcf 33bd c87b 31bd
00000320: 2bcc 25bc 025e 203d 4435 bb3c 3dd7 493c
00000330: 7375 a23d fbcc 623d ac8c fa3c e9b5 05bd
00000340: cabb 1fbd 92cd aa3c f82e 92bd 1abf 3f3c
00000350: 2daf 61bd e0f1 79bc 7682 2abd 272a 7bbd
00000360: 7ddb 333b 1dc9 c4bc 1189 3d3c 9aae 99bd
00000370: 36f8 1fbd 034a 173c f3be 2d3d f712 34bd
00000380: 3b27 203c 71d1 bbbc 2315 783d a0fe d4bd
00000390: 4520 dabb 6f41 893d ce5f 8dbd 1c1c 0d3e
000003a0: ceba 343c 781d 93ba 67ac dcbc cf69 d23d
000003b0: 74ca ba3d e84f 1f3d 6d6b a7bc 677e 463c
000003c0: eb26 6d3c 07f0 ee39 8e2e 16bd 3a04 173d
000003d0: 0e3b 40bc aaa1 a7bd 89e6 183d 06d4 b73d
000003e0: 77bb 453c 21d2 a03d a4be 94bc 6ba1 94bd
000003f0: 6e88 c13b 5486 10be d68b 2d3d 4b4b 8abd

bias f4 [256]
-0.006635361 -0.037366737 -0.046337128 -0.078890644 -0.010459029 0.041509125 -0.03847206 -0.028778376
0.068632685 -0.104092844 0.023247963 -0.013704489 0.037284527 -0.0070895106 0.002404518 -0.027038408
0.133676 0.007268711 0.07003649 -0.057796948 0.13357969 -0.009365677 0.08786452 0.022130191
0.020597087 0.017631575 -0.040287804 0.041951865 -0.049174815 0.013539467 -0.060258362 0.09189114
0.059783317 -0.04384296 0.021551657 0.012004134 0.0068812417 -0.043117657 -0.06591062 -0.044092257
0.001972492 -0.042921994 -0.038955238 0.033897087 -0.00585319 -0.021730917 -0.0354847 -0.10898733
0.033769295 -0.018528374 -0.02645226 0.0025510886 -0.025771646 -0.036109935 0.076533355 -0.08981496
-0.013551297 0.009921794 0.030728579 -0.04439806 -0.022472138 -0.017314505 -0.049620174 -0.011812082
0.004657078 0.08122175 -0.059362885 0.025675273 -0.037162684 0.06030144 -0.016540451 0.0786429
0.08007684 -0.0591114 -0.016026601 0.0005313565 0.046268236 0.023123797 -0.03286997 -0.041499633
-0.10459478 -0.03213084 -0.07965295 -0.07765908 -0.062900536 0.026555054 0.101113044 -0.09085932
-0.0015960515 -0.033859003 0.010189464 -0.052460495 0.015141066 0.055761486 -0.006718616 0.08026432
-0.039653745 0.02243008 0.064176306 -0.0369828 0.01546878 -0.09895177 0.00086213177 -0.01909229
-0.00767231 0.014705173 0.029029379 0.029399786 0.05769315 -0.0448295 0.08910502 -0.0047940086
-0.03477184 -0.04693802 -0.021040075 -0.036564257 -0.1232803 -0.006523799 -0.0052356217 0.002571705
-0.090519704 -0.03146156 -0.04023555 0.049979445 -0.034448616 -0.0007137196 -0.07129316 -0.028394364
-0.045601506 0.023527803 -0.025451701 -0.021124754 -0.020476464 0.04901078 -0.045761675 0.06146805
0.043484744 0.0378693 -0.025918834 0.010417619 0.020944215 0.0043723644 0.00978633 -0.05628796
-0.041280046 0.011473339 0.056925975 -0.051394157 -0.03334147 -0.0140412245 -0.072731204 -0.07871673
0.009386582 0.07833139 -0.065356895 0.07692052 0.04492304 0.048984777 -0.029376797 -0.031060988
-0.06307975 0.03177834 -0.019344658 0.07347935 0.059948217 -0.04489589 -0.035936274 -0.037847243
0.039939288 0.030527182 -0.009608764 -0.036225744 -0.04396185 -0.08789952 0.052708473 -0.0457015
-0.043579504 -0.03709698 -0.07929983 -0.00410171 -0.0011672532 0.024136005 0.022774942 0.007673052
0.0440605 -0.054971505 -0.020561311 -0.04613547 -0.0027261577 0.044824723 0.0047047357 0.08993025
-0.019196568 0.012404569 -0.077832945 0.04193377 -0.04066737 -0.024808874 -0.00013228784 0.059165996
0.003836082 0.050273128 0.046035897 0.042624548 0.055153787 0.012398912 -0.011430713 -0.019253783
0.027446682 -0.043449845 -0.06775344 0.022546733 0.0025570309 -0.0022783894 -0.08168209 0.09568053
-0.018710077 -0.059315126 -0.07929009 0.0028319128 0.069178216 -0.035392 -0.0059540668 0.03194015
0.032646284 0.013306549 -0.07181713 0.06288473 0.054301586 0.051140957 -0.028363153 0.06352199
0.03263382 0.031073242 0.04163695 0.035345316 -0.030141316 0.040051956 0.02360007 0.00881774
-0.018501252 0.054415137 -0.015722029 -0.11048553 -0.06590366 -0.0025935993 0.056524508 0.0043231416
0.061748926 -0.022460751 -0.038340207 -0.05920551 0.06067771 0.08671865 -0.0033193848 0.029011726
00000000: 716d d9bb dd0d 19bd 00cc 3dbd 6b91 a1bd
00000010: 595c 2bbc 7905 2a3d e194 1dbd a1c0 ebbc
00000020: 4b8f 8c3d a12e d5bd 8372 be3c cb88 60bc
00000030: a9b7 183d 204f e8bb 1e95 1d3b a77f ddbc
00000040: 5de2 083e 5e2e ee3b 4b6f 8f3d 7ebc 6cbd
00000050: 1dc9 083e 7f72 19bc 50f2 b33d 604a b53c
00000060: 39bb a83c 1870 903c d304 25bd b8d5 2b3d
00000070: 886b 49bd a4d4 5d3c 79d1 76bd 6c31 bc3d
00000080: 5adf 743d ad94 33bd 1a8d b03c fdac 443c
00000090: 0a7c e13b 249c 30bd 26fc 86bd 159a 34bd
000000a0: ed44 013b f9ce 2fbd 878f 1fbd acd7 0a3d
000000b0: 1ecc bfbb 0905 b2bc 6858 11bd c034 dfbd
000000c0: ac51 0a3d d1c8 97bc 69b2 d8bc 2a30 273b
000000d0: 0f1f d3bc 03e8 13bd 85bd 9c3d e8f0 b7bd
000000e0: 4206 5ebc 058f 223c 80ba fb3c bdda 35bd
000000f0: 7d17 b8bc 26d7 8dbc 863e 4bbd 7687 41bc
00000100: 679a 983b 9757 a63d 7f26 73bd f354 d23c
00000110: e637 18bd a5fe 763d d77f 87bc 870f a13d
00000120: 54ff a33d cc1e 72bd 384a 83bc bb4a 0b3a
00000130: c383 3d3d 1e6e bd3c a9a2 06bd 85fb 29bd
00000140: ca35 d6bd a19b 03bd 1621 a3bd b90b 9fbd
00000150: ffd1 80bd fc89 d93c 5b14 cf3d 7314 babd
00000160: 9a32 d1ba bdaf 0abd b6f1 263c d1e0 56bd
00000170: 3c12 783c 2866 643d d627 dcbb 9f61 a43d
00000180: f76b 22bd 4abf b73c de6e 833d 477b 17bd
00000190: c470 7d3c 3aa7 cabd af00 623a 6f67 9cbc
000001a0: 0068 fbbb f7ed 703c 05cf ed3c d2d7 f03c
000001b0: a74f 6c3d 239f 37bd b17c b63d 0f17 9dbb
000001c0: eb6c 0ebd 1542 40bd 3c5c acbc 67c4 15bd
000001d0: 627a fcbd 98c5 d5bb 948f abbb 0d8a 283b
000001e0: 6562 b9bd d6dd 00bd 08ce 24bd 3fb7 4c3d
000001f0: fe19 0dbd e918 3bba 2602 92bd 4c9b e8bc
00000200: a5c8 3abd 61bd c03c 1680 d0bc d20d adbc
00000210: 42be a7bc 87bf 483d 9870 3bbd ecc5 7b3d
00000220: 0f1d 323d d71c 1b3d bc53 d4bc a9ae 2a3c
00000230: 3493 ab3c 0d46 8f3b d856 203c 348e 66bd
00000240: 4415 29bd acfa 3b3c 362b 693d ae82 52bd
00000250: 1191 08bd 2a0d 66bc 19f4 94bd 3d36 a1bd
00000260: 2eca 193c 356c a03d d6d9 85bd 8188 9d3d
00000270: 3901 383d 43a4 483d 9ca7 f0bc 9d73 febc
00000280: f52f 81bd 012a 023d b078 9ebc 577c 963d
00000290: 438c 753d c1e4 37bd ea31 13bd b605 1bbd
000002a0: 6197 233d 2414 fa3c 146e 1dbc 7261 14bd
000002b0: 5711 34bd aa04 b4bd d7e4 573d 7f31 3bbd
000002c0: 6c80 32bd 01f3 17bd f367 a2bd a367 86bb
000002d0: 85fe 98ba dfb8 c53c 8492 ba3c 3a6e fb3b
000002e0: c878 343d cd29 61bd 3270 a8bc 8cf8 3cbd
000002f0: 56a9 32bb 219a 373d 2f2a 9a3b 5a2d b83d
00000300: 1f42 9dbc 893c 4b3c e166 9fbd bfc2 2b3d
00000310: d492 26bd fb3b cbbc bfb6 0ab9 0b58 723d
00000320: c766 7b3b 32eb 4d3d 2390 3c3d 1497 2e3d
00000330: f0e8 613d ce24 4b3c e347 3bbc 1cba 9dbc
00000340: ddd7 e03c 77f8 31bd 51c2 8abd edb3 b83c
00000350: dc93 273b 0851 15bb f148 a7bd 27f4 c33d
00000360: e045 99bc 6bf4 72bd d862 a2bd 9d97 393b
00000370: 4fad 8d3d 34f7 10bd 551a c3bb add3 023d
00000380: 1cb8 053d b603 5a3c dc14 93bd b6c9 803d
00000390: 576b 5e3d 2e79 513d d859 e8bc d117 823d
000003a0: 0aab 053d 508d fe3c 828b 2a3d 40c6 103d
000003b0: ecea f6bc 850d 243d ef54 c13c 4878 103c
000003c0: f08f 97bc 68e2 5e3d 7ccb 80bc 3d46 e2bd
000003d0: 80f8 86bd 60f9 29bb 3e86 673d 24a9 8d3b
000003e0: 71ec 7c3d 9cff b7bc 9f0a 1dbd 7a81 72bd
000003f0: 3189 783d 8c99 b13d 098a 59bb 00aa ed3c

weight f4 [128, 256]
0.110920146 -0.060088027 0.007827513 -0.059478115 -0.026019044 -0.019800134 0.0102285305 0.023448465
-0.0023394865 -0.009173323 0.05456687 0.03574763 0.04079872 0.07591362 0.10809802 -0.06354541
-0.019374205 -0.045271646 -0.0749304 0.091817886 0.010487212 0.11444772 -0.0068979957 0.03703362
-0.01916382 0.08285068 -0.04655842 0.051878016 0.21442224 0.11497637 -0.0020070693 0.032064937
0.040533233 0.16020626 0.04985839 0.07917185 0.0048241243 -0.0039639277 0.093964264 0.038746405
-0.017077914 0.020063091 0.04981643 0.05573179 0.0141608715 -0.054454714 0.003058688 0.019751951
-0.08154596 0.12386431 0.04068457 0.006041876 0.0064066253 0.0020066232 0.04264879 0.17494197
-0.051865477 0.08243404 0.0824458 0.16461103 0.074347556 -0.06902133 -0.050396923 0.06418349
0.042692013 0.06977618 0.12803666 -0.010560129 0.00952677 -0.039735645 0.17492102 0.031055074
0.08202041 0.1197084 0.07988204 -0.0263359 -0.060733594 0.040001925 0.07700869 0.120111816
-0.020336155 -0.0045333984 -0.021063978 -0.02767327 0.0818274 0.094614714 -0.007963853 0.061192926
-0.039459124 -0.057416305 0.15375474 -0.0013221422 0.017426843 0.050458964 0.15609215 0.07896668
-0.023733594 -0.002542634 0.049398802 0.09381494 0.024456946 0.07985121 0.13871698 -0.0007295687
-0.017018443 0.084934674 0.029725255 0.04276729 -0.007122389 0.04112315 -0.017496245 0.077577494
-0.09465849 -0.010743915 -0.0021349597 0.03672085 -0.029148145 0.060593005 -0.04865801 0.05335681
0.08886466 0.08436548 0.014038462 -0.029470844 -0.03775096 0.015475066 0.008063661 0.0043205237
0.14488482 -0.01729722 0.00037697074 0.02810655 -0.071952514 -0.009103068 0.06825266 -0.05436671
-0.11373368 0.11921773 -0.0038792333 0.15820546 -0.04112595 0.018736232 0.028026145 0.14703348
0.07572735 -0.0031588653 0.029654486 -0.07199764 0.15859291 0.115004554 0.06313944 0.07426619
0.012777048 0.030999167 0.19495331 0.08321403 0.052952666 -0.03826058 -0.05470851 0.094059385
0.115151495 -0.028228765 0.06500886 -0.07689644 0.1010864 0.03430349 0.1106013 0.033714946
0.025324965 -0.04830604 -0.08257744 0.037641007 0.17858054 0.01418449 0.017223183 0.08555453
-0.005531145 -0.009858507 -0.13570558 0.10833634 0.052805163 0.14914294 -0.010225701 0.048922118
0.11095232 0.047030702 -0.012340419 0.08727447 0.082013816 -0.016126454 0.0074874205 0.027604999
0.04135562 0.06459043 0.098011896 -0.0030764423 0.0038823278 0.016006911 0.012101654 0.04209982
-0.0001833575 -0.011731042 -0.010124837 0.025056077 -0.021709766 -0.023295727 0.048490413 0.101322666
-0.034204066 0.04859666 0.041596867 -0.07006154 0.11489014 -0.008923383 -0.14286558 -0.0484377
0.08959559 -0.007534297 0.04026229 0.07638244 0.08599405 -0.036858402 0.021235865 -0.005407895
-0.009571306 0.12052597 0.0663223 0.12024454 -0.012747596 0.026538067 0.11881605 -0.046048455
-0.065020986 0.08302574 0.09661572 -0.025104962 -0.027922269 0.00043403244 0.07811172 0.064501315
-0.06782809 -0.05035393 0.036549553 0.053010892 0.03449106 -0.016838325 0.06334455 0.041490056
-0.00580246 0.13280362 0.1348418 0.23016074 0.05055579 -0.08715231 0.008473656 0.007901967
00000000: 1a2a e33d dd1e 76bd f83e 003c 539f 73bd
00000010: e425 d5bc e433 a2bc 9195 273c ff16 c03c
00000020: 1252 19bb b54b 16bc 8381 5f3d 1b6c 123d
00000030: 8f1c 273d 9a78 9b3d 7f62 dd3d 1924 82bd
00000040: a7b6 9ebc c36e 39bd 1c75 99bd 040b bc3d
00000050: 8ed2 2b3c 9163 ea3d 9508 e2bb 91b0 173d
00000060: 72fd 9cbc 9ead a93d 0bb4 3ebd 0b7e 543d
00000070: 8191 5b3e bb78 eb3d 0989 03bb 8656 033d
00000080: 2d06 263d 1c0d 243e 5038 4c3d da24 a23d
00000090: b013 9e3b d6e3 81bb 5670 c03d 8db4 1e3d
000000a0: fbe6 8bbc 5a5b a43c 500c 4c3d 0447 643d
000000b0: 0003 683c e80b 5fbd 4574 483b d8ce a13c
000000c0: 9101 a7bd 92ac fd3d dda4 263d eefa c53b
000000d0: abee d13b 8d81 033b 7fb0 2e3d fd23 333e
000000e0: e570 54bd 2ed3 a83d 58d9 a83d cb8f 283e
000000f0: 8843 983d 0e5b 8dbd 016d 4ebd a272 833d
00000100: d2dd 2e3d d0e6 8e3d 0b1c 033e 6404 2dbc
00000110: 2b16 1c3c d8c1 22bd 7f1e 333e 3667 fe3c
00000120: 51fa a73d ad29 f53d 3299 a33d 63be d7bc
00000130: cac3 78bd 0fd9 233d bbb6 9d3d 2ffd f53d
00000140: 0298 a6bc e78c 94bb 5d8e acbc 0eb3 e2bc
00000150: 2095 a73d 5cc5 c13d d27a 02bc 6fa5 7a3d
00000160: e49f 21bd 5c2d 6bbd e271 1d3e bb4b adba
00000170: bdc2 8e3c 0fae 4e3d 9fd6 1f3e 48b9 a13d
00000180: f46c c2bc 52a2 26bb 6656 4a3d 0c22 c03d
00000190: ef59 c83c 0889 a33d d30b 0e3e 8740 3fba
000001a0: 436a 8bbc 3bf2 ad3d 6182 f33c c12c 2f3d
000001b0: ee62 e9bb c070 283d 4954 8fbc f3e0 9e3d
000001c0: 4fdc c1bd 3f07 30bc aeea 0bbb 9a68 163d
000001d0: 17c8 eebc 5f30 783d 9f4d 47bd ac8c 5a3d
000001e0: adfe b53d cfc7 ac3d 9401 663c d76c f1bc
000001f0: c0a0 1abd 228b 7d3c 721d 043c 2e93 8d3b
00000200: b05c 143e e6b2 8dbc 28a4 c539 b53f e63c
00000210: d75b 93bd 0925 15bc 0dc8 8b3d a1af 5ebd
00000220: 34ed e8bd 6d28 f43d bc3a 7ebb 9d00 223e
00000230: af73 28bd ba7c 993c 1697 e53c f28f 163e
00000240: f116 9b3d f704 4fbb f7ed f23c 8073 93bd
00000250: 2e66 223e 8287 eb3d 404f 813d df18 983d
00000260: d356 513c f7f1 fd3c d7a1 473e 1e6c aa3d
00000270: e5e4 583d 20b7 1cbd 0816 60bd 35a2 c03d
00000280: 8cd4 eb3d 0340 e7bc 5d23 853d e17b 9dbd
00000290: 6306 cf3d d181 0c3d ef82 e23d af18 0a3d
000002a0: 4d76 cf3c 8edc 45bd 5c1e a9bd 752d 1a3d
000002b0: d1dd 363e 1066 683c a217 8d3c 3737 af3d
000002c0: 9b3e b5bb 9385 21bc 67f6 0abe 71df dd3d
000002d0: 3a4a 583d edb8 183e b389 27bc 8f62 483d
000002e0: f83a e33d 44a3 403d 782f 4abc f5bc b23d
000002f0: dcf6 a73d a01b 84bc 0959 f53b e123 e23c
00000300: 8364 293d fd47 843d 76ba c83d 239e 49bb
00000310: a76e 7e3b ed20 833c 0446 463c dc70 2c3d
00000320: a743 40b9 8e33 40bc a5e2 25bc 6742 cd3c
00000330: aed8 b1bc aed6 bebc e29d 463d 4282 cf3d
00000340: 9019 0cbd 4b0d 473d 7a61 2a3d 6d7c 8fbd
00000350: 864b eb3d 6233 12bc 5b4b 12be 9c66 46bd
00000360: e57d b73d 44e2 f6bb 12ea 243d 666e 9c3d
00000370: a61d b03d d6f8 16bd d6f6 ad3c b634 b1bb
00000380: f8d0 1cbc 52d6 f63d fcd3 873d c542 f63d
00000390: 4bdb 50bc 5c66 d93c d455 f33d 4e9d 3cbd
000003a0: b929 85bd 6609 aa3d 76de c53d eca8 cdbc
000003b0: 3ebd e4bc d98e e339 0af9 9f3d 4419 843d
000003c0: 74e9 8abd ec3f 4ebd fcb4 153d f321 593d
000003d0: 7f46 0d3d 87f0 89bc caba 813d 7af1 293d
000003e0: 9022 bebb acfd 073e f813 0a3e 42af 6b3e
000003f0: 9713 4f3d e97c b2bd 17d5 0a3c 4077 013c

bias f4 [128]
-0.13313587 -0.065316685 0.1083487 -0.033504102 -0.03458354 -0.009882722 -0.029654587 -0.03099006
0.09095483 0.07316053 -0.036109094 -0.018947843 -0.0061548455 -0.027120525 -0.10127485 0.09015891
-0.034993473 -0.008242657 0.025653075 0.023580128 0.01886512 -0.048979055 0.03946216 0.076138556
0.043339003 0.1198846 0.0068539986 0.023494475 -0.022776635 -0.09514746 -0.11320004 -0.007586462
-0.022137037 0.02617655 -0.040876906 0.058179952 0.029706022 0.105055146 -0.05128127 0.006529235
0.039004516 -0.13872042 0.11238974 -0.04995477 0.0027182957 0.0030519946 -0.09552045 0.0166946
0.035219543 0.07898892 -0.05944254 -0.008691337 -0.04996205 0.08656715 0.03147607 0.027615488
-0.028042965 0.05562654 0.018355906 -0.030182905 -0.005182837 0.0030911341 0.039466873 0.053758405
-0.12558036 -0.0629057 0.076495774 0.03738098 -0.0019002213 0.026084866 -0.026814608 0.08522372
0.004856188 0.013895008 0.056307707 -0.036465682 0.06454863 0.06691162 0.008359704 0.104110904
0.07559579 -0.05618891 -0.022545645 0.09836087 -0.04345777 0.054158233 -0.05710434 0.007952766
-0.032036956 0.09445176 0.032882843 -0.04207978 -0.11152867 -0.038094256 -0.18615165 0.027794313
0.040785316 0.06165548 0.060778085 -0.093367286 0.0035301745 0.13668834 -0.14167005 -0.12673324
-0.063598 -0.008663513 0.060123105 -0.020709828 -0.058155622 -0.054620743 -0.17179154 -0.046275582
-0.00039992438 -0.06570579 -0.062078323 -0.012193624 -0.11788255 -0.039113764 0.019378569 -0.052843653
-0.015008612 -0.011795505 -0.069260634 0.0785193 -0.051230125 0.06767605 -0.054410346 0.09166031
00000000: c554 08be c1c4 85bd ece5 dd3d 993b 09bd
00000010: 78a7 0dbd 24eb 21bc 2dee f2bc dede fdbc
00000020: 8746 ba3d 30d5 953d 21e7 13bd 8238 9bbc
00000030: 96ae c9bb dd2b debc 3069 cfbd 3ca5 b83d
00000040: 5155 0fbd 360c 07bc 6626 d23c 1d2b c13c
00000050: 068b 9a3c 439e 48bd 13a3 213d 88ee 9b3d
00000060: 3d84 313d 0f86 f53d 8297 e03b 7c77 c03c
00000070: 1196 babc acdc c2bd 6cd5 e7bd db97 f8bb
00000080: bb58 b5bc 3470 d63c 8b6e 27bd 1a4e 6e3d
00000090: 0b5a f33c 2727 d73d 4f0c 52bd 31f3 d53b
000000a0: 33c3 1f3d ba0c 0ebe 982c e63d 5f9d 4cbd
000000b0: 6f25 323b f903 483b 3aa0 c3bd 1dc3 883c
000000c0: 5e42 103d f1c4 a13d 057a 73bd 1c66 0ebc
000000d0: 02a5 4cbd 1e4a b13d 0ded 003d e039 e23c
000000e0: 5cba e5bc a8d8 633d 205f 963c 2442 f7bc
000000f0: cad4 a9bb a094 4a3b 04a8 213d c631 5c3d
00000100: 2398 00be b4d4 80bd d1a9 9c3d cc1c 193d
00000110: d910 f9ba eeaf d53c 4faa dbbc c689 ae3d
00000120: a820 9f3b e3a7 633c e9a2 663d 0a5d 15bd
00000130: 1232 843d f608 893d 24f7 083c 1938 d53d
00000140: f7d1 9a3d 5826 66bd a5b1 b8bc 6c71 c93d
00000150: c600 32bd 06d5 5d3d 3ee6 69bd 514c 023c
00000160: 2f39 03bd ed6f c13d 29b0 063d d95b 2cbd
00000170: 2569 e4bd b908 1cbd 8a9e 3ebe e6b0 e33c
00000180: 810e 273d 758a 7c3d 71f2 783d 5937 bfbd
00000190: 805a 673b 07f8 0b3e f411 11be 5cc6 01be
000001a0: ab3f 82bd 68f1 0dbc a543 763d a8a7 a9bc
000001b0: 9734 6ebd 00ba 5fbd 1fea 2fbe 778b 3dbd
000001c0: f1ac d1b9 c290 86bd d745 7ebd c4c7 47bc
000001d0: 686c f1bd c135 20bd cebf 9e3c 9672 58bd
000001e0: aee6 75bc ef41 41bc 85d8 8dbd bace a03d
000001f0: aed6 51bd be99 8a3d 62dd 5ebd 67b8 bb3d
