result/gan_40_model_12.pt (torch, 979782 bytes, 15 tensors)

weight f4 [128, 13]
-0.33143932 0.35544103 0.09655889 -0.05750624 0.29437923 0.27014637 0.031070035 -0.10362426
-0.28965625 -0.10931623 0.2820391 -0.11607061 0.116514884 0.36662334 -0.052497096 -0.0323846
0.26130286 0.13700736 -0.1537817 -0.34886578 -0.041718893 -0.018168764 0.1860628 0.39970955
-0.007931627 0.17650834 0.23002857 0.16631472 0.0813927 -0.24221869 -0.10063396 -0.059048366
0.30122197 -0.11096185 -0.18609872 0.0441369 0.078907266 -0.11305592 0.22943027 0.36904758
-0.25807187 -0.23424764 0.25987324 0.16186309 -0.024113704 0.015577412 0.080329955 -0.022053778
0.015349144 0.054463904 -0.02265417 0.41434327 -0.09288892 0.35979477 -0.26823342 0.21234725
-0.19928958 -0.25535518 -0.45887852 0.029900903 -0.06456789 0.09673168 0.19420727 -0.15574281
-0.17734706 0.010926969 -0.004844287 -0.06919377 -0.18918686 0.10130133 0.08723323 -0.14310725
-0.081408165 0.16615902 0.27660555 -0.10961913 0.22132753 -0.37140247 0.10450682 -0.045452207
-0.15219574 0.104600646 0.11317488 0.24234785 0.08803764 0.116849616 -0.08308726 -0.3334996
-0.039608378 -0.026268397 0.23085184 -0.046191588 0.12853883 0.330905 0.12992623 -0.24491757
-0.39352655 -0.027669614 -0.3213621 0.25759435 0.09731054 -0.14946221 0.09231766 0.32038316
0.077719785 -0.17892507 0.11977976 -0.34003726 0.26991972 -0.00053021626 -0.29335478 0.11516181
-0.1379332 -0.271467 0.06319129 -0.0073178564 0.19777563 0.20481332 0.22169846 0.14739376
-0.15242381 -0.107099995 -0.021729337 0.16274214 -0.24442953 -0.12631007 -0.26799136 0.060456026
0.0828 -0.21913092 -0.54537106 0.17135186 0.05773406 -0.04657425 -0.16616501 0.26790917
-0.04551924 -0.21044886 -0.09644146 -0.06554763 -0.0463548 0.22679661 0.042294614 0.20571318
0.019501396 0.196647 0.3737847 -0.22634186 -0.26313123 0.17890155 -0.370396 0.42908776
0.34380892 -0.1845831 -0.022342034 -0.36809787 -0.3770862 -0.34811437 -0.12716287 -0.45658672
0.20551986 -0.16463833 0.08652323 0.14259107 0.0430471 0.27527082 -0.26047823 -0.010472374
0.3396844 0.054547757 -0.30759886 0.17992647 -0.31224665 0.20894189 0.23975958 -0.06563758
0.18580355 0.05101802 -0.29539877 -0.060432598 0.0024448729 -0.13042925 -0.045847833 0.24948028
-0.04715766 -0.27448282 0.20212826 -0.22561254 0.31177616 -0.23397015 -0.036079515 0.33411846
0.35274863 0.0036295163 0.2368962 -0.1350022 -0.21848053 -0.053122893 0.023275683 0.22478405
-0.26510707 0.27815384 -0.14837122 -0.21985264 -0.017516958 0.15227154 0.09599838 -0.050012518
-0.34196794 -0.1953614 -0.3046128 -0.024255985 0.17869845 -0.112410024 0.17601924 0.21412367
-0.20029278 0.2927015 -0.13140593 -0.1066009 -0.18855979 0.33980942 0.2056676 0.25433525
0.098944545 -0.11142791 0.133456 0.32203534 -0.24154839 0.24276395 -0.31226373 0.3847044
-0.19345859 -0.02967381 -0.4579058 0.08202311 -0.19808999 -0.025075324 -0.03000496 0.13706677
0.218554 0.098396994 -0.035966914 -0.14018093 0.09367476 0.19204801 -0.310297 -0.32431328
0.22065406 0.26906246 0.049568 -0.028066784 0.043656167 -0.028180111 -0.39636618 -0.019961078
00000000: 6ab2 a9be 5efc b53e abc0 c53d aa8b 6bbd
00000010: e0b8 963e a050 8a3e 9686 fe3c f538 d4bd
00000020: d34d 94be 30e1 dfbd 6e67 903e 6eb6 edbd
00000030: 5b9f ee3d 0eb6 bb3e 3207 57bd b7a5 04bd
00000040: 7dc9 853e a84b 0c3e f378 1dbe 899e b2be
00000050: 6ee1 2abd a9d6 94bc 3f87 3e3e bba6 cc3e
00000060: a8f3 01bc 9abe 343e 9c8c 6b3e 684e 2a3e
00000070: 37b1 a63d 2d08 78be 2d19 cebd b3dc 71bd
00000080: c439 9a3e f73f e3bd aa90 3ebe e5c8 343d
00000090: 229a a13d dd89 e7bd c5ef 6a3e cef3 bc3e
000000a0: ff21 84be 9dde 6fbe 1b0e 853e 70bf 253e
000000b0: 1a8a c5bc 6738 7f3c 0884 a43d 20aa b4bc
000000c0: fa7a 7b3c 8b15 5f3d 3d95 b9bc cd24 d43e
000000d0: 8c3c bebd 0537 b83e e455 89be 8f71 593e
000000e0: 9112 4cbe eabd 82be 20f2 eabe bdf2 f43c
000000f0: 2b3c 84bd 421b c63d 45de 463e 0b7b 1fbe
00000100: 789a 35be 0807 333c d3bc 9ebb 77b5 8dbd
00000110: 33ba 41be 1277 cf3d 56a7 b23d b58a 12be
00000120: 53b9 a6bd 9725 2a3e 3e9f 8d3e ff7f e0bd
00000130: afa3 623e 7728 bebe ac07 d63d 182c 3abd
00000140: 33d9 1bbe dd38 d63d 3bc8 e73d 092a 783e
00000150: 144d b43d da4e ef3d a729 aabd 76c0 aabe
00000160: 653c 22bd d230 d7bc 6d64 6c3e 6433 3dbd
00000170: af9f 033e 616c a93e 620b 053e accb 7abe
00000180: 507c c9be 63ab e2bc 9389 a4be 68e3 833e
00000190: c04a c73d 9f0c 19be 0b11 bd3d 4309 a43e
000001a0: 8d2b 9f3d 2238 37be 174f f53d 5d19 aebe
000001b0: eb32 8a3e 36fe 0aba 9932 96be f4d9 eb3d
000001c0: 5c3e 0dbe b9fd 8abe 6f6a 813d a1ca efbb
000001d0: b285 4a3e 95ba 513e ec04 633e 64ee 163e
000001e0: fd14 1cbe 3e57 dbbd b901 b2bc e0a5 263e
000001f0: bc4b 7abe 6d57 01be 2a36 89be bda0 773d
00000200: 0c93 a93d db63 60be 709d 0bbf dd76 2f3e
00000210: 8d7a 6c3d a4c4 3ebd 2927 2abe 642b 893e
00000220: 6272 3abd e87f 57be 1a83 c5bd d63d 86bd
00000230: 88de 3dbd 5f3d 683e 1e3d 2d3d 7aa6 523e
00000240: 64c1 9f3c d55d 493e b560 bf3e 29c6 67be
00000250: 23b9 86be f831 373e 8ba4 bdbe 64b1 db3e
00000260: b907 b03e 5a03 3dbe a406 b7bc 5377 bcbe
00000270: 7111 c1be 0c3c b2be fc36 02be bcc5 e9be
00000280: cc73 523e f396 28be 1733 b13d 6503 123e
00000290: 2852 303d 4cf0 8c3e 675d 85be 5294 2bbc
000002a0: 1deb ad3e 786d 5f3d 997d 9dbe a53e 383e
000002b0: cbde 9fbe ddf4 553e 8983 753e ff6c 86bd
000002c0: 4943 3e3e 45f8 503d 823e 97be 2c88 77bd
000002d0: 293a 203b 3f8f 05be f0ca 3bbd c277 7f3e
000002e0: 6428 41bd 0389 8cbe b6fa 4e3e f906 67be
000002f0: 20a1 9f3e df95 6fbe 1dc8 13bd 9311 ab3e
00000300: 789b b43e 2edd 6d3b eb94 723e 043e 0abe
00000310: 5cb9 5fbe 6497 59bd a5ac be3c ca2d 663e
00000320: 1dbc 87be 2e6a 8e3e a0ee 17be 0d21 61be
00000330: b97f 8fbc 12ed 1b3e cc9a c43d edd9 4cbd
00000340: 6c16 afbe d20c 48be 35f6 9bbe 7db4 c6bc
00000350: bafc 363e 3a37 e6bd 633e 343e 3c43 5b3e
00000360: 8d19 4dbe f9dc 953e 478f 06be 9351 dabd
00000370: d115 41be 80fb ad3e 879a 523e 3b38 823e
00000380: 70a3 ca3d 5134 e4bd b1a8 083e d1e1 a43e
00000390: 7658 77be 1d97 783e 08e1 9fbe faf7 c43e
000003a0: 021a 46be 7d16 f3bc a172 eabe bbfb a73d
000003b0: 1ad8 4abe c46a cdbc f6cc f5bc 3b5b 0c3e
000003c0: 9fcc 5f3e 5d84 c93d 0b52 13bd 978b 0fbe
000003d0: 8dd8 bf3d 3ca8 443e 40df 9ebe 640c a6be
000003e0: 23f3 613e 8ec2 893e d107 4b3d 50ec e5bc
000003f0: cfd0 323d fad9 e6bc 82f0 cabe 6a85 a3bc

bias f4 [128]
-0.2129536 -0.21410574 0.13077936 0.18235978 -0.15040797 -0.068250984 0.106464036 0.07024388
0.13971426 -0.10289173 -0.12858118 0.1429185 -0.034735367 -0.20654036 -0.17122945 -0.19678096
-0.033037726 -0.039084326 0.27441055 0.2022764 -0.042921223 -0.015796961 -0.16671632 0.10795347
-0.15604593 -0.11076237 0.11625685 -0.16483106 -0.314009 0.36469525 -0.024269192 -0.075488135
0.09963814 0.23385002 -0.22766335 -0.11508473 -0.0006940595 -0.3709774 -0.04773603 -0.01827296
0.116732866 0.15218444 0.180984 0.2537831 -0.11344327 -0.1895158 -0.14539781 0.04377085
-0.16360767 0.17683859 -0.18182313 -0.044917803 -0.04756061 -0.059096232 -0.011248528 0.047163673
-0.104233325 -0.06812064 0.2964542 -0.1714871 0.124495246 -0.26338166 -0.26625484 0.13036099
0.10520323 0.20380335 0.23646434 -0.0919226 0.07250918 0.2699985 -0.05329426 0.19143094
0.16939604 0.049387638 0.30430055 -0.23571588 -0.20882085 0.030910898 -0.13208632 0.0603473
0.016225621 0.08538375 -0.039298363 0.1532783 -0.22287866 -0.25160587 0.20181923 0.19640708
0.24448499 0.043119226 0.14274424 0.21945821 0.011505383 0.26828185 0.18669087 -0.00163121
-0.29500246 -0.30270898 0.12599795 -0.22467189 -0.0005654234 0.071229555 -0.025824774 0.2221551
-0.023597457 0.30102307 -0.080337085 -0.18338305 0.25392082 -0.140141 0.23567757 -0.25487983
-0.0075290417 0.05017804 0.04805435 -0.1937764 0.086862795 0.16870561 -0.11769392 -0.032308657
-0.19402178 -0.01835331 -0.16801372 -0.013338288 -0.16898187 0.019569574 0.010238564 0.18579014
00000000: 8210 5abe 893e 5bbe 06eb 053e 86bc 3a3e
00000010: 8c04 1abe 2cc7 8bbd d109 da3d 06dc 8f3d
00000020: 4111 0f3e e6b8 d2bd c9aa 03be 3a59 123e
00000030: ac46 0ebd 517f 53be c656 2fbe f380 49be
00000040: 9152 07bd e316 20bd 8a7f 8c3e 8b21 4f3e
00000050: 2ace 2fbd a168 81bc afb7 2abe b516 dd3d
00000060: 81ca 1fbe 62d7 e2bd 1218 ee3d 79c9 28be
00000070: cac5 a0be 56b9 ba3e 2fd0 c6bc 8699 9abd
00000080: 150f cc3d 6176 6f3e 9520 69be 8bb1 ebbd
00000090: 8bf1 35ba c0f0 bdbe db86 43bd 2db1 95bc
000000a0: a411 ef3d 3dd6 1b3e df53 393e dcef 813e
000000b0: f254 e8bd 6e10 42be 2ae3 14be 1049 333d
000000c0: c588 27be 2d15 353e d82f 3abe bbfb 37bd
000000d0: eace 42bd e40e 72bd bf4b 38bc b22e 413d
000000e0: 4878 d5bd d682 8bbd d8c8 973e 509a 2fbe
000000f0: 5df7 fe3d f6d9 86be 8e52 88be 5a7d 053e
00000100: cb74 d73d d3b1 503e b523 723e eb41 bcbd
00000110: b17f 943d 3e3d 8a3e 154b 5abd 7906 443e
00000120: 2876 2d3e b14a 4a3d 48cd 9b3e 815f 71be
00000130: 22d5 55be da38 fd3c a341 07be bb2e 773d
00000140: 98eb 843c addd ae3d 52f7 20bd fdf4 1c3e
00000150: 4e3a 64be 7cd2 80be b3a9 4e3e f01e 493e
00000160: 465a 7a3e c99d 303d 8c2b 123e a7b9 603e
00000170: 1381 3c3c 3d5c 893e e42b 3f3e 53ce d5ba
00000180: 900a 97be acfc 9abe 9b05 013e 6310 66be
00000190: ec38 14ba cde0 913d 7a8e d3bc a07c 633e
000001a0: 744f c1bc b21f 9a3e c587 a4bd c4c8 3bbe
000001b0: e901 823e 1f81 0fbe 7655 713e 9c7f 82be
000001c0: 2eb6 f6bb 7d87 4d3d a3d4 443d 526d 46be
000001d0: 1fe5 b13d 2ac1 2c3e 8309 f1bd 1556 04bd
000001e0: a5ad 46be ae59 96bc ca0b 2cbe d688 5abc
000001f0: 9509 2dbe 5f50 a03c a6bf 273c c53f 3e3e

weight f4 [512, 128]
-0.02307942 0.019021155 -0.0010953777 -0.017275691 -0.10121076 0.031169603 0.034547433 -0.07130708
0.10969602 -0.036891446 0.010187023 -0.014444898 0.048176575 0.033252418 -0.1425875 -0.0041279136
-0.056921594 -0.0033068152 -0.10182182 0.0078011337 -0.083402574 -0.08548802 0.030437768 0.04601073
0.0027734363 0.0010878249 -0.023815013 0.04340764 0.034797978 -0.037089396 -0.093256555 0.031789925
0.091622 0.013616487 -0.032610215 -0.15522915 -0.01837487 0.008734474 -0.03131145 0.05982202
-0.042204283 -0.09183345 -0.056251697 -0.049146283 -0.0529112 -0.10942677 -0.08263132 -0.047417566
0.03180581 -0.07416404 -0.062157452 0.0015508425 -0.038164936 0.0085577285 0.0727835 0.17202435
-0.0070017013 0.040257264 0.05972805 -0.035221484 0.038229235 0.121976465 -0.07114827 0.0062084924
-0.088668235 -0.016589759 0.018096277 -0.028448991 -0.0407432 0.08963735 0.035629623 0.048018426
0.019102078 0.02252257 0.036842283 -0.044475015 0.021175468 -0.08638418 0.08402728 -0.06155337
-0.012899477 -0.060715906 0.019883005 0.07699419 -0.09623282 0.06855674 0.0008693798 -0.030479265
0.11014815 -0.035653923 -0.019021662 -0.05765482 -0.0053981557 0.021448093 -0.070372745 0.092156336
-0.085454516 0.06663125 0.06265944 -0.09389887 -0.08552049 0.059967406 0.017088344 0.040077586
0.13923214 0.013168166 -0.10533365 0.013989173 0.113795064 -0.027924722 0.03741159 0.07382658
-0.07454694 -0.12686045 0.030050375 0.07825975 -0.07432903 -0.015246787 -0.16983902 -0.0991183
-0.09878972 0.056128588 0.015143622 0.04133037 0.034611754 -0.1528641 -0.017348027 -0.024300074
-0.032240294 -0.05132339 -0.05204088 -0.03590867 -0.03718687 -0.060923196 -0.020809349 -0.0766528
0.09469432 -0.047009297 -0.032116257 -0.035768107 0.1072161 -0.0054228744 -0.0701716 0.011059522
0.0023838643 0.03297836 0.080583416 -0.027727515 0.0075730616 -0.0009829805 -0.098924704 -0.03635202
-0.116996296 0.09542146 0.076654345 -0.09221821 -0.053305537 0.018917037 -0.045707725 0.07667871
-0.046103757 0.019859595 0.078251995 0.0392519 0.01568821 -0.03692191 0.11729061 0.041093692
-0.015108853 -0.004407529 -0.031279806 0.11865028 0.06441952 -0.039124023 -0.01395321 -0.056181055
-0.15915205 -0.13188039 0.049512457 0.09222407 -0.12317001 -0.054398123 -0.15855958 -0.014369709
-0.15378264 0.010204649 0.12262099 -0.008447791 -0.00025189298 0.08485455 0.0060055614 0.04247515
0.021537011 -0.02716062 -0.009112536 -0.011880274 0.014416814 -0.012533383 0.061232857 -0.078327596
-0.13178758 0.07112484 -0.019859673 -0.06648938 0.0024391569 0.034157638 -0.03912012 -0.055391844
-0.015174246 0.04344167 0.057043053 0.09112956 0.066303484 -0.12968187 0.027351895 0.03606771
-0.03119128 -0.034388833 0.04241188 0.058514874 -0.017587038 0.013224568 0.10410998 -0.06970781
-0.11983325 -0.0070477454 -0.063418314 -0.10545482 0.042978182 -0.03670326 -0.04292462 -0.0050403373
-0.026909484 0.15838346 -0.04178181 -0.030592851 -0.08984523 -0.035097707 0.0332057 -0.015560721
0.08709746 0.018615497 0.065662004 -0.011971242 0.09752515 -0.035827752 0.034676656 0.025813578
0.051994983 -0.019721093 -0.096844375 -0.14254008 0.032407757 0.1987353 -0.17428638 0.05980932
00000000: 0d11 bdbc 41d2 9b3c c792 8fba c085 8dbc
00000010: 9647 cfbd 6557 ff3c 9c81 0d3d 7209 92bd
00000020: 4fa8 e03d 7c1b 17bd 79e7 263c 4baa 6cbc
00000030: cd54 453d b033 083d 7502 12be 7343 87bb
00000040: 9e26 69bd 27b7 58bb f587 d0bd a7a0 ff3b
00000050: f8ce aabd 5814 afbd a058 f93c bf75 3c3d
00000060: 8ac2 353b 5995 8e3a b417 c3bc 36cc 313d
00000070: 5388 0e3d 0deb 17bd 4bfd bebd 2736 023d
00000080: 51a4 bb3d b017 5f3c 4a92 05bd 64f4 1ebe
00000090: e586 96bc 0a1b 0f3c 6f40 00bd ef07 753d
000000a0: 66de 2cbd 2d13 bcbd 2e68 66bd 9d4d 49bd
000000b0: 6ab9 58bd 241b e0bd 9c3a a9bd ec38 42bd
000000c0: cf46 023d 51e3 97bd d098 7ebd a445 cb3a
000000d0: d652 1cbd b735 0c3c 840f 953d 2727 303e
000000e0: 876e e5bb cde4 243d 66a5 743d 6744 10bd
000000f0: 4296 1c3d ccce f93d 2fb6 91bd 9c70 cb3b
00000100: b197 b5bd 3fe7 87bc a53e 943c dc0d e9bc
00000110: 57e2 26bd c993 b73d 5ef0 113d f8ae 443d
00000120: f67b 9c3c 4181 b83c efe7 163d 6f2b 36bd
00000130: 2d78 ad3c 30ea b0bd 7f16 ac3d 631f 7cbd
00000140: 5458 53bc 3eb1 78bd afe1 a23c 21af 9d3d
00000150: b615 c5bd 7a67 8c3d 17e7 633a a7af f9bc
00000160: 5a95 e13d d909 12bd 51d3 9bbc 7627 6cbd
00000170: 03e3 b0bb e9b3 af3c 961f 90bd 76bc bc3d
00000180: c702 afbd f775 883d 9853 803d 0d4e c0bd
00000190: 5e25 afbd 62a0 753d dbfc 8b3c 6528 243d
000001a0: df92 0e3e 4bbf 573c 2bb9 d7bd d832 653c
000001b0: 630d e93d 63c2 e4bc e53c 193d 6432 973d
000001c0: 11ac 98bd b5e7 01be 342c f63c a646 a03d
000001d0: d239 98bd a9cd 79bc 48ea 2dbe 89fe cabd
000001e0: 4452 cabd 17e7 653d f41c 783c 094a 293d
000001f0: 0ec5 0d3d 6888 1cbe 731d 8ebc f310 c7bc
00000200: 660e 04bd 7a38 52bd d128 55bd f814 13bd
00000210: 4251 18bd 9a8a 79bd 5e78 aabc 25fc 9cbd
00000220: 18ef c13d d28c 40bd 568c 03bd 9481 12bd
00000230: 1d94 db3d 5eb2 b1bb 21b6 8fbd ff32 353c
00000240: 9b3a 1c3b 5114 073d eb08 a53d d024 e3bc
00000250: 7227 f83b 5ad7 80ba 0999 cabd dbe5 14bd
00000260: c19b efbd 546c c33d f4fc 9c3d e7dc bcbd
00000270: e856 5abd e7f7 9a3c 0638 3bbd ba09 9d3d
00000280: 4bd7 3cbd 97b0 a23c 9542 a03d 9ac6 203d
00000290: 9084 803c 6e3b 17bd 0f36 f03d dc51 283d
000002a0: 1f8b 77bc 086d 90bb 411f 00bd ebfe f23d
000002b0: 62ee 833d 8340 20bd 019c 64bc 1b1e 66bd
000002c0: c1f8 22be a70b 07be 93cd 4a3d f9df bc3d
000002d0: 8f40 fcbd 91d0 5ebd 715d 22be ee6e 6bbc
000002e0: 3279 1dbe 6631 273c b720 fb3d 9b68 0abc
000002f0: 8110 84b9 39c8 ad3d 4dca c43b 6cfa 2d3d
00000300: 636e b03c f37f debc bf4c 15bc 7ba5 42bc
00000310: 8034 6c3c d258 4dbc 4ecf 7a3d 386a a0bd
00000320: 53f3 06be e6a9 913d c1b0 a2bc 962b 88bd
00000330: 43da 1f3b e1e8 0b3d 6b3c 20bd 8fe2 62bd
00000340: 679d 78bc e4ef 313d faa5 693d 22a2 ba3d
00000350: 1fca 873d 53cb 04be 1511 e03c bcbb 133d
00000360: db84 ffbc 4edb 0cbd 14b8 2d3d 4bad 6f3d
00000370: b112 90bc dcab 583c 9d37 d53d f8c2 8ebd
00000380: 236b f5bd c6f0 e6bb 76e1 81bd b2f8 d7bd
00000390: e409 303d 2856 16bd bad1 2fbd 6a29 a5bb
000003a0: 4771 dcbc 462f 223e 6723 2bbd dc9d fabc
000003b0: c700 b8bd 9dc2 0fbd b302 083d 65f2 7ebc
000003c0: 2760 b23d 877f 983c cd79 863d 0723 44bc
000003d0: 44bb c73d 1fc0 12bd 1c09 0e3d ff76 d33c
000003e0: b1f8 543d 218e a1bc 5856 c6bd 07f6 11be
000003f0: ffbd 043d 4481 4b3e 2178 32be 9efa 743d

bias f4 [512]
0.010326083 0.07094711 0.04656959 -0.024302742 0.08755605 -0.02013326 0.0008899477 -0.008726184
0.046341497 0.10426721 0.009159233 0.02185973 -0.093883656 -0.06615523 -0.031509515 -0.03569122
0.06995557 0.0323385 0.074927546 0.13116108 0.07417276 0.027447319 0.020101842 0.016873604
0.0040821694 0.059289537 -0.12504743 -0.061697487 -0.02602465 0.02569555 -0.080373295 -0.021346187
0.031630863 -0.030030489 -0.062281966 -0.1280517 0.020043654 0.047593106 0.0019736672 -0.034574058
-0.014862238 0.0153180715 -0.015668325 -0.07466542 -0.07485986 -0.06082192 0.058460005 -0.0030710972
-0.009372392 -0.06936117 0.012398948 -0.044809695 -0.09535253 -0.11905298 -0.0066987937 -0.0879581
-0.06393679 0.013455012 0.02544807 0.012169118 0.007540478 0.037562754 0.07160262 -0.116658494
0.06537771 -0.08533876 0.072332546 -0.05704282 0.052479744 -0.06424564 0.09389175 0.027852628
-0.036335833 -0.08964185 -0.07805946 0.023038864 -0.029926175 0.045783903 -0.042972267 0.029086083
0.06100039 0.004010121 0.03854176 -0.0007125532 0.053257715 -0.034009825 0.013270152 0.060209505
0.046455644 -0.020994477 -0.048010454 0.035510853 -0.005802743 0.03115398 0.109227955 0.07768802
-0.0078005986 0.010308417 -0.042716257 0.055265322 0.05474389 0.050163675 0.06257477 -0.12859601
0.04524485 -0.046772055 0.0431219 0.015770104 0.035573915 -0.057710342 0.033685807 -0.076925844
-0.0453769 -0.08437063 -0.01458054 0.04178246 -0.024128716 -0.032213315 0.03031173 0.07935552
-0.037917655 0.032817494 -0.053481612 -0.10417883 0.012948542 -0.00790647 -0.0027304378 -0.01857544
-0.0058907378 0.07131653 -0.09180552 -8.3777006e-05 -0.06069913 -0.094771266 -0.019010913 -0.007288883
-0.081994474 0.0049349423 0.04730055 -0.028829139 0.07503621 0.09532127 0.020204889 0.08207681
0.010827658 -0.039166965 0.08714413 0.036716472 0.073685184 -0.08127469 0.06979438 -0.08564654
-0.0037897094 0.052859075 -0.019783853 0.052430946 -0.051713187 -0.0171648 -0.049466915 -0.025923487
-0.028350467 -0.015369691 0.074662246 0.0530678 0.0171881 0.051328495 0.027917352 0.06998495
-0.03975722 -0.055666268 0.01055838 0.0040744226 -0.14170605 0.014359066 0.0465297 0.10301841
-0.02337887 0.0008718587 -0.03641114 0.04388623 0.023095038 -0.039985005 -0.105456136 -0.073665835
-0.02446497 -0.09531123 0.019201063 -0.044257816 -0.0057932213 -0.15676402 -0.044871222 -0.008681614
0.09171197 -0.058916364 -0.03214142 0.07099406 -0.05453393 0.030861126 0.031671565 -0.012155921
0.040713422 -0.004164293 -0.011329115 -0.073236726 -0.029187433 -0.057677638 0.010329691 -0.03189184
-0.056466114 0.005216631 -0.003490562 -0.06264211 0.08547614 -0.078740746 0.006858612 0.046894025
-0.023440545 0.0038726432 0.027031701 0.084033765 -0.03387686 -0.060438987 -0.074739486 0.07023165
-0.015204651 0.03163565 -0.033700433 -0.007801416 -0.06006513 -0.019573208 -0.029461807 0.077505045
0.06526078 0.072918706 -0.0017875071 0.08034172 0.027164277 0.07558459 0.0066398703 0.06648242
0.0716468 0.019101536 -0.08256563 -0.021113828 -0.01821448 -0.06549879 0.18099163 0.09706722
-0.01997108 -0.051514033 -0.0017136835 -0.028710853 0.030380933 0.040032227 -0.001570596 -0.05161704
00000000: bb2e 293c b84c 913d c1bf 3e3d 8b16 c7bc
00000010: 9650 b33d 82ee a4bc 614b 693a 45f8 0ebc
00000020: 95d0 3d3d 0c8a d53d 9c10 163c 2d13 b33c
00000030: 1346 c0bd 657c 87bd 1f10 01bd f530 12bd
00000040: de44 8f3d 6075 043d 9d73 993d 174f 063e
00000050: e3e7 973d 33d9 e03c 9eac a43c 833a 8a3c
00000060: b8c3 853b 96d9 723d 6f0c 00be 81b6 7cbd
00000070: a631 d5bc 797f d23c c19a a4bd 33de aebc
00000080: 5d8f 013d 8002 f6bc 601b 7fbd fc1f 03be
00000090: 9732 a43c fdf0 423d a458 013b 879d 0dbd
000000a0: bf80 73bc a6f8 7a3c dc5a 80bc 2fea 98bd
000000b0: 2050 99bd 6820 79bd c273 6f3d 7644 49bb
000000c0: a98e 19bc 3b0d 8ebd f524 4b3c 5f8a 37bd
000000d0: 3048 c3bd 0cd2 f3bd 8e81 dbbb 6023 b4bd
000000e0: 4bf1 82bd 6972 5c3c 7978 d03c fb60 473c
000000f0: 1d16 f73b 67db 193d 65a4 923d a6ea eebd
00000100: c0e4 853d 16c6 aebd 1623 943d bba5 69bd
00000110: 00f5 563d 3893 83bd 514a c03d 322b e43c
00000120: e2d4 14bd 2596 b7bd a3dd 9fbd 00bc bc3c
00000130: bd27 f5bc e787 3b3d b003 30bd f045 ee3c
00000140: 8cdb 793d 5567 833b f7dd 1d3d a3ca 3aba
00000150: c324 5a3d e34d 0bbd 0d6b 593c 3e9e 763d
00000160: 4648 3e3d 9cfc abbc 9ca6 44bd d473 113d
00000170: f024 bebb a236 ff3c e8b2 df3d e61a 9f3d
00000180: 2a9c ffbb a2e4 283c 3ef7 2ebd e45d 623d
00000190: 213b 603d 6d78 4d3d 3327 803d acae 03be
000001a0: aa52 393d 0e94 3fbd 97a0 303d 4e30 813c
000001b0: f4b5 113d ae61 6cbd 21fa 093d 4c8b 9dbd
000001c0: 21dd 39bd 82ca acbd 38e3 6ebc 1624 2b3d
000001d0: 96a9 c5bc 1cf2 03bd 4e50 f83c 2685 a23d
000001e0: 8b4f 1bbd a36b 063d 890f 5bbd b65b d5bd
000001f0: 1f26 543c 248a 01bc 25f1 32bb 852b 98bc
00000200: 1707 c1bb 670e 923d 8804 bcbd 70b1 afb8
00000210: a79f 78bd 7017 c2bd c6bc 9bbc 95d7 eebb
00000220: b8ec a7bd 4cb5 a13b 39be 413d 162b ecbc
00000230: 96ac 993d cc37 c33d b984 a53c e317 a83d
00000240: 7d66 313c 8a6d 20bd 9f78 b23d 0364 163d
00000250: 42e8 963d 5873 a6bd 5bf0 8e3d 7467 afbd
00000260: c65c 78bb c282 583d bf11 a2bc d5c1 563d
00000270: 35d1 53bd 329d 8cbc d29d 4abd 7e5d d4bc
00000280: 3d3f e8bc 28d1 7bbc 85e8 983d 9f5d 593d
00000290: 0fce 8c3c d43d 523d eeb2 e43c 4554 8f3d
000002a0: 77d8 22bd 5002 64bd 0efd 2c3c bc82 853b
000002b0: 641b 11be 4a42 6b3c ed95 3e3d 51fb d23d
000002c0: 0b85 bfbc 728d 643a d923 15bd 0cc2 333d
000002d0: ce31 bd3c 51c7 23bd 63f9 d7bd 1dde 96bd
000002e0: c36a c8bc 8932 c3bd 8c4b 9d3c af47 35bd
000002f0: 10d5 bdbb bf86 20be e3ca 37bd 543d 0ebc
00000300: 7cd3 bb3d 4952 71bd b9a6 03bd 5565 913d
00000310: f85e 5fbd 79d0 fc3c 0bba 013d a129 47bc
00000320: 1ec3 263d 9f74 88bb c19d 39bc 23fd 95bd
00000330: 7c1a efbc 633f 6cbd dd3d 293c 05a1 02bd
00000340: 0349 67bd 46f0 aa3b eac1 64bb 824a 80bd
00000350: 1d0e af3d d442 a1bd 35be e03b f313 403d
00000360: 6306 c0bc 2ccc 7d3b 9671 dd3c e519 ac3d
00000370: 76c2 0abd df8e 77bd 0411 99bd 9cd5 8f3d
00000380: ee1c 79bc 6294 013d 7709 0abd 05a3 ffbb
00000390: db06 76bd fe57 a0bc e359 f1bc f7ba 9e3d
000003a0: 72a7 853d 6756 953d c94a eaba 338a a43d
000003b0: 9e87 de3c 18cc 9a3d 4593 d93b ef27 883d
000003c0: 8fbb 923d d37a 9c3c 2b18 a9bd e8f6 acbc
000003d0: 8836 95bc 3b24 86bd df55 393e 2ecb c63d
000003e0: 649a a3bc 6100 53bd ad9d e0ba 0633 ebbc
000003f0: 6fe1 f83c d5f8 233d 75dc cdba 646c 53bd

weight f4 [256, 512]
0.042410795 -0.052808337 -0.02567297 -0.030194713 0.054389372 0.034891054 -0.030397935 -0.10803203
-0.047612477 -0.07043404 0.011046092 -0.1614272 0.03367414 0.09455753 -0.019266015 -0.22732052
0.009487909 -0.022425648 -0.045592926 0.05746467 -0.059368104 0.007705847 -0.042315748 0.058490355
0.020928457 0.11179049 0.06202074 -0.09307653 0.009330739 0.12154163 -0.03568091 0.056858737
-0.04023474 -4.231057e-05 0.11159862 -0.04671482 0.05427482 0.13501965 0.101541735 0.03607733
0.027196418 0.045437247 -0.027097544 0.022187492 -0.01118679 0.03475202 0.02601258 0.156175
0.04761615 0.070822455 -0.11337543 -0.0613642 0.14725934 0.004204269 -0.1431776 0.03606994
-0.100178145 0.0057571353 -0.035228603 -0.21906577 -0.04861832 0.0071969535 0.014201059 0.019371198
-0.022101548 -0.0015586669 -0.0067327553 -0.057806443 -0.15379067 0.01703506 -0.022214513 0.033217136
0.009335087 0.2671555 0.099608 -0.019411508 0.029248534 -0.039205637 -0.06365122 0.029292246
0.046903867 0.008947067 -0.006151851 -0.23175298 -0.0075897938 0.13554566 -0.052892547 -0.0038923328
0.09235274 0.032575175 0.070359744 0.017472114 0.011607251 -0.02269294 0.029790418 -0.0019048587
-0.33429483 0.05984426 -0.07377424 -0.047746383 0.09786267 0.051672827 0.010812534 0.03294248
0.06311906 0.037406225 0.039234906 -0.24006104 -0.076082066 0.117685154 0.04451993 -0.038362082
0.04874594 -0.0024069955 -0.23463154 0.06866412 0.06654868 -0.033734005 -0.0466146 -0.06868588
-0.076987475 0.061861366 0.058145776 0.2538091 0.042753834 -0.021003494 0.033798978 0.053512968
0.0331145 -0.04031476 0.02019323 -0.024940634 -0.14947687 0.026630739 -0.12853852 0.008554457
-0.04317487 0.039159518 -0.10413853 0.014175675 0.020573191 -0.15264069 -0.039792094 0.014466904
0.10662863 -0.0013953431 -0.01850933 -0.016151013 0.0049682353 -0.061403148 -0.22071423 -0.0685381
-0.13048157 0.06094455 0.02815183 0.11078622 0.062944785 0.020833377 0.067026 0.016669352
-0.12536593 0.10950046 0.03977475 -0.025082676 -0.013175373 0.03806979 0.053269804 0.010011047
-0.027710782 0.1036282 0.09052761 0.04075079 0.1253997 0.03785215 0.0393396 0.04267213
0.10082887 0.030461334 -0.012650353 0.09385261 0.054535616 0.072601005 -0.004745116 0.08671721
-0.23048978 0.029518513 0.0386768 0.081286326 -0.0028899817 -0.06960436 -0.050648045 0.008814838
-0.20301312 0.077584855 -0.075119786 -0.02718265 0.018667614 -0.08875533 -0.022472825 0.1561384
0.039023433 -0.10616059 0.04022236 0.062075224 0.02688634 0.024580074 0.03569905 -0.010502672
0.07330834 -0.001758682 0.040162697 0.10661761 -0.11572027 0.18243335 -0.0962612 -0.031684205
-0.13277856 -0.109994516 -0.06307697 -0.018238802 0.11605102 -0.023363767 0.22473468 -0.027366051
0.006958296 -0.14495873 -0.036764633 0.18678737 0.07852114 -0.07234505 0.019883597 0.07324255
0.11652511 0.007876145 0.1381601 0.051806618 -0.07038866 0.01615964 -0.002434306 0.081061274
-0.104806274 0.05543411 0.120032236 -0.06432028 -0.20078819 -0.15843126 -0.08194767 0.06678646
0.018227419 -0.023613412 -0.032719493 -0.003064357 0.02345269 -0.09362958 0.07303577 0.013239228
00000000: f1b6 2d3d 8e4d 58bd 1f50 d2bc e75a f7bc
00000010: 64c7 5e3d ece9 0e3d 1705 f9bc e63f ddbd
00000020: 4d05 43bd b93f 90bd abfa 343c 2c4d 25be
00000030: e5ed 093d 61a7 c13d c3d3 9dbc b6c6 68be
00000040: 2d73 1b3c feb5 b7bc a6bf 3abd 1360 6b3d
00000050: f82b 73bd 5481 fc3b 4753 2dbd 9593 6f3d
00000060: 2872 ab3c 6af2 e43d 7609 7e3d e89e bebd
00000070: f5df 183c d1ea f83d 2526 12bd b5e4 683d
00000080: 2fcd 24bd a176 31b8 d18d e43d 0a58 3fbd
00000090: 464f 5e3d 9742 0a3e 1df5 cf3d d3c5 133d
000000a0: 06cb de3c 681c 3a3d abfb ddbc 8bc2 b53c
000000b0: cc48 37bc 2258 0e3d 5618 d53c 57ec 1f3e
000000c0: 2709 433d 5d0b 913d 6131 e8bd 0759 7bbd
000000d0: 27cb 163e f7c3 893b 269d 12be 13be 133d
000000e0: 332a cdbd 5aa6 bc3b de4b 10bd c752 60be
000000f0: 0124 47bd 6cd4 eb3b 8fab 683c 59b0 9e3c
00000100: 4e0e b5bc 2f4c ccba 729e dcbb 73c6 6cbd
00000110: 4d7b 1dbe 1c8d 8b3c 36fb b5bc b10e 083d
00000120: 31f2 183c 9bc8 883e 47ff cb3d e204 9fbc
00000130: 9f9a ef3c 1796 20bd 925b 82bd 4bf6 ef3c
00000140: 451e 403d b896 123c 7795 c9bb a750 6dbe
00000150: ceb3 f8bb 7bcc 0a3e dba5 58bd 8216 7fbb
00000160: 6f23 bd3d 8c6d 053d c518 903d ae21 8f3c
00000170: 572c 3e3c 8be6 b9bc 090b f43c 74ac f9ba
00000180: b128 abbe 411f 753d f316 97bd b691 43bd
00000190: 396c c83d e3a6 533d 0e27 313c b2ee 063d
000001a0: 9144 813d 4537 193d c8b4 203d 90d2 75be
000001b0: ead0 9bbd ea04 f13d 885a 363d 8f21 1dbd
000001c0: d3a9 473d afbe 1dbb 4043 70be c69f 8c3d
000001d0: ad4a 883d ab2c 0abd f3ee 3ebd 2fab 8cbd
000001e0: 9cab 9dbd 5862 7d3d 442a 6e3d 44f3 813e
000001f0: a51e 2f3d 850f acbc cc70 0a3d 6a30 5b3d
00000200: 12a3 073d 1721 25bd 466c a53c 4d50 ccbc
00000210: 7710 19be b528 da3c 9a9f 03be fe27 0c3c
00000220: 22d8 30bd bb65 203d 9546 d5bd 1741 683c
00000230: 1c89 a83c d74d 1cbe 09fd 22bd 9806 6d3c
00000240: 1c60 da3d f2e3 b6ba e1a0 97bc 214f 84bc
00000250: 94cc a23b de81 7bbd e902 62be b45d 8cbd
00000260: f69c 05be fea0 793d ab9e e63c e3e3 e23d
00000270: 32e9 803d c2aa aa3c ed44 893d 2a8e 883c
00000280: ed5f 00be c741 e03d d9ea 223d 2f7a cdbc
00000290: 85dd 57bc 11ef 1b3d 7031 5a3d 6005 243c
000002a0: b901 e3bc 063b d43d 8a66 b93d 4dea 263d
000002b0: c768 003e db0a 1b3d 8f22 213d f9c8 2e3d
000002c0: 5e7f ce3d 0c8a f93c 6d43 4fbc cc35 c03d
000002d0: bd60 5f3d d6af 943d eb7c 9bbb cb98 b13d
000002e0: 8305 6cbe cfd0 f13c 906b 1e3d 7279 a63d
000002f0: d965 3dbb bb8c 8ebd 5374 4fbd 1c6c 103c
00000300: ace2 4fbe cfe4 9e3d 67d8 99bd 26ae debc
00000310: d3ec 983c 5bc5 b5bd ee18 b8bc bfe2 1f3e
00000320: 09d7 1f3d b96a d9bd 34c0 243d 9742 7e3d
00000330: be40 dc3c 275c c93c 2b39 123d 6613 2cbc
00000340: af22 963d 9383 e6ba a481 243d 555a da3d
00000350: c0fe ecbd cfcf 3a3e 9824 c5bd 4cc7 01bd
00000360: 1af7 07be ce44 e1bd 802e 81bd 8a69 95bc
00000370: 28ac ed3d 5f65 bfbc d920 663e c52e e0bc
00000380: 6b02 e43b 1070 14be 8396 16bd 3045 3f3e
00000390: b1cf a03d a429 94bd ede2 a23c 3100 963d
000003a0: b8a4 ee3d f20a 013c d779 0d3e 2d33 543d
000003b0: ee27 90bd 3961 843c e188 1fbb 7403 a63d
000003c0: aca4 d6bd e10e 633d 76d3 f53d 5aba 83bd
000003d0: 6b9b 4dbe ce3b 22be 2ed4 a7bd 57c7 883d
000003e0: ab51 953c ea70 c1bc e004 06bd 61d3 48bb
000003f0: db1f c03c dec0 bfbd c793 953d 59e9 583c

bias f4 [256]
-0.04102038 0.014094974 -0.07003473 -0.0052154437 -0.08222547 0.027694562 -0.04026135 -0.034057815
-0.030934207 -0.014008171 -0.050941523 -0.0035613545 -0.018697433 -0.03026154 0.020513296 -0.009077224
-0.07793636 0.07672951 -0.052724034 0.008524655 -0.06463419 -0.008168262 -0.023850143 0.018773163
0.0049453727 -0.045091104 -0.07418689 0.011914658 -0.06986518 -0.09076005 0.015982099 -0.006058404
0.0012519289 -0.067521796 -0.0719968 0.014385748 0.00023016639 0.020428794 0.016394967 -0.121266484
-0.005513308 -0.07538403 0.006957114 -0.041639164 -0.040354423 -0.0272066 -0.03024952 -0.022478666
-0.0288625 0.030269504 0.0069793323 0.00030106638 -0.030402146 -0.0027205723 -0.08894101 -0.03295442
-0.04075444 -0.027574476 -0.013630442 0.03643575 -0.11808064 -0.030709216 -0.024341205 -0.009702803
-0.03700581 -0.03475787 -0.028388726 0.0018169848 -0.035706915 0.011927846 0.026635015 -0.025990311
-0.05346528 -0.012243794 -0.023640195 -0.07347156 -0.029297385 -0.109688535 0.027128406 -0.07471951
-0.08585846 0.06438553 -0.031667076 -0.0291501 -0.082067795 0.03815099 -0.00027865273 0.013697455
-0.0034122434 -0.025482986 -0.07206976 -0.0045889383 0.022549111 -0.0057196342 -0.049658258 0.06704441
-0.033575635 -0.110863715 0.07043387 -0.019204784 0.019218234 0.0147389565 -0.0599585 -0.0731927
-0.075072415 -0.000585385 0.021161994 0.034588587 0.0026658284 -0.003099643 -0.018200913 -0.01712902
-0.026231304 -0.009922713 -0.07786684 0.033934724 -0.10233961 -0.022620143 -0.041146867 0.028588623
-0.07032286 -0.021677181 -0.028123565 -0.08694225 -0.109529294 -0.0430801 0.026054021 -0.04704002
-0.020310346 -0.10468503 -0.01571146 -0.026917135 -0.048401844 0.08880956 -0.031325873 -0.04000515
-0.07271967 0.023432568 0.030645901 0.03914508 0.044817224 -0.046725787 -0.038758527 -0.0059556467
0.04486824 -0.050851762 -0.010684018 -0.06158702 0.036531232 -0.0014078246 -0.05263605 -0.00030710647
-0.016705 -0.015064985 -0.02007294 -0.0050467406 0.0003086782 -0.03289771 0.039276093 -0.043919157
0.08270787 -0.1002475 0.04522275 0.015775727 -0.021991955 -0.011661692 -0.056573678 -0.013068468
0.00736524 -0.060868897 0.019137166 0.022947146 -0.098281905 -0.017229252 -0.0040520993 -0.101083286
-0.031244405 -0.00092744175 -0.040717006 0.048223175 -0.005471688 -0.048271716 -0.012828008 0.0040133353
0.00719507 -0.06322743 0.028268052 -0.027982429 -0.09420238 0.008161565 -0.07044485 -0.05041152
-0.07400395 -0.114618115 -0.060307678 -0.02801561 0.003444275 -0.013894316 -0.02884608 -0.036936954
0.04770791 0.0069728913 -0.023501005 0.027102694 0.01126522 -0.058569625 -0.0021196886 0.026576543
0.030875245 -0.053695753 -0.071224436 0.027834643 -0.13074522 -0.054084633 -0.009646301 -0.036145385
-0.023334907 -0.075194314 -0.0063473117 -0.010531784 -0.09242387 -0.049734205 -0.07319178 -0.015777662
-0.046615947 -0.078741744 -0.011191115 -0.029721135 0.09469459 -0.025506655 0.022586212 -0.011230553
-0.008067276 0.088635996 -0.027128443 -0.0611413 -0.088839404 -0.04870297 -0.14109516 -0.035926905
0.031212099 0.015352247 0.0058878814 -0.093401276 -0.017815618 -0.005664566 0.0031006024 -0.038025536
-0.01623004 0.003090373 -0.056586638 -0.08488933 -0.07306135 0.031287696 0.03112745 -0.06268827
00000000: fc04 28bd 9bee 663c 5e6e 8fbd 50e6 aabb
00000010: d465 a8bd b5df e23c 16e9 24bd 3580 0bbd
00000020: bc69 fdbc 8782 65bc 0fa8 50bd 9d65 69bb
00000030: 5c2b 99bc 0de7 f7bc 800b a83c a3b8 14bc
00000040: 199d 9fbd 5d24 9d3d 28f5 57bd ffaa 0b3c
00000050: ee5e 84bd 2dd4 05bc 6061 c3bc 2dca 993c
00000060: cb0c a23b 73b1 38bd 4cef 97bd b335 433c
00000070: 7a15 8fbd 68e0 b9bd e4ec 823c 9485 c6bb
00000080: c317 a43a de48 8abd 0f73 93bd 33b2 6b3c
00000090: d258 7139 495a a73c bd4e 863c 905a f8bd
000000a0: fba8 b4bb f162 9abd 81f8 e33b d48d 2abd
000000b0: ae4a 25bd 60e0 debc d7cd f7bc 2e25 b8bc
000000c0: 0d71 ecbc c0f7 f73c e2b2 e43b 72d8 9d39
000000d0: ec0d f9bc a14b 32bb b426 b6bd 37fb 06bd
000000e0: 21ee 26bd dee3 e1bc 3852 5fbc a73d 153d
000000f0: 43d4 f1bd e591 fbbc 3567 c7bc 81f8 1ebc
00000100: 6793 17bd 455e 0ebd 798f e8bc e527 ee3a
00000110: 6a41 12bd 036d 433c ad31 da3c a2e9 d4bc
00000120: 69fe 5abd 329a 48bc 15a9 c1bc 4278 96bd
00000130: 1201 f0bc 62a4 e0bd 643c de3c 8b06 99bd
00000140: 8fd6 afbd 90dc 833d 56b5 01bd 31cc eebc
00000150: 2913 a8bd 3644 1c3d 2318 92b9 4a6b 603c
00000160: f29f 5fbb b2c1 d0bc 4f99 93bd ce5e 96bb
00000170: eab8 b83c c56b bbbb 7566 4bbd 944e 893d
00000180: 9b86 09bd 840c e3bd a23f 903d 5a53 9dbc
00000190: 8f6f 9d3c aa7b 713c 0b97 75bd 0ee6 95bd
000001a0: 91bf 99bd 8674 19ba eb5b ad3c c3ac 0d3d
000001b0: 2eb5 2e3b 6123 4bbb 151a 95bc 2952 8cbc
000001c0: 08e3 d6bc e092 22bc a678 9fbd 23ff 0a3d
000001d0: 6e97 d1bd e14d b9bc 9e89 28bd b032 ea3c
000001e0: 6e05 90bd 5894 b1bc 6463 e6bc c70e b2bd
000001f0: e550 e0bd c274 30bd 3e6f d53c 09ad 40bd
00000200: e261 a6bc 1b65 d6bd 52b5 80bc 5381 dcbc
00000210: 0341 46bd c9e1 b53d 8f4f 00bd 71dc 23bd
00000220: 0dee 94bd a8f5 bf3c 1d0d fb3c 9756 203d
00000230: 4492 373d 8a63 3fbd 43c1 1ebd 9627 c3bb
00000240: c2c7 373d f049 50bd 050c 2fbc ac42 7cbd
00000250: c6a1 153d c186 b8ba e698 57bd 2203 a1b9
00000260: edd8 88bc 20d3 76bc 0270 a4bc 215f a5bb
00000270: 16d6 a139 c0bf 06bd f8df 203d 93e4 33bd
00000280: be62 a93d 904e cdbd 7e3b 393d 193c 813c
00000290: 7928 b4bc ae10 3fbc cdb9 67bd 211d 56bc
000002a0: 1c58 f13b aa51 79bd 8cc5 9c3c a7fb bb3c
000002b0: 0648 c9bd 5c24 8dbc 79c7 84bb c104 cfbd
000002c0: 44f4 ffbc 901f 73ba e0c6 26bd aa85 453d
000002d0: d94b b3bb 90b8 45bd 912c 52bc 4c82 833b
000002e0: 9fc4 eb3b 627d 81bd 6792 e73c 683b e5bc
000002f0: 2ded c0bd 16b8 053c 6445 90bd 4f7c 4ebd
00000300: 628f 97bd e7bc eabd 2f05 77bd fe80 e5bc
00000310: 58b9 613b fca4 63bc 9d4e ecbc 344b 17bd
00000320: 5f69 433d da7c e43b 2e85 c0bc 7806 de3c
00000330: c291 383c b4e6 6fbd 79ea 0abb 0db7 d93c
00000340: 15ee fc3c 14f0 5bbd 1ede 91bd 7a05 e43c
00000350: 13e2 05be d987 5dbd 850b 1ebc 2f0d 14bd
00000360: d928 bfbc 7aff 99bd 1cfd cfbb 818d 2cbc
00000370: ba48 bdbd 18b6 4bbd 92e5 95bd 2840 81bc
00000380: 5df0 3ebd 5a43 a1bd f05a 37bc bd79 f3bc
00000390: 3def c13d 55f3 d0bc b806 b93c 5a00 38bc
000003a0: 9c2c 04bc ca86 b53d 783c debc 4d6f 7abd
000003b0: 6ff1 b5bd c47c 47bd 407b 10be 1728 13bd
000003c0: 84b0 ff3c fe87 7b3c 21ef c03b 2b49 bfbd
000003d0: 0ff2 91bc d39d b9bb 7a33 4b3b aac0 1bbd
000003e0: dcf4 84bc db87 4a3b 64c7 67bd 75da adbd
000003f0: 30a1 95bd 8727 003d fefe fe3c b562 80bd

weight f4 [128, 256]
-0.24520724 -0.06140231 -0.09261253 -0.014407663 -0.0091547165 -0.14233206 -0.020648293 -0.030771276
-0.2929921 -0.07191365 -0.12357474 -0.03226383 0.012354425 0.0027380711 -0.06422731 -0.15838508
-0.052669883 -0.013394786 -0.12931745 0.03008576 -0.0563371 -0.0934332 -0.027883306 -0.078824796
-0.04287967 -0.10988257 -0.049617417 -0.069236584 -0.047139376 -0.113361925 -0.12746982 -0.0045402395
-0.08332005 -0.07381974 -0.02669158 -0.012977775 0.000251713 -0.10946422 0.033978797 -0.003968458
0.05650947 -0.0830442 0.003793927 -0.092435144 -0.054836757 -0.039952315 -0.10792276 0.0052850805
-0.07865034 0.009744745 -0.024130821 -0.12679589 0.0067373584 0.05940479 -0.008956864 -0.050965317
0.054592095 0.079468355 -0.11553506 0.04227604 0.02251426 -0.0083786575 -0.0011289447 -0.096480206
-0.0064464235 -0.08989389 -0.06964267 -0.06960511 -0.07072605 0.09331668 -0.110655636 -0.12794362
0.042336795 0.0073466883 -0.027405309 -0.036630586 -0.053817306 0.03365617 0.11462753 -0.061424255
0.045904152 -0.10688751 0.08538128 0.0891058 0.04647651 0.014456741 -0.031264167 0.018388039
-0.009963947 0.0153639745 -0.06780466 -0.028068637 -0.030370064 0.04672445 -0.077831335 -0.08641711
-0.02719682 -0.00059955206 -0.1460755 0.09879703 -0.023296777 -0.028512465 -0.070927165 -0.011729868
-0.04101736 -0.0225125 -0.018318687 -0.08234936 -0.04960946 -0.08511444 0.039193064 0.10808856
-0.05483201 -0.013678 -0.11931289 -0.06115932 -0.08875272 -0.01633125 -0.019464705 -0.13859679
-0.10895603 0.056606337 -0.044504263 0.022284547 -0.08005079 -0.043958995 -0.080475 0.07274281
-0.120590754 0.028649673 -0.05066816 0.00048998365 0.012624112 -0.08176645 -0.06242916 -0.050697662
-0.06446893 -0.15463448 -0.014818233 0.021018984 -0.026763523 -0.04899648 -0.14819893 -0.030737054
-0.051605426 -0.018023971 -0.013423318 -0.09145563 -0.017239962 0.04000865 0.09807039 0.018947093
-0.0057996707 0.004595353 0.010010914 -0.110962935 0.032170266 0.018752988 -0.07449171 0.007237235
-0.118852876 0.01089114 -0.09021125 -0.08892397 -0.04217224 -0.072401576 0.011694811 0.036909744
-0.06657494 -0.04585525 -0.04040686 0.0020530492 -0.057775494 -0.07226975 -0.02278056 -0.06639736
-0.005724123 0.01314268 -0.10275226 -0.040047273 0.04993489 -0.027122222 -0.018397106 -0.09614434
-0.011888066 0.0011536004 -0.11451246 0.038407717 -0.046761323 -0.044346787 -0.02306151 -0.04408364
-0.045970865 0.011277 0.08793887 -0.038294315 -0.121942855 0.030740533 -0.09789487 0.061725255
-0.056415845 -0.056271505 0.02542486 -0.06877818 0.05378286 -0.049170766 -0.1325778 0.049966715
-0.046646483 0.022947196 -0.0119974855 -0.08676574 -0.08148229 -0.07624029 0.0123188635 -0.14529541
0.0021101134 -0.062699914 0.06484419 -0.0989219 -0.10737914 -0.030079849 0.05111428 0.00274416
0.09977129 -0.00092859694 -0.012133189 -0.015857171 -0.0746994 -0.09221629 -0.066212595 -0.023621414
-0.0022830178 -0.07896792 -0.0116334995 -0.020742161 -0.06792047 -0.0692815 -0.33120015 0.006391547
-0.024341356 -0.0691136 -0.048875395 -0.03194062 -0.1238139 0.016983757 -0.016274503 -0.00052298786
-0.050168853 -0.19521488 -0.12554239 -0.2103091 -0.102452636 -0.11638827 0.011941149 -0.052928083
00000000: 9b17 7bbe fd80 7bbd a3ab bdbd 1e0e 6cbc
00000010: aafd 15bc 7fbf 11be 9c26 a9bc 0b14 fcbc
00000020: 0f03 96be 7747 93bd c114 fdbd 1427 04bd
00000030: 376a 4a3c 3671 333b 9c89 83bd b32f 22be
00000040: 60bc 57bd ce75 5bbc cb6b 04be 6976 f63c
00000050: bbc1 66bd e859 bfbd 886b e4bc e56e a1bd
00000060: 98a2 2fbd 1d0a e1bd a23b 4bbd e9cb 8dbd
00000070: 3815 41bd 4c2a e8bd 7387 02be 4ac6 94bb
00000080: b4a3 aabd ce2e 97bd 4da8 dabc bca0 54bc
00000090: 59f8 8339 c72e e0bd 5a2d 0b3d d709 82bb
000000a0: 7976 673d 1413 aabd 88a3 783b a34e bdbd
000000b0: 829c 60bd 0aa5 23bd 9c06 ddbd 782e ad3b
000000c0: 6e13 a1bd 6ca8 1f3c 00ae c5bc c8d6 01be
000000d0: 0fc5 dc3b 7052 733d cfbf 12bc 02c1 50bd
000000e0: f69b 5f3d 4ec0 a23d a59d ecbd a429 2d3d
000000f0: d36f b83c a346 09bc 19f9 93ba 6a97 c5bd
00000100: 853c d3bb 4a1a b8bd d1a0 8ebd 208d 8ebd
00000110: d2d8 90bd d11c bf3d 6c9f e2bd a703 03be
00000120: 5969 2d3d 7dbc f03b 1981 e0bc f409 16bd
00000130: 896f 5cbd 0ddb 093d d7c1 ea3d 0098 7bbd
00000140: fe05 3c3d d7e7 dabd 61dc ae3d 1a7d b63d
00000150: 275e 3e3d f7db 6c3c db0e 00bd 83a2 963c
00000160: d33f 23bc 2eb9 7b3c 2bdd 8abd 33f0 e5bc
00000170: a4ca f8bc 2362 3f3d 0966 9fbd 74fb b0bd
00000180: decb debc 422b 1dba d194 15be 1956 ca3d
00000190: e2d8 bebc f992 e9bc 4342 91bd a22e 40bc
000001a0: d201 28bd 226c b8bc 1211 96bc c8a6 a8bd
000001b0: 4a33 4bbd 7b50 aebd e888 203d 895d dd3d
000001c0: 8897 60bd b119 60bc 515a f4bd 3282 7abd
000001d0: fcc3 b5bd 1dc9 85bc 7274 9fbc 51ec 0dbe
000001e0: 5724 dfbd 0cdc 673d 1a4a 36bd 158e b63c
000001f0: abf1 a3bd 590e 34bd 14d0 a4bd 2ffa 943d
00000200: 49f8 f6bd b8b2 ea3c 6b89 4fbd 3f72 003a
00000210: 5dd5 4e3c 2b75 a7bd b8b5 7fbd 5aa8 4fbd
00000220: 4908 84bd 8058 1ebe 2dc8 72bc 0130 ac3c
00000230: 2d3f dbbc 88b0 48bd 76c1 17be 46cc fbbc
00000240: 3660 53bd 02a7 93bc 7aed 5bbc 174d bbbd
00000250: d23a 8dbc 1ce0 233d 21d9 c83d ef36 9b3c
00000260: 2a0b bebb 9d94 963b d104 243c 8940 e3bd
00000270: f8c4 033d de9f 993c 1c8f 98bd 5426 ed3b
00000280: 2369 f3bd c170 323c adc0 b8bd c51d b6bd
00000290: ccbc 2cbd 4747 94bd 989b 3f3c ac2e 173d
000002a0: 7158 88bd b7d2 3bbd aa81 25bd 738c 063b
000002b0: ffa5 6cbd 2a02 94bd 4c9e babc 57fb 87bd
000002c0: 6d91 bbbb 6554 573c c76f d2bd 9c08 24bd
000002d0: 8788 4c3d 6c2f debc 87b5 96bc 53e7 c4bd
000002e0: 2ac6 42bc 6834 973a 8285 eabd 6951 1d3d
000002f0: cd88 3fbd faa4 35bd 7eeb bcbc 0c91 34bd
00000300: f24b 3cbd 2bc3 383c 4b19 b43d 80da 1cbd
00000310: 2dbd f9bd 92d3 fb3c 1b7d c8bd 9fd3 7c3d
00000320: 4d14 67bd f37c 66bd cc47 d03c 93db 8cbd
00000330: 6b4b 5c3d 4967 49bd 7ac2 07be e6a9 4c3d
00000340: 6210 3fbd c2fb bb3c 1a91 44bc 3cb2 b1bd
00000350: 30e0 a6bd df23 9cbd 0fd5 493c 52c8 14be
00000360: d449 0a3b d068 80bd 08cd 843d 9197 cabd
00000370: 98e9 dbbd 046a f6bc 355d 513d 5dd7 333b
00000380: e454 cc3d 166d 73ba 48ca 46bc e6e6 81bc
00000390: 00fc 98bd e5db bcbd 789a 87bd b281 c1bc
000003a0: af9e 15bb efb9 a1bd 6f9a 3ebc 77eb a9bc
000003b0: e319 8bbd 76e3 8dbd 1193 a9be 2f70 d13b
000003c0: 8667 c7bc 6e8b 8dbd 9131 48bd 2bd4 02bd
000003d0: 2492 fdbd 8521 8b3c 1b52 85bc 1f19 09ba
000003e0: db7d 4dbd 69e6 47be 2f8e 00be 455b 57be
000003f0: b0d2 d1bd f95c eebd cfa4 433c 1ecb 58bd

bias f4 [128]
0.013261064 -0.095128514 0.085686214 -0.0053589325 -0.023795111 0.1434025 0.044645697 -0.011842034
0.011551365 -0.13235508 -0.05840957 -0.016525287 0.04587722 -0.07014247 -0.07828657 -0.026638763
0.015579689 -0.014929225 -0.035820656 -0.03259581 -0.042383734 0.040636882 -0.07530059 -0.08759433
0.023192462 -0.06820668 -0.027482443 -0.11139977 -0.06287691 -0.021267958 -0.16331936 0.0014400952
-0.0037364264 -0.082499154 -0.037611715 -0.04175004 -0.025412677 -0.04745648 0.08765947 -0.061498012
-0.037295654 -0.060314167 -0.13847919 -0.08122906 0.0057370495 -0.1261367 0.056409266 -0.023666486
-0.13903019 -0.10677235 -0.026749551 0.071735494 -0.07499949 0.048910283 -0.0051044114 -0.016259355
0.016243717 -0.05529329 -0.058896862 0.13925974 -0.009462442 0.01724722 -0.10089987 0.05978482
0.050223175 0.03134382 -0.05052767 0.031747527 -0.058036964 -0.14405525 -0.120657325 0.092592984
-0.01500923 -0.013328854 0.037932996 0.10503651 -0.119539954 -0.032888424 0.004183445 0.059289083
-0.05600623 -0.101573706 -0.017716147 -0.06299595 -0.018444072 -0.055445645 0.012590895 -0.12717116
0.06661213 -0.053560954 0.028863203 -0.0099118715 0.016177405 0.028531656 -0.15936925 -0.09348537
0.05671101 -0.024957206 -0.007540677 0.045939278 -0.001179101 0.09815349 0.0751434 0.014257688
0.043191057 0.046252627 -0.013438995 -0.013089336 0.023464318 0.048826925 -0.06359951 -0.018905878
0.07874574 0.07125065 0.09428032 0.073613994 -0.098791726 -0.007012688 0.031126058 -0.04593052
0.08328001 -0.040531963 0.094876304 -0.06410271 -0.17846318 0.029426308 0.057348557 0.0687053
00000000: ef44 593c bdd2 c2bd 417c af3d fc99 afbb
00000010: f7ed c2bc 1bd8 123e 68de 363d 1705 42bc
00000020: f041 3d3c 1788 07be e03e 6fbd 0a60 87bc
00000030: c0e9 3b3d dba6 8fbd b654 a0bd 8939 dabc
00000040: f441 7f3c b599 74bc aeb8 12bd 2f83 05bd
00000050: 919a 2dbd dc72 263d 3237 9abd a864 b3bd
00000060: 1efe bd3c f2af 8bbd dc22 e1bc 9025 e4bd
00000070: 9cc5 80bd 243a aebc 313d 27be 94c1 bc3a
00000080: d5de 74bb 51f5 a8bd be0e 1abd 1702 2bbd
00000090: 3f2e d0bc ba61 42bd cf86 b33d 57e5 7bbd
000000a0: 54c3 18bd fd0b 77bd 7dcd 0dbe 6c5b a6bd
000000b0: dcfd bb3b fb29 01be 670d 673d 38e0 c1bc
000000c0: ee5d 0ebe 76ab dabd e021 dbbc 0fea 923d
000000d0: 5599 99bd 2656 483d e842 a7bb 5732 85bc
000000e0: 8b11 853c 387b 62bd d63d 71bd 1b9a 0e3e
000000f0: 5c08 1bbc 0b4a 8d3c 97a4 cebd ede0 743d
00000100: d1b6 4d3d 6162 003d 1af6 4ebd b209 023d
00000110: 2bb8 6dbd 3883 13be 301b f7bd 64a1 bd3d
00000120: 46e9 75bc 4461 5abc a15f 1b3d 621d d73d
00000130: 5dd1 f4bd 03b6 06bd 4815 893b 1cd9 723d
00000140: ca66 65bd e005 d0bd 7421 91bc 0504 81bd
00000150: 0618 97bc f91a 63bd 0b4a 4e3c 2839 02be
00000160: f16b 883d bb62 5bbd 8672 ec3c 6765 22bc
00000170: 7a86 843c 38bb e93c b131 23be 4275 bfbd
00000180: ce49 683d 0e73 ccbc c917 f7bb d32a 3c3d
00000190: 108c 9aba b204 c93d c8e4 993d 1499 693c
000001a0: 1be9 303d 6573 3d3d 3b2f 5cbc a874 56bc
000001b0: 3e38 c03c befe 473d 7640 82bd 80e0 9abc
000001c0: 7245 a13d dceb 913d 0a16 c13d efc2 963d
000001d0: 5153 cabd b1ca e5bb 13fc fe3c a421 3cbd
000001e0: b68e aa3d d804 26bd 824e c23d 4848 83bd
000001f0: 0dbf 36be 710f f13c 52e6 6a3d 5db5 8c3d
