result/gan_40_model_21.pt (torch, 934120 bytes, 9 tensors)

weight f4 [128, 13]
-0.22577444 0.21020378 0.25277853 -0.28146318 -0.44914535 0.10370105 -0.055902187 -0.20090498
0.020217188 -0.214994 -0.022720758 -0.027561823 -0.10740231 -0.08233772 -0.041396335 0.054582436
-0.06394042 -0.25810334 -0.070956714 -0.12723371 -0.23450832 0.13223761 0.26490378 -0.30760056
0.019514745 -0.36880055 0.01410122 -0.10001269 0.08256541 -0.07801604 -0.18955873 -0.16457888
-0.028400615 0.49791858 0.27914593 0.16145049 0.039393593 0.17794837 -0.41616866 -0.20345172
-0.3119731 0.14779803 -0.42126843 -0.23537579 0.20988604 0.0031426938 -0.10918638 0.26420042
0.25159046 -0.10061798 -0.106219046 0.03370658 0.06326126 -0.18874717 -0.47769102 0.0007595374
0.044877466 0.2754881 0.22628285 0.20837817 0.15560992 0.076123096 -0.2479326 -0.16252789
0.2093509 -0.18706238 -0.32061887 0.13900039 -0.3587206 -0.25966176 -0.15836945 -0.05372213
-0.3502989 -0.31855646 -0.39601794 -0.14200053 -0.21815842 -0.046251494 0.06458442 -0.0050736647
0.19938093 -0.20477435 0.12667844 -0.15594807 0.05355427 0.07031238 -0.21526428 0.015053362
0.08450324 0.005482321 -0.26012623 -0.13370585 -0.07523062 -0.35358182 -0.13091587 0.04916691
0.01887809 0.07490684 -0.12806462 0.17936423 0.14385499 -0.16582368 0.09525231 -0.026908195
0.015777884 -0.20536508 0.23030092 -0.033231433 -0.073829375 0.21161158 -0.0885506 0.03958867
0.13207169 0.25386757 -0.41577035 -0.037493866 -0.064282395 0.2563727 -0.039638344 -0.2546484
0.07725622 -0.043706592 -0.011986532 -0.067303754 0.03981472 -0.114866525 -0.23860909 0.50189656
-0.18026772 -0.28232142 -0.23690039 -0.24485607 -0.21127473 -0.25108913 0.19921227 0.011743327
0.24566472 0.08405379 -0.24217507 0.34337705 -0.25394732 0.033419836 -0.2456601 -0.34084535
0.26935202 0.11542668 0.10915405 -0.09532618 0.09530625 -0.10290638 0.23363604 0.33299476
-0.09795827 0.27641302 0.006135444 0.37606618 -0.019271163 0.2988665 0.3903791 -0.050355624
0.13726665 -0.124148265 -0.08387482 -0.049086973 0.20933495 -0.32397303 0.2927181 -0.03316443
-0.0009954997 -0.13096152 -0.23727912 -0.23637131 0.111265354 0.15806012 -0.054160226 0.216474
-0.1925091 -0.062362652 -0.20477279 0.37225434 0.038619306 0.17621766 -0.33777127 -0.23207785
-0.10525056 -0.006819628 -0.07792902 -0.12549849 -0.10427301 -0.22661553 0.19378285 -0.022272848
-0.11058673 0.007845111 0.37911418 -0.32814205 -0.20108113 -0.13704157 0.33730856 -0.14028059
0.26377445 -0.21217333 -0.12424385 -0.30083153 0.3832462 -0.1590417 -0.09585632 0.023559622
0.13088326 0.059946876 0.27236947 -0.02667547 -0.5875393 0.12119722 -0.13090537 0.1843847
0.30494556 0.030215574 -0.30660185 -0.026788568 0.01671525 -0.18246175 0.28025615 0.016823692
-0.29886162 -0.34441695 0.06282339 -0.064634986 -0.2609824 -0.19021796 0.15157263 0.34659493
0.106015526 -0.028574811 0.27839673 0.38522995 0.22865696 0.27366522 -0.077827 0.24896272
0.11497764 0.31713453 0.08728924 -0.0063992115 0.099717446 0.105673596 -0.1624287 0.12535429
-0.090439126 -0.17138855 0.38592586 -0.103078365 -0.023750156 -0.2005673 0.038853664 0.15676433
00000000: 6a31 67be a93f 573e 306c 813e f11b 90be
00000010: 61f6 e5be 3761 d43d b1f9 64bd 09ba 4dbe
00000020: 849e a53c 6327 5cbe e220 babc 55c9 e1bc
00000030: bef5 dbbd aea0 a8bd 348f 29bd d591 5f3d
00000040: 32f3 82bd 1f26 84be c151 91bd 8e49 02be
00000050: f322 70be 4c69 073e 78a1 873e d27d 9dbe
00000060: 63dd 9f3c 6dd3 bcbe ce08 673c 74d3 ccbd
00000070: 0e18 a93d e0c6 9fbd af1b 42be 5e87 28be
00000080: 68a8 e8bc 2fef fe3e 37ec 8e3e 4753 253e
00000090: 2d5b 213d 1938 363e 0f14 d5be a655 50be
000000a0: f0ba 9fbe 5e58 173e 7fb0 d7be 5a06 71be
000000b0: 5eec 563e a7f5 4d3b 1c9d dfbd 4745 873e
000000c0: 77d0 803e cd10 cebd 5f89 d9bd e90f 0a3d
000000d0: 1f8f 813d f046 41be eb93 f4be b11b 473a
000000e0: 6fd1 373d c70c 8d3e b1b6 673e 1661 553e
000000f0: 3558 1f3e 6de6 9b3d 0be2 7dbe b66d 26be
00000100: 1560 563e 488d 3fbe 2828 a4be 1e56 0e3e
00000110: 3aaa b7be 63f2 84be 9a2b 22be bc0b 5cbd
00000120: 615a b3be d519 a3be ddc2 cabe 9668 11be
00000130: ec64 5fbe 3572 3dbd d644 843d fc40 a6bb
00000140: 842a 4c3e 5eb0 51be feb7 013e dab0 1fbe
00000150: b95b 5b3d f0ff 8f3d 3d6e 5cbe 60a2 763c
00000160: 0910 ad3d 0ba5 b33b 442f 85be 30ea 08be
00000170: 8312 9abd ad08 b5be cf0e 06be 3e63 493d
00000180: 39a6 9a3c c268 993d 5f23 03be 42ab 373e
00000190: b94e 133e afcd 29be a513 c33d 936e dcbc
000001a0: 9f40 813c 394b 52be 01d4 6b3e af1d 08bd
000001b0: db33 97bd b5b0 583e 045a b5bd bb27 223d
000001c0: cd3d 073e eefa 813e dadf d4be 2b93 19bd
000001d0: 7da6 83bd 4843 833e d15b 22bd 4661 82be
000001e0: 8238 9e3d af05 33bd 2963 44bc 8dd6 89bd
000001f0: c314 233d 243f ebbd f155 74be 4b7c 003f
00000200: 1a98 38be 6f8c 90be 0496 72be 8dbb 7abe
00000210: 6758 58be c18e 80be 4dfe 4b3e 1567 403c
00000220: 888f 7b3e 6524 ac3d befc 77be 1ecf af3e
00000230: 6205 82be 3de3 083d 528e 7bbe 4883 aebe
00000240: 82e8 893e d364 ec3d 298c df3d 5f3a c3bd
00000250: ec2f c33d 95c0 d2bd 493e 6f3e 4a7e aa3e
00000260: 589e c8bd 0286 8d3e d60b c93b bf8b c03e
00000270: 8fde 9dbc 0805 993e c5df c73e b341 4ebd
00000280: a18f 0c3e 7241 febd 90c6 abbd 6c0f 49bd
00000290: e75b 563e cbdf a5be 26df 953e 6dd7 07bd
000002a0: 6d7b 82ba c71a 06be 4cf9 72be 520b 72be
000002b0: 17df e33d 83da 213e 1dd7 5dbd 5cab 5d3e
000002c0: 1b21 45be fb6f 7fbd f5af 51be 1f98 be3e
000002d0: 472f 1e3d 6772 343e 5bf0 acbe d1a5 6dbe
000002e0: 9b8d d7bd 3077 dfbb 4099 9fbd ad82 00be
000002f0: 168d d5bd e70d 68be 036f 463e 8c75 b6bc
00000300: 4c7b e2bd c888 003c 411b c23e 3c02 a8be
00000310: 36e8 4dbe a054 0cbe b5b3 ac3e b7a5 0fbe
00000320: 720d 873e f743 59be 8f73 febd 9706 9abe
00000330: d938 c43e d4db 22be 5150 c4bd 1c00 c13c
00000340: 4306 063e db8a 753d 0374 8b3e 8486 dabc
00000350: fa68 16bf 4036 f83d 0f0c 06be 58cf 3c3e
00000360: d321 9c3e a786 f73c ebfa 9cbe b373 dbbc
00000370: 6cee 883c 41d7 3abe bc7d 8f3e d7d1 893c
00000380: 6404 99be 6b57 b0be 8da9 803d 595f 84bd
00000390: 7c9f 85be 7fc8 42be db35 1b3e e474 b13e
000003a0: ab1e d93d b915 eabc 048a 8e3e dc3c c53e
000003b0: 0d25 6a3e d91d 8c3e c363 9fbd 15f0 7e3e
000003c0: 6679 eb3d 755f a23e b3c4 b23d 7ab0 d1bb
000003d0: a938 cc3d 666b d83d b653 26be e05c 003e
000003e0: 2638 b9bd 7b80 2fbe 1398 c53e c01a d3bd
000003f0: b08f c2bc 8461 4dbe 0525 1f3d d486 203e

bias f4 [128]
0.34337288 0.28219286 0.1583418 -0.0112415645 -0.18014985 -0.02214393 0.134292 0.0028662302
0.1913315 -0.29412872 -0.21066889 0.07454577 -0.06712793 0.19121733 -0.078434795 0.15167129
0.096606724 -0.0076433024 -0.2925654 0.05388048 0.113113336 -0.30500284 0.08257571 -0.32943675
-0.36577386 0.06407854 0.13411762 -0.023637395 -0.20786828 -0.00040348643 -0.0520727 -0.0893398
-0.10345432 -0.25959152 -0.28551504 0.11103253 -0.22209089 0.031117652 -0.13551101 0.033323076
0.124658674 -0.07414967 0.050979145 0.31076697 0.1462248 0.022188852 0.066401124 0.07112513
-0.113774866 0.28631836 0.25282192 0.2459002 0.24591035 -0.14562193 0.20676914 0.14643468
-0.16032177 -0.26107353 0.02882741 0.2373742 0.17813766 -0.08016562 -0.29472145 0.28649944
0.10132858 0.022567414 0.13774516 0.017210327 0.3593296 0.007641892 0.06759934 -0.11733089
0.054468397 0.07680834 -0.10912602 -0.013003893 -0.12453685 0.14112987 0.1930584 -0.25816074
-0.13414915 -0.19233938 0.07647625 -0.20982507 -0.10213294 -0.32633018 -0.1390344 -0.27879238
0.14333187 0.10030151 0.037490774 -0.30517176 -0.1105636 -0.27807593 -0.19773208 0.082208395
0.15767708 0.114621736 -0.023654558 0.26239446 0.19070539 0.020422878 0.18603657 -0.30385005
0.19241765 -0.052051116 0.09526697 -0.07707182 -0.27779648 0.06661994 -0.23119849 0.12596068
-0.17293625 0.16975653 -0.19703132 -0.04362283 -0.16889882 0.17613171 -0.1755773 0.23179705
0.116072424 0.001187356 -0.264419 0.012021692 -0.0960701 0.21577196 0.1538235 -0.15597932
00000000: 92ce af3e 957b 903e 5a24 223e 8a2e 38bc
00000010: 3479 38be 3067 b5bc d883 093e 5dd7 3b3b
00000020: 68ec 433e 0a98 96be 96b9 57be 74ab 983d
00000030: 5e7a 89bd 7ace 433e 6ca2 a0bd b84f 1b3e
00000040: bfd9 c53d ab74 fabb 22cb 95be c7b1 5c3d
00000050: f7a7 e73d 5529 9cbe 741d a93d efab a8be
00000060: b646 bbbe 9c3b 833d 2156 093e 36a3 c1bc
00000070: 6cdb 54be 088b d3b9 2f4a 55bd c9f7 b6bd
00000080: dcdf d3bd 2ee9 84be 072f 92be 0665 e33d
00000090: cb6b 63be 72ea fe3c 66c3 0abe c77d 083d
000000a0: 0c4d ff3d c8db 97bd 82cf 503d d91c 9f3e
000000b0: f4bb 153e 65c5 b53c 50fd 873d 0daa 913d
000000c0: cc02 e9bd 5298 923e e071 813e 43cd 7b3e
000000d0: eccf 7b3e ea1d 15be 4abb 533e f9f2 153e
000000e0: 642b 24be 6eab 85be 7627 ec3c 3912 733e
000000f0: b869 363e df2d a4bd bbe5 96be 0eb0 923e
00000100: 5c85 cf3d 4cdf b83c 110d 0d3e acfc 8c3c
00000110: 0dfa b73e d668 fa3b 8671 8a3d 2d4b f0bd
00000120: 411a 5f3d b14d 9d3d 767d dfbd 480e 55bc
00000130: 2d0d ffbd 5984 103e 1ab1 453e a52d 84be
00000140: 655e 09be 9df4 44be 959f 9c3d 62dc 56be
00000150: 132b d1bd c014 a7be 095f 0ebe e0bd 8ebe
00000160: 97c5 123e e16a cd3d ed8f 193d 793f 9cbe
00000170: 2b6f e2bd f85f 8ebe 477a 4abe e05c a83d
00000180: 1a76 213e cdbe ea3d 34c7 c1bc 9158 863e
00000190: 4648 433e e14d a73c 5f80 3e3e 3c92 9bbe
000001a0: 2209 453e 8d33 55bd 541b c33d d5d7 9dbd
000001b0: 573b 8ebe 0970 883d 4cbf 6cbe d6fb 003e
000001c0: 3316 31be a8d4 2d3e 94c2 49be daad 32bd
000001d0: d0f3 2cbe df5b 343e 89ca 33be 355c 6d3e
000001e0: 61b7 ed3d 0ea1 9b3a ed61 87be a1f6 443c
000001f0: 67c0 c4bd 53f3 5c3e e883 1d3e 0bb9 1fbe

weight f4 [256, 128]
0.080817156 0.0385583 0.011782082 0.02120619 -0.10837368 -0.04589528 0.12820671 -0.032202404
0.076091774 -0.009855036 -0.055038217 0.015114525 0.099943034 -0.0029787966 -0.12909235 0.03674465
0.0861637 0.041657917 -0.026812574 -0.04787702 -0.07256606 -0.027978618 0.053117108 -0.09647049
-0.16265507 0.10304058 -0.069479175 0.053611003 -0.065138936 -0.009911337 0.059604265 -0.09415293
0.12573847 0.07159221 0.0036064591 0.059373196 -0.06553829 -0.056590408 0.018134791 -0.07204381
0.0045220726 -0.099676125 -0.067864396 -0.021212844 -0.03742675 0.019760592 -0.0930209 -0.047708496
-0.022721972 0.028900823 -0.035734892 0.04936193 0.046805263 -0.05391398 -0.051160086 0.05036408
-0.068947874 -0.08065935 -0.0853966 -0.022453684 -0.10073439 -0.055448122 -0.067353375 -0.023859743
0.064286485 0.09153533 -0.087693796 -0.023577383 0.13678609 -0.010336373 0.0035807993 -0.050988637
0.020315016 0.020553548 -0.14653672 0.03743066 -0.06372192 -0.035621032 0.057674047 -0.1474722
0.044261873 -0.03611375 0.031543855 0.0057442994 0.039706003 0.013752084 -0.049629826 0.05067726
0.01755455 0.15429492 -0.064144105 -0.0107389465 -0.0030908727 -0.0819922 0.14502032 0.04177743
0.050358806 0.028287606 -0.08420692 0.07706399 0.09696844 0.05812316 0.095426284 -0.0002828764
-0.044476017 0.031798135 -0.067795396 0.047872376 -0.09598231 -0.048429385 0.016211696 -0.029458877
-0.044142444 -0.051084965 0.03570699 0.079868004 -0.091982044 -0.037621062 0.057041723 0.10553945
0.020869106 0.08432838 0.038969282 -0.078431785 -0.05429318 0.013751304 -0.01375342 0.03000331
-0.11811743 -0.009233508 -0.03516639 0.061772496 -0.09649673 -0.08875414 -0.11957463 0.031970035
0.074560456 -0.05853391 0.08866036 0.039143942 -0.13175371 -4.1996573e-05 0.07336247 0.0884151
-0.099135526 0.0023919386 -0.06465454 -0.1158737 0.022492018 0.045922365 -0.034772746 0.02323314
0.08308482 -0.08440172 -0.052894168 -0.065537885 -0.024539523 -0.07998752 -0.010364199 -0.048243597
-0.033756997 0.14538342 -0.009492427 -0.06489816 0.17159653 0.014463015 0.06388035 -0.11986804
0.1207472 -0.09938813 -0.038963865 0.079624064 -0.061839454 -0.18795963 -0.023915097 -0.04071007
0.013517151 -0.009260795 0.011607764 0.035316512 0.043226227 -0.12547666 -0.04700298 -0.01787693
-0.020807365 -0.042961277 0.035850786 0.077494144 -0.026184049 -0.082681306 -0.081572495 0.005823187
-0.049680214 -0.03798731 -0.0058949734 0.061913934 0.05246686 0.035521045 -0.113343455 -0.02175353
0.04058902 -0.13608696 -0.00048400616 -0.06532783 0.046017136 -0.085027 0.011321445 0.016509274
0.0028489744 -0.1114232 0.026957624 0.094222344 -0.013127644 -0.013093723 -0.037120216 0.013921976
-0.011847464 0.0032529037 -0.047129832 0.0497892 0.0059022345 0.04250092 -0.06686442 0.07747274
0.0012391125 -0.0526202 -0.016378477 0.10615025 0.031337503 -0.044023942 -0.011979025 -0.0019650045
-0.12642455 0.053406317 -0.08632297 -0.022842214 -0.03721316 0.02576701 0.060255148 0.0038808072
0.04465336 0.030075086 -0.07662242 -0.04052164 0.101983465 -0.086051665 -0.07320175 -0.08642687
0.045858625 0.011859922 0.09224213 0.008773798 -0.02756403 0.025134353 -0.06991992 0.05113298
00000000: 7783 a53d 4fef 1d3d a209 413c 9bb8 ad3c
00000010: 05f3 ddbd b0fc 3bbd 9f48 033e abe6 03bd
00000020: 01d6 9b3d 0477 21bc c16f 61bd eaa2 773c
00000030: efae cc3d ea37 43bb c930 04be 8f81 163d
00000040: 9876 b03d 7ea1 2a3d 0ba6 dbbc b21a 44bd
00000050: 849d 94bd 6a33 e5bc 5391 593d 5292 c5bd
00000060: 0d8f 26be f106 d33d 194b 8ebd 3697 5b3d
00000070: 9067 85bd 2963 22bc 9a23 743d 40d3 c0bd
00000080: 96c1 003e f09e 923d 585a 6c3b 4f31 733d
00000090: f038 86bd 58cb 67bd 6a8f 943c b48b 93bd
000000a0: e52d 943b ff22 ccbd 7dfc 8abd 8fc6 adbc
000000b0: cb4c 19bd f7e0 a13c be81 bebd fc69 43bd
000000c0: 6e23 babc 6bc1 ec3c c05e 12bd bc2f 4a3d
000000d0: e0b6 3f3d e8d4 5cbd 3d8d 51bd 914a 4e3d
000000e0: 8b34 8dbd bb30 a5bd 6ae4 aebd caf0 b7bc
000000f0: d54d cebd 921d 63bd 91f0 89bd 8275 c3bc
00000100: a2a8 833d e076 bb3d ce98 b3bd 5b25 c1bc
00000110: a711 0c3e e459 29bc d8ab 6a3b 76d9 50bd
00000120: ad6b a63c ea5f a83c b90d 16be e450 193d
00000130: a380 82bd 5ce7 11bd 9f3b 6c3d f402 17be
00000140: f04b 353d 03ec 13bd 2134 013d ad3a bc3b
00000150: c3a2 223d 6c50 613c a548 4bbd f592 4f3d
00000160: 8fce 8f3c 7dff 1d3e fc5d 83bd 68f2 2fbc
00000170: 3d90 4abb 87eb a7bd 3580 143e cf1e 2b3d
00000180: 0945 4e3d 69bb e73c ad74 acbd bad3 9d3d
00000190: 6497 c63d 8d12 6e3d db6e c33d 074f 94b9
000001a0: 7c2c 36bd c33e 023d 50d8 8abd d315 443d
000001b0: 6092 c4bd e45d 46bd 64ce 843c be53 f1bc
000001c0: b5ce 34bd 783e 51bd 7e41 123d d691 a33d
000001d0: 1561 bcbd 8b18 1abd 95a4 693d 1125 d83d
000001e0: b0f5 aa3c 5cb4 ac3d 419e 1f3d d8a0 a0bd
000001f0: 8762 5ebd 264d 613c 0656 61bc 80c9 f53c
00000200: 8de7 f1bd 2448 17bc a20a 10bd 2805 7d3d
00000210: 14a0 c5bd bbc4 b5bd 8be3 f4bd 03f3 023d
00000220: 27b3 983d 41c1 6fbd 9093 b53d 6655 203d
00000230: 72ea 06be 7a25 30b8 103f 963d fa12 b53d
00000240: 9107 cbbd 12c2 1c3b 9969 84bd 314f edbd
00000250: 2e41 b83c 1719 3c3d de6d 0ebd 6d53 be3c
00000260: 6028 aa3d cfda acbd 8ea7 58bd ba38 86bd
00000270: 1c07 c9bc 7fd0 a3bd 9ace 29bc 149b 45bd
00000280: c744 0abd 64df 143e 2086 1bbc 54e9 84bd
00000290: 00b7 2f3e 48f6 6c3c b3d3 823d 607d f5bd
000002a0: 4f4a f73d 018c cbbd 9398 1fbd f111 a33d
000002b0: 5e4b 7dbd 7d78 40be 98e9 c3bc 9abf 26bd
000002c0: 0a77 5d3c 97ba 17bc 7e2e 3e3c 0ca8 103d
000002d0: fc0d 313d f47c 00be 3286 40bd a472 92bc
000002e0: 3574 aabc 2af8 2fbd 46d8 123d 40b5 9e3d
000002f0: ee7f d6bc d154 a9bd 7b0f a7bd 6fd0 be3b
00000300: 7b7d 4bbd 9598 1bbd 9f2a c1bb 7799 7d3d
00000310: 7de7 563d 847e 113d 9d20 e8bd 7534 b2bc
00000320: ac40 263d 615a 0bbe 35c2 fdb9 99ca 85bd
00000330: 777c 3c3d a322 aebd 957d 393c 753e 873c
00000340: dcb5 3a3b d931 e4bd 3cd6 dc3c a5f7 c03d
00000350: 5415 57bc 0e87 56bc 5e0b 18bd 0019 643c
00000360: de1b 42bc ab2e 553b 360b 41bd c3ef 4b3d
00000370: 8867 c13b 7215 2e3d 37f0 88bd 07aa 9e3d
00000380: b769 a23a 4788 57bd 282c 86bc 4d65 d93d
00000390: c15b 003d 7352 34bd ac43 44bc 4ec7 00bb
000003a0: 7075 01be 95c0 5a3d 19ca b0bd 981f bbbc
000003b0: d46c 18bd 5615 d33c 1ace 763d 2455 7e3b
000003c0: 71e6 363d 0760 f63c 37ec 9cbd 05fa 25bd
000003d0: b5dc d03d db3b b0bd cdea 95bd 9200 b1bd
000003e0: 41d6 3b3d 1e50 423c 71e9 bc3d fabf 0f3c
000003f0: f6cd e1bc 8fe6 cd3c 2d32 8fbd d170 513d

bias f4 [256]
-0.011908944 0.050825976 -0.010990836 0.026582701 -0.11269086 0.019470617 -0.027359989 0.07708637
0.03725519 -0.02392521 0.016945602 -0.07501297 -0.0066823703 -0.035582125 0.06724976 -0.06457142
-0.01142409 -0.0128393145 0.03645485 -0.09820303 -0.05599925 -0.016418947 -0.017630307 -0.062004916
-0.01852603 0.009746952 0.014837392 0.023040276 -0.04300191 0.038404852 -0.012927772 -0.11243474
-0.038763564 -0.0077953194 -0.012224623 0.004146852 0.06982206 0.105963044 -0.0791342 -0.042156935
0.039412085 -0.005637773 0.03462078 -0.003228675 -0.05060383 0.095057495 0.050263964 -0.0061842175
-0.02595589 0.080606416 0.0700497 -0.07372256 0.025436327 -0.089616455 -0.14450105 -0.10590023
0.05693573 0.000748673 -0.05081684 0.03311575 0.15929548 -0.024785696 0.008887167 -0.047264736
0.13395606 0.07158817 -0.04294315 -0.039778512 -0.028662309 0.010266544 -0.070548914 0.06666353
-0.08814102 -0.047077373 0.011016903 -0.03169574 0.037638094 0.11063731 -0.08278074 0.052202087
0.026309665 0.0016289067 -0.061427623 0.047213122 0.07275369 0.026709063 -0.029748956 7.416142e-05
-0.0860194 -0.13881667 0.015536546 0.015547973 -0.04346159 0.041655283 -0.010292951 0.005118436
0.08989862 -0.12565267 -0.062353563 -0.048102777 0.007858849 -0.041273076 0.06933662 -0.12811352
0.020378284 0.07499892 0.024135092 0.004765013 -0.044214714 0.05196724 -0.09441497 -0.05709067
-0.06406237 0.07088331 0.020678159 -0.001458608 0.06688114 -0.06763452 0.043137938 0.11145676
-0.03257833 -0.065329805 0.0044078724 0.014761684 -0.07132262 -0.08148854 -0.029649837 -0.0365914
-0.046131134 -0.10156855 -0.05749521 -0.028059082 0.035838436 -0.086677484 -0.055893056 -0.0612987
0.004437356 0.017469369 0.0031775073 -0.071790546 -0.13699092 -0.06175264 0.07696457 0.03235798
0.070073664 0.11844922 0.022572827 -0.059284035 0.00059039204 -0.0203168 0.035136238 -0.088896625
-0.060164973 -0.09475315 0.014263781 0.042420436 0.055114742 0.008694575 0.055614926 0.09973814
-0.059325643 0.028543446 -0.028605243 0.11726374 -0.075836346 -0.015970044 0.0034282363 -0.069245294
-0.0298381 0.022750432 0.017474288 0.009085369 -0.10282472 0.06645227 -0.024544805 -0.036791757
0.014618964 -0.030216696 -0.07279786 -0.041434463 0.033898044 -0.09500612 -0.080132425 0.0040804273
-0.0442402 -0.100648955 -0.0027418414 0.010307231 0.027038142 -0.09876936 -0.03777071 -0.008860667
-0.020015968 0.04557613 -0.07095129 0.06450785 0.113950424 -0.15590648 0.013631552 -0.04277323
-0.019583244 -0.12695591 -0.057895247 -0.030756837 -0.12222615 0.0469304 0.1473601 0.13109939
-0.018275455 -0.16315576 -0.07038933 0.04968293 -0.061372094 0.014742984 -0.08332687 -0.02348902
0.049002077 0.0933685 -0.0683909 0.0074841143 -0.031909864 -0.0035385357 -0.093033776 -0.041687667
0.044041693 0.0009862497 -0.016111143 -0.041437816 0.054904506 0.08997313 0.010305677 -0.061778385
0.038183745 -0.018595621 0.073253214 -0.027692841 -0.08254165 -0.093053356 -0.042966254 -0.09102352
-0.087461784 -0.00558687 0.029916823 0.003063973 0.028990796 0.10761925 -0.099612996 -0.055732872
-0.0393334 -0.122142166 0.10118138 -0.03842627 -0.032897905 0.10240311 0.08352632 -0.035766024
00000000: bb1d 43bc e62e 503d e812 34bc f7c3 d93c
00000010: 77ca e6bd d880 9f3c 0e22 e0bc 75df 9d3d
00000020: e698 183d cdfe c3bc 81d1 8a3c 66a0 99bd
00000030: c9f7 dabb 90be 11bd 3eba 893d 053e 84bd
00000040: 1b2c 3bbc fd5b 52bc ae51 153d ac1e c9bd
00000050: 785f 65bd 0781 86bc 6f6d 90bc def8 7dbd
00000060: e7c3 97bc aeb1 1f3c 8818 733c f6be bc3c
00000070: c522 30bd 684e 1d3d 01cf 53bc 2f44 e6bd
00000080: 8bc6 1ebd e16f ffbb c949 48bc 51e2 873b
00000090: defe 8e3d 2703 d93d 1d11 a2bd c0ac 2cbd
000000a0: 916e 213d 11bd b8bb 85ce 0d3d 2e98 53bb
000000b0: f645 4fbd 81ad c23d 96e1 4d3d faa4 cabb
000000c0: 72a1 d4bc fa14 a53d 3876 8f3d dbfb 96bd
000000d0: d85f d03c d588 b7bd 15f8 13be 38e2 d8bd
000000e0: 7135 693d 9842 443a 5225 50bd 61a4 073d
000000f0: 5b1e 233e 5f0b cbbc 7b9b 113c ab98 41bd
00000100: c72b 093e d29c 923d 28e5 2fbd cbee 22bd
00000110: 38cd eabc 0235 283c f37b 90bd e486 883d
00000120: 4783 b4bd 34d4 40bd 3e80 343c 64d3 01bd
00000130: 672a 1a3d d095 e23d f388 a9bd dbd1 553d
00000140: 5e87 d73c 0a81 d53a 889b 7bbd 8c62 413d
00000150: e3ff 943d f7cc da3c 15b4 f3bc 1c87 9b38
00000160: f02a b0bd f525 0ebe ff8c 7e3c edbc 7e3c
00000170: c804 32bd bb9e 2a3d c4a3 28bc 8eb8 a73b
00000180: c51c b83d 18ab 00be 7366 7fbd 6b07 45bd
00000190: 67c2 003c f50d 29bd 5c00 8e3d 3130 03be
000001a0: 5cf0 a63c 0999 993d f5b6 c53c d423 9c3b
000001b0: 7d1a 35bd 9adb 543d a35c c1bd e8d7 69bd
000001c0: 2233 83bd 452b 913d 3e65 a93c c32e bfba
000001d0: fbf8 883d f883 8abd 68b1 303d 7143 e43d
000001e0: db70 05bd a2cb 85bd ea6f 903b feda 713c
000001f0: 9811 92bd 77e3 a6bd 37e4 f2bc dde0 15bd
00000200: 00f4 3cbd 2c03 d0bd 1980 6bbd 29dc e5bc
00000210: 53cb 123d f783 b1bd 1ef0 64bd 5814 7bbd
00000220: 3d67 913b ec1b 8f3c ba3d 503b ec06 93bd
00000230: 5947 0cbe 56f0 7cbd 9a9f 9d3d cd89 043d
00000240: c882 8f3d 8195 f23d a6ea b83c d1d3 72bd
00000250: 8ac4 1a3a 6b6f a6bc 04eb 0f3d 6f0f b6bd
00000260: 8c6f 76bd f10d c2bd a2b2 693c 0dc1 2d3d
00000270: ffbf 613d b173 0e3c 7acc 633d 8343 cc3d
00000280: 72ff 72bd f2d3 e93c 8b55 eabc f927 f03d
00000290: 1650 9bbd 9cd3 82bc 43ac 603b 7ad0 8dbd
000002a0: 086f f4bc 1d5f ba3c 3d26 8f3c cdda 143c
000002b0: c495 d2bd 2118 883d 3012 c9bc f4b2 16bd
000002c0: 6184 6f3c 0189 f7bc 0b17 95bd 2fb7 29bd
000002d0: add8 0a3d 9292 c2bd 781c a4bd 1bb5 853b
000002e0: 3635 35bd 0a21 cebd 77b0 33bb a9df 283c
000002f0: 187f dd3c 9747 cabd 76b5 1abd 552c 11bc
00000300: 87f8 a3bc 09ae 3a3d e94e 91bd b11c 843d
00000310: d75e e93d f3a5 1fbe e056 5f3c fb32 2fbd
00000320: 0a6d a0bc bb00 02be 9123 6dbd c3f5 fbbc
00000330: b451 fabd 173a 403d 91e5 163e eb3e 063e
00000340: 68b6 95bc 4e12 27be 4828 90bd 5480 4b3d
00000350: 4e61 7bbd 8f8c 713c 47a7 aabd 0c6c c0bc
00000360: 67b6 483d fc37 bf3d 8710 8cbd 4d3d f53b
00000370: ebb3 02bd c7e6 67bb 7e88 bebd b0c0 2abd
00000380: 1065 343d 0c45 813a 84fb 83bc b3ba 29bd
00000390: 8ce3 603d d543 b83d 24d9 283c 550b 7dbd
000003a0: 8f66 1c3d d855 98bc c805 963d 19dc e2bc
000003b0: 990b a9bd c292 bebd 62fd 2fbd 8a6a babd
000003c0: 2a1f b3bd 1012 b7bb 2014 f53c f0cc 483b
000003d0: 1b7e ed3c 7b67 dc3d e601 ccbd 2748 64bd
000003e0: 0f1c 21bd ac25 fabd 2f38 cf3d dd64 1dbd
000003f0: f4bf 06bd b9b8 d13d d90f ab3d 657f 12bd

weight f4 [512, 256]
0.022023564 -0.052642595 0.04771067 0.030326607 -0.032421943 0.033158466 -0.05119808 0.02043425
0.013119681 -0.060106255 0.03755109 -0.0229163 -0.037810553 -0.05395992 -0.05224435 -0.04466056
-0.027915636 0.017474128 -0.037892323 -0.035795957 -0.072907165 -0.040680807 0.06616499 -0.10499533
0.048212428 -0.03340452 -0.023994245 0.06323304 0.031647675 0.011217964 0.01316416 0.04157248
0.032596286 -0.00042752264 -0.023350447 -0.006827758 -0.084019236 0.0011736196 0.026755804 -0.05361973
0.07246363 0.0049396046 -0.03624009 0.05157216 0.01648199 -0.031385165 0.04393424 -0.0417687
0.026372503 0.047917973 -0.037013937 -0.028309636 0.051543683 -0.045593463 0.0575666 0.019388437
0.011557091 -0.066174716 0.041022334 0.031096699 0.00080118835 -0.020240815 0.0062689837 0.026416901
-0.057447247 0.010139742 -0.024051195 0.069079645 0.036227006 0.0112833865 0.015881479 0.007302636
0.082341924 -0.025279382 0.0060020164 -0.025581293 -0.008490741 -0.034501962 0.06268083 -0.0045043817
-0.02700406 -0.021378055 -0.010428301 -0.0003955603 -0.010374568 0.015928315 0.04478821 -0.018975105
-0.04199802 0.04213803 0.03205931 0.030001637 0.07979908 0.07377385 0.035265557 0.038304336
0.053643517 0.005557567 -0.026662508 -0.054384667 -0.02762115 0.027777527 -0.0055745086 0.016193353
0.0013304533 -0.056719534 -0.044710744 0.049427595 0.04540292 -0.031635385 0.061258234 0.04900486
0.07289559 -0.020669246 0.03491557 -0.018476449 0.0355376 0.060088933 0.03361782 -0.045902275
-0.00078043115 -0.036472905 0.029425759 -0.05401343 0.015155922 0.0041844 0.04879369 0.014088111
0.06950013 -0.06396852 0.023367252 0.014569029 0.02015354 -0.025778634 0.0801698 0.053903557
0.04684574 -0.064509034 0.060557466 -0.023876578 0.072501935 -0.0037028457 -0.026461676 0.022560181
0.0067097503 -0.08849673 0.04004959 -0.0554239 0.03075047 0.023034299 -0.048894573 -0.047055
0.04572126 0.019458817 0.0076157013 -0.046138346 0.0028475716 0.00084881106 0.052166834 0.05945784
-0.04085794 -0.055051275 -0.023214359 -0.1029406 0.07231602 -0.018536162 -0.05562621 -0.013296387
0.06308548 0.030449955 -0.007977542 -0.029070424 -0.037097286 0.05734967 0.028036337 -0.070683554
0.028896144 0.03253583 -0.0045250957 -0.0529644 0.047262155 0.039581828 0.090107724 0.042676598
0.004593567 -0.05970484 0.01096999 0.03156463 0.015052191 0.055469524 0.02457313 0.064511664
0.015331611 0.029778343 0.027760277 -0.05898292 0.025872456 0.04004565 0.06503032 0.025098749
-0.018202852 0.06413381 -0.011401746 0.010102305 0.05138878 -0.0011500423 -0.055019487 -0.014731315
0.03141952 -0.012418725 -0.058542717 -0.048731852 0.020229971 0.0023260273 -0.03387574 -0.058711205
0.0048894873 -0.022624405 0.049725275 0.044252083 -0.013957019 -0.0522798 0.10070095 0.016825734
-0.06537494 -0.0042225234 0.054430544 0.04403086 0.016819818 -0.0015540868 -0.014571046 0.004396
-0.010801859 -0.013630674 -0.03259023 -0.033824805 -0.030482136 -0.03946627 0.010834673 -0.023731679
-0.009639441 -0.07562831 0.056668367 -0.03415994 -0.022307083 -0.019900879 0.04120161 0.040618513
-0.00859975 -0.034495935 -0.06087726 0.04078292 -0.004922601 -0.027207468 -0.025483098 0.01837903
00000000: c36a b43c c39f 57bd 436c 433d 816f f83c
00000010: dfcc 04bd 2cd1 073d 14b5 51bd ba65 a73c
00000020: eef3 563c fa31 76bd 2ccf 193d f7ba bbbc
00000030: 3ddf 1abd 1405 5dbd 2cfe 55bd feed 36bd
00000040: 55af e4bc e725 8f3c fb34 1bbd c89e 12bd
00000050: 5a50 95bd eba0 26bd 8381 873d cb07 d7bd
00000060: 657a 453d 2ed3 08bd 948f c4bc 5380 813d
00000070: fea0 013d 8dcb 373c 7dae 573c e847 2a3d
00000080: af83 053d 1e25 e0b9 7049 bfbc 63bb dfbb
00000090: 4712 acbd 24d4 993a fd2e db3c 5da0 5bbd
000000a0: d067 943d 68dc a13b 7d70 14bd 543d 533d
000000b0: 3d05 873c bb8d 00bd 64f4 333d a815 2bbd
000000c0: 260b d83c a345 443d ed9b 17bd 9ce9 e7bc
000000d0: 781f 533d 36c0 3abd f5ca 6b3d 80d4 9e3c
000000e0: f459 3d3c 9c86 87bd 0907 283d 81be fe3c
000000f0: d706 523a 11d0 a5bc 0c6c cd3b 4268 d83c
00000100: ce4d 6bbd 2921 263c 0307 c5bc a179 8d3d
00000110: c562 143d f4dd 383c e019 823c f34a ef3b
00000120: e2a2 a83d b516 cfbc 90ac c43b dc8f d1bc
00000130: c01c 0bbc ee51 0dbd cf5e 803d 7e99 93bb
00000140: 9e37 ddbc 0821 afbc 77db 2abc 3463 cfb9
00000150: 18fa 29bc 197c 823c d873 373d ae71 9bbc
00000160: 1e06 2cbd ed98 2c3d 9f50 033d fec5 f53c
00000170: b36d a33d bf16 973d 9e72 103d 02e5 1c3d
00000180: 4eb9 5b3d 401c b63b 556b dabc 75c2 5ebd
00000190: c045 e2bc b28d e33c 5eaa b6bb eca7 843c
000001a0: 9b62 ae3a be52 68bd 9d22 37bd 9774 4a3d
000001b0: 6af8 393d 1b94 01bd eae9 7a3d 52b9 483d
000001c0: 484a 953d 8d52 a9bc a103 0f3d ec5b 97bc
000001d0: e08f 113d d01f 763d d7b2 093d 0604 3cbd
000001e0: d995 4cba 9d64 15bd 4a0e f13c 303d 5dbd
000001f0: 8b50 783c 4b1d 893b e4db 473d d2d1 663c
00000200: 1656 8e3d ed01 83bd ae6c bf3c f0b2 6e3c
00000210: 0919 a53c b72d d3bc 1030 a43d fac9 5c3d
00000220: 52e1 3f3d 501d 84bd 1b0b 783d d098 c3bc
00000230: e57b 943d 71ab 72bb 28c6 d8bc 21d0 b83c
00000240: 77dd db3b c63d b5bd 0a0b 243d 2c04 63bd
00000250: 69e8 fb3c 6db2 bc3c ad45 48bd bebc 40bd
00000260: 3746 3b3d 1968 9f3c 228d f93b 90fb 3cbd
00000270: 539e 3a3b bf82 5e3a e4ac 553d 108a 733d
00000280: a85a 27bd 727d 61bd 0a2c bebc 85d2 d2bd
00000290: 6c1a 943d 26d9 97bc 4fd8 63bd 17d9 59bc
000002a0: f632 813d 2f72 f93c 3cb4 02bc 1925 eebc
000002b0: 53f3 17bd 7de7 6a3d 76ac e53c 8ac2 90bd
000002c0: 9bb7 ec3c 4a44 053d 4147 94bb 33f1 58bd
000002d0: f695 413d 8e20 223d 668a b83d a8cd 2e3d
000002e0: a285 963b 108d 74bd 79bb 333c ea49 013d
000002f0: 779d 763c 0334 633d 974d c93c b11e 843d
00000300: 7031 7b3c b6f1 f33c 8569 e33c 1398 71bd
00000310: 79f2 d33c e806 243d 9e2e 853d e49b cd3c
00000320: 261e 95bc 9658 833d 64ce 3abc 2384 253c
00000330: 0b7d 523d 04bd 96ba 1d5c 61bd 9d5b 71bc
00000340: c1b1 003d e877 4bbc 7dca 6fbd 0d9b 47bd
00000350: 53b9 a53c 4370 183b 4ac1 0abd 297b 70bd
00000360: fe37 a03b d156 b9bc bbac 4b3d ac41 353d
00000370: fbab 64bc 5823 56bd 4d3c ce3d 1fd6 893c
00000380: 4ce3 85bd 185d 8abb 90f2 5e3d b459 343d
00000390: b7c9 893c 80b2 cbba 66bb 6ebc 520c 903b
000003a0: 48fa 30bc 3153 5fbc 557d 05bd e18b 0abd
000003b0: acb5 f9bc 62a7 21bd ea83 313c f068 c2bc
000003c0: bfee 1dbc 04e3 9abd 171d 683d 4beb 0bbd
000003d0: 58bd b6bc 2b07 a3bc 05c3 283d 995f 263d
000003e0: f7e5 0cbc 9c4b 0dbd 6f5a 79bd fe0b 273d
000003f0: c54d a1bb 32e2 debc eec1 d0bc 9f8f 963c

bias f4 [512]
-0.09395463 -0.1099218 -0.08844324 0.054903958 0.01101454 -0.13479887 -0.10065942 0.0030625148
-0.13934901 0.008230019 -0.050745826 -0.009630537 0.0050562667 -0.08780115 -0.07566319 -0.08018213
-0.032259062 -0.10125402 0.029122263 -0.012760458 0.013170962 -0.15175927 -0.06198647 -0.09239996
0.028091619 0.088520534 -0.13212864 -0.12953885 -0.16099483 -0.041963488 -0.19383514 0.13551448
0.004195764 -0.0038695936 -0.04594221 -0.08666974 -0.028941803 -0.02375846 -0.007928221 -0.07250506
0.004257574 -0.032004476 -0.027116653 0.05783628 -0.027374787 0.06797023 -0.025913345 0.014799925
0.018567925 -0.05178214 -0.03193517 -0.0063346224 -0.091734305 0.0011695331 -0.027485054 -0.05563603
-0.09229932 -0.05919945 -0.09973814 0.031001277 -0.040304784 -0.14654495 0.058586054 0.071822
-0.058977854 0.010542373 -0.06923572 -0.09800447 -0.064922385 0.04298181 0.0046296306 -0.1777292
-0.028472915 0.024308767 0.16388002 -0.035192993 0.025972025 -0.0016054112 0.12073025 0.015817286
-0.093159504 -0.13923483 0.009755166 0.06506645 0.03471204 0.04387832 -0.061708827 -0.13048932
0.046612803 0.013959228 0.0024484713 -0.015248379 0.01511901 0.018827612 -0.11502555 0.07302279
-0.21257173 0.039105695 0.025020346 -0.10467427 -0.027557785 0.048431963 -0.01697873 0.011031141
-0.16455294 -0.0018521349 0.05215891 -0.13235031 0.09735052 -0.18729028 -0.07813047 -0.05456558
0.033314906 -0.067470275 0.046295896 0.08448588 -0.053577077 -0.04483787 -0.029838853 -0.13025011
0.030447513 -0.024027208 0.072956316 -0.03098348 -0.0818807 -0.08080282 -0.079263896 0.030264316
-0.095190324 -0.09214584 -0.094163306 0.022390151 -0.051692672 0.103657365 0.044183627 0.0030860112
-0.10997583 0.0013025444 -0.064673044 0.009406262 -0.18264148 -0.23820367 0.009016454 -0.11144907
0.0786834 -0.07268998 -0.10063455 -0.040981967 -0.14515173 -0.05809331 0.06655169 -0.022747267
-0.012233531 -0.20838962 -0.05487907 0.034047443 0.003610988 0.055658292 -0.13809122 0.054352812
-0.059556536 -0.06767803 -0.012906526 -0.04898238 -0.06994598 -0.06767136 -0.049146503 0.098131
-0.045143828 0.051410615 0.07511053 -0.21206239 -0.14468667 -0.09476587 -0.120467916 -0.023848249
0.07010277 0.03776664 0.08996884 0.020904757 -0.07550115 -0.026487155 -0.07649009 -0.045218196
0.03104126 -0.07283764 -0.009475107 -0.008818374 0.04672309 0.006433002 0.07979617 -0.057989225
-0.04145932 0.09385567 -0.008499584 0.09058717 0.011162946 -0.037522893 -0.08746327 0.023460565
0.08209071 -0.14916639 0.050117433 -0.1060554 -0.013780341 -0.058984738 -0.119599044 -0.08659157
0.01988955 0.028163468 -0.073472895 -0.087831184 -0.047187254 -0.060299754 -0.035513856 -0.1657215
-0.10589437 0.022125047 0.06676467 0.009211472 -0.017131645 0.07843859 0.040705264 -0.054814786
0.1076135 -0.10773687 -0.04135222 -0.2566079 -0.04676462 0.08230096 -0.112762146 -0.0921575
0.0017488893 -0.026982829 -0.10033113 -0.07893785 -0.016241575 0.040006325 -0.13527435 0.048722062
-0.024033848 -0.014390602 0.058052476 -0.050466284 -0.078224145 -0.12728043 -0.1171226 -0.06689641
-0.17379929 -0.043754082 0.072422035 -0.16060801 -0.05857872 -0.048250005 0.052828915 -0.030336104
00000000: 496b c0bd ae1e e1bd bb21 b5bd f9e2 603d
00000010: 5476 343c b708 0abe 8726 cebd 79b4 483b
00000020: 82b1 0ebe 34d7 063c dbda 4fbd 66c9 1dbc
00000030: 0aaf a53b 17d1 b3bd 4df5 9abd 8736 a4bd
00000040: 1422 04bd 455e cfbd d091 ee3c 3d11 51bc
00000050: 05cb 573c c866 1bbe 86e5 7dbd 313c bdbd
00000060: 6520 e63c 414a b53d bb4c 07be d5a5 04be
00000070: d4db 24be e8e1 2bbd b87c 46be 4fc4 0a3e
00000080: 9f7c 893b 0299 7dbb e62d 3cbd e87f b1bd
00000090: 5c17 edbc 1aa1 c2bc 5ee5 01bc 887d 94bd
000000a0: 1f83 8b3b 2017 03bd be23 debc bce5 6c3d
000000b0: 1741 e0bc fa33 8b3d 3948 d4bc 627b 723c
000000c0: c31b 983c 8219 54bd 74ce 02bd aa92 cfbb
000000d0: 32df bbbd 054b 993a 5628 e1bc 9be2 63bd
000000e0: 6d07 bdbd 1f7b 72bd 8343 ccbd 64f6 fd3c
000000f0: a116 25bd e10f 16be eef7 6f3d 6a17 933d
00000100: c392 71bd ebb9 2c3c 75cb 8dbd 91b6 c8bd
00000110: 07f6 84bd b20d 303d 28b4 973b a5fe 35be
00000120: 0840 e9bc 2e23 c73c 2ad0 273e 8726 10bd
00000130: 49c3 d43c a96c d2ba 6c41 f73d 4193 813c
00000140: 69ca bebd 9393 0ebe 22d4 1f3c 8f41 853d
00000150: 362e 0e3d c1b9 333d 65c2 7cbd fe9e 05be
00000160: 11ed 3e3d 3fb5 643c 8876 203b 56d4 79bc
00000170: b9b5 773c 5d3c 9a3c 8492 ebbd f98c 953d
00000180: 67ac 59be 4b2d 203d 78f7 cc3c 775f d6bd
00000190: ddc0 e1bc 9860 463d fa16 8bbc f5bb 343c
000001a0: 9180 28be 56c3 f2ba 95a4 553d d786 07be
000001b0: b65f c73d 06c9 3fbe de02 a0bd 2880 5fbd
000001c0: 3675 083d db2d 8abd c4a0 3d3d ef06 ad3d
000001d0: a373 5bbd eaa7 37bd 9c70 f4bc 4960 05be
000001e0: 106d f93c b5d4 c4bc 1f6a 953d 11d1 fdbc
000001f0: 12b1 a7bd f37b a5bd 1c55 a2bd dfec f73c
00000200: 25f3 c2bd f5b6 bcbd b1d8 c0bd 8d6b b73c
00000210: b2bb 53bd 504a d43d e4f9 343d ad3e 4a3b
00000220: 023b e1bd 23ba aa3a 4d73 84bd b91c 1a3c
00000230: 5e06 3bbe aaeb 73be c0b9 133c 693f e4bd
00000240: c324 a13d 7cde 94bd 7d19 cebd b5dc 27bd
00000250: a8a2 14be 40f3 6dbd 414c 883d 7a58 babc
00000260: 266f 48bc 1764 55be e0c8 60bd 5575 0b3d
00000270: 53a6 6c3b f3f9 633d c967 0dbe 0ea1 5e3d
00000280: 8ef1 73bd c79a 8abd e575 53bc c0a1 48bd
00000290: d73f 8fbd 4897 8abd d84d 49bd e8f8 c83d
000002a0: bce8 38bd f093 523d 8dd3 993d e226 59be
000002b0: be28 14be 9c14 c2bd e2b7 f6bd 675d c3bc
000002c0: 0b92 8f3d 31b1 1a3d 9541 b83d 7440 ab3c
000002d0: 59a0 9abd 97fb d8bc d6a6 9cbd b736 39bd
000002e0: 3e4a fe3c e72b 95bd 7b3d 1bbc f17a 10bc
000002f0: b660 3f3d efcb d23b 2d6c a33d 1c86 6dbd
00000300: 3fd1 29bd 6737 c03d d741 0bbc c485 b93d
00000310: cae4 363c 9bb1 19bd f11f b3bd 5f30 c03c
00000320: 2d1f a83d 13bf 18be f047 4d3d 9333 d9bd
00000330: f0c6 61bc fb99 71bd 58f0 f4bd ec56 b1bd
00000340: 69ef a23c 13b7 e63c f578 96bd d6e0 b3bd
00000350: 6c47 41bd e0fc 76bd fa76 11bd e6b2 29be
00000360: 26df d8bd 963f b53c eabb 883d b7eb 163c
00000370: aa57 8cbc 69a4 a03d 90ba 263d 7885 60bd
00000380: 7764 dc3d 26a5 dcbd f260 29bd 1c62 83be
00000390: 428c 3fbd 688d a83d d7ef e6bd 12bd bcbd
000003a0: fd3a e53a 180b ddbc 687a cdbd 2baa a1bd
000003b0: 0d0d 85bc acdd 233d 5c85 0abe c990 473d
000003c0: a2e2 c4bc 8fc6 6bbc 6fc8 6d3d bcb5 4ebd
000003d0: fb33 a0bd cd55 02be f9dd efbd fc00 89bd
000003e0: 71f8 31be 7b37 33bd 0152 943d 6d76 24be
000003f0: 3df0 6fbd cca1 45bd 2263 583d 6c83 f8bc

weight f4 [128, 512]
-0.014983337 0.039718397 0.032850053 -0.03648255 0.01494497 0.006529721 0.05543101 -0.02881764
0.060861208 -0.03441657 -0.010508441 -0.012574562 0.014356534 0.025101377 0.011290351 0.026613379
0.026802592 0.022796426 -0.02596563 -0.027482653 -0.012302393 0.034681883 0.036597338 -0.01910092
0.014130999 -0.02746138 -0.0521083 -0.004129132 -0.016448911 0.020548256 0.053355906 0.014750343
0.034526214 -0.00865148 0.013092685 -0.026843846 0.040627457 -0.0035248785 0.028735122 0.007101785
-0.009912771 -0.016239678 0.0032257254 -0.0045999843 -0.029714437 0.031808835 0.029288787 -0.037934344
0.04565098 0.038705975 -0.013526532 -0.023883842 0.010169257 0.064200304 0.010282403 -0.05494858
-0.003550133 0.007778468 -0.00869015 -0.01747475 0.020689735 0.013646053 0.026379503 0.039138034
0.01872118 -0.02776003 -0.08029078 -0.02403117 -0.03656551 -0.017994313 -0.010297332 0.07493642
-0.0018225586 -0.02769864 -0.08434644 0.016401183 -0.007776421 0.00832898 -0.08377979 0.029687446
0.03706579 0.014293514 -0.116097845 0.026169535 -0.0112948995 0.008722799 0.0005753103 0.0035109064
0.016285634 -0.06242826 -0.011578068 -0.03364767 -0.036977954 0.021102022 -0.07106712 -0.15611109
0.009143657 0.024529051 -0.062373023 -0.036316138 0.0120239295 -0.0014560424 -0.063845515 -0.0564907
0.0052494276 -0.011603257 0.0023904098 0.08446619 0.021803947 -0.015507689 -0.013082138 0.067174606
0.04875782 -0.017108358 0.03368719 -0.0022433412 0.02322973 0.010677487 -0.026218146 -0.033108626
0.010786725 -0.025447927 -0.07298537 0.046837047 -0.0118208965 0.046840273 0.009123464 0.002160151
-0.009251586 -0.07194934 0.04812803 -0.052876707 0.04732202 0.04589065 0.048816495 -0.024799448
0.05842714 0.012375483 -0.043494467 -0.05439259 -0.06490952 0.013824689 0.025836207 -0.012993299
0.014338178 -0.011585492 -0.058487877 -0.004019208 0.0015938574 0.019726807 -0.03620116 -0.05283432
-0.019175174 0.031386133 0.020721732 -0.0046322974 -0.024188753 0.012023904 0.019069012 -0.04580273
0.009846369 -0.027104432 -0.024176368 0.0054923072 0.033430323 0.04283542 -0.0135405855 -0.016802479
0.013807244 -0.06791141 -0.070443876 -0.020331604 -0.030096032 -0.033825453 -0.029578555 -0.0694641
0.0009161272 -0.056431856 0.013429977 0.051867504 -0.012990218 -0.03403947 0.01704847 -0.038568635
-0.06624026 -0.0090361405 0.022386374 0.010489549 -0.009991413 -0.022114484 -0.04675152 0.0021166857
0.011135324 -0.06549207 -0.052347645 -0.056742005 -0.016853098 0.02702062 -0.008737673 -0.053754363
-0.051944554 0.005220495 0.023910953 0.049664825 -0.034569662 -0.039363563 -0.041172862 -0.01523262
0.0036729707 0.030513935 0.028182874 0.021222375 -0.007372558 -0.013357722 0.037270267 0.048830707
0.0059035216 -0.04222453 -0.008324131 -0.08778542 0.004195739 -0.055785645 -0.041396618 -0.009688461
-0.06170399 0.029314095 0.044356078 0.046417337 0.035253778 -0.08741423 -0.0053059156 0.041287094
-0.006522372 -0.06534831 0.00656706 0.0048639462 -0.0169899 -0.025931492 -0.01529531 -0.05131145
-0.039277434 0.026981495 0.018821707 0.013931923 -0.023025852 -0.024962787 0.036477458 0.043075603
-0.04911516 -0.033492982 -0.033755835 0.049696367 -0.048071943 0.018748924 -0.01582211 -0.0018650995
00000000: ac7c 75bc c2af 223d c78d 063d ba6e 15bd
00000010: bfdb 743c 45f7 d53b a00b 633d f912 ecbc
00000020: 9a49 793d 64f8 0cbd 992b 2cbc 8905 4ebc
00000030: ab37 6b3c 67a1 cd3c 2afb 383c 4d04 da3c
00000040: 1c91 db3c 92bf ba3c dfb5 d4bc 4d23 e1bc
00000050: fa8f 49bc 970e 0e3d 17e7 153d 8879 9cbc
00000060: b585 673c b0f6 e0bc 836f 55bd ab4d 87bb
00000070: debf 86bc d154 a83c b98b 5a3d 6cab 713c
00000080: 5c6b 0d3d f0be 0dbc b382 563c a0e7 dbbc
00000090: fa68 263d a601 67bb eb65 eb3c 17b6 e83b
000000a0: 2d69 22bc 1309 85bc b166 533b 77bb 96bb
000000b0: b16b f3bc fb49 023d 0aef ef3c 0b61 1bbd
000000c0: 86fc 3a3d 288a 1e3d 639e 5dbc 0ca8 c3bc
000000d0: f59c 263c 737b 833d 8677 283c c311 61bd
000000e0: 59a9 68bb 85e2 fe3b 2261 0ebc 3527 8fbc
000000f0: 857d a93c b293 5f3c d419 d83c 344f 203d
00000100: 295d 993c 0169 e3bc 7e6f a4bd 04dd c4bc
00000110: b7c5 15bd cf68 93bc 24b6 28bc 4478 993d
00000120: ebe2 eeba 42e8 e2bc d4bd acbd c65b 863c
00000130: 59d1 febb 4676 083c bd94 abbd 1633 f33c
00000140: 4cd2 173d 582f 6a3c b5c4 edbd 7e61 d63c
00000150: 3e0e 39bc 12ea 0e3c 6cd0 163a 3c17 663b
00000160: 7369 853c c6b4 7fbd f0b1 3dbc 24d2 09bd
00000170: 3276 17bd 26de ac3c a38b 91bd 96db 1fbe
00000180: 47cf 153c 26f1 c83c db7a 7fbd 3bc0 14bd
00000190: 0400 453c add8 beba 70c1 82bd cb62 67bd
000001a0: 6403 ac3b 961b 3ebc 6ca8 1c3b 9cfc ac3d
000001b0: 319e b23c f613 7ebc 7756 56bc d792 893d
000001c0: 48b6 473d d426 8cbc 94fb 093d 0505 13bb
000001d0: 464c be3c a0f0 2e3c 70c7 d6bc e99c 07bd
000001e0: ceba 303c 2c78 d0bc 5b79 95bd 34d8 3f3d
000001f0: 6fac 41bc 96db 3f3d 957a 153c 5291 0d3b
00000200: f793 17bc 2d5a 93bd e621 453d 3f95 58bd
00000210: bcd4 413d d6f7 3b3d cef3 473d 3628 cbbc
00000220: 4c51 6f3d 8ac2 4a3c 4127 32bd c4ca 5ebd
00000230: 48ef 84bd f380 623c 74a6 d33c d9e1 54bc
00000240: adea 6a3c 13d1 3dbc fc90 6fbd 8fb3 83bb
00000250: fbe8 d03a 1d9a a13c ab47 14bd cd68 58bd
00000260: 4115 9dbc bf8e 003d 9fc0 a93c 87ca 97bb
00000270: 7e27 c6bc e9ff 443c 9e36 9c3c a59b 3bbd
00000280: aa52 213c 1d0a debc 850d c6bc d0f8 b33b
00000290: 3cee 083d 3274 2f3d 55d9 5dbc 5aa5 89bc
000002a0: c737 623c 2315 8bbd e144 90bd 778e a6bc
000002b0: f48b f6bc 8f8c 0abd ba4e f2bc 3243 8ebd
000002c0: 4128 703a 1725 67bd 6809 5c3c 0573 543d
000002d0: ecd4 54bc f96c 0bbd 3ca9 8b3c 25fa 1dbd
000002e0: f9a8 87bd 520c 14bc a163 b73c 5bdc 2b3c
000002f0: 06b3 23bc 6f29 b5bc 867e 3fbd 18b8 0a3b
00000300: ef70 363c b520 86bd 7c6a 56bd 4e6a 68bd
00000310: 820f 8abc 595a dd3c 7528 0fbc 892d 5cbd
00000320: d0c3 54bd b010 ab3b e7e0 c33c 586d 4b3d
00000330: eb98 0dbd b03b 21bd e0a4 28bd 3d92 79bc
00000340: 39b6 703b 5cf8 f93c c5df e63c 8cda ad3c
00000350: 8095 f1bb 59da 5abc b5a8 183d b502 483d
00000360: 5472 c13b a1f3 2cbd f061 08bc d8c8 b3bd
00000370: 697c 893b 7d7f 64bd 808f 29bd 5abc 1ebc
00000380: 53bd 7cbd 1d24 f03c b8ae 353d 1b20 3e3d
00000390: 4466 103d 3b06 b3bd 3fdd adbb a81c 293d
000003a0: 9fb9 d5bb 56d5 85bd 7e30 d73b bd61 9f3b
000003b0: 672e 8bbc 486e d4bc 2e99 7abc f42b 52bd
000003c0: 60e1 20bd 4c08 dd3c fb2f 9a3c b842 643c
000003d0: b6a0 bcbc c27e ccbc 6369 153d 0b70 303d
000003e0: fa2c 49bd f02f 09bd 8f43 0abd 6b8e 4b3d
000003f0: 16e7 44bd 5897 993c 5f9d 81bc 5b76 f4ba

bias f4 [128]
-0.09630129 -0.002615159 -0.040427603 -0.00806485 0.035829537 -0.09000157 0.026904454 -0.06452695
-0.13068955 -0.12406431 0.002881119 0.05577575 -0.055361263 0.014311627 -0.058171663 -0.019489726
0.024205884 -0.03354365 -0.08405525 0.026757587 0.03397093 0.026482634 -0.10988002 -0.035322286
0.0645192 0.018487494 -0.0240145 -0.020938734 0.007386176 -0.07109352 -0.0016922237 -0.010885314
-0.03555234 -0.018743647 -0.08426863 0.08982749 0.013182113 -0.12774408 -0.03593924 -0.1009329
0.07102008 0.08351417 -0.03267321 -0.078352116 -0.1283662 -0.03126143 0.024227422 0.004452013
0.025298461 0.027730806 -0.022158906 0.035592183 0.052459765 -0.053207662 -0.07155057 0.080577165
0.035696078 -0.00067309063 0.07648119 -0.086888805 0.019027386 -0.0035723567 -0.10592365 -0.0059556463
0.0033465875 0.063415065 -0.077061534 -0.009259743 0.07323265 -0.035233207 -0.080989815 0.07912439
-0.03280924 0.03765276 -0.030246018 0.01797444 0.09286228 -0.051561628 -0.056867186 -0.028000738
-0.05643762 -0.0035139446 -0.016922196 -0.0125776 -0.011944302 0.054587003 -0.10610406 -0.049950738
0.01381698 0.041329894 -0.0406501 -0.0070776837 0.023092445 -0.05824957 0.06559965 -0.06404903
-0.030421872 0.090718955 -0.031202482 0.048667237 0.080141306 0.0807725 0.082363084 -0.011171744
-0.081103995 -0.07053232 -0.019901844 0.1148252 0.08640164 -0.017867897 -0.061496988 -0.059232876
-0.04867245 -0.055332944 0.024021879 0.0503237 0.026440354 -0.069651894 -0.06952445 -0.046910852
-0.087528795 -0.038341418 -0.04890209 -0.032828297 -0.0062524844 0.02350197 -0.022877505 -0.0682569
00000000: 9c39 c5bd 1663 2bbb 6a97 25bd 6f22 04bc
00000010: fec1 123d be52 b8bd bb66 dc3c b526 84bd
00000020: 7bd3 05be 6e15 febd 28d1 3c3b 1d75 643d
00000030: 7ec2 62bd 507b 6a3c 6945 6ebd eba8 9fbc
00000040: 6b4b c63c 1165 09bd 2925 acbd ba32 db3c
00000050: 1a25 0b3d 1cf2 d83c c708 e1bd 1aae 10bd
00000060: a422 843d 1673 973c 0fba c4bc b587 abbc
00000070: bc07 f23b 7b99 91bd 9bcd ddba 5158 32bc
00000080: 559f 11bd 478c 99bc 0895 acbd 7af7 b73d
00000090: caf9 573c 58cf 02be 0635 13bd e9b5 cebd
000000a0: fa72 913d 7a09 ab3d 58d4 05bd 1377 a0bd
000000b0: 6e72 03be fc0b 00bd 9678 c63c 31e2 913b
000000c0: b83e cf3c b72b e33c 9886 b5bc 1cc9 113d
000000d0: 0de0 563d 47f0 59bd 1b89 92bd a405 a53d
000000e0: 0d36 123d 5972 30ba 2ca2 9c3d c2f2 b1bd
000000f0: 52df 9b3c 331e 6abb 80ee d8bd 9527 c3bb
00000100: 6c52 5b3b c2df 813d 70d2 9dbd 2db6 17bc
00000110: 00fb 953d b250 10bd fddd a5bd f80b a23d
00000120: fb62 06bd c839 1a3d 7fc6 f7bc 223f 933c
00000130: 942e be3d 4932 53bd 91ed 68bd ce61 e5bc
00000140: 222b 67bd 354a 66bb 6ba0 8abc 4712 4ebc
00000150: 09b2 43bc 9f96 5f3d 164d d9bd 2599 4cbd
00000160: 9d60 623c 8949 293d b880 26bd eaeb e7bb
00000170: 5e2c bd3c 1a97 6ebd 1c59 863d 232c 83bd
00000180: 4a37 f9bc dcca b93d 599c ffbc 4c57 473d
00000190: 2021 a43d 0d6c a53d faad a83d b109 37bc
000001a0: da19 a6bd 4073 90bd 3109 a3bc 7929 eb3d
000001b0: 58f3 b03d b25f 92bc 44e4 7bbd 2c9e 72bd
000001c0: c35c 47bd cca4 62bd 88c9 c43c 3920 4e3d
000001d0: 7199 d83c a7a5 8ebd d662 8ebd 9825 40bd
000001e0: 4c42 b3bd e40b 1dbd 8f4d 48bd f776 06bd
000001f0: a4e1 ccbb 3487 c03c 9b69 bbbc 46ca 8bbd

weight f4 [1, 128]
-0.01985913 0.08788806 -0.007117748 0.0011009176 -6.4818254e-05 -0.04776088 0.016286042 -0.06964536
-0.036334176 -0.062273964 0.08782307 0.06615497 -0.08393023 0.0356256 -0.015146151 -0.046551958
0.042023603 0.0004922577 -0.016174316 0.03456036 0.03669642 0.016491788 -0.0033711737 0.057914544
0.03707628 0.00072186725 -0.026782652 -0.004102904 0.057436813 -0.044814162 0.0869615 0.018036004
-0.005224092 -0.11065211 -0.042315993 0.057262518 0.039387457 -0.045645833 0.00043656182 -0.06365452
0.04597584 0.041983347 0.079205595 -0.042677917 -0.026681947 -0.027848031 0.071704015 0.07205487
0.047512993 0.089202195 -0.037673134 0.08231457 0.05353173 -0.0007802367 -0.013125599 0.05167014
0.06939078 0.001154966 0.03168013 -0.063463345 0.044174496 0.021211917 -0.034677085 0.0011213016
0.031272568 0.029331217 -0.025646646 -0.04332665 0.04055591 -0.015330805 -0.070284516 0.038346045
0.019141335 0.005305847 -0.0002952862 -0.0033356438 0.0068702777 -0.037844744 -0.05469128 -0.00811452
-0.043919045 -0.027173381 -0.011436735 0.09113366 -0.01511761 9.8488694e-05 -0.039444488 -0.019716378
-0.0044415793 0.08534587 -0.00086378463 -0.07375021 0.012830788 -0.014406322 0.0011191345 -0.0016316896
-0.04656715 0.03510654 -0.07982616 0.060288083 0.07414496 0.05192639 0.023293026 0.011026193
-0.014248976 -0.004294256 -0.0011398263 0.025234135 0.040841904 -0.03216203 -0.013048592 -0.03658132
-0.0016266193 -0.008120735 0.021291167 0.035120334 0.04849436 -0.071856335 -0.020025967 0.12255232
-0.00807528 -0.004663853 -0.012184601 -0.08825001 0.032248702 0.0006896873 -0.00041626647 -0.028516132
00000000: 9daf a2bc a8fe b33d ff3b e9bb aa4c 903a
00000010: 09ef 87b8 eaa0 43bd 4e6a 853c 3aa2 8ebd
00000020: 25d3 14bd fc12 7fbd 95dc b33d 427c 873d
00000030: 9de3 abbd 26ec 113d 9027 78bc 44ad 3ebd
00000040: f120 2c3d db0a 013a 0080 84bc 2a8f 0d3d
00000050: fc4e 163d c919 873c e9ee 5cbb cd37 6d3d
00000060: 4cdd 173d b13b 3d3a 4b67 dbbc a771 86bb
00000070: dd42 6b3d 0e8f 37bd df18 b23d 3ec0 933c
00000080: dc2e abbb 939d e2bd 8953 2dbd 1a8c 6a3d
00000090: be54 213d 20f7 3abd 56e2 e439 4d5d 82bd
000000a0: 2a51 3c3d bbf6 2b3d 8b36 a23d 0acf 2ebd
000000b0: 1994 dabc 8e21 e4bc 8ed9 923d 8191 933d
000000c0: fc9c 423d a4af b63d 254f 1abd 8b94 a83d
000000d0: 1644 5b3d cc88 4cba c10c 57bc 12a4 533d
000000e0: c11c 8e3d 3a62 973a 06c3 013d 12f9 81bd
000000f0: 51f0 343d 9dc4 ad3c 8f09 0ebd a3f8 923a
00000100: aa17 003d 0548 f03c ea18 d2bc 4977 31bd
00000110: f41d 263d 0f2e 7bbc 54f1 8fbd be10 1d3d
00000120: 4ace 9c3c acdc ad3b a5d0 9ab9 d19a 5abb
00000130: 1120 e13b 1703 1bbd f703 60bd c4f2 04bc
00000140: 75e4 33bd b69a debc 2561 3bbc 49a4 ba3d
00000150: daaf 77bc b78b ce38 8b90 21bd 3e84 a1bc
00000160: ab8a 91bb d1c9 ae3d 9b6f 62ba 5a0a 97bd
00000170: 3a38 523c 7e08 6cbc ecaf 923a 6bde d5ba
00000180: 32bd 3ebd e0cb 0f3d e67b a3bd a3f0 763d
00000190: 50d9 973d c4b0 543d 04d1 be3c 35a7 343c
000001a0: 8974 69bc d5b6 8cbb 3966 95ba d1b7 ce3c
000001b0: d749 273d 55bc 03bd c3c9 55bc 4bd6 15bd
000001c0: 4934 d5ba d50c 05bc d06a ae3c 57da 0f3d
000001d0: 06a2 463d 6a29 93bd 7f0d a4bc b6fc fa3d
000001e0: 2e4e 04bc 3cd3 98bb eca1 47bc 6cbc b4bd
000001f0: 3717 043d 22cc 343a 573e dab9 aa9a e9bc
